output/LSTM2/LSTM2_adam_32_100/model/LSTM2_epoch_7.pth (torch, 243166 bytes, 16 tensors)

lstm.weight_ih_l0 f4 [256, 11]
0	0xbdafa16e	-0.08575712
1	0x3dd0413c	0.101686925
2	0xbd9c81b6	-0.07641928
3	0x3dfc6d91	0.12325586
4	0x3da89003	0.08230593
5	0x3daac55f	0.08338427
6	0xbc6c6ac4	-0.014429752
7	0xbc6b9986	-0.014379865
8	0x3d66d6fd	0.056357373
9	0x3d4f0f31	0.050551597
10	0xbdd374f6	-0.10325043
11	0xbddb4d03	-0.10708048
12	0x3b829aff	0.003985762
13	0xbdd69cc6	-0.10479121
14	0xbe0cbf60	-0.13744879
15	0xbd30791c	-0.04308425
16	0x3d935f55	0.071959175
17	0xbdad5557	-0.08463543
18	0x3db3a48a	0.08771618
19	0x3d9891cc	0.074496835
20	0xbd5db512	-0.05412776
21	0xbd172998	-0.0369049
22	0x3de0e579	0.109812684
23	0x3dfdcac2	0.123921886
24	0xbc8cf5fd	-0.01720714
25	0x3adde8ca	0.0016930338
26	0x3d93cd93	0.072169445
27	0x3da1041e	0.078621134
28	0x3de3841e	0.11109184
29	0xbd2a14b8	-0.041523665
30	0x3cb8f16b	0.022576055
31	0x3da33b7a	0.07970329
32	0xbdc59762	-0.096480146
33	0x3cf241cf	0.029572396
34	0xbdaa406c	-0.08313069
35	0x3dab19d9	0.083545394
36	0xbcda86af	-0.02667555
37	0x3cd7877e	0.026309725
38	0xbdd0bdf0	-0.10192478
39	0xbc696856	-0.014246067
40	0x3d0b0a27	0.03394523
41	0x3d6b49a3	0.057443272
42	0xbd4b9c07	-0.049709346
43	0xbdb4316f	-0.08798491
44	0xbdcd4fc4	-0.1002498
45	0x3d9ecfa1	0.07754446
46	0x3cf6950e	0.030100372
47	0x3df52c82	0.1197138
48	0xbda52afc	-0.08064839
49	0xbdfebebf	-0.12438726
50	0xbd43b17c	-0.047776684
51	0xbd99c562	-0.07508351
52	0x3e00dc12	0.1258395
53	0x3daa5797	0.08317488
54	0xbdbf60cf	-0.09344637
55	0xbdccec81	-0.10006047
56	0xbd9bb586	-0.07602982
57	0x3d879577	0.06620305
58	0xbdcd5b2d	-0.10027156
59	0x3bcd9516	0.006273876
60	0x3dac6319	0.08417339
61	0x3dc471c7	0.09592014
62	0x3c984a7a	0.0185902
63	0xbde4ab85	-0.11165527
64	0xbe02556e	-0.12727901
65	0x3d3e29f8	0.046426743
66	0x3d15eb43	0.036601316
67	0xbda33863	-0.07969739
68	0x3dd10d21	0.10207582
69	0x3db701a2	0.08935858
70	0xbe0818e8	-0.13290751
71	0xbdb706e0	-0.08936858
72	0x3d028ce8	0.03187266
73	0xbbef440e	-0.007301814
74	0xbdcfb2ac	-0.10141501
75	0xbc9230dd	-0.017845565
76	0xbdad0608	-0.08448416
77	0x3d164f4f	0.03669673
78	0x3e107f09	0.1411096
79	0x3dbec0ab	0.09314092
80	0xbdf94535	-0.12171403
81	0x3d75590b	0.05989937
82	0x3dd2e2a9	0.10297138
83	0x3d9f6d9b	0.077845775
84	0x3d8a74e8	0.06760579
85	0xbd91fc8d	-0.07128248
86	0x3c9ad8ce	0.018902209
87	0x3c5cfbda	0.0134877805
88	0xbd3ed6db	-0.04659162
89	0x3db656f1	0.089033015
90	0xbd48aef1	-0.048994962
91	0xbb8e4f9f	-0.0043429877
92	0x3dfc620a	0.12323387
93	0xbbc787f5	-0.0060892054
94	0xbdc8846a	-0.09790881
95	0x3d40ee2a	0.04710213
96	0xbd0c25f0	-0.034215868
97	0xbbee22a1	-0.0072673117
98	0x3d913781	0.07090665
99	0xbd7c068a	-0.061529674
100	0xbd8906b9	-0.06690735
101	0xbc097378	-0.008389346
102	0x3d09289e	0.033486
103	0x3c8968b7	0.016773565
104	0xbdbe7e46	-0.093014285
105	0xbd2f2ee5	-0.04276933
106	0x3d52f339	0.051501486
107	0x3d3e7e28	0.04650703
108	0x3e00de78	0.12584865
109	0x3ca9a050	0.020706326
110	0x3d89635c	0.067084044
111	0x3d967591	0.07346643
112	0xbd9ec6d9	-0.07752771
113	0x3e225202	0.15851596
114	0x3dfb2bbb	0.122642
115	0x3ccb71f4	0.02483461
116	0x3d569891	0.052391592
117	0xbd9d9d95	-0.07696072
118	0xbcd38dfb	-0.025824538
119	0x3dd6917f	0.1047697
120	0x3e297892	0.165499
121	0xbd82fb01	-0.063955314
122	0xbd90e1d7	-0.070743255
123	0x3d17d467	0.037067797
124	0xbd261fa1	-0.040557507
125	0xbddf80b8	-0.10913223
126	0x3d9c49c9	0.07631261
127	0x3acad06c	0.0015473492
128	0x3dd1b1ab	0.102389656
129	0x3d7de9fd	0.061990727
130	0x3dcd461d	0.10023139
131	0x3e135591	0.1438811
132	0xbd65b206	-0.05607798
133	0x3d95631d	0.07294295
134	0xbd17485f	-0.036934253
135	0x3d1964c1	0.037449602
136	0x3dba3786	0.090926215
137	0xbd4f00b4	-0.05053778
138	0xbd36db44	-0.0446427
139	0xbdd4137a	-0.10355277
140	0x3dc84d2b	0.097803436
141	0xbd8a63cf	-0.06757318
142	0xbc02072b	-0.007936279
143	0xbc5816b0	-0.013189003
144	0x3d981ca9	0.074273415
145	0xbdc3afb8	-0.09555
146	0xbd3d3f0b	-0.0462027
147	0xbc063a7e	-0.008192657
148	0x3e04ec9a	0.12980881
149	0x3cffb31c	0.031213336
150	0xbd8cff8a	-0.06884678
151	0x3d0d3b91	0.034480635
152	0xbc4ba374	-0.012429107
153	0xbc6cfc91	-0.014464513
154	0x3c3bb9e1	0.011457891
155	0x3dbf48f8	0.093400896
156	0x3d936f09	0.07198913
157	0x3dadc389	0.08484561
158	0xbddfd17e	-0.10928629
159	0x3dbf6163	0.09344747
160	0x3e05f58c	0.1308195
161	0xbc950b66	-0.018193912
162	0x3dab6f98	0.08370894
163	0x3df8e9f7	0.12154
164	0x3d722614	0.059118345
165	0xbdd9eca2	-0.10640837
166	0xbc411781	-0.011785389
167	0x3d6234e7	0.055226233
168	0x3cd80825	0.026371071
169	0xbd81d70b	-0.06339844
170	0x3d7a325c	0.061083183
171	0xbdc43e3c	-0.09582183
172	0xbdbd8481	-0.09253789
173	0xbc648543	-0.013947788
174	0xbd8d5902	-0.069017425
175	0xbcd65103	-0.026161676
176	0xbe0afa47	-0.13572036
177	0xbdff4348	-0.12464005
178	0xbe00e9c7	-0.12589179
179	0x3d262f46	0.040572427
180	0xbe06cd83	-0.13164334
181	0xbe3b2176	-0.18274483
182	0x3d65081d	0.05591594
183	0xbe15e6a2	-0.1463876
184	0xbd9c77be	-0.076400265
185	0x3d583495	0.05278452
186	0xbe11e62b	-0.14247958
187	0x3ced278c	0.028949521
188	0x3dc6ba4b	0.09703501
189	0x3c2ff731	0.010740087
190	0x3d34ad1a	0.044110395
191	0xbcf0af34	-0.029380418
192	0xbdc1700f	-0.094452016
193	0x3d901d17	0.070367984
194	0x3da0adb5	0.07845632
195	0x3e088a58	0.13334024
196	0x3e14734b	0.14497106
197	0x3dcd319c	0.10019228
198	0x3d509435	0.05092259
199	0x3ca2523e	0.019814607
200	0x3ce6b15d	0.028160745
201	0x3d47bd6e	0.04876464
202	0xbe067188	-0.13129246
203	0x3cb7e7e0	0.022449434
204	0xbdb448a2	-0.08802916
205	0xbb9775b6	-0.0046221865
206	0xbde0774d	-0.10960255
207	0x3dc950df	0.09829878
208	0x3d7fb910	0.06243235
209	0xbdbfb67e	-0.093609795
210	0x3d44f7b4	0.04808779
211	0x3db09382	0.08621885
212	0x3dc0f749	0.09422166
213	0x3d923626	0.07139234
214	0xbe08d06f	-0.13360761
215	0xbe1a76ce	-0.15084383
216	0x3d26875e	0.04065644
217	0x3d9ef97c	0.07762429
218	0xbd25fbb6	-0.040523253
219	0xbd37caed	-0.04487126
220	0x3d902c78	0.07039732
221	0xbd313c64	-0.043270484
222	0xbde14a3f	-0.110004894
223	0xbd6f6c68	-0.058452994
224	0xbd696bb9	-0.056987498
225	0xbd928f2f	-0.07156216
226	0x3c8e9969	0.017407136
227	0xbd85b94e	-0.06529485
228	0x3d208d05	0.039196987
229	0xbc8847d7	-0.016635818
230	0x3d72749d	0.059193242
231	0xbd2566b5	-0.040381152
232	0x3d176342	0.036959894
233	0x3dbbafaf	0.09164368
234	0x3dccb2f8	0.09995073
235	0x3dafe9fe	0.08589552
236	0xbd1b7ff9	-0.03796384
237	0x3d888399	0.06665725
238	0xbd6cfc1a	-0.05785761
239	0x3d9fc7db	0.07801791
240	0x3d518788	0.051154643
241	0x3cbdc6ca	0.02316608
242	0xbb8134b6	-0.003943051
243	0x3c61fe2f	0.013793512
244	0xbd000efc	-0.03126429
245	0x3d84dc04	0.06487277
246	0x3dc18bd9	0.09450502
247	0x3ddd8f22	0.10818316
248	0x3db7dd70	0.08977783
249	0x3e02b1b3	0.127631
250	0xbd7d3679	-0.061819527
251	0xbb0be876	-0.0021348274
252	0xbdb53b1b	-0.08849164
253	0xbcd02e8d	-0.025412822
254	0xbb27ce73	-0.002560523
255	0x3d406eab	0.04698054

lstm.weight_hh_l0 f4 [256, 64]
0	0xbda2782a	-0.07933076
1	0x3d50de7e	0.050993435
2	0xbd808cba	-0.062768415
3	0xbc9f90dd	-0.019478256
4	0xbc524d14	-0.01283576
5	0xbd6dffd0	-0.05810529
6	0xbd1019ea	-0.035180964
7	0x3a44e094	0.00075102714
8	0xbb9beae7	-0.004758227
9	0x3bafe083	0.00536734
10	0xbd7bbb90	-0.06145817
11	0x3dfa1f1b	0.12212964
12	0xbdabc2d2	-0.083867684
13	0x3d805007	0.06265264
14	0xbc61f78a	-0.013791928
15	0x3c06e834	0.0082340725
16	0x3d5164f8	0.051121682
17	0x3bf7e7ce	0.007565475
18	0x3d9d05ff	0.07667159
19	0x3cf24214	0.029572524
20	0xbd9855c4	-0.074382335
21	0x3dcc9662	0.09989621
22	0xbd04e68a	-0.03244642
23	0x3dd555be	0.10416745
24	0xbcca6626	-0.024706911
25	0x3d6a639a	0.057223894
26	0xbd9c0098	-0.07617301
27	0xbbbbd3a1	-0.0057320152
28	0x3dd28e11	0.10281003
29	0x3d7e53bb	0.06209157
30	0xbb38c9b6	-0.00281964
31	0x3d64d8ee	0.055870943
32	0xbd6956ac	-0.056967422
33	0xbd1222ee	-0.035677843
34	0xbd721327	-0.059100296
35	0xbd0325a9	-0.032018337
36	0xbd1f5343	-0.038897764
37	0xbd6813e6	-0.0566596
38	0xbdd77a74	-0.10521403
39	0x3d9da3bc	0.076972455
40	0xbdb7e527	-0.08979254
41	0xbda7724b	-0.081760965
42	0x3d72f52f	0.059315857
43	0x3e04fc5b	0.12986891
44	0x3e04d559	0.1297201
45	0xbdef2fc8	-0.116790354
46	0xbdaed59f	-0.08536839
47	0xbcd5ee8e	-0.026114728
48	0xbd178318	-0.036990255
49	0x3dcf5cc5	0.10125116
50	0xbdafd4ae	-0.08585487
51	0xbd95ddb8	-0.0731768
52	0x3e0b79bd	0.13620658
53	0xbd26eba4	-0.04075207
54	0x3cf103ee	0.02942082
55	0x3d1150ec	0.035477564
56	0xbd1b8584	-0.037969127
57	0xbcd68c7b	-0.026190033
58	0xbc9b3ec9	-0.018950837
59	0x3d5bbb7b	0.053645592
60	0xbd06640f	-0.032810267
61	0xbdf3d818	-0.11906451
62	0x3bc31cfa	0.005954382
63	0xbd9604d4	-0.0732514
64	0x3bfd81f3	0.0077364384
65	0x3a120783	0.00055705773
66	0x3d6aae2b	0.057295006
67	0xbca50cef	-0.020147769
68	0xbdb87682	-0.090069786
69	0x3d9eb5d8	0.07749528
70	0xbddcd0ac	-0.107819885
71	0x3dd6c654	0.10487047
72	0x3de7a879	0.113114305
73	0x3db45f5f	0.08807253
74	0xbdd1eb6e	-0.10249983
75	0xbd8ede04	-0.0697594
76	0xbde57a11	-0.11204923
77	0xbd66ee21	-0.05637944
78	0xbbfc6498	-0.0077024214
79	0xbdb4f40b	-0.0883561
80	0xbdb10802	-0.086441055
81	0x3df283fd	0.11841581
82	0x3db6ef2d	0.08932338
83	0x3ccc83b3	0.024965143
84	0xbd582c17	-0.052776422
85	0x3dfb0d07	0.12258344
86	0xbe0256d1	-0.1272843
87	0xbdd9e8da	-0.10640116
88	0x3da758a6	0.08171205
89	0xbd8bef66	-0.06832771
90	0xbd6cdd6a	-0.057828344
91	0xbd10d24b	-0.0353568
92	0xbd6d1dde	-0.05788981
93	0x3c88f896	0.016720098
94	0x3dc95823	0.09831264
95	0xbd5b3bbc	-0.053523764
96	0x3db647b0	0.08900392
97	0x3d917c30	0.07103765
98	0xbceb2eaf	-0.028708784
99	0xbcd789d2	-0.026310835
100	0xbdf33a6f	-0.1187638
101	0xbd6feac7	-0.05857351
102	0x3d14bba9	0.03631178
103	0x3cf2e04b	0.029647967
104	0xbda2e2c9	-0.07953412
105	0xbb4b3c7e	-0.0031011398
106	0xbdfeec4c	-0.12447414
107	0xbd38cf5c	-0.04511963
108	0x3c525ad9	0.012839043
109	0x3ddec605	0.10877613
110	0xbd2fe700	-0.04294491
111	0xbd3005be	-0.042974226
112	0x3d2dcf53	0.042434048
113	0x3d907bed	0.07054887
114	0xbdc6dc65	-0.09710006
115	0xbc2f01cf	-0.010681584
116	0xbdfd2457	-0.12360447
117	0x3ddba221	0.10724283
118	0x3db27ece	0.08715592
119	0xbda37141	-0.07980586
120	0xbd9c4867	-0.07630997
121	0xbda1a1c2	-0.07892181
122	0xbd054a2a	-0.03254143
123	0x3c0d1c6f	0.008612736
124	0xbdc3e22d	-0.09564624
125	0x3cf8298a	0.030293245
126	0x3d457785	0.048209686
127	0xbd94d686	-0.072674796
128	0x3dcb569e	0.0992863
129	0x3db905da	0.09034319
130	0xbdbf80ea	-0.0935076
131	0x3d3e70b7	0.046494212
132	0xbdaa958d	-0.08329306
133	0x3c91bf65	0.01779146
134	0x3cec983d	0.028881187
135	0x3dc6a5d0	0.09699595
136	0x3c397774	0.011319984
137	0xbde34013	-0.110962056
138	0x3d964f9b	0.07339402
139	0xbdd7933e	-0.10526131
140	0x3d8fb8f7	0.07017701
141	0x3d68531d	0.056719888
142	0x3cc25b38	0.023725137
143	0x3ddc4385	0.10755066
144	0x3d782f52	0.060592003
145	0x3dc719d1	0.09721721
146	0xbdf0f100	-0.11764717
147	0xbdb66f36	-0.089079306
148	0x3c5d5ef4	0.013511408
149	0xbd11ecb9	-0.035626147
150	0xbc87a15d	-0.016556436
151	0x3d08e8de	0.033425204
152	0x3deefa0c	0.116687864
153	0xbb2a1802	-0.0025954251
154	0xbdc5893e	-0.096453175
155	0xbdab3e1d	-0.083614565
156	0x3d3f6bbd	0.046733607
157	0xbc69d8ea	-0.014272908
158	0x3d13c740	0.03607869
159	0xbdaa2833	-0.08308449
160	0xbb642b8c	-0.0034815995
161	0x3dcb0d43	0.09914639
162	0x3d46497c	0.048409924
163	0x3d2c1ce7	0.04201975
164	0xbdb12baa	-0.086509064
165	0xbdd3971c	-0.10331556
166	0x3ddb21d3	0.10699811
167	0xbd0e640b	-0.034763377
168	0x3d3769e2	0.044778712
169	0xbdd1cac9	-0.10243756
170	0xbcbe4f95	-0.023231307
171	0x3de51364	0.11185339
172	0xbd470db4	-0.048597053
173	0x3d69517d	0.05696248
174	0xbd17943f	-0.037006613
175	0xbdc5a710	-0.09651005
176	0x3d3b5239	0.04573271
177	0x3da78577	0.08179753
178	0xbc884b11	-0.016637357
179	0xbde3e341	-0.111273296
180	0x3bfdcefd	0.007745622
181	0xbd977efa	-0.07397266
182	0xbd7470b6	-0.059677802
183	0xbd1d096b	-0.03833906
184	0xbdbd2df7	-0.09237283
185	0x3c4a721a	0.0123563055
186	0x3dc1bf8f	0.09460365
187	0x3da01651	0.078167565
188	0xbde82f81	-0.11337186
189	0xbdcaa6a9	-0.09895069
190	0xbd3a470a	-0.045477904
191	0x3de12b87	0.1099463
192	0xbcf94d04	-0.030432232
193	0x3cec3449	0.028833525
194	0xbd76cefe	-0.060255997
195	0xbcd2a182	-0.025711779
196	0xbdfd5748	-0.12370163
197	0xbc4446f5	-0.011979808
198	0x3d3a6307	0.045504596
199	0xbce93bc4	-0.028470881
200	0xbc31ba9a	-0.010847712
201	0xbd2a380b	-0.041557353
202	0xbd62d3bc	-0.055377707
203	0x3d77b08b	0.0604711
204	0x3dfd1f26	0.12359457
205	0x3d8b05b7	0.067881994
206	0xbd7c665e	-0.061621062
207	0x3dd3287b	0.103104554
208	0x3d781999	0.060571287
209	0xbdc4d331	-0.09610594
210	0x3d9aff41	0.07568217
211	0xbb8f77a7	-0.0043782773
212	0x3d8d2c04	0.06893161
213	0xbd60e574	-0.054906324
214	0x3c8c2d13	0.017111337
215	0xbbda2d68	-0.006658245
216	0x3db2b66c	0.087262005
217	0xbd95886f	-0.07301413
218	0xbdf881b2	-0.121341124
219	0xbd7f29db	-0.062295776
220	0xbbedec73	-0.007260853
221	0xbcf030da	-0.02932017
222	0xbcad4d3d	-0.021154994
223	0x3dfde87a	0.12397857
224	0xbd8141a8	-0.06311351
225	0x3da24dca	0.07924993
226	0x3d141af6	0.036158524
227	0x3e093730	0.13399959
228	0x3d21f200	0.03953743
229	0xbde6edbe	-0.112758145
230	0x3cbbd77a	0.022929896
231	0x3e06d97c	0.13168901
232	0xbdc67e22	-0.09692027
233	0xbd9ad157	-0.0755946
234	0xbdf436a2	-0.11924483
235	0x3c8eae20	0.017417014
236	0xbd4e6726	-0.05039134
237	0xbdb5c3f0	-0.08875263
238	0x3dd58fd7	0.10427826
239	0xbd784dcf	-0.06062108
240	0xbd8092d6	-0.06278007
241	0x3c3572e1	0.011074753
242	0x3cae518c	0.021279119
243	0x3d15426f	0.03644031
244	0xbd1a6ae3	-0.03769959
245	0xbdc0f17b	-0.09421059
246	0x3d208d09	0.039197
247	0xbd9c75fb	-0.076396905
248	0x3c390671	0.01129304
249	0xbd64d701	-0.055869106
250	0xbd5411d3	-0.05177481
251	0x3c7ca9e0	0.015421361
252	0xbd864b47	-0.06557327
253	0xbd9313a4	-0.071814805
254	0xbd8aacfc	-0.067712754
255	0xbc801d27	-0.0156389

lstm.bias_ih_l0 f4 [256]
0	0xbd0c602f	-0.034271415
1	0xbd1cdb49	-0.038295064
2	0x3df1ea2a	0.118122414
3	0x3d8bfe15	0.06835572
4	0xbc0f5341	-0.008747877
5	0xbdc5460b	-0.096325
6	0xbd877497	-0.066140346
7	0xbde217c2	-0.11039688
8	0xbc813d3c	-0.01577627
9	0x3d7610bf	0.060074564
10	0xbbad9253	-0.005296984
11	0x3c950c9d	0.018194491
12	0x3dccf173	0.1000699
13	0x3d34eec1	0.044173006
14	0xbded47b0	-0.11585939
15	0x3dae3af5	0.08507339
16	0x3d156646	0.03647449
17	0x3de3be31	0.111202605
18	0x3cf5736b	0.029962262
19	0xbcbcc872	-0.023044799
20	0xbc99ded5	-0.018783012
21	0xbdf8bc2c	-0.12145266
22	0x3d1b2424	0.037876263
23	0x3c90f9d5	0.017697254
24	0xbcb586ca	-0.022158999
25	0x3b9cdf01	0.0047873263
26	0xbd8de64a	-0.0692869
27	0xbcaaaee4	-0.020835347
28	0xbcf54d70	-0.029944152
29	0x3dbefd55	0.09325663
30	0x3ca790ef	0.020454852
31	0x3d6cd5c9	0.05782107
32	0xbd08aab0	-0.033365905
33	0x3c5d6c14	0.013514537
34	0xbdb01fb7	-0.08599799
35	0xbdd41f8a	-0.10357578
36	0x3b29e722	0.002592512
37	0xbd0d7169	-0.034531984
38	0xbd9c2dbd	-0.076259114
39	0xbd87ddee	-0.066341266
40	0x3c8d9670	0.017283648
41	0x3d8a3921	0.06749178
42	0x3cbdcf76	0.023170214
43	0xbbfff574	-0.0078112427
44	0x3de0b6b3	0.10972347
45	0x3def4d33	0.116846465
46	0x3d3172f6	0.043322526
47	0xbc17b232	-0.009258794
48	0xbc6c97d6	-0.014440497
49	0x3cb95f85	0.022628555
50	0x3cdccc82	0.026952986
51	0x3dbf823a	0.093510106
52	0xbdc69779	-0.0969686
53	0xbd5ff8f3	-0.054680776
54	0x3d8383f2	0.06421651
55	0xbd871e9c	-0.06597635
56	0xbcd5b512	-0.026087318
57	0xbd29f88b	-0.041496795
58	0x3c00d642	0.007863583
59	0x3d030aad	0.031992603
60	0x3dcd4f35	0.10024873
61	0x3dfcc605	0.12342457
62	0x3d87cd7a	0.066309884
63	0x3da4c03c	0.08044478
64	0x3d605e0b	0.054777186
65	0xbbe2d795	-0.006922672
66	0xbc88db71	-0.0167062
67	0xbdb0e699	-0.08637733
68	0xbde7ad09	-0.11312301
69	0x3ccabfff	0.024749754
70	0x3dd56184	0.1041899
71	0x3d64827d	0.055788506
72	0x3c5346d4	0.012895305
73	0xbd446dd3	-0.0479563
74	0x3d1eb53d	0.03874706
75	0xbd703032	-0.058639713
76	0x3bf5ad4f	0.0074974666
77	0xbcaaa1a7	-0.020829035
78	0xbd9eb3e4	-0.07749155
79	0xbd177329	-0.03697506
80	0x3d5f085d	0.054451335
81	0x3da6b0db	0.08139201
82	0x3d3c5470	0.045978963
83	0x3d0ec336	0.034854136
84	0x3d9a8efd	0.07546804
85	0xbd02c4f4	-0.03192611
86	0xbd59e0ed	-0.05319302
87	0xbddac8e0	-0.10682845
88	0x3e066fa5	0.13128527
89	0x3e109d1c	0.14122432
90	0x3d77186e	0.060326032
91	0x3a45e094	0.00075484184
92	0xbde30896	-0.11085622
93	0xbe094d43	-0.1340838
94	0xbd1fb339	-0.03898928
95	0xbb1693d2	-0.0022976291
96	0x3d811a7d	0.0630388
97	0xbdaafd83	-0.08349135
98	0x3db05899	0.08610649
99	0xbd89aad7	-0.06722038
100	0x3da71c33	0.081596754
101	0xbdb2c7b1	-0.08729494
102	0xbd931a51	-0.07182754
103	0xbd97e8e8	-0.0741747
104	0xbdccab42	-0.09993602
105	0xbdd7bc26	-0.10533933
106	0xbdabd271	-0.08389748
107	0x3ca8285f	0.020527063
108	0x3e138e80	0.14409828
109	0x3e00618c	0.12537211
110	0xbdc6cb96	-0.097068
111	0x3d33ffce	0.043945126
112	0x3dcb9f24	0.09942463
113	0x3d080e6e	0.033216886
114	0x3d233514	0.03984554
115	0x3da3598a	0.079760626
116	0xbd95d726	-0.07316427
117	0xbde993cd	-0.11405144
118	0x3cc8d595	0.024515906
119	0x3dafce70	0.08584297
120	0x3d274692	0.040838785
121	0xbdaedef8	-0.08538622
122	0xbd9dff07	-0.07714658
123	0xbd23c258	-0.039980263
124	0x3db0d891	0.08635057
125	0x3d7196d2	0.058981724
126	0x3d2bd19b	0.041947942
127	0xbdf07439	-0.11740918
128	0x3d50fd84	0.05102302
129	0x3d74cf72	0.059768148
130	0x3d5b5c6c	0.053554937
131	0xbd0f0d25	-0.034924645
132	0x3d706c67	0.05869713
133	0xbdc896f8	-0.0979442
134	0x3d7cc5b8	0.061711997
135	0x3da2ef17	0.07955759
136	0x3dd5218f	0.104067914
137	0x3dc64bb0	0.09682405
138	0xbc778572	-0.015107499
139	0xbd2d688a	-0.042336024
140	0x3c4c6700	0.012475729
141	0xbd0e9462	-0.034809478
142	0x3c6a7529	0.01431016
143	0xbd01ccf0	-0.031689584
144	0xbd8a11f5	-0.06741706
145	0xbd664313	-0.05621631
146	0x3ca52218	0.020157859
147	0xbd572dd1	-0.05253393
148	0xbdc51ba5	-0.096244134
149	0xbd54d7cb	-0.05196361
150	0xbdb6a9dd	-0.089191176
151	0xbd4358e1	-0.047692183
152	0xbd6d11ed	-0.057878423
153	0x3d6e3b1d	0.058161844
154	0x3de5ce4b	0.11220988
155	0x3dacb97f	0.08433818
156	0x3c2b5e49	0.010459491
157	0xbd9264d1	-0.071481355
158	0xbd98c44c	-0.07459316
159	0x3c6fff56	0.014648279
160	0x3d8f8c21	0.07009149
161	0x3b6096c3	0.0034269548
162	0x3d47b286	0.048754238
163	0xbd9c13f4	-0.07620993
164	0x3ddc7766	0.10764961
165	0xbd042887	-0.032265212
166	0x3d93f731	0.072248824
167	0xbdd25763	-0.10270574
168	0x3d2a0f30	0.04151839
169	0x3dc3d082	0.09561254
170	0xbdeef6f6	-0.11668198
171	0xbdb9f05a	-0.090790465
172	0x3d6a0578	0.05713412
173	0x3dcffcfe	0.10155676
174	0x3d59ff49	0.053221975
175	0xbd1bff58	-0.03808531
176	0x3d05ed74	0.032697156
177	0x3cf7aca7	0.030233694
178	0x3ccb8398	0.024843022
179	0x3d77a5ca	0.060460843
180	0x3d88d8af	0.06681954
181	0xbdc92c1e	-0.09822868
182	0x3ca818c4	0.020519622
183	0x3dd9d96b	0.10637172
184	0xbce39107	-0.027779115
185	0x3b1f2649	0.0024284294
186	0xbdc765fe	-0.0973625
187	0xbde06809	-0.10957343
188	0x3d9283a2	0.07154013
189	0x3dd3bfb1	0.103392966
190	0xbd9f72bb	-0.07785555
191	0xbd13b955	-0.03606542
192	0xbdfa0215	-0.12207428
193	0x3d3d798c	0.046258494
194	0xbcb7f83e	-0.022457238
195	0xbd309cbc	-0.043118224
196	0xbd8a4d4b	-0.06753024
197	0x3c464dce	0.012103511
198	0x3dc41f34	0.09576264
199	0x3cfb0899	0.030643748
200	0xbda59ecb	-0.08086928
201	0xbd5279cc	-0.051385686
202	0xbdc5434a	-0.09631975
203	0x3d083d8b	0.033261817
204	0x3d6c2991	0.05765683
205	0xbb8a4495	-0.0042196014
206	0x3dd77813	0.10520949
207	0x3d81bc9e	0.06334804
208	0x3d67fd97	0.056638326
209	0xbc982285	-0.018571148
210	0xbc666208	-0.014061458
211	0x3dd058be	0.10173176
212	0xbdcece8b	-0.10097989
213	0x3d92e23b	0.07172056
214	0x3d49abf2	0.049236245
215	0x3d8460f3	0.06463804
216	0xbd14c6dd	-0.036322463
217	0xbcf3f0a3	-0.02977783
218	0xbdd165d6	-0.10224502
219	0xbd11ded2	-0.03561289
220	0xbc895edd	-0.016768867
221	0xbdb587ba	-0.088637784
222	0xbb5db7bc	-0.0033831438
223	0x3dd723a7	0.10504847
224	0xbd0d9188	-0.034562618
225	0xbd62b526	-0.055348538
226	0xbc0a9fc1	-0.00846094
227	0x3d92863a	0.07154508
228	0x3dc9d736	0.09855501
229	0xbdc06281	-0.09393788
230	0xbd6f16d1	-0.05837137
231	0xbda847b4	-0.08216801
232	0xbdd6a56b	-0.1048077
233	0x3de8aeae	0.113614425
234	0xbd80fc2a	-0.062980965
235	0xbda19f47	-0.07891708
236	0xbd2602af	-0.040529903
237	0x3d6d6733	0.057959747
238	0xbda7ba3a	-0.08189817
239	0x3dc5caf2	0.09657849
240	0xbdc7aab7	-0.09749358
241	0xbd07d2e9	-0.033160124
242	0x3c250a67	0.010073281
243	0xbde46bf2	-0.111534014
244	0xbd382d51	-0.044965092
245	0xbd261b59	-0.040553425
246	0x3dc01b40	0.093801975
247	0xbdd11b7b	-0.102103196
248	0x3df22302	0.118230835
249	0xbc988175	-0.018616417
250	0x3ded7e91	0.11596406
251	0xbc9b5dde	-0.018965658
252	0xbd6c5918	-0.057702154
253	0x3df1ba2e	0.11803089
254	0x3dabb0aa	0.08383305
255	0xbdfa5b16	-0.122244045

lstm.bias_hh_l0 f4 [256]
0	0xbc881d5d	-0.016615564
1	0xbdd7751a	-0.10520382
2	0xbc03b716	-0.008039257
3	0x3d2eac8d	0.042645026
4	0x3b9f095b	0.00485341
5	0xbd6c9639	-0.05776045
6	0xbca56f4a	-0.020194668
7	0x3da10dbb	0.07863947
8	0x3c3cdf41	0.011527837
9	0xbd39087f	-0.045174118
10	0xbc70bbfb	-0.014693256
11	0x3c14a7fa	0.009073252
12	0xbd950209	-0.07275779
13	0xbdb72c80	-0.089440346
14	0x3c06711f	0.008205681
15	0x3d16ce63	0.03681792
16	0x3d6a521d	0.057207216
17	0xbc8bde93	-0.017073905
18	0x3c0b1bf2	0.008490549
19	0xbd1e876f	-0.03870338
20	0xbd0198d1	-0.031639878
21	0xbddec9c6	-0.10878329
22	0x3d700e1f	0.058607217
23	0xbcfab823	-0.030605381
24	0xbd867de1	-0.06566978
25	0xbd72ff97	-0.05932578
26	0x3dd6f221	0.10495401
27	0x3c58cdc1	0.013232649
28	0xbd7fb216	-0.062425695
29	0x3dc983ba	0.09839578
30	0x3da62d83	0.081141494
31	0x3ce974ba	0.028498042
32	0x3d45b76b	0.048270624
33	0xbb9a0088	-0.0046997704
34	0xbdd7c301	-0.10535241
35	0xbdf928eb	-0.121660076
36	0x3cb9033f	0.022584556
37	0x3c318226	0.010834252
38	0x3d46ed1a	0.04856596
39	0xbdaa1831	-0.083053954
40	0x3d24480c	0.04010777
41	0xbd8a7a26	-0.06761579
42	0x3cf94aea	0.03043123
43	0x3d489ae2	0.048975833
44	0x3da14abc	0.078755826
45	0xbd32488a	-0.04352621
46	0xbc6972d5	-0.0142485695
47	0x3d829cf1	0.063775904
48	0x3d49266d	0.04910891
49	0xbd8bfcf3	-0.068353556
50	0xbdb5a318	-0.08868998
51	0xbde5e6cd	-0.112256624
52	0x3c92d6a4	0.017924614
53	0x3db929b3	0.090411566
54	0xbd1f00f3	-0.038819265
55	0xbd3bdf4c	-0.04586725
56	0xbdf5b707	-0.119978
57	0xbcfa2df0	-0.030539483
58	0xbdd288da	-0.102800086
59	0x3dcc53ca	0.09976919
60	0xbd3eeb98	-0.0466114
61	0xbbe0d923	-0.006861822
62	0x3c17e1e6	0.009270167
63	0x3dbcb7b3	0.09214725
64	0xbbfb2e4c	-0.007665431
65	0xbd682b31	-0.056681816
66	0xbd9477c0	-0.07249403
67	0xbdcb2db9	-0.0992083
68	0xbce0a21e	-0.027421053
69	0x3cd4816c	0.02594062
70	0x3d89321b	0.0669901
71	0x3bba5059	0.0056858477
72	0x3dd9c3c3	0.10633042
73	0xbda3e39f	-0.080024
74	0x3d9d5326	0.07681875
75	0x3e11474c	0.14187354
76	0x3d8296e0	0.06376433
77	0xbc542f80	-0.012950778
78	0x3dbb7c92	0.09154619
79	0x3d7200ad	0.059082676
80	0x3e03b651	0.12862517
81	0x3e02b792	0.12765339
82	0x3dca0930	0.098650336
83	0xbd953880	-0.07286167
84	0x3e009c6e	0.12559673
85	0x3de7d4f6	0.11319916
86	0xbdbfdfb2	-0.09368838
87	0x3c658add	0.014010158
88	0x3d8002df	0.062505476
89	0xbd880acf	-0.066426866
90	0x3d5d6a8d	0.054056693
91	0x3b9e6fd5	0.0048351088
92	0x3d8a5f44	0.06756452
93	0x3dac007e	0.083985314
94	0xbde55982	-0.11198713
95	0xbc925abf	-0.017865537
96	0x3d4905ff	0.049077984
97	0xbd998e09	-0.07497794
98	0x3d203b82	0.03911925
99	0x3d5aeea6	0.05345025
100	0x3d821169	0.06350977
101	0x3d87a563	0.06623342
102	0x3d52dd6d	0.0514807
103	0x3dddbbcd	0.10826836
104	0xbd2d3544	-0.042287126
105	0xbd6b7035	-0.057480056
106	0xbdd1a75b	-0.10236999
107	0x3e0e9bcf	0.13926624
108	0xbd501d23	-0.050809037
109	0x3d8302ce	0.06397019
110	0xbd9e3c7e	-0.07726382
111	0xbd282b2b	-0.041056793
112	0x3d9ff970	0.07811248
113	0xbd8acd6a	-0.06777461
114	0x3d22266a	0.039587416
115	0xbcc5afd7	-0.024131699
116	0x3da1691c	0.07881376
117	0xbdceaee3	-0.10091951
118	0xbd4ea17e	-0.05044698
119	0x3bb619a6	0.0055572568
120	0x3d93ae37	0.07210963
121	0x3d8db084	0.06918433
122	0x3e136106	0.1439248
123	0x3d4d936a	0.050189413
124	0xbc07e13c	-0.008293446
125	0x3dca2ab7	0.098714285
126	0xbda8d16c	-0.08243069
127	0xbd03d8af	-0.032189067
128	0x3e036679	0.12832059
129	0x3db82c5e	0.08992837
130	0x3cfe253c	0.031023614
131	0xbc930254	-0.017945446
132	0x3dcfd4d4	0.101480156
133	0x3d4ea66d	0.050451685
134	0x3da4de01	0.080501564
135	0x3e0c41f5	0.13697036
136	0xbd92f066	-0.071747586
137	0xbdce15c5	-0.10062746
138	0xbd910357	-0.07080715
139	0x3df7289b	0.12068292
140	0xbdc0b977	-0.094103746
141	0x3dc148e4	0.09437731
142	0xbca8104d	-0.020515585
143	0xbdedce8f	-0.116116636
144	0xbdee3fcb	-0.11633261
145	0x3d33a531	0.04385871
146	0x3dcf2984	0.1011534
147	0x3d9a5dc4	0.075374156
148	0x3dd65fd1	0.10467494
149	0x3d19d7d9	0.037559364
150	0xbdc851fb	-0.097812615
151	0x3df44da5	0.11928872
152	0x3d02481b	0.031807046
153	0xbdba7331	-0.09104002
154	0xbd51686d	-0.05112498
155	0xbdf98618	-0.121837795
156	0xbdde3c0e	-0.10851298
157	0x3cf83176	0.030297022
158	0xbd9a175c	-0.07523987
159	0xbcc7f72b	-0.024409851
160	0xbd1912c2	-0.037371404
161	0xbd8f1a8e	-0.06987487
162	0x3da0608b	0.07830914
163	0xbdd02472	-0.101632014
164	0xbd32de8b	-0.043669265
165	0x3d830a4b	0.063984476
166	0x3d5088e6	0.050911807
167	0xbd0685f7	-0.032842603
168	0xbc4851ff	-0.012226581
169	0xbe02160b	-0.12703721
170	0x3d0b018c	0.033937022
171	0x3d8b6f84	0.06808379
172	0xbd2c4400	-0.042057037
173	0x3df6ec62	0.12056805
174	0xbdabccfa	-0.083887056
175	0x3dad6e1c	0.08468267
176	0xbd15ab58	-0.03654036
177	0x3d737454	0.05943711
178	0xbddbf1b3	-0.1073946
179	0xbdeee5ad	-0.11664901
180	0xbdc72531	-0.097238906
181	0x3c751841	0.014959396
182	0xbd5745a8	-0.052556664
183	0xbdb2d854	-0.087326676
184	0x3d687789	0.056754623
185	0xbd985295	-0.07437626
186	0x3dad4ff7	0.08462518
187	0x3ddde69f	0.10835003
188	0xbdb6a330	-0.08917844
189	0x3db6c6cd	0.08924637
190	0x3ddb62bd	0.10712192
191	0x3d00fdc1	0.031492
192	0x3dfd9780	0.12382412
193	0x3d7fca73	0.06244893
194	0x3dcaa5d8	0.098949134
195	0xbdd91363	-0.10599401
196	0x3c5fb1a0	0.013653189
197	0x3dd5cf3b	0.10439917
198	0xbd8e18b4	-0.069383055
199	0x3d1b5248	0.037920266
200	0x3d1182f9	0.035525296
201	0x3de3713e	0.111055836
202	0xbb2bcc7f	-0.0026214418
203	0x3d971cb2	0.0737852
204	0x3df806bd	0.1211066
205	0xbdaa23ec	-0.08307633
206	0xbddbb2eb	-0.10727485
207	0x3cc766e9	0.024341064
208	0xbd46d6a4	-0.04854454
209	0x3c478f29	0.012180128
210	0xbcd548fc	-0.026035778
211	0x3d619bac	0.0550801
212	0xbd81f96b	-0.06346401
213	0x3d1a0b7e	0.037608616
214	0xbcb358d4	-0.021892942
215	0x3c2e8f06	0.010654217
216	0x3df10c47	0.1176992
217	0x3d3bf488	0.0458875
218	0xbd976954	-0.073931366
219	0x3d6b7bcd	0.057491113
220	0xbc925675	-0.017863492
221	0x3dab2548	0.0835672
222	0x3ce60648	0.028079167
223	0x3c279fde	0.010230986
224	0xbde7da3d	-0.113209225
225	0xbcba592f	-0.022747604
226	0xbc8f9345	-0.017526278
227	0xbce612bd	-0.028085107
228	0xbbdfa496	-0.00682504
229	0x3cfd6dd1	0.030936154
230	0x3cf94bc1	0.03043163
231	0xbe03c052	-0.12866333
232	0x3c0ab0fe	0.00846505
233	0xbdc2d688	-0.09513575
234	0xbdd34906	-0.103166625
235	0xbd8cef97	-0.06881636
236	0x3dafd59c	0.08585665
237	0x3de52cbc	0.11190173
238	0xbceb91a8	-0.028755978
239	0xbdaa3592	-0.08310999
240	0xbda9dd0d	-0.08294115
241	0x3e0c0273	0.1367281
242	0x3e0ff7c0	0.14059353
243	0x3dfabdeb	0.12243255
244	0x3d045131	0.032303993
245	0x3dca91ab	0.09891065
246	0xbd91e2a0	-0.071233034
247	0x3c9bc158	0.019013092
248	0xbdad6f04	-0.0846844
249	0x3dd660af	0.1046766
250	0xbca8b7eb	-0.020595511
251	0xbd4a6d5d	-0.049420703
252	0xbd0d58b3	-0.03450842
253	0xbd1ee572	-0.038793035
254	0xbbcd4ecb	-0.0062654964
255	0xbd9cb67f	-0.07651996

lstm.weight_ih_l1 f4 [256, 64]
0	0xbd01b157	-0.031663265
1	0xbdefbd1e	-0.11705993
2	0x3d1089d2	0.035287686
3	0xbd3fc132	-0.046815105
4	0xbcd29e4f	-0.025710253
5	0xbc8b67ce	-0.017017271
6	0xbc96428d	-0.01834228
7	0xbd2e57d0	-0.042564213
8	0x3d8c4f69	0.06851084
9	0x3c5a54c9	0.013325878
10	0x3c8bc867	0.017063333
11	0x3cfe7407	0.031061186
12	0xbc53a874	-0.01291858
13	0xbd8931df	-0.06698965
14	0xbcca5fb7	-0.024703844
15	0x3d84e4bb	0.064889394
16	0x3d394122	0.04522813
17	0xbdd850bc	-0.10562274
18	0x3dda89c6	0.106708094
19	0xbda0c940	-0.078508854
20	0x3df7e604	0.12104419
21	0x3df0763e	0.11741303
22	0xbcec1105	-0.02881671
23	0x3d022a72	0.03177876
24	0x3de574d3	0.11203923
25	0x3deab3e7	0.11460095
26	0xbd36f7ae	-0.0446698
27	0x3d7b00f3	0.061280202
28	0x3c43eeca	0.011958787
29	0x3dfe6a6d	0.12422643
30	0xba3c784c	-0.00071895565
31	0xbe0d34c8	-0.13789666
32	0x3dd318aa	0.10307439
33	0xbb9d38de	-0.004798039
34	0x3bb427f4	0.005497927
35	0xbd3afe75	-0.045652825
36	0xbd64dd51	-0.055875126
37	0x3c7a7e40	0.015288889
38	0x3d8ee8a0	0.069779634
39	0xbd870014	-0.06591812
40	0x3c9c53bb	0.019082895
41	0x3daf8b11	0.08571447
42	0x3d3ba20a	0.04580883
43	0x3e083dfd	0.13304897
44	0x3db856b6	0.09000914
45	0xbd293507	-0.041310336
46	0xbd39e361	-0.04538286
47	0xbddac4b4	-0.106820494
48	0x3e0049b2	0.12528113
49	0xbda0a52f	-0.07844006
50	0xbd71707c	-0.058945164
51	0x3d8b56f0	0.068036914
52	0x3d5f83c9	0.05456904
53	0xbdad2dad	-0.084559776
54	0x3d508fc6	0.050918363
55	0x3ded5eb7	0.11590331
56	0xbcd80255	-0.0263683
57	0x3cab4b87	0.020910038
58	0xbdfbd61a	-0.12296696
59	0xbda0da03	-0.078540824
60	0x3dacfd89	0.084467955
61	0xbd339d6d	-0.043851305
62	0x3ca4ab78	0.020101294
63	0xbcc5e826	-0.024158549
64	0xbdac8a75	-0.08424846
65	0x3dc94f4d	0.098295785
66	0x3cb16953	0.021656668
67	0x3cb6157e	0.022227045
68	0x3d737ba8	0.0594441
69	0x3dedec46	0.11617331
70	0xbd64383e	-0.0557177
71	0x3c68fa48	0.014219828
72	0x3df7c155	0.12097422
73	0x3dd1ea54	0.10249773
74	0xbc431653	-0.011907178
75	0xbd8cfe7f	-0.06884479
76	0x3d073d9d	0.033017743
77	0x3cccce1f	0.02500063
78	0x3cd731a6	0.026268791
79	0x3ddb8be8	0.107200444
80	0x3d32784d	0.04357176
81	0xbdb37f00	-0.08764458
82	0x3dac2086	0.08404641
83	0xbd492ae5	-0.049113173
84	0x3d86abae	0.06575714
85	0xbd25b409	-0.040454898
86	0xbcf1fb01	-0.029538633
87	0x3da8bc33	0.08239021
88	0xbd6b4408	-0.057437927
89	0x3d361c30	0.044460475
90	0xbd8c1e7a	-0.068417504
91	0x3dc2d328	0.09512931
92	0x3cbb1d66	0.022841167
93	0xbccb7774	-0.024837233
94	0xbcd2f671	-0.025752278
95	0xbd3e101a	-0.046402074
96	0x3d854116	0.06506555
97	0x3da37817	0.0798189
98	0x3d78f9bf	0.06078505
99	0xbddb05a1	-0.10694433
100	0xbcc5557d	-0.024088616
101	0xbb2b5e9b	-0.0026148919
102	0x3b1746dd	0.002308301
103	0xbd497124	-0.049180165
104	0x3d088502	0.03332997
105	0xbe027ecc	-0.12743682
106	0x3dc3978c	0.0955039
107	0xbddc22d4	-0.107488304
108	0xbdab31d9	-0.08359117
109	0x3deccf7d	0.11563013
110	0x3da10a77	0.07863324
111	0xbc5fb591	-0.013654129
112	0xbd9bb13d	-0.07602165
113	0x3c7c0498	0.015381955
114	0x3da38b97	0.07985609
115	0x3c0fe158	0.0087817535
116	0xbd9eeb40	-0.07759714
117	0xbd1c0958	-0.03809485
118	0x3d969240	0.07352114
119	0x3d5fac87	0.054607894
120	0xbe0da382	-0.13831905
121	0x3c7c111f	0.015384941
122	0xbdd6cd97	-0.10488432
123	0x3d4a3f78	0.049376935
124	0x3e0fdb0d	0.14048405
125	0x3ddec999	0.108782955
126	0xbcbd277b	-0.023090115
127	0x3dbd2810	0.09236157
128	0xbdc80324	-0.09766224
129	0xbc44a39a	-0.012001896
130	0xbd8a8dcf	-0.06765329
131	0xbdb6762a	-0.08909257
132	0x3da927f7	0.08259576
133	0x3dd30457	0.10303562
134	0x3de928ff	0.113847725
135	0x3dc01486	0.093789145
136	0x3980b7ac	0.0002455091
137	0x3d893980	0.067004204
138	0xbd49e188	-0.04928735
139	0xbdd1e2ed	-0.10248361
140	0xbd819227	-0.063267045
141	0xbdaca88d	-0.08430586
142	0x3dc5dc5c	0.09661171
143	0x3d789214	0.060686186
144	0xbd162a5c	-0.03666149
145	0xbd93ec6e	-0.0722283
146	0x3cc0dcfb	0.023542872
147	0x3e14d387	0.14533816
148	0x3d8f2023	0.069885515
149	0x3d98865b	0.07447501
150	0x3d22b962	0.039727576
151	0xbd1a57be	-0.037681334
152	0xbdee0c50	-0.11623442
153	0xbd314d93	-0.04328687
154	0x3d42c0f2	0.04754729
155	0x3d049429	0.03236786
156	0x3db1e824	0.086868554
157	0xbd0c08cc	-0.034188077
158	0xbd3624cc	-0.044468686
159	0xbd31cf33	-0.04341049
160	0x3dda990c	0.106737226
161	0xbd1c7d97	-0.03820571
162	0x3cf17ee5	0.029479453
163	0x3daae98b	0.08345326
164	0x3ba0cd84	0.004907312
165	0x3db5d5bc	0.08878657
166	0x3d0bdb8c	0.034144923
167	0xbc04d009	-0.00810624
168	0x3d1dcc3a	0.038524844
169	0xbd97093e	-0.0737481
170	0xbd191d0d	-0.03738122
171	0xbe0193fa	-0.12654105
172	0x3de2e7bd	0.11079357
173	0x3c9c1c7d	0.019056553
174	0x3d0f881b	0.03504191
175	0x3da11ef6	0.078672335
176	0x3dea3a82	0.11436941
177	0x3aad7914	0.0013234937
178	0x3db1e0df	0.08685469
179	0xbc432aea	-0.011912087
180	0x3a8a3954	0.001054565
181	0x3dc7829e	0.0974171
182	0x3d5f0fc1	0.054458383
183	0x3d315f6d	0.043303896
184	0x3d77ce38	0.0604994
185	0x3c8ea218	0.017411277
186	0x3c87decf	0.016585736
187	0xbc8afdea	-0.016966779
188	0xbdc9d147	-0.098543696
189	0xbda8ffc6	-0.0825191
190	0x3d33001f	0.043701287
191	0xbe061bcc	-0.13096541
192	0x3c9b90f3	0.018990016
193	0x3dfabf4c	0.12243518
194	0xbc97859b	-0.018496325
195	0xbddfe417	-0.109321766
196	0x3c78858a	0.015168557
197	0xbddbe61c	-0.10737249
198	0xbadbdee2	-0.0016774798
199	0xbddd12b3	-0.10794582
200	0x3dab4528	0.083628
201	0x3d076020	0.033050656
202	0xbd6d2f90	-0.057906687
203	0x3d1622b8	0.036654204
204	0x3cee09f1	0.029057475
205	0x3dcd5d13	0.10027518
206	0x3d78d761	0.060752276
207	0xbe045bc8	-0.12925637
208	0xbde99a03	-0.114063285
209	0xbdf4be76	-0.1195039
210	0x3dbca203	0.09210589
211	0xbbc6228d	-0.0060465992
212	0x3d8dd7d2	0.0692593
213	0xbde1cad2	-0.11025013
214	0x3d30b829	0.04314438
215	0x3c0ab2b9	0.008465462
216	0x3d299e11	0.04141051
217	0x3d812f8f	0.06307899
218	0xbddb7b36	-0.1071686
219	0x3cdbe066	0.0268404
220	0xbdcd90e3	-0.100374006
221	0xbddcbfe6	-0.10778789
222	0x3d539c14	0.05166252
223	0x3d5b9701	0.053610805
224	0x3dc5bf95	0.09655682
225	0x3ddcc357	0.107794456
226	0x3d9db6ed	0.07700906
227	0x3cb936c2	0.022609118
228	0x3df01ada	0.117238715
229	0xbd06b499	-0.032887075
230	0x3dbf876f	0.09352004
231	0xbd385c57	-0.045009937
232	0x3d88c959	0.06679029
233	0x3ce0ec4c	0.027456425
234	0xbd4dae4e	-0.050215058
235	0xbe1806a6	-0.14846286
236	0xbd818ab3	-0.06325283
237	0x3ccd1239	0.025033103
238	0xbdfc883d	-0.12330673
239	0x3de0d0ef	0.10977351
240	0xbd8e75f8	-0.069560945
241	0xbd76233e	-0.060092203
242	0xbde5f908	-0.112291396
243	0x3d570481	0.05249453
244	0x3d41c75e	0.047309272
245	0x3e0ccac4	0.13749224
246	0xbe1108c8	-0.14163506
247	0x3dd7a079	0.105286546
248	0xbdb4dba0	-0.08830953
249	0xbc556db1	-0.013026641
250	0xbd86162f	-0.065472
251	0xbd829163	-0.063753866
252	0x3d751c39	0.05984137
253	0x3d4cd657	0.050009098
254	0xbda622e0	-0.08112121
255	0x3d765ab2	0.060145088

lstm.weight_hh_l1 f4 [256, 64]
0	0xbdaca911	-0.08430684
1	0xbcc7d76f	-0.024394719
2	0xbc21998d	-0.0098632695
3	0x3cfcf1cc	0.030877016
4	0x3dfd4743	0.12367108
5	0x3d3eea0f	0.046609934
6	0x3d038c36	0.032116137
7	0x3d92a187	0.07159715
8	0xbd57d03a	-0.052688815
9	0xbbdb3342	-0.00668946
10	0xbd6cb5d3	-0.05779059
11	0x3c910077	0.017700417
12	0xbd066459	-0.032810543
13	0x3d972759	0.07380552
14	0xbd8c7b31	-0.068594344
15	0x3dcd9d9d	0.10039828
16	0xbda689a9	-0.08131725
17	0x3ce22c1f	0.02760893
18	0x3d4efb6b	0.05053274
19	0xbd80cb4d	-0.062887765
20	0xbd9dfeaa	-0.07714589
21	0x3d049c5f	0.03237569
22	0x3d797ce4	0.06091012
23	0xbdfdfb4c	-0.12401447
24	0x3d1f8aee	0.038950853
25	0x3b41f9d9	0.0029598384
26	0x3c827a94	0.01592759
27	0x3cdce753	0.026965773
28	0xbcf4b960	-0.02987355
29	0xbd692189	-0.056916747
30	0xbc37887a	-0.011201972
31	0x3dd4acc4	0.10384515
32	0xbd81871c	-0.06324598
33	0xbc23f626	-0.010007417
34	0x3d7de466	0.061985396
35	0xbd369fe2	-0.04458607
36	0x3b0b3f73	0.0021247535
37	0xbdd91b1f	-0.10600876
38	0xbdf8bc23	-0.12145259
39	0xbde55d34	-0.11199418
40	0x3dc5e186	0.09662156
41	0xbde34641	-0.11097384
42	0xbd129f3e	-0.035796396
43	0xbd6feebe	-0.05857729
44	0x3db535eb	0.08848175
45	0xbc695e28	-0.01424364
46	0xbd998175	-0.07495395
47	0xbc24866a	-0.010041812
48	0xbab9bfb0	-0.0014171507
49	0x3c9622c0	0.018327117
50	0x3dd5a488	0.104317725
51	0xbc8916b7	-0.016734464
52	0xbcb4c85e	-0.022068199
53	0xbc6c6a0e	-0.014429582
54	0x3ddd1e87	0.10796838
55	0x3d65e394	0.05612524
56	0x3cb93fb2	0.02261338
57	0xbd7c26f2	-0.06156058
58	0x3e02957b	0.12752335
59	0xbd70802e	-0.05871599
60	0xbd74dcfc	-0.05978106
61	0x3d8ced45	0.06881193
62	0x3dddbc48	0.108269274
63	0x3d7fa6d5	0.062414963
64	0xbdd44615	-0.103649296
65	0x3cbb0043	0.022827273
66	0xbd722c4d	-0.05912428
67	0xbd12af57	-0.03581175
68	0x3d83ae91	0.0642978
69	0xbdadd922	-0.084886804
70	0x3df729b0	0.12068498
71	0x3d8dfda0	0.06933141
72	0xbd48ede4	-0.049054995
73	0xbbe55837	-0.0069990414
74	0x3d25b57a	0.040456273
75	0xbd5b67c6	-0.053565763
76	0x3dd1474e	0.102186784
77	0x3dabeb57	0.08394497
78	0x3cb947fc	0.022617333
79	0xbde820aa	-0.11334355
80	0xbd942bff	-0.07234954
81	0x3dc0a2bb	0.094060384
82	0xbda82181	-0.08209515
83	0xbe0b0b9d	-0.13578649
84	0xbd78f404	-0.060779586
85	0xbddbffbf	-0.10742139
86	0x3d716e9a	0.05894337
87	0xbe013e19	-0.12621345
88	0x3db48132	0.088137046
89	0xbd853abc	-0.06505343
90	0x3c99cdee	0.018774953
91	0x3ba6ca0b	0.0050900034
92	0x3b3cb552	0.0028794599
93	0x3bcb6e5b	0.0062082238
94	0x3dadc7e5	0.084853925
95	0x3c6e0f69	0.014530041
96	0x3e0326cf	0.12807773
97	0x3dceece0	0.10103774
98	0x3dbbd71b	0.091718875
99	0x3c9613dd	0.018320018
100	0xbde6f5dd	-0.112773634
101	0x3d6c5800	0.05770111
102	0xbd683a5e	-0.05669629
103	0x3de96c79	0.11397643
104	0x3da6cad1	0.08144153
105	0x3c412205	0.011787896
106	0xbd6aa5c2	-0.057286985
107	0x3d97fd96	0.074214146
108	0x3d13f8eb	0.03612606
109	0xbdcee048	-0.10101372
110	0x3d1497d1	0.036277596
111	0xbdd3d155	-0.10342661
112	0xbce55e91	-0.027999194
113	0x3d33cdc5	0.04389741
114	0x3de34f82	0.11099149
115	0x3a2c00c2	0.0006561392
116	0x3d54dfa6	0.0519711
117	0x3d8be949	0.06831605
118	0xbdbf6b4d	-0.09346638
119	0x3c6fa0bf	0.014625727
120	0xbdea5bcc	-0.1144329
121	0x3df0aa0a	0.117511824
122	0xbd93de98	-0.07220191
123	0x3d036132	0.032075115
124	0xbba50e5c	-0.005037112
125	0x3d0db119	0.03459272
126	0xbca11c9b	-0.01966696
127	0x3d6b1a10	0.057397902
128	0x3d5045d2	0.050847836
129	0xbda44058	-0.08020085
130	0x3c60ec95	0.013728281
131	0x3cde57ae	0.027141418
132	0x3cd15559	0.025553392
133	0xbd69e8ea	-0.05710689
134	0x3d42e34d	0.047580052
135	0x3dc146d1	0.09437335
136	0xbdd33818	-0.103134334
137	0x3cffea9f	0.031239806
138	0xbdbf57de	-0.09342931
139	0x3dc8830d	0.09790621
140	0xbd48e069	-0.04904214
141	0x3cd59ec8	0.02607669
142	0x3d80c474	0.062874705
143	0x3c8d99f3	0.017285323
144	0x3e0055e2	0.12532762
145	0x3d4eb89c	0.050469026
146	0x3db7f265	0.0898178
147	0x3d3c03af	0.04590195
148	0xbc4b7ae7	-0.012419439
149	0xbda96318	-0.08270854
150	0xbd85bb45	-0.065298595
151	0xbd5ae787	-0.053443458
152	0xbc015a86	-0.007895118
153	0x3d6664e7	0.05624857
154	0x3dcc4b6f	0.09975325
155	0xbdefbdc9	-0.117061205
156	0xbd0203ec	-0.03174202
157	0xbd3dc5ef	-0.046331342
158	0xbd285954	-0.041100815
159	0x3dbab437	0.091164045
160	0x3ccb93d6	0.024850767
161	0x3bec1aa5	0.0072053247
162	0x3d4d1829	0.05007187
163	0xbe10671b	-0.14101832
164	0xbda9caf9	-0.08290667
165	0xbc9bbc84	-0.01901079
166	0x39861092	0.00025570818
167	0x3db604c7	0.0888763
168	0x3dd9d8b9	0.1063704
169	0x3d0ced0c	0.034405753
170	0x3d6d06cc	0.05786781
171	0xbd8ccc74	-0.06874934
172	0x3bbaf66e	0.0057056462
173	0x3d965f7d	0.07342432
174	0x3dce8b97	0.100852184
175	0x3ce67672	0.028132651
176	0x3d950567	0.07276421
177	0xbc340cda	-0.010989392
178	0xbd90199d	-0.07036135
179	0xbdda8082	-0.10669042
180	0x3e08aab5	0.1334637
181	0x3dfaf56a	0.1225384
182	0x3d200754	0.03906949
183	0xbe08127e	-0.13288304
184	0x3da00799	0.07813949
185	0xbd5cfee7	-0.05395403
186	0xbd2ed882	-0.042686947
187	0x3db9211b	0.090395175
188	0xbc1f63a9	-0.009728351
189	0x3df4feab	0.119626366
190	0x3dc149ad	0.09437881
191	0xbd899f9e	-0.06719898
192	0xbdce4c1b	-0.1007311
193	0xbddd085c	-0.1079261
194	0x3cc387a4	0.02386839
195	0xbbaf1e19	-0.005344164
196	0xbd750e89	-0.059828315
197	0x3d617c3b	0.055050116
198	0xbd9ebf81	-0.0775137
199	0xbdcd114a	-0.10013063
200	0x3d9d4413	0.07679
201	0xbd9081a0	-0.07055974
202	0x3c1faad5	0.009745319
203	0xbdeae014	-0.11468521
204	0xbd23801c	-0.039917096
205	0xbdb78d96	-0.08962552
206	0xbdbce66e	-0.092236385
207	0xbda62948	-0.081133425
208	0x3de69cdb	0.112603866
209	0xbdc8f8a4	-0.098130494
210	0xbd278838	-0.040901393
211	0xbcb6e7db	-0.022327354
212	0x3dab8ab3	0.08376064
213	0xbe02715d	-0.12738557
214	0x3d84d3c6	0.06485705
215	0xbc95744c	-0.018243931
216	0xbc80670d	-0.015674138
217	0xbd20cf07	-0.039259937
218	0xbd3f76e7	-0.046744253
219	0x3d927bac	0.07152495
220	0xbddccfff	-0.107818596
221	0xbd8b7814	-0.068100125
222	0x3e0e548b	0.13899438
223	0xbd93aee6	-0.072110936
224	0xbd8df2a1	-0.069310434
225	0x3da6b357	0.08139675
226	0xbd8ca4de	-0.068673834
227	0xbdc97911	-0.09837545
228	0xbcaa97a1	-0.020824255
229	0xbd9a1213	-0.07522979
230	0xbddabde0	-0.10680747
231	0xbda75883	-0.08171179
232	0x3ddb5f20	0.10711503
233	0xbd1d969f	-0.03847372
234	0x3d7ed273	0.06221242
235	0xb9463c4b	-0.00018905212
236	0xbdf90b9d	-0.12160418
237	0xbc3f5bc8	-0.011679597
238	0x3deceb85	0.11568359
239	0xbdfa0b61	-0.122092016
240	0x3d62261d	0.05521213
241	0x3a97bf2d	0.001157736
242	0x3c123313	0.00892331
243	0xbd955969	-0.07292444
244	0x3d4f1da4	0.050565377
245	0x3e015dd0	0.12633443
246	0xbd8d7470	-0.06906974
247	0x3dc78c6a	0.09743579
248	0x3d7e9a6c	0.062158987
249	0xbdf6df51	-0.12054313
250	0x3d8c177e	0.06840418
251	0x3d8e89c8	0.069598734
252	0x3c01ab99	0.007914447
253	0x3dc4e4d5	0.09613959
254	0x3debca8a	0.11513241
255	0x3e0027bf	0.12515162

lstm.bias_ih_l1 f4 [256]
0	0xbd8945e3	-0.06702783
1	0x3e04e6db	0.1297869
2	0xbd968583	-0.07349684
3	0xbc28d5f3	-0.010304916
4	0x3dc493bc	0.095984906
5	0xbc97ea18	-0.018544242
6	0xbd7a2d46	-0.061078332
7	0xbe0f40de	-0.13989589
8	0xbdd952de	-0.10611509
9	0xbd311e6b	-0.0432419
10	0x3d7a191c	0.061059102
11	0xbd8d34ce	-0.06894837
12	0xbae6ac24	-0.0017598909
13	0x3de75998	0.112963855
14	0xbdf3ee03	-0.119106315
15	0x3db5d109	0.08877761
16	0xbe0a3dcd	-0.13500138
17	0xbd0059cf	-0.03133565
18	0xbdf66f85	-0.120329894
19	0xbd71d780	-0.059043407
20	0x3df0e707	0.11762815
21	0x3c1bc808	0.00950814
22	0xbcd5a1ee	-0.02607819
23	0x3dc522dc	0.096257895
24	0x3c271f28	0.010200299
25	0x3c62bff1	0.013839708
26	0x3db98c96	0.09060018
27	0x3c94c0e0	0.018158376
28	0x3d177a2c	0.036981747
29	0x3d951b70	0.07280624
30	0x3dc5b753	0.09654107
31	0x3df5f07a	0.12008758
32	0xbdd97862	-0.10618664
33	0x3bd3fc21	0.006469265
34	0x3b98a0f3	0.0046578585
35	0x3d948130	0.07251203
36	0x3d37b04d	0.044845868
37	0xbd1bd7f3	-0.038047742
38	0x3c4c91f8	0.012485974
39	0xbd7b1a65	-0.06130447
40	0x3dd6737a	0.10471244
41	0xbdd1efbb	-0.10250803
42	0x3d104f50	0.03523189
43	0x3d95bffc	0.07312009
44	0xbdd53af9	-0.10411639
45	0x3dcf165a	0.10111685
46	0xbaf4c4b4	-0.0018674345
47	0x3ca7d6e0	0.020488203
48	0xbda0c875	-0.07850734
49	0xbdc201bf	-0.09472989
50	0x3ddbe971	0.10737885
51	0xbdcab4c1	-0.09897757
52	0xbd75f671	-0.060049478
53	0x3ce60fd9	0.028083729
54	0xbc9b7984	-0.018978842
55	0xbdda5a9f	-0.10661816
56	0x3d81967a	0.06327529
57	0x3d298d6e	0.041394643
58	0x3de4c5ac	0.111705154
59	0x3bca54bb	0.0061746514
60	0x3d3fc4d3	0.046818566
61	0xbd92a0cd	-0.071595766
62	0xbca28cce	-0.019842532
63	0x3d2efb77	0.042720284
64	0x3d5014a2	0.050800927
65	0x3d9f66be	0.077832684
66	0x3de40e21	0.111355074
67	0x3c527454	0.012845118
68	0x3d66d9d6	0.05636009
69	0x3d22450b	0.039616626
70	0xbd7256f3	-0.059164952
71	0xbdfae97e	-0.12251566
72	0x3db33aaf	0.087514274
73	0xbdf90aa0	-0.1216023
74	0x3df2f5eb	0.118633114
75	0x3d94945b	0.07254859
76	0x3d962753	0.07331719
77	0x3d42ab60	0.047526717
78	0xbcf40031	-0.029785248
79	0x3d6b4dce	0.057447247
80	0x3d19b990	0.03753048
81	0x3d5909e6	0.052987956
82	0x3d751fd8	0.05984482
83	0x3ded0e99	0.1157505
84	0xbb842bc7	-0.004033539
85	0xbd1436f0	-0.036185205
86	0xbb8386ba	-0.0040138634
87	0xbe00bcc8	-0.12572014
88	0x3d15ad59	0.03654227
89	0xbdbdbecd	-0.09264908
90	0xbde4c46b	-0.11170276
91	0xbdd18fa4	-0.102324754
92	0x3d2b787f	0.04186296
93	0xbcbcb978	-0.023037657
94	0xbe00e820	-0.12588549
95	0xbd8a028a	-0.067387655
96	0x3cfbb9e7	0.030728294
97	0xbb5fee80	-0.0034169257
98	0xbd73cf85	-0.059524078
99	0x3dd6156c	0.10453305
100	0xbcb2d9aa	-0.021832306
101	0x3c893717	0.016749902
102	0xbdd200aa	-0.10254033
103	0xbdf05082	-0.11734106
104	0x3d5abf4d	0.053405095
105	0x3d196d36	0.037457667
106	0xbd8c16f7	-0.06840318
107	0xbc54993a	-0.012975985
108	0xbdc099d5	-0.09404341
109	0xbdd8b10b	-0.10580643
110	0x3cfdff0b	0.031005403
111	0xbc8ed17c	-0.017433874
112	0x3e0c8209	0.1372148
113	0x3d11e913	0.035622668
114	0xbdb39841	-0.087692745
115	0x3d81e82c	0.063431114
116	0x3df98305	0.12183193
117	0xbdd47c91	-0.10375322
118	0xbdbab166	-0.09115867
119	0xbd86fc8f	-0.065911405
120	0x3ddcc764	0.10780218
121	0xbd7f2e1b	-0.06229983
122	0x3df315dc	0.11869404
123	0x3d1c7a0b	0.038202327
124	0x3dc2f608	0.09519583
125	0x3dfb8098	0.12280387
126	0xbc363be0	-0.011122674
127	0xbd52b024	-0.051437512
128	0xbdc7ac28	-0.09749633
129	0x3d10625b	0.03525005
130	0xbcbb3e8f	-0.022856979
131	0xbd387081	-0.045029167
132	0xbd30861a	-0.04309664
133	0xbd88b7f6	-0.06675713
134	0xbdaab7e7	-0.08335858
135	0xbd1db1be	-0.038499586
136	0x3dcef754	0.10105768
137	0x3b4caae8	0.0031229798
138	0xbb86657a	-0.0041014524
139	0xbcdac53e	-0.02670538
140	0x3daa7bfc	0.083244294
141	0xbde513b4	-0.11185399
142	0xbb7c3619	-0.0038484393
143	0xbdac9013	-0.084259175
144	0x3daa39f9	0.08311839
145	0x3ddb63e6	0.107124135
146	0xbdefc767	-0.11707955
147	0xbda70262	-0.08154751
148	0x3c81d835	0.015850166
149	0xbdac18f6	-0.084031984
150	0xbe030774	-0.12795812
151	0x3cabfe00	0.02099514
152	0xbde85f0e	-0.11346255
153	0xbdd3e54f	-0.103464715
154	0xbd42e967	-0.04758587
155	0xbd60f21b	-0.05491839
156	0xbcb1e2ea	-0.021714646
157	0xbdaae79e	-0.08344959
158	0xbd299d9e	-0.04141008
159	0xbd863ac3	-0.06554177
160	0x3ddd3a83	0.10802176
161	0x3da2fd75	0.07958499
162	0xbde95102	-0.11392404
163	0xbda95491	-0.08268083
164	0xbdb6ba0f	-0.089222066
165	0xbd8b6067	-0.06805497
166	0xbc9857d7	-0.018596573
167	0xbdd0a593	-0.10187831
168	0xbd910478	-0.070809305
169	0xbd8f5ee6	-0.07000522
170	0x3dce7380	0.100806236
171	0xbdd2ee62	-0.10299374
172	0xbde4b890	-0.11168015
173	0xbe02b6a8	-0.1276499
174	0x3d8d6d1b	0.06905576
175	0x3c56488a	0.013078818
176	0x3dcb4f3d	0.09927223
177	0xbdd809d2	-0.10548748
178	0xbd986321	-0.07440782
179	0x3c9b2139	0.01893674
180	0x3d6b4ee7	0.057448294
181	0x3d87a025	0.06622342
182	0x3cf43911	0.029812368
183	0xbd9b9f1f	-0.07598709
184	0x3db14fa4	0.08657768
185	0xbd8e4561	-0.06946827
186	0x3c6a1d5d	0.014289227
187	0x3d98ea5e	0.07466577
188	0xbd83b9e1	-0.06431938
189	0x3d20cbf4	0.039257005
190	0xbabc0897	-0.0014345822
191	0xb8fb6736	-0.00011987837
192	0xbd979f87	-0.07403474
193	0xbc0940ca	-0.008377263
194	0x3bfe3140	0.007757336
195	0x3df4abd9	0.1194684
196	0x3dbce32c	0.09223017
197	0xbd3e63ab	-0.04648177
198	0x3d0ed2d8	0.034869045
199	0x3dd58df7	0.10427468
200	0xbd85ff81	-0.06542874
201	0x3d8cb960	0.06871295
202	0x3c427cc3	0.011870566
203	0x3d481dfc	0.04885672
204	0x3d9f2aee	0.0777186
205	0x3dbfe93f	0.0937066
206	0xbd0c41db	-0.034242492
207	0x3c8be3d8	0.017076418
208	0xbbeffc7a	-0.0073237987
209	0xbe019e4b	-0.1265804
210	0x3d454990	0.048165858
211	0xbd9c122d	-0.07620654
212	0x3d871392	0.065955296
213	0x3d909199	0.070590205
214	0x3e08ad2e	0.13347313
215	0x3cdf9c3d	0.02729618
216	0xbd155cdc	-0.03646551
217	0xbd3e8248	-0.046510965
218	0xbc1f5c5d	-0.009726611
219	0xbe0cefda	-0.13763371
220	0x3bb18d7f	0.005418479
221	0xbc82cb6d	-0.015966142
222	0xbd7207a5	-0.05908932
223	0x3d97c327	0.07410269
224	0xbc6142df	-0.0137488535
225	0xbd5dff53	-0.054198574
226	0xbd303ca0	-0.043026567
227	0x3dd16442	0.10224201
228	0xbdbce9d0	-0.09224284
229	0x3d1d42c7	0.038393762
230	0xbd8b935a	-0.068152145
231	0xbbe2f060	-0.0069256276
232	0x3d89012b	0.06689676
233	0x3daf7d03	0.08568766
234	0x3dace502	0.08442117
235	0x3e02157b	0.12703507
236	0x3d870bbe	0.065940365
237	0xbde640a4	-0.11242798
238	0x3df75b83	0.12078001
239	0xbd27a444	-0.04092814
240	0x3dda69e1	0.10664726
241	0x3d0a4f17	0.033766832
242	0x3dc3b3ff	0.09555816
243	0xbdc36683	-0.09541037
244	0x3d281b57	0.0410417
245	0xbbebf22d	-0.0072005005
246	0xbde6c97e	-0.112689
247	0x3d82a175	0.06378452
248	0x3c590100	0.013244867
249	0x3d133abf	0.035944697
250	0xbdbbac00	-0.09163666
251	0xbd7f61c2	-0.06234909
252	0x3cea0bdc	0.028570108
253	0x3ce89bdb	0.02839463
254	0xbdf34dfe	-0.1188011
255	0xbdd1c8b4	-0.10243359
