output/LSTM2/LSTM2_adam_32_100/model/LSTM2_epoch_46.pth (torch, 243186 bytes, 16 tensors)

lstm.weight_ih_l0 f4 [256, 11]
00000000: c761 7bbd f092 9b3d 4777 4cbd 0e15 3b3e
00000010: 4c59 f73d 2e66 bf3d 4b95 80bd 9a33 e13c
00000020: b3eb d63d 96dd e83d 32ae 97bd cc38 1abe
00000030: e600 3e3d 0cce 1bbe ba87 7cbe 8c6c b3bd
00000040: ad56 4b3d 08ed 7cbd 83f3 d83c 4a7c db3c
00000050: 6f68 e6bd 50fb 54bd 01d6 0d3e ef8d 803e
00000060: 0099 72bb fb58 88bd 92d7 513d 7243 513e
00000070: ab2f 2a3e 6600 7ebd d03e cbbc 5604 46ba
00000080: 29a2 e1bd 4da8 28bd fdfb b7bd bdbe 973c
00000090: 53ae 843c 812c 983d c24c 52be 0669 cabd
000000a0: 247b f33c 3568 d83d 84ff e9bb 7c18 81bd
000000b0: 3957 12be 1d04 8e3d a74b 62bc 6fd9 333e
000000c0: e86a 4ebc dcfb 3abe 8afe 11be c582 edbc
000000d0: 8d62 4a3e 26b7 083e 80da dbbd b26f d3bd
000000e0: 4cb1 513c c152 5d3d d669 45be 5d60 75bd
000000f0: 3438 1c3e 4f51 5a3e ed89 9fb9 1904 4cbe
00000100: 7ae0 58be 1dc1 c93d 3130 2f3c 176f 60bd
00000110: b83e 933d c3a9 8ebd 4d90 82be eb55 88bd
00000120: d36e fb3d b12c d2bd 9c25 52be 55fe f1bd
00000130: fbff 67be 2fd6 8c3d 4d02 883e 4ed2 f13d
00000140: 3f13 10be ed60 983d ff5b 2a3e 2007 003e
00000150: 942c b23d a928 b7bd f3a0 6bbd ff58 b03d
00000160: 5fb6 743d 9a28 463e 1572 353d 9d68 b9bd
00000170: f28f 913d 4e46 2e3e f76e 6a3d 5c8e c9bb
00000180: 909e 01be 28cc 27be f6d7 ad3d 3d3d 39bd
00000190: fc01 20bd 93f0 583b b438 27bd 13ea 953d
000001a0: 98fc c1bd 16f8 b6bd 62f5 ca3d a171 a53d
000001b0: e264 283e 1003 943e 444b 083e dc1c 2e3d
000001c0: 2f3c aabb 0db9 953e da3f 003e 9676 c73d
000001d0: 2f31 ff3d ffc8 b7bd 99d6 cbbc 9448 b13d
000001e0: e171 5f3e a4fa 6abd 6f03 21bd f796 263d
000001f0: 090c 91bd 6235 c3bd 560a b83d 0564 6dbc
00000200: 9dd5 033e 6d57 8b3d 7603 c63d 81a1 273e
00000210: d15c 83bd 6620 653c 85cd 25bd e323 ef3d
00000220: e584 1b3e 75dd e2bd 6915 1cbe 2647 73bd
00000230: 6bb9 353e f96a e13b 5361 093d 74b6 583d
00000240: 2277 b53d 4707 13bd a847 133d cfe6 863d
00000250: 4a8d 2e3e 82ff 83bc da6b c93a c1ab b43d
00000260: 3aa0 943c 7259 a73d d51c 2c3d 4a2f 223e
00000270: c068 ca3d b519 f23d 95ce fcbd 1356 1d3e
00000280: 161b 6c3e 7b1f 36bc 5b5e 3c3d 3ec2 903d
00000290: 2a67 c03d bf35 4dbe 2a24 e9bc c164 17bd
000002a0: ea64 27be 20b4 2fbe b91d 2c3b b76a 1dbd
000002b0: 6f22 50be 6038 e0bd 7857 2abe b976 12be
000002c0: 1238 50be 2b10 1bbe 3459 42be 02ad 51bd
000002d0: e391 18be 704e 92be 134a 833c 2019 fdbd
000002e0: d3b5 a3bd 0cc8 483d 7285 50be 159c 2b3d
000002f0: 6339 a03d 5b09 d13c 3b52 9b3d 43b2 39bc
00000300: 218e bfbd 7590 5f3d f920 843d 2d0b 243e
00000310: b486 813e fb37 a73d 96be d4bc f8f8 f63c
00000320: 8258 4dbd fd24 e03c e2fb 28be eb1f 44bd
00000330: 64c3 febd c6c3 ab3b b676 fdbd aada 023e
00000340: a847 b4bc 882c 12be 315b 5f3e 9904 b73c
00000350: 4b24 3c3e 6f4e 4d3e 6346 89be 5d81 a0be
00000360: d091 053e af01 393e 5d81 143c 7270 84be
00000370: dcf3 823d fba1 15be ec9a e0bd 6b62 e93c
00000380: 000e 133c 1335 e2bd d60e 54bd 661a 093c
00000390: 9db3 023e 8dd6 0e3e f9a7 9a3d 2a5a 61bd
000003a0: 7d3c 9e3c 2a91 a03d ecea ed3d 555e b83d
000003b0: f5c9 88bd 805d 2f3d 7daa 48bd c0a1 b43d
000003c0: 9ad1 533d c2c3 613d f54a ad3c 3119 123c
000003d0: 10f4 cfbb 0ed5 863d fcb7 d23d 1ede 0c3e
000003e0: ba22 d83d 86cd 263e 6c78 68bd 2b7c bf3c
000003f0: 7b52 aebd 4a4d 14bd f562 9b3c b5c0 0c3d
-0.061372545 0.075963855 -0.04991844 0.1826975 0.12077579 0.09345661 -0.062784754 0.027490426
0.10494175 0.11370389 -0.07406272 -0.15060729 0.046387576 -0.1521532 -0.2466115 -0.08760938
0.049643207 -0.061749488 0.026483303 0.026792664 -0.11250388 -0.051997483 0.13851167 0.25108287
-0.0037017465 -0.06657597 0.051230974 0.20435885 0.16619746 -0.0620121 -0.024810225 -0.00075537467
-0.11017258 -0.04117613 -0.0898361 0.018523568 0.016196406 0.074303634 -0.20537093 -0.09883313
0.029721804 0.10566751 -0.0071410555 -0.06303498 -0.14291085 0.06934378 -0.013811982 0.17563413
-0.012598731 -0.18260139 -0.14257255 -0.02899302 0.19764157 0.13351116 -0.10735035 -0.103240386
0.0127986185 0.054034 -0.19278654 -0.059906352 0.15255815 0.2132008 -0.00030429606 -0.19923438
-0.21179381 0.098512866 0.010692642 -0.054793444 0.07189697 -0.06965973 -0.25500718 -0.066570126
0.122769974 -0.102624305 -0.2052216 -0.11816088 -0.22656243 0.0687679 0.26564255 0.118076906
-0.14069842 0.07440362 0.16636656 0.12502718 0.08699909 -0.08943302 -0.05752654 0.08610725
0.059744235 0.19351426 0.04429825 -0.090531565 0.071075335 0.17019007 0.05723473 -0.0061510038
-0.12658143 -0.16386473 0.08488457 -0.045224417 -0.039064392 0.0033102378 -0.04082556 0.07320037
-0.094720066 -0.089340374 0.09910084 0.080783136 0.16444734 0.28908587 0.13309962 0.04250799
-0.0051951627 0.29242745 0.12524357 0.09739415 0.12460553 -0.08973884 -0.024882602 0.08656421
0.21820785 -0.057367936 -0.039309915 0.040671315 -0.07082374 -0.09531666 0.089863464 -0.014489179
0.12874456 0.068037845 0.09668629 0.16370203 -0.06414188 0.013984775 -0.0404792 0.11676767
0.15187414 -0.11077396 -0.15242542 -0.059394024 0.17746513 0.006879207 0.03354008 0.052908376
0.088606134 -0.035895612 0.03595701 0.06586992 0.17046085 -0.016113047 0.0015367225 0.08821822
0.018142808 0.08171357 0.042019684 0.15838352 0.09883261 0.118213095 -0.1234409 0.15364866
0.23057207 -0.011115904 0.045988422 0.07068299 0.09394677 -0.20040034 -0.028459627 -0.03696132
-0.1634709 -0.17158556 0.0026262833 -0.03843185 -0.20325635 -0.10948253 -0.16634929 -0.14303102
-0.20333889 -0.15142886 -0.18979341 -0.051190384 -0.14899401 -0.28575468 0.016026532 -0.12358308
-0.079936646 0.049018905 -0.20363405 0.0418969 0.07823446 0.025517156 0.075840436 -0.011334005
-0.09353281 0.054581124 0.064516015 0.16019888 0.25298083 0.08164974 -0.025969785 0.030148014
-0.050133236 0.027361387 -0.16502336 -0.047882 -0.124396116 0.005241844 -0.12376158 0.12778726
-0.022006825 -0.142748 0.2181213 0.02234106 0.1837322 0.20049451 -0.26811513 -0.31348696
0.13043904 0.18067048 0.009064046 -0.2586704 0.06394169 -0.14612572 -0.10967049 0.028489312
0.008975506 -0.11045279 -0.05177196 0.00836811 0.1276383 0.13949032 0.075515695 -0.055017628
0.019315952 0.07840188 0.116170734 0.090023674 -0.06679145 0.042813778 -0.048990715 0.08819914
0.051713564 0.05511833 0.021153906 0.008917139 -0.006346233 0.06583606 0.102889985 0.13756606
0.105534986 0.16289338 -0.05675547 0.023374638 -0.08511826 -0.03620652 0.018968085 0.034363467

lstm.weight_hh_l0 f4 [256, 64]
00000000: 6b55 a8bd d190 913d 42fd f1bc e805 c03d
00000010: 096f b1bd 745a b3bd a663 7dbd b1c0 3abd
00000020: 543f ee3b 8731 80bd 0fcf 61bd 8568 343e
00000030: 91d0 763c 8441 ffbb 8441 803d 2676 ee3d
00000040: 8857 813d 07cf dc3c 6c3d b43d 0814 8fbc
00000050: f6d9 42bd 0ba9 333d e0b6 67bc fecc 053e
00000060: b607 7fbc 3023 bb3c 262a bdbd c31a 6abc
00000070: 049f 193e 0d84 3d3d 3273 6dbd 17ff 033e
00000080: b319 9cbd f8e4 a0bd 8293 42bd 13b6 503a
00000090: 7730 0c3d 25a6 b9bd 17a9 d4bd 8934 1b3d
000000a0: dd13 ddbd 5341 a5bd 3cad 033e e70c 1e3e
000000b0: 6410 0f3e 6409 febd 1d22 04be e92c fbbd
000000c0: a752 c4bc adee 2a3e f615 c4bd c25f abbd
000000d0: a9c1 743e db71 87bb 9a55 e93c 8752 913d
000000e0: f7cd 00bd 1372 26bd 1106 2dbd 4198 1cbd
000000f0: 9c44 c2bd 7d31 1cbe b2b7 f5bd b07d 1ebd
00000100: d451 743d 118c 13bd 924f b73d 1b67 b93b
00000110: 07a0 d8bd f66d 403d 1cee acbb 7ac2 233e
00000120: 88cd 2f3e 9194 103c 9e7c ebbd 556a 46bd
00000130: fe92 55be 8f27 27bd ef34 1ebd 6e91 92be
00000140: 88cc 123b 9c80 3b3e b81e eb3c e4ea bd3b
00000150: b143 8d3c e93a 163e 6e18 0bbe 8c03 febd
00000160: e247 073e 95c9 f0bd 41f4 debc 4c57 50bc
00000170: a02e 33be 7613 97bc 6135 a03d 36a4 52bd
00000180: 2e6d c83c 9765 693e e990 70bd 183a 11bd
00000190: 0625 bdbd b5f5 e83d 1b9e 233d 492a a53d
000001a0: 7174 dcbd 8626 04bc c02f 8bbd afad c2bc
000001b0: af82 a03d 71b6 b4bc bd22 8b3d 670b 243d
000001c0: 5b14 803d 9036 923d 49c8 8abd b1a9 88bd
000001d0: 52ff 4ebe 9d17 7b3e 4d5e 363d 7eff 68bd
000001e0: 248f 09be 83af 17bc f903 8dbd 3927 fb3d
000001f0: d4ec f93c 614e 5a3d 616f aa3d df9d f53d
00000200: 10d4 723d f143 1a3e f0ea 5cbd 3f50 25bd
00000210: 5ee2 713c a41a 933d df91 983d ab74 1b3e
00000220: 1125 de3c aeca 2cbe 0820 083e a8f8 d1bd
00000230: a13a b63c 3fda d73d 6d10 a8bc be4c ad3c
00000240: 1ccd 953d 4ed6 aa3d a6ae ddbd 1cd6 70bd
00000250: a654 2fbd 9147 90bd cb4e 24bd 5e77 4d3d
00000260: 72d7 b93d 5e93 4f3d 85dd 04be c5ab ebbd
00000270: 3e6f 84bc 91e1 a13c 6725 853c 0d19 273c
00000280: f8eb c13d f531 5a3e 01cb 2d3e b107 6f3d
00000290: 0142 c7bd 7fee 093d 8092 113d 6d92 2abd
000002a0: 1d33 bcbc a66f 7ebc 49ec 4a3c 531f 853d
000002b0: 38af 68bc 2db9 dd3d d9c4 3cbd 1ab8 a73d
000002c0: 51e9 1f3c 2228 553d a275 0abd ddcc 1dbe
000002d0: 6749 21bd cf4f 9bbd f864 24be ea01 83bd
000002e0: d02f 34bd 2fb0 f9bd 478b a93d 5b1d c33d
000002f0: 090b 06be 5fb0 cfbd 33fd 1bbd f33a ba3d
00000300: 5531 243c 1846 023d 812c 9fbd dcc3 a43d
00000310: ccd5 19be 3fab 5ebd ab13 f23c f92d 5dbd
00000320: 1a70 1c3d 764e 67bd 417c 9dbd b749 153e
00000330: 6458 0d3e b6d8 9e3d f4ca efb8 d989 633e
00000340: b2bd 31bc 9c8b 41be a394 8d3d c166 1b3d
00000350: c08f ae3d 22fa e3bd 5ca0 d13c 162c ae3c
00000360: e7be ef3d bafa 42bd 2014 08be 368c bebd
00000370: 7dbc a43d ca1c 6dbd f8ba acbb 0821 253e
00000380: 4cfc 92bd d188 963d a5d5 9b3d fba5 133e
00000390: a3da 353e fedb 02be 4db3 323d 5937 ab3a
000003a0: e6a1 cdbd 4031 44bd 69d9 0dbe 2643 bf3c
000003b0: 73d7 ec3b 9c58 09be 69dc bc3d 4251 9abe
000003c0: 92e6 b6bd f194 8f3d 8cc6 05be d173 d7bb
000003d0: 906a d23c 27c2 983d 8d12 e13d 73d4 64bd
000003e0: 6c62 223b 9f3f 99bc a69d 6cbd bee9 d83d
000003f0: 7792 0f3c 596d ccbd 4ac5 b1be cfff c4bb
-0.08219417 0.071077 -0.029539708 0.093761265 -0.086637564 -0.08757487 -0.06186261 -0.04559392
0.007270733 -0.062594466 -0.055129107 0.17617996 0.015064375 -0.0077897925 0.06262496 0.11643629
0.063155234 0.026954187 0.08800778 -0.017465606 -0.047571145 0.043862384 -0.014142722 0.1306648
-0.015565803 0.022843927 -0.09236555 -0.014288607 0.15002066 0.04626851 -0.057971187 0.12890278
-0.07622089 -0.07856172 -0.047503956 0.00079617015 0.034225907 -0.09064893 -0.10383814 0.0378919
-0.10794804 -0.080691 0.12859052 0.1543461 0.13971096 -0.12404135 -0.12903638 -0.12264425
-0.023965193 0.1669261 -0.09574501 -0.08367874 0.23902 -0.0041334457 0.0284832 0.07095819
-0.031446423 -0.040636133 -0.042242114 -0.03823114 -0.094857424 -0.15253253 -0.11997928 -0.038694084
0.05964835 -0.03602225 0.08950724 0.005658043 -0.10577398 0.046979867 -0.0052774083 0.15992156
0.17168248 0.0088244835 -0.11498378 -0.04844125 -0.20856854 -0.04080921 -0.0386247 -0.2862658
0.0022399742 0.1831078 0.028701171 0.0057958234 0.017244192 0.1467091 -0.13583538 -0.1240302
0.13211015 -0.11757199 -0.027216079 -0.012716126 -0.17498255 -0.018441897 0.07822681 -0.051426135
0.024466123 0.2279266 -0.058731947 -0.035455793 -0.09235577 0.1137499 0.039945703 0.08064706
-0.10764397 -0.008065825 -0.06796217 -0.02376446 0.07837426 -0.022059651 0.06793735 0.040049937
0.062538825 0.07139313 -0.067764826 -0.06672991 -0.20214584 0.24520727 0.044523526 -0.05688428
-0.1343351 -0.009258154 -0.06885523 0.122633405 0.030508436 0.053297404 0.08322025 0.11993002
0.05928427 0.1506498 -0.05393499 -0.04035973 0.014763443 0.07182816 0.07449698 0.15181224
0.027117284 -0.16874191 0.13293469 -0.102525055 0.022244753 0.10539674 -0.020515645 0.021154758
0.07314512 0.083416566 -0.10824327 -0.05879794 -0.042805336 -0.070449 -0.040114205 0.050162666
0.09074296 0.05067765 -0.12975128 -0.11507372 -0.016166326 0.019760879 0.016253186 0.010198844
0.094688356 0.2130812 0.16971971 0.058356944 -0.09729386 0.033674713 0.035540104 -0.04164355
-0.022973591 -0.015529549 0.012385436 0.06500115 -0.014201932 0.10826335 -0.046086166 0.081894115
0.009760217 0.052040227 -0.03380359 -0.1541018 -0.039376643 -0.07583582 -0.16054142 -0.063968495
-0.04399091 -0.121918075 0.08278518 0.095270835 -0.13090147 -0.10141062 -0.038083266 0.09093275
0.010021527 0.031805128 -0.0777216 0.0804517 -0.15022963 -0.05436253 0.029550394 -0.05399892
0.038192846 -0.05647131 -0.07689715 0.14578901 0.1380325 0.07756178 -0.00011434211 0.22220553
-0.01084845 -0.18900913 0.06913116 0.03793979 0.08523512 -0.111316934 0.02558916 0.021261256
0.117063336 -0.047602393 -0.13288927 -0.09304087 0.08043764 -0.057888784 -0.005271312 0.16125882
-0.07177028 0.073503144 0.07609109 0.14418785 0.17759185 -0.12779233 0.043628026 0.001306276
-0.10040645 -0.04789853 -0.13852467 0.023347449 0.007227832 -0.13412708 0.092217274 -0.3014012
-0.089306965 0.0701083 -0.13064021 -0.0065750857 0.025685579 0.074589066 0.109898664 -0.05586667
0.0024777902 -0.018707095 -0.057767533 0.10591458 0.008762947 -0.09981794 -0.34720832 -0.00601194

lstm.bias_ih_l0 f4 [256]
00000000: d1e4 f7bc 146b 3bbc 14be e63d 31e2 e63d
00000010: 229b 94ba 6cbf 6ebd 6e94 08bd b069 c5bd
00000020: db01 033d c5b6 de3d 599c a63c a82e 263c
00000030: 1a50 123e 6855 ce3d dde4 cbbd bd65 623e
00000040: 1377 393d 61d7 0e3e 6b47 523d 0360 9a3d
00000050: 9334 fcbc df44 fabd 9a39 a63c 2025 083c
00000060: 4cc5 e1bc d26c c93b aaa4 abbd 1c4e 9cbc
00000070: aff3 873d ef57 2d3e f97f ae3c a354 753e
00000080: 79c9 31bd 483c 3a3e 6f4d adbd 31c5 ecbd
00000090: 6148 b9bb 3578 f33c f17b 9ebd 7812 14bd
000000a0: 8ca0 cc3c 49d0 c03d 05c7 903d 14e2 ffbb
000000b0: 48a2 de3d 3c7f 003e ec92 823d 02c9 2d3e
000000c0: 82c4 adbc 0988 f23d 394d 0e3d 5275 b23d
000000d0: 1b97 48bc 8802 363b 1dad 1d3e 4435 173c
000000e0: 2c19 d2bc da83 b4ba b44c 113d 7c01 573e
000000f0: 775d d13e 551b ef3d 2606 033e ea56 363e
00000100: fe7d 223d a175 b3bc 6382 16bd bc83 d5bd
00000110: 712b dfbd 33ce ec3b f46a 003e 0b5d 2c3d
00000120: 3636 cc3c eb3e e0bc 9ce3 1b3c c2eb 8cbd
00000130: c0bb e73b cd55 98bb 63cb 77bd aad0 56bd
00000140: 711a 5b3d 82ae f73d fb4d b33d ac4c c93b
00000150: 3b9e 933d 31ca 2fbd 741a a9bd f490 e7bd
00000160: 2db6 eb3d 1b97 213e 1155 243d 50ab e03b
00000170: a8d9 a4bd bedb 8ebd 82ac 13bd 9068 503d
00000180: a9b9 643d 63d9 0ebe ebc6 a63d dbad a6bd
00000190: 01f3 bb3d 61ac 22bd d828 c0bd 07dd c3bd
000001a0: b21e eabd ca5a 1dbe 5a54 c0bc b46d cd3a
000001b0: 5d07 233e 0432 123e bf64 84bd ffd6 763d
000001c0: feae c43d a6cb dfbb 7f20 333d e946 ae3d
000001d0: aa09 80bd 6538 d0bd f84e d7bc b8f4 f53d
000001e0: 59b6 7f3d 210e 0ebe 6fbb 5cbd 9a17 64ba
000001f0: 5757 4d3e 9b43 573d 0b76 073d ac95 59bc
00000200: fd5b 223d d0e7 433d e9e2 703d 2db1 80bd
00000210: 2f5f 903d 9032 b6bd 38fb 9b3d 3d1b a23d
00000220: 5bcb 053e 7545 153e 6193 d5bc c338 5cbd
00000230: 6e31 8c3c 3055 f3bc 65cc 24bb a731 89bc
00000240: ef83 abbd 60e8 42bd ba0b e03c df29 42bd
00000250: 1613 ddbd 3fab 47bd bc63 9abd e417 31bd
00000260: 3d98 6fbd ece3 923d 8a98 eb3d 1947 973d
00000270: 56f0 c03c c0e5 40bd d168 85bd 7530 5bbd
00000280: 3c40 a23d d55c 0f3d 0740 4b3d 2911 afbd
00000290: cf45 b23d cf89 12bd 8140 613d ef26 99bd
000002a0: 7551 2f3d bc82 db3d f0a3 00be c92a d2bd
000002b0: 9217 693d 2ebc f33d 88f5 333d 44e1 37bd
000002c0: cf24 103d cad9 123c 738b f03c 9b64 3e3d
000002d0: a815 af3d 86a3 c5bd 2c5b ad3b 496a de3d
000002e0: cd38 c8bc f552 713d 3303 8cbd bd3f d9bd
000002f0: 8c3b aa3d 1979 dd3d 2f13 a5bd b758 94bd
00000300: 4023 e5bd c0b8 8d3d 0bb4 abbc 7463 1ebc
00000310: 12a0 6abd e2a3 173d 72f3 183e ef87 593d
00000320: 760b 11bd 9da6 233c cd52 88bd d07d cb3c
00000330: f8c0 e43d 46ce 133d abba ec3d d95a 563e
00000340: 8460 793d 7200 083d dacc bf3b ab4f 503e
00000350: 14a5 d4bd b43e 8e3d f211 023d 5514 5b3d
00000360: 1eb7 09bd 0fed 3bbc 8f47 dcbd d784 1bbd
00000370: 1508 d53d c6db 03bd 7b91 82bc 1084 af3e
00000380: 157e 08bd 686e c73d 86a4 10bc 8ce2 873d
00000390: 56e3 d43d f1cf 1fbd f56c 88bd e3d2 84bc
000003a0: d25f b2bd bb58 183e 2112 e1bb 3533 a8bd
000003b0: 7e77 00bd 65ae 683d 6c06 6fbd 1f75 a93e
000003c0: ff22 d1bd 0aa2 b63d b5d5 e93c 9986 c8bd
000003d0: 7dc7 353d a35e d9bb 6a66 543e f0a2 92bc
000003e0: a0c6 f43d 86d5 00be 9679 123e 6fce 203e
000003f0: e50c a53e dc18 d63d b657 0d3e 9134 30bd
-0.030260475 -0.011439104 0.11266723 0.11273611 -0.0011337737 -0.058288023 -0.03334468 -0.09639299
0.03198419 0.10874704 0.020338224 0.01014296 0.14288369 0.10074884 -0.099557616 0.22109123
0.045279574 0.13949348 0.05133764 0.07537844 -0.030786788 -0.12220167 0.020291138 0.008309633
-0.027559899 0.0061470056 -0.083810166 -0.019080214 0.06638276 0.16928075 0.021301256 0.23958068
-0.04340503 0.18187058 -0.08462035 -0.11561049 -0.00565438 0.029720405 -0.07738484 -0.036150426
0.024978898 0.09414727 0.0706921 -0.007808933 0.108707964 0.12548536 0.063756794 0.1697121
-0.021211866 0.11842353 0.034741614 0.08713783 -0.012243058 0.0027772505 0.15398069 0.009229008
-0.025646769 -0.0013772205 0.03547354 0.2099666 0.4089162 0.11675135 0.12795314 0.17806593
0.039670937 -0.021906676 -0.03674544 -0.10425517 -0.10896958 0.0072267293 0.125408 0.04208092
0.024928194 -0.027373752 0.0095147155 -0.06880905 0.007071942 -0.0046489 -0.0604967 -0.05244509
0.053492013 0.120938316 0.08755108 0.006143173 0.072079144 -0.042917434 -0.08256999 -0.113069445
0.11509357 0.15780298 0.04012019 0.0068563595 -0.08049327 -0.06975506 -0.03605319 0.05088097
0.05584112 -0.13950114 0.08143409 -0.08138629 0.09177209 -0.039715175 -0.0938279 -0.09563642
-0.11431636 -0.15366665 -0.023477722 0.0015672953 0.15920778 0.14276892 -0.06464528 0.06026363
0.096036896 -0.0068296967 0.043732163 0.08509619 -0.06251843 -0.101670064 -0.026282772 0.12009567
0.06242976 -0.13872577 -0.053889688 -0.00087010267 0.20052849 0.052554708 0.03307156 -0.013280313
0.039638508 0.047828496 0.05881015 -0.062837936 0.07049405 -0.08896363 0.076162755 0.079153515
0.13065855 0.14577277 -0.026071252 -0.05376507 0.017113414 -0.029703707 -0.0025146243 -0.016747309
-0.08374774 -0.04758489 0.027349342 -0.047403213 -0.10794656 -0.048747297 -0.07538554 -0.043235675
-0.058494795 0.07172379 0.11503704 0.07386608 0.023552101 -0.047094107 -0.06514133 -0.05351301
0.07922408 0.03500064 0.049621608 -0.08548195 0.08704721 -0.035775956 0.054993156 -0.07478129
0.042802293 0.10718295 -0.12562537 -0.10262067 0.056907244 0.11901127 0.04393533 -0.044892564
0.035191353 0.008963058 0.02936337 0.046482664 0.085490525 -0.0965033 0.0052904096 0.10860116
-0.024441147 0.058917005 -0.06836548 -0.1060786 0.08312139 0.10814113 -0.080602996 -0.072434835
-0.11188364 0.06920004 -0.020959875 -0.009667266 -0.05728156 0.037021525 0.14936617 0.053108152
-0.03541132 0.009988454 -0.06656418 0.024840266 0.11169618 0.03608539 0.115590416 0.20933093
0.06088306 0.03320355 0.0058532776 0.20342891 -0.10383049 0.069455534 0.031755395 0.053486187
-0.0336219 -0.011470093 -0.10755836 -0.037968483 0.10401932 -0.032192014 -0.015938511 0.34280443
-0.033323366 0.09737855 -0.008828288 0.06635007 0.103949234 -0.039016668 -0.06661407 -0.01621384
-0.087096825 0.14877598 -0.006868616 -0.08212892 -0.031363957 0.05680694 -0.058355734 0.3309717
-0.10211753 0.08917625 0.028544286 -0.097912975 0.0443797 -0.006633596 0.20742193 -0.01789996
0.11951947 -0.12581453 0.14304194 0.15703748 0.322364 0.1045396 0.1380299 -0.04301888

lstm.bias_hh_l0 f4 [256]
00000000: c983 4ebc e174 a0bd 5417 5dbc 633a b23d
00000010: 8044 4c3c 0f93 a1bc 7874 4e3c ccbb bd3d
00000020: 4ed8 723d 8343 653b ed45 333c 19ec 853a
00000030: 0e4d f5bc da9c 06bd e7c3 c83c ddfb 303e
00000040: 7e31 873d 61c7 373c 7ea9 f43c cc9c 743d
00000050: abc3 32bd 6552 e0bd c006 283d c0cf 23bd
00000060: 808d 91bd d76d 6dbd be33 b93d 488f 753c
00000070: 03dc 0a3d 229b 323e 40e9 a73d c14d 573e
00000080: a498 1c3d 8d95 273e baf0 d4bd 4de7 08be
00000090: 72e8 6a3c 10c7 993d a950 423d f386 58bd
000000a0: 14cd 433d fcc5 27bd eea5 9f3d 439d 483d
000000b0: 5036 9f3d 2ae6 0ebd 0cb2 ca3b a392 783e
000000c0: 226a 2d3d e7cc e03c a8af a5bd b6f3 f2bd
000000d0: 493a d23d 276b 173e caab 503d 7c56 f03c
000000e0: 12d0 f4bd c6f5 1c3c 43fd 99bd 6234 8e3e
000000f0: 332c 863e 4ec2 5dbc 243b 913d a652 423e
00000100: aa8b babc 87c5 92bd 0382 bdbd dcca efbd
00000110: a59b bebc 01ea 093c 80a6 b43d 926d 03bc
00000120: 8168 f23d d478 73bd f0e9 423d 6fdd 063e
00000130: c1b7 813d e1a3 533b c94a de3d 2da3 323d
00000140: bdba 023e 6936 2b3e 7b96 0f3e 3a05 d0bd
00000150: 0048 fa3d 6252 d13d b409 fcbd 1d94 fe3b
00000160: a0b3 3d3d 602d 4cbd 31a7 0a3d 842f 333c
00000170: 318e c83d a1df 173e 2f56 dfbd 73a4 103d
00000180: a58a 2b3d a821 06be 3418 0d3d a5e8 203d
00000190: 38e8 963d dd16 e93d b380 f13c abc7 b13d
000001a0: 101c 68bd 98b1 d8bd fcd3 2bbd 3e63 f63d
000001b0: cb39 12bd a3a3 a63d 44ab 37bd 48a8 cabc
000001c0: 4909 993d 58d1 dcbd d511 323d 16fa 99bc
000001d0: 9236 b73d 7e53 b5bd dd59 cfbd b50f 233d
000001e0: 13e6 bf3d e3cc 813c 9831 2b3e a7e2 b63d
000001f0: ddd9 d83d 2e01 bd3d 2aff babd 2e55 933d
00000200: 607c ef3d 95b8 9f3d 1f99 143d 6cd6 3bbd
00000210: d3fd e73d 3a6f 733d 5a76 c23d 05d8 0b3e
00000220: 88f6 38bd 08ad 53bd 8377 a7bd 79c0 df3d
00000230: 033a b7bd d9bd cb3d 3df2 18bd 7834 cfbd
00000240: e2d8 07be e6ff 563d f0e3 dd3d bedf a43d
00000250: 5d68 be3d 6604 273d da0b acbd 256e fd3d
00000260: 9383 ff3c d9ac 9ebd e7d3 45bd 427c 07be
00000270: cd6b c3bd 9cfc 5f3d e7bb 86bd eb95 bdbd
00000280: 0455 e7bc a7e1 1cbd 5627 a23d aa21 e3bd
00000290: d9a0 83bd 5bb3 773d 21db 093d 4828 a1bb
000002a0: 0849 33bc d879 ecbd 7bbf cc3c 336a 663d
000002b0: e731 2dbd ba55 0d3e d6d1 bebd 2d7d 9f3d
000002c0: fa73 0bbd 6f54 1c3d b1af d2bd 24c3 05be
000002d0: 36e8 a0bd 6fae 883c 4dd3 8abd 7747 aebd
000002e0: 9d23 763d 3289 92bc bfb2 e83d ec0e e53d
000002f0: 46eb 9ebd 3480 c03d 46c2 d53d 04d3 9fbb
00000300: 243b 093e 39e1 ae3d dbb6 cd3d 6691 94bd
00000310: cecd c33c b76b 043e 1044 81bc ed55 773d
00000320: 88da a53d 7f91 303e 4d48 de3c 64dd 853d
00000330: 7359 333e ff30 2fbd 5270 c6bd 6869 2e3e
00000340: bb73 35bd c3fa 823d 0593 c8bb 3c8a 203e
00000350: f2cf 87bd 7fc4 103d 6a46 21bd 6877 02ba
00000360: 2694 f63d bf78 833d 0d4b a2bd c6d5 613d
00000370: 2eca d23d 925f 0f3e a157 7e3c 41f0 7d3e
00000380: 8e50 e5bd 5819 053e b395 92bc d850 08bd
00000390: d88c bbba 0cd6 af3d c1c5 b53c 9d6d 80bd
000003a0: df6e d63c 5ca7 75bd 00bc 40bd 8583 93bd
000003b0: 289b c23d 55d0 e23d 1fd6 aabb f3e9 1a3e
000003c0: 5555 b3bd 15a4 843e d6e1 223e 9f51 0b3e
000003d0: f822 f93d bd04 083e e69d 2d3d 1963 d33d
000003e0: 64cb aabd 3c3f 25bb 9d6a d43b d59e 013e
000003f0: f1ec b03e e027 56bd af53 443d 4c49 313b
-0.012604662 -0.07834793 -0.013494331 0.08702543 0.012467504 -0.019723443 0.0126010105 0.09264335
0.059288315 0.0034982867 0.010941965 0.0010217457 -0.02994397 -0.03286443 0.024507476 0.17283578
0.06601237 0.011216969 0.029865976 0.059719846 -0.043643635 -0.109532155 0.041022062 -0.039993048
-0.07107067 -0.05796608 0.09043072 0.014987774 0.033901226 0.17441991 0.08198786 0.21025755
0.038231507 0.16365643 -0.103974774 -0.13369484 0.014337646 0.07508671 0.047440205 -0.052863073
0.047803 -0.040960297 0.077953205 0.0489781 0.07774031 -0.03488747 0.0061857756 0.24274687
0.042337544 0.027441455 -0.080901444 -0.118628904 0.10265023 0.14786969 0.05094508 0.029338114
-0.11953749 0.009580081 -0.07519009 0.2777434 0.26205596 -0.013535095 0.07091358 0.1897684
-0.022771675 -0.071665816 -0.092533134 -0.11708614 -0.023267576 0.008417607 0.0882082 -0.008021729
0.11836339 -0.059441403 0.04758638 0.13170408 0.063338764 0.0032293724 0.10854108 0.043612648
0.12766548 0.16719975 0.14022247 -0.10157247 0.12220764 0.102207914 -0.12306538 0.0077691213
0.046313882 -0.04984796 0.033850852 0.010936622 0.09792746 0.14831401 -0.1090511 0.03531308
0.04188027 -0.13098776 0.03444691 0.039284367 0.07368511 0.11381314 0.029480314 0.08680662
-0.056667387 -0.10580748 -0.04195021 0.12030648 -0.035699647 0.0813668 -0.044841066 -0.024738446
0.07472474 -0.10782117 0.043474037 -0.018796008 0.08945955 -0.088538155 -0.10124562 0.0398099
0.09370055 0.015844768 0.16718137 0.08929949 0.10588429 0.09228741 -0.091307 0.07193981
0.116936445 0.07798878 0.03627884 -0.045858786 0.1132771 0.059432246 0.0949523 0.13656624
-0.045156986 -0.051678687 -0.08177092 0.10925383 -0.08946612 0.0994832 -0.03734039 -0.101174295
-0.13266328 0.052490138 0.10834491 0.08050488 0.092972495 0.04077568 -0.08400698 0.12374524
0.03119067 -0.07747812 -0.04829779 -0.13230994 -0.09542046 0.054684266 -0.06578808 -0.0925711
-0.02823878 -0.038301136 0.07917659 -0.11090405 -0.06427164 0.06047378 0.033656243 -0.004918132
-0.010942705 -0.11546677 0.024993649 0.056253623 -0.04228392 0.13802233 -0.09317367 0.07787547
-0.03404615 0.03816646 -0.10287417 -0.13062721 -0.07856791 0.016684739 -0.06778584 -0.085097246
0.060092557 -0.017887685 0.11362218 0.11184487 -0.077597186 0.09399453 0.10437445 -0.00487745
0.13401467 0.085390516 0.100446425 -0.07254295 0.023901846 0.12931715 -0.015779525 0.06038468
0.08098322 0.17243002 0.027134085 0.065363675 0.17514591 -0.042771336 -0.09689392 0.17032397
-0.044299822 0.06395485 -0.0061210417 0.15677732 -0.06631459 0.035343643 -0.039373793 -0.00049768994
0.12039976 0.06419515 -0.07924471 0.05513551 0.10292469 0.14001301 0.015523822 0.24798681
-0.11197005 0.12997949 -0.017893648 -0.033280224 -0.0014308942 0.08585748 0.022189023 -0.06270907
0.026175914 -0.05997406 -0.04705429 -0.0720282 0.0950225 0.110748924 -0.0052135135 0.15128307
-0.0875651 0.25906435 0.15906462 0.13605355 0.12164873 0.13283058 0.04238691 0.10321636
-0.08339575 -0.0025214693 0.006482436 0.12658246 0.34555772 -0.05228412 0.04793137 0.0027051745

lstm.weight_ih_l1 f4 [256, 64]
00000000: 6737 dabc a0d5 e6bd 206a 80bc 4812 4cbd
00000010: 8127 90bc f717 983b 5045 e8bd 63bb bebc
00000020: 9079 473d 66ad 503c 2ce3 e53b aea7 7b3c
00000030: 7ad8 f4bb b8c5 9ebd 89fd ffbc 745c dd3d
00000040: 54f0 aa3d 5902 cbbd 609b c43d 4764 93bd
00000050: 72f7 d43d f01f 073e 53b3 4cbd 547c bd3c
00000060: cfe7 e13d 2f69 193e 14f6 20bd 2492 a43d
00000070: 59af a03c c96b f43d 34ca cb3c d275 43be
00000080: 4ea6 d33d 458e 0fbe 2432 3abb f382 81bd
00000090: da1e a0bd 8d9b cebd c010 943d 8b99 58bd
000000a0: b24f bd3c 0b39 8e3d a0b7 663d 1713 063e
000000b0: 1c32 543d 20e1 00bd 11a0 fdbc fc7f d4bd
000000c0: 73bc fd3d 4949 9dbd 3916 8ebd 1fdb cd3d
000000d0: 9f53 973d 2b1a 03be 210b 7e3d dde5 f63d
000000e0: 5645 88bd 5898 d1b7 21d0 14be 5ecc 08be
000000f0: 4c90 363d 7b76 5ebc ade7 f6bc 8817 6dbd
00000100: fd54 87bd 4f14 e13d 791e f53c 9e51 a5bd
00000110: 1b0f e73d fc9f 263e 95d8 ff3c 5dd7 c93c
00000120: 92cb 0f3e e3cd 6b3e 0f39 ecba 218b 5abd
00000130: 8e24 b03d 5ba1 ba3c d3f5 323d d20a ed3d
00000140: 814c 3a3d f08a 25be 87c9 073e c8b1 81bd
00000150: 97b2 24bc 374d b6bc 96ec 6bbd d21f 063e
00000160: 5f1d 36bd a8b3 9d3d 6609 4bbd 395e de3d
00000170: cde2 9c3e 961f c23d af82 98ba a044 85bd
00000180: c7ab cd3d f537 3f3e 0875 cf3d 4941 00be
00000190: 3129 fbbb fe5b 603d 1058 833c 3d85 2dbe
000001a0: 0750 b03d 3a3f 33be a0d3 883c 113c f6bd
000001b0: ba8f d1bd 2432 033e 1d14 783d 75ea a2bd
000001c0: 15a0 bbbd 6582 3a3e be15 9bbb 3240 a3bb
000001d0: bb0a e8bc 9bd1 2dbd e83e bb3d a9a3 b8bc
000001e0: 1f0d 16be dfcb b03d 1e83 1dbe 32f0 f0bc
000001f0: 29ec 443e 0877 fc3d c072 70bd 0141 e83c
00000200: b8cd 17be abfc eb3c bb9b 96bd 60b1 1bbe
00000210: 00bd 553e 501e cc3d 76fb ce3d 09aa ce3d
00000220: ebce d7bc 279c 513d a586 2bbc cf91 ebbd
00000230: 7f2c c3bd 7a0f a0bd 937d 913d cefa 433d
00000240: 645f c5bb 7bb6 0dbd 98cf ce3c f057 743e
00000250: 1b96 adbc 1a62 963d d906 083d 1cf2 c8bc
00000260: 4e62 34be cf3b be3d b608 0dbc f329 a83c
00000270: b22a 8b3d f4b0 90bd 5dcb 3abd 2a27 86bd
00000280: 0938 3f3e bedb 40bd 84ce 993d 9232 d13d
00000290: c66e a2bc 0d11 b93d 6450 ddbc 9eff 153d
000002a0: a106 b1bc e3e4 b43c 8fe9 c0bb 8090 63be
000002b0: 3642 283e ce6f 8f3d ab2b 2f3b 8c25 923e
000002c0: c016 8e3d 8874 8cbd 88da c53d aeb5 ee3b
000002d0: 008d 11bd f34a d23d a0b8 963d 5618 2f3d
000002e0: c959 523d bdb6 86bd 055f 513c db7b d43c
000002f0: dcb7 7fbe 8001 a2bd 1b49 343d fc71 37be
00000300: b78c 573b 56a7 f43d 5c58 1cbd 6d6a 9cbd
00000310: 436c 90bb a07f aabd 454b 36bd e296 cebd
00000320: 9d3b e23d 5f6b 71bb 7d4b 6dbd 5246 e03c
00000330: b00c af3c 738f bb3d 2cd8 1c3d dd5a b4bd
00000340: e1f1 b2bd bb9c f7bd d486 853d 538b e63a
00000350: 5f23 bd3d dba3 dfbd 7e19 4c3d d3e5 63bb
00000360: bb00 2a3d 2de4 033e 3d0b e2bd f8c8 8d3c
00000370: ad09 efbd 1140 0bbe 7b43 883d c40d 983d
00000380: 3bde c83d 0273 bf3d 9f29 863d 019b da3c
00000390: 9b1b 0b3e 9193 dc3b 05c9 a13d a846 3cbb
000003a0: a552 7f3d bce6 4b3d a67c 85bc 3d32 1dbe
000003b0: 2cbd bcbc 3774 f43b 8771 8dbd 2293 5b3e
000003c0: a8a3 80bd 5bab ffbd 25df 00be 1476 823d
000003d0: 2b1f de3b 5729 183e ca46 04be 8bc6 af3d
000003e0: 407f d0bd 7ef0 c1bd 330d 6bbd e0d7 453c
000003f0: 5343 393d 3146 453d cb9e b6bc 41eb b93d
-0.026637746 -0.112712145 -0.015675604 -0.04982212 -0.017596962 0.0046415287 -0.11341345 -0.023282712
0.048699915 0.012736654 0.0070156064 0.015359802 -0.007472095 -0.077525556 -0.031248825 0.1080865
0.0834662 -0.09912557 0.09599948 -0.07196861 0.10398759 0.13195777 -0.049975704 0.023130573
0.11030542 0.1498153 -0.03929718 0.080356866 0.019614862 0.11934621 0.024876691 -0.19087914
0.103344545 -0.14019115 -0.0028411234 -0.06323805 -0.078183845 -0.10088263 0.07229757 -0.052880805
0.02310929 0.06944474 0.056327462 0.1309322 0.0518056 -0.031464696 -0.030960115 -0.103759736
0.123894595 -0.07679994 -0.069378324 0.1005156 0.07388996 -0.12802951 0.062022332 0.12055562
-0.0665385 -2.4985682e-05 -0.1453252 -0.1335921 0.044571206 -0.013578053 -0.030139768 -0.05788377
-0.06608007 0.10990202 0.029921757 -0.08072208 0.11282178 0.16271967 0.031231204 0.024638826
0.140425 0.23027758 -0.0018022376 -0.05335534 0.08600722 0.022782018 0.043691467 0.115743294
0.045483116 -0.16166282 0.1326047 -0.06332737 -0.010052345 -0.022253616 -0.057598673 0.13098076
-0.044461604 0.07700282 -0.04956951 0.10857815 0.30641785 0.09478681 -0.0011635626 -0.0650723
0.100425296 0.1867369 0.10129744 -0.12524904 -0.0076648225 0.05477523 0.016033202 -0.16945358
0.08609014 -0.17504588 0.016702473 -0.120231755 -0.10232492 0.12812096 0.060566057 -0.079548754
-0.091613926 0.18213804 -0.0047328165 -0.004982018 -0.02832543 -0.042436223 0.09142858 -0.022538977
-0.14653443 0.08632635 -0.15382048 -0.029411409 0.19230713 0.12327391 -0.058703184 0.028351309
-0.14824569 0.028807005 -0.07353922 -0.15204382 0.20872879 0.09966719 0.10106556 0.100910254
-0.026343783 0.05117431 -0.0104691135 -0.1150242 -0.09529971 -0.07815452 0.071040295 0.047846608
-0.0060233343 -0.034597855 0.025245473 0.2386167 -0.02118974 0.0734293 0.033209655 -0.02452951
-0.17615625 0.09288751 -0.008608034 0.020527815 0.06795253 -0.07065001 -0.0456041 -0.06550439
0.1867372 -0.047084562 0.07510093 0.10214724 -0.019828212 0.09036455 -0.027015872 0.03662073
-0.021609606 0.022081798 -0.0058872174 -0.22223091 0.16431507 0.07003747 0.002672891 0.2854427
0.06937933 -0.06858164 0.09660822 0.0072848415 -0.03553486 0.10268202 0.07359433 0.042747818
0.051355157 -0.06577823 0.012779002 0.025937965 -0.2497248 -0.07910442 0.04401503 -0.17914575
0.003289027 0.11945979 -0.038170204 -0.076374866 -0.004407437 -0.08325124 -0.044505376 -0.10087372
0.110465266 -0.003683768 -0.05793332 0.027377281 0.021368355 0.0915822 0.038292095 -0.08806393
-0.08737541 -0.12090441 0.06519857 0.0017589129 0.09235262 -0.10919925 0.049829 -0.0034774437
0.041504603 0.12880011 -0.110373 0.017307743 -0.116717674 -0.13598658 0.06653496 0.074245006
0.09808012 0.09348108 0.06550907 0.02668524 0.1358475 0.0067314585 0.078996696 -0.0028728638
0.062334675 0.049780592 -0.016294789 -0.15351196 -0.023039423 0.007460143 -0.06906419 0.21442845
-0.06281215 -0.12483855 -0.12585123 0.06370178 0.006778618 0.1485952 -0.12917629 0.08582791
-0.10180521 -0.09469698 -0.057385635 0.012075394 0.04523022 0.048162643 -0.022292515 0.09078074

lstm.weight_hh_l1 f4 [256, 64]
00000000: b4db b9bd 79f6 363b 46cd 0b3c c9b0 143d
00000010: c649 e03d 6d67 4b3c 8fd5 ad3c ce95 803d
00000020: 749a 5ebd e8ad 8e3b 0c50 82bd 8fab d83c
00000030: d9a2 84bd 78b6 a23d 4b9f 85bd 0105 a93d
00000040: fc4b 2bbd 4f80 603a 6b40 563d dbbf 33bd
00000050: 4e06 96bd 8d0b 003d 3105 8b3d 75fe e8bd
00000060: 8a88 3b3d b53f c13c b5a4 25bc 42d6 333d
00000070: 1ce1 5cbd 9f09 5cbd 5f04 a8bc 5922 d43d
00000080: cf73 a3bd d24a f33b fb6a 893d 7fb3 cebc
00000090: 4793 1bba 41ae cdbd d778 06be 078d dbbd
000000a0: 2aa3 9a3d d452 f2bd 5f28 fdbc 5f46 8bbd
000000b0: d710 b73d 0815 5cbc 7320 4ebd 5708 853a
000000c0: 403c 493c 5ea9 c83c 5b89 d73d 4a18 cbbc
000000d0: 7c2c f1bc b849 f0bc f57f f33d 98fe 3c3d
000000e0: 46b6 133d 105d 70bd d34d e23d 430d 52bd
000000f0: fba9 93bd a558 c03d f794 553d 7737 1f3d
00000100: 3afc ecbd 12a7 3b3d f471 1ebd fa7c b8bd
00000110: 8155 cbbc 0ea9 b5bd 4378 9d3d b8f2 e93d
00000120: d7b1 41bd 42b7 31bd d288 643d 0de8 94bd
00000130: 63a4 fe3d c813 143d 70ed 693d 2a55 0fbe
00000140: 0fd0 e9bd 551f 583c 8916 e4bd 83f6 2ebe
00000150: 9e64 42bc f457 f3bd 0822 c0ba c6b1 20be
00000160: c3bc 6b3d 7106 a0bd c767 2d3c ab6d 41bb
00000170: ecdf 5cbb b9b3 f9bc 707c 783d 249b fabc
00000180: bc44 2a3e 7574 b73d 0210 7e3d 0b6a 923c
00000190: c9d3 11be dbc6 9c3c 8902 93bd 9617 ce3d
000001a0: 5f94 8f3d 8ed5 f03b 0e38 3fbd 344a 903c
000001b0: 21de 3fbd e278 14be f97e 94bb 3946 4dbd
000001c0: 2f18 133d f970 a6bb fe68 e03d f083 09bd
000001d0: 45a9 e73d 2bb3 153e 04d3 f7bd 4b37 413c
000001e0: 0ef8 74bd 5507 283e 1e41 a7bc 9a9e 4f3d
000001f0: 95e9 8e3c 979a f43c 98c6 0f3d ea1c 903c
00000200: ee0c 883d 547a b6bd 2b77 893c e60e 133d
00000210: 5b6c 8e3d 535d a2bd 5ee8 f83d 111c c73d
00000220: 4568 39be fa4e 933d 3e4e 09be 841b e83d
00000230: 79ad 28bd 5101 533d 8963 b03d 3eaf 5e3d
00000240: 7f7f 5f3e 5fb8 203e 148f ea3d 53a6 b03d
00000250: dda7 46bd a21d 8cbd 781b 25bd 3c4b d2bc
00000260: a3d1 c73c 92ae 9e3d 4bf8 973d 0b65 d1bd
00000270: 00c9 42bd ebe1 413b 20aa f93c dcae d93d
00000280: 08f6 17bd e4e4 d23c d47b 863d 663f 09be
00000290: 8fb5 81bd c0a7 edbb 97cb 6e3d 1ba6 f03d
000002a0: 8c28 003e bf75 fd3c 9b98 e13d 7934 6abd
000002b0: 9bb6 a53c 1470 cf3d 12c2 cf3d bcbf a33c
000002c0: b5a9 483d 561c b83c 34bb 87bd bd1c 19be
000002d0: 0798 f83d 5b97 ed3d 64f3 143d 05fb 2cbe
000002e0: 1658 b43d 7a0e 7dbd 4147 71bd a223 c23d
000002f0: ecc4 473c 4f9e 1f3e e591 603d fc70 debd
00000300: 5a71 adbd a735 22be 24e1 853c a328 c13c
00000310: 3e42 f2bc 9912 353c fb47 a6bc 43cd c6bd
00000320: a278 af3d bc4f aeba 889a 14bc 3454 eebd
00000330: 9799 3cbd 52e3 89bd 48ff fdbd f020 a5bd
00000340: ae9a 083e 0ba3 77bd 4ac9 04bc e91d 73bc
00000350: f21f 403d 50e3 c7bd ddbe ad3d d615 f93c
00000360: 40bc 4cbc f444 8cbd f40a 94bd 8e9b bf3d
00000370: 3320 46bd 6742 63bd b7b9 133e 686d 83bd
00000380: 1630 8dbd 72ae ec3d e6c3 16bd 20eb a9bd
00000390: fc49 8e38 5d5d 80bd 6b82 1ebe e3c3 aebd
000003a0: b07b ee3d ceae cc3b b2c1 eb3d ec8a 023c
000003b0: df77 a1bd 9f5a 253c 4709 173e 7422 1fbe
000003c0: 0cd1 353d 1710 e83c eeda 7c3d beb6 03ba
000003d0: 22b6 bb3c 2edd 063e e19d f4bb e239 003e
000003e0: 11f4 863d 0033 18be acb1 223d 79be ef3c
000003f0: 18df 24bd 993c 183d 4657 aa3d 7620 333e
-0.09075108 0.0027917905 0.008532828 0.036301408 0.10951571 0.012414795 0.021219997 0.06278573
-0.054346517 0.0043542273 -0.06362924 0.026448993 -0.06476373 0.079449594 -0.06524523 0.082529075
-0.04182051 0.00085640413 0.052307528 -0.04388414 -0.07325421 0.031261016 0.067880996 -0.11376659
0.04578451 0.023589948 -0.01011007 0.043905504 -0.05392562 -0.053720113 -0.020509897 0.10358114
-0.07981073 0.0074246908 0.06709858 -0.025232075 -0.0005934727 -0.10043002 -0.13132034 -0.10720258
0.07550652 -0.118322045 -0.03090304 -0.068005316 0.08938759 -0.013432749 -0.050323915 0.001014958
0.012282431 0.024494823 0.10524245 -0.024791855 -0.029440157 -0.029332027 0.1188964 0.046141237
0.0360625 -0.0586825 0.1105 -0.05128218 -0.072101556 0.093919076 0.052144017 0.038871255
-0.11571546 0.045813628 -0.038682893 -0.090082124 -0.024821045 -0.08870135 0.07688954 0.11423248
-0.047288742 -0.04338766 0.055794545 -0.07270823 0.12433698 0.036151677 0.057111204 -0.13997331
-0.11416637 0.013191064 -0.11137111 -0.17086224 -0.011864809 -0.1188201 -0.001465858 -0.15692815
0.057553064 -0.078137286 0.0105838245 -0.002951483 -0.0033702804 -0.030481206 0.060665548 -0.030591555
0.16627783 0.08957759 0.062026985 0.01787283 -0.14240946 0.01913779 -0.07178218 0.100630924
0.070107214 0.0073496765 -0.046684317 0.017613508 -0.046842698 -0.14499238 -0.004531738 -0.050115798
0.035911735 -0.0050793854 0.10957526 -0.03357309 0.113115825 0.14619128 -0.12100795 0.011792968
-0.059806876 0.16409047 -0.020416792 0.050688364 0.017445365 0.02985887 0.035101503 0.017591912
0.06643091 -0.08910051 0.016780457 0.03590288 0.06954261 -0.079279564 0.121536955 0.0972215
-0.18106182 0.07192798 -0.13408753 0.11333373 -0.04118106 0.051514927 0.08612735 0.054366343
0.2182598 0.15695332 0.11453071 0.08625474 -0.04849993 -0.068415895 -0.0403094 -0.02567064
0.024391955 0.077481404 0.07420405 -0.102243505 -0.04755497 0.002958412 0.03047663 0.10629055
-0.037099868 0.02574391 0.06566587 -0.13403091 -0.06333458 -0.0072526634 0.058299627 0.11750432
0.12515467 0.030939935 0.11015435 -0.057178948 0.020228675 0.10128799 0.10144438 0.019988887
0.04898997 0.02247445 -0.06627503 -0.14952369 0.12138372 0.116011344 0.036364928 -0.16892631
0.088058636 -0.061781384 -0.058905844 0.09479453 0.012192946 0.15587734 0.054826636 -0.10861394
-0.08468886 -0.15840779 0.016342707 0.023578947 -0.029572602 0.011051797 -0.020297995 -0.09707119
0.08567931 -0.0013298909 -0.009070046 -0.11637154 -0.046044912 -0.06732811 -0.12402207 -0.08062923
0.13340256 -0.060458224 -0.008104632 -0.014838674 0.046905465 -0.09760153 0.0848367 0.03040592
-0.012496054 -0.06849089 -0.07228652 0.093558416 -0.04837055 -0.055483248 0.14426313 -0.06417352
-0.06893937 0.1155671 -0.036807917 -0.082968 6.784868e-05 -0.06267808 -0.15479438 -0.08533456
0.11644685 0.0062464243 0.11511554 0.007967692 -0.07884192 0.0100924065 0.14749633 -0.15540487
0.044388816 0.028327985 0.061732225 -0.0005024484 0.022913996 0.13170311 -0.0074651097 0.1252208
0.06589521 -0.14863205 0.039720222 0.02926563 -0.04025182 0.037167165 0.08317427 0.17492852

lstm.bias_ih_l1 f4 [256]
00000000: d1d8 83bd e41c 1c3e c713 c5bd a8cb 0ebd
00000010: 8e19 b03d 618a 12bd 0a8e f6bc b18c c4bd
00000020: 73fb 91bd 60a9 8fbd b6e8 7a3d c333 9dbd
00000030: b8f4 173c 9af8 df3d 0db3 9ebd d0e7 933d
00000040: b11d c8bd d35d 07bd f3e2 06be f5c2 81bd
00000050: 9c18 f53d c488 103b 1654 18bd 5e58 f23d
00000060: 45a2 203c 37c8 32ba b148 b73d f410 3e3c
00000070: 6753 953c 5dd4 973d f9f4 f63d 3986 e53d
00000080: 70dc 30bd 2703 12bc 6d28 f6bb deee 853c
00000090: c1d9 f53c f52d 51bd f799 cb3c 748d a8bd
000000a0: 33c1 f93d 8ed2 03be 7d8d 6f3c 1837 823d
000000b0: 5d35 cbbd bfc1 a33d 02ba 393c 2555 f43c
000000c0: 6a58 b2bd 6152 dbbd a0e1 a73d 265a fbbd
000000d0: 743e 78bd 4249 ff3c 5bd3 51bd 5fa7 48bd
000000e0: 74f5 763d b4f4 d13c 0401 b43d d5f1 92bc
000000f0: 38e4 a13b 042f 9dbd d9f5 e53c 6234 d33d
00000100: 9199 403d 8ccb 353d bc71 f43d 6d65 8ebc
00000110: d5e1 cb3c 8ce2 633c 835c b2bd c1c0 ebbd
00000120: a50c b93d 5e21 16be a2e3 f73d d8a4 393d
00000130: d21b b23c 9b21 183d bcbc 09bd 9d96 7a3d
00000140: 98ec 663d 8545 d13d 1154 403d 6457 c83d
00000150: cf41 febb d162 47bd ca65 26bb 1b25 bbbd
00000160: 711f bd3c 865a 01be 71db e6bd af41 ebbd
00000170: b755 c3bb 7db0 f9bc 3ddc 0bbe 6705 a4bd
00000180: 4e9e 603d 43bf 99bc 6ac9 8cbd a35c 643d
00000190: 6b6f 2bbd d931 f43b e9d5 e6bd 7d57 06be
000001a0: 0c06 383d f5bb ac3c 4d61 debd bfca 37bd
000001b0: db76 d9bd 2b73 02be 6589 453c 306b 7abc
000001c0: 0178 023e 143b c13c 2830 e0bd abdc 353c
000001d0: 660c db3d 951b 0dbe aaed fabd 00e3 a1bd
000001e0: 89ee c43d 5df9 9fbd ecc9 d23d e858 723c
000001f0: c453 9d3d 3d5b bd3d 0711 cdbc 28a8 54bd
00000200: dc91 96bd 7033 ae3c b66d ecbc da3e 22bd
00000210: c146 23bd 85a1 8bbd 1fc6 93bd 1c0c 1ebd
00000220: 6c86 be3d 3169 163b c0c2 d7bb e999 4dbc
00000230: 822d 993d 7514 c7bd f50e 47bc 0935 a4bd
00000240: 73ec 8a3d 4054 ba3d 6d5c e1bd 44cd 9cbd
00000250: 3fac 443c 796e 9abd 639f fbbd 5a1b dd3c
00000260: 8c05 cfbd 8a3a b9bd ab63 2dbd 5d28 46bd
00000270: 0cf8 57bc c1f7 a7bd 843e 00bd 7490 76bd
00000280: 9152 cd3d 399f 9b3d 22ea fbbd d9f4 9bbd
00000290: b995 9fbd 5ced 66bd 1b01 08bb a6ec bcbd
000002a0: 1ea9 6bbd c18d 86bd 87c6 b53d 5cfb bfbd
000002b0: 6232 e4bd 38c1 d4bd 4606 9d3d 5286 35b8
000002c0: b87d c63d 43d9 c2bd 1d1f a7bd 066a 8c3c
000002d0: ed61 4e3d bfd0 6b3d 743f 913c 49a7 9ebd
000002e0: c571 bb3d 1998 a2bd 3c0b e03b 8e63 933d
000002f0: 218b 80bd 984b 413d 4689 d6bb dfbb fd3b
00000300: 4f96 94bd 2668 d53b 23e7 64bc c26c c43d
00000310: c8c2 a73d 4a9a 85bd 0d40 663d f1be 163e
00000320: 2794 24bd db6c 1a3d e172 563c 1052 203d
00000330: de10 c73d 2904 b53d 5b08 bc3a c79e 1dbb
00000340: 510f a93c 6b7d f3bd 104a 143d 6334 a2bd
00000350: e4c8 8e3d 404c 733d 101d f83d 7d47 393d
00000360: 84ec 25bd 1ba4 7ebd 3e95 2dbc 4d4f 14be
00000370: 57e9 43bc 4c16 8ebc 4b73 1dbd 8599 843d
00000380: 97f0 0d3d bdc0 a0bd 22f8 5fbd bcf9 313d
00000390: 50e2 d8bd b458 c53c 0d5a 80bd 98ba d7bc
000003a0: fc38 993d 2d87 653d 1814 733d 7ff9 e83d
000003b0: ad7e 7e3d 437c 08be d71d 063e c217 16bd
000003c0: e5fa c63d fcaa 9f3c 37d8 863d 1d10 f3bd
000003d0: 4d3a 113d 8dbd 1abc b8ce 12be 9937 ec3d
000003e0: 4816 133c 8c6d 8e3c af85 e8bd 2290 b2bd
000003f0: 51b5 6bbc e9aa 9a3c b047 90bd ceb5 4dbd
-0.06437839 0.15245396 -0.09622913 -0.03486219 0.08598624 -0.0357765 -0.030097026 -0.09597147
-0.07128038 -0.070147276 0.061257087 -0.076758884 0.009274654 0.10936089 -0.07748995 0.07221949
-0.09771288 -0.033048462 -0.13172512 -0.06336013 0.119675845 0.0022054175 -0.037189566 0.11833261
0.009804313 -0.00068199955 0.08949412 0.011600722 0.018228246 0.07413552 0.120584436 0.112072416
-0.043178976 -0.008911884 -0.0075121433 0.016349252 0.03001106 -0.05106922 0.02485369 -0.08230105
0.12195053 -0.12873289 0.014621136 0.063581645 -0.099222876 0.079959385 0.011335852 0.029825756
-0.0870827 -0.10709072 0.081973314 -0.12273054 -0.060606435 0.031162862 -0.051226955 -0.048987743
0.060292676 0.025629379 0.08789256 -0.01793758 0.004940536 -0.07674983 0.02807133 0.103127256
0.047021452 0.04438357 0.119357556 -0.017382348 0.024887959 0.013908993 -0.087090515 -0.11511374
0.09035615 -0.14661166 0.121039644 0.045323223 0.021741781 0.037141424 -0.033627257 0.061178792
0.056377977 0.10218338 0.046955172 0.097822934 -0.00775931 -0.048678223 -0.002539026 -0.09137937
0.023086281 -0.12632188 -0.11272324 -0.114871375 -0.0059611457 -0.030479664 -0.13658233 -0.08008843
0.05483847 -0.018767959 -0.06874354 0.055752408 -0.041854303 0.0074522314 -0.11271269 -0.13119312
0.04492764 0.021085719 -0.108584024 -0.044871088 -0.10618373 -0.12739246 0.012056683 -0.015284345
0.1274109 0.023587741 -0.10946685 0.011099975 0.10695724 -0.13780053 -0.12252362 -0.07904625
0.096158095 -0.07811234 0.1029242 0.014791705 0.07681993 0.09245918 -0.025032533 -0.05191818
-0.07352039 0.021264762 -0.028860908 -0.03961072 -0.039862398 -0.06817917 -0.07215523 -0.038585767
0.09302983 0.0022950883 -0.0065844953 -0.012548902 0.07479383 -0.09720699 -0.012149562 -0.08017928
0.0678338 0.09098101 -0.11003957 -0.07656339 0.012003957 -0.07540602 -0.1228626 0.026990581
-0.1010848 -0.090443686 -0.04233138 -0.048378337 -0.013181698 -0.08201552 -0.03130962 -0.060196355
0.10025514 0.07598729 -0.12300517 -0.0761506 -0.07792229 -0.056378707 -0.0020752612 -0.092248246
-0.05753433 -0.06570006 0.08875757 -0.09374115 -0.11142422 -0.10388416 0.07667212 -4.327886e-05
0.09691948 -0.09514096 -0.08160231 0.0171404 0.050386358 0.057572123 0.017730452 -0.07746751
0.09152559 -0.079391666 0.0068372767 0.07196723 -0.06276537 0.047191232 -0.006547126 0.0077433432
-0.072552316 0.0065126596 -0.013971123 0.095910564 0.081914485 -0.06523569 0.056213427 0.14721276
-0.04018035 0.03770147 0.013088913 0.03914076 0.09720014 0.08838684 0.0014345752 -0.0024050937
0.020637186 -0.11889156 0.036203444 -0.07920148 0.069719106 0.05939889 0.12114918 0.045234192
-0.040508762 -0.062168222 -0.010594664 -0.14483376 -0.011957488 -0.017344616 -0.03844003 0.06474594
0.034653272 -0.07849262 -0.054679997 0.043451056 -0.10590041 0.024090149 -0.06267176 -0.026334092
0.07481572 0.056037117 0.059345335 0.113757126 0.062132526 -0.13328652 0.1309732 -0.03664375
0.09715823 0.019490711 0.065842085 -0.11868308 0.03545599 -0.0094446065 -0.1433667 0.11534042
0.00897748 0.01738622 -0.11353623 -0.087188974 -0.014386491 0.018880324 -0.07044923 -0.05022221

lstm.bias_hh_l1 f4 [256]
00000000: 91b5 9a3d 93b1 bbbd eed9 b63c 11d5 c8bd
00000010: 2d62 d83d d03e f13c 0e5a 5cbd beee 21bc
00000020: 95ca d2ba 7b53 a9ba 27b9 ae3c 97a6 cabc
00000030: 9985 013e 311b e03d 8e1b 183e 42e3 f3bd
00000040: dccf 5bbd 33c7 17bd ce3f 72bd 6754 523c
00000050: 22a1 e83d 0610 babd 761e 60bd 9827 cc3d
00000060: de88 453d 75d2 54bd 8557 8e3d c859 9e3d
00000070: 797b a43d 53de 3b3d 0762 dfbd d162 f23d
00000080: 6357 38bd 4b55 f2bd 51b4 b8bc 21f7 34be
00000090: 8ea2 dbbd f82b c33d c55d a4bc e23b 5bbd
000000a0: a6f4 b43d afd9 1bbe f1b8 76bc 4a72 c93c
000000b0: 9cdd db3b abdd 40bd 3dcc c1bd 7890 e73d
000000c0: 18d8 1d3d fd6e f43c cb91 08be 3b57 07be
000000d0: 020d 8dbc 0a2b 473d 6ba1 d9bd 8b49 99bd
000000e0: 025a 1abb 6a5a 88bc 08aa 83bd 5c0c 8c3d
000000f0: d7b4 87bd 2363 c03c 35b5 69bd 7eb1 3a3d
00000100: d275 2dbd 0aa4 8b3d 98f9 f83d 0947 c13c
00000110: 46d1 9b3d f654 3dbd 9470 e23c 5a3a 81bd
00000120: 2370 90bd 8ff8 dabd 735a 113c fce1 99bd
00000130: 5b3b a23c 6f3d 853d fa0c 9dbc 131a 6abd
00000140: 3c8a 9e3d 3452 81bc 90e0 983d 1667 bcbd
00000150: e486 c5bd b078 c73d 57e9 8f3d 5d42 dc3d
00000160: 6379 e4ba 1186 02be 8b0c c13d dcd4 09be
00000170: c221 dabc 5fac f9bd 3178 5fbd 363b 25bc
00000180: 2133 90bc fd8c 91bd c46e b93c ca9f a93a
00000190: b27e df3d 3886 94bd 9f80 0cbe 96bb 00be
000001a0: 8a62 eebd ce67 8e3d 5fca c53c f497 f4bd
000001b0: f9d0 98bc 37ec 47bd bede d33d 0e3a 9a3c
000001c0: 7f64 213d 8b4a 5f3d 3fcb b6bd bedb 6bbd
000001d0: eb10 c2bc a0a2 47bc 6202 1ebd cb9b febd
000001e0: 3576 e9bd a6ea c7bd b293 e03d 19bc 973d
000001f0: 9b15 30bd fa60 a13d 0173 aabc 8999 d0bd
00000200: 3dd5 40bc 3342 013d 566a b93d 5ebc b5bc
00000210: f09d 33bc fa86 f33c bbd8 163c 1b2d b23c
00000220: 15b6 b8bd ccf2 50bc fa29 8e3d 2b4c e3bd
00000230: c47d b3bd fdcf e6bd 62d9 ac3d 39f4 103d
00000240: 46b1 04be dfdb e7bd fe7a 95bd d789 bcbd
00000250: 2d7b a23c 5a85 97bd 3251 583d 5675 67bd
00000260: 2d5a 8bbd de60 b93c af0b 323d a749 d93c
00000270: 6296 cabd 9710 76bd 97cd 88bd 14ce a9bd
00000280: 786a 293d 9c4b 6dbd 8fea a73d 8411 343c
00000290: dd2d d2bc ed6b cfbd 9131 0abd 8644 ebbc
000002a0: 70cd 81bd 13cf 88bc 9000 f0bd 008e f4bb
000002b0: 6d96 9fbd 4184 eabd 14a5 c1bd 8fbd ec3d
000002c0: fafe e33c 8600 afbd 1522 723d eb97 80bd
000002d0: 6da2 e63d 1734 b5bd 9544 4dbd 57cd 65bd
000002e0: edde 93bd feb9 eb3d a693 8b3d 202f 47bd
000002f0: 14ab 56bd 3a3f a6bd bf47 fa3c 6c44 bcbd
00000300: 3d60 2abc f4bf e93d 5e1d eabd 6838 14bc
00000310: 4d7f 273d 2eb8 813c b50a a63d 3d56 9cbb
00000320: 3c1c 133e 58e7 b9bd d132 2ebd 5024 e3bc
00000330: 485a 39bd 4498 ef3c baa6 823d 7185 403c
00000340: 5b5a b33d ade7 b5bd d3ce 593d f08e 20bc
00000350: 0501 e73d ccc1 8abd 5f93 67bb ccf6 66bd
00000360: 5f55 a83d f092 98bd 398d 933a 5422 debd
00000370: 4eda 19bd 6544 b33d ca9a 17bd 12c9 76bd
00000380: 94c7 b63d 079a 9b3c 8c54 ecbd 40e3 47be
00000390: 8128 01be 8b10 723d 5091 9b3d c4fd 47bd
000003a0: b2f8 1a3d ec33 8ebd 59fa ae3d d21e 4fbd
000003b0: c442 b23d 9cdd 97bd 2808 843d ae53 913d
000003c0: 101e e3bd 9a61 c83c ae41 b73c 84c0 3cb9
000003d0: fef0 82bd b423 503d 486c 87bd b429 e5bb
000003e0: f5f3 09be 38e6 d0bc 0c57 c539 a7b8 b9bc
000003f0: 97e5 8a3c 654a c73d 85d1 a03d f14d 553d
0.07554162 -0.09164729 0.022320714 -0.09806264 0.105656005 0.029448897 -0.05379682 -0.009883581
-0.0016082103 -0.0012918556 0.021328522 -0.02473764 0.1264862 0.10942686 0.14854261 -0.1190858
-0.053665027 -0.037055206 -0.05914288 0.012837506 0.11358859 -0.090850875 -0.05471655 0.099684894
0.04822623 -0.05195852 0.06950287 0.07731968 0.08031363 0.04586632 -0.10907369 0.11835254
-0.045005213 -0.118326746 -0.022546919 -0.17672397 -0.10724364 0.09529871 -0.020064244 -0.053523906
0.088357255 -0.15219758 -0.015058742 0.02459063 0.0067097675 -0.0470864 -0.094627835 0.11306852
0.03853616 0.02983808 -0.13336866 -0.1321687 -0.017218117 0.04862503 -0.10626491 -0.0748473
-0.0023552184 -0.016644675 -0.06428915 0.06838295 -0.06626289 0.023484772 -0.057057578 0.045579426
-0.04234869 0.06818397 0.12156981 0.023593443 0.07608275 -0.046223603 0.027641572 -0.06309958
-0.070526384 -0.1069194 0.008871662 -0.07513806 0.019803694 0.06505858 -0.019171227 -0.057153773
0.0774121 -0.015786268 0.07464707 -0.091993496 -0.09644869 0.09739816 0.07026928 0.10754845
-0.0017431196 -0.12746455 0.094262205 -0.13460106 -0.026627425 -0.1219108 -0.054557983 -0.010084918
-0.017602505 -0.071069695 0.022635825 0.0012941298 0.10912837 -0.07252163 -0.1372094 -0.12571558
-0.116398886 0.06953393 0.02414435 -0.11943045 -0.018654333 -0.048809256 0.10345219 0.01882651
0.03940248 0.05451445 -0.08925485 -0.05758261 -0.023689708 -0.012184769 -0.03857649 -0.12432059
-0.11399499 -0.097615525 0.10965671 0.07408924 -0.042989355 0.07879825 -0.020806791 -0.101855345
-0.01176959 0.031557273 0.09053485 -0.022184547 -0.010962948 0.029727448 0.009206946 0.021750024
-0.090191044 -0.0127532 0.069416 -0.11098512 -0.08764222 -0.11270139 0.084399 0.03538916
-0.1295825 -0.11321234 -0.072988495 -0.09205978 0.019834125 -0.07398482 0.05281181 -0.056508385
-0.06804309 0.022629198 0.043468174 0.026524378 -0.098919645 -0.060074415 -0.06679838 -0.082912594
0.041361302 -0.057933435 0.081990354 0.010990504 -0.025656635 -0.10128007 -0.033738676 -0.028719198
-0.06338012 -0.016700303 -0.11718857 -0.007463217 -0.07792363 -0.11451007 -0.09455314 0.11559593
0.027831543 -0.08545022 0.059114534 -0.06278976 0.11261449 -0.08847826 -0.050114233 -0.05610403
-0.07220254 0.115100846 0.06815271 -0.048628926 -0.052409247 -0.08117528 0.03055179 -0.09192738
-0.010398922 0.11413565 -0.114313826 -0.009046651 0.040892888 0.015834894 0.08107511 -0.0047710226
0.1436624 -0.090773284 -0.04252893 -0.027727276 -0.045252115 0.02924741 0.06379457 0.011750565
0.08757468 -0.08882079 0.05317576 -0.009799704 0.11279491 -0.06775245 -0.0035335643 -0.056387708
0.08219408 -0.07449901 0.0011257298 -0.10846391 -0.037561707 0.087532796 -0.037012853 -0.06025035
0.08924785 0.018994344 -0.115395635 -0.19520283 -0.12613107 0.059097808 0.075960755 -0.048825994
0.03783483 -0.06943497 0.08543844 -0.050566502 0.08704141 -0.074153155 0.06446868 0.07096039
-0.11089718 0.024460603 0.022370186 -0.00018000795 -0.06393622 0.0508153 -0.0661245 -0.006993497
-0.13471968 -0.025500402 0.00037639623 -0.022671057 0.01695518 0.097309865 0.07852463 0.052076284
