output/LSTM2CNN/LSTM2CNN_adam_128_500/model/LSTM2CNN_epoch_375.pth (torch, 350402 bytes, 16 tensors)

lstm.weight_ih_l0 f4 [256, 10]
00000000: deed 183e bd1b 733e 0e53 333e 2e32 cdbc
00000010: 6bac 08be 35e9 603e f33a b63e 168a cfbd
00000020: b6f9 eaba 550a 2fbe 8bbc 15bc 64f8 113e
00000030: a7a8 a23d 3125 a13d e500 1fbe 9988 a03d
00000040: 0bae dd3d 7f11 bcbd 55fb 38be d50e 9cbd
00000050: 03bb 4abe 8805 fb3b ec98 12be 7c9e f5bd
00000060: f245 b9ba d143 a9bd 0efb a5bc c1a0 45be
00000070: f2c8 30be ed2a 18be 12f5 cabc bedf 3fbe
00000080: 04c5 853d be12 ccbc 74ee 5abe a482 58bd
00000090: bff3 063e 8e87 54be e9ed 213c e4c4 a33d
000000a0: 206b c2bc febb 1c3e 45c5 073e f328 bf3d
000000b0: a5ce e8bc 8da2 573e fe00 24bd 8354 433d
000000c0: 2a5a 83bb d0f8 78bd 90e8 313d 69b8 f9bc
000000d0: bd55 193d 3246 0bbe dfcd b83b 83a0 2fbe
000000e0: a79f 33be baf2 273e e85e ba3b 63d2 edbd
000000f0: 9aef 61bd 51ee 92bd cd4e a6bd 6979 ea3c
00000100: f80e 303e eea9 30be ba97 adbd 8944 423e
00000110: 1837 2c3e 56f8 283d 077d 953d 1ea8 433e
00000120: 3c34 343d e26a 1abe c3dd 6abd 5934 df3d
00000130: c4f0 e83d 3311 cbbd ee23 bbbd ffd0 bdbd
00000140: a607 fdbd 8b01 42bd c541 023d cb4a 98bd
00000150: f820 1cbe f3ed 753c bc5a d63d 5c9a 0cbd
00000160: 833e 94bd a93f 3cbd dc4a 5c3c 8044 87bd
00000170: 0e72 b1bd 5be2 23bd 8ab7 1c3d a0f7 d1bc
00000180: 709c 8abd 0594 223e 18c2 4b3e 273f 813e
00000190: 7d91 a93d 11e4 56be a0f1 e1bd 8b1d 2b3e
000001a0: 2d2b 41be 7d49 d5bb 23f9 4aba be44 6abe
000001b0: 77c9 bc3d 8cc1 833e bf0c 2dbc 6c7a 4bbe
000001c0: 484b 6ebd b400 133e 263c 36bb 846a f13c
000001d0: db77 cabb 7598 3f3e a156 433e e1b6 743e
000001e0: 72dd a0bb c057 6cbe 7e0c edbc 9116 173d
000001f0: 7841 853d f38d d8bd afcd 4bbe 37c5 693e
00000200: ef8a 7e3e 814f fb3d b1f9 a9bd 179d 1d3d
00000210: 6fc2 d1bd 7dc8 9a3c f703 d9bc 2fe0 75bd
00000220: 2d29 933e 459a 18be f69c 96bd 5911 e1bd
00000230: 5d68 f7bc c68a 023e 76f9 893d ecfc ea3c
00000240: 219b dabd 001f 353e 746c 4b3e a456 adbd
00000250: 5f1a 11bd c851 39be 43e7 eabc 9a7d 983d
00000260: e4ca 04be 2445 9a3d c9b2 303e 4257 33be
00000270: 9ea7 96be 9b36 293d c0b6 713e 1619 2c3c
00000280: a314 81bd ef0e 9f3d 55be d73d 16fa 0c3d
00000290: b2ba 063d c5ab d3bc c27d f5bc 644f 493e
000002a0: edcc 853d 7ef4 a1bc 485f 7f3d c291 cb3b
000002b0: ed5e d43d 3c63 0b3e f47c e33c 97ba debd
000002c0: c5b9 d1bd 4cc7 193d e765 5a3c abf7 a13d
000002d0: 0956 c43c 3376 1d3e add3 cbbd 1e4f b2bd
000002e0: 8908 b43d 1e39 76bd 4a39 babd 4e6f aabd
000002f0: 4212 8e3c 031d a83d 6faa 0dbe 2e22 6fbe
00000300: 19ec 0fbe 8a2c bdbe 0c38 3f3e bc39 e1be
00000310: ec21 a7be 1fcc 763e 7a68 733e 0d5b 983e
00000320: fcea 1f3e e24e e33d d9a1 aa3d 65b6 a6bd
00000330: 4985 033e 5243 d53d 87c7 3f3c 72e4 d23d
00000340: 7f38 303e 278b 2b3d fa47 d53c 2210 63be
00000350: 9e2f f13d 97d7 f9bc 4cd5 4c3e 0747 f93b
00000360: 4746 00be c6dd 1f3e d482 c23d d53c 833e
00000370: 81fb 123e ac43 ee3c 93a3 fc3d bf97 063e
00000380: d149 71bc ff0a 09bd 4f94 3b3d 0155 3b3d
00000390: 5917 63bd 8f1c 373e 32b4 fe3d 5d7e a23d
000003a0: be4d 8d3d 06c9 8abb 9143 75bd 0ed1 813e
000003b0: 32a2 3e3e 44b6 febd d62c 18be deb4 4f39
000003c0: a2de d23d 1516 573d 28ac 1d3d 12c1 a5bc
000003d0: 5ad2 213d 9127 8dbd b543 88be 9311 8e3e
000003e0: 06b1 9f3d 0484 e63d 3502 1a3e 7f60 e83d
000003f0: d524 d73d 203d c73e d090 c43d 150a ec3d
0.14934489 0.2374105 0.17512152 -0.025048342 -0.13347022 0.21963961 0.3559185 -0.1013376
-0.0017927203 -0.17093785 -0.00913919 0.1425491 0.07942324 0.07868422 -0.15527685 0.07838554
0.10824212 -0.091830246 -0.18064626 -0.076200165 -0.19797902 0.0076605715 -0.14316148 -0.11993119
-0.0014135225 -0.08264888 -0.020261314 -0.19299604 -0.17264155 -0.14860125 -0.024775062 -0.18737695
0.065317184 -0.02491128 -0.21380025 -0.052858964 0.1317892 -0.20754835 0.009883382 0.07996538
-0.023732722 0.15306088 0.13258846 0.09333982 -0.028418848 0.21058102 -0.04004001 0.04768802
-0.004008551 -0.06078416 0.04343468 -0.030483441 0.037435282 -0.13600996 0.005639776 -0.17151074
-0.17541371 0.16401187 0.0056875832 -0.11612394 -0.055160142 -0.071743615 -0.08120499 0.028622346
0.1719321 -0.17252323 -0.08476205 0.18971457 0.16817892 0.041252457 0.07299238 0.191071
0.043995127 -0.15079835 -0.057340395 0.108986564 0.113740474 -0.0991539 -0.091377124 -0.092683785
-0.123549744 -0.047364753 0.031801004 -0.074361406 -0.15246952 0.015010345 0.10466525 -0.034326896
-0.07238486 -0.04595915 0.013445582 -0.06604862 -0.08664332 -0.04001079 0.038260974 -0.025630772
-0.06768119 0.15876777 0.1989826 0.25243494 0.08279703 -0.20985438 -0.110324144 0.16710488
-0.18864127 -0.0065090046 -0.0007742813 -0.22877786 0.09218114 0.25733602 -0.010562121 -0.19870919
-0.058177263 0.14355737 -0.0027806847 0.029469736 -0.0061788387 0.18710501 0.19076015 0.23897888
-0.004909211 -0.23080349 -0.02893662 0.036886755 0.06506628 -0.1057395 -0.19902681 0.22829138
0.24857686 0.122710235 -0.08299578 0.03847989 -0.102421634 0.018894428 -0.026491148 -0.06002825
0.28742352 -0.14902599 -0.07354157 -0.10989637 -0.030201131 0.1274825 0.06737034 0.028685056
-0.1067412 0.17687607 0.1986559 -0.08463791 -0.03542554 -0.18097603 -0.028674727 0.074458316
-0.12968022 0.07532719 0.17255701 -0.17513755 -0.29424757 0.04131184 0.2360487 0.010504028
-0.06302764 0.0776652 0.1053435 0.034418188 0.03289289 -0.025838742 -0.029967193 0.19659191
0.06533227 -0.019769903 0.062346727 0.006212444 0.10369668 0.13612074 0.027769543 -0.10875433
-0.10240511 0.03754358 0.0133299595 0.07908567 0.023966806 0.1537712 -0.09952483 -0.08706497
0.087906905 -0.060113065 -0.09092958 -0.08322011 0.01734269 0.082086585 -0.13834547 -0.23352882
-0.14054908 -0.36948043 0.18673724 -0.4398936 -0.32643068 0.24101304 0.23770323 0.29756966
0.15616983 0.1109903 0.08331651 -0.08140258 0.12843813 0.10413231 0.011705286 0.10297479
0.17209052 0.041880753 0.026035298 -0.22174123 0.117766604 -0.030498309 0.20003241 0.007607344
-0.12526809 0.15611944 0.0949761 0.2563235 0.14353754 0.029085003 0.12335887 0.13143824
-0.014727072 -0.033457752 0.045795735 0.045735363 -0.055442188 0.17881988 0.12436713 0.07934258
0.06899594 -0.0042353896 -0.05987889 0.2535481 0.1861656 -0.12437108 -0.14860854 0.00019808437
0.1029637 0.052511293 0.03849426 -0.020233665 0.039507248 -0.06892312 -0.26614156 0.27747783
0.077974364 0.11255649 0.15039904 0.1134653 0.10505072 0.38913822 0.09597933 0.115253605

lstm.weight_hh_l0 f4 [256, 64]
00000000: c17a d53d dae1 07bc 5c7d 0abe 0ac8 dd3c
00000010: 49a3 c5bd e3d7 373d 2749 b5bd 2283 8fbd
00000020: 8f27 073e 137c adbc 0c14 83be f040 a4bd
00000030: 0200 d03d a85e 8c3e d80b 83bd 8a50 33bd
00000040: ce24 bd3d 2c19 f63a 7e3b 1cbd 9253 23be
00000050: 5d57 aebc d344 c0bd 0969 25bd 4fac 1c3e
00000060: 5fc5 273e 60d1 0a3e 6361 4bbe 5e46 57be
00000070: 37a6 8cbd c209 38bd 58a8 883d 8be5 01bd
00000080: f4b2 003e ae17 5d3d ecec 0cbd ef27 55be
00000090: 6602 86bd 377f d03c 8969 783e b84e 88bd
000000a0: 29e4 64bd 186b ce3d c8ea 603e cacd babb
000000b0: 1245 94bb bd6e 703c d389 f33d d28b 57be
000000c0: a9a7 39bd 8af7 00be 25e6 78be d1aa 683d
000000d0: 89d5 9fbd 1d61 8c3e 8831 fe3c d2d3 dfbb
000000e0: a988 ccbd ae3a 443d 5f73 743b 1400 b73d
000000f0: b623 35bd 46d4 03bc 6f69 adbd a581 233e
00000100: 712b 393d ad44 bfbd c4a5 14be 4d5c 82bd
00000110: 5397 00be e876 53bd 1ac1 e03c a2c5 0b3d
00000120: bf9b eabc 5ad7 cb3d 073a 3cbe 4b30 02be
00000130: b183 8a3d c462 e43c 6f42 87bd 08d6 103d
00000140: 664a 183e c11c d83d 3687 0fbe e3d8 84bd
00000150: 0d01 4a3d f243 343e d588 473c 9837 1f3d
00000160: 8da6 433e 4d98 8ebd 0264 a63d e462 f43d
00000170: 213b 2cbd 7995 07bc 4458 843d 4e68 073d
00000180: 0821 083d 8ff9 513d 2955 71bd 9326 0bbd
00000190: 6ac9 ae3d 2cf7 0f3e 271a 213d a4b1 f1bd
000001a0: 011b d23d 4527 173c b6ab 39bc bc01 ea3d
000001b0: 5e39 18be f3b0 9c3d 8eff 94bd 5cde d8bc
000001c0: 16e8 463d 841f 8dbd f631 12be d32c 333e
000001d0: c284 1bbe 1b11 de3d 7d1a 573d a60d a63c
000001e0: 0606 183a ca96 32bd 330d a1bc a06d 1e3e
000001f0: 359e f5bd c65c 2ebe 1014 663d df37 2bbd
00000200: ee5b 26bc 1cb8 cb3b d410 983d f6db bfbd
00000210: c436 84bd 5f56 df3d 5267 93bd 7d8d 493c
00000220: aab8 1a3e 90a6 af3d 2750 293c c3cd 6fbe
00000230: 54e0 74bd 2484 73bc 22f3 1f3e 442d e4bd
00000240: 405a 53bd e9ae 333d 558a a43d 1d00 cfbd
00000250: 88cd 243e f01e 923d 6c7e 48be 677d 35be
00000260: 3de0 b43d 8b97 10bd aff8 143e 85c3 303e
00000270: c6e9 423e 74c7 dcbd e4ad 0e3e d942 c7bd
00000280: 3eea 863c 29d6 d6bd ee22 a6bd 3ca0 c8bc
00000290: 140f 973d e7e0 f2bd 19b3 4f3d 6871 44bd
000002a0: 6a2d 1d3e f9a8 6b3d ecce 23bd 3e03 1ebe
000002b0: 7053 1a3e f68a b2bc c278 aa3d b708 7dbb
000002c0: 0e74 32be 7d36 6b3e 544f fc3c df22 4abe
000002d0: 603e 1b3e 78fe b4be 815e efbd 06e3 66bd
000002e0: e654 1a3e 255e 70bd 9045 fd3d 8954 96bd
000002f0: c35a 8c3e 32ae f13d 42c9 6d3e c011 bdbd
00000300: 2380 1d3e c4c2 1c3e 875f 263c 9a36 46bd
00000310: 66bc 94bd 351f e9bc a67e a53b b55d f9bc
00000320: 7068 0b3e 2258 653d 3220 f03d a1a3 8abd
00000330: 808b 243d 098b 55be 48ae 29bd 55c0 7b3d
00000340: d9be c9bd 1fe0 523e 27b1 22bd 55ff f2bc
00000350: 6fea 1f3d e789 e9bc 8367 5bbc 08f6 03bd
00000360: 12a4 27bc ac12 3fbd 9e46 ed3d d0ac ecbc
00000370: b91d 103e 3522 1cbe af2c 743b aa95 093e
00000380: 3eb0 f1bd 10ff 2ebd 37f7 553d 41d6 a73d
00000390: 5bf6 4ebd 4d84 8f3c 8856 bfbc 5015 b7bd
000003a0: 63e9 24bd 3fcc 353e 82e0 c0bc f8bd ae3d
000003b0: bd11 013e f7ec 20bd eb86 2ebd 2f34 053d
000003c0: 21ea 83bd 56f8 053e 4b50 0c3e 1fa4 f2bc
000003d0: 1f84 4d3c 2fbc 393d 6a7c e93c a525 d6bc
000003e0: 4e43 a2ba 7b5c 4dbd fec4 823d 2cdf 31bd
000003f0: 7041 813d 5919 95bc 54c3 99bd eea1 523d
0.10423804 -0.008293593 -0.13524383 0.027072925 -0.09650285 0.04488362 -0.08851843 -0.070074335
0.13198684 -0.021177327 -0.25601232 -0.08020198 0.101562515 0.27415967 -0.063987434 -0.04377798
0.092355356 0.0018775812 -0.038142674 -0.15949848 -0.021281892 -0.09388127 -0.040383372 0.15300106
0.16383885 0.13556433 -0.19861369 -0.21022937 -0.068676405 -0.04493118 0.06672734 -0.03171305
0.12568265 0.05397766 -0.034405634 -0.20816015 -0.06543426 0.025451286 0.24259008 -0.066556394
-0.055881653 0.1007902 0.21964562 -0.0057008015 -0.0045248354 0.01467484 0.11891522 -0.21049431
-0.04532591 -0.12594429 -0.24306543 0.05680353 -0.078044005 0.27417842 0.031029478 -0.006830671
-0.09987003 0.047907524 0.0037300212 0.08935562 -0.04422351 -0.008046215 -0.084673755 0.15967424
0.045207445 -0.09339271 -0.1451636 -0.06365261 -0.12557726 -0.05162707 0.027435828 0.034124024
-0.028638719 0.099531844 -0.1838151 -0.12713735 0.067633994 0.027879126 -0.06604468 0.035360366
0.14872131 0.10552359 -0.14016423 -0.0648668 0.04931741 0.17604044 0.012178619 0.038871378
0.19106503 -0.06962643 0.08124544 0.119329244 -0.042048577 -0.008275383 0.06462148 0.033058457
0.033234626 0.05126339 -0.058919106 -0.033972334 0.085345104 0.14059132 0.03933158 -0.118014604
0.10259057 0.009225671 -0.011332443 0.11426112 -0.14865634 0.07650938 -0.07275306 -0.026473217
0.04856118 -0.06890777 -0.14276871 0.17497568 -0.15187362 0.10843106 0.052515496 0.02027018
0.00057992374 -0.043600835 -0.019659614 0.15471506 -0.11993066 -0.17027578 0.056171477 -0.04180133
-0.010153754 0.006217016 0.07425085 -0.09368126 -0.06455758 0.10905146 -0.07197441 0.0123018
0.15109506 0.08576691 0.010334051 -0.23418336 -0.05978425 -0.014863048 0.15620092 -0.11141446
-0.05159974 0.04386798 0.08034197 -0.101074435 0.16094029 0.07134807 -0.19579476 -0.17723618
0.088318326 -0.035300773 0.1454799 0.17262085 0.1903449 -0.1078023 0.13933522 -0.09729547
0.016469117 -0.104900666 -0.08112131 -0.024490468 0.07375923 -0.11859303 0.05070791 -0.047959715
0.15349355 0.05753419 -0.039992258 -0.15430924 0.15070891 -0.021794777 0.08323814 -0.003860993
-0.17427084 0.22970004 0.030799545 -0.19739865 0.15160513 -0.35350394 -0.11687947 -0.05636885
0.15071449 -0.058683533 0.123667836 -0.073403426 0.27412996 0.11800803 0.23221305 -0.09231901
0.15380912 0.15308672 0.010154611 -0.048391916 -0.07262497 -0.028457263 0.005050498 -0.03044019
0.13614058 0.055992253 0.11724891 -0.06769491 0.0401721 -0.20853819 -0.041425973 0.06146272
-0.098508544 0.20593308 -0.039719727 -0.029662767 0.039041933 -0.02850814 -0.013391378 -0.032217056
-0.0102319885 -0.046648666 0.11585735 -0.028890997 0.14073838 -0.15247424 0.0037258079 0.13435999
-0.11801194 -0.042723715 0.052237716 0.081951626 -0.05052791 0.01751914 -0.023356691 -0.08939612
-0.040261637 0.17753695 -0.023544554 0.085323274 0.12604423 -0.039288487 -0.042609137 0.03252047
-0.06441141 0.13083014 0.13702504 -0.029619275 0.012543707 0.04534548 0.028501708 -0.026140997
-0.0012379678 -0.050137024 0.063852295 -0.043425724 0.06311309 -0.018200563 -0.07507959 0.05142396

lstm.bias_ih_l0 f4 [256]
00000000: d0df 433e e8cb 053e e4b1 453e e7e4 97bd
00000010: c179 e83d ccce 9cbd 0b54 78bc 325e f53d
00000020: 7d0a 353e 099e c53d 6afc 923e 95cb 7d3e
00000030: de17 853d 8d1c a23d 0dbe 533d 078f 3a3e
00000040: a8ce ccbd a160 0b3e 19df 313d 78ab 1d3e
00000050: 8311 0bbd df89 af3d f606 81bd 9fae 4bbd
00000060: 5044 563e 85d2 833e 5808 c53d 3414 82bc
00000070: 7123 073d 531a 643e e1b3 1bbd 8af6 893e
00000080: 40a1 d03c d686 a6bd 236a a53e 6e55 6f3c
00000090: 5cd0 153e c874 3c3e c0a0 ca3d e413 ce3d
000000a0: 654f 903e c21e a23d 2e6c 443d d425 cb3d
000000b0: bca6 933e 1e56 00bd 9d40 6b3d bf55 093e
000000c0: 5164 ed3d f860 8ebd fb2c 603e 9582 953d
000000d0: 7ef1 753e 0fee 9c3e ef13 e33d 3dc7 c83d
000000e0: 2df8 dc3d e82d 3c3d 5d9c b0bc 3285 c13e
000000f0: a6d9 e13d 85ec 073e 5c77 163d dab7 eebc
00000100: 134e 8cbd 9038 0a3e 5dd7 86bd db03 e73d
00000110: 74c9 8dbd 158d 553d 9c27 183e 3702 643d
00000120: f839 91bd c16a 8f3d 1f77 de3c b2e3 5dbd
00000130: d413 563c 9046 9d3d 4a4a f63d d4cb cdbd
00000140: 1462 933d 9990 9fbd 9f51 e83c f999 49bd
00000150: 3834 e9bc 7315 a53d 0bf4 f33b dc5b df3d
00000160: 74cd 6bbd 3b9d 66bc da3f 463d 4414 f93d
00000170: 2a54 e03d 0d25 303e d908 d7bc db40 c33d
00000180: f3f0 b83d 5487 653d 8faf 303c b5a8 ffb9
00000190: def8 873d c6a6 18bd 9d78 0c3d b49d 39bd
000001a0: 3ae5 13bc 549c 2e3e 44ad 1c3e 1e57 db3d
000001b0: c0ce 4f3d 530a d7bc eb40 103c b323 203e
000001c0: 10aa 183d 365d babd c770 adbc 8635 77bd
000001d0: fbd8 86bc 410b 2a3d 7619 d63c 5a5b d43c
000001e0: d4c6 c2bc 54c6 343e 0e7f 8cbd 3da7 91bc
000001f0: c158 ee3d bf9a d2bc 5505 54bc 5681 013e
00000200: ab57 22bd 2b61 ebbd 9d78 45bd cc86 83bb
00000210: c850 c43d 7ba2 27bd a253 60bd 98b3 263d
00000220: b770 5a3d bb14 d43d a06b d6bd f76e 04be
00000230: 1366 de3d 9a87 e43d 7394 adbd 7ad6 05bd
00000240: fc92 8dbd 2a57 00bd 7bab 9ebd c461 863d
00000250: 495a 053e 38d9 1ebd f1b5 12be ddcf ff3d
00000260: 3f12 a83d 0287 eb3d dd24 1a3d 5f5e a13d
00000270: 37a8 b9bd dd84 07bc ae6f 643d e452 2e3e
00000280: 85c3 6cbd 510e aa3d 0869 083d 270c eebd
00000290: 36da fb3d 29ea cd3d a17a c4bd 4be6 313d
000002a0: 08fe 173d adf1 933d 2523 fc3d 3bb1 f6bd
000002b0: e238 d0bb e96f bfbd d1cb 733d 0292 22be
000002c0: e721 c4bd 90b0 983d ef2b d73b 7d6b 143e
000002d0: 8325 2dbe 0bc3 cdbd 0deb 92bd fbb6 183e
000002e0: ca4e 4b3c 88f9 14be 5cb7 d4bd 6f80 f23d
000002f0: 4777 c53d 67c3 893d 0736 033e 4ab7 173e
00000300: 5e20 233e 80e8 523d a4c6 713d 6e88 033e
00000310: f910 6a3e 1989 983d 3b9d 2d3e 457a 653e
00000320: fbe6 2b3e 03df 69bd 2fd9 743e cf08 2e3e
00000330: c802 173e f56c 9cbb 0f7c 313d 44f4 043e
00000340: 50a5 f13d 3a7e 413d 572e 293e 5614 543e
00000350: 0794 40ba b77e 9a3e 3173 d3bd 3745 df3d
00000360: 41ab 013e dae1 703d 9cd8 1b3e 233d fb3d
00000370: 10b4 b73d 8cf8 203e de23 403d 6bef 663d
00000380: 40a8 493e 3eda f03d f84f 7d3e a015 903d
00000390: e2f3 1f3e ec96 0c3e 7ac9 e43d 1124 213e
000003a0: f8d3 153e 02b1 8abd 0436 2dbc a08d d53c
000003b0: 494d 243e c85f fcbb eae9 273e 784c bf3e
000003c0: df63 8abc 27da fd3d 78f9 993e 1f0e 9abd
000003d0: 671d 9e3e 931c aa3e b940 533e 637d 993d
000003e0: 0ef5 263d 8f6d 513e d013 e4bb a7d3 e63e
000003f0: dd2f 183d 93a7 853d 82eb 11bc b548 e33d
0.19128346 0.13066065 0.19306141 -0.074167065 0.11351348 -0.07656631 -0.015156756 0.11980857
0.17679782 0.096492834 0.28708202 0.24784692 0.06498693 0.07915602 0.05169492 0.18218623
-0.10000354 0.1361108 0.043425653 0.15397441 -0.033952247 0.08571219 -0.06300156 -0.04972708
0.20924497 0.2574655 0.09620732 -0.015878774 0.032992784 0.22275667 -0.038013343 0.26945907
0.025467515 -0.08131187 0.32307538 0.01460777 0.14630264 0.18403924 0.09893942 0.100623876
0.28185573 0.07916023 0.04795473 0.099193245 0.28838146 -0.031332128 0.057434667 0.13411616
0.115913995 -0.06952089 0.21892159 0.07300297 0.24017903 0.30650374 0.110877864 0.09803627
0.10789523 0.045942217 -0.021558935 0.37796932 0.11027841 0.13273819 0.036734924 -0.029140402
-0.06850829 0.1349814 -0.06584046 0.11280032 -0.0692319 0.0521365 0.1485886 0.055666175
-0.07091135 0.070027836 0.02715641 -0.054172225 0.013066251 0.07679474 0.12025888 -0.10048643
0.07196441 -0.07791252 0.028359232 -0.049219105 -0.028467283 0.08060732 0.0074448637 0.10906193
-0.057568982 -0.014075573 0.048400737 0.121620685 0.10953553 0.17201634 -0.026249336 0.095338546
0.090303324 0.056037262 0.010784044 -0.00048763087 0.066392645 -0.037268423 0.034294713 -0.045316413
-0.00902682 0.17051822 0.1530047 0.10709976 0.05073428 -0.02625004 0.00880454 0.15638618
0.03727156 -0.0909981 -0.02117194 -0.06035378 -0.016460886 0.04151464 0.026135188 0.025922466
-0.02377645 0.17653781 -0.06860171 -0.01777994 0.11638022 -0.025708554 -0.012940724 0.12646994
-0.039634388 -0.11493143 -0.04821073 -0.004013872 0.0958572 -0.040926438 -0.05476726 0.040698618
0.05333015 0.103555165 -0.104697466 -0.12932955 0.10859313 0.111586764 -0.0847558 -0.032675244
-0.06912801 -0.031333126 -0.07747551 0.06561616 0.13022722 -0.038781375 -0.14327218 0.12490819
0.08206605 0.1150036 0.03763281 0.07879328 -0.090652876 -0.008271423 0.05577057 0.17023808
-0.05780365 0.08303512 0.03330329 -0.116234116 0.1229748 0.10054428 -0.09593702 0.043432515
0.037107497 0.0722383 0.12311391 -0.12045523 -0.006354437 -0.09347517 0.059520546 -0.1587601
-0.09576779 0.074555516 0.0065665166 0.14494129 -0.16908841 -0.10046967 -0.07173739 0.14913552
0.0124089215 -0.14548314 -0.103865355 0.11840903 0.09641891 0.06726723 0.12813579 0.14816013
0.15930316 0.05149126 0.05902733 0.12845013 0.22858037 0.07448024 0.1695451 0.22409923
0.16787331 -0.057097446 0.23910974 0.16995548 0.14747155 -0.004773731 0.043331202 0.12983805
0.11799109 0.04723952 0.16521583 0.20710883 -0.00073462765 0.301748 -0.103247054 0.109018736
0.12662984 0.05880914 0.15219349 0.1226752 0.08969891 0.15719813 0.046909206 0.05638067
0.19693089 0.117603764 0.24737537 0.07035375 0.15620378 0.13729447 0.11171241 0.15736414
0.14631641 -0.06772043 -0.01057196 0.026068509 0.16045107 -0.0077018477 0.16397825 0.3736303
-0.016893325 0.12395125 0.30073142 -0.07522225 0.30881807 0.33224925 0.20630158 0.07494619
0.040761046 0.2045195 -0.0069603696 0.45083353 0.03715502 0.06526103 -0.008906247 0.11097852

lstm.bias_hh_l0 f4 [256]
00000000: 23df b93d 4789 ab3c 5f96 343e d696 f63c
00000010: 5a64 0e3e bbe1 e63d 41c8 4d3d 4b78 55bd
00000020: f671 113e 194e 203e d14c fb3e f959 ae3d
00000030: 9127 e73c 1b4c e73d eee7 ed3d 0636 9d3d
00000040: e244 8a3d c281 fe3b 2bef 443e ad2c f33c
00000050: 2f92 a23d e6e2 eb3d 0f48 aabb 1e6d 2c3e
00000060: 9fc5 573e c51b 903d b1fd 5b3e e009 b6bd
00000070: c7ff fb3c eabe 833e f0aa 2a3c 5fa8 0c3e
00000080: da7c a73b ec5f 24bd fd0a 9d3e a542 a53d
00000090: 77fe dd3d f3ad 023e d737 07bc ef8f d73c
000000a0: 5d0f 8d3e 7e5e 063e 31ed e03c 98e6 503d
000000b0: eaff 1a3e 81ba ca3d 9654 f33d 6944 373e
000000c0: fd69 3e3c bd3d 94bb 90b7 d53e c2af 7a3d
000000d0: 321d 713e 0f66 833e ae42 123e a73d 1a3e
000000e0: 7ec5 2b3e 7024 9d3d 4404 0f3d 1080 a13e
000000f0: c599 81bd bf09 463d aa8f a8bd 6237 253c
00000100: 5c76 1bbd b39f 50bd db88 c3bc 1131 babb
00000110: e7a4 9b3b 6880 933d ba45 a43d 6c45 593d
00000120: 16d6 c63b 03a3 efbb 8c4c f93d 67a2 4ebd
00000130: 108e 35bc b4fa 743d 78d8 063e 66ef 05be
00000140: 3b46 f03c a645 7dbd 01b9 523c 9fec 8fbd
00000150: 6595 083e e793 df3d 3cd8 933d 5258 9c3d
00000160: 3106 85bd 571f eb3c 87d2 2bbe 9336 bcbc
00000170: 7fb6 263e 11f9 5e3d 33c9 4d3d 13a1 92bc
00000180: dda6 2fbd 5b9d 6abc 7216 05bd e18f 523d
00000190: c78b 84bd 8b15 443d d790 173e c22b 40bc
000001a0: 92c0 6a3c 0326 c13a 5ee8 edbc 8cef 63bd
000001b0: 4cb5 6e3d 4db5 46bc edca 493c 699c 303e
000001c0: 9d3c 0d3e 17ea 9bbd 28f7 bebd 9870 09bd
000001d0: 90c6 27be 541b 283e fe14 9cbc 8da7 89bb
000001e0: e7c3 053d a423 343e ad50 27bd 7e0c 573c
000001f0: d980 f03d 8c3a 113e 701d 413a 193d 013e
00000200: e1a6 a9bc a016 de3d 3bb7 183d 1613 193e
00000210: 67b4 5fbd ae1e 1abe 92d8 00bd daa7 863d
00000220: 64d3 503c dc24 ef3d 16de 0f3e e61c 78bd
00000230: 7c5d fb3d 701e 2f3d f170 f5bc a230 78bd
00000240: 48c4 c5bc 5172 9f3c 9866 d83d cecd 9d3d
00000250: 2d0a 653c 96f0 43bd cd9e 07be 54ff 4abd
00000260: 15e8 553d 7ec8 9c3d d691 9abd 1776 59bd
00000270: 7a8c 0b3d 60ed 62bd 1221 b73d 5e23 ba3c
00000280: cbe6 ac3d 0930 a3bd a75b 07bc ab0c fabd
00000290: 0fe6 393d fe7f 5bbd 7a1f ee3d 42af 02be
000002a0: 8254 803d b7bd 10bd 2f7f 4c3d b631 8c3d
000002b0: 7b02 6a3c c2f4 aa3d 3dc3 88bd 99e5 d2bd
000002c0: 9065 86bd ad5a 3d3d a785 65bd 0d6b 0a3e
000002d0: 2a1c 5a3c 298b 9d3d db90 813d c3eb ed3d
000002e0: 0cd2 6b3a 1844 c93b 85a2 92bc 3044 c3bd
000002f0: 5a8c e7bd af23 5c3c 8606 073d d034 e63d
00000300: b059 453e 6022 5d3d eb20 093e be88 20bd
00000310: 872d 613e d6d3 3f3d 5bd5 b23a 9145 b43d
00000320: ce9c 613e 02b9 b53d 47d6 843e ebb0 813e
00000330: d6de ed3d 4e4a 5ebc 9da7 c93c 4193 563d
00000340: ff74 a0bd c1ce 013d f373 4a3d fde2 823e
00000350: b402 263e af41 a13e 8f23 69bd 2832 1a3d
00000360: 2b17 f73d d64e 483e 817e 8e3d 0b78 a2bd
00000370: 46d5 17bd 0855 2a3e 64e8 37bd 6075 513e
00000380: 9b0c b9bc 0cb5 213c 99e3 b53d 6834 8a3d
00000390: 4aa0 0fbd 2f90 c2bc 8fd0 843a c1da 003e
000003a0: f984 2c3e 3f7c a7bb ae0b bb3d a576 9bba
000003b0: 3898 483e d951 f83d 1641 9c3d ba4c a03e
000003c0: 34c5 1a3e 829f b3bd c5b7 6d3e bae0 81bd
000003d0: 6ec2 7b3e e043 913e 1b53 0c3e 11c5 0c3e
000003e0: 7c88 f63c 4daf f63c b69c bebb ed8a a03e
000003f0: 9965 26bd e420 f53d 4caf 843c bd2c 003d
0.09075763 0.020939482 0.17635487 0.030101221 0.13905469 0.112735234 0.050239805 -0.052116673
0.14203629 0.15654792 0.49082044 0.08513255 0.028217109 0.11293813 0.11616503 0.0767632
0.067514196 0.007766933 0.1923186 0.029684389 0.079380386 0.11517887 -0.0051965783 0.168385
0.2107148 0.070365466 0.21483494 -0.08888602 0.030761613 0.25731593 0.010416731 0.13736103
0.005111319 -0.04013054 0.30672446 0.08069352 0.10839551 0.12761669 -0.008253059 0.02631375
0.27550784 0.13121983 0.027456852 0.05100116 0.15136686 0.09898854 0.11881368 0.1789719
0.011621949 -0.0045239613 0.4174161 0.061202772 0.23546293 0.25663802 0.14283249 0.15062581
0.16774556 0.076729655 0.034916177 0.31543016 -0.06328157 0.04834914 -0.08230527 0.010084005
-0.037954673 -0.05093355 -0.023868969 -0.0056821187 0.0047498825 0.07202226 0.08021112 0.05304472
0.0060680015 -0.0073131337 0.12172803 -0.050447848 -0.011081234 0.0598094 0.13168514 -0.13079605
0.029330363 -0.061834 0.012861491 -0.07027554 0.1333824 0.10916882 0.07218978 0.07634033
-0.064953215 0.028701467 -0.16779529 -0.022975242 0.16280554 0.054436747 0.050240707 -0.017899072
-0.042883743 -0.014319743 -0.03249211 0.051406745 -0.06471973 0.047872107 0.14801346 -0.011729183
0.014328139 0.001473606 -0.029041465 -0.05564837 0.058278367 -0.012128186 0.012316448 0.17247166
0.13792653 -0.076130085 -0.09324485 -0.033554643 -0.1638434 0.16416675 -0.019052979 -0.004200882
0.03265753 0.17591721 -0.040848423 0.013125537 0.11743326 0.1418249 0.0007366752 0.12620963
-0.020709457 0.10844159 0.037284117 0.14948687 -0.054615404 -0.15050766 -0.031456538 0.06574984
0.012745712 0.11676952 0.14049563 -0.060574435 0.1227369 0.042753637 -0.029961081 -0.060593255
-0.024141446 0.01946369 0.10566443 0.0770527 0.013979477 -0.047836863 -0.13244171 -0.049559906
0.052223284 0.07655428 -0.07547347 -0.053091135 0.034069516 -0.05540216 0.089418545 0.022721943
0.08442458 -0.07968146 -0.008261598 -0.122094475 0.045385417 -0.05358886 0.116270974 -0.12762168
0.062661186 -0.035337176 0.04992598 0.06845419 0.014282818 0.08347465 -0.06677864 -0.102976985
-0.0656234 0.046229053 -0.056035664 0.13517399 0.013312379 0.07692558 0.06326457 0.116172336
0.0008995838 0.0061421506 -0.017899761 -0.0953449 -0.11306067 0.013436242 0.032965206 0.11240542
0.19272494 0.05398786 0.13391463 -0.039192908 0.21990024 0.046832882 0.0013643907 0.08802331
0.22032472 0.08873178 0.2594473 0.2533029 0.11614768 -0.01356752 0.024616057 0.052386526
-0.07834815 0.031691317 0.049426984 0.25563803 0.16211969 0.31495425 -0.056918677 0.03764549
0.12064966 0.19561324 0.069577225 -0.07933053 -0.037068628 0.16634 -0.04489936 0.20454931
-0.022589019 0.009869825 0.088813014 0.06748277 -0.035064973 -0.023750393 0.0010132956 0.12583448
0.168476 -0.005111247 0.09133087 -0.001186092 0.19589317 0.12124986 0.07629602 0.31308538
0.1511429 -0.08770658 0.23214634 -0.06341691 0.24585888 0.28372097 0.13703577 0.1374705
0.030094378 0.030112887 -0.0058170212 0.31355992 -0.040624235 0.11969164 0.01619687 0.031292666

lstm.weight_ih_l1 f4 [256, 64]
00000000: 1e35 483d b800 87bd bae5 3cbd d5cb a2bd
00000010: d932 e83d 0fd8 9abc a02a f4bd 1db8 0abd
00000020: dfa0 133e fe31 583d c105 0abe 0ba0 09be
00000030: d55f 143e e5ee dd3d a6c3 69bc a665 98bd
00000040: ce36 2ebc 4a1a 87bd d264 a43d 01f5 26be
00000050: 2722 babd f1de e0bd c5e2 36bd 967b 61bd
00000060: 2f4f ae3d 000d 293d 3b33 193e 8692 9e3d
00000070: 1f2d fc3b 6054 cfbd 9469 293e 6346 b5bc
00000080: 4068 083c 49c4 f5bc 0320 d4bd bb47 3d3e
00000090: 7527 2b3e 417b 5a3d ee5c e93d 6788 863d
000000a0: c4e5 8f3d f18d a0bc ce77 31bd faa0 e23b
000000b0: 5feb 9e3d 7f7a 663c 4696 423d 0635 a6be
000000c0: f70f ad3d ecd2 9bbd 841b 7abd 31e1 9dbd
000000d0: 034c 883c a2e8 a03d d200 91bc 095a 96be
000000e0: 02f2 573e a1b0 e73b 55f6 e2bd 6fba 80be
000000f0: dd77 9dbd 51da 01be 12e4 f23d 1c12 84bd
00000100: 7f8b 813d 2d25 053e 62fc a1bd b0a1 97be
00000110: 7bcc 513d a172 673e 25e2 263d eebb 08be
00000120: beee 61be 95c3 333e cb7e 973e 23eb bebd
00000130: 9bd0 253e 9f0f d1bd 90ae 22be b467 ccbc
00000140: 5b9e 28bd 1751 3a3d e2b7 8dbd 8a2a 8c3e
00000150: f4c0 853d f87c d8bd 71b3 3e3e 1807 b63d
00000160: c7b2 98bd 0c30 e5bc cc30 473d be62 813e
00000170: b2aa e83d 9727 0d3e 4911 833d c851 e4ba
00000180: 4723 063e a838 7bbe 6717 cb3d 0bf6 92bd
00000190: c9d4 ed3d b1d4 92bc acab 8e3a e92e f13d
000001a0: 6a29 703e 0d2c 453d 47d4 5bbe ecc2 37bd
000001b0: 2095 0fbd 523d 013e 38d5 8ebe 4d79 463e
000001c0: 7591 d03d aa7d d33d f39c 1f3c e656 093e
000001d0: ec85 6dbd f1f4 003d b5a9 c2bc f5c9 41be
000001e0: 6788 f4bb 2e62 b9bb 82d6 183c 0562 623e
000001f0: 3c8f f13d d117 fdbd 3c03 b1bd 68db 88bd
00000200: 062d 94bb 4f03 0d3e 5452 273e ceb3 0cbd
00000210: 849d e83b 219d 93bc 404a 9c3d 428f 253d
00000220: 74f1 acbd 57bf 0fbe b8da 2ebe 6a55 fb3c
00000230: b138 f2bd b47e 4ebe 6b4e 81bd 1225 0c3e
00000240: 7e90 1c3e 0a98 b6bd 1957 0b3d 5c4b bdbc
00000250: 7e41 a7bd c62f 503e e8e6 25be 4d69 853d
00000260: 1168 d23d 5d95 8bbb 9ed9 993d 8eee c53d
00000270: 2173 9a3c 9eb2 db3c 76dd 883c 95af 17bd
00000280: 79bf a03d ce60 5dbd 4ab5 8cbd f8f0 37be
00000290: 31ef 863c f277 313e 6b52 b5bd c877 3fbd
000002a0: 1522 7fbd 600d 36bd 4efb a53d 7115 383e
000002b0: bf29 9d3d 3885 e73c 97ab b6bc d33e eabd
000002c0: eb17 f33d 97cc 0b3e e09b 603d 00b2 66bd
000002d0: c819 2cbd 2763 0dbc f82d 98bd 3ecd b9bc
000002e0: d6b6 aa3d 3f0b ee3d f163 2abe c364 893c
000002f0: da05 633c 3615 ed3c a4d4 d03d be6f b6bd
00000300: 9247 73be 48ad ed3c 0029 0f3e b6ab 983b
00000310: 8437 503e e7f6 72bd 579b bdbd 6117 11be
00000320: af8f fe3c a3f2 533d d839 ae3e 2248 95bd
00000330: fec4 7e3d 3e44 a5bd da87 88bc 2a33 16be
00000340: 7cd4 30bd 396b acbc c340 b4bd 9f37 e03d
00000350: b4a3 ae3d 09e7 02be 600d 02bd 9944 18bd
00000360: 1df1 983d 30f0 ccba d4dd ec3d 4667 683d
00000370: 4436 ad3d c0f3 263e 1092 01bd d01e 913d
00000380: 84c8 8f3d 4043 4aba 359d b7bd ce07 ddbd
00000390: cab5 5e3e 2602 79bd 7248 41be 7b25 51bd
000003a0: 1ea5 b13d 5a49 37bd 5ec2 6d39 2968 cfba
000003b0: 0748 7f3d 2ea8 00be bb74 47be 939d 6bbd
000003c0: c54e 4dbd 7e91 083e 1eaa ed3d d70c a83d
000003d0: c6b7 ad3b 9aa1 023e e388 acbd 6cc6 5a3d
000003e0: 6363 5ebd 6dc0 3e3b 984d 92bd 9a5a 4cbc
000003f0: 7958 d43d 3e2c 2b3d 41c0 7a3d 9a10 3bbd
0.04887878 -0.06591934 -0.04611752 -0.07949034 0.113378234 -0.018901853 -0.119221926 -0.03386699
0.14416836 0.05278205 -0.13478757 -0.13439958 0.14489682 0.10836581 -0.014267838 -0.07441263
-0.010633184 -0.06596811 0.080270424 -0.16304399 -0.09088545 -0.10980023 -0.044649858 -0.0550495
0.08511197 0.041272163 0.14960949 0.07742791 0.0076958085 -0.10123515 0.16544181 -0.02212829
0.008325636 -0.030000823 -0.10357668 0.18484394 0.1671427 0.0533402 0.11394678 0.065689854
0.07026246 -0.019598933 -0.043327145 0.0069161626 0.07759737 0.014067291 0.047506593 -0.3246233
0.08450311 -0.076085895 -0.061061397 -0.077089675 0.016637808 0.07856871 -0.017700586 -0.29365566
0.21088412 0.0070706164 -0.1108214 -0.25142238 -0.07688878 -0.12680937 0.11859907 -0.064487666
0.06325435 0.13002463 -0.07909466 -0.29615545 0.0512204 0.22602321 0.040743012 -0.1335294
-0.22063729 0.17555077 0.29588923 -0.093221925 0.16192858 -0.102080576 -0.15886903 -0.024951793
-0.041166645 0.04548749 -0.069198385 0.27376205 0.065309435 -0.10570711 0.18623139 0.08888072
-0.07455974 -0.027977012 0.04863052 0.25270647 0.113606825 0.13784634 0.06399781 -0.0017419392
0.13099395 -0.24533331 0.09916573 -0.07175835 0.11612851 -0.017923685 0.0010884902 0.117765255
0.23453298 0.048137713 -0.21467696 -0.044863626 -0.035054326 0.12621048 -0.27897048 0.1938221
0.10183994 0.10326703 0.009742009 0.13412055 -0.057989046 0.031483594 -0.023762563 -0.18924697
-0.0074625495 -0.005657456 0.009328486 0.22107704 0.11794898 -0.12358058 -0.08643195 -0.066824734
-0.004521969 0.13770793 0.1634 -0.034351163 0.0070988555 -0.01801926 0.076313496 0.040419824
-0.08444491 -0.14037834 -0.17075622 0.030680377 -0.11827219 -0.20165521 -0.06313785 0.13686016
0.15289494 -0.08915718 0.03401861 -0.023107223 -0.081667885 0.20330724 -0.16201365 0.06514225
0.10273755 -0.004259749 0.0751221 0.09664641 0.018853726 0.02681857 0.016707163 -0.037032682
0.078490205 -0.0540474 -0.06870516 -0.17963016 0.016471477 0.17330912 -0.088536106 -0.04674509
-0.062288363 -0.04444635 0.08104573 0.17976929 0.07673978 0.028261766 -0.022298617 -0.11437764
0.11869796 0.13652264 0.054836154 -0.056322098 -0.042016774 -0.008629597 -0.07430643 -0.022680875
0.083356544 0.11623239 -0.16639687 0.01677168 0.013856376 0.028940778 0.10196808 -0.08908032
-0.2375777 0.029013291 0.13980484 0.0046591414 0.20333678 -0.059317496 -0.09258144 -0.14169075
0.031074373 0.05174507 0.34028506 -0.07289149 0.062199585 -0.08069657 -0.016666342 -0.14667955
-0.04317139 -0.021047221 -0.08801415 0.10948109 0.08527318 -0.12783445 -0.031751037 -0.037174795
0.07467864 -0.0015635546 0.11565748 0.056739114 0.08457616 0.16303921 -0.031633437 0.07085955
0.07020667 -0.00077157095 -0.08965532 -0.10792504 0.21749035 -0.060793065 -0.18875292 -0.051061135
0.08674072 -0.044747688 0.00022674489 -0.0015823889 0.06232455 -0.12564155 -0.19478123 -0.05752332
-0.05012395 0.13336751 0.11604713 0.08205574 0.0053014485 0.12756959 -0.084245466 0.053411886
-0.054294 0.0029106394 -0.07143706 -0.012472773 0.10368437 0.04179024 0.061218504 -0.04567013

lstm.weight_hh_l1 f4 [256, 64]
00000000: 6067 f6bd 4055 fa3c 2590 a23c 11d7 523c
00000010: 3e49 873e f8e9 623d 741f 273d a763 f2bd
00000020: 59bb 33be e530 1ebc 1f64 613e 1621 7ebd
00000030: 28eb 43bc 216a ed3b 6aa0 e23d c325 edbc
00000040: 9afd 2b3e 3087 aa3c c8d8 0e3e e0a2 f7bc
00000050: 3def 4a3d 8d4b f73c 84d9 91bc 11d7 493e
00000060: e77e aebd 8eee 9abd 69a6 933c 1595 893e
00000070: cfbe 823e 4b2a c1bd 72c4 3ebe f419 0ebe
00000080: 1db5 633e 9374 93bd 9f17 053e eaaa debc
00000090: 4563 a63d d2e3 20be ff12 8ebd fead cebb
000000a0: c4e4 43be bf55 323b ebd3 763d 6ed4 413e
000000b0: 1c58 ecbd 937d 56bd 4d08 813c 66bf 40bd
000000c0: 1386 413d 7a2d 1b3d a69f 04bc 0c8f 42be
000000d0: 3c5c 8d3d 8296 c2bc d191 e9bb 3435 4c3e
000000e0: 0102 22be 7241 e5bd 4ad8 df3d 0a33 dbbc
000000f0: 7bdc aebd 33ac 303c 4906 3e3c 1397 c53c
00000100: 72ff de3d 6617 123d 9b38 49be f877 eebb
00000110: d5e7 bcbd 9859 01bd 4e64 cf3d 7724 0b3c
00000120: adba 7fbe ee50 23bd c48b 6d3d 9b00 1bbe
00000130: 6d51 293d bb0e 603e bfd6 a63e d233 a8b9
00000140: 5a6d 973c 9d6b 173e 6229 983d 6bfe c9bc
00000150: 6dd2 483e 75b0 1b3e 2bc5 17bd cc2d efbd
00000160: da0f 413e c7d5 41be b06e db3c 4e2c 1d3e
00000170: 12be 503e c03a ccbc d9ce 35be a9e6 1f3e
00000180: ebae a2bd 993a 223d 954c 913d 93f0 4cbd
00000190: 04d5 03be 8063 aebd 8ceb ef3c ef06 1bbd
000001a0: 268a fc3d 31ca 573e 069e 6fbe a147 103e
000001b0: ab0c f4bd 40f9 39be 9f6e 703d 5e87 4e3c
000001c0: 8bf5 463e 3249 8fbd 9735 623e 27cd 023d
000001d0: 7e5c d8bd b129 96bd 0cdf 88bd 58e2 edbc
000001e0: 592d bbbd 821f 3cbe a0b9 c93d c5df 72bc
000001f0: 7fed ebbe 44d6 e93c 2cbd c5bd 02b5 b2bd
00000200: 5340 363c 71ba 683e b1d9 e13d d26a febc
00000210: 07cf 693c 761a 95bd 50e4 403d e404 a8bd
00000220: 1c79 a1bc eb15 0c3e f194 11be 432c 393e
00000230: c819 323e dcc7 75be 65a2 63be c0f1 1dbe
00000240: 0ace 3cbe d188 24ba 14bb b33e 4a0b eabc
00000250: 9e7d a73e d5b5 fbbd 3fa6 02be a75f 53bb
00000260: e561 10bd 9935 c5be 823f 203e 7e15 2e3d
00000270: b29d a4bd 03a0 373e 97cb 94bb bbcb e13d
00000280: c81b c13a 25ce d8bd ba94 57be a5f9 723d
00000290: 2e15 cabe c867 67be e09f f9bd 4db8 6fba
000002a0: 82d8 d2bd d7c0 cc3c b723 0abd 39ee 833e
000002b0: b677 2a3b 0846 4ebe dd98 9abc 6442 263e
000002c0: b878 10be 8a5f 26be d16e 183d 149c e23d
000002d0: 8198 9c3c e783 31be 75fd fcbd 5d1b 66bd
000002e0: aed1 533e a9e8 b63c af32 443c 4c3a b3bd
000002f0: 17b6 d63d 9f2c 173e d0e3 e8bc 4c82 0ebe
00000300: 6811 1a3e b8d7 203e c17b d7bd 7912 953d
00000310: 9632 e43d 983f 27bc 032e d4bd 111c c2bb
00000320: fc53 36be 7c2a f63c 27e7 d9bd c6bb bbbd
00000330: fda0 6e3b c330 55bd d0b1 efbd 15c7 02be
00000340: f553 95bd d043 ac3c 49d8 3c3c cc15 2ebe
00000350: a163 4f3c b998 323e 58b6 a93d 8392 d9bc
00000360: ab24 efbd 935d 5d3d 4a74 15be 458f e8bd
00000370: f6c8 1dbc ddcb d63c 96de a3bd 6323 3a3d
00000380: a89f 0cbd aee4 c93d 1376 2fbe d3fd 8c3d
00000390: 146c dabd cc42 27be bd12 983d a087 c73c
000003a0: 61b6 823d 1784 78bd 60ce ce3d e7ca 9c3c
000003b0: 7ac3 d8bd edbe dc3d 8c73 e0b8 dcb9 033e
000003c0: 89a9 1b3d 095a c83d f501 473d e77c b2bd
000003d0: c9b5 03bd f398 bcbd 8b5d f73d b544 d03d
000003e0: c90f 2dbd 07cf 893b a808 063d e38c 15be
000003f0: 8465 af3b 36ec 333d fe9a ee3c fc75 57bd
-0.12031436 0.030558228 0.019844124 0.012868659 0.26423067 0.05539891 0.04080148 -0.118354134
-0.17551936 -0.009655212 0.2201085 -0.062043272 -0.011957921 0.0072453176 0.11065753 -0.02894867
0.1679596 0.020816416 0.13949883 -0.030229032 0.04954456 0.030187393 -0.017803915 0.19710948
-0.085202985 -0.07565032 0.018023686 0.26871553 0.255362 -0.09431895 -0.18629625 -0.13877088
0.22237058 -0.07199969 0.12997292 -0.027181108 0.08124403 -0.15711907 -0.06937217 -0.0063073626
-0.19130236 0.0027211753 0.060260694 0.18928692 -0.11540243 -0.05236585 0.015751028 -0.04705753
0.047247004 0.037885167 -0.008094704 -0.1899988 0.06902358 -0.023753408 -0.0071279784 0.1994217
-0.15821077 -0.11194123 0.10929926 -0.026757736 -0.08538147 0.010783243 0.011598178 0.02411989
0.10888566 0.035666846 -0.196505 -0.007277485 -0.09223906 -0.031579584 0.101265535 0.008492581
-0.24973555 -0.039872102 0.05799462 -0.1513695 0.04133742 0.21880619 0.32585713 -0.00032082066
0.01848476 0.14787145 0.07429768 -0.024657449 0.19611521 0.15204032 -0.03705327 -0.11678657
0.18853703 -0.18929206 0.026786178 0.15348932 0.20385006 -0.024930358 -0.17754687 0.15615334
-0.07943519 0.039606664 0.07094685 -0.050034117 -0.12874228 -0.08515072 0.029287122 -0.03784841
0.12331037 0.21073224 -0.23400125 0.14089824 -0.11916479 -0.18161488 0.058699246 0.012605516
0.19429605 -0.06996383 0.22090755 0.03193393 -0.105645165 -0.07332171 -0.06683168 -0.029038593
-0.09139509 -0.18371394 0.09849858 -0.014823859 -0.46079633 0.028544553 -0.09655222 -0.08725931
0.0111237345 0.22727372 0.110278495 -0.031056795 0.014270551 -0.07280438 0.047092736 -0.08204058
-0.01971107 0.13680236 -0.14216973 0.18083291 0.17392647 -0.24002022 -0.22229917 -0.15424252
-0.18437973 -0.0006276491 0.35103667 -0.028569836 0.32713026 -0.12290541 -0.1275873 -0.0032253058
-0.03524961 -0.38517454 0.15649226 0.042500965 -0.080378905 0.17932133 -0.0045408714 0.11025187
0.0014733011 -0.10586194 -0.21052828 0.05932011 -0.39469284 -0.22598183 -0.12188697 -0.00091445894
-0.10295202 0.024994297 -0.033725467 0.25767687 0.0026011295 -0.20143902 -0.018871719 0.16236264
-0.1410855 -0.16247383 0.037215058 0.11064926 0.019115688 -0.17335473 -0.123530306 -0.05617844
0.20685455 0.022327738 0.011974975 -0.087513536 0.1048395 0.14763115 -0.028428942 -0.13916892
0.15045702 0.1570729 -0.10521651 0.07278914 0.11142461 -0.010208033 -0.103603385 -0.005923756
-0.17805475 0.030049555 -0.10639792 -0.09166674 0.0036411874 -0.052048456 -0.11703837 -0.12771256
-0.07291404 0.02102843 0.011526176 -0.17000502 0.012658031 0.17441072 0.082867324 -0.02655912
-0.11676916 0.054044317 -0.14595142 -0.113554515 -0.009630432 0.026220256 -0.08001439 0.045443904
-0.034331948 0.0985807 -0.17134885 0.06884351 -0.106651455 -0.16334075 0.07425449 0.024356663
0.06382442 -0.060672846 0.10097957 0.01913972 -0.10584159 0.10778604 -0.000107026746 0.12863868
0.03800348 0.09782798 0.04858585 -0.087152295 -0.032155786 -0.0920886 0.12078389 0.10169355
-0.042251382 0.004205588 0.0327231 -0.14604525 0.005352678 0.04392644 0.02912664 -0.052602753

lstm.bias_ih_l1 f4 [256]
00000000: 7c5c d33c 7784 0a3e 95c4 c33d 896f 593b
00000010: cd5c a53d 9945 c53d 54da 6abc 22d2 dc3d
00000020: 4f59 54bd d95a 383d 816b 3d3d c460 b13d
00000030: b9ed 0d3c fa64 3bbb 2d73 fc3d d890 80bc
00000040: 0246 74bd 1c32 0c3e 72d4 a0bd b4cf 88bc
00000050: 6662 3b3e 5c5e 203e c0c8 4bbd c48f 193d
00000060: 4cf0 b63d 5709 a73d 354d da3d 16df b13d
00000070: 0408 763c 0eeb 373e 440d 2a3d fe0d 433e
00000080: 4b57 163e ef9a 08bd 4a08 6a3e 6cfb 53bd
00000090: bb13 06be 7ae1 b03d 0975 ddbc 8401 213d
000000a0: fd81 7c3b d397 743d b341 8c3c ef16 60bd
000000b0: 84a8 67bc afa5 5fbd 1184 9e3d 8ca3 613d
000000c0: 11b7 6ebd b980 063e e7b9 84bd f793 a7bd
000000d0: a246 a93c c32a 493d 68e2 343e f6d4 693c
000000e0: 28f2 acbd b0ae 2b3d 9791 73ba 0a6f 2a3d
000000f0: 1483 313d 4458 12bd 6683 333e ceba 21bd
00000100: 6e0f 02bc 4369 323d b763 a53d 2d7e 113e
00000110: 52c2 633d 710a e43b a011 1fbd 4ac4 e73d
00000120: c420 e13d fd69 08be d165 7a3d bc49 a03d
00000130: 5546 903a 15f8 f1bd c91e b4bd e41a ee3d
00000140: aa41 0e3e 4070 a8bd 2619 ba3d f408 733c
00000150: 3df3 7cbc 47ad 3c3d 81b0 c8bd 06ee 2bbd
00000160: 3f9a 6c3c 1e0a ccbc f7d1 ccbd 597a 163e
00000170: 7c23 a0bd 047a f83d 5d4e 183d b5ff b6bc
00000180: fceb d13d 2053 f93d 597f 19be d5e2 bebc
00000190: 0f1f 293e 83eb 85bb c34e e9bd f75d 5abd
000001a0: c4de f1bd e18a eb3d 5514 09bd 52d5 b2bd
000001b0: 9f36 103d 30c5 f73d f73c 3f3b f8db 343d
000001c0: b2d6 31bd 6a55 fb3d 5459 6fbd c1f8 103b
000001d0: d01b 853d 1d81 9c3d 79ba f8bc 12c1 0a3c
000001e0: 2261 043c ef75 ae3d 8f83 f43d da23 823d
000001f0: ac90 45be fe24 87bd e0e4 10bd 4cc7 c0bd
00000200: 8ddf 673d 2982 babd 91ce 973d a56c 033d
00000210: ea0c b73b c56f c73c 71bf cb3c a917 983d
00000220: d0a8 ebbd fb59 f63d 65f1 ba3d aaf9 afbd
00000230: bded b43d 6c15 cdbd dd7c 6e3d c51b 993c
00000240: fd61 f43c d381 bd3d 6311 2b3d e2d9 06bd
00000250: 82bb aebd 0c5a 043e f74b 50bd ce58 1c3d
00000260: 332f fb3d 1ddb 8bbd 7cb1 b4bd d084 29bd
00000270: adcc 933c f1b8 9b3d a52d 98bd 85df c33d
00000280: 708e 933c 2f53 983d b151 1ebd 35d5 a0bd
00000290: 5bae 483c df9a 6bbd f61c 003e a636 9b3b
000002a0: 6e88 42bd eb3a b73d 31c8 0a3d d53c e63d
000002b0: 1109 c5bd 0741 ac3d 4a4b 083e bbc4 5abd
000002c0: ed03 4a3c 92e9 d83d bd91 c7bd e235 b2bd
000002d0: bde3 923d c214 1dbc 911b 81bd 114f 50bd
000002e0: 1d47 b53d 0803 243d ce6a 303d fbaf 6cbd
000002f0: bc29 a93d c94a d0bd 6dad b63d 0118 34bd
00000300: 481c ff3d 84fb b5bc de9f 9cbc cbe5 e6bd
00000310: cdc1 7c3c 02d6 b63d cd0e e53d d7fa 39bc
00000320: 0469 223b 12f6 06bd 22b6 b33d 2c0d f93d
00000330: 1c9d de3d 3c60 cdbd b3f0 0f3d 53f1 8d3d
00000340: 7442 e93d 7a23 1bbb 4e65 c23d c2d3 0dbd
00000350: c9e5 253e 20af 573c 20e2 ad3d 3c3c 0a3e
00000360: c356 9ebc e757 8e3d 52bc 8a3d 6aee 543d
00000370: 97ee c7bb 3431 13bd a99f 42bd d7f0 933d
00000380: c964 7ebd 20bc b3bd 2b78 efbc 2e64 b3bd
00000390: ff1d 033d 44b6 193d a39b 083e 8ab1 0ebb
000003a0: 5e12 a13c d305 d53d 17af c23d 5b61 d5bb
000003b0: e03b 1d3d 38e4 96bd 852a 6bbb a72b 653d
000003c0: d242 d13d 702c 453d 2fd3 02be c605 aa3c
000003d0: 3dec 53bd 9146 3fbd 16eb 7f3d e3d0 b53d
000003e0: caa2 bc3d 204c 263e 4795 8fbd a792 383c
000003f0: 1a0c e8bb 5a72 8ebd ae64 32bd 9857 243e
0.025800936 0.13527094 0.095589794 0.0033178052 0.08074341 0.09632415 -0.01433428 0.10782267
-0.051842984 0.045008514 0.0462451 0.08661035 0.0086626345 -0.0028594122 0.123266555 -0.015694067
-0.059637077 0.1369099 -0.07853021 -0.016700603 0.18299255 0.15660995 -0.049751997 0.03749062
0.08932552 0.08156078 0.10659257 0.086851284 0.0150165595 0.1796076 0.041516557 0.19048306
0.14681737 -0.03335088 0.22854725 -0.051753446 -0.13093464 0.08636756 -0.027033346 0.039308086
0.0038529627 0.059715103 0.017121172 -0.05470937 -0.014139298 -0.054601368 0.077400334 0.05508761
-0.058280054 0.13135041 -0.064807706 -0.08182519 0.020663563 0.049113046 0.17664492 0.014271965
-0.08444625 0.04191464 -0.0009291409 0.0416098 0.043337896 -0.035728708 0.17530593 -0.03948479
-0.007938249 0.043557417 0.0807566 0.14208288 0.05560524 0.0069592525 -0.038835168 0.11316736
0.10992578 -0.13321681 0.061132256 0.07826564 0.0011007289 -0.11814896 -0.08794934 0.11626223
0.13892236 -0.08224535 0.09086828 0.014833678 -0.015438852 0.046063688 -0.097992904 -0.041975044
0.014441072 -0.024907168 -0.10000985 0.1469511 -0.07819268 0.12132648 0.037184108 -0.022338727
0.102500886 0.12174058 -0.14989986 -0.023301521 0.16515754 -0.004086913 -0.11391976 -0.053312268
-0.11810067 0.115010984 -0.033466656 -0.08732094 0.03520834 0.120981574 0.0029180625 0.04415509
-0.04341764 0.12272151 -0.0584348 0.0022120925 0.064994454 0.07641814 -0.030362355 0.008468883
0.008079799 0.08518588 0.11939155 0.063544944 -0.19293469 -0.065988526 -0.035374522 -0.09413013
0.05660968 -0.09106857 0.07412446 0.032086033 0.0055862563 0.024345288 0.02487156 0.07426388
-0.11506808 0.12028881 0.091280736 -0.085925415 0.088344075 -0.100138515 0.058224548 0.01869
0.02983188 0.09253278 0.04176463 -0.032922633 -0.08531858 0.12924975 -0.050853696 0.03817063
0.12264862 -0.06828902 -0.08822915 -0.041386425 0.018041933 0.07603634 -0.07430581 0.09564117
0.018012255 0.07437741 -0.038652126 -0.07853166 0.012248601 -0.057520743 0.12511048 0.004736739
-0.04749339 0.089467846 0.033882324 0.112420715 -0.0962087 0.084108405 0.1330997 -0.053410273
0.012330038 0.10591425 -0.09744594 -0.087016836 0.07172344 -0.009587469 -0.06304086 -0.050856654
0.088514544 0.040041953 0.043070607 -0.057785016 0.08259913 -0.10170514 0.08919797 -0.043968204
0.12456566 -0.022214659 -0.0191192 -0.11274298 0.015427065 0.089275375 0.11184464 -0.011351309
0.0024781832 -0.032949515 0.087749735 0.121607155 0.1086981 -0.10028121 0.035141658 0.069307946
0.11389628 -0.0023672269 0.094919786 -0.034625776 0.16200937 0.013164312 0.084903955 0.1349954
-0.01932848 0.0695036 0.067742005 0.051985182 -0.00610144 -0.035935596 -0.047515545 0.07223671
-0.062107835 -0.08776116 -0.029232105 -0.08759342 0.03201103 0.037527338 0.1334062 -0.0021773302
0.019662078 0.104015015 0.09506052 -0.00651185 0.03838718 -0.07367748 -0.0035883498 0.055949833
0.10217823 0.048138082 -0.12775873 0.020754706 -0.051738966 -0.046698157 0.062480055 0.088777326
0.09210737 0.16239977 -0.07010894 0.011265433 -0.0070815207 -0.069554046 -0.043553047 0.1604904

lstm.bias_hh_l1 f4 [256]
00000000: 233a 35bd 83f9 223b ec74 fb3d 6759 5cbd
00000010: 71ec 303e 62cb 973c 13fa f7bc a915 443d
00000020: 0b1e 763c 1b30 9c3c 91c9 113e cf8c 67bc
00000030: 3439 80bb 4bf4 023d 3bc8 b83d b345 66bb
00000040: 681f bebd 48c3 febc 51c2 06be 3a58 9a3d
00000050: 15ea 2fbc 05c2 243e d66f 1bbb 4170 0e3d
00000060: 848c d0bb 8e8e 8fbd a8d0 dd3d dd84 c83c
00000070: 0a18 bf3d 9c31 0c3d be31 cc3d 35ba 363e
00000080: b8ae 993c 8d23 093e 1933 0f3e 9c68 f33c
00000090: 7775 b23d b90b b3bc 598c e5bc f9b6 d83d
000000a0: 8778 49bd 78a3 c2bd fa45 48bd 3047 193e
000000b0: 1d9b 56bd 637a c83d 86ce b63d e2d6 c53c
000000c0: 1a68 8cbd 4a67 49bc 7434 953c 5c4f c33d
000000d0: fd53 1e3d 7a77 d23d 4a21 0b3e cab3 c63d
000000e0: 39ed bcbd fd45 ec3d 9d12 abbd cc4e b23d
000000f0: d830 d0bd ba90 103e da18 d93d e739 b23d
00000100: 074d 913c a673 11bd 318e a3bc af81 ac3d
00000110: 005b 4abd 163c 83bc 7752 c33d 2bfc c0bd
00000120: de99 2e3e 3788 093d b474 e53d 27e2 48bc
00000130: 9abe 043e d0af d53d 85cf 5f3d 958b babd
00000140: 4918 d23c e5bb d63c 2435 e6bd dedd 63bd
00000150: 9075 f13b f49c 27bb c0c4 a7bd 6440 fc3d
00000160: f324 f33c 9b21 413d c1c6 f33d 4de9 453d
00000170: 245c fb3d eab9 583c 9b51 cb3d 9392 283d
00000180: 0f70 93bc 939a 573d 56b7 483d a3b1 cdbd
00000190: 9957 ee3d 481e b5bd acb1 e03d 42a2 8dbc
000001a0: 00fb bcbd 6a34 a13d 5491 0c3b 1251 1dbc
000001b0: f2ff 4b3b 6bbd d73d 3073 483d 9fe7 a2bd
000001c0: e17f 3ebd 8230 50bd 576c 6ebc 1aaf fb3d
000001d0: 69fb 9abd 947c a33c 42f4 dc3d f9d4 e53d
000001e0: cc2c cf3d c4a0 22bd 96d8 313d 3ccc cc3d
000001f0: 78e5 95bc 45e9 5dbd 9e01 0fbe 9c86 28bd
00000200: d4ea 35bd 2e23 5ebd ab89 e1bd fe22 943d
00000210: 4dab 9c3d ab4a 313d df8d 02bc d594 513d
00000220: e800 0e3b 6a69 61bd 7a8f b5bc f951 e0bc
00000230: db27 923d 6b01 ef3c c41a aabd ddd6 ce3d
00000240: 2ef7 123d d51e dd3d 4d71 a23d fa02 5d3c
00000250: e10c e43c 9980 cfba 6448 0cbc d0af 033e
00000260: 9f17 503d 9131 153d 6331 6bbd 8800 f53c
00000270: 3968 483d 26e2 fabd b8bd bb3c 05e2 52bc
00000280: ee63 b43d 214f 99ba ba08 7a3d d66e 32bd
00000290: 4dba abbd 5523 8bbd c086 8d3d 10fc dfbd
000002a0: a6dd eb3d 4e11 e9bc 7bd8 28bd 625c 80bd
000002b0: 3834 873d b674 61bd 5a53 c9bb a878 a93d
000002c0: 5f6a 6e3d b1e5 a13b e9c9 603d 355c c5bd
000002d0: 6a1c d13c 3e4c 38bc 03ce 19bd a73a cc3d
000002e0: d4bf ebbd 1818 503d 029e 673d edd1 54bd
000002f0: eb47 dd3c 79e7 acbd 2a0f bcbd 98f2 31bd
00000300: 9f68 b63c 689c 66bd f97b 433d baf8 f93d
00000310: 68b1 1b3e 0375 903d ce0a f23d 2ae8 5d3d
00000320: ccd7 48bc dec7 773d 1277 e8bd e5a2 39bb
00000330: a2bf 893b 50d8 ebbd edef ecbc 2ffe 913d
00000340: 71f2 41bc 8481 b0bd 2800 62bd ac70 1bbc
00000350: fa95 b93d cb61 d1bb 1161 a9bd 5d23 c1bc
00000360: 45c5 43bd 1374 8fbc 93eb d7bd 6312 65bd
00000370: ac09 07bb e52d 253e 992a 6c3d 84ca 8c3d
00000380: fa2c 5e3d b9af 033e 914a 3f3e 7892 cd3d
00000390: a707 b6bc ee76 d33c 0f63 9ebd 27fb 0a3e
000003a0: 69d8 003e c363 73bd b1a5 793b eacb 2f3d
000003b0: b8b7 d2bd 7c56 033e bff6 9abd a035 773c
000003c0: fc98 82bd 02ec 9bbc 76b8 95bc 36a3 133d
000003d0: 85d1 fd3d 61e1 bc3b 4305 c23c 6bae 463d
000003e0: af5a 2c3d 5498 743d f4eb e6bd 491f ad3c
000003f0: b897 853c 1c2e cf3d bb54 62bd f3ef 113e
-0.044244897 0.002486796 0.122781605 -0.0537962 0.17277695 0.018529598 -0.030270612 0.04787222
0.015021811 0.019065907 0.14237048 -0.0141326925 -0.003913069 0.031971257 0.09022566 -0.0035136759
-0.09283334 -0.031098977 -0.13160063 0.07536359 -0.010736962 0.16089638 -0.0023717782 0.034775022
-0.006364407 -0.07009612 0.10830814 0.024477417 0.09330757 0.034227 0.09970425 0.1784447
0.01876007 0.13392468 0.13984336 0.029712968 0.08713811 -0.021856176 -0.028021025 0.10581774
-0.04918721 -0.095038354 -0.04889486 0.14968562 -0.05239402 0.097889684 0.0892611 0.024150316
-0.06855793 -0.012292692 0.018213488 0.09536621 0.038654316 0.102766946 0.13586918 0.09702261
-0.09224934 0.11536787 -0.083531596 0.087064356 -0.10165566 0.14117709 0.10600443 0.0870245
0.017736925 -0.03551068 -0.019965263 0.08423173 -0.04940319 -0.016019862 0.09537213 -0.09423097
0.17050883 0.03357717 0.112039 -0.01226095 0.12963334 0.10433924 0.054641265 -0.091086544
0.025646346 0.026212642 -0.112406045 -0.05563151 0.007368751 -0.002557573 -0.08191824 0.12316969
0.029680705 0.04715119 0.11903144 0.048318196 0.12273434 0.013227919 0.099276744 0.04115541
-0.01799777 0.052637648 0.049002968 -0.10043647 0.11637802 -0.08843666 0.10971388 -0.017289285
-0.09227562 0.07871325 0.0021448927 -0.009601848 0.0031127897 0.105341755 0.048937976 -0.079543345
-0.046508674 -0.05082751 -0.014552197 0.12289257 -0.07567484 0.019956864 0.10788776 0.11222262
0.10115966 -0.0397041 0.043419443 0.09999892 -0.018297896 -0.05417754 -0.1396546 -0.041144
-0.044413403 -0.05423277 -0.11012586 0.07233237 0.076498605 0.0432841 -0.007968395 0.051167328
0.002166802 -0.05503217 -0.022163142 -0.027382838 0.07136508 0.02917548 -0.083058864 0.10099576
0.03588026 0.10796896 0.07931767 0.013489479 0.027838172 -0.0015831172 -0.008562181 0.12860036
0.050803777 0.036424223 -0.057420146 0.02990748 0.04892752 -0.12250166 0.022917613 -0.01287127
0.088081226 -0.0011696556 0.06104348 -0.043562733 -0.083851434 -0.067938484 0.06910467 -0.10936749
0.115168855 -0.028450634 -0.041222077 -0.062676206 0.06601757 -0.055042945 -0.0061439695 0.082749665
0.058206912 0.0049407114 0.054880057 -0.09636728 0.025526244 -0.011248646 -0.037549984 0.099721245
-0.11511198 0.050804228 0.056547172 -0.051958013 0.027011832 -0.084425874 -0.0918258 -0.043444246
0.022266684 -0.056301504 0.04772565 0.12205644 0.15204394 0.07053568 0.11818467 0.054176487
-0.012258481 0.060493343 -0.11350836 -0.0028325852 0.0042037526 -0.11515868 -0.028923 0.0712856
-0.011837588 -0.08618453 -0.05517593 -0.009487312 0.09061809 -0.0063898317 -0.08270467 -0.023576433
-0.047795553 -0.017511403 -0.10542979 -0.055925738 -0.002060513 0.16130789 0.05765781 0.06874564
0.05424211 0.12860002 0.18680789 0.10037702 -0.022220446 0.025813546 -0.07733738 0.1357237
0.12582554 -0.059421312 0.0038093145 0.042919077 -0.10288948 0.1282596 -0.07566594 0.015088469
-0.06376836 -0.019033436 -0.018276434 0.036044322 0.12393478 0.005764172 0.02368415 0.04850618
0.04207867 0.059715584 -0.11275473 0.021133082 0.016307697 0.101162165 -0.055256587 0.1425169
