output/LSTM2CNN/LSTM2CNN_adam_128_500/model/LSTM2CNN_epoch_122.pth (torch, 350402 bytes, 16 tensors)

lstm.weight_ih_l0 f4 [256, 10]
0.12221183 0.19801466 0.15110737 0.014882083 -0.11943103 0.16663587 0.25425035 -0.10148069
0.03075833 -0.12935118 -0.03099151 0.0636362 0.06309759 0.071145386 -0.11267459 -0.019448578
0.00029165132 -0.034149278 -0.12053999 -0.030809395 -0.14616635 0.030233994 -0.089109756 0.0041365377
0.045578975 -0.037611745 -0.03468497 -0.14987011 -0.12658137 -0.15086451 0.0013576167 -0.1405699
0.08914232 0.019592706 -0.14100532 -0.0336933 0.038522497 -0.12619345 0.08541552 0.078650355
-0.07103333 0.027244486 0.091484666 0.12393034 -0.034426484 0.11899486 -0.091658935 0.030661456
0.018426897 -0.010023946 0.07241738 -0.09973794 0.070759736 -0.06867802 -0.019781327 -0.12807716
-0.11248254 0.12831941 -0.015485543 -0.11140766 -0.041269004 -0.03386146 -0.07354072 -0.01870996
0.16559222 -0.13353126 -0.07204443 0.17498544 0.1555245 0.017508168 0.038612254 0.12534861
0.01881874 -0.13963507 -0.058002405 0.019668533 0.09228866 -0.086149655 -0.07861681 -0.051085077
-0.13268207 -0.04055077 0.022208683 -0.0656388 -0.082452744 -0.034911744 0.022279864 0.009665033
-0.005541166 -0.006949046 -0.01992564 -0.056590613 -0.12075461 -0.020399772 -0.024328426 -0.038463987
0.023933219 0.056587804 0.13545285 0.18277064 0.06102742 -0.14641511 -0.1387131 0.089211255
-0.110452384 -0.07043322 -0.104797676 -0.17979854 0.15534283 0.23184247 -0.045165148 -0.14330883
-0.09925238 0.08182269 -0.04173326 0.02715548 0.0407567 0.15064828 0.1375757 0.15894043
0.013383477 -0.040144254 -0.022887224 0.004584731 0.004503079 -0.014028686 -0.09451324 0.14372653
0.15733087 -0.0558623 -0.08454043 0.050723862 -0.105178975 0.015382128 0.045849588 -0.08474736
0.14209308 -0.079550534 0.005083621 -0.08615569 -0.016746763 0.10687876 0.08182665 0.0041743303
-0.060937382 0.16732505 0.09716255 -0.023134926 0.013703518 -0.14828485 -0.05549785 -0.016613958
-0.1459203 0.103551336 0.094403476 -0.17799072 -0.21585333 -0.041722234 0.1778792 -0.010403351
-0.07463999 0.067437455 0.09487198 0.062391732 0.016983388 -0.036938526 -0.015577053 0.18130147
0.055147454 -0.02061827 0.06994919 0.06310964 0.106599994 0.1087299 0.0006773455 -0.08280415
-0.060083743 -0.066018805 -0.032142427 -0.007083581 0.03827985 0.049668737 -0.078228295 -0.0008745447
0.06822784 -0.05397611 -0.050087757 -0.07604155 0.012419162 0.12808685 -0.11551974 -0.15512413
-0.124115594 -0.26592895 0.13341874 -0.29282746 -0.23036706 0.16906646 0.16950434 0.16630132
0.13567041 0.08705971 0.067462556 -0.082620025 0.09082087 0.09853603 0.042282898 0.052465815
0.14592926 0.036269173 -0.0029843394 -0.20908237 0.08455603 -0.058838226 0.17447746 0.003868077
-0.111349575 0.14104083 0.07464977 0.2233262 0.15134023 0.05979471 0.12786962 0.10110464
-0.016075926 -0.018439226 0.053192157 0.015674837 -0.06485798 0.15441395 0.11550661 0.046540156
0.06389765 -0.0028987862 -0.030760152 0.20351401 0.12564163 -0.08991367 -0.113077134 0.04627611
0.06876558 0.05392487 0.003186713 0.008634114 -0.04765812 -0.077052616 -0.18000953 0.17317729
-0.0056312643 0.028779184 0.056612156 0.07957761 0.01110682 0.21531586 0.035443902 0.026627738
00000000: 324a fa3d 5bc4 4a3e e4bb 1a3e fbd3 733c
00000010: 4198 f4bd 98a2 2a3e 1a2d 823e 1cd5 cfbd
00000020: e5f8 fb3c a374 04be e8e1 fdbc b253 823d
00000030: 4f39 813d acb4 913d efc1 e6bd a052 9fbc
00000040: c7e8 9839 1de0 0bbd acdd f6bd fc63 fcbc
00000050: a2ac 15be 48ad f73c 2d7f b6bd cb8b 873b
00000060: 05b1 3a3d c60e 1abd d411 0ebd 8d77 19be
00000070: 8c9e 01be 3a7c 1abe 0ff2 b13a 8ef1 0fbe
00000080: 4090 b63d e280 a03c b363 10be fc01 0abd
00000090: c4c9 1d3d db38 01be 55ee ae3d 7013 a13d
000000a0: ec79 91bd d42f df3c 505c bb3d 31cf fd3d
000000b0: c902 0dbd 94b3 f33d aeb7 bbbd bc2d fb3c
000000c0: 01f4 963c 7a3b 24bc 904f 943d 6843 ccbd
000000d0: 7bea 903d 10a7 8cbd 730c a2bc a926 03be
000000e0: 3f5d e6bd 2a66 033e 13b7 7dbc b329 e4bd
000000f0: b009 29bd 50b2 0abd 849c 96bd a145 99bc
00000100: 0291 293e 6bbc 08be 088c 93bd 622f 333e
00000110: d141 1f3e 4a6d 8f3c e227 1e3d 635b 003e
00000120: c229 9a3c 7ffc 0ebe ee93 6dbd e71f a13c
00000130: d601 bd3d 3b6f b0bd da01 a1bd 963e 51bd
00000140: cfdd 07be 9018 26bd fcee b53c a36d 86bd
00000150: fcdc a8bd 9eff 0ebd 4384 b63c 165a 1e3c
00000160: ab92 b5bb d3b4 e3bb 193b a3bc 8fcb 67bd
00000170: 314e f7bd 6c1d a7bc 684c c7bc 6a8c 1dbd
00000180: 990f c43c 9dc8 673d 27b4 0a3e 3a28 3b3e
00000190: e3f7 793d d8ed 15be cf0a 0ebe 64b4 b63d
000001a0: dc34 e2bd 4b3f 90bd 2aa0 d6bd 1c1d 38be
000001b0: 3112 1f3e 1d68 6d3e 17ff 38bd 8dbf 12be
000001c0: d544 cbbd a892 a73d 7ff0 2abd 2b75 de3c
000001d0: 7ff0 263d 8b43 1a3e a5e0 0c3e 48c1 223e
000001e0: 5f46 5b3c 4d6e 24bd fd7d bbbc 833b 963b
000001f0: 918e 933b 93d8 65bc 2890 c1bd 0c2d 133e
00000200: 581b 213e decf 64bd 8823 adbd d3c3 4f3d
00000210: 1368 d7bd 5205 7c3c c7cc 3b3d 0690 adbd
00000220: d980 113e 64eb a2bd 8194 a63b 6572 b0bd
00000230: 8230 89bc 40e3 da3d bb94 a73d d2c8 883b
00000240: 7a99 79bd 4257 2b3e 29fd c63d 7585 bdbc
00000250: b884 603c fcd7 17be b751 63bd ff19 88bc
00000260: 226c 15be b912 d43d 9c56 c13d 3343 36be
00000270: a808 5dbe efe4 2abd f725 363e d172 2abc
00000280: dadc 98bd a61c 8a3d 3e4c c23d 798e 7f3d
00000290: bf20 8b3c da4c 17bd e536 7fbc 18a7 393e
000002a0: 4ce2 613d a5e7 a8bc 8541 8f3d a03f 813d
000002b0: 1951 da3d c8ad de3d e38f 313a 3995 a9bd
000002c0: 5f1a 76bd de34 87bd c7a7 03bd 621d e8bb
000002d0: 55cb 1c3d 7271 4b3d 2836 a0bd b441 65ba
000002e0: 0abb 8b3d 0e16 5dbd d228 4dbd acbb 9bbd
000002f0: be79 4b3c 3329 033e 9d95 ecbd dcd8 1ebe
00000300: 5130 febd d727 88be ec9e 083e 7bed 95be
00000310: 58e5 6bbe c21f 2d3e 8c92 2d3e e54a 2a3e
00000320: 2fed 0a3e 5c4c b23d cf29 8a3d b034 a9bd
00000330: 4b00 ba3d 42cd c93d d530 2d3d 65e6 563d
00000340: 7b6e 153e fc8e 143d e894 43bb b019 56be
00000350: b62b ad3d 5a00 71bd 38aa 323e 907f 7d3b
00000360: 3f0b e4bd 026d 103e fbe1 983d a0af 643e
00000370: eff8 1a3e 4ceb 743d 41f0 023e f30f cf3d
00000380: a9b1 83bc dc0d 97bc 05e0 593d 8468 803c
00000390: 43d4 84bd b11e 1e3e bb8e ec3d e4a0 3e3d
000003a0: c5dc 823d 90f9 3dbb b7fc fbbc fa65 503e
000003b0: 33a8 003e a924 b8bd fc94 e7bd 058c 3d3d
000003c0: f8d4 8c3d 53e0 5c3d 2cd8 503b 1976 0d3c
000003d0: 2935 43bd c3cd 9dbd 6b54 38be 6355 313e
000003e0: 7886 b8bb 53c2 eb3c 26e2 673d 96f9 a23d
000003f0: 61f9 353c c37b 5c3e a02d 113d 6a22 da3c

lstm.weight_hh_l0 f4 [256, 64]
0.0955289 0.020350453 -0.08231008 -0.04181091 -0.1025112 0.051251195 -0.09382104 -0.058939427
0.018796893 -0.035214383 -0.18603943 -0.11102537 0.0022018834 0.13243233 -0.050074913 -0.06746742
0.08776396 0.06015654 -0.064614266 -0.14076859 -0.04413467 -0.033638403 0.02097139 0.15400603
0.14699398 0.091564216 -0.15860279 -0.13736272 -0.09727682 0.029980129 0.07923474 -0.027300354
0.11787163 0.008319875 -0.037268348 -0.15280133 -0.020599894 0.017822832 0.09293096 0.06275909
-0.027407449 0.06560472 0.10277933 0.02742627 -0.017711084 0.12149845 0.0053220703 -0.06086861
-0.04452046 -0.099361636 -0.15496255 0.044257227 -0.13396247 0.10664108 0.018024717 -0.0766258
-0.112032026 0.030616846 -0.093664795 0.07915145 0.02852946 -0.037194677 -0.05225408 0.096288614
-0.016145634 -0.08403677 -0.08453856 -0.09749572 -0.12520437 -0.010227105 0.016285308 0.007768151
-0.062420722 0.07210569 -0.16058004 -0.05477907 0.05753062 -0.097463906 -0.031697184 -0.037494402
0.17624886 0.0866787 -0.09780136 -0.07599118 0.04923433 0.18485568 0.027977267 -0.007241246
0.14160818 -0.08635456 0.07132931 0.08168273 -0.0686975 0.07682348 0.039960824 0.022215605
0.06158375 -0.02513137 -0.08094257 0.035061035 0.07557836 0.10849482 -0.06257631 -0.10230061
-0.04222536 -0.009131791 -0.066674456 0.097539194 -0.051246922 0.046057902 -0.05200579 0.074589506
0.07868042 -0.014152937 -0.10032321 0.121778786 -0.13986248 -0.008837215 0.018243909 0.03706379
0.030933147 -0.08515901 0.04173879 0.041314818 -0.109030314 -0.09961544 0.07382044 -0.08695671
-0.05965736 -0.03094655 0.060987335 -0.079537146 -0.058953647 0.13607548 -0.08700243 -0.060264133
0.07581888 0.14607772 0.11994848 -0.18567796 -0.0015152171 0.013076972 0.12732813 -0.10926962
-0.030747157 0.028402487 0.026575552 0.018799001 0.15456964 0.06198607 -0.18839446 -0.18897998
0.04499665 -0.008886599 0.11130385 0.18271765 0.14211002 -0.09164862 0.09039001 -0.14368299
0.03831233 -0.068060845 -0.029433798 -0.03438144 0.06622972 -0.07377786 0.055352945 -0.028458973
0.11163572 0.05659352 -0.0051510395 -0.13898341 0.12732457 -0.02489726 0.06488187 0.07848748
-0.1222194 0.20928031 0.07578522 -0.13714287 0.17850651 -0.2832903 -0.08861913 0.014186319
0.16084778 -0.05401909 0.08511122 -0.044658568 0.21515565 0.103113055 0.19768448 -0.07279462
0.0985988 0.12586059 -0.0029193372 -0.037027624 -0.08390857 -0.07575287 -0.0075332844 -0.05205676
0.09661153 0.05644785 0.056159265 -0.11209396 0.08071806 -0.16610157 -0.07462179 0.06611285
-0.11652963 0.1499044 -0.08023918 -0.024787493 0.094001226 -0.02047206 -0.033187382 -0.0154810315
-0.019210137 -0.050160754 0.06169755 0.033011504 0.1085845 -0.09981396 -0.016450677 0.10113356
-0.055047546 -0.019746065 0.06960594 0.027623236 -0.03355809 0.0948115 -0.016985008 -0.030571671
-0.025794048 0.14603707 0.013178212 0.10172931 0.12719584 -0.017030692 -0.03438611 -0.056067828
-0.008195473 0.11186984 0.1135212 0.037955116 -0.010372395 0.020166617 0.03473476 -0.015073665
-0.038236026 -0.09155542 -0.0012124146 -0.045921132 0.038077325 -0.11085685 -0.07206791 0.069129005
00000000: a8a4 c33d feb5 a63c 3092 a8bd eb41 2bbd
00000010: 64f1 d1bd c6ec 513d 3f25 c0bd 786a 71bd
00000020: f1fb 993c f53c 10bd 1f81 3ebe 4561 e3bd
00000030: 794d 103b 579c 073e 5a1b 4dbd 5c2c 8abd
00000040: 97bd b33d b466 763d 7c54 84bd a425 10be
00000050: 8ec6 34bd 6cc8 09bd 31cc ab3c c2b3 1d3e
00000060: 9785 163e 0586 bb3d c568 22be d0a8 0cbe
00000070: 1239 c7bd e398 f53c d345 a23d fea4 dfbc
00000080: ae66 f13d 1650 083c b2a6 18bd f477 1cbe
00000090: 1cc1 a8bc 3001 923c 9652 be3d d687 803d
000000a0: 9685 e0bc c45b 863d f87d d23d 0fad e03c
000000b0: d616 91bc 2ed4 f83d c364 ae3b 5d51 79bd
000000c0: 165b 36bd 1d7e cbbd 81ae 1ebe 1147 353d
000000d0: 752d 09be a366 da3d 92a8 933c fded 9cbd
000000e0: 0c71 e5bd 2ed0 fa3c 54d3 bfbd 281a a23d
000000f0: 9db6 e93c 7259 18bd 6008 56bd f732 c53d
00000100: d943 84bc 781b acbd 8d22 adbd d6ab c7bd
00000110: 9335 00be 968f 27bc c468 853c f98b fe3b
00000120: dfac 7fbd 26ac 933d 186f 24be 0560 60bd
00000130: 3aa5 6b3d 289b c7bd e8d4 01bd bb93 19bd
00000140: 957a 343e 9a84 b13d 144c c8bd 44a1 9bbd
00000150: f0a9 493d cf4a 3d3e 9530 e53c f947 edbb
00000160: bc01 113e a9da b0bd 1a15 923d 4649 a73d
00000170: 46b1 8cbd a155 9d3d f6ad 233d 80fd b53c
00000180: 3e3f 7c3d 4ee0 cdbc 38c5 a5bd 299c 0f3d
00000190: d4c8 9a3d 8832 de3d 0228 80bd fb82 d1bd
000001a0: 80f4 2cbd 829d 15bc 9e8c 88bd a1c2 c73d
000001b0: 4be8 51bd 36a7 3c3d 0604 55bd 62c2 983d
000001c0: 3323 a13d b8e1 67bc 4176 cdbd 2867 f93d
000001d0: 1c38 0fbe f7c9 10bc 4074 953c 33d0 173d
000001e0: 8367 fd3c d967 aebd 4bf6 2a3d ba39 293d
000001f0: 494b dfbd 2e03 ccbd 2c2f 973d 5c16 b2bd
00000200: 475b 74bd 9f83 fdbc dbcd 793d 5fe4 a2bd
00000210: 6179 71bd 5f57 0b3e 542e b2bd 86d7 76bd
00000220: ee46 9b3d 6695 153e 8ca7 f53d 5d22 3ebe
00000230: 409a c6ba cc40 563c 4e62 023e c0c8 dfbd
00000240: 76e1 fbbc 55ac e83c f9b4 d93c 5d00 9a3c
00000250: 8147 1e3e 1be5 7d3d 7aea 40be f883 41be
00000260: 684e 383d 1999 11bc 46f3 e33d 561a 3b3e
00000270: 4a85 113e 46b2 bbbd 661e b93d a221 13be
00000280: 64ed 1c3d 7c63 8bbd 261f f1bc 8ed3 0cbd
00000290: 73a3 873d d918 97bd c5b9 623d cb22 e9bc
000002a0: 45a1 e43d 9bce 673d 0dca a8bb ab51 0ebe
000002b0: 5f61 023e 57f5 cbbc c9e0 843d 0bbe a03d
000002c0: 2a4e fabd 944d 563e 4835 9b3d 2e6f 0cbe
000002d0: 69ca 363e 6d0b 91be f27d b5bd bc6d 683c
000002e0: 48b5 243e 1f43 5dbd cb4e ae3d e7eb 36bd
000002f0: c351 5c3e f02c d33d cd6d 4a3e 5915 95bd
00000300: 2bee c93d 99e1 003e 5a52 3fbb 47aa 17bd
00000310: 42d8 abbd 5224 9bbd c5d9 f6bb 7839 55bd
00000320: 44dc c53d dc35 673d 4207 663d 8591 e5bd
00000330: 834f a53d 8816 2abe 4fd3 98bd 2d66 873d
00000340: 16a7 eebd 8a80 193e 7054 a4bd 240f cbbc
00000350: b783 c03d 06b5 a7bc 7eef 07bd 27a4 7dbc
00000360: 945e 9dbc 5d75 4dbd 92b6 7c3d 1237 073d
00000370: 8d61 de3d 436b ccbd 92c3 86bc 1d1f cf3d
00000380: 8979 61bd 80c2 a1bc 8f8d 8e3d 204a e23c
00000390: 3574 09bd 882c c23d 2524 8bbc 7171 fabc
000003a0: 0a4e d3bc be8a 153e 6de9 573c 7557 d03d
000003b0: a03f 023e f383 8bbc 73d8 0cbd 61a7 65bd
000003c0: 4e46 06bc 041c e53d ce7d e83d d376 1b3d
000003d0: faf0 29bc 7634 a53c 0946 0e3d 89f7 76bc
000003e0: 619d 1cbd 6881 bbbd e2e9 9eba cc17 3cbd
000003f0: f8f6 1b3d eb08 e3bd 5798 93bd 8293 8d3d

lstm.bias_ih_l0 f4 [256]
0.10178909 0.09220652 0.14831233 -0.086421125 0.011910585 -0.10478479 -0.028230652 0.06905942
0.08322946 0.055115674 0.14524545 0.09759101 -0.046398383 0.048928216 0.023652893 0.05878808
-0.0897873 0.0722689 -0.017855344 0.12587073 -0.067933425 0.010541051 -0.04694475 -0.09286873
0.14402221 0.13663809 -0.01806574 -0.0058830045 0.031237824 0.0567845 -0.06327091 0.15886508
-0.029473571 -0.10097247 0.14504312 0.024685824 0.095450446 0.13751735 0.039672643 0.05944058
0.17546771 0.061146263 0.014773982 0.072573885 0.078559004 -0.03683267 0.048014686 0.025065271
0.11977616 -0.10004017 -0.040500063 0.07742989 0.13339028 0.11251218 0.028149927 0.056052003
0.047958504 0.024503367 -0.08682508 0.16443253 0.086108476 0.091264926 0.02826792 -0.029104441
-0.041166216 0.12328513 -0.063616455 0.12300248 -0.099507965 0.046228703 0.1661669 0.08059836
-0.050324786 0.033388067 0.046559665 -0.028277688 -0.016163483 0.067832164 0.119847104 0.0018347639
0.07022589 -0.05134664 0.0034702907 -0.049053434 -0.022997305 0.07909155 0.003079434 0.10904661
-0.047273584 -0.039672423 0.10195339 0.12925637 0.11446981 0.14882559 -0.032717265 0.11155523
0.09191973 0.07305969 0.034936357 0.0048278905 0.027059942 -0.02923998 0.018216286 -0.05589705
-0.015221566 0.15764032 0.13829164 0.11531994 0.10199914 -0.008506503 0.012868783 0.124469355
0.007984464 -0.092445545 0.037600026 -0.036676984 0.04872006 0.042819966 0.03179282 0.0041962164
-0.021016397 0.187042 -0.074226364 -0.005731689 0.121326886 -0.026488405 -0.03932231 0.13816082
-0.0417603 -0.11219166 -0.041424364 -0.014467003 0.10445363 -0.03151465 -0.045466386 0.03045108
0.050481584 0.07784406 -0.11943802 -0.11956451 0.09147244 0.09593898 -0.07177136 -0.018735113
-0.06923833 -0.02363623 -0.07970069 0.065118074 0.122029975 -0.034511615 -0.13373674 0.11449355
0.08759202 0.108027674 0.053487316 0.07179086 -0.07865347 0.024964206 0.06590615 0.13566792
-0.067576945 0.06907304 0.022186926 -0.09544371 0.1144603 0.10226225 -0.09484839 0.031952687
0.057665866 0.079342164 0.11425126 -0.108660154 0.025967563 -0.098137856 0.052772556 -0.13203454
-0.10103017 0.07193442 -0.000900015 0.12487872 -0.1092323 -0.08894603 -0.055093266 0.13530207
-0.008669241 -0.13098112 -0.07584054 0.1277996 0.10112587 0.071018696 0.118022285 0.13655302
0.08999906 0.031073885 0.034558777 0.11276695 0.15992254 0.06348906 0.1390606 0.13054721
0.07096518 -0.07084759 0.16068122 0.01653899 0.059389208 -0.035028595 0.03591693 0.0007435792
0.12808426 -0.018380271 0.11939435 0.12240496 -0.040947177 0.15348983 -0.08061288 0.04343757
0.068307795 -0.06486774 0.008361804 0.13812503 0.06522272 -0.039736878 0.03291273 0.000948895
0.1334064 0.1030151 0.12409928 0.0730295 0.11127826 0.085369356 0.07548141 0.10331466
0.058345746 -0.04596115 -0.031957902 -0.021701463 -0.04342519 -0.011647524 0.13765252 0.1664821
-0.019932523 0.10578093 0.04688233 -0.10752131 0.12808289 0.16361618 0.14797701 0.042251676
-0.055984538 0.20971067 -0.04588652 0.25922608 0.032087427 0.051047582 -0.0010184175 0.120046414
00000000: cc76 d03d c6d6 bc3d 30df 173e 8ffd b0bd
00000010: 9d24 433c 6899 d6bd f843 e7bc 066f 8d3d
00000020: 3574 aa3d f9c0 613d 39bb 143e ccdd c73d
00000030: 3b0c 3ebd f468 483d b6c3 c13c c5cb 703d
00000040: 67e2 b7bd b801 943d 5f45 92bc 42e4 003e
00000050: ae20 8bbd 5fb4 2c3c 2349 40bd f631 bebd
00000060: 8f7a 133e dbea 0b3e 9afe 93bc 38c6 c0bb
00000070: 77e6 ff3c dd96 683d 2e94 81bd 87ad 223e
00000080: 8f72 f1bc a8ca cebd 2f86 143e ed39 ca3c
00000090: 867b c33d 59d1 0c3e c87f 223d f777 733d
000000a0: cfad 333e 8174 7a3d 920e 723c 9ea1 943d
000000b0: 8be3 a03d dbdd 16bd 0cab 443d af55 cd3c
000000c0: 344d f53d dce1 ccbd 65e3 25bd 9093 9e3d
000000d0: 7697 083e c96c e63d ad9a e63c c996 653d
000000e0: 2370 443d 49bb c83c 59d1 b1bd 0061 283e
000000f0: a459 b03d 1be9 ba3d 2092 e73c 706c eebc
00000100: e89d 28bd ea7c fc3d 5849 82bd b9e8 fb3d
00000110: d5ca cbbd 4f5a 3d3d a827 2a3e c110 a53d
00000120: 5d21 4ebd edc1 083d 59b5 3e3d 9ca6 e7bc
00000130: 4869 84bc 97eb 8a3d 6672 f53d 767c f03a
00000140: 97d2 8f3d db50 52bd d16d 633b 41ec 48bd
00000150: d864 bcbc c0fa a13d 54d0 493b d453 df3d
00000160: f2a1 41bd 8d7f 22bd f0cc d03d c85b 043e
00000170: 266f ea3d bc65 183e 8a02 06bd 1277 e43d
00000180: 6940 bc3d 52a0 953d 6d19 0f3d 4833 9e3b
00000190: d0ac dd3c af88 efbc 523a 953c 4ef4 64bd
000001a0: e063 79bc 776c 213e 539c 0d3e dc2c ec3d
000001b0: ede4 d03d dc5e 0bbc 97d7 523c cae9 fe3d
000001c0: 45d1 023c 1754 bdbd 7c02 1a3d 9b3a 16bd
000001d0: b08e 473d fd63 2f3d 3039 023d 6a80 893b
000001e0: 942a acbc f087 3f3e fe03 98bd e4d0 bbbb
000001f0: 3b7a f83d 36fe d8bc 6e10 21bd 087a 0d3e
00000200: d90c 2bbd bec4 e5bd 98ac 29bd 0207 6dbc
00000210: c9eb d53d 8115 01bd f63a 3abd 8b74 f93c
00000220: c7c5 4e3d b56c 9f3d ec9b f4bd 3dde f4bd
00000230: e755 bb3d a87b c43d ddfc 92bd 617a 99bc
00000240: d3cc 8dbd c4a0 c1bc 1e3a a3bd a05c 853d
00000250: daea f93d 0d5c 0dbd 49f2 08be 987b ea3d
00000260: 7263 b33d 9d3d dd3d 8415 5b3d 1607 933d
00000270: 1215 a1bd bc81 cc3c cef9 863d 88ec 0a3e
00000280: c865 8abd 2a76 8d3d 5bc1 b53c fe77 c3bd
00000290: 296a ea3d df6e d13d df3f c2bd d2e0 023d
000002a0: 0b33 6c3d 257e a23d 91fc e93d 3789 debd
000002b0: edb9 d43c 80fc c8bd 0928 583d 1034 07be
000002c0: e8e8 cebd 5a52 933d fcee 6bba 6ac0 ff3d
000002d0: 2fb5 dfbd 5629 b6bd 7aa9 61bd a08c 0a3e
000002e0: 6f09 0ebc ea1f 06be 4952 9bbd e6dd 023e
000002f0: 151b cf3d 4072 913d abb5 f13d 8ed4 0b3e
00000300: 6d51 b83d a98e fe3c 818d 0d3d 5cf2 e63d
00000310: bcc2 233e 8d06 823d e765 0e3e 2bae 053e
00000320: 3156 913d 8b18 91bd 9e89 243e c77c 873c
00000330: 1942 733d 257a 0fbd a11d 133d c1ec 423a
00000340: 8528 033e 3992 96bc 0685 f43d 74af fa3d
00000350: 3ab8 27bd 702c 1d3e 5e18 a5bd 98eb 313d
00000360: f5e4 8b3d 61d9 84bd f3ff 083c a670 0d3e
00000370: 7d93 853d 23c3 22bd 80cf 063d 44bf 783a
00000380: b09b 083e 95f9 d23d c327 fe3d 7e90 953d
00000390: dbe5 e33d 21d6 ae3d ff95 9a3d a396 d33d
000003a0: f3fb 6e3d c241 3cbd 4ae6 02bd 44c7 b1bc
000003b0: 9dde 31bd 42d5 3ebc c8f4 0c3e 497a 2a3e
000003c0: 8849 a3bc aca3 d83d b007 403d 2234 dcbd
000003d0: 2928 033e 008b 273e 4987 173e 1810 2d3d
000003e0: 0b50 65bd 65be 563e 81f3 3bbd 48b9 843e
000003f0: 1b6e 033d 4517 513d 6c7c 85ba e5da f53d

lstm.bias_hh_l0 f4 [256]
0.0012631422 -0.017514601 0.13160577 0.017847277 0.037451778 0.084516786 0.037165884 -0.10286581
0.048467986 0.11517066 0.348984 -0.06512343 -0.08316822 0.08271039 0.088123 -0.046634875
0.07773042 -0.05607488 0.13103735 0.0015804541 0.04539905 0.040007725 0.010860204 0.12524335
0.145492 -0.050461967 0.10056185 -0.078890234 0.02900664 0.09134387 -0.014840851 0.026767349
-0.049829807 -0.05979106 0.12869215 0.09077165 0.057543445 0.08109467 -0.067519814 -0.014869599
0.16911975 0.11320601 -0.0057239025 0.02438172 -0.058455553 0.09348792 0.109393656 0.06992122
0.015484318 -0.035043165 0.15799475 0.065629795 0.12867415 0.06264607 0.060104296 0.10864175
0.107808754 0.05529077 -0.03035002 0.101893604 -0.08745151 0.006875718 -0.09077222 0.010119971
-0.010612555 -0.062629715 -0.021644965 0.0045202095 -0.025526196 0.06611451 0.097789235 0.07797687
0.026654596 -0.0439529 0.14113128 -0.024553288 -0.040310953 0.05084683 0.13127322 -0.028474955
0.0275917 -0.035268072 -0.012027456 -0.0701098 0.13885257 0.107653044 0.06782419 0.07632503
-0.05465777 0.0031046045 -0.1142426 -0.015339627 0.16773982 0.031246003 0.043772858 -0.0016823497
-0.041267384 0.002702736 -0.008339819 0.056722287 -0.10405229 0.05590054 0.13193503 -0.022309765
0.008133368 -0.011404625 -0.043754548 -0.047428332 0.10954321 0.0056153396 0.016380684 0.14055477
0.10863973 -0.0775775 -0.03447295 -0.009877819 -0.098662585 0.165472 -0.013395342 -0.02592712
0.035417594 0.1864214 -0.046473194 0.02517374 0.12237992 0.14104517 -0.02564489 0.13790052
-0.022835305 0.111181386 0.044070482 0.13903387 -0.04601897 -0.14109595 -0.022155669 0.055502318
0.009897203 0.091058426 0.12575516 -0.05080942 0.105616204 0.027105734 -0.016976733 -0.046653192
-0.024251828 0.027160592 0.10343924 0.07655461 0.005782057 -0.04356712 -0.122906275 -0.05997448
0.057749007 0.06957838 -0.059619054 -0.060093462 0.04606887 -0.022166468 0.0995541 -0.011848407
0.07465116 -0.09364354 -0.019377979 -0.101304054 0.036870826 -0.051870823 0.11735962 -0.13910134
0.08321947 -0.028233457 0.041063327 0.08024932 0.046604797 0.07881197 -0.0735266 -0.07625151
-0.070885755 0.043607928 -0.0635022 0.115111426 0.07316861 0.08844924 0.07990857 0.10233887
-0.020178571 0.020644106 0.010125012 -0.08595434 -0.10835369 0.017187847 0.022851374 0.10079838
0.12342068 0.03357048 0.10944607 -0.05487613 0.1512425 0.03584168 -0.029120317 -0.0055288775
0.12341661 0.074981704 0.18101862 0.09988626 0.028064942 -0.04382237 0.017201858 -0.07670801
-0.068254896 -0.03392845 0.0036056084 0.17093411 0.12190728 0.16669615 -0.03428473 -0.027935732
0.0623276 0.07193616 -0.07425447 -0.063880645 -0.061544828 -0.030595072 -0.058895834 0.14911778
-0.0861133 -0.0047188764 -0.034462992 0.07015853 -0.07999033 -0.07567542 -0.0352178 0.071784906
0.08050529 0.016648006 0.069945 -0.048956025 -0.007983025 0.11730422 0.049970325 0.10593746
0.14810379 -0.10587692 -0.021702722 -0.09571599 0.065124 0.11508773 0.07871138 0.10477599
-0.06665111 0.035303995 -0.044743136 0.12195242 -0.04569185 0.10547829 0.024084719 0.04036066
00000000: 0590 a53a c87a 8fbc aac3 063e 7434 923c
00000010: 0967 193d 2317 ad3d 413b 183d 4fab d2bd
00000020: 5e86 463d 98de eb3d 08ae b23e 6f5f 85bd
00000030: 1a54 aabd 1164 a93d d579 b43d 3604 3fbd
00000040: 2031 9f3d c6ae 65bd a82e 063e 3d27 cf3a
00000050: 5bf4 393d 24df 233d ffee 313c cb3f 003e
00000060: dbfb 143e 35b1 4ebd 5ff3 cd3d 3491 a1bd
00000070: 559f ed3c 7f12 bb3d 0a27 73bc 3347 db3c
00000080: 571a 4cbd 78e7 74bd e0c7 033e 7de6 b93d
00000090: adb2 6b3d f614 a63d d447 8abd 9e9f 73bc
000000a0: ba2d 2d3e 8dd8 e73d 938f bbbb 2cbc c73c
000000b0: 176f 6fbd 9876 bf3d c809 e03d db32 8f3d
000000c0: f0b1 7d3c 6c89 0fbd 60c9 213e ea68 863d
000000d0: 28c3 033e 954c 803d ec2f 763d 917f de3d
000000e0: d6ca dc3d 9378 623d 9ba0 f8bc 98ad d03d
000000f0: c719 b3bd b44d e13b c9e6 b9bd 3cce 253c
00000100: 48e0 2dbc 0244 80bd c850 b1bc 441e 943b
00000110: 501c d1bc 0b67 873d b945 c83d 56b2 9f3d
00000120: bd5a da3c f507 34bd b884 103e fa23 c9bc
00000130: 191d 25bd c444 503d 7d6c 063e 4f44 e9bc
00000140: fd07 e23c 4175 10bd cf0e 45bc ba95 8fbd
00000150: 5e2f 0e3e 3379 dc3d 69e7 8a3d 4c50 9c3d
00000160: d3e0 5fbd 9f76 4b3b 06f8 e9bd 0f53 7bbc
00000170: fdc3 2b3e 9ef7 ff3c 2b4b 333d 4a82 dcba
00000180: fd07 29bd 6320 313b bca3 08bc a155 683d
00000190: 5e19 d5bd f7f7 643d fa19 073e f8c2 b6bc
000001a0: d141 053c 77da 3abc f837 33bd 3644 42bd
000001b0: 3158 e03d e200 b83b c930 863c 97ed 0f3e
000001c0: 827e de3d f4e0 9ebd 8233 0dbd 93d6 21bc
000001d0: 9c0f cabd 7e71 293e 2378 5bbc 1d65 d4bc
000001e0: 0a12 113d 40e5 3e3e ad5a 3ebd 2939 ce3c
000001f0: 53a2 fa3d 256e 103e 3b15 d2bc cb35 0d3e
00000200: 1b11 bbbc 11b3 e33d 4083 343d e55e 0e3e
00000210: 637e 3cbd 757b 10be ce7f b5bc 6656 633d
00000220: e127 223c d77c ba3d f6c5 003e 8a1d 50bd
00000230: 4f4d d83d d80c de3c ca12 8bbc 6b17 3fbd
00000240: c5ab c6bc e47f de3c f4d7 d33d aac8 9c3d
00000250: 6977 bd3b 7073 32bd 49b6 fbbd cda7 75bd
00000260: 398a 6c3d 1c7f 8e3d 1c33 74bd 9024 76bd
00000270: b6b2 3c3d 7496 b5bc 05e3 cb3d d21f 42bc
00000280: b5e2 983d 2fc8 bfbd 91be 9ebc 8078 cfbd
00000290: dd05 173d 8076 54bd 3e5a f03d 9570 0ebe
000002a0: f86e aa3d da49 e7bc 0532 283d c159 a43d
000002b0: ace4 3e3d 2c68 a13d 1d95 96bd c029 9cbd
000002c0: 8d2c 91bd 3a9e 323d 710d 82bd 8abf eb3d
000002d0: 6dd9 953d e024 b53d 1ba7 a33d 0b97 d13d
000002e0: 884d a5bc d41d a93c 61e3 253c d408 b0bd
000002f0: 8ae8 ddbd 87cd 8c3c ce32 bb3c 626f ce3d
00000300: fbc3 fc3d 3381 093d 4325 e03d cbc5 60bd
00000310: 50df 1a3e bace 123d bb8d eebc 962b b5bb
00000320: d9c1 fc3d 0290 993d f25c 393e 2b91 cc3d
00000330: 73e8 e53c 167f 33bd e9ea 8c3c 1719 9dbd
00000340: 39c9 8bbd 8ff8 0abd 124c 6c3b 5a09 2f3e
00000350: 86aa f93d 65b2 2a3e 256e 0cbd 7ad9 e4bc
00000360: 3a4b 7f3d 4453 933d ba12 98bd dbd3 82bd
00000370: 6e16 7cbd 84a2 fabc c23c 71bd 55b2 183e
00000380: 2b5c b0bd cea0 9abb 1129 0dbd 46af 8f3d
00000390: f8d1 a3bd b7fb 9abd 8a40 10bd f703 933d
000003a0: f5df a43d 6661 883c 533f 8f3d 1d86 48bd
000003b0: 3ccb 02bc 323d f03d afad 4c3d bdf5 d83d
000003c0: 85a8 173e 00d6 d8bd e8c9 b1bc bf06 c4bd
000003d0: bb5f 853d 1eb3 eb3d 6f33 a13d cb94 d63d
000003e0: 6180 88bd ec9a 103d 9444 37bd 31c2 f93d
000003f0: 6127 3bbd 0005 d83d 514d c53c 3851 253d

lstm.weight_ih_l1 f4 [256, 64]
-0.07799327 -0.090917155 -0.009384218 -0.10886456 0.06042393 -0.014688682 -0.123729944 4.1289022e-05
0.089018 0.0047685425 -0.03672168 -0.052481152 0.04311233 0.02734692 0.034760706 -0.051971097
0.044777717 -0.0022751961 0.02924933 -0.20062904 -0.08657096 -0.018317493 -0.14058904 -0.020755222
0.06645824 0.00963434 0.1769958 0.070579536 -0.0627716 -0.05412107 0.1263315 0.025389614
0.007895724 -0.062363613 -0.035813175 0.10788855 0.1570238 0.10578145 0.04378042 0.045416337
0.0014939954 -0.049171794 -0.111059 0.017567584 0.108080514 -0.009125208 0.035686713 -0.18703398
0.01921053 -0.06331245 -0.04463673 -0.012544443 -0.020843025 0.062671445 0.056912415 -0.20822285
0.16377762 -0.047397185 -0.10018726 -0.2027527 -0.09877741 -0.15055008 0.089396775 -0.07974633
0.052283898 0.023749838 -0.10323768 -0.1585675 -0.012581056 -0.004384598 0.09212355 -0.03951434
-0.1708142 0.006807437 -0.012175292 -0.022615757 0.027817896 -0.14219707 -0.05727725 -0.08356694
0.036244072 -0.0020062118 0.06275044 0.1223253 -0.050035976 -0.0018411423 0.07469378 0.0928852
-0.10935516 -0.05017129 0.039273646 0.0019573162 0.067774035 -0.01991213 0.024397912 0.113034725
0.022788342 -0.13457666 -0.03244168 -0.107720405 -0.064504184 -0.028161021 -0.029775187 0.091767184
0.11988838 0.028971806 -0.08421346 0.10581206 0.06365933 0.08544355 -0.14315102 0.08050961
0.060244318 -0.026938627 0.0195566 0.00074270443 -0.17920849 -0.07734433 -0.08574028 -0.14566037
-0.039282266 -0.121632315 0.13644117 0.07786629 0.11186435 0.055800073 -0.028140739 0.009307999
0.01202627 0.093366355 0.11457489 -0.013238852 0.030727375 -0.0169442 0.038398623 0.008635045
-0.10848858 -0.09483296 -0.19694872 -0.036513127 0.033512346 -0.12757376 -0.011750015 0.06238038
0.16877511 -0.07223107 0.037413407 0.03742002 -0.06221217 -0.037657272 -0.1452649 0.033073265
0.102189116 -0.022999048 -0.014183936 0.104822904 -0.01579757 0.04883854 0.017232794 0.04958574
0.059302196 -0.0305154 -0.027528577 -0.13475998 -0.064217076 0.13599731 -0.0863148 -0.07176163
-0.1054532 -0.01371359 0.056243107 0.13663657 0.0067876847 0.017653527 -0.0459348 -0.09075541
0.050439693 0.12893325 0.0018336867 -0.068095386 -0.032202464 0.004918589 -0.10372928 -0.02360237
0.0986923 0.018760491 -0.082846306 -0.006371963 0.0030374797 0.027429705 0.04880464 -0.06551153
-0.19512716 0.02649934 0.09139907 0.040844496 0.13741948 -0.076242 -0.076344885 -0.13871393
0.046370536 -0.0041608997 0.19584692 -0.11933495 -0.006119016 -0.048732236 0.0006006565 -0.11143559
-0.03747103 -0.026786853 -0.07448779 0.07820086 0.1322534 -0.1081974 -0.031811252 -0.056579735
0.079948455 -0.042449687 0.09108268 -0.0065244427 0.037741218 0.07931339 0.016945137 0.08188005
0.074218504 0.0506217 -0.08677081 -0.0038768533 0.149316 -0.1285962 -0.15843542 -0.05718722
0.08324341 -0.13111208 0.0036554034 -0.020230195 0.07653114 -0.054352418 -0.16568866 -0.05937692
-0.093453355 0.12381352 0.13531318 0.035484247 0.0987986 0.010791622 -0.115299396 0.011812047
-0.024099402 -0.017597532 -0.010165487 -0.032910503 0.1251322 0.04078848 -0.03262077 -0.0737555
00000000: efba 9fbd c632 babd 43c0 19bc 62f4 debd
00000010: 157f 773d cca8 70bc 2066 fdbd c02d 2d38
00000020: 124f b63d 6f41 9c3b 7969 16bd 7af6 56bd
00000030: 8e96 303d a606 e03c 3e61 0e3d a5df 54bd
00000040: d768 373d 751b 15bb 4a9c ef3c b371 4dbe
00000050: 1e4c b1bd 910e 96bc 93f6 0fbe db06 aabc
00000060: 421b 883d 5ad9 1d3c 633e 353e 018c 903d
00000070: 668e 80bd 0eae 5dbd 0b5d 013e e1fd cf3c
00000080: 115d 013c fd70 7fbd d6b0 12bd acf4 dc3d
00000090: d9ca 203e f2a3 d83d 1953 333d 7b06 3a3d
000000a0: 2bd2 c33a 5d68 49bd e772 e3bd e5e9 8f3c
000000b0: 5159 dd3d e581 15bc 3b2c 123d d685 3fbe
000000c0: 675f 9d3c f5a9 81bd 01d5 36bd 3587 4dbc
000000d0: febe aabc e359 803d fe1c 693d 5f38 55be
000000e0: 52b5 273e 8d23 42bd fa2e cdbd 679e 4fbe
000000f0: d04b cabd cd29 1abe a815 b73d 0b52 a3bd
00000100: a427 563d 058f c23c 476e d3bd 855f 22be
00000110: c620 4ebc adac 8fbb 46ab bc3d cad9 21bd
00000120: ebe9 2ebe ec10 df3b e07a 47bc ae44 b9bc
00000130: 5be2 e33c 1c9c 11be 8d9b 6abd 2525 abbd
00000140: aa74 143d a67a 03bb 4d83 803d b085 fa3d
00000150: 86f2 4cbd 7c52 f1ba 0df9 983d 993a be3d
00000160: 99f5 dfbd 6980 4dbd 67dd 203d 5146 003b
00000170: 1dcd 8a3d c31e a3bc 21de c73c c07e e73d
00000180: 9eae ba3c 77ce 09be 91e1 04bd 849c dcbd
00000190: c51a 84bd f1b1 e6bc 18eb f3bc 6ff0 bb3d
000001a0: 0a88 f53d 4856 ed3c 1b78 acbd feb3 d83d
000001b0: d35f 823d 07fd ae3d 2e96 12be 39e2 a43d
000001c0: bfc2 763d 65ae dcbc 2a35 a03c 0db2 423a
000001d0: 6e82 37be b466 9ebd 9a98 afbd fe27 15be
000001e0: 71e6 20bd 5d1a f9bd 3cb7 0b3e 5d78 9f3d
000001f0: 2319 e53d 9e8e 643d 6887 e6bc 9480 183c
00000200: d509 453c dc36 bf3d 3da6 ea3d c5e7 58bc
00000210: fab7 fb3c 90ce 8abc e047 1d3d 017a 0d3c
00000220: 432f debd c837 c2bd edac 49be ca8e 15bd
00000230: 3e44 093d b2a2 02be 2383 40bc 9282 7f3d
00000240: 62d3 2c3e e2ed 93bd cd3e 193d bc45 193d
00000250: 30d2 7ebd 833e 1abd 52c0 14be d577 073d
00000260: 8748 d13d 8068 bcbc bd63 68bc 64ad d63d
00000270: e869 81bc ec0a 483d ca2b 8d3c 6b1a 4b3d
00000280: dce6 723d 6ffb f9bc 9c83 e1bc 85fe 09be
00000290: 3e84 83bd e142 0b3e d0c5 b0bd c3f7 92bd
000002a0: d9f7 d7bd f7ae 60bc 2c5f 663d 75ea 0b3e
000002b0: 3a6b de3b 219e 903c 2126 3cbd f9dd b9bd
000002c0: da99 4e3d 1407 043e 5158 f03a 9875 8bbd
000002d0: bbe6 03bd 1d2c a13b 0470 d4bd c259 c1bc
000002e0: 301f ca3d 9aaf 993c 53ab a9bd e6cb d0bb
000002f0: 7410 473b 43b4 e03c 60e7 473d e92a 86bd
00000300: 6acf 47be 2515 d93c 702f bb3d 8f4c 273d
00000310: b1b7 0c3e c424 9cbd b55a 9cbd 060b 0ebe
00000320: 08ef 3d3d 2858 88bb 188c 483e e265 f4bd
00000330: 0782 c8bb 749b 47bd 6075 1d3a 5838 e4bd
00000340: 397b 19bd 1a70 dbbc 0e8d 98bd c627 a03d
00000350: 6f6d 073e 9996 ddbd 844c 02bd 27c0 67bd
00000360: 04bc a33d b9df 2dbd 8e89 ba3d feca d5bb
00000370: 8996 1a3d 0f6f a23d 87d0 8a3c bab0 a73d
00000380: dfff 973d b358 4f3d e5b4 b1bd ce12 7ebb
00000390: 4be6 183e b9ae 03be e53c 22be 253d 6abd
000003a0: 857b aa3d 3f42 06be 7e8f 6f3b cbb9 a5bc
000003b0: 5cbc 9c3d a4a0 5ebd 4aaa 29be 3735 73bd
000003c0: 7964 bfbd f191 fd3d 8a8f 0a3e ee57 113d
000003d0: ec56 ca3d 58cf 303c 1722 ecbd 5187 413c
000003e0: 1c6c c5bc b328 90bc 258d 26bc 2acd 06bd
000003f0: a822 003e d211 273d 5b9d 05bd 200d 97bd

lstm.weight_hh_l1 f4 [256, 64]
-0.110017456 0.0047255247 0.04009567 -0.033747856 0.16660805 -0.07992875 0.03979197 -0.14755268
-0.16011067 0.007871848 0.1471294 -0.048502184 -0.019959008 -0.076084115 0.04589369 -0.047627736
0.08367836 0.0015221266 0.08263115 0.081289895 0.06435746 0.04803417 -0.05756884 0.06407279
-0.081183665 -0.0750056 -0.034313343 0.14538354 0.15928929 -0.06917185 -0.1360678 -0.09105967
0.18287994 -0.06802774 0.10049094 0.03614097 -0.015391512 -0.09767155 -0.022457466 0.10872203
-0.11791566 -0.042353094 -0.060865402 0.10368529 -0.04983831 -0.02770407 -0.0074615623 0.033033423
0.043822482 -0.018284563 0.048566427 -0.111645356 0.013649457 -0.05089871 -0.0035896958 0.16967155
-0.06973701 -0.10551496 0.122451566 0.000844804 -0.1274309 0.025148299 -0.096717775 0.06592964
0.092525534 0.059025686 -0.04011882 -0.037690926 -0.120892204 -0.007250025 0.037144613 -0.112604216
-0.005406104 -0.04857372 -0.030632516 -0.10173653 -0.07662825 0.013265279 -0.06322779 0.020820715
-0.042088684 0.07606673 0.14180847 0.059508253 0.110650055 0.10145662 -0.002585411 -0.13668153
0.10439765 -0.053122062 0.043098483 0.088611 -0.0431328 -0.05196519 -0.055083767 0.06884811
-0.029586513 -0.026999874 0.059389777 -0.011418695 -0.07372757 0.03609178 -0.09225476 0.18631604
0.06634234 0.055189747 -0.05524729 -0.07041153 -0.011972968 -0.18673684 0.048743848 0.06282092
0.05724386 -0.109273344 0.10446005 0.12356946 -0.10056617 0.004370691 -0.04621689 0.060396362
-0.02665113 -0.13867258 0.0027506116 -0.026475541 -0.15658565 0.07495537 -0.08581912 0.0499648
0.018066868 0.13503143 0.07438717 -0.051138874 -0.0754868 -0.070940316 0.0025603394 -0.11835706
0.03695245 0.030266816 -0.16201739 0.15185295 0.14929397 -0.18797678 -0.20400658 -0.12697718
-0.10727982 -0.007560735 0.25436118 0.0025523216 0.23415178 -0.057809934 -0.11349925 -0.0008376178
0.035964843 -0.23984636 0.10599916 0.076561116 0.012208275 0.011777126 -0.010526463 0.08538048
0.028388755 -0.039960273 -0.14121091 0.06089564 -0.30738384 -0.1412945 -0.03482737 -0.08274432
-0.1477266 0.045462742 -0.07851887 0.12073961 -0.031886145 -0.09565169 -0.014564316 0.03129686
-0.10035294 -0.09519451 0.007850028 0.07215076 0.053418256 -0.18677656 -0.041144457 -0.057814125
0.11683701 -0.07301535 -0.0008976272 -0.05960141 0.08784049 0.028766768 -0.09289234 -0.07478877
0.14804314 0.034402993 -0.09752952 0.030709988 0.12190389 0.021773707 -0.103510514 -0.03973022
-0.16024496 -0.0062446147 -0.06913607 -0.020215131 0.022369605 -0.041726 -0.14021368 -0.08892138
-0.074959315 -0.042960662 0.035556834 -0.09542681 -0.010676488 0.052464727 0.092825785 0.016692843
-0.09531831 0.103704765 -0.079022795 -0.080223754 0.05462024 0.059852127 -0.023571556 0.016619312
-0.06332721 0.042244624 -0.05399167 0.044657204 -0.109782636 -0.12242398 0.07263811 0.03351341
0.0023312573 -0.07351322 0.05597832 -0.0022614433 -0.042789016 0.102248564 -0.0057745203 0.098954305
-0.03372159 0.10569871 0.004927266 -0.08236395 0.006696098 -0.07130709 0.11469439 0.057070535
-0.07082718 0.037192993 -0.033857435 -0.09550349 0.040940184 0.041633286 -0.053131007 0.04259025
00000000: d550 e1bd 93d8 9a3b 5b3b 243d 313b 0abd
00000010: 4d9b 2a3e afb1 a3bd e8fc 223d 0d18 17be
00000020: 0df4 23be ecf8 003c 17a9 163e 3aaa 46bd
00000030: 1381 a3bc fdd1 9bbd 06fb 3b3d 4d15 43bd
00000040: 8f5f ab3d 1882 c73a 853a a93d 517b a63d
00000050: d8cd 833d 7abf 443d 4ecd 6bbd 9838 833d
00000060: 9f43 a6bd 899c 99bd 268c 0cbd 6cdf 143e
00000070: bb1c 233e f9a9 8dbd 5b55 0bbe 7e7d babd
00000080: e144 3b3e 2152 8bbd 32ce cd3d 8e08 143d
00000090: ae2c 7cbc 0608 c8bd b8f8 b7bc a8a9 de3d
000000a0: c47d f1bd 707a 2dbd 004e 79bd f458 d43d
000000b0: 4123 4cbd a5f3 e2bc 1f80 f4bb 0e4e 073d
000000c0: 347f 333d 82c9 95bc 97ed 463d 52a6 e4bd
000000d0: f9a1 5f3c 2a7b 50bd 1a41 6bbb 61be 2d3e
000000e0: 47d2 8ebd 3a18 d8bd e3c7 fa3d d675 5d3a
000000f0: 3f7d 02be ce03 ce3c f813 c6bd 1e06 873d
00000100: 077e bd3d ebc4 713d a253 24bd cd61 1abd
00000110: 5596 f7bd 9e91 edbb f324 183d 0a9d e6bd
00000120: b025 b1bb 3df5 46bd 0bf1 fabc 3e5b d0bd
00000130: 46ef 9cbd 9d56 593c 927d 81bd 3490 aa3c
00000140: 2f65 2cbd e0c8 9b3d 3d36 113e edbe 733d
00000150: 7f9c e23d 7dc8 cf3d 0070 29bb 3ef6 0bbe
00000160: 6fce d53d 8596 59bd 0988 303d af79 b53d
00000170: 05ac 30bd 73d9 54bd 849f 61bd 3d00 8d3d
00000180: 6a5f f2bc d72e ddbc b242 733d 7a15 3bbc
00000190: 7bfe 96bd f9d4 133d 10f0 bcbd a2c9 3e3e
000001a0: 7ede 873d a50e 623d fb4a 62bd ec33 90bd
000001b0: 442a 44bc f137 3fbe a1a7 473d 41a8 803d
000001c0: 8a78 6a3d b4ca dfbd 27ef d53d fc11 fd3d
000001d0: a3f5 cdbd 0338 8f3b ec4d 3dbd 2d62 773d
000001e0: 7853 dabc 2f00 0ebe 9b43 343b 3ce3 d8bc
000001f0: fd57 20be 3382 993d efc1 afbd e4a7 4c3d
00000200: f800 943c ae45 0a3e 4d58 983d ff76 51bd
00000210: d398 9abd 2849 91bd 5ecb 273b 3065 f2bd
00000220: 745b 173d 1df2 f73c e3e7 25be 577f 1b3e
00000230: 85e0 183e fc7c 40be 1ae7 50be 4e06 02be
00000240: 86b5 dbbd 0bc0 f7bb a13b 823e da44 273b
00000250: 7cc5 6f3e 1cca 6cbd 4b72 e8bd 9493 5bba
00000260: df4f 133d 499a 75be 1616 d93d 13cc 9c3d
00000270: 3705 483c d9f4 403c 3077 2cbc f6db ae3d
00000280: 898f e83c 62ad 23bd 9899 10be b56d 793d
00000290: 6a61 9dbe 81af 10be 25a7 0ebd db75 a9bd
000002a0: a445 17be 2437 3a3d 80ce a0bd 5446 f73d
000002b0: 0c9b 02bd 09e5 c3bd 2b9f 6ebc 2331 003d
000002c0: d885 cdbd 57f5 c2bd 679d 003c c7c3 933d
000002d0: 1acd 5a3d 5b42 3fbe 1787 28bd 81ce 6cbd
000002e0: 3e48 ef3d 1289 95bd be4e 6bba 9c20 74bd
000002f0: b7e5 b33d 49a8 eb3c 573e bebd db2a 99bd
00000300: 9f98 173e 27ea 0c3d 8fbd c7bd 8393 fb3c
00000310: bfa8 f93d c65e b23c 52fd d3bd 28bc 22bd
00000320: 4117 24be a09f ccbb 3697 8dbd 349a a5bc
00000330: 7640 b73c e2e8 2abd 2d94 0fbe 6a1c b6bd
00000340: 4584 99bd 85f7 2fbd 0ba4 113d 226f c3bd
00000350: 70ec 2ebc 41e5 563d 721b be3d 6ebf 883c
00000360: 3f36 c3bd 2a63 d43d b4d6 a1bd 5a4c a4bd
00000370: 79b9 5f3d 8127 753d 2319 c1bc 3925 883c
00000380: b2b1 81bd b308 2d3d 5f26 5dbd 79ea 363d
00000390: b8d5 e0bd 6cb9 fabd 4ac3 943d 5b45 093d
000003a0: 02c8 183b 198e 96bd 8649 653d b934 14bb
000003b0: 8943 2fbd b267 d13d 3038 bdbb 8ea8 ca3d
000003c0: a61f 0abd 9178 d83d e774 a13b 6eae a8bd
000003d0: f16a db3b 7409 92bd e4e4 ea3d cbc2 693d
000003e0: d70d 91bd ae57 183d 18ae 0abd 5597 c3bd
000003f0: e5b0 273d aa87 2a3d e69f 59bd 1d73 2e3d

lstm.bias_ih_l1 f4 [256]
-0.02524678 0.0633006 0.071153305 -0.009442408 0.030356904 0.048264652 -0.07841938 0.09807369
-0.06596022 0.016991552 0.005946525 0.021740561 -0.083832145 -0.06677268 0.030277938 -0.03476692
-0.0828268 0.10299645 -0.08766717 -0.024210883 0.14389928 0.10016148 -0.047631714 0.016752202
0.056434967 0.09372272 0.10256674 0.046670906 -0.06140048 0.15126354 -0.006944683 0.1448085
0.112136394 -0.08178943 0.14513072 -0.07834849 -0.09869183 0.064029105 -0.10114711 -0.039294783
-0.028437126 0.05727895 -0.045254245 -0.12431681 -0.021143513 -0.04167502 0.055438794 -0.012002885
-0.0742295 0.123490475 -0.09659776 -0.115591034 -0.001992934 -0.050501157 0.12697013 -0.0012532258
-0.114156984 0.018253053 -0.031639066 0.020588795 0.018054806 -0.08225531 0.046983145 -0.09516236
-0.003290987 0.041568216 0.07049046 0.10930079 0.09281664 -0.006047856 -0.0357823 0.14218211
0.0620956 -0.095905766 0.06834415 0.12897262 -0.0011984747 -0.10985195 -0.092472464 0.10725494
0.11039864 -0.097926185 0.08958756 0.014657329 -0.03142795 0.11290611 -0.082145706 -0.061896455
0.02655219 -0.009306234 -0.08819944 0.101366825 -0.093389906 0.10503189 -0.020686354 -0.049878653
0.08751447 0.10967407 -0.14063466 -0.021267725 0.15895055 -0.023409477 -0.10369556 -0.04316767
-0.1181874 0.092184 -0.020412063 -0.017050892 0.03528113 0.11785856 0.00014070944 0.072071955
-0.051845018 0.13516994 -0.05388541 -0.015632123 0.051219106 0.09613582 -0.030642422 0.0076787905
0.019115511 0.09241347 0.09926145 0.057378452 -0.12616146 -0.06507776 -0.00668066 -0.105810285
0.0486892 -0.08727768 0.07827082 0.024221988 0.008004348 0.020054864 0.015938496 0.07937263
-0.09642709 0.09898623 0.11111367 -0.07542663 0.053482056 -0.085166484 0.06828582 -0.0047266134
0.03980544 0.094460696 0.035124946 -0.038212273 -0.075911716 0.10969602 -0.052539468 0.026186742
0.080592126 -0.07894311 -0.09573669 -0.029163048 -0.0015026904 0.07798019 -0.06344504 0.095765345
0.01985668 0.043872852 -0.03308037 -0.050546627 0.0153057445 -0.054804105 0.08515996 0.008380399
-0.061696585 0.109872095 0.032168247 0.10205673 -0.06744429 0.082811795 0.12853958 -0.053510383
0.019447614 0.113967694 -0.08642293 -0.07820148 0.07185247 0.021205317 -0.054330934 -0.051346038
0.08631507 0.036056228 0.05694944 -0.06786132 0.08728149 -0.084839635 0.10190775 -0.055866975
0.11135712 -0.029099483 -0.03680986 -0.098132275 -0.024619006 0.056327593 0.05307176 -0.023764558
-0.0015028919 0.0042747343 0.093879774 0.12427439 0.06380863 -0.10609902 -0.0018446555 0.08518337
0.11017313 -0.01038904 0.08091003 -0.029783001 0.099277735 -0.0673671 0.12315811 0.11233195
-0.002638712 0.042251103 0.063229226 0.024290117 -0.061574068 -0.05703662 -0.08262253 0.022131342
-0.06061133 -0.0979538 -0.09076863 -0.09057393 0.011982818 0.033899833 0.118949406 -0.025023807
0.036263663 0.102183476 0.12648693 -0.044664398 0.0503368 -0.07025406 -0.016251639 0.009206697
0.10601003 0.05823499 -0.05739426 0.0503483 -0.08336907 -0.09930104 0.055162746 0.09283892
0.078107126 0.14430033 -0.058055975 0.015294679 -0.03344316 -0.056317773 -0.12283526 0.12962236
00000000: 56d2 cebc bfa3 813d d3b8 913d 54b4 1abc
00000010: 0baf f83c 28b1 453d 579a a0bd dcda c83d
00000020: 2716 87bd de31 8b3c 11db c23b 4319 b23c
00000030: 30b0 abbd 1dc0 88bd 7009 f83c c267 0ebd
00000040: 19a1 a9bd ceef d23d d88a b3bd e755 c6bc
00000050: 555a 133e 7621 cd3d 7919 43bd ea3b 893c
00000060: 5a28 673d b3f1 bf3d 830e d23d fe29 3f3d
00000070: 127f 7bbd d4e4 1a3e 3990 e3bb ae48 143e
00000080: c4a7 e53d 3781 a7bd 269d 143e 2c75 a0bd
00000090: f11e cabd b121 833d 3726 cfbd 91f3 20bd
000000a0: faf4 e8bc 559d 6a3d 845c 39bd d099 febd
000000b0: 2935 adbc 6db3 2abd ca13 633d c0a7 44bc
000000c0: a305 98bd 93e8 fc3d 0cd5 c5bd feba ecbd
000000d0: e29b 02bb 4dda 4ebd 7504 023e 4843 a4ba
000000e0: 23cb e9bd 6d87 953c f797 01bd d5a9 a83c
000000f0: ace7 933c 7975 a8bd 6671 403d 7ce4 c2bd
00000100: 9aad 57bb 6f43 2a3d 4d5d 903d 18d9 df3d
00000110: a716 be3d 182d c6bb 7690 12bd 3098 113e
00000120: f557 7e3d 3e6a c4bd 05f8 8b3d 6611 043e
00000130: 2316 9dba 0ffa e0bd 3462 bdbd 7aa8 db3d
00000140: af18 e23d 868d c8bd af79 b73d 4b25 703c
00000150: 98ba 00bd 523b e73d 023c a8bd 2387 7dbd
00000160: fa83 d93c 2d79 18bc e8a1 b4bd 6999 cf3d
00000170: 3543 bfbd f61a d73d 6e76 a9bc 8f4d 4cbd
00000180: c93a b33d cc9c e03d 8802 10be a739 aebc
00000190: efc3 223e 3bc5 bfbc 565e d4bd 95d0 30bd
000001a0: 3c0c f2bd f7ca bc3d 3337 a7bc 50ae 8bbc
000001b0: f282 103d d45f f13d 678b 1339 769a 933d
000001c0: 715b 54bd fd69 0a3e f3b6 5cbd f00e 80bc
000001d0: 20cb 513d dbe2 c43d d105 fbbc 5d9e fb3b
000001e0: 2298 9c3c 4643 bd3d 9649 cb3d ab05 6b3d
000001f0: 7830 01be 7d47 85bd 70e9 dabb 10b3 d8bd
00000200: 546e 473d a4be b2bd 744c a03d 316d c63c
00000210: ab24 033c 194a a43c 7391 823c 1e8e a23d
00000220: 917b c5bd 4bb9 ca3d 908f e33d 4779 9abd
00000230: 0010 5b3d c46b aebd 70d9 8b3d b5e1 9abb
00000240: 070b 233d 9c74 c13d 2ddf 0f3d 7984 1cbd
00000250: 9a77 9bbd 4fa8 e03d a033 57bd 9485 d63c
00000260: 7c0d a53d edac a1bd 9911 c4bd 58e7 eebc
00000270: ecf5 c4ba 14b4 9f3d 79ef 81bd 9f20 c43d
00000280: 7aaa a23c 05b4 333d 487f 07bd fb09 4fbd
00000290: f2c4 7a3c 457a 60bd 5868 ae3d f14d 093c
000002a0: 8fb5 7cbd 9f04 e13d dac2 033d 1e03 d13d
000002b0: 3b20 8abd 3b99 a93d e19f 033e b42d 5bbd
000002c0: 9a50 9f3c e567 e93d 81fe b0bd 1928 a0bd
000002d0: 6327 933d c6b6 ad3c 1d8a 5ebd 3950 52bd
000002e0: f5c5 b03d b2af 133d d143 693d e0fa 8abd
000002f0: a3c0 b23d 67c0 adbd 03b5 d03d c5d4 64bd
00000300: 340f e43d 0a62 eebc f0c5 16bd 93f9 c8bd
00000310: ccad c9bc c3b7 663d c661 593d e4ad c2bc
00000320: affc c4ba 1213 8c3b 0a44 c03d 9283 fe3d
00000330: 19ae 823d 714a d9bd 5ec8 f1ba 9e74 ae3d
00000340: 73a2 e13d cb36 2abc 28b4 a53d 7bfb f3bc
00000350: 2052 cb3d c3f7 89bd 523a fc3d 4b0e e63d
00000360: 3eee 2cbb 7e0f 2d3d 537e 813d 11fc c63c
00000370: 1735 7cbd 3b9f 69bd 0036 a9bd ca4c b53c
00000380: 9643 78bd 009c c8bd e7e4 b9bd d37e b9bd
00000390: 9553 443c 8dda 0a3d bf9b f33d bafe ccbc
000003a0: 3589 143d 9245 d13d ca85 013e 04f2 36bd
000003b0: f62d 4e3d 5ce1 8fbd 2822 85bc b0d7 163c
000003c0: c91b d93d d087 6e3d 3e16 6bbd 053a 4e3d
000003d0: 67bd aabd 585e cbbd 55f2 613d 5522 be3d
000003e0: a1f6 9f3d 77c3 133e 1acc 6dbd 8996 7a3c
000003f0: b2fb 08bd 77ad 66bd 0e91 fbbd b9bb 043e

lstm.bias_hh_l1 f4 [256]
-0.09529271 -0.06948349 0.09834511 -0.06655636 0.12239014 -0.029529879 -0.094355665 0.0381232
0.00090452976 -0.00895105 0.10207196 -0.07900257 -0.09640785 -0.031941954 -0.0027630655 -0.0225865
-0.11602314 -0.06501258 -0.14073768 0.0678533 -0.049830265 0.10444787 -0.00025147642 0.014036625
-0.039254926 -0.057934184 0.10428229 -0.015702957 0.01689043 0.005882976 0.051243067 0.13277012
-0.015921075 0.08548617 0.056427166 0.0031179688 0.11938092 -0.0441947 -0.1021348 0.027214687
-0.08147731 -0.09747474 -0.11127026 0.080078244 -0.059398226 0.11081593 0.06729945 -0.0429402
-0.084507346 -0.02015282 -0.013576497 0.061600354 0.015997801 0.0031528408 0.08619457 0.08149743
-0.121960066 0.09170629 -0.11424164 0.06604343 -0.12693878 0.09465047 -0.02231828 0.03134707
0.02238419 -0.0374999 -0.030231472 0.05144983 -0.012191844 -0.029027017 0.0984249 -0.06521642
0.1226787 0.07088813 0.11925088 0.038446035 0.12733406 0.11263624 0.050118253 -0.10009391
-0.0028773944 0.010531626 -0.113686725 -0.055807896 -0.008620383 0.06428483 -0.06607102 0.10324825
0.04179188 0.06275206 0.13084209 0.0027339906 0.10753718 -0.0030668327 0.04140629 0.013615482
-0.032984175 0.04057118 0.058268078 -0.09840248 0.11017073 -0.1077593 0.119938076 -0.00714461
-0.092362136 0.055886295 0.015199484 0.06066827 0.0031855837 0.10221873 0.04616059 -0.051626373
-0.054936048 -0.03837921 -0.0100028 0.10504838 -0.08945029 0.039674528 0.1076076 0.11143256
0.11219531 -0.03247647 0.02328935 0.09383232 0.048475694 -0.053266913 -0.11096064 -0.052824114
-0.052333884 -0.050441686 -0.105979495 0.06446822 0.07891673 0.03899375 -0.01690148 0.056275994
0.020807786 -0.0763348 -0.0023302035 -0.016884089 0.036503058 0.044147663 -0.072997615 0.07757919
0.045853835 0.10989686 0.07267811 0.008199818 0.037244994 -0.021136915 -0.010247922 0.11661642
0.008747268 0.02577024 -0.06492771 0.042130873 0.029382898 -0.12055782 0.033778347 -0.0127472235
0.08992573 -0.031674165 0.0666153 -0.015577694 -0.080794275 -0.065221965 0.02915428 -0.1057239
0.10096577 -0.008046397 -0.04293621 -0.07304019 0.09478198 -0.056339405 -0.0107042845 0.08264947
0.065324575 0.012994297 0.065903015 -0.0875519 0.025655419 0.019544145 -0.028840028 0.09923202
-0.117311426 0.046818502 0.070425935 -0.062034238 0.03169425 -0.067560375 -0.07911605 -0.055343017
0.009058184 -0.06318628 0.03003498 0.13666712 0.11199777 0.03758798 0.05941173 0.041763227
-0.016239548 0.09771761 -0.10737834 -0.00016520797 -0.040685732 -0.12097651 -0.06590929 0.08716103
-0.015560866 -0.09420627 -0.069185734 -0.0046445793 0.027886817 -0.0869212 -0.044450462 -0.04623993
-0.031105848 -0.04476387 -0.10994255 -0.083620586 -0.05753314 0.14020681 0.022550821 0.018640297
0.055738516 0.11840751 0.12527135 0.0973965 -0.042248633 0.022186024 -0.091794126 0.11287711
0.14242709 -0.06125288 0.035235763 0.004766567 -0.09093984 0.13168295 -0.08832927 -0.031654578
-0.059936546 -0.008936596 0.052088197 0.06563802 0.09230455 -0.04683861 0.01636687 0.052567743
0.028078526 0.041616097 -0.10070182 0.02516233 -0.010053962 0.11439847 -0.13453875 0.11164885
00000000: d328 c3bd 5c4d 8ebd 2969 c93d b34e 88bd
00000010: afa7 fa3d a5e8 f1bc 8b3d c1bd 1327 1c3d
00000020: f71d 6d3a 6da7 12bc 1b0b d13d 19cc a1bd
00000030: 7b71 c5bd 91d5 02bd 8c14 35bb 5307 b9bc
00000040: 8a9d edbd 5125 85bd 8a1d 10be acf6 8a3d
00000050: d21a 4cbd c4e8 d53d 98d8 83b9 dff9 653c
00000060: c6c9 20bd 654c 6dbd f491 d53d 7da3 80bc
00000070: cd5d 8a3c fbc5 c03b 40e4 513d e4f4 073e
00000080: ea6c 82bc 6013 af3d 2c20 673d d656 4c3b
00000090: fc7d f43d 8005 35bd 0d2c d1bd 56f1 de3c
000000a0: 93dd a6bd d6a0 c7bd a9e1 e3bd 1000 a43d
000000b0: 8e4b 73bd 76f3 e23d 4bd4 893d 10e2 2fbd
000000c0: 3012 adbd 8717 a5bc f56f 5ebc a750 7c3d
000000d0: d20d 833c e49f 4e3b c786 b03d 20e8 a63d
000000e0: 33c6 f9bd 82d0 bb3d 85f7 e9bd c741 873d
000000f0: 3dfc 01be 1bd8 c13d d3d4 b6bc c965 003d
00000100: 0c5f b73c 7f99 19bd fea7 f7bc 0fbd 523d
00000110: 4dc0 47bc 11ca edbc fe92 c93d 3090 85bd
00000120: f83e fb3d cc2d 913d ce39 f43d 9779 1d3d
00000130: dc63 023e d4ad e63d cc48 4d3d 09fe ccbd
00000140: ab92 3cbb d78c 2c3c 96d4 e8bd d296 64bd
00000150: 823c 0dbc c4a7 833d 3e50 87bd d273 d33d
00000160: f62d 2b3d 2784 803d 78fb 053e c02c 333b
00000170: 743c dc3d eafc 48bb a499 293d 7813 5f3c
00000180: 6a1a 07bd f72d 263d 82aa 6e3d 3d87 c9bd
00000190: 31a1 e13d e8b0 dcbd 18a2 f53d 551d eabb
000001a0: 5c28 bdbd 07e9 643d 4207 793c 4b7f 783d
000001b0: 3ac5 503b 0e58 d13d e312 3d3d 2d76 53bd
000001c0: 9f04 61bd 8533 1dbd c9e2 23bc 9b23 d73d
000001d0: b731 b7bd c281 223d 6061 dc3d c136 e43d
000001e0: a8c6 e53d 0c06 05bd 4fc9 be3c 292b c03d
000001f0: 738e 463d 682e 5abd 553f e3bd 195e 58bd
00000200: 0e5c 56bd f19b 4ebd c70b d9bd ea07 843d
00000210: 189f a13d e9b7 1f3d f974 8abc a881 663d
00000220: 1775 aa3c 6b55 9cbd 54b6 18bb 8050 8abc
00000230: 3b84 153d 2ed4 343d c67f 95bd d7e1 9e3d
00000240: 3bd1 3b3d 9b11 e13d 43d8 943d 8858 063c
00000250: 358e 183d 5327 adbc e6e6 27bc 97d4 ee3d
00000260: b350 0f3c 1c1c d33c d2f8 84bd 6c91 2c3d
00000270: 67b4 f03c 05e7 f6bd 2a5b 0a3d bbd9 50bc
00000280: fb2a b83d c5bc 01bd 9a6d 883d 9639 7fbc
00000290: 7877 a5bd 1893 85bd f5d4 ee3c c685 d8bd
000002a0: 24c7 ce3d 09d5 03bc e1dd 2fbd 1896 95bd
000002b0: 0e1d c23d 26c4 66bd 0661 2fbc 2044 a93d
000002c0: e4c8 853d 08e6 543c 29f8 863d 694e b3bd
000002d0: 502b d23c 0b1b a03c ec41 ecbc 283a cb3d
000002e0: f940 f0bd c2c4 3f3d 793b 903d 9d17 7ebd
000002f0: d4d1 013d 185d 8abd 9807 a2bd 5caf 62bd
00000300: c768 143c cf67 81bd eb0b f63c 77f2 0b3e
00000310: 165f e53d dbf5 193d b759 733d eb0f 2b3d
00000320: cd08 85bc 2c20 c83d 2de9 dbbd ad3b 2db9
00000330: 15a6 26bd 88c2 f7bd 73fb 86bd 7b81 b23d
00000340: 01f3 7ebc 38ef c0bd 40b1 8dbd 8e31 98bb
00000350: e572 e43c be03 b2bd b011 36bd 1566 3dbd
00000360: b1d1 febc 525a 37bd 8f29 e1bd 4541 abbd
00000370: dfa7 6bbd 6092 0f3e 80bc b83c 89b3 983c
00000380: 124e 643d a37f f23d 2247 003e d177 c73d
00000390: e70c 2dbd 77bf b53c 8ffe bbbd 1d2c e73d
000003a0: 68d8 113e 4de4 7abd 6053 103d dd30 9c3b
000003b0: ab3e babd e5d7 063e fae5 b4bd 3ba8 01bd
000003c0: 0680 75bd cd6a 12bc 6f5a 553d 3a6d 863d
000003d0: 2b0a bd3d d8d9 3fbd d013 863c 4651 573d
000003e0: f004 e63c a475 2a3d c13c cebd 3b21 ce3c
000003f0: 5fb9 24bc bf49 ea3d 87c4 09be 27a8 e43d
