output/LSTM2CNN/LSTM2CNN_adam_128_500/model/LSTM2CNN_epoch_206.pth (torch, 350402 bytes, 16 tensors)

lstm.weight_ih_l0 f4 [256, 10]
0	0x3e089d1e	0.13341185
1	0x3e4c2151	0.19934584
2	0x3e25d7b1	0.16195561
3	0x3c5f1ec8	0.013618179
4	0xbe0f6b2a	-0.14005724
5	0x3e43fc2c	0.19139165
6	0x3eae5733	0.34050903
7	0xbe02a538	-0.12758338
8	0x3b6903ce	0.0035555246
9	0xbe1847a3	-0.14871077
10	0xbccce982	-0.025013689
11	0x3dba0ccf	0.09084474
12	0x3d89fc08	0.06737524
13	0x3d9a3582	0.07529737
14	0xbe04d4f4	-0.1297186
15	0x3c4bea79	0.012446039
16	0x3d2da4c9	0.04239348
17	0xbd6d9ce4	-0.05801095
18	0xbe12def1	-0.14342858
19	0xbd3f34c9	-0.0466812
20	0xbe29ac31	-0.16569592
21	0x3c8601b9	0.016358243
22	0xbdde6cca	-0.108605936
23	0xbd017b98	-0.03161201
24	0x3cbb151b	0.022837212
25	0xbd61326e	-0.054979734
26	0xbc49cfa8	-0.0123175755
27	0xbe356d29	-0.17717423
28	0xbe19441c	-0.14967388
29	0xbe17654c	-0.14784735
30	0xbc777ebf	-0.015105902
31	0xbe241566	-0.16023788
32	0x3d961e76	0.07330029
33	0x3bea9cd2	0.0071598077
34	0xbe2f5efa	-0.17126074
35	0xbd427213	-0.04747207
36	0x3d8f1b4d	0.06987629
37	0xbe229e74	-0.15880758
38	0x3d63cb5e	0.055613868
39	0x3da53bb3	0.08068027
40	0xbd5e8d8a	-0.0543342
41	0x3dbb94a7	0.091592126
42	0x3dd7beaa	0.10534413
43	0x3dfc00c3	0.12304833
44	0xbcf39632	-0.029734705
45	0x3e1c8f1f	0.15288971
46	0xbd996290	-0.074895024
47	0x3d207311	0.039172236
48	0x3c3af31b	0.0114105
49	0xbcdaf542	-0.026728276
50	0x3d7f8ea7	0.062391903
51	0xbd83aa28	-0.06428939
52	0x3d6fc363	0.058535945
53	0xbdbef119	-0.093233295
54	0xbba7d966	-0.0051223515
55	0xbe14a4a7	-0.14515935
56	0xbe108061	-0.14111473
57	0x3e183759	0.14864863
58	0xbb78ef8a	-0.0037984573
59	0xbde571bd	-0.112033345
60	0xbd2b544f	-0.04182845
61	0xbd6b25ac	-0.057408974
62	0xbd914f24	-0.07095173
63	0xbb985a86	-0.004649463
64	0x3e28205f	0.16418599
65	0xbe12bc4e	-0.14329645
66	0xbd93e463	-0.07221296
67	0x3e335e81	0.17516519
68	0x3e21aa63	0.15787654
69	0x3cc2666c	0.02373048
70	0x3d5de26b	0.054171007
71	0x3e0e12ed	0.13874407
72	0x3d03613e	0.03207516
73	0xbe04787c	-0.12936586
74	0xbd48f520	-0.049061894
75	0x3d36c5f9	0.044622395
76	0x3db932b3	0.09042873
77	0xbdac7e3c	-0.08422515
78	0xbd970e9e	-0.07375835
79	0xbd6e92a3	-0.058245312
80	0xbe088492	-0.13331822
81	0xbd37b89a	-0.044853784
82	0x3cb418e1	0.02198452
83	0xbd92c3bb	-0.07166239
84	0xbdd9863d	-0.10621307
85	0xbcb7ce1b	-0.022437146
86	0x3d4858a8	0.048912674
87	0xb9a04bbb	-0.00030574002
88	0xbce14303	-0.027497774
89	0xbc27de40	-0.01024586
90	0xbd066fb1	-0.03282136
91	0xbdbdf1f3	-0.09274664
92	0xbe060646	-0.1308833
93	0xbd111636	-0.035421573
94	0xbc2c74bf	-0.010525881
95	0xbd939939	-0.07206959
96	0xbd08c9c1	-0.033395533
97	0x3dadc6dc	0.08485195
98	0x3e25380a	0.16134658
99	0x3e61d937	0.22055517
100	0x3d7d91f1	0.06190676
101	0xbe2faa47	-0.171548
102	0xbe0a5229	-0.13507904
103	0x3e186a04	0.14884192
104	0xbe061973	-0.13095646
105	0xbd82d1c3	-0.06387665
106	0xbd9fb2ea	-0.07797797
107	0xbe3d6817	-0.18496738
108	0x3e1064e7	0.14100991
109	0x3e80bd4c	0.25144422
110	0xbd37d460	-0.04488027
111	0xbe42e29c	-0.19031757
112	0xbdbe7f32	-0.09301604
113	0x3daee2bc	0.0853934
114	0xbd6167ef	-0.05503076
115	0x3c3d4062	0.011550995
116	0x3d4d8099	0.05017147
117	0x3e193f96	0.14965662
118	0x3e0f3636	0.13985524
119	0x3e46a53f	0.19398974
120	0xbbf8ccb1	-0.0075927605
121	0xbdeeaf26	-0.11654501
122	0xbd1eacf7	-0.03873917
123	0x3be0f51f	0.006865158
124	0x3cbead44	0.023275979
125	0xbd879ebf	-0.06622075
126	0xbe118ca3	-0.14213805
127	0x3e29cc08	0.16581738
128	0x3e43979e	0.19100806
129	0x3cb1b611	0.021693261
130	0xbdafc5e5	-0.08582667
131	0x3d11c2ed	0.035586286
132	0xbdd756ac	-0.10514578
133	0x3d206d1f	0.039166566
134	0x3cb91e2e	0.022597399
135	0xbda76f95	-0.081755795
136	0x3e45e8de	0.19327113
137	0xbde04334	-0.10950318
138	0xbc901032	-0.017585848
139	0xbdb5ab40	-0.08870554
140	0xbcbd2608	-0.023089424
141	0x3ddd3e4a	0.10802896
142	0x3d9b23b6	0.07575171
143	0x3ca6ff8f	0.020385532
144	0xbda0872c	-0.07838282
145	0x3e2b02f2	0.16700342
146	0x3e077d87	0.13231479
147	0xbd534dbf	-0.051587816
148	0xbb34dedf	-0.0027598662
149	0xbe1ca5c1	-0.15297605
150	0xbd88bc9f	-0.066766016
151	0x3cc11565	0.023569772
152	0xbe249d71	-0.16075684
153	0x3dae1c8d	0.085015394
154	0x3dedf69d	0.116193034
155	0xbe4ab20f	-0.19794486
156	0xbe7a0455	-0.24415715
157	0xbc8eb743	-0.01742137
158	0x3e46d1c0	0.19415951
159	0xbc8305c6	-0.015993964
160	0xbd8d343a	-0.06894727
161	0x3d9c0afe	0.07619284
162	0x3dcb5457	0.09928196
163	0x3d45ce83	0.048292648
164	0x3caaee0e	0.020865466
165	0xbceb8109	-0.028748052
166	0xbc63ac3e	-0.013896046
167	0x3e3aaca1	0.18229915
168	0x3d5d64bb	0.054051142
169	0xbcc3a682	-0.023883108
170	0x3d825a07	0.063648276
171	0x3d3df4e3	0.04637612
172	0x3dcf6a5a	0.10127707
173	0x3e09145a	0.1338667
174	0x3c54d690	0.012990609
175	0xbdc20968	-0.0947445
176	0xbda4dfaa	-0.08050473
177	0xbcb930ed	-0.022606337
178	0xbc457da6	-0.012053883
179	0x3cbd37cc	0.023097895
180	0x3ce0ba9b	0.02743273
181	0x3dc4388a	0.095810965
182	0xbdbc2b4f	-0.09187948
183	0xbd02e971	-0.03196091
184	0x3d6a155d	0.05714928
185	0xbd5b4b41	-0.053538565
186	0xbd05ff5e	-0.03271424
187	0xbdbf4f68	-0.093413174
188	0xbbf05401	-0.007334233
189	0x3dc9e0e4	0.098573476
190	0xbdef3b15	-0.11681191
191	0xbe455861	-0.19271995
192	0xbdfaa046	-0.12237601
193	0xbe9c8d9c	-0.3057679
194	0x3e2adc1e	0.1668553
195	0xbeb45e94	-0.35228407
196	0xbe900ecc	-0.2813629
197	0x3e618b49	0.2202579
198	0x3e56f765	0.20992811
199	0x3e73d56f	0.23811887
200	0x3e10a751	0.14126326
201	0x3db82240	0.08990908
202	0x3d941a5a	0.07231589
203	0xbda7f32a	-0.08200677
204	0x3dd9048f	0.105965726
205	0x3dc3dfb6	0.09564154
206	0x3cdd9b3d	0.027051562
207	0x3d932cb5	0.071862616
208	0x3e227293	0.15864019
209	0x3d1c9c01	0.038234714
210	0x3cc042fc	0.02346944
211	0xbe5d5e4c	-0.21618003
212	0x3de94148	0.113894045
213	0xbd21a66a	-0.039465345
214	0x3e44124c	0.19147605
215	0x3c44f458	0.012021147
216	0xbdf098ab	-0.11747869
217	0x3e195a5c	0.14975876
218	0x3db1e1e3	0.086856626
219	0x3e746f67	0.23870622
220	0x3e1d3af5	0.15354522
221	0x3d363110	0.044480383
222	0x3e071615	0.13192017
223	0x3deec0ef	0.11657893
224	0xbc9c1f92	-0.019058023
225	0xbc9e3385	-0.019311676
226	0x3d65e19e	0.05612337
227	0x3cdcb372	0.026941035
228	0xbd83395d	-0.064074256
229	0x3e29cc4f	0.16581844
230	0x3decd451	0.11563934
231	0x3d7562b2	0.059908576
232	0x3d804e23	0.062649034
233	0xbb25aa4a	-0.0025278502
234	0xbd0e2384	-0.03470184
235	0x3e59e989	0.21280493
236	0x3e0a0a8a	0.13480583
237	0xbdbd985d	-0.092575766
238	0xbdf4d4f9	-0.11954684
239	0x3cf57964	0.02996511
240	0x3dad6ea8	0.08468372
241	0x3d8a7135	0.06759874
242	0x3c94bf95	0.01815776
243	0x3b16e76a	0.0023026117
244	0xbbc5574a	-0.0060223686
245	0xbd8f6d1c	-0.07003233
246	0xbe648bf1	-0.22319008
247	0x3e651295	0.2237037
248	0x3cffc507	0.03122188
249	0x3d80bf14	0.06286445
250	0x3dd1ec79	0.10250182
251	0x3d73974d	0.059470464
252	0x3d7b4a8a	0.061350383
253	0x3ea2bd3b	0.31784996
254	0x3d6488ff	0.055794712
255	0x3d862421	0.0654986

lstm.weight_hh_l0 f4 [256, 64]
0	0x3dcd298b	0.10017689
1	0x3cb85c85	0.022505054
2	0xbdb49d6a	-0.08819087
3	0xbd107f5e	-0.035277717
4	0xbda68a5a	-0.08131857
5	0x3d2a2fce	0.041549496
6	0xbdc33cab	-0.09533056
7	0xbd4df8f0	-0.050286233
8	0x3d6ec319	0.05829153
9	0xbc08b1f6	-0.00834321
10	0xbe3a95e2	-0.18221238
11	0xbdb8d63e	-0.090252385
12	0x3d551af8	0.052027673
13	0x3e2ba076	0.1676043
14	0xbd81bf6e	-0.063353404
15	0xbd7bc579	-0.06146762
16	0x3e02228b	0.1270849
17	0x3d412156	0.047150932
18	0xbd9329cf	-0.07185709
19	0xbdec07a4	-0.11524895
20	0xbd4e2310	-0.050326407
21	0x3c7931dd	0.015209642
22	0xbce5f61c	-0.028071456
23	0x3e29d226	0.16584072
24	0x3e13bb77	0.14426981
25	0x3deb9e12	0.11504759
26	0xbe216537	-0.15761267
27	0xbdeae726	-0.11469869
28	0xbdba8ff3	-0.091094874
29	0xbd71bdb4	-0.059018806
30	0x3d7a3431	0.06108493
31	0xbd525648	-0.051351815
32	0x3e125340	0.1428957
33	0x3c2556f9	0.010091537
34	0xbd875fdb	-0.0661008
35	0xbe34a7d2	-0.17642143
36	0xbcd6a69d	-0.026202494
37	0x3d434255	0.04767068
38	0x3df58560	0.1198833
39	0x3db58b88	0.08864504
40	0xbd7f3441	-0.062305693
41	0x3daf6155	0.085634865
42	0x3e073dde	0.13207194
43	0x3cc1964d	0.02363124
44	0x3c932792	0.017963205
45	0x3d70e3e5	0.058811087
46	0x3c97f460	0.018549144
47	0xbdbe21e8	-0.09283811
48	0xbd0d86a1	-0.03455222
49	0xbddb2eaf	-0.107022636
50	0xbe294911	-0.16531779
51	0x3d6606c5	0.0561588
52	0xbdb888f9	-0.090105005
53	0x3e58b784	0.21163756
54	0x3d074e17	0.033033457
55	0xbdccd7ce	-0.10002099
56	0xbde4a610	-0.111644864
57	0x3cbfd952	0.023419056
58	0xbdd436fb	-0.10362049
59	0x3d9d66f8	0.07685655
60	0xbd33d7ac	-0.043906853
61	0xbdd2bcf2	-0.10289945
62	0xbd4e0e39	-0.050306533
63	0x3de04501	0.109506615
64	0x3bc65960	0.006053135
65	0xbdbfc6db	-0.093641005
66	0xbe10b560	-0.14131689
67	0xbda02cc7	-0.078210406
68	0xbe0751cb	-0.13214795
69	0xbd0db2b2	-0.034594245
70	0x3bf37f4f	0.007430948
71	0x3c6c3524	0.014416967
72	0xbca5b629	-0.020228462
73	0x3d8a0111	0.06738485
74	0xbe50b02d	-0.20379706
75	0xbda6b095	-0.08139149
76	0x3d829f10	0.06377995
77	0xbd6f5840	-0.05843377
78	0xbd2559a6	-0.0403687
79	0xbcf5b412	-0.02999309
80	0x3e3953d6	0.18098387
81	0x3d9f11c7	0.07767063
82	0xbdf82856	-0.121170685
83	0xbda3395c	-0.07969925
84	0x3d26e8a7	0.04074922
85	0x3e543425	0.20723017
86	0x3ce02f85	0.02736641
87	0xbbf68afc	-0.0075238924
88	0x3e298657	0.16555153
89	0xbd9581a3	-0.07300117
90	0x3d85bc89	0.06530101
91	0x3de696ef	0.11259257
92	0xbd5da3b4	-0.054111198
93	0x3dbde5f2	0.09272374
94	0x3d634b64	0.05549182
95	0x3d3a4bd6	0.04548248
96	0x3d858559	0.06519575
97	0x3be4e48e	0.0069852537
98	0xbd87cf53	-0.06631341
99	0xbbd45c94	-0.0064807627
100	0x3da45ea5	0.080258645
101	0x3e0331d9	0.12811984
102	0xbcaa2637	-0.020770175
103	0xbdbf5a65	-0.09343413
104	0x3c84f3c2	0.016229514
105	0x3bd9f55e	0.0066515645
106	0xbd2420bd	-0.040070284
107	0x3db81868	0.0898903
108	0xbdd45ae9	-0.10368902
109	0x3d2c5626	0.042074345
110	0xbd8487c2	-0.06471206
111	0x3c1f24fd	0.009713409
112	0x3d90d010	0.07070935
113	0xbd0f0cdb	-0.03492437
114	0xbdfb162c	-0.12260088
115	0x3e0effc9	0.13964762
116	0xbe1cadd8	-0.15300691
117	0x3bd3e2ee	0.006466261
118	0x3c96e9d1	0.01842204
119	0x3cbb9a46	0.022900712
120	0x3ca087d9	0.019596027
121	0xbdc96aa6	-0.09834795
122	0x3d0ea2d9	0.034823272
123	0x3da07fbf	0.07836866
124	0xbdf018f0	-0.117235065
125	0xbe098081	-0.13427927
126	0x3dc63142	0.09677364
127	0xbd8ab4d4	-0.067727715
128	0xbd90e2cd	-0.07074509
129	0xbb864341	-0.0040973728
130	0x3d8193ea	0.063270405
131	0xbdc71eb3	-0.09722652
132	0xbd00b974	-0.031426862
133	0x3e05cff0	0.13067603
134	0xbde75e27	-0.11297255
135	0xbd56bd1a	-0.052426435
136	0x3dfd30f3	0.12362852
137	0x3e04ac3d	0.12956329
138	0x3db84c04	0.08998874
139	0xbe40e250	-0.18836331
140	0xbc416585	-0.011803989
141	0xbb99c83a	-0.0046930583
142	0x3e04f856	0.12985358
143	0xbe0d7bfb	-0.13816826
144	0xbd0d00ef	-0.03442472
145	0x3d032555	0.032018024
146	0x3d1ad725	0.037802834
147	0xbc782be3	-0.015147182
148	0x3e2a345b	0.16621535
149	0x3dabd2b2	0.08389796
150	0xbe651c18	-0.22373998
151	0xbe350fb9	-0.17681779
152	0x3d5c28ee	0.05374997
153	0x3b439db5	0.002984864
154	0x3e015da0	0.12633371
155	0x3e48fcf3	0.19627742
156	0x3e0ada5c	0.1355986
157	0xbdb85248	-0.09000069
158	0x3dc70c48	0.09719139
159	0xbe167d57	-0.14696251
160	0x3d443736	0.047904216
161	0xbdbc40b0	-0.09192026
162	0xbd7052c4	-0.05867268
163	0xbd241813	-0.04006202
164	0x3d8db67e	0.06919573
165	0xbd933b51	-0.07189048
166	0x3d1eab4d	0.038737584
167	0xbd155e5e	-0.03646695
168	0x3de4859f	0.11158299
169	0x3d478150	0.048707306
170	0xbc8e9e22	-0.017409388
171	0xbe2d288f	-0.16910003
172	0x3e0a90e4	0.13531834
173	0xbd0097dc	-0.031394824
174	0x3d5d58a6	0.05403962
175	0x3d58ba30	0.052911937
176	0xbe0393e5	-0.12849386
177	0x3e675364	0.22590405
178	0x3d79589c	0.06087552
179	0xbe1aefdf	-0.15130566
180	0x3e3de333	0.18543701
181	0xbe9328aa	-0.28741962
182	0xbdd2fed3	-0.1030251
183	0xbc3d5632	-0.011556195
184	0x3e32ded2	0.17467812
185	0xbd990dbf	-0.07473325
186	0x3dc97204	0.098362
187	0xbd8af369	-0.06784708
188	0x3e5e63bd	0.21717735
189	0x3dc42c34	0.095787436
190	0x3e5673d2	0.2094262
191	0xbda7bab0	-0.08189905
192	0x3dea6ae2	0.114461675
193	0x3e094c62	0.13408044
194	0xbb6e3fe5	-0.0036354002
195	0xbd321d21	-0.04348481
196	0xbd999939	-0.07499928
197	0xbd5291d1	-0.051408593
198	0xbcf7675d	-0.030200655
199	0xbdaa47ae	-0.08314453
200	0x3df68396	0.12036817
201	0x3d754966	0.05988445
202	0x3def7bc0	0.11693525
203	0xbdbc2d43	-0.091883205
204	0x3d9a5d73	0.07537355
205	0xbe385d0f	-0.18004249
206	0xbd92faf0	-0.07176769
207	0x3d630482	0.05542422
208	0xbdf5212d	-0.119692184
209	0x3e231611	0.15926386
210	0xbda5e03c	-0.0809941
211	0xbc61f891	-0.013792173
212	0x3da4b1f4	0.08041754
213	0xbbf9f6b2	-0.0076282853
214	0xbbf3d535	-0.0074411877
215	0xbd0f8ce3	-0.03504647
216	0xbd116dea	-0.035505213
217	0xbcb811e4	-0.022469468
218	0x3d939b38	0.0720734
219	0x3d1876cf	0.03722268
220	0x3ddb788d	0.107163526
221	0xbd903448	-0.07041222
222	0xbc37252c	-0.011178296
223	0x3dbb38ab	0.09141668
224	0xbd4b788e	-0.049675517
225	0xbcf8a459	-0.030351805
226	0x3d808c6c	0.06276783
227	0x3cc13035	0.023582557
228	0xbd057af7	-0.03258797
229	0x3db904ad	0.09034095
230	0xbc8a9f1d	-0.016921574
231	0xbd115ab6	-0.0354869
232	0xbc57b2a9	-0.0131651545
233	0x3e169ab1	0.14707448
234	0x3b157f68	0.0022811536
235	0x3d95c707	0.07313352
236	0x3de8fd91	0.11376489
237	0xbc13ef5d	-0.009029237
238	0xbd483d9f	-0.04888689
239	0xbc26f20c	-0.010189544
240	0xbcbb7857	-0.022884531
241	0x3e06ba87	0.13157092
242	0x3dea115f	0.114290945
243	0x3cb21911	0.021740468
244	0x3c666d07	0.01406408
245	0x3d5ebc73	0.054378938
246	0x3c798fbc	0.015232023
247	0xbc8db897	-0.017299933
248	0xbb934e65	-0.0044954293
249	0xbdaf7fa5	-0.08569268
250	0x3c26660f	0.010156169
251	0xbdaa2ade	-0.083089575
252	0x3d5aa849	0.053383145
253	0xbde05d82	-0.10955335
254	0xbd7cbcdd	-0.06170355
255	0x3d72b23d	0.059252013

lstm.bias_ih_l0 f4 [256]
0	0x3dfd2bb4	0.12361851
1	0x3ddacc4d	0.106834985
2	0x3e250356	0.16114554
3	0xbdb5f014	-0.08883682
4	0x3d6b4836	0.057441913
5	0xbdb7051d	-0.08936522
6	0xbcc69273	-0.024239754
7	0x3da7ed26	0.08199529
8	0x3e0922bb	0.13392155
9	0x3d84fccf	0.06493532
10	0x3e72ddcd	0.23717423
11	0x3e1b3a50	0.15158963
12	0xbb71f53f	-0.003691986
13	0x3d4851a5	0.048905987
14	0x3caceec9	0.021109955
15	0x3db0b493	0.08628192
16	0xbdbfb5ee	-0.09360872
17	0x3da39030	0.07986486
18	0x3c94440a	0.01809885
19	0x3e12c9ed	0.14334841
20	0xbd59e572	-0.05319733
21	0x3d4b96e0	0.049704432
22	0xbd595685	-0.053061027
23	0xbda00439	-0.078133054
24	0x3e2d7168	0.16937792
25	0x3e3f7f6a	0.18700948
26	0x3bbe476a	0.005806853
27	0xbc68cfe6	-0.014209723
28	0x3cca4cd9	0.024694847
29	0x3df8b61f	0.12144112
30	0xbd5eb394	-0.054370478
31	0x3e5007b1	0.20315434
32	0xbbdcff9f	-0.0067443396
33	0xbdca2bd2	-0.09871639
34	0x3e46364c	0.1935665
35	0x3d221ae4	0.039576426
36	0x3dea3500	0.1143589
37	0x3e0fb4a8	0.14033759
38	0x3d5fed2b	0.05466954
39	0x3d8cee1e	0.06881355
40	0x3e7c06f0	0.24612021
41	0x3d8d4f19	0.06899852
42	0x3cd3b051	0.02584091
43	0x3dac75b2	0.08420886
44	0x3e0bd9f0	0.13657355
45	0xbd07dea0	-0.033171296
46	0x3d397dfd	0.045286167
47	0x3d95344a	0.07285364
48	0x3e0057c7	0.12533484
49	0xbdbb630d	-0.09149752
50	0x3d297499	0.04137096
51	0x3d92a257	0.0715987
52	0x3e2266e9	0.1585957
53	0x3e51a496	0.20472941
54	0x3d61f47b	0.055164795
55	0x3d9d5d84	0.07683852
56	0x3d667de6	0.05627241
57	0x3cf22e84	0.029563196
58	0xbd7fdc0e	-0.06246572
59	0x3e7be8eb	0.2460057
60	0x3db877ff	0.090072624
61	0x3dec4e49	0.11538369
62	0x3d0c738b	0.034289878
63	0xbcd14a0d	-0.025548005
64	0xbd5ee91c	-0.05442153
65	0x3e056a5e	0.13028857
66	0xbd7f5677	-0.06233832
67	0x3dee75a4	0.11643532
68	0xbd9979a7	-0.074939065
69	0x3d751b7f	0.059840675
70	0x3e1eef24	0.15520912
71	0x3d9641ed	0.07336793
72	0xbd842d24	-0.064539224
73	0x3d702d76	0.058637105
74	0x3d8c211a	0.06842251
75	0xbd0e5229	-0.034746323
76	0x3af93822	0.0019013921
77	0x3d90a4f4	0.07062712
78	0x3de32481	0.11090947
79	0xbcbe9ca6	-0.023268055
80	0x3d89ebdd	0.067344405
81	0xbd59d50d	-0.053181697
82	0x3ca7db19	0.020490216
83	0xbd4c705d	-0.049911845
84	0xbcc58cbc	-0.024114959
85	0x3dbaea7f	0.09126758
86	0x3af7dd96	0.0018910642
87	0x3dd7eeb4	0.10543576
88	0xbd34fbc2	-0.044185407
89	0xbc91b8dd	-0.017788345
90	0x3dbab543	0.09116604
91	0x3dfe98d5	0.12431494
92	0x3de39f85	0.1111441
93	0x3e3fcabd	0.18729682
94	0xbcf31a1e	-0.02967554
95	0x3ddf0bbf	0.10890912
96	0x3dc4fe18	0.09618777
97	0x3d8bfab2	0.06834926
98	0x3d237d3e	0.039914362
99	0x3c94143a	0.018076051
100	0x3d33a787	0.04386094
101	0xbd194342	-0.037417658
102	0x3ce7111d	0.028206402
103	0xbd8aefc4	-0.06784013
104	0xbaccebe6	-0.0015634268
105	0x3e27d4f6	0.16389832
106	0x3e12f86f	0.14352582
107	0x3df88ed2	0.12136616
108	0x3dce7e4d	0.10082684
109	0xbcc3c7b8	-0.023898944
110	0x3bd8724d	0.0066054226
111	0x3e094ffb	0.13409416
112	0x3cad3210	0.021142036
113	0xbdba5820	-0.0909884
114	0x3cb287c9	0.021793263
115	0xbd34d5b8	-0.04414913
116	0x3cde49a1	0.027134718
117	0x3d509cdf	0.050930854
118	0x3cecc086	0.028900396
119	0x3c70f886	0.01470769
120	0xbccab036	-0.024742227
121	0x3e39d68d	0.18148251
122	0xbd975105	-0.073885
123	0xbbf98c77	-0.0076156217
124	0x3de73284	0.11288932
125	0xbcb0b4f3	-0.021570658
126	0xbd079789	-0.0331035
127	0x3e0cb0ba	0.13739291
128	0xbd304b56	-0.043040596
129	0xbdf40f67	-0.11917
130	0xbd39d2bc	-0.045366988
131	0xbc2fd273	-0.010731327
132	0x3dd3e168	0.10345727
133	0xbd12f323	-0.035876404
134	0xbd3f2ef6	-0.046675645
135	0x3d01d1c7	0.0316942
136	0x3d4c411c	0.04986678
137	0x3db5e0bd	0.08880756
138	0xbdeec76d	-0.11659131
139	0xbdfb7e77	-0.12279981
140	0x3dbcb432	0.09214057
141	0x3dd2b9ff	0.10289382
142	0xbd9e42cc	-0.07727584
143	0xbcb8742f	-0.022516338
144	0xbd8bbdb4	-0.068232924
145	0xbcd4b38c	-0.02596452
146	0xbda641dd	-0.08118031
147	0x3d89fccb	0.067376696
148	0x3dfcc952	0.12343086
149	0xbd131bc8	-0.035915166
150	0xbe0c9bb8	-0.13731277
151	0x3de715cd	0.11283455
152	0x3dbdc2da	0.092656806
153	0x3de35e0c	0.111019224
154	0x3d58ca55	0.052927334
155	0x3d99774e	0.07493459
156	0xbda9de72	-0.08294381
157	0x3c5cef1a	0.013484741
158	0x3d840fbf	0.06448316
159	0x3e20088e	0.15628263
160	0xbd824af0	-0.063619494
161	0x3d97e70e	0.07417117
162	0x3cd98224	0.026551314
163	0xbddbe654	-0.10737291
164	0x3df7c566	0.12098198
165	0x3dcd0dcc	0.10012397
166	0xbdc57e4b	-0.09643229
167	0x3d227ea2	0.039671548
168	0x3d3f6d91	0.04673535
169	0x3da39c9d	0.07988856
170	0x3df1f38c	0.11814031
171	0xbded5f15	-0.11590401
172	0x3c26ad6d	0.010173184
173	0xbdc8f2b6	-0.098119184
174	0x3d6eddf9	0.05831716
175	0xbe0e4e1a	-0.13896981
176	0xbdca1c8b	-0.098687254
177	0x3d941e57	0.07232349
178	0xbb0e41e5	-0.0021706757
179	0x3e0375cd	0.12837906
180	0xbe070dfd	-0.1318893
181	0xbdca1e31	-0.0986904
182	0xbd7da896	-0.061928354
183	0x3e1442d0	0.14478612
184	0x3a614356	0.00085931027
185	0xbe0e051d	-0.13869138
186	0xbda317d2	-0.07963528
187	0x3df9a19c	0.12189028
188	0x3dcd897d	0.100359894
189	0x3d8f2796	0.06989972
190	0x3e023210	0.1271441
191	0x3e11b459	0.14228953
192	0x3df28a7b	0.11842819
193	0x3d253859	0.04033694
194	0x3d313c22	0.043270238
195	0x3de3b5d9	0.11118669
196	0x3e4b7828	0.19870055
197	0x3d98db9f	0.074637644
198	0x3e161e4c	0.14659995
199	0x3e1a97b0	0.15096927
200	0x3deadf6d	0.11468396
201	0xbd82ddf8	-0.063899934
202	0x3e6aebfd	0.22941585
203	0x3d917c84	0.071038276
204	0x3dc48545	0.09595732
205	0xbce95482	-0.02848268
206	0x3cfefe21	0.031127037
207	0x3d26c0f2	0.04071135
208	0x3dffda3f	0.12492799
209	0xbc09f945	-0.008421247
210	0x3e17c52d	0.1482131
211	0x3e402102	0.18762591
212	0xbcb87efb	-0.022521487
213	0x3e59851e	0.21242186
214	0xbdb35323	-0.087560914
215	0x3d77eb41	0.06052709
216	0x3dc398e1	0.09550644
217	0xbc5d667c	-0.013513204
218	0x3d2a6f04	0.04160978
219	0x3e06b46a	0.1315476
220	0x3d95c31a	0.07312603
221	0x3d393061	0.045212153
222	0x3d2bba53	0.04192574
223	0x3ce8f332	0.028436277
224	0x3e252738	0.16128242
225	0x3dd231a1	0.10263372
226	0x3e28a423	0.16468863
227	0x3dba2e92	0.09090914
228	0x3e03cce1	0.12871124
229	0x3dc071b3	0.093966864
230	0x3db5a3c2	0.08869125
231	0x3df6b620	0.12046456
232	0x3def0355	0.116705574
233	0xbd402b40	-0.046916246
234	0xbcba649b	-0.02275305
235	0xbbb53441	-0.005529911
236	0x3c868c27	0.016424252
237	0xbb1424e7	-0.0022605003
238	0x3e13f467	0.14448701
239	0x3e816db5	0.25279012
240	0xbc5b3e3a	-0.013381535
241	0x3de4f781	0.1118002
242	0x3e023e69	0.1271912
243	0xbdbbb634	-0.09165612
244	0x3e42cf09	0.1902429
245	0x3e8489ea	0.2588647
246	0x3e28c9f6	0.16483292
247	0x3d6d3240	0.05790925
248	0xbd33911b	-0.043839555
249	0x3e61a9bc	0.22037405
250	0xbcddf5ac	-0.027094685
251	0x3eaff591	0.3436704
252	0x3ce4f793	0.027950084
253	0x3d8fb61e	0.07017158
254	0x3c00204f	0.007820203
255	0x3dfc7a56	0.12328021

lstm.bias_hh_l0 f4 [256]
0	0x3cbd2cc4	0.023092635
1	0xbb3d2561	-0.002886139
2	0x3e13e7d1	0.144439
3	0x3c7cd4db	0.015431608
4	0x3da9f303	0.08298304
5	0x3dccab6c	0.09993634
6	0x3d2893fc	0.041156754
7	0xbdb82d30	-0.08992994
8	0x3dcb146e	0.09916006
9	0x3dfffaf2	0.12499036
10	0x3ee1bf4b	0.44091257
11	0xbc36450b	-0.01112486
12	0xbd25bb36	-0.04046174
13	0x3da95863	0.082688116
14	0x3daf449e	0.085580096
15	0xbc9ccda5	-0.019141028
16	0x3d975d9a	0.073909
17	0xbd4691de	-0.048478954
18	0x3e2affda	0.16699162
19	0x3c9c2010	0.019058257
20	0x3d765044	0.06013514
21	0x3da22475	0.0791711
22	0x3b9b72d2	0.0047439123
23	0x3e0f56a7	0.13997899
24	0x3e2ef2b5	0.17084773
25	0xb8be19fa	-9.0647445e-05
26	0x3dfed77c	0.12443444
27	0xbdb29ed2	-0.08721699
28	0x3cb805bb	0.02246367
29	0x3e1fbe93	0.15600042
30	0xbbc2a7c4	-0.0059404094
31	0x3d91861d	0.07105658
32	0xbcde01fb	-0.027100554
33	0xbd6ba9ce	-0.057534985
34	0x3e3577fc	0.17721552
35	0x3dd86576	0.10566227
36	0x3d9c92d6	0.07645194
37	0x3dabdb9e	0.08391498
38	0xbd572246	-0.05252292
39	0xbbb41cd0	-0.005496599
40	0x3e7586db	0.23977225
41	0x3df7ed6a	0.1210583
42	0x3baf14a6	0.0053430377
43	0x3d138641	0.036016706
44	0xb9e73746	-0.00044100935
45	0x3dc6f63b	0.097149335
46	0x3dda7339	0.10666508
47	0x3df111ba	0.11770959
48	0x3cac6264	0.02104301
49	0xbcd9178e	-0.02650049
50	0x3e759f57	0.23986565
51	0x3d74ef4e	0.05979853
52	0x3e1d929d	0.1538796
53	0x3e1e9479	0.15486325
54	0x3db26b90	0.08711922
55	0x3e0488d1	0.12942816
56	0x3dedd1b9	0.11612267
57	0x3d77322d	0.060350586
58	0xbbc44d1d	-0.005990638
59	0x3e3bdeba	0.18346682
60	0xbdaafb6a	-0.08348735
61	0x3cfde847	0.030994548
62	0xbdad9189	-0.08475024
63	0x3c6012fb	0.0136764
64	0xbcc38694	-0.023867883
65	0xbd63d872	-0.05562634
66	0xbca6d862	-0.020366851
67	0xbb062701	-0.0020470025
68	0xba7af561	-0.00095733075
69	0x3da3479b	0.07972642
70	0x3db1d4c1	0.08683158
71	0x3d90e382	0.07074644
72	0x3c4bd1d1	0.012440161
73	0xbc9938da	-0.018703867
74	0x3e26e7ec	0.16299409
75	0xbcfe21b1	-0.031021925
76	0xbcb63d6c	-0.022246085
77	0x3d5bb786	0.05364182
78	0x3dfa8b19	0.12233562
79	0xbd5b745e	-0.053577773
80	0x3cca6d3c	0.02471029
81	0xbd17f971	-0.03710312
82	0x3ba397e3	0.0049924715
83	0xbd9157c2	-0.070968166
84	0x3e0d0a5f	0.13773488
85	0x3df568ee	0.119829044
86	0x3d88785b	0.06663581
87	0x3d94eb2b	0.07271417
88	0xbd533aa3	-0.051569592
89	0x3cccb517	0.024988694
90	0xbe0007db	-0.12502997
91	0xbca62469	-0.020281034
92	0x3e285c2b	0.1644141
93	0x3d8ec7ea	0.06971724
94	0x3d3fc0a4	0.046814576
95	0xbb8dd57e	-0.004328429
96	0xbd178c88	-0.036999255
97	0xbb039348	-0.00200768
98	0xbb5c51f8	-0.0033618193
99	0x3d8f4caa	0.069970444
100	0xbdb2b0d9	-0.08725137
101	0x3d437909	0.04772285
102	0x3e1154d3	0.14192514
103	0xbd0c4cbf	-0.03425288
104	0x3cb2841c	0.02179151
105	0xbba8a4fc	-0.005146621
106	0xbd1dc768	-0.038520247
107	0xbd298030	-0.041382015
108	0x3dddf192	0.108370915
109	0xbc203020	-0.009777099
110	0x3c25c32a	0.0101173315
111	0x3e19c8b1	0.15017964
112	0x3df970ca	0.12179716
113	0xbd9be4fe	-0.07612036
114	0xbd4df210	-0.050279677
115	0xbc8e2193	-0.017349994
116	0xbdf64486	-0.120247886
117	0x3e31bfb6	0.17358288
118	0xbc856de8	-0.016287759
119	0xbc7c91f1	-0.0154156545
120	0x3d01cf34	0.031691745
121	0x3e3933de	0.18086192
122	0xbd3cf4b8	-0.04613182
123	0x3cbeca53	0.023289835
124	0x3de95a9c	0.113942355
125	0x3e157749	0.14596285
126	0xbc9f2378	-0.019426093
127	0x3e0c6c7c	0.13713259
128	0xbcc58e22	-0.024115626
129	0x3dd56867	0.10420304
130	0x3d245d1c	0.04012786
131	0x3e123228	0.14276946
132	0xbd40931e	-0.047015302
133	0xbe14f2d9	-0.14545764
134	0xbcbf67c3	-0.023364907
135	0x3d686de5	0.05674543
136	0x3c1814db	0.009282316
137	0x3dd0f0df	0.102021925
138	0x3e03b036	0.12860188
139	0xbd5d5dfc	-0.05404471
140	0x3dd9ab99	0.10628433
141	0x3d0b8312	0.034060545
142	0xbcb82a4e	-0.02248111
143	0xbd4e9449	-0.050434384
144	0xbcbe6f36	-0.023246389
145	0x3ccb6d18	0.024832293
146	0x3dd0d034	0.101959616
147	0x3da168d5	0.07881323
148	0x3beb5f7d	0.007183014
149	0xbd383329	-0.044970665
150	0xbe018493	-0.1264823
151	0xbd7c734f	-0.061633404
152	0x3d80a492	0.06281389
153	0x3d949f8b	0.07256993
154	0xbd767e4a	-0.060179032
155	0xbd69442f	-0.05694979
156	0x3d2b2004	0.04177858
157	0xbd09d050	-0.033645928
158	0x3dc8f8f6	0.098131105
159	0x3c0fa042	0.008766236
160	0x3da0fd8d	0.07860861
161	0xbdb5574c	-0.08854541
162	0xbc75fb88	-0.015013583
163	0xbde7e6d7	-0.11323326
164	0x3d31bc4f	0.043392476
165	0xbd5d38cb	-0.05400924
166	0x3ded1bd2	0.11577572
167	0xbe068924	-0.13138252
168	0x3d940c3c	0.07228896
169	0xbce2cfeb	-0.027687034
170	0x3d381fe9	0.044952307
171	0x3d9583e0	0.07300544
172	0x3cfc6629	0.030810433
173	0x3da171f8	0.07883066
174	0xbd8b3a1b	-0.06798192
175	0xbdaa5dd0	-0.083186746
176	0xbd8c6032	-0.06854285
177	0x3d34362e	0.043996982
178	0xbd84a7a7	-0.0647729
179	0x3df2eaba	0.11861177
180	0x3d4ee53b	0.05051158
181	0x3da13004	0.078704864
182	0x3d95a7a2	0.07307364
183	0x3de50383	0.111823104
184	0xbc2e7d74	-0.010650028
185	0x3c53e8f2	0.012933956
186	0x3bcf6e3a	0.0063302787
187	0xbdbc2300	-0.09186363
188	0xbddf7a22	-0.10911967
189	0x3c83a2b9	0.016068803
190	0x3d02f64f	0.03197318
191	0x3dda2eed	0.10653482
192	0x3e1b7e8e	0.15184996
193	0x3d2f723a	0.042833544
194	0x3df1fc93	0.11815753
195	0xbd673ecd	-0.056456376
196	0x3e4294ba	0.19002047
197	0x3d4078de	0.046990268
198	0xbcb0ca91	-0.021580966
199	0x3c740336	0.014893344
200	0x3e2b258b	0.1671354
201	0x3da7ca96	0.08192937
202	0x3e7fbf51	0.24975325
203	0x3e1e1732	0.15438536
204	0x3d845e56	0.06463306
205	0xbd18af3f	-0.037276503
206	0x3c4b5b6b	0.012411932
207	0xbd167cd8	-0.036740154
208	0xbd924008	-0.07141119
209	0xbcc45b8b	-0.023969432
210	0x3d04cf6c	0.032424375
211	0x3e71d2a2	0.23615506
212	0x3e0fb369	0.14033283
213	0x3e670b12	0.22562817
214	0xbd28e3ac	-0.04123275
215	0xbc31b420	-0.010846168
216	0x3db75988	0.089526236
217	0x3dfc7fd8	0.12329072
218	0xbd27f673	-0.041006517
219	0xbd904c65	-0.07045821
220	0xbd5bb73d	-0.053641547
221	0x3d5ea240	0.054353952
222	0xbd4c51f0	-0.04988283
223	0x3e34d7fa	0.17660514
224	0xbd6e8a81	-0.058237556
225	0xbba71fd5	-0.00510023
226	0x3bc8c041	0.006126434
227	0x3db44d59	0.088038154
228	0xbd801e20	-0.06255746
229	0xbd896023	-0.0670779
230	0xbcb449c9	-0.02200784
231	0x3db62373	0.0889348
232	0x3e0e32a9	0.13886513
233	0x3c808e5e	0.015692886
234	0x3da21952	0.07914986
235	0xbd06490c	-0.032784507
236	0x3d5471df	0.05186641
237	0x3e01bb53	0.12669115
238	0x3d68ac29	0.05680481
239	0x3e44dbf4	0.1922453
240	0x3e1e5dd4	0.1546548
241	0xbdcc822b	-0.09985765
242	0x3d700cf6	0.05860611
243	0xbda388d2	-0.07985081
244	0x3e0256c4	0.12728411
245	0x3e576260	0.21033621
246	0x3dc3b8c1	0.095567234
247	0x3df6a5e5	0.120433606
248	0xbd5f41e5	-0.0545062
249	0x3d3c4855	0.04596742
250	0xbcd497dc	-0.025951318
251	0x3e5359ad	0.20639677
252	0xbd4c19a5	-0.049829144
253	0x3dff2f80	0.12460232
254	0x3d06daa3	0.032923352
255	0x3d329022	0.043594487

lstm.weight_ih_l1 f4 [256, 64]
0	0xbbec8273	-0.007217699
1	0xbdaa7940	-0.08323908
2	0xbcfd5c17	-0.0309277
3	0xbdbd80dd	-0.09253094
4	0x3dafdd39	0.08587117
5	0xbd666045	-0.056244154
6	0xbe043ebc	-0.12914556
7	0x3b70f32d	0.0036766038
8	0x3e2487c1	0.16067411
9	0x3c9feddd	0.019522602
10	0xbdd12dc8	-0.1021381
11	0xbd6d8a5c	-0.057993278
12	0x3d9b9171	0.075961
13	0x3d8d456e	0.06898008
14	0xbcba7ebb	-0.022765508
15	0xbd6c3e65	-0.05767669
16	0x3cf9c272	0.030488227
17	0xbd8179f7	-0.06322091
18	0x3cf3b458	0.02974908
19	0xbe692c1d	-0.22770734
20	0xbdc5184c	-0.09623775
21	0xbc99685b	-0.018726518
22	0xbdacc9dd	-0.0843694
23	0xbcce36de	-0.025172647
24	0x3da67634	0.08128014
25	0x3c65fee8	0.014037825
26	0x3e1b67d5	0.15176328
27	0x3da7a9cb	0.08186682
28	0xbd0a2b6c	-0.033732817
29	0xbd8513f8	-0.06497949
30	0x3de15d6f	0.11004149
31	0xbd3b3b4f	-0.045710858
32	0x3cc3c770	0.02389881
33	0xbd3c4c6f	-0.04597133
34	0xbd87a8f3	-0.066240214
35	0x3e10be59	0.14135112
36	0x3e1f3e9f	0.15551232
37	0x3e068eaf	0.13140367
38	0x3d95f3fd	0.07321928
39	0x3dc34c74	0.09536067
40	0x3cf4f6ad	0.02990278
41	0xbd3493e8	-0.044086367
42	0xbd48f258	-0.049059242
43	0xbbebad6a	-0.0071923034
44	0x3df3f090	0.11911118
45	0x3b7c9af3	0.0038544505
46	0x3d24172a	0.040061153
47	0xbe906ecb	-0.28209528
48	0x3d9562e8	0.072942555
49	0xbdb68870	-0.08912742
50	0xbd81d135	-0.06338731
51	0xbcbe2c4a	-0.023214478
52	0x3ade49fe	0.0016959307
53	0x3dde64e4	0.10859087
54	0x3cfaa9e6	0.030598592
55	0xbe7b0dc3	-0.24516968
56	0x3e430fa9	0.19048943
57	0xbd197cee	-0.037472658
58	0xbe0e396d	-0.13889094
59	0xbe6f6626	-0.2337881
60	0xbe04b26b	-0.12958686
61	0xbe327767	-0.17428361
62	0x3dba86df	0.09107756
63	0xbd9f2b37	-0.077719145
64	0x3d38c15d	0.04510628
65	0x3d81eb43	0.06343701
66	0xbda7993e	-0.081835255
67	0xbe5227fa	-0.20523062
68	0x3c782589	0.015145668
69	0x3d89bf15	0.06725899
70	0x3d482085	0.048859138
71	0xbdc82ec9	-0.097745486
72	0xbe297769	-0.16549458
73	0x3d9498c8	0.07255703
74	0x3e434c15	0.19071992
75	0xbdb00fc9	-0.08596761
76	0x3e19abed	0.1500699
77	0xbe361b76	-0.17783913
78	0xbdca79da	-0.098865226
79	0xbdb51bd6	-0.088432
80	0x3d622d12	0.055218764
81	0xbc4382c5	-0.011933033
82	0x3d58c11d	0.052918542
83	0x3e7fb025	0.24969538
84	0x3bd0a192	0.006366917
85	0xbd7b3e8e	-0.061338954
86	0x3dabbeb3	0.08385982
87	0x3dba6fd0	0.09103358
88	0xbe03d326	-0.12873515
89	0x3c7cf6e0	0.015439719
90	0x3c8be74f	0.01707807
91	0x3dba3559	0.090922065
92	0x3d70d6bf	0.058798548
93	0x3e11cc15	0.14238007
94	0x3c46ec29	0.012141266
95	0x3d475897	0.04866847
96	0x3ddcaf17	0.10775583
97	0xbe4c9b71	-0.19981171
98	0x3a2f35b0	0.000668372
99	0xbd429083	-0.0475011
100	0xbca5d087	-0.020241035
101	0xbc8437db	-0.016139915
102	0xbcce2ed6	-0.025168817
103	0x3e102954	0.14078265
104	0x3dfd9cdc	0.12383434
105	0x3cbb14d3	0.022837078
106	0xbe126cc0	-0.14299297
107	0x3d436db5	0.047712047
108	0x3ce8682b	0.028369984
109	0x3e032404	0.12806708
110	0xbe31b3cd	-0.17353745
111	0x3e3ca21c	0.18421215
112	0x3de72049	0.11285455
113	0x3d349268	0.044084936
114	0x3d4da2ee	0.05020421
115	0x3bb58fb9	0.0055408147
116	0xbd81e77c	-0.0634298
117	0xbd9851d8	-0.074374855
118	0xbdde5362	-0.10855748
119	0xbe71fd12	-0.23631695
120	0xbc291bd6	-0.010321578
121	0xbda6f259	-0.08151693
122	0x3d9849d7	0.07435959
123	0x3db056a5	0.08610276
124	0x3da0706d	0.078339435
125	0x3d116d08	0.03550437
126	0xbd68e7f1	-0.05686182
127	0xbd306ff3	-0.043075513
128	0x3c5bfe7f	0.013427376
129	0x3dfa888e	0.12233077
130	0x3e0003f3	0.12501507
131	0xbca51611	-0.020152124
132	0x3c95de71	0.018294545
133	0xbd209b04	-0.039210334
134	0x3d872eb3	0.06600704
135	0x3cc0adb3	0.023520326
136	0xbde840f4	-0.11340514
137	0xbde735c0	-0.11289549
138	0xbe676a57	-0.22599159
139	0x3c918860	0.017765224
140	0xbd518069	-0.051147852
141	0xbe123f35	-0.14281924
142	0xbd503af7	-0.050837483
143	0x3ddded3c	0.108362645
144	0x3e33e150	0.17566419
145	0xbdb62887	-0.08894449
146	0x3d51cd60	0.05122125
147	0x3ce497ae	0.027904358
148	0xbdaf7dec	-0.085689396
149	0x3da8d22c	0.08243212
150	0xbe0b1aa9	-0.13584389
151	0x3d71e217	0.059053507
152	0x3dd364d2	0.10321964
153	0xbcd50a02	-0.026005749
154	0x3d176244	0.036958948
155	0x3d8acb0e	0.06777011
156	0xbbcf079c	-0.006318046
157	0x3d103124	0.035203114
158	0xbc1ef4bb	-0.009701903
159	0xbb99ab9c	-0.004689647
160	0x3db0e4c1	0.08637381
161	0xbce49413	-0.027902639
162	0xbd9172e2	-0.0710199
163	0xbe1f96db	-0.1558489
164	0xbd0d8046	-0.03454616
165	0x3e075a39	0.13218011
166	0xbd996d8a	-0.07491596
167	0xbd80766d	-0.06272588
168	0xbe019225	-0.12653406
169	0xbc6b8f1c	-0.014377382
170	0x3d9818ab	0.0742658
171	0x3e1de068	0.15417635
172	0x3ce69aec	0.028150044
173	0x3cee6417	0.029100461
174	0xbcd06167	-0.02543707
175	0xbdba61a2	-0.09100653
176	0x3dd237d7	0.10264557
177	0x3e1926db	0.14956228
178	0x3cce0e65	0.025153348
179	0xbd92423d	-0.0714154
180	0xbb400218	-0.0029298123
181	0xbc876365	-0.016526887
182	0xbd9493a6	-0.07254724
183	0xbc8079de	-0.01568311
184	0x3dd0e378	0.10199636
185	0x3d9764cd	0.07392273
186	0xbe01d54d	-0.12679024
187	0x3bc6bb4a	0.006064807
188	0xbb1db954	-0.0024066763
189	0x3d2ad81b	0.04171
190	0x3d8738c3	0.06602623
191	0xbd7604d4	-0.0600632
192	0xbe4c79d6	-0.19968352
193	0x3cde616f	0.02714607
194	0x3da7877b	0.08180138
195	0x3d54013e	0.051758997
196	0x3e2e232e	0.17005607
197	0xbdabc621	-0.083873995
198	0xbda79799	-0.08183212
199	0xbe0b5a44	-0.13608652
200	0x3d214f80	0.039382458
201	0x3d61ab78	0.055095166
202	0x3ea1f0b6	0.3162896
203	0xbdcb5100	-0.09927559
204	0x3cbcf0c8	0.023064032
205	0xbd06af5a	-0.032882072
206	0x3c1a7008	0.009426124
207	0xbdd14c84	-0.10219672
208	0xbd0fe032	-0.03512592
209	0xbca06cb9	-0.019583093
210	0xbd9b180c	-0.07572946
211	0x3e2f5f73	0.17126255
212	0x3dc6b473	0.09702387
213	0xbdf6c7ba	-0.120498136
214	0xbcee4ef3	-0.02909038
215	0xbd77f853	-0.060539555
216	0x3da4098b	0.08009633
217	0xbd15d78d	-0.03658252
218	0x3dd02b6e	0.101645336
219	0xbcb71d6a	-0.022352893
220	0x3d50a467	0.050938036
221	0x3dd16dfa	0.102260545
222	0x3bd712b0	0.006563507
223	0x3d948baa	0.07253201
224	0x3d9e853a	0.07740255
225	0x3d653460	0.05595815
226	0xbdaf7431	-0.085670836
227	0xbd34c8e3	-0.044136893
228	0x3e27c4f8	0.16383731
229	0xbdf20b6e	-0.11818586
230	0xbe20c074	-0.15698415
231	0xbd9761a6	-0.07391672
232	0x3d83116a	0.06399806
233	0xbdcd3a06	-0.10020833
234	0x3c350bb7	0.011050156
235	0xbcd6c7ad	-0.02621826
236	0x3d79e430	0.061008632
237	0xbddebd99	-0.10876007
238	0xbe37aa66	-0.17936096
239	0xbccc1998	-0.024914548
240	0xbd9b8772	-0.075941935
241	0x3e18b822	0.14913991
242	0x3e03881a	0.12844887
243	0x3d803e72	0.062619105
244	0x3d905640	0.07047701
245	0x3daa2d9c	0.083094805
246	0xbdc75404	-0.097328216
247	0x3d3061c9	0.043062005
248	0xbc88d28d	-0.016701961
249	0x3cd3f363	0.025872892
250	0xbcce1ba5	-0.025159666
251	0xbca75ca4	-0.020429917
252	0x3e06b03a	0.13153163
253	0x3d8cc7db	0.06874057
254	0xbc280544	-0.010255162
255	0xbd5dd95b	-0.054162364

lstm.weight_hh_l1 f4 [256, 64]
0	0xbdf1afb7	-0.11801093
1	0x3d6d73b1	0.05797166
2	0x3d1eac1e	0.038738362
3	0xbc91aa16	-0.017781299
4	0x3e6aae35	0.22918017
5	0xbd3094a2	-0.043110497
6	0x3d555b25	0.052088875
7	0xbdecc9f8	-0.1156196
8	0xbdf51c48	-0.11968285
9	0xbb631e92	-0.0034655672
10	0x3e329d2e	0.17442772
11	0xbda42200	-0.080142975
12	0xbcc2cb44	-0.023778565
13	0xbda5be58	-0.08092946
14	0x3d05dcd1	0.03268129
15	0xbd9314ec	-0.07181725
16	0x3dc8615f	0.09784197
17	0x3bc7836f	0.006088666
18	0x3d86a953	0.06575265
19	0x3ca33044	0.019920476
20	0x3d53567d	0.051596154
21	0x3d00bba7	0.03142896
22	0xbd5f2015	-0.054473955
23	0x3dd7b5c4	0.10532716
24	0xbe02f85d	-0.12790056
25	0xbd4cb120	-0.049973607
26	0xb946eee9	-0.00018971752
27	0x3e4310cb	0.19049375
28	0x3e397a98	0.18113172
29	0xbda721e0	-0.08160758
30	0xbdef8586	-0.116953894
31	0xbe06e02c	-0.13171452
32	0x3e44ec1e	0.19230697
33	0xbd77fe22	-0.060545094
34	0x3e05f9d2	0.1308358
35	0x3cedaaa8	0.02901204
36	0x3d72f94f	0.05931979
37	0xbde7f88d	-0.11326704
38	0xbd988ecb	-0.074491106
39	0x3d7f30a3	0.062302243
40	0xbdfb111a	-0.12259121
41	0xbcd01490	-0.02540043
42	0xbc9ba2d6	-0.018998545
43	0x3de683ea	0.11255629
44	0xbda39c66	-0.07988815
45	0xbd807c90	-0.062737584
46	0x3811a8e2	3.472798e-05
47	0x3d1c1a60	0.03811109
48	0x3ccc4dff	0.024939535
49	0xbb547fbd	-0.003242477
50	0x3cd5a450	0.026079327
51	0xbdef3e5b	-0.11681815
52	0x3d589042	0.05287195
53	0xbcd0d48e	-0.025491979
54	0xbd0b4235	-0.033998687
55	0x3e4191c0	0.18903255
56	0xbe07f248	-0.13276017
57	0xbdc47fd1	-0.095946915
58	0x3dfd7391	0.12375558
59	0x3c82df98	0.015975758
60	0xbddfd8cd	-0.10930023
61	0x3d29459e	0.041326158
62	0xbd6b5921	-0.057458047
63	0x3dafeb41	0.08589793
64	0x3e36d88c	0.17856044
65	0x3d47342b	0.048633736
66	0xbe130a4a	-0.14359394
67	0xbd1d8e94	-0.03846605
68	0xbda46d1f	-0.08028626
69	0xbd215f39	-0.039397452
70	0x3cc4592e	0.023968305
71	0xbdef8b53	-0.11696496
72	0xbde5fb23	-0.11229541
73	0xbc6c8197	-0.0144351935
74	0xbd00556d	-0.03133147
75	0xbe6c19fe	-0.2305679
76	0xbcc05264	-0.023476787
77	0x3d740f98	0.059585184
78	0x3c7e1154	0.015507061
79	0xbc82a6b1	-0.015948625
80	0xbd592bbf	-0.053020235
81	0x3daee97a	0.08540626
82	0x3e091845	0.13388164
83	0x3d1653a9	0.03670088
84	0x3da8fcca	0.08251341
85	0x3e27c467	0.16383515
86	0xbc2a7396	-0.010403534
87	0xbdb80dda	-0.08987017
88	0x3e191c22	0.14952138
89	0xbe0971a3	-0.13422255
90	0x3d4b31f0	0.04960817
91	0x3d570c1d	0.052501787
92	0x3c9fbe86	0.019500028
93	0x3b718758	0.0036854353
94	0xbe003c38	-0.12522972
95	0x3e0aa746	0.13540372
96	0xbd6c78d1	-0.057732407
97	0x3cbe18bf	0.02320516
98	0x3d076b6e	0.033061437
99	0xbd34811a	-0.044068433
100	0xbdf99ba9	-0.12187893
101	0x3d94d59c	0.07267305
102	0xbd339cd3	-0.04385073
103	0x3e25b24a	0.16181293
104	0x3d8da114	0.06915489
105	0x3d4b1748	0.04958275
106	0xbe1c0440	-0.15235996
107	0x3d35e1a8	0.044404656
108	0xbd980401	-0.07422639
109	0xbe4c0ba3	-0.19926314
110	0x3d09c8a0	0.033638597
111	0x3d7423bb	0.059604388
112	0x3dffedd8	0.12496537
113	0xbdd68ed5	-0.10476462
114	0x3e85e4b3	0.26151046
115	0x3e19233b	0.14954846
116	0xbdd6cd89	-0.104884215
117	0xbde13058	-0.10995549
118	0xbd278dd1	-0.04090673
119	0xbcc3f603	-0.023921018
120	0xbc888301	-0.01666403
121	0xbe126cf6	-0.14299378
122	0x3cea531d	0.028604085
123	0xbd51c308	-0.051211387
124	0xbe94af18	-0.29039836
125	0x3da0b719	0.07847423
126	0xbd88035e	-0.06641267
127	0xbbfbe7d8	-0.00768755
128	0xbc145a93	-0.009054798
129	0x3e39e9d2	0.18155602
130	0x3db5f46a	0.08884509
131	0xbd25207b	-0.04031418
132	0xbc8601b6	-0.016358238
133	0x3b018fee	0.0019769627
134	0x3cb16b94	0.021657743
135	0xbdc76b37	-0.097372465
136	0x3d006677	0.031347718
137	0x3de6a557	0.11262005
138	0xbe04676b	-0.12930076
139	0x3e559b72	0.20860079
140	0x3e71ea44	0.23624521
141	0xbe65920d	-0.22418995
142	0xbe826ac2	-0.25472075
143	0xbe04c6f9	-0.12966527
144	0xbdf9f7e7	-0.12205487
145	0xbc47c71d	-0.012193468
146	0x3e96065a	0.2930172
147	0xbc8d4e97	-0.017249389
148	0x3e86dc79	0.26340082
149	0xbdd938ca	-0.10606535
150	0xbdfd3fb4	-0.12365666
151	0x3c876aa3	0.01653034
152	0xbbcc54cf	-0.006235696
153	0xbe85f033	-0.2615982
154	0x3e05dd8b	0.13072793
155	0x3cc7e8de	0.024403032
156	0xbd23d8f6	-0.040001832
157	0x3db7ba26	0.08971052
158	0x3cb75343	0.02237857
159	0x3d4ce66b	0.05002443
160	0x3d15ac8d	0.03654151
161	0xbbd3c8fe	-0.006463169
162	0xbe047fbd	-0.12939353
163	0x3d10c42f	0.035343345
164	0xbeba3a6d	-0.363727
165	0xbe1e55f2	-0.15462473
166	0xbd86b9fe	-0.06578444
167	0xbe06e96e	-0.13174984
168	0xbe0a23bf	-0.13490199
169	0x3d457ce1	0.048214797
170	0xbdd5e940	-0.104448795
171	0x3dfb93a9	0.12284023
172	0x3c1eb939	0.009687715
173	0xbdfc67a8	-0.12324458
174	0xbc982922	-0.018574301
175	0x3e01541c	0.12629741
176	0xbe27d65d	-0.16390367
177	0xbddf8486	-0.10913949
178	0x3b255c7f	0.0025232134
179	0x3d9f82ce	0.07788621
180	0x3d803e25	0.06261853
181	0xbe763c5f	-0.24046467
182	0xbd2bc2df	-0.04193389
183	0xbd38b7d5	-0.04509719
184	0x3de4295f	0.111407034
185	0xbaa5a6d6	-0.0012638222
186	0xbc8103b9	-0.015748845
187	0xbd7dcb08	-0.061961204
188	0x3e05f914	0.13083297
189	0x3daf0244	0.08545354
190	0xbda66e92	-0.08126558
191	0xbd787152	-0.060654946
192	0x3e1e9971	0.15488221
193	0x3d63b4e4	0.055592433
194	0xbdc56d0d	-0.096399404
195	0x3d5a3628	0.053274304
196	0x3dee3e95	0.1163303
197	0x3d0cf472	0.03441281
198	0xbe013b5d	-0.12620302
199	0xbd314c46	-0.04328563
200	0xbe27b753	-0.16378526
201	0x3c0d07ac	0.008607786
202	0xbdd34998	-0.10316771
203	0xbd44160a	-0.04787258
204	0xbbbb4c75	-0.0057159015
205	0xbd1c5df7	-0.03817555
206	0xbe062573	-0.13100223
207	0xbdba5bec	-0.09099564
208	0xbd7c8fd1	-0.06166059
209	0xbc9e6eb4	-0.019339897
210	0x3ccab3bb	0.024743905
211	0xbe0c5bac	-0.13706845
212	0xba931c6b	-0.0011223679
213	0x3d6ede90	0.05831772
214	0x3d9638e7	0.07335072
215	0x3cc117b0	0.023570865
216	0xbdf0aba1	-0.117514856
217	0x3dbba8b3	0.09163036
218	0xbddaee22	-0.106899515
219	0xbd8a318b	-0.06747731
220	0x3cfb9448	0.030710354
221	0x3ce7fda4	0.028319187
222	0xbd167aef	-0.036738332
223	0x3c4b1ee9	0.012397506
224	0xbd0d17ee	-0.03444665
225	0x3d34dc6b	0.04415552
226	0xbdddde9c	-0.10833475
227	0x3d100332	0.035159297
228	0xbdfd0963	-0.12355306
229	0xbdf83c09	-0.12120826
230	0x3daf0149	0.08545167
231	0x3c43e52b	0.011956493
232	0x3cded15e	0.027199443
233	0xbd400cb6	-0.046887122
234	0x3d8da26f	0.069157474
235	0x3c4b92c2	0.0124251265
236	0xbd0e5b65	-0.03475513
237	0x3e1573c1	0.14594938
238	0xbb05cb3c	-0.0020415327
239	0x3da2a5e7	0.079417996
240	0xb974d6a1	-0.00023349609
241	0x3df26543	0.118357204
242	0x3ce0acee	0.02742621
243	0xbda12b96	-0.078696415
244	0x3bb1708d	0.0054150284
245	0xbde76fdb	-0.113006316
246	0x3e168edf	0.14702938
247	0x3da6e0f5	0.08148376
248	0xbd8c263c	-0.0684323
249	0x3ccb2d82	0.024801973
250	0x3a4fd86a	0.00079286715
251	0xbdbc6789	-0.09199435
252	0xbc044c81	-0.008074881
253	0x3d54cd71	0.051953737
254	0xbc9f7612	-0.01946548
255	0x3ca0c3e1	0.019624652

lstm.bias_ih_l1 f4 [256]
0	0xbca87a74	-0.020566203
1	0x3db53647	0.08848243
2	0x3d9bfcb0	0.07616556
3	0xbbe0ecd1	-0.006864168
4	0x3d385c5e	0.045009963
5	0x3d585c17	0.0528222
6	0xbd7480c6	-0.05969312
7	0x3dcae08a	0.09906109
8	0xbd5b36c9	-0.053519044
9	0x3cd8501e	0.02640539
10	0x3c83af15	0.016074697
11	0x3d4884fd	0.048954953
12	0xbd278556	-0.040898643
13	0xbd56da60	-0.052454352
14	0x3d4984e9	0.04919902
15	0xbcaffa73	-0.021481728
16	0xbd967947	-0.073473506
17	0x3def8751	0.116957314
18	0xbdbdc0bf	-0.09265279
19	0xbce9b79f	-0.02852994
20	0x3e2e887f	0.17044257
21	0x3dfc1051	0.123077996
22	0xbd6cd986	-0.057824634
23	0x3ccb3d78	0.024809584
24	0x3d9ea808	0.07746893
25	0x3db0a0d1	0.08624423
26	0x3dd77322	0.10520007
27	0x3d7be549	0.06149796
28	0xbcde3bdf	-0.027128158
29	0x3e2b4f77	0.16729532
30	0x3c88f4ac	0.016718231
31	0x3e1b4bb2	0.15165594
32	0x3e011aec	0.12607926
33	0xbd9cfcb9	-0.076653905
34	0x3e29aab1	0.1656902
35	0xbd995be9	-0.074882336
36	0xbded6540	-0.115915775
37	0x3d871a09	0.06596763
38	0xbd88fcda	-0.066888526
39	0x3ba802a2	0.005127267
40	0xbcc844c5	-0.024446854
41	0x3d4556f6	0.048178636
42	0xbd0463cc	-0.032321736
43	0xbdbccbf2	-0.09218587
44	0xbc800ab0	-0.015630096
45	0xbd730986	-0.059335254
46	0x3d46ade9	0.048505697
47	0x3ca93890	0.020656854
48	0xbd910636	-0.07081263
49	0x3df700c7	0.12060695
50	0xbda48e97	-0.08035009
51	0xbde14667	-0.10999756
52	0x3c02f04a	0.00799186
53	0x3b1ec20e	0.0024224552
54	0x3e104bc5	0.14091404
55	0x39b757e6	0.0003496997
56	0xbde2e312	-0.110784665
57	0x3d08ea34	0.03342648
58	0xbca93c3f	-0.02065861
59	0x3cc614b3	0.024179792
60	0x3c69496f	0.014238699
61	0xbd895782	-0.06706144
62	0x3dcaa110	0.098940015
63	0xbdb5ff9a	-0.08886643
64	0xbc1e6fed	-0.00967024
65	0x3d0787fc	0.03308867
66	0x3d95e69f	0.07319378
67	0x3e022771	0.12710358
68	0x3da9db13	0.08293738
69	0xbb78a45b	-0.003793976
70	0xbcda9443	-0.026682025
71	0x3e0c748f	0.13716339
72	0x3d9b5a32	0.07585563
73	0xbdef6801	-0.11689759
74	0x3d8e5234	0.06949273
75	0x3df68eec	0.12038979
76	0xbbe7752f	-0.00706353
77	0xbde6cb9b	-0.112693034
78	0xbdcf3f2d	-0.10119472
79	0x3dfbc386	0.122931525
80	0x3deff216	0.11716096
81	0xbdae4560	-0.08509326
82	0x3db5f92a	0.08885415
83	0x3bbe603e	0.005809813
84	0xbbe4b6cd	-0.0069797994
85	0x3dc049e0	0.093890905
86	0xbdba5e33	-0.09099998
87	0xbd55821f	-0.052126046
88	0x3cf7b384	0.030236967
89	0xbce312b5	-0.027718881
90	0xbdab7f6e	-0.08373915
91	0x3e045faf	0.12927125
92	0xbda42107	-0.08014112
93	0x3dd4f364	0.103979856
94	0x3b2b3558	0.0026124325
95	0xbd020d5c	-0.03175102
96	0x3db77fc4	0.08959916
97	0x3dd850e6	0.10562305
98	0xbe071db1	-0.1319492
99	0xbc8c52b0	-0.017129272
100	0x3e2098b7	0.15683256
101	0xbcd938a7	-0.026516272
102	0xbdd72485	-0.105050124
103	0xbd776fb8	-0.060409278
104	0xbe109d28	-0.1412245
105	0x3dc13d7b	0.094355546
106	0xbd40e9dd	-0.04709803
107	0xbce489d3	-0.027897751
108	0x3cde6fea	0.027152974
109	0x3ddb2034	0.10699502
110	0xb869bbb4	-5.572634e-05
111	0x3da76d10	0.08175099
112	0xbd1ef88f	-0.038811263
113	0x3dff61ce	0.12469827
114	0xbd8446ba	-0.064588025
115	0xbc814604	-0.015780456
116	0x3d6bbe0e	0.057554297
117	0x3dbd7451	0.09250701
118	0xbd0fdeba	-0.035124518
119	0x3c1d4ff2	0.00960158
120	0x3c68aede	0.014201848
121	0x3dc607b2	0.096694365
122	0x3dc9b43e	0.098488316
123	0x3d650445	0.055912275
124	0xbe1463d9	-0.14491214
125	0xbd886f90	-0.06661904
126	0x3c3218e4	0.010870192
127	0xbde1a354	-0.110174805
128	0x3d41c993	0.047311377
129	0xbdae4104	-0.085084945
130	0x3d9fbc92	0.07799639
131	0x3cedbcfb	0.029020777
132	0x3b4e2fae	0.0031461525
133	0x3c881889	0.016613262
134	0x3cba37e1	0.022731723
135	0x3d95a903	0.07307627
136	0xbdd05487	-0.10172372
137	0x3dd76a7f	0.105183594
138	0x3dd97636	0.1061825
139	0xbd99b4e7	-0.075052075
140	0x3d820f99	0.06350631
141	0xbdb0fc70	-0.08641899
142	0x3d8a50e8	0.06753713
143	0x3b42794a	0.0029674345
144	0x3d1994d2	0.03749544
145	0x3dcc0f03	0.09963801
146	0x3d310693	0.04321916
147	0xbd3f496b	-0.046700876
148	0xbda4aa2a	-0.08040269
149	0x3ded8471	0.11597527
150	0xbd4d3735	-0.050101478
151	0x3cf78c96	0.030218404
152	0x3dc9c368	0.09851724
153	0xbda0668a	-0.07832058
154	0xbdbedc5e	-0.093193755
155	0xbd1671ae	-0.036729507
156	0x3c5c2ff0	0.013439164
157	0x3da5547f	0.08072757
158	0xbd845cbb	-0.064629994
159	0x3dbc6ec5	0.09200815
160	0x3cd21d75	0.025648812
161	0x3d5bf905	0.05370428
162	0xbd1a2153	-0.037629437
163	0xbd7f434e	-0.062320046
164	0x3c6b1030	0.014347121
165	0xbd5de849	-0.054176603
166	0x3dc39d3c	0.095514745
167	0x3bfbb101	0.0076810126
168	0xbd69a85c	-0.057045326
169	0x3dc9d290	0.09854615
170	0x3d022cb5	0.031780917
171	0x3ddbe093	0.107361935
172	0xbdaaf12d	-0.08346782
173	0x3daa80ee	0.08325373
174	0x3e001117	0.1250652
175	0xbd6704b6	-0.056400977
176	0x3c873a5e	0.016507324
177	0x3dd80031	0.105469115
178	0xbdb56238	-0.08856624
179	0xbda5e169	-0.08099634
180	0x3d8dcdee	0.069240436
181	0x3b98bb5f	0.0046610082
182	0xbd640cf3	-0.05567641
183	0xbd51b745	-0.05120017
184	0x3dbb9c66	0.0916069
185	0x3d1541da	0.036439754
186	0x3d4f621b	0.05063067
187	0xbd7d2c2c	-0.061809704
188	0x3db20a4e	0.08693372
189	0xbdbc4eed	-0.091947414
190	0x3dcf881a	0.10133381
191	0xbd5c62c5	-0.05380513
192	0x3dc93775	0.09825031
193	0xbc849a71	-0.016186925
194	0xbd2cb805	-0.042167682
195	0xbdcfe87e	-0.10151766
196	0xbca18daf	-0.01972088
197	0x3d6203fd	0.055179585
198	0x3d9bf844	0.07615712
199	0xbca86aff	-0.020558832
200	0x3c0572eb	0.008145074
201	0xbbf9638b	-0.0076107434
202	0x3dbdffdb	0.09277316
203	0x3e04194b	0.12900274
204	0x3dbcf3b7	0.092261724
205	0xbdeac610	-0.11463559
206	0xbc1aa023	-0.009437594
207	0x3dce2ea8	0.10067493
208	0x3de8d03d	0.11367843
209	0xbae88d02	-0.0017742219
210	0x3dac064b	0.08399638
211	0xbd2969b8	-0.041360587
212	0x3e0912db	0.13386099
213	0xbd1bc5c5	-0.038030405
214	0x3ddd9c40	0.10820818
215	0x3df82610	0.12116635
216	0xbaeac3cb	-0.0017911134
217	0x3d2cc62a	0.04218117
218	0x3d865c13	0.065605305
219	0x3d087d84	0.033322826
220	0xbd0d01b3	-0.03442545
221	0xbd56c889	-0.05243734
222	0xbd82b041	-0.06381274
223	0x3cda2803	0.026630407
224	0xbd7189ad	-0.05896919
225	0xbdc4afb0	-0.09603822
226	0xbd8d9ae7	-0.06914311
227	0xbdd12d74	-0.102137476
228	0x3c1c3463	0.009533974
229	0x3d052b74	0.032512143
230	0x3e076c0e	0.13224813
231	0x3c0761c3	0.008263054
232	0x3cacb76f	0.021083562
233	0x3dbdfd7e	0.092768654
234	0x3df4c969	0.119524784
235	0xbc714384	-0.01472557
236	0x3d5711f7	0.052507367
237	0xbda0706f	-0.07833945
238	0xbcdbdb58	-0.02683799
239	0x3cfd143c	0.030893438
240	0x3dd512d4	0.10403982
241	0x3d69474c	0.05695276
242	0xbd80f0a5	-0.06295899
243	0x3d432372	0.047641225
244	0xbd8fdb58	-0.070242584
245	0xbd7de3f0	-0.061984956
246	0x3d62e74c	0.055396363
247	0x3dbb05a6	0.09131937
248	0x3da999ea	0.0828131
249	0x3e1acdcb	0.15117566
250	0xbd59ab66	-0.053141974
251	0x3c8454a9	0.01615365
252	0xbcd2d7eb	-0.025737723
253	0xbd6b548a	-0.05745367
254	0xbdb02e46	-0.08602576
255	0x3e0b1c17	0.13584934
