output/LSTM2CNN/LSTM2CNN_adam_128_500/model/LSTM2CNN_epoch_48.pth (torch, 350382 bytes, 16 tensors)

lstm.weight_ih_l0 f4 [256, 10]
000000 2d 0d e3 3d e6 6e 15 3e 58 eb 10 3e c4 81 60 3c
       0.110864975 0.14593086 0.14152277 0.013702814
000010 d1 62 e0 bd b0 bf 0f 3e b4 14 2f 3e a8 ef aa bd
       -0.10956348 0.14037967 0.17097741 -0.08346492
000020 02 c3 54 3d b2 66 ae bd 8f 79 19 bd b9 31 b7 3c
       0.051943786 -0.08515681 -0.037469443 0.022362577
000030 c4 2c 71 3d 36 9c 92 3d 5d 42 f0 bd c2 63 1d bd
       0.058880582 0.07158701 -0.11731408 -0.038425215
000040 0d 6e 2b bb 75 53 fd bc 77 bc f3 bd 5f 95 90 bc
       -0.0026158125 -0.030923584 -0.11901181 -0.01764935
000050 79 6c 06 be 45 d1 bc 3c 06 8b 93 bd 64 8b 19 3d
       -0.13127317 0.023049006 -0.07204251 0.03748645
000060 f8 65 4d 3d 73 73 ca bc 40 70 aa bc da ed 11 be
       0.050146073 -0.024713254 -0.020805478 -0.1425089
000070 be 41 f7 bd d9 59 03 be 83 61 82 3c 9e 03 fc bd
       -0.12073086 -0.12827243 0.015915638 -0.123053774
000080 6d 14 d3 3d 78 d1 be b6 d8 ea 00 be 7f f8 95 bc
       0.1030663 -5.6868266e-06 -0.12589586 -0.018306969
000090 88 48 0f 3d ea 51 e5 bd f7 44 be 3d 98 96 99 3d
       0.03498128 -0.111972645 0.09290498 0.074994266
0000a0 d4 b7 92 bd 86 0d c4 3b f8 16 bc 3d 88 7e 0e 3e
       -0.07163969 0.0059830574 0.091840684 0.13915455
0000b0 b0 94 16 bd 58 99 ec 3d 2f 6a b5 bd 11 a5 cb 3c
       -0.036762893 0.115526855 -0.088581435 0.024858983
0000c0 ad 07 9b 3c 3f 77 bd bc 5c af a7 3d 0c 45 d8 bd
       0.018924559 -0.02312815 0.08187744 -0.10560045
0000d0 41 ac a4 3d 2b 61 82 bd 25 9e 1b bd 9a 13 c9 bd
       0.08040667 -0.063661896 -0.037992615 -0.09818192
0000e0 93 93 a0 bd 8c b8 d5 3d 3d ee 0d bd b6 dd 01 be
       -0.078406475 0.1043559 -0.03465103 -0.12682232
0000f0 c3 ea ed bc 35 a5 f4 bc 7b b0 7f bd a6 6c d1 bc
       -0.029042607 -0.029863933 -0.062424164 -0.025564503
000100 5b d7 2f 3e 3f 3a f7 bd 84 0e 9b bd 09 ee 38 3e
       0.17171995 -0.120716564 -0.07571128 0.18059553
000110 00 aa 23 3e 27 4b af 3c 89 0b 01 3d c9 bb cc 3d
       0.15982819 0.02139814 0.03150514 0.09996755
000120 72 03 72 3c e4 6c 0c be 7c 5b 74 bd d8 44 07 bc
       0.014771329 -0.13713413 -0.05965756 -0.00825616
000130 34 ae b3 3d e5 f2 a7 bd 4e 2d 9a bd 34 fa 14 bd
       0.08773461 -0.08200625 -0.075281724 -0.036371425
000140 95 5f 00 be 00 38 76 ba 65 70 ce 3c 09 e8 10 bd
       -0.12536462 -0.00093925 0.025200078 -0.035377536
000150 5c 44 ba bd 83 bb 0e bc 74 ca 3c 3d 60 2d 01 b8
       -0.0909507 -0.008711698 0.04609151 -3.0798255e-05
000160 18 0f ba bc 0b 98 8e bd 5b 1b 89 bc d4 93 eb bc
       -0.022712275 -0.06962594 -0.016736677 -0.028757013
000170 e6 98 f4 bd 2f c8 20 bd 8b aa 33 bd 03 62 92 bc
       -0.119432256 -0.03925341 -0.043863814 -0.017869001
000180 db 80 9b 3d 80 a7 23 3d a5 8b db 3d 23 6a 18 3e
       0.075929366 0.039954662 0.107199945 0.14884238
000190 3f f6 99 3d a4 23 9b bb ec d5 10 be 4a 79 d7 bc
       0.07517671 -0.0047344733 -0.14144105 -0.026302952
0001a0 5f f7 0a be e0 03 a6 3b 1b 4d 24 bd 99 92 3d be
       -0.13570927 0.00506638 -0.040112596 -0.18512954
0001b0 35 ff b0 3d 3d 27 cf 3d e0 91 69 bd 20 f4 da bd
       0.08642427 0.10114906 -0.057023883 -0.106910944
0001c0 0d 0b ea bd e2 f5 89 3d c3 01 63 bd 6d 4b 13 3d
       -0.11427889 0.067363515 -0.055421602 0.035960604
0001d0 9c b1 7b 3d b8 37 06 3e 79 24 ef 3d 10 e1 d9 3d
       0.06144868 0.13107193 0.116768785 0.106386304
0001e0 ee 0c 6c 3b fb e5 b6 bc eb 4a 0a bd 3e 3c 59 bc
       0.003601845 -0.02232646 -0.033762854 -0.013258992
0001f0 9c b2 0e bc c6 b8 8b bc 16 49 aa bd 99 c1 04 3e
       -0.008709576 -0.01705588 -0.08314721 0.12964477
000200 d5 a8 11 3e ea af 95 bd 9a 21 a9 bd ca 67 29 3d
       0.1422456 -0.073089436 -0.08258362 0.041358747
000210 09 1e d2 bd 5f f3 92 3c 54 c0 87 3d 76 f6 bb bd
       -0.10259635 0.017938314 0.066284806 -0.09177868
000220 4a ba a6 3d 28 31 42 bd 47 02 08 3d b0 d7 49 bd
       0.081410006 -0.04741016 0.033205297 -0.04927796
000230 c1 dc d9 bc fe e6 c6 3d 51 a5 95 3d 02 47 d6 bb
       -0.026594521 0.09712027 0.07306922 -0.0065392265
000240 8f de 88 bd 31 fa 19 3e 77 83 bb 3d 2f 99 ca bc
       -0.06683075 0.15036847 0.09155934 -0.024731247
000250 c2 77 3f 3c 20 0e 17 be 33 86 1f bd 58 fc 69 bd
       0.011686267 -0.14751482 -0.03894634 -0.05712542
000260 a2 3a 01 be fb fc c6 3d d7 12 a0 3d 1d 0a 1d be
       -0.12620023 0.09716221 0.078160934 -0.15335889
000270 e1 b9 45 be dc 10 85 bd 73 ef 29 3e b7 ff 63 3b
       -0.19309188 -0.06497356 0.16595249 0.003478987
000280 7e 23 ba bd 6f a6 90 3d a2 a5 a0 3d 5b 04 5d 3d
       -0.09088801 0.07062995 0.07844092 0.05395923
000290 04 69 e9 bb 55 a1 2f bd 52 27 cb 3b d2 d9 1b 3e
       -0.0071231145 -0.042878468 0.0061997557 0.1521981
0002a0 a2 a9 10 3d d9 b6 27 bd 86 ff 8c 3d 3e e3 8a 3d
       0.035318024 -0.04094586 0.06884675 0.06781624
0002b0 99 38 d7 3d 24 66 b7 3d a7 c5 1b 3c 2c 43 ae bd
       0.10508842 0.08955029 0.009507573 -0.08508906
0002c0 fd 10 9c bd b5 b8 8b bd 11 35 ba bc b3 90 52 bb
       -0.07620428 -0.068223394 -0.022730382 -0.0032129704
0002d0 b7 bb 25 3d 1f fa 67 3d c5 31 9c bd 3b b6 4c bc
       0.040462222 0.05663502 -0.0762668 -0.012494619
0002e0 da 3a 84 3d 4d fb 44 bd 57 c5 13 bd 57 00 ad bd
       0.064565375 -0.04809122 -0.03607687 -0.084473304
0002f0 b1 22 ce 3b cd 72 ce 3d aa 54 5f 3c a4 6f 26 be
       0.0062907566 0.1008049 0.013631025 -0.16253525
000300 9c 8e 8b 3b 53 fb 8b bd 02 4b b6 3d e4 e9 ac bd
       0.0042589437 -0.06835046 0.08901025 -0.084430486
000310 e0 d4 e2 bd 07 4d c3 3d 00 cb e1 3d 24 80 04 3e
       -0.11075759 0.09536176 0.11025047 0.12939507
000320 df 72 fd 3d e4 6d c3 3d 3c 1e 62 3d 57 0a 99 bd
       0.123754255 0.09542444 0.055204615 -0.07472675
000330 ee 71 a3 3d 47 df bf 3d 19 1f 59 3d 28 36 41 3d
       0.07980715 0.09368759 0.053008173 0.047170788
000340 43 69 0a 3e 70 36 e4 3c dd 25 d3 bc 1a 17 51 be
       0.13516717 0.02785799 -0.02577489 -0.20418969
000350 a3 1e 7c 3d a0 b2 01 bd c4 d6 f3 3d f2 90 95 3b
       0.061552655 -0.03166449 0.11906198 0.004564398
000360 d6 ed 87 bd 7c ff 9f 3d 97 fb ff 3c 6b 9e 2f 3e
       -0.066371605 0.07812402 0.031247897 0.17150275
000370 ad 94 07 3e 93 36 8e 3d ef f2 db 3d ab f9 a9 3d
       0.13240309 0.06944003 0.10739695 0.082995735
000380 07 fd 81 bb 83 dc 1f bd 7c d7 ff 3c e6 f2 8b 3c
       -0.003966931 -0.039028656 0.03123068 0.017083596
000390 fc 29 5f bd a7 c0 13 3e 1d ef ee 3d 14 e0 1b 3d
       -0.0544834 0.1442896 0.11666701 0.038055494
0003a0 8e dc 86 3d 76 0b 06 3c cc 8d bf bc 32 ae 47 3e
       0.06585036 0.008181443 -0.023383044 0.19500044
0003b0 1b 7e eb 3d b6 f6 a7 bd 4f 37 d6 bd 9c e5 7c 3d
       0.11498662 -0.08201353 -0.10459768 0.06174241
0003c0 6e 85 68 3d 94 ce 6d 3d 7c 87 18 bc ee 0e 76 bb
       0.056767873 0.058058336 -0.009309646 -0.003754552
0003d0 88 84 98 bd 66 65 a4 bd 36 2d 14 be f6 4a 05 3e
       -0.07447153 -0.08027153 -0.14470372 0.13016877
0003e0 c8 8a 0c bd 04 36 03 bc 9d 37 14 3c 31 ce d8 3d
       -0.03431204 -0.008008484 0.009046462 0.10586203
0003f0 c8 1a 28 bd a2 87 0b 3e 1b 66 0b 3c 65 74 19 bc
       -0.041041166 0.13625959 0.008508231 -0.0093661295

lstm.weight_hh_l0 f4 [256, 64]
000000 3f 16 bf 3d a6 31 99 3c 8a c9 f2 bd 65 68 6a bd
       0.09330415 0.018700432 -0.11854847 -0.057228465
000010 c5 1e 09 be af 4b 8a 3d f9 bf 12 bd 63 40 6d bd
       -0.13390644 0.06752717 -0.03582761 -0.057922732
000020 c7 58 20 bd ac 9e 0c bd d9 63 12 be 8b 95 83 bd
       -0.039147165 -0.03433101 -0.14295901 -0.064250074
000030 de 96 6e bd c0 26 ce 3d 4a 18 2d bd dd 97 57 bc
       -0.058249347 0.10065985 -0.042259492 -0.013158766
000040 8e b7 9e 3d ef b6 9e 3d 61 d9 a2 bd c1 05 83 bd
       0.07749854 0.077497356 -0.07951618 -0.06397582
000050 dd c0 9d bd ae 9b bf 3c 82 7d 68 3d 04 6e 17 3e
       -0.077028014 0.023389664 0.05676032 0.14788061
000060 eb f7 0d 3e 60 d6 f9 bb fa a5 16 be c1 d5 04 be
       0.13864104 -0.0076244324 -0.14711753 -0.12972166
000070 28 fb c5 bd 1d f7 a4 3d 5c 6c a2 3d fe 88 72 bc
       -0.09667045 0.080549456 0.07930824 -0.014803169
000080 9c 53 55 3d 70 53 e1 3c be 71 1a bd 21 a4 e3 bd
       0.05208169 0.027505606 -0.03770613 -0.111152895
000090 b0 44 34 bc 88 56 a6 3b c3 bb 87 3d 13 75 d5 3d
       -0.0110027045 0.0050762333 0.066276096 0.10422721
0000a0 1d df 19 bd b2 30 89 3d 7c b6 91 3d ce e3 05 3d
       -0.037566293 0.06698741 0.07114884 0.032687955
0000b0 4a ee 10 bd 97 ce 12 3e 35 35 c5 bc 0b 5a 96 3c
       -0.0353835 0.1433662 -0.024073223 0.018353483
0000c0 b2 81 6a bd e5 c3 d6 bd 82 cf e4 bd d3 b1 8b 3c
       -0.057252593 -0.10486583 -0.111723915 0.017052567
0000d0 56 d1 1d be cd c7 aa 3d 75 31 e7 3c d7 67 7d bd
       -0.15411887 0.0833889 0.028221825 -0.061866608
0000e0 c4 48 ee bd 69 bd 1e 3d fc 8c ab bd 2c 0e f7 3d
       -0.11634973 0.038754854 -0.083765 0.1206325
0000f0 31 9a 4f 3d ae 70 69 bd 95 c7 73 bd 1e d2 a8 3d
       0.050684158 -0.056992225 -0.059516508 0.08243202
000100 28 b0 ce ba 21 e2 96 bd 57 07 c7 bc 48 ba dd bd
       -0.0015769051 -0.073673494 -0.024295492 -0.10826546
000110 1c f9 f8 bd e6 5f d1 3b 8f c0 8c 3b 81 ed 9c 3b
       -0.12156889 0.006389606 0.0042954157 0.004789055
000120 0c 62 9c bd 9a 29 64 3d e4 d2 e9 bd 13 09 21 bd
       -0.076358885 0.055703737 -0.11417177 -0.039315294
000130 b9 10 54 3d 37 88 03 be 1d 67 4f bd fe f1 64 bd
       0.05177376 -0.1284493 -0.050635446 -0.055894844
000140 0e 19 0f 3e 2d e4 b3 3d 04 f3 93 bd c5 09 01 be
       0.13974401 0.087837555 -0.07224086 -0.12601383
000150 06 5d 20 3d cf a8 da 3d 81 90 b3 3d 96 c8 0a 3c
       0.039151214 0.10676729 0.08767796 0.008470675
000160 ac 3d e5 3d ac c4 bd bd da c1 c3 3d 53 f1 84 3d
       0.111934036 -0.09266028 0.095584586 0.064913414
000170 17 4c 95 bd bc 8a 84 3d 7d af f9 3c e3 27 99 3c
       -0.072899036 0.06471774 0.030479187 0.018695777
000180 53 99 8a 3d 0c 7e 72 bd 72 18 ce bd 68 ce 47 3d
       0.067675255 -0.05920224 -0.10063256 0.04878083
000190 04 f0 93 3d 8f 0e c8 3d 1d 56 90 bd e5 de bb bd
       0.07223514 0.09768402 -0.07047675 -0.09173373
0001a0 28 3a a5 bd de b4 54 bc 67 84 b4 bd ec c7 bf 3d
       -0.08067733 -0.012982575 -0.08814316 0.09364304
0001b0 91 cb 45 bc b3 6b 8c 3c d7 4d 2e bd 6e 54 84 3d
       -0.01207246 0.017141199 -0.042554703 0.06461416
0001c0 85 7c af 3d f3 1c 91 3b 16 d5 cd bd db d1 d2 3d
       0.08568672 0.0044285 -0.100504085 0.10293933
0001d0 aa 76 00 be 4e e6 89 3d 04 40 77 3c 03 95 90 3c
       -0.12545267 0.0673338 0.015090946 0.01764918
0001e0 a2 c6 2d 3d e3 46 4e bd dc 09 16 3d 90 7e 89 3b
       0.04242576 -0.05036057 0.036630496 0.0041959956
0001f0 24 97 df bd cd 7d c8 bd e5 7a 82 3d 19 01 c0 bd
       -0.109175 -0.097896196 0.063710965 -0.09375209
000200 3d 2c 88 bc a0 be 29 bd 0b b5 9b 3d 3f 2d a2 bd
       -0.016622657 -0.04144156 0.076028906 -0.07918786
000210 0f a6 82 bd 2a 9e 0b 3e de 88 9d bd 4c 03 9b bc
       -0.063793294 0.13634554 -0.07692121 -0.01892247
000220 5b ef 49 3d b9 95 00 3e 94 f0 c7 3d a4 10 30 be
       0.049300533 0.12557115 0.097626835 -0.17193848
000230 a0 5c a2 bc c1 30 90 3c 29 76 bd 3d 7c 9a b8 bd
       -0.019819558 0.017601373 0.09251053 -0.090138406
000240 b1 36 0b bd 52 68 a5 3c dc d1 e2 3c cc 56 4e 3c
       -0.033987705 0.020191345 0.02768796 0.012593936
000250 21 34 e2 3d fb 80 1b 3d 88 e9 26 be 93 89 1d be
       0.11045099 0.037964802 -0.16300023 -0.15384512
000260 09 31 38 3d 60 74 ef bc 84 d5 ea 3d 1d 15 2d 3e
       0.04496864 -0.029230297 0.11466506 0.16902585
000270 8e b1 21 3e c4 02 f8 bd 90 76 a8 3d 45 4a e4 bd
       0.15790388 -0.121099025 0.08225739 -0.11146978
000280 2f 65 ba 3c 1c 13 73 bd 2f 96 ac bc 30 64 0a bd
       0.022753326 -0.059344396 -0.021067707 -0.033786952
000290 8b de 83 3d ec 7d 6d bd d2 96 5c 3d 03 bf a2 bc
       0.06438931 -0.057981417 0.05385477 -0.019866472
0002a0 38 82 b2 3d 26 03 96 3d dc 89 4c b9 3d fe ef bd
       0.087162435 0.07324819 -0.00019506313 -0.11718414
0002b0 0c a6 09 3e c7 87 0f bd 53 58 75 3d 4f d5 90 3d
       0.13442248 -0.035041597 0.059898686 0.070719354
0002c0 3c 67 01 be 53 8d 4b 3e 89 b4 97 3d 01 2e ff bd
       -0.12637037 0.1987813 0.07407481 -0.124599464
0002d0 6e 37 10 3e c2 30 43 be 2a be 7d bd ad 47 0b 3d
       0.14083645 -0.19061568 -0.061948933 0.034003902
0002e0 24 7a 0f 3e f4 76 c9 bc 89 68 4a 3d 1d bc 88 bc
       0.14011437 -0.024592854 0.0494161 -0.016691262
0002f0 ef 7b 67 3e 9d d3 cc 3d 07 50 42 3e 7f 6a 86 bd
       0.2260587 0.100012995 0.1897584 -0.06563281
000300 04 17 be 3d 03 5b 06 3e ac 6e 2d bc cf 01 9f bc
       0.09281734 0.13120656 -0.010585468 -0.019410042
000310 c6 13 a7 bd a0 fc be bd 0d 84 86 bc 87 7d 3d bd
       -0.08158068 -0.09325528 -0.016420389 -0.04626229
000320 27 32 7b 3d 10 62 75 3d 86 12 aa 3c 74 aa 05 be
       0.061327126 0.059907973 0.020760786 -0.13053304
000330 17 ef c1 3d 9f bd 08 be 39 c7 ba bd f4 7c 79 3d
       0.09469431 -0.13353585 -0.0912003 0.06091018
000340 89 53 d0 bd f3 b9 03 3e 09 c7 93 bd ea df 22 bd
       -0.10172183 0.12863903 -0.07215697 -0.039764322
000350 7a 05 e1 3d 2f 5a 47 bd b9 12 69 bd b2 b6 00 3c
       0.10987373 -0.04866999 -0.05690262 0.007856058
000360 eb cb c7 bc dc 94 21 bd da c6 35 3d 6a ca 42 bc
       -0.024389228 -0.039448604 0.044379093 -0.01188908
000370 cc 51 b2 3d a0 b4 0b be c4 c0 b3 bc e4 5d de 3d
       0.08707008 -0.13643122 -0.021942504 0.10857752
000380 eb 76 84 bc 0a 64 ff bb 47 a3 90 3d a4 26 c0 3c
       -0.016169986 -0.007793908 0.07062393 0.023455925
000390 e5 84 30 bd b4 8f a2 3d 7d 2e e1 3b ea 91 34 bd
       -0.043095488 0.079375654 0.006871997 -0.044084467
0003a0 5d 66 42 bd 6d 1a 08 3e 1e e7 0f 3d e0 54 bb 3d
       -0.047460902 0.1329133 0.03513252 0.09147048
0003b0 e0 5d 03 3e 70 40 c8 bc db 1c eb 3b bb 1d b4 bd
       0.12828779 -0.024444789 0.0071750707 -0.08794733
0003c0 99 f4 8b 3c da 2c db 3d 3c 78 cb 3d 26 a4 2d 3d
       0.017084407 0.10701914 0.09935042 0.042392872
0003d0 bb e1 83 3a 70 fc 90 3c 92 1f 17 3d 0e c9 4b 3a
       0.001006178 0.017698497 0.036895342 0.0007773795
0003e0 89 e0 2f bd 43 64 a4 bc 2f f5 9c bb 25 8b 15 bd
       -0.042938743 -0.02006734 -0.0047899703 -0.03650965
0003f0 c1 ed 2c 3c c0 7a bb bd ef 45 a7 bd fb ab b7 3d
       0.010554732 -0.09154272 -0.08167636 0.089683495

lstm.bias_ih_l0 f4 [256]
000000 3a 00 83 3d f3 9f af 3d 22 8e 0f 3e 1e 26 a5 bd
       0.063965276 0.0857543 0.14019063 -0.08063911
000010 8b f6 aa bc 51 35 e3 bd 78 15 2a bd fb e9 7a 3d
       -0.020869514 -0.11094154 -0.04152438 0.061258297
000020 9d e1 a2 ba 50 fa 3d 3d 3c 46 92 bc 44 b3 82 3d
       -0.0012426857 0.046381295 -0.017855756 0.063818485
000030 f4 f5 91 bd 41 9c 36 3d 06 5e 3a 3c 0b 46 08 3d
       -0.0712699 0.04458261 0.011374956 0.033269923
000040 28 ec ce bd d2 69 80 3d 11 51 1a bd f1 02 43 3d
       -0.10103637 0.062701836 -0.037674967 0.047610227
000050 1e 7a bd bd 78 4d 91 bd 2f d1 8a bd c4 75 d0 bd
       -0.09251808 -0.07094854 -0.0677818 -0.10178712
000060 d1 32 01 3e d5 03 bd 3d 77 00 32 bc f4 3a 86 3a
       0.12617041 0.092292465 -0.010864369 0.0010240958
000070 a8 6c 17 ba 50 44 d4 ba 2b 95 90 bd 7c 29 d8 3d
       -0.0005776384 -0.0016194675 -0.070597015 0.105547875
000080 55 47 83 bd ff 91 c7 bd d0 77 f8 3d 98 dc 60 3c
       -0.0641009 -0.097446434 0.121322274 0.013724469
000090 78 70 ba 3d ed 09 f7 3d 19 e5 f4 3c e6 c7 44 3d
       0.09103483 0.1206244 0.029894399 0.0480422
0000a0 8e eb cf 3d 97 18 df 3c 6d cb 0e 3c 00 98 7a 3d
       0.1015235 0.027233405 0.008715493 0.061180115
0000b0 d9 6e 2b 3d e5 fe 82 bd 41 95 55 3d 28 1c 87 bd
       0.04185376 -0.063962735 0.052144293 -0.06597167
0000c0 79 cf 00 3e 08 b8 d9 bd aa 3e a2 bd af 60 7b 3d
       0.12579145 -0.10630804 -0.079221085 0.0613715
0000d0 70 82 c8 3d ab 12 91 3c f4 35 e7 3c 88 a2 09 3d
       0.09790504 0.017709097 0.028223969 0.033602268
0000e0 2e 33 4d 3d f2 da f7 bc f5 50 cd bd b6 09 ba 3c
       0.050097637 -0.030255768 -0.10025207 0.022709709
0000f0 5a 12 a8 3d 90 97 91 3d d0 c4 10 3d 0d 94 ef bc
       0.08206625 0.071089864 0.035343945 -0.0292454
000100 14 1b 71 bd e6 eb f6 3d 1f 70 69 bd 55 bd 06 3e
       -0.058863714 0.12056713 -0.056991693 0.13158162
000110 e0 07 e1 bd cc f1 13 3d 2d bf 27 3e df b0 bb 3d
       -0.1098783 0.036119267 0.16381522 0.09164595
000120 0b a5 9e bd c6 9d 5d 3c 29 da 49 bd 3a df c6 bc
       -0.07746323 0.013526386 -0.04928032 -0.024276365
000130 13 00 d9 bc 8b 3a 71 3d fb 67 fd 3d 80 db 2d bc
       -0.026489293 0.05889372 0.12373348 -0.010611415
000140 05 f3 9f 3d c1 27 5f bd de 96 30 bc fd d6 95 bd
       0.07810024 -0.05448127 -0.010778157 -0.073163964
000150 3c 70 f2 bc ec ef d9 3c 05 99 b0 bb 6e 3c e1 3d
       -0.029594533 0.026603661 -0.005389335 0.10997854
000160 27 93 62 bd 66 67 97 bd b3 1d ff 3d e9 e8 05 3e
       -0.055316117 -0.073927686 0.124568366 0.1307713
000170 a7 d9 eb 3d dc 10 08 3e 62 b2 1d bd cf 4c c5 3d
       0.11516123 0.13287681 -0.038500197 0.09633791
000180 eb 97 a4 3d b2 e2 92 3d 65 aa 01 3d a6 a2 fc bb
       0.080367886 0.07172145 0.03165664 -0.007709819
000190 52 84 ef 3c 06 15 fa bc 7e d0 d2 3b 17 c4 72 bd
       0.0292379 -0.030527603 0.0064335456 -0.059269037
0001a0 1b 23 74 bd a7 b2 19 3e 48 4f 0b 3e 3e 2a db 3d
       -0.05960379 0.15009557 0.13604462 0.107014164
0001b0 99 ae f1 3d d1 bc ab bc 97 7e 54 3c e2 d6 db 3d
       0.1180088 -0.020964058 0.0129696345 0.10734345
0001c0 a5 c7 53 3c 38 07 c7 bd c1 5c 18 3d 3f 69 a6 bd
       0.012926017 -0.09718174 0.037197832 -0.08125543
0001d0 4a b6 37 3d 00 d9 61 3c 62 89 0f 3d 52 0f fb 3a
       0.04485158 0.013784647 0.035043128 0.0019154346
0001e0 6a c5 87 bc 05 6d 08 3e bf 91 a5 bd 35 68 cf bd
       -0.016573627 0.13322838 -0.080844395 -0.10127298
0001f0 d7 c5 e4 3d a0 85 26 bd bc 41 28 bd 09 e4 0c 3e
       0.111705475 -0.04065478 -0.041078314 0.13758864
000200 50 7b 20 bd 82 3c d3 bd a4 a3 16 bd 3d 2e a0 bc
       -0.0391801 -0.10314275 -0.036777154 -0.019553298
000210 b2 20 dc 3d 15 36 f5 bc 08 9d 33 bd f0 68 02 3d
       0.10748424 -0.029933015 -0.04385093 0.031838357
000220 20 93 41 3d 4f 2c 92 3d d4 a0 e4 bd 00 af e4 bd
       0.04725945 0.071373574 -0.11163488 -0.11166191
000230 70 55 ba 3d 78 c6 b6 3d 5b ac 8d bd bd 81 89 bc
       0.09098327 0.08924574 -0.0691764 -0.016785497
000240 61 e4 97 bd 0d 41 c1 bc 35 38 9b bd f9 85 85 3d
       -0.07416607 -0.023590589 -0.0757908 0.06519694
000250 2f 05 f6 3d d6 94 e2 bc f0 38 03 be 53 80 ee 3d
       0.120127074 -0.027658861 -0.12814689 0.1164557
000260 68 33 b8 3d a2 6c da 3d 08 b5 64 3d d4 7d 8b 3d
       0.0899418 0.10665251 0.055836707 0.06811109
000270 24 7b 9c bd fd d4 7d 3c d7 5a 89 3d fb aa ff 3d
       -0.07640675 0.015492675 0.067067795 0.12483784
000280 d7 40 99 bd d6 df 82 3d fe 19 a3 3c 3f ac b9 bd
       -0.0748307 0.063903496 0.019909855 -0.090660565
000290 71 a8 e5 3d 06 51 c2 3d 38 c2 c8 bd bc 6d 03 3d
       0.11213768 0.0948811 -0.09802669 0.032087073
0002a0 6f 39 80 3d 75 3e a1 3d a7 62 e3 3d 0f a1 d8 bd
       0.062609546 0.07873241 0.11102801 -0.105775945
0002b0 59 67 0e 3d e2 69 df bd aa c3 45 3d 37 fc 09 be
       0.03476653 -0.109088674 0.048282303 -0.13475119
0002c0 ef a8 cc bd 6a 22 9b 3d 0c 23 24 3c a0 26 e6 3d
       -0.09993159 0.07574923 0.010018121 0.11237836
0002d0 ba 76 db bd f2 43 ad bd 30 f4 32 bd 4d cf 00 3e
       -0.10716005 -0.08460225 -0.043689907 0.12579079
0002e0 22 c6 0d bc 6b d8 ed bd 3d c5 98 bd d9 15 00 3e
       -0.008653196 -0.11613544 -0.07459495 0.12508334
0002f0 a2 89 c9 3d d9 78 9a 3d 90 ac ed 3d 66 7d 02 3e
       0.098407045 0.07542581 0.11605179 0.12743148
000300 be 71 3f 3d 23 89 e5 3c 67 16 d6 3c e1 48 ed 3d
       0.046739332 0.028019493 0.02613373 0.11586166
000310 55 5d 04 3e c3 36 6a 3d 0e 15 08 3e 26 15 f6 3d
       0.12926228 0.05718113 0.13289282 0.120157525
000320 42 94 af bb 0f 54 a6 bd c1 e0 4d 3a 61 63 69 bc
       -0.00535825 -0.08121502 0.00078536203 -0.014244885
000330 85 53 08 3d 94 10 25 bd 2e 7d cd 3c 7e af f7 bc
       0.033282775 -0.040299013 0.025084104 -0.030235048
000340 6a f3 f5 3d ff 7f fa bc 1a 0c c6 3d 33 22 85 3c
       0.12009318 -0.030578611 0.09670277 0.016251659
000350 7a 3c 88 bd 17 8e 3b 3d 1a 5c b5 bd 2f 13 0a 3d
       -0.0665216 0.045789804 -0.088554576 0.0337097
000360 16 d8 39 3d 66 7a dc bd 3f 0d b1 3b 8b 6d 0d 3e
       0.04537209 -0.10765533 0.0054031904 0.13811319
000370 51 2d 57 3d f2 ae d9 bd 42 08 ca 3c 8f 54 62 bd
       0.05253345 -0.10629071 0.02466214 -0.055256423
000380 ef d4 c7 3d a0 e7 d9 3d c9 cc d4 3d d3 9b 66 3d
       0.09757411 0.10639882 0.10390622 0.05630095
000390 30 41 da 3d 3c cc 8a 3d 01 79 6d 3d c7 c9 c4 3d
       0.10656965 0.06777236 0.057976726 0.096087985
0003a0 41 e1 47 bc 80 3a 86 bd 34 f8 18 bd b3 5f fb bc
       -0.012199701 -0.06554127 -0.03734608 -0.030685281
0003b0 99 0b a1 bd 9f 49 42 bd d5 33 0a 3e b2 a4 43 3d
       -0.0786354 -0.04743349 0.13496335 0.047764488
0003c0 c8 10 ae bc fc cb d1 3d 54 3a 51 3c ce a9 03 be
       -0.021248236 0.10243985 0.012770254 -0.12857744
0003d0 eb 89 8c 3d 03 d3 88 3d db 49 18 3e 31 c7 d2 3c
       0.06862243 0.06680872 0.14871924 0.025729747
0003e0 45 73 77 bd fd 31 15 3e 2a 76 76 bd 43 51 e9 3d
       -0.060412664 0.1456985 -0.060171284 0.113924526
0003f0 1b 22 e9 3c b0 12 f3 3c 10 64 36 bb fa b1 ed 3d
       0.028458646 0.029671997 -0.0027830638 0.11606212

lstm.bias_hh_l0 f4 [256]
000000 9e c0 15 bd 2c 56 c4 bc 3f e5 fc 3d fc 91 c1 3c
       -0.036560647 -0.023966871 0.12348413 0.023629181
000010 cf 14 99 3b 3a 7b a0 3d 9f 8f c3 3c 55 a5 e2 bd
       0.00467167 0.078360036 0.023872195 -0.11066691
000020 1a 79 13 bd 39 fb d9 3d 13 58 3e 3e f7 89 ca bd
       -0.036004163 0.1064362 0.18588285 -0.09889596
000030 f7 43 dd bd b7 7d a0 3d a9 54 9b 3d f3 c4 93 bd
       -0.10803979 0.07836478 0.07584507 -0.072152995
000040 5e 27 88 3d 49 6f 86 bd 27 c6 e3 3d 75 0a 9d bd
       0.06648134 -0.06564195 0.11121779 -0.0766801
000050 0b 83 aa 3c dc e8 29 bd c6 75 23 bc c7 3b ee 3d
       0.02081444 -0.041481838 -0.00997681 0.116324954
000060 1d b4 02 3e 81 2a c2 bd f8 b2 dc 3d de 6b 93 bd
       0.1276402 -0.09480763 0.10776323 -0.071983084
000070 52 14 38 bb ef eb 06 3d 7e 97 b5 bc dc 7e d9 bc
       -0.0028088284 0.032939848 -0.022166964 -0.02654975
000080 e2 f7 ac bd 16 76 66 bd 45 fb d6 3d 92 73 a3 3d
       -0.084457174 -0.05626496 0.104971446 0.07981028
000090 90 9c 59 3d 29 7c 83 3d 6a 4e 9e bd f0 2f d7 bc
       0.053127825 0.06420166 -0.077298 -0.026267976
0000a0 65 eb c2 3d 70 64 a2 3d ec 0a 41 bc 6f cb 54 3c
       0.09517554 0.07929313 -0.011782389 0.0129879555
0000b0 b4 e3 c2 bd 9c e6 87 3d e9 7e e8 3d db fa ac bc
       -0.09516087 0.06635782 0.11352331 -0.021115711
0000c0 d3 1f b0 3c ba 35 29 bd c1 45 f4 3d 5f 0b 4b 3d
       0.02149955 -0.041311003 0.11927367 0.04957139
0000d0 d7 d9 be 3d 11 b7 03 bd 8b 7d 76 3d 72 85 b0 3d
       0.093188934 -0.032157008 0.06017832 0.08619203
0000e0 67 2c e1 3d b0 5e 0b 3a 80 4f 33 bd 0b 24 23 bd
       0.10994797 0.0005316539 -0.04377699 -0.039829295
0000f0 11 61 bb bd 93 e5 59 bc e3 68 ab bd f0 7e 23 3c
       -0.09149373 -0.013299364 -0.08369615 0.009978995
000100 96 ea e7 bc 08 d5 85 bd 62 17 76 bc 13 9f 56 3c
       -0.028310101 -0.06534773 -0.015020223 0.01309945
000110 54 08 13 bd 8c 65 65 3d cd 74 c3 3d 74 52 b6 3d
       -0.035896614 0.056005046 0.09543762 0.089024454
000120 99 b1 fd b9 36 b1 82 bd 57 83 39 3d 96 5c a8 bc
       -0.0004838824 -0.063814566 0.04529127 -0.02055196
000130 81 68 4f bd 24 a8 2b 3d 48 67 0a 3e ee 9c 27 bd
       -0.050636772 0.0419084 0.13515961 -0.040921144
000140 be 44 11 3d 26 4c 1d bd 8c 40 d7 bc 92 f6 c0 bd
       0.03546595 -0.0384027 -0.026275896 -0.094220296
000150 f0 6d 07 3e d2 f4 61 3d bd 1e 73 3d e5 38 9e 3d
       0.13225532 0.05516512 0.059355486 0.077256955
000160 02 69 80 bd 8f 2f ff bc 43 a7 bb bd f0 80 62 bc
       -0.06270029 -0.031150607 -0.09162762 -0.013824686
000170 43 79 2c 3e 53 a1 7a 3c 53 9b 1b 3d 37 71 8a bc
       0.16843133 0.015297252 0.037989926 -0.016899688
000180 f9 58 58 bd 7d d9 b2 3a bf 5f 3e bc e0 fa 34 3d
       -0.052819226 0.0013645139 -0.011619507 0.044184566
000190 80 a3 d0 bd d3 b1 5f 3d 52 12 f6 3d 86 62 d2 bc
       -0.10187435 0.054612946 0.12015213 -0.025681745
0001a0 b0 79 14 bd b0 3b 9b bc 18 6c 3c bd 72 49 64 bd
       -0.036248863 -0.01894936 -0.046001524 -0.055734105
0001b0 e8 90 00 3e a2 34 e0 bb 48 04 87 3c 47 c8 fc 3d
       0.12555277 -0.006842212 0.016481534 0.12342887
0001c0 4c 9d e8 3d 14 94 a8 bd 3b d9 0e bd 8e 0d 5f bd
       0.11358127 -0.08231369 -0.034875136 -0.054456286
0001d0 cc fb d1 bd 14 b6 0b 3e 38 37 26 bc 46 14 e7 bc
       -0.102531046 0.13643676 -0.010145001 -0.02820791
0001e0 a1 44 23 3d 55 ca 07 3e 3d 76 59 bd df 1c 90 bd
       0.03986037 0.13260777 -0.053091276 -0.07036757
0001f0 ef ed e6 3d 7d ec 01 3e e0 77 e0 bc cc 9f 0c 3e
       0.11275851 0.1268787 -0.02740091 0.13732833
000200 09 ee a5 bc 4e 3b f6 3d 35 8c 47 3d 93 29 09 3e
       -0.020255106 0.1202303 0.048717696 0.13394766
000210 9f 14 30 bd db dc 0e be 05 44 a8 bc 0b 05 69 3d
       -0.042988416 -0.13951437 -0.020540247 0.056889575
000220 5d ba da 3b 71 3c ad 3d 80 c3 08 3e fe be 2f bd
       0.0066750483 0.08458794 0.13355827 -0.042906754
000230 d6 4c d7 3d 23 38 a7 3c a7 a1 6b bc 22 1b 37 bd
       0.10512702 0.02041251 -0.014381803 -0.04470361
000240 0f 0a ef bc 98 df de 3c dd d9 db 3d 08 f2 9c 3d
       -0.029179601 0.027206227 0.107349135 0.07663351
000250 35 3a 7e 3b c8 61 16 bd a6 43 f0 bd 5a 9e 6d bd
       0.0038792018 -0.036714345 -0.11731653 -0.058012344
000260 21 2a 76 3d 21 ae 8b 3d 96 93 6a bd 78 9b 82 bd
       0.06009877 0.06820322 -0.057269655 -0.063773096
000270 91 e6 45 3d d9 96 01 bd 0e 44 ce 3d f5 c7 b9 bc
       0.04831559 -0.031638 0.10071574 -0.022678355
000280 a6 07 8a 3d 82 5e ca bd ee 65 b1 bc c0 ac c5 bd
       0.0673974 -0.09881307 -0.02165505 -0.0965209
000290 4c 82 0d 3d 3f b2 72 bd e7 d7 e9 3d 5b 4d 0e be
       0.03454809 -0.05925202 0.11418133 -0.13896696
0002a0 ec 8e b4 3d 9b 48 ec bc 3d fe 1a 3d e9 41 aa 3d
       0.08816323 -0.028843215 0.037840117 0.083133526
0002b0 06 ef 62 3d ca fa 8a 3d 44 c7 9f bd 10 ba a1 bd
       0.05540373 0.067861155 -0.07801679 -0.07896817
0002c0 95 ec 8e bd 58 3e 42 3d 64 62 57 bd bb 25 d2 3d
       -0.06978718 0.047422737 -0.052584067 0.10261103
0002d0 e2 17 9a 3d 44 0a be 3d c6 01 bb 3d 4a 1c be 3d
       0.075240865 0.09279302 0.09131198 0.092827395
0002e0 d9 2b a5 bc 8c 5d 11 3d 8f 4b 3a 3c f8 98 b5 bd
       -0.02016251 0.035489604 0.011370554 -0.08867067
0002f0 fd 79 e3 bd f1 e7 b0 3c 75 0e ab 3c 35 c1 bb 3d
       -0.11107252 0.021594973 0.020880917 0.09167711
000300 73 2b a4 3d 02 fd f9 3c 22 e4 ce 3d c9 18 54 bd
       0.080161 0.030516151 0.10102107 -0.05178145
000310 cc f3 f6 3d bd f0 f1 3c 3d 8a 10 bd 6b 67 82 bc
       0.12058219 0.029533738 -0.035288084 -0.015918454
000320 d2 e4 40 3d 7f 54 84 3d c1 09 ad 3c 8a 85 8d 3d
       0.04709322 0.06461429 0.021122815 0.06910236
000330 f3 59 00 3b 83 15 49 bd 2d b3 d0 3b c5 8a dc bd
       0.0019584864 -0.04909278 0.0063690157 -0.10768656
000340 e0 26 9c bd 78 ef 3c bd f9 59 9c bc c9 ab 84 3d
       -0.07624602 -0.046126813 -0.019085871 0.06478078
000350 21 4a c5 3d d6 a5 71 3d 78 f5 2c bd 2d 45 1a bd
       0.096332796 0.058996044 -0.042226285 -0.037663627
000360 63 59 21 3d 0c c9 ee 3c d9 21 9e bd 0f da 82 bd
       0.039391886 0.029148601 -0.077213 -0.063892476
000370 0e 08 98 bd 00 f6 c6 bd 0f 84 89 bd e1 48 be 3d
       -0.07423411 -0.097148895 -0.06714641 0.09291244
000380 99 be f9 bd 9f fe ae ba eb de 5f bd 63 d9 5a 3d
       -0.12194557 -0.001335103 -0.05465595 0.053429972
000390 a3 76 ad bd 9c 05 bf bd 84 f3 57 bd 1a 37 84 3d
       -0.08469894 -0.09327242 -0.05272247 0.06455822
0003a0 d7 2e 23 3c f2 28 40 bb 63 36 84 3d 57 52 6d bd
       0.009959898 -0.002932128 0.06455686 -0.057939854
0003b0 61 eb 30 bd 07 f3 a6 3d b0 a9 41 3d 1d 64 51 bc
       -0.043193225 0.081518225 0.047280967 -0.0127802165
0003c0 96 4f 16 3e b0 ad df bd 1b 9e 64 bd 36 26 ef bd
       0.14678797 -0.109218 -0.055814844 -0.1167721
0003d0 e9 94 b9 3b 88 c0 95 3c ae b8 a2 3d 79 be b4 3d
       0.0056635034 0.018280283 0.07945381 0.08825392
0003e0 fa 91 91 bd c0 2d eb bc 3e c7 71 bd f0 46 bf bc
       -0.07107921 -0.028708339 -0.059027903 -0.023349255
0003f0 70 04 4a bd 0e 3e ac 3d 94 d8 b6 3c 74 ff 14 3d
       -0.04932064 0.084102735 0.02232007 0.03637643

lstm.weight_ih_l1 f4 [256, 64]
000000 d0 b6 06 be e1 cd ef bd bb 7d 1f bd 34 89 b3 bd
       -0.13155675 -0.1170919 -0.038938265 -0.08766404
000010 52 a8 93 3c 7e d2 64 bc eb 34 12 be 46 b5 85 3c
       0.018024597 -0.013966201 -0.14277999 0.01632179
000020 fc 25 28 bd ce 54 d7 3c 3b 7b f4 3d ed fb 26 bd
       -0.04105185 0.026285555 0.11937567 -0.0407676
000030 12 d8 1f 3d d0 70 15 3d 68 95 a6 3d 4d 01 81 bd
       0.03902442 0.03648454 0.08133966 -0.06299076
000040 f2 4a 9a 3d d0 8a 70 bc 78 50 af bc 96 7e 1b be
       0.07533826 -0.014681533 -0.021400675 -0.15185007
000050 a2 2d d2 bd f4 4b 66 bd a1 cd db bd 4d 37 b0 bc
       -0.1026261 -0.05622478 -0.1073258 -0.021510744
000060 ec 2b 7c 3d 6c 36 57 bd a5 7d 14 3e 39 df 6d 3d
       0.061565325 -0.052542135 0.14501055 0.05807421
000070 46 be 96 bd 42 11 cf bc ae f7 e5 3d 1f 98 32 3d
       -0.073605105 -0.025276784 0.11228882 0.043602105
000080 e0 05 2a ba f7 7c ab bd b5 2d 6e 3c bc de 6d 3d
       -0.0006485861 -0.083734445 0.014537265 0.058073744
000090 1f f3 15 3e 13 05 84 3d 84 33 6c 3d 67 bc a9 bc
       0.14643525 0.0644628 0.057666317 -0.02071972
0000a0 17 42 c5 bc 29 d6 c6 bc c1 83 d2 bd bc 45 0d 3d
       -0.024079366 -0.024272041 -0.10279036 0.034490332
0000b0 43 f4 6d 3d 2c 4a 6e bb 4e 87 38 3d ca 2f ef bd
       0.058094274 -0.0036360128 0.04505091 -0.11679037
0000c0 1a 92 a8 3c f5 ff d2 bd 2b 89 a9 bd ae 79 0d bd
       0.02057748 -0.10302726 -0.08278116 -0.03453987
0000d0 d9 8c 2e bd fa a0 19 bd 22 72 79 3d 4b 46 14 be
       -0.04261479 -0.037507035 0.06089986 -0.1447994
0000e0 07 9b 05 3e 24 b5 3c bb 4d e3 89 bd 52 64 0e be
       0.1304742 -0.0028794492 -0.06732807 -0.13905457
0000f0 08 00 d9 bd f1 65 e4 bd 66 98 95 3d 35 77 43 bd
       -0.10595709 -0.11152256 0.07304458 -0.047721107
000100 c8 7f fc 3c 6a 65 6c 3d 26 2a a0 bd 75 94 11 be
       0.03082265 0.057713903 -0.07820539 -0.14216788
000110 c9 f2 61 3d 99 e2 92 bc 78 85 5d 3d 89 c3 16 bd
       0.05516318 -0.017930316 0.054082364 -0.03680757
000120 bc 6c 03 be 15 ae 48 39 c2 cb 62 bd 6e cd a9 3b
       -0.12834448 0.00019138337 -0.0553701 0.00518196
000130 8d d3 29 3d 5a b4 00 be 82 c5 89 bd 09 0b 10 be
       0.041461516 -0.12568799 -0.06727125 -0.1406671
000140 8c 13 5c 3d 1e 41 34 bc e6 e2 b2 3d 54 1d 70 3d
       0.05372958 -0.011001853 0.08734684 0.05862172
000150 e2 df f2 bc 4b e9 65 bd 5a 38 55 3d f9 15 de 3d
       -0.029647771 -0.05613069 0.052055694 0.10844035
000160 8b 67 dd bd 15 6f 89 bd 74 fc 3d 3c d5 e4 d8 bd
       -0.10810765 -0.0671064 0.011595834 -0.10590521
000170 5c ca 29 3d 8d 2a 68 bd 51 17 49 3c 07 87 46 3d
       0.04145275 -0.056681205 0.0122736255 0.048468616
000180 04 6a 22 3d a7 e3 0f be 77 78 ed bc 30 aa c9 bd
       0.039651886 -0.14051686 -0.028988106 -0.09846914
000190 34 0a a7 bd 26 b5 f5 bb 1b 80 42 3b 38 12 a3 3d
       -0.08156243 -0.007498401 0.0029678408 0.07962459
0001a0 db 0f 88 3d 4c f7 35 3b 79 46 52 bd c0 2e b0 3d
       0.06643649 0.0027765809 -0.05133674 0.08602667
0001b0 b4 2c a3 3d 73 3f 2b 3d 08 80 b3 bd 00 1e 81 3c
       0.07967511 0.041808557 -0.087646544 0.015761375
0001c0 75 dd 74 3d b8 af 80 bd 1e 7a 57 3b 64 d5 0e 3c
       0.05978151 -0.06283516 0.0032879184 0.0087178685
0001d0 61 56 bf bd 1a 1d b2 3d 07 2b b5 bd d4 0c fc bd
       -0.09342647 0.08696957 -0.088460974 -0.12307134
0001e0 de bc a3 bc 03 f2 aa bd 3b 2f 10 3e 7a e1 7e 3d
       -0.01998752 -0.08346941 0.14080517 0.06222675
0001f0 79 ab c3 3d db db ca 3d c2 ae b1 bc c0 4b 1d 3c
       0.0955419 0.09905215 -0.021689776 0.00960058
000200 bb 50 09 bd a6 66 b4 3d af 45 76 3d a7 67 df 3a
       -0.033524256 0.08808641 0.06012505 0.0017044441
000210 ff 0e 55 bc 66 fe 37 bd 0c 97 48 3d d2 57 c9 bc
       -0.013004064 -0.044920348 0.048972175 -0.024578009
000220 90 5a 07 be 03 57 b6 bd 2c cf 77 bd e8 38 5c bc
       -0.1321814 -0.08903315 -0.06050031 -0.013441302
000230 57 c0 08 3c 65 64 ef bd 81 8b 14 3d 7d 22 b8 3d
       0.008346639 -0.116890706 0.036265854 0.08990953
000240 47 bd ed 3d 12 a4 56 bd 67 cf 56 3c e2 b8 48 3d
       0.116083674 -0.052402563 0.013110972 0.049004443
000250 3f a5 2b bd 84 56 45 bd b7 ca 2d bd e3 e0 bd bb
       -0.041905638 -0.04817821 -0.042429652 -0.005794631
000260 af ac d7 3d 81 34 de bd fe 70 2c bd 9d 15 16 3e
       0.10530984 -0.10849858 -0.042099945 0.14656682
000270 a4 a3 73 bc bb 37 a8 3d 78 a1 b8 3c c8 25 da bc
       -0.014870558 0.08213755 0.022537932 -0.026629344
000280 f9 72 15 3d 86 27 20 bd 32 59 2f 3c 9a a4 00 be
       0.0364866 -0.039100192 0.010702418 -0.1256279
000290 a5 8a 64 bd 68 de e2 3d dd 5e 81 bd 79 5b a0 bd
       -0.055796284 0.11077577 -0.06316922 -0.07829947
0002a0 be 83 aa bd 70 da b7 3b 57 43 58 3d fa 7b c4 3d
       -0.08325909 0.0056107566 0.052798595 0.09593959
0002b0 f0 62 c3 bc 07 a8 ae 3b 9d 85 2f bd c8 b2 77 bd
       -0.023850888 0.005330089 -0.042852033 -0.060473233
0002c0 02 a7 66 bb a3 dd ae 3d 3d 00 48 bc 9f f6 85 bd
       -0.003519476 0.085383676 -0.012207088 -0.0654118
0002d0 36 48 15 3d b2 a6 21 bc d3 36 e0 bd aa 6b 35 bd
       0.03644582 -0.009866403 -0.10947957 -0.04429213
0002e0 6b cc e4 3d 1c c0 df 3c d0 68 37 bd 96 13 9d 3d
       0.11171802 0.027313285 -0.04477769 0.07669751
0002f0 27 8f 83 3c 92 7a 53 3d e6 43 8f 3d 6f 0e 95 bd
       0.016059471 0.051630564 0.069953725 -0.072781436
000300 7b ba 1d be 65 ea 03 bc f1 77 59 3d f6 ec 9d 3d
       -0.15403168 -0.0080514895 0.0530929 0.07711212
000310 3b 7a fa 3d 90 af be bd 28 cc 89 bd dd 67 ef bd
       0.12230345 -0.0931083 -0.06728393 -0.11689732
000320 b4 d8 05 3d a9 2b f9 bc 3f 35 ec 3c f9 44 ac bd
       0.032677367 -0.030416327 0.028833983 -0.08411593
000330 3d 24 a5 bc 30 32 8f bc cd 01 53 bc 6e 51 a4 bd
       -0.020158881 -0.017479986 -0.012878847 -0.08023344
000340 3a e7 05 bd d1 04 7a bd ef 52 be bd 2a a5 a9 3d
       -0.032691218 -0.06103975 -0.09293162 0.08283456
000350 72 8e d1 3d 46 27 bf bd ae 02 28 bd cb 77 24 bd
       0.102322474 -0.09333663 -0.04101818 -0.040153306
000360 6d ec d4 3d 21 f5 2b bd 46 ff af 3d e9 d9 88 3b
       0.10396657 -0.04198182 0.085936114 0.0041763675
000370 21 69 7b 3d eb d4 75 3d f0 c5 93 3a 59 d8 ba 3d
       0.061379556 0.060017508 0.00112742 0.09123296
000380 c0 0f 64 3d 25 29 c3 3d fd 38 90 bd e6 de 4f bc
       0.055679083 0.09529332 -0.0704212 -0.0126874205
000390 f0 f4 0b 3e 10 c5 fc bd 4a 9d f2 bd be e4 46 bd
       0.13667655 -0.12342274 -0.11846407 -0.04855799
0003a0 73 f7 a0 3d 16 c3 c9 bd 16 71 3c 3d 33 bd ac bb
       0.07859697 -0.09851663 0.046006285 -0.0052715777
0003b0 12 87 8a 3d f8 1e 11 bd 33 66 12 be 83 48 af bd
       0.06764044 -0.035429925 -0.14296798 -0.085587524
0003c0 f7 fc ae bd b2 52 a9 3d 8b d5 e8 3d d3 c3 fc 3c
       -0.08544343 0.08267726 0.11368855 0.030855095
0003d0 bf 17 ac 3d 64 25 f6 3b a2 be af bd 2c 65 61 3d
       0.08402967 0.0075117815 -0.08581282 0.055028126
0003e0 73 97 1e bd bd 16 72 bd 80 fa 05 bc 4d 53 a2 bc
       -0.038718652 -0.059103716 -0.0081774 -0.019815112
0003f0 46 23 f0 3d 75 be 18 3d a3 3a 60 bd fa ce 91 bc
       0.11725478 0.03729101 -0.05474342 -0.01779889

lstm.weight_hh_l1 f4 [256, 64]
000000 8b 07 e2 bd d1 35 91 bd 55 80 26 3d 30 c7 9d bd
       -0.11036595 -0.07090343 0.04064973 -0.077040076
000010 a2 3a c4 3d 2c 3f 62 bc ed c1 a1 3d 9f d0 ca bd
       0.09581496 -0.013809007 0.078983165 -0.099030726
000020 d3 41 f0 bd 3a 69 31 bc ba 3c 07 3e 92 a0 6f bd
       -0.11731305 -0.010828311 0.13206759 -0.05850274
000030 fd 06 4d bd 1c 41 b5 bd 62 32 35 3d d4 dc 4c bc
       -0.050055493 -0.08850309 0.044237502 -0.012503821
000040 69 b1 51 3d 28 4d 7c 3b a4 f2 4d 3d 55 e3 b2 3d
       0.051194582 0.0038498137 0.05028023 0.087347664
000050 b5 79 af 3c 83 00 61 3d 20 9c eb bd 40 de ea 3d
       0.02142034 0.05493213 -0.11504388 0.11468172
000060 b2 74 12 bd 41 60 ba bd b1 12 a5 bd d5 b6 db 3d
       -0.03575582 -0.0910039 -0.08060206 0.10728232
000070 01 00 13 3e f4 75 53 bd 72 e7 bf bd e5 e9 2f bd
       0.1435547 -0.05162616 -0.093703166 -0.04294767
000080 4a ed 07 3e 8c 4e a2 bd 62 cb d6 3d e4 1a dd 3c
       0.13274112 -0.07925138 0.10488011 0.026990362
000090 2a df b2 bd a1 3a 25 bd 20 41 12 bd 4d 14 e2 3d
       -0.087339714 -0.040339116 -0.03570664 0.11039028
0000a0 36 7d 9c bd 89 c3 3f bd 5c 6f d8 3c c6 59 6b 3d
       -0.076410696 -0.046817336 0.026420288 0.05745866
0000b0 06 62 03 3e 23 21 46 3d 5d 13 b9 bb b6 9f b6 3d
       0.12830362 0.048371445 -0.0056480602 0.08917181
0000c0 eb 36 34 3c 55 6e bb bc b3 90 a9 3d 32 4b e5 bd
       0.010999422 -0.022879759 0.08279552 -0.11195983
0000d0 1d 0b 39 3d b9 d4 10 bd 26 df 9c 3d 56 57 0e 3e
       0.045176614 -0.035359118 0.0765975 0.13900504
0000e0 06 5d 15 bd c7 71 27 bd 28 ce 0e 3e e9 b2 8e 3c
       -0.036465667 -0.04087999 0.1394583 0.017419295
0000f0 12 43 14 b8 57 dd 9f 3c b6 9c cd bd 44 32 d8 3b
       -3.5348414e-05 0.019514723 -0.10039656 0.006597789
000100 e3 10 7c 3d 2f 05 37 3d 78 1a 25 3c 03 95 67 bc
       0.061539542 0.044682678 0.010077111 -0.014134648
000110 c7 5f cf bd a8 e3 53 3c 80 48 93 3d a0 e3 c9 bd
       -0.1012569 0.012932695 0.07191563 -0.09857869
000120 05 36 69 3d f7 20 56 bc ed 3f 8b bc 48 c5 b0 bd
       0.056936283 -0.013069383 -0.016998256 -0.086313784
000130 b3 b3 b2 bd 22 a4 ef 3c c3 78 1b bd 4f 26 8e 3c
       -0.08725681 0.02925307 -0.037956964 0.017352251
000140 03 b2 79 bd 73 28 a3 3d 59 dd da 3d 83 f7 76 3c
       -0.06096078 0.079666995 0.1068675 0.01507366
000150 82 46 f0 3d ec 0a b1 3d b2 c3 38 bc 46 f0 0e be
       0.11732198 0.08644661 -0.011277126 -0.13958845
000160 9b 98 c0 3d 5a a7 79 bd 4a f4 3f 3c 33 ab d3 3d
       0.09404107 -0.060950615 0.011715958 0.10335388
000170 2a e2 7c bc 95 bc 83 bd fc 07 3a bd 12 43 23 3d
       -0.015434781 -0.064324535 -0.04541777 0.039858885
000180 9a 99 5a 3c 03 bc 92 ba fb 7c 83 3d bc 67 f4 bc
       0.0133422855 -0.0011194948 0.064203225 -0.02983462
000190 3d f5 50 bd 08 fa 07 3d f6 35 de bd 67 0e 19 3e
       -0.051015127 0.033197433 -0.10850136 0.149469
0001a0 1c f0 d2 3d 9f 91 92 3d a9 e2 c1 bc da 75 c6 bd
       0.102997035 0.07156681 -0.02366765 -0.09690447
0001b0 5c 39 45 3d b8 99 14 be a1 2f 7d 3d a8 52 96 3d
       0.048150405 -0.14511764 0.061813 0.07339984
0001c0 30 f6 84 3d f1 c2 af bd 0c fb b1 3d cf 56 e6 3d
       0.06492269 -0.08582104 0.086904615 0.11247026
0001d0 60 8a b2 bd 2b ff 08 3d ed 00 b1 bc 16 3e 8b 3d
       -0.08717799 0.033446472 -0.021606887 0.06798951
0001e0 1e 8e d1 bc 2e 57 ff bd 87 05 dd 3b c6 40 96 bc
       -0.025580462 -0.124678 0.0067450437 -0.018341433
0001f0 d8 b8 0b be 09 a1 8b 3d 87 c4 c3 bd 00 e6 58 3d
       -0.13644731 0.068178244 -0.09558969 0.05295372
000200 87 14 17 3d d6 5e 93 3d 31 8c 0f 3d a7 a3 bc bd
       0.03688481 0.07195823 0.035045806 -0.09210902
000210 42 db 43 bd 25 11 bc bd 8c a5 00 3c 5b 0c 76 bd
       -0.047816522 -0.091829576 0.007851969 -0.060070377
000220 df 4d a6 3d 18 a7 ec ba 7b 2f ab bd 7e 5a c3 3d
       0.081203215 -0.0018055169 -0.083586656 0.095387444
000230 b6 52 e8 3d 50 ff ef bd 37 05 dd bd b9 e7 cc bd
       0.11343901 -0.11718619 -0.1079201 -0.10005135
000240 8a 09 d7 bd a8 38 0b bd 3a 60 fa 3d c5 7c d4 bc
       -0.10499866 -0.03398958 0.12225385 -0.025938401
000250 4c db 22 3e 0b 6b e8 bc fe 41 da bd a7 18 c2 3c
       0.15903968 -0.028371355 -0.10657118 0.023693396
000260 5a ec c5 3d 0b 74 e1 bd a8 1f a5 3d a6 c6 bb 3d
       0.09664221 -0.110084616 0.080626786 0.091687486
000270 d7 e5 36 3d 63 aa c8 bd 2b b1 35 bc ea f3 c0 3d
       0.044652786 -0.09798124 -0.011089603 0.09421523
000280 d9 fd 3b 3c da 29 ca bb 63 73 cd bd 4e a1 ab 3d
       0.011474096 -0.00616954 -0.10031774 0.08380376
000290 a0 54 23 be 29 81 a2 bd 69 a8 18 bd 5a 90 be bd
       -0.1595025 -0.079347916 -0.037269983 -0.093048766
0002a0 91 ec 02 be 6d f8 21 3d b3 62 5d bd ff cc a9 3d
       -0.12785555 0.039543558 -0.054049205 0.08291053
0002b0 08 d7 cf bd ff 39 a0 bd 3e 86 20 bc 6a 80 e7 b9
       -0.10148436 -0.07823562 -0.009797631 -0.0004415543
0002c0 57 f9 ea bd 3e 5f 90 bd 2b cf 21 3d 97 92 93 3d
       -0.11473339 -0.07049416 0.03950421 0.07205694
0002d0 c1 12 66 3d 12 0a 13 3c 62 e7 5b bd 79 e0 cb bd
       0.05617023 0.008974569 -0.05368746 -0.09954924
0002e0 e4 3f b3 3d b6 a4 a0 bd 6b 38 ba bc bf 87 e5 bc
       0.087524205 -0.07843916 -0.02273198 -0.02801883
0002f0 f8 be 5e 3d eb e6 47 bb f3 51 bd bd de 9c 70 bd
       0.05438134 -0.0030502628 -0.09244146 -0.05874335
000300 e7 73 e8 3d 74 48 d9 3b bc ef 80 bd ec b9 0c 3d
       0.113502316 0.0066309515 -0.06295726 0.034356996
000310 49 d4 a9 3d 18 26 86 3d 6a 2a 9c bd c6 c1 81 bc
       0.08292443 0.065502346 -0.07625277 -0.015839469
000320 5d dd f5 bd fc d5 bf bc e0 0d 84 bd 30 aa 63 39
       -0.12005112 -0.023417465 -0.06447959 0.00021711807
000330 8a fe 7d 3b 76 b3 2a bd ef 7e d4 bd 56 c8 d1 bd
       0.0038756453 -0.041675054 -0.10375773 -0.10243289
000340 fd 69 c9 bd 3b c1 32 bd a3 48 36 3d 7e 81 bc bd
       -0.09834669 -0.04364131 0.044502866 -0.09204386
000350 c1 30 47 bc d2 af 3b 3d 92 02 93 3d 99 84 0e 3d
       -0.01215762 0.045821972 0.071782246 0.034794424
000360 e3 43 a1 bd 50 05 bd 3d 1d 2c b5 bd de 18 bc bd
       -0.078742765 0.09229529 -0.088463046 -0.091844305
000370 6d ff 51 3d 9f b6 a7 3d 36 a0 48 bc 89 7c 85 bb
       0.051268984 0.08189129 -0.0122452285 -0.0040736836
000380 1d ea 8d bd f9 10 2d bd 3e 5e 0c bd 22 9f 01 3d
       -0.06929419 -0.042252515 -0.034269564 0.0316459
000390 50 74 12 be 7c f8 05 be df 1a e5 3c 89 02 1b 3d
       -0.14302182 -0.1308307 0.027966915 0.037844215
0003a0 53 dc 22 bb 25 0e 6f bd b6 36 f4 3d 4c 2c d1 bc
       -0.0024850562 -0.0583631 0.11924498 -0.025533818
0003b0 83 31 1d 3c f6 d0 e3 3d 63 68 25 3c f5 fd dd 3d
       0.009594324 0.111238405 0.0100956885 0.10839454
0003c0 e0 18 3c bd 48 98 e8 3d 2e 79 75 bb ce 77 c3 bd
       -0.04592216 0.1135717 -0.0037456262 -0.09544335
0003d0 7a 14 0f 3d 80 eb 31 bd 88 dc e5 3d 1f 07 7a 3d
       0.034931637 -0.04343748 0.112237036 0.061041947
0003e0 ff 3a 83 bd b4 26 86 3d 46 a6 4f bc 98 95 c5 bd
       -0.06407737 0.06550351 -0.01267392 -0.09647673
0003f0 a5 5e b8 3d ae 6a 23 3d 7a b5 62 bd 31 41 ec 3c
       0.09002427 0.03989666 -0.05534885 0.02883968

lstm.bias_ih_l1 f4 [256]
000000 1f 52 0b bd 72 75 85 3d 11 38 73 3d 01 9f 2d bc
       -0.034013864 0.065165415 0.05937964 -0.0105969915
000010 fc 66 24 bd c3 14 23 3d a4 21 c3 bd d8 35 b8 3d
       -0.040137276 0.03981472 -0.09527901 0.08994645
000020 85 2c 83 bd 5a 94 11 bd 00 d3 9d 39 3b 00 39 3c
       -0.06404976 -0.03554187 0.0003010258 0.011291559
000030 9d 98 bc bd 2f 37 a5 bd 9f b5 cc bb 4e 1a 2a bd
       -0.09208796 -0.08067166 -0.006247237 -0.041528992
000040 9e ec 9a bd 7d b2 d9 3d 06 fa 8f bd 64 5e c1 bc
       -0.075646624 0.10629747 -0.0703011 -0.02360458
000050 21 34 ba 3d c9 7d a5 3d 23 56 80 bd bc 1b c5 3c
       0.09091974 0.08080632 -0.06266429 0.024061076
000060 ff 88 81 3d 73 f3 0c 3e e5 75 c9 3d 2a 80 f5 3c
       0.06324958 0.13764744 0.0983694 0.02996834
000070 97 52 83 bd a0 e4 14 3e b4 1c 90 bb a0 6c f3 3d
       -0.06412237 0.14540339 -0.004397953 0.11885953
000080 2d 55 b8 3d 97 7d a2 bd 47 71 e5 3d 18 6e c6 bd
       0.09000621 -0.079341106 0.112032466 -0.096889675
000090 f6 25 bb bd e1 1f 60 3d e1 a3 ed bd d7 42 60 bd
       -0.091381 0.054717902 -0.11603523 -0.054751243
0000a0 16 f9 7b bd 45 45 45 3d 5b 1f 6a bd 79 db ed bd
       -0.061516844 0.048161764 -0.05715881 -0.11614127
0000b0 b8 2a 39 bd 1c 76 31 bd 6f f5 70 3d e1 cb 11 bd
       -0.045206755 -0.04332553 0.058827814 -0.035594825
0000c0 7d 99 b6 bd 99 07 f9 3d ce 19 dc bd 3e 8c d9 bd
       -0.08915994 0.12159652 -0.10747109 -0.10622452
0000d0 73 f7 29 bc 8d d1 b1 bd bb 52 d9 3d 2d 4b 6b ba
       -0.010373938 -0.08682547 0.10611483 -0.00089757406
0000e0 7e c0 de bd 14 8d 93 3b 39 17 a6 bc 1e 05 f7 3c
       -0.10876559 0.004502902 -0.020274745 0.030153807
0000f0 22 64 8e 3c 00 5a a7 bd 8b ab 38 3d bd a4 b1 bd
       0.017381731 -0.08171463 0.04508547 -0.086739995
000100 33 40 84 bc 00 ff 52 3d 9f 35 3e 3d 02 24 d5 3d
       -0.016143894 0.05151272 0.046437856 0.104072586
000110 7c c6 9d 3d 38 2c cf 3b 4d 04 f3 bc c4 00 07 3e
       0.077038735 0.00632241 -0.029665137 0.13183886
000120 0d 4f 82 3d 30 da db bd 39 30 a9 3d 3e da ee 3d
       0.06362734 -0.10734975 0.08261151 0.1166272
000130 de e4 ef ba 7b ee f0 bd 0d 96 cf bd e0 ed bf 3d
       -0.0018302461 -0.117642365 -0.10136042 0.09371543
000140 e4 fd de 3d a2 ad ca bd f1 e0 c4 3d 43 ea 91 3c
       0.108882695 -0.09896399 0.09613217 0.0178119
000150 c7 c8 6e bd cb e0 df 3d 24 ee cb bd f7 c3 7a bd
       -0.058296945 0.10931548 -0.09957531 -0.061222043
000160 21 c1 d5 3c 11 2e 8f bb 44 46 bd bd fb d5 b6 3d
       0.026093068 -0.004369505 -0.09241918 0.08927532
000170 f6 e1 da bd 91 58 e1 3d cc 6a a8 bc 72 d8 91 bd
       -0.1068763 0.11003221 -0.020558737 -0.07121362
000180 ba ad a2 3d 84 bf c5 3d 1d 4f fe bd 4a cd 08 bd
       0.07943292 0.09655669 -0.124174334 -0.033398904
000190 19 9f 16 3e e3 b4 f3 bc 42 08 cd bd d3 b9 5c bd
       0.14709128 -0.02974934 -0.10011341 -0.053888153
0001a0 99 75 e0 bd 8f c5 a5 3d 42 41 0b bd 98 47 5d bc
       -0.1095993 0.08094322 -0.03399778 -0.013505839
0001b0 43 13 24 3d e3 fb fa 3d 5d 10 1f 3c 19 61 b1 3d
       0.040057432 0.12255075 0.009708491 0.08661098
0001c0 32 bd 9b bd 9e 40 06 3e 60 b4 81 bd 93 a3 14 bc
       -0.076044455 0.13110587 -0.06333232 -0.009072202
0001d0 c5 17 47 3d 17 11 94 3d ae 02 0f bd 85 23 8b 3b
       0.048606653 0.07229822 -0.034914665 0.0042461776
0001e0 16 11 12 3d 61 23 aa 3d 58 92 cb 3d 9b 62 85 3d
       0.035660826 0.08307529 0.09940022 0.06512948
0001f0 e0 1b fc bd 91 b6 8c bd 80 48 9f bc d5 08 bf bd
       -0.12310004 -0.06870759 -0.01944375 -0.093278565
000200 54 97 3b 3d a8 7f b2 bd 7a 5f a3 3d db 65 f0 3c
       0.045798615 -0.08715755 0.07977195 0.029345443
000210 7a 76 a4 3c 2b 79 d4 3c d4 74 27 3c 90 a0 ae 3d
       0.020076025 0.025936684 0.010220725 0.085267186
000220 ff 6e cb bd 1a 9b ce 3d 6c 43 e0 3d d7 42 a0 bd
       -0.0993328 0.10088177 0.1095036 -0.07825249
000230 f0 39 5d 3d c5 2a c4 bd 18 e9 9e 3d 23 73 78 3a
       0.05401033 -0.0957847 0.07759303 0.0009477606
000240 01 a5 44 3d 40 8f d9 3d 57 8b 04 3d 3e d0 40 bd
       0.048008922 0.10623026 0.032359447 -0.047073595
000250 f2 44 91 bd 0d 1f f1 3d ec cd 5f bd a6 d3 b2 3c
       -0.070932284 0.117735006 -0.05463974 0.021829437
000260 24 42 b3 3d 2a 32 aa bd 3f 06 c4 bd 4d 24 b3 bc
       0.0875285 -0.08310349 -0.09571504 -0.021867895
000270 f0 67 6b 3b c6 92 9d 3d a9 e0 87 bd 8f 8d c4 3d
       0.0035920106 0.076940104 -0.066346474 0.09597313
000280 ef e1 a3 3c 4b e4 03 3d 20 73 13 bd 93 64 31 bd
       0.020005194 0.03220014 -0.035998464 -0.043308806
000290 22 a2 88 3c 4d 05 6e bd 17 f4 99 3d a3 a2 8e 3b
       0.016678873 -0.058110524 0.075172596 0.004352884
0002a0 06 ec 84 bd 3f 3b dd 3d 49 8d 1e 3d ca e4 c1 3d
       -0.064903304 0.10802316 0.03870896 0.09467466
0002b0 a4 06 82 bd 56 2f a5 3d f3 7f ff 3d 95 5b 58 bd
       -0.06348923 0.08065669 0.12475576 -0.052821714
0002c0 2f af 86 3c 76 5a f4 3d c2 a2 b5 bd 4b 78 b2 bd
       0.016440956 0.119313166 -0.08868934 -0.0871435
0002d0 56 19 99 3d ac 71 c0 3c f4 17 58 bd 83 30 3f bd
       0.074755356 0.023491703 -0.05275722 -0.046677124
0002e0 ec 86 ae 3d 4c dd 14 3d 61 9a 80 3d 74 ac 9c bd
       0.08521828 0.036343858 0.062794454 -0.0765008
0002f0 55 8c db 3d 56 fa b9 bd 74 23 d0 3d a0 94 64 bd
       0.107201256 -0.09080951 0.10163012 -0.055805802
000300 60 ff e8 3d de fb d8 bc 8d 5c 35 bd 6a ba bd bd
       0.11376834 -0.026487287 -0.044277716 -0.09264071
000310 03 92 bd bd 37 45 43 3d b6 3c 23 3d e5 d7 0a bd
       -0.09256365 0.04767343 0.03985282 -0.0338973
000320 00 94 67 3b f2 de 27 bd 1c b0 b8 3d 28 9d f9 3d
       0.0035336018 -0.0409841 0.09017965 0.12188178
000330 0f ab 5c 3d 0b 4e f4 bd b8 ef f8 bc 3a 28 9e 3d
       0.05387407 -0.11928948 -0.030387744 0.07722516
000340 91 60 f3 3d c6 ee e0 bb ca a1 be 3d e0 d8 04 bd
       0.11883653 -0.0068644015 0.093082026 -0.03243339
000350 15 a9 21 3d d1 bf ac bd ff d1 d9 3d dd e5 ea 3d
       0.03946789 -0.084350236 0.10635757 0.11469624
000360 31 d0 71 3b 14 4a 99 3d b6 19 6f 3d 14 a2 82 3b
       0.0036897773 0.074848324 0.05837413 0.0039866064
000370 1c 25 7d bd 44 b1 7b bd ca d3 a3 bd 58 3e eb bb
       -0.06180297 -0.06144835 -0.0799938 -0.007179063
000380 dd c9 92 bd 64 5f c9 bd 53 6e e9 bd 01 a8 db bd
       -0.071674086 -0.098326474 -0.11397996 -0.107254036
000390 ea e9 9c 3c 9d 4a c4 3c b6 17 dc 3d 3f 0c 1d bd
       0.019154508 0.02396136 0.1074671 -0.038341757
0003a0 02 73 87 3b da 12 c3 3d eb 53 e4 3d 57 49 26 bd
       0.004133583 0.0952508 0.111488186 -0.040597286
0003b0 df ac d5 3c a2 e4 98 bd 10 34 41 bc 00 31 13 bc
       0.026083408 -0.07465483 -0.011792198 -0.0089838505
0003c0 62 54 c2 3d 26 cc 64 3d 9d 17 86 bd b1 35 78 3d
       0.09488751 0.055858754 -0.065474726 0.06059808
0003d0 d5 f3 bd bd 3f 9f 03 be 5b 01 33 3d 04 38 c1 3d
       -0.09275023 -0.12853716 0.043702465 0.09434512
0003e0 b8 55 ab 3d 8f e6 0d 3e 6a 27 37 bd b0 fd cb 3c
       0.08365959 0.13857482 -0.044715323 0.024901241
0003f0 50 98 ff bc 63 25 4c bd 32 65 fe bd 52 4b 0a 3e
       -0.031200558 -0.049840342 -0.12421645 0.13505295
