output/LSTM2CNN/LSTM2CNN_adam_128_500/model/LSTM2CNN_epoch_233.pth (torch, 350402 bytes, 16 tensors)

lstm.weight_ih_l0 f4 [256, 10]
000000 e6 3d 08 3e c6 35 57 3e af dc 24 3e 45 55 b5 3b
       0.13304862 0.21016607 0.16099809 0.0055338466
000010 df 99 16 be 76 9d 48 3e b1 22 b8 3e be f0 0a be
       -0.14707135 0.19591317 0.35963967 -0.13568398
000020 99 82 de bb 4d 6b 27 be cd f9 b1 bc 01 9e bf 3d
       -0.006790471 -0.16349526 -0.02172556 0.09356309
000030 b4 32 90 3d 25 38 a8 3d bd 70 0a be e5 10 c1 3c
       0.07040921 0.08213834 -0.13519569 0.023567626
000040 77 46 67 3d c1 d6 85 bd 65 b5 19 be 3f 36 45 bd
       0.056463685 -0.06535102 -0.15010603 -0.048147436
000050 5f 72 2d be 2f 35 56 3c 5d c6 e5 bd 5d 3c 30 bd
       -0.1693816 0.013074203 -0.112194754 -0.043026317
000060 26 36 8e 3c 00 d6 6d bd ea b0 ca bb c7 99 38 be
       0.017359804 -0.058065414 -0.0061856406 -0.18027411
000070 8f 15 1f be 0a 6d 15 be de 1e a2 bc 16 b4 26 be
       -0.15535568 -0.14592376 -0.01979011 -0.16279635
000080 73 5b 8c 3d 9f 9b cb ba 16 7c 3a be a2 7d 4d bd
       0.0685338 -0.001553405 -0.18211398 -0.05016864
000090 a0 93 ad 3d 2a ec 2e be a5 15 2d 3d bc e7 98 3d
       0.08475423 -0.17082277 0.04225697 0.07466075
0000a0 7e 38 3c bd 66 63 e7 3d 94 cc e6 3d 34 07 fb 3d
       -0.045952313 0.112982556 0.11269489 0.12257233
0000b0 ac 60 fa bc 1e 02 2e 3e 8f e2 79 bd 2f 36 13 3d
       -0.030563675 0.16992995 -0.06100708 0.035940345
0000c0 09 cb a7 3b b5 e0 1c bd 94 d0 73 3d ec ac 5f bd
       0.005120639 -0.038300235 0.059525087 -0.05460827
0000d0 98 6b 61 3d 59 ba d1 bd 45 b2 fe ba 81 9b 18 be
       0.05503425 -0.10240621 -0.001943179 -0.1490307
0000e0 a6 f6 17 be 32 18 1d 3e 1f 90 c3 ba b4 d8 e7 bd
       -0.14840183 0.15341261 -0.0014920271 -0.1132063
0000f0 fb 06 35 bd 1d 37 71 bd d2 65 95 bd 26 2e aa 3a
       -0.04419611 -0.05889045 -0.07294811 0.0012983724
000100 9b 31 29 3e 4e 49 17 be 3d 76 97 bd 66 79 35 3e
       0.16522829 -0.14774057 -0.07395599 0.17722091
000110 b2 0e 23 3e f4 56 ca 3c c2 f6 6b 3d 98 d2 0d 3e
       0.15923575 0.024699666 0.057608373 0.13849866
000120 11 c1 10 3d b4 05 03 be bb a0 44 bd 74 5c 48 3d
       0.035340372 -0.12795144 -0.048004847 0.048916295
000130 b1 b6 b9 3d aa df ac bd 8a 7f 95 bd 88 69 69 bd
       0.09068049 -0.08441098 -0.07299717 -0.056985408
000140 4d 34 06 be 41 87 0f bd de 7b bd 3c 50 6f 9f bd
       -0.13105889 -0.035041098 0.023130354 -0.07784903
000150 bb 65 eb bd 57 81 3e bc 69 fa 78 3d 6a 43 96 bb
       -0.11494013 -0.011627517 0.060785685 -0.004585673
000160 91 8d 1b bd 5b 6f ab bc 3f 56 f5 bc 99 c8 c9 bd
       -0.037976805 -0.020927122 -0.029948352 -0.09852714
000170 2e ac 02 be a4 02 26 bd b3 e3 78 ba 58 c5 97 bd
       -0.12760994 -0.040529862 -0.0009494379 -0.07410687
000180 b7 6e 52 bd ef 82 d0 3d c8 7d 30 3e ef 93 6e 3e
       -0.051375117 0.101812236 0.17235482 0.2329862
000190 f3 be 87 3d 5a 2f 2e be 93 39 06 be b5 b2 21 3e
       0.066282175 -0.1701025 -0.131079 0.15790828
0001a0 14 1d 19 be bf a1 29 bd 02 16 54 bd 80 41 4d be
       -0.14952499 -0.04141402 -0.0517788 -0.20044518
0001b0 08 80 fb 3d a5 3e 79 3e 9a 0f 2e bd bc 59 4e be
       0.122802794 0.24340303 -0.042495348 -0.20151418
0001c0 41 0f b7 bd ba 93 b8 3d e7 ac 67 bd 0c b5 30 3c
       -0.08938456 0.090125516 -0.056561377 0.010785352
0001d0 a5 66 57 3d b1 ea 17 3e 78 f2 10 3e 50 aa 4e 3e
       0.052588124 0.14835621 0.14154994 0.20182157
0001e0 6e 99 86 bb 71 de 0c be 0e d5 0a bd a9 83 26 3c
       -0.0041076457 -0.1375673 -0.03389459 0.010163226
0001f0 09 06 0a 3d ab d3 92 bd a1 29 1e be bd 39 37 3e
       0.03369716 -0.07169279 -0.15445568 0.17893119
000200 40 be 50 3e dc 25 38 3d 55 0c a9 bd c5 f0 1c 3d
       0.20385075 0.04495798 -0.08254305 0.038315553
000210 00 ec d0 bd da 5e 33 3d 0c a6 8a 3c 18 d5 99 bd
       -0.102012634 0.04379163 0.01692488 -0.075113475
000220 9f ea 57 3e 33 24 ea bd eb 0b d2 bc 4b b9 c0 bd
       0.21085595 -0.11432686 -0.025640449 -0.09410342
000230 0c c0 da bc 15 d3 d4 3d e8 c2 94 3d c3 21 c8 3c
       -0.026702903 0.10391823 0.07263738 0.024430161
000240 31 96 ac bd 88 ac 26 3e bc b8 0f 3e 20 3c 70 bd
       -0.08427084 0.16276753 0.14035314 -0.05865109
000250 7c 20 e2 bb ee 09 1d be 55 83 87 bd d7 27 1f 3d
       -0.006900845 -0.15335819 -0.066168465 0.038856354
000260 ed a2 25 be 11 30 a5 3d 71 fa 00 3e cd c7 4c be
       -0.16175433 0.080658086 0.12595536 -0.19998093
000270 17 69 82 be 8e c0 fc bb ac de 4d 3e c4 80 64 bc
       -0.25470802 -0.007713384 0.20104474 -0.013946716
000280 38 34 88 bd fb d4 a3 3d 7d 5c cf 3d 54 ed 29 3d
       -0.06650585 0.07999607 0.101250626 0.0414861
000290 ca 31 a4 3c d8 c2 c7 bc f9 81 12 bc 54 1b 39 3e
       0.020043273 -0.0243849 -0.008942121 0.18076831
0002a0 5b 18 51 3d 63 d4 e1 bc ba 6a 75 3d d7 12 1f 3d
       0.051048618 -0.027567094 0.059916236 0.038836326
0002b0 09 bb c8 3d 3f 98 0e 3e 1e d8 86 3c c3 e3 cd bd
       0.09801299 0.13925265 0.016460475 -0.10053208
0002c0 7c d7 b3 bd 0c 6f 0f bc fd bc b5 bb 53 43 08 3d
       -0.08781335 -0.008754503 -0.005546211 0.03326733
0002d0 40 2c c2 3c d7 b7 e5 3d 74 1d c6 bd 63 e5 37 bd
       0.02370274 0.11216705 -0.096735865 -0.044896495
0002e0 d5 49 67 3d c0 09 5f bd 6b 98 0a bd f1 b4 c4 bd
       0.056466896 -0.054452658 -0.033836763 -0.09604824
0002f0 47 8b 2f bc 0b 1c b2 3d 6b 16 f8 bd f3 4f 3e be
       -0.010714359 0.08696755 -0.12113651 -0.18585186
000300 f5 31 02 be 79 fa a8 be 4c f7 2e 3e 25 0c ba be
       -0.1271437 -0.33003595 0.17086524 -0.3633739
000310 96 32 94 be 56 b1 65 3e c3 f3 5a 3e 45 be 7d 3e
       -0.28944844 0.2243093 0.2138205 0.24779613
000320 43 bc 13 3e 3b e2 c1 3d 90 82 98 3d b4 39 a4 bd
       0.14427285 0.09466978 0.07446778 -0.080188185
000330 f7 b8 e0 3d 80 ed c8 3d 86 c2 ca 3c b8 7f a0 3d
       0.10972779 0.098109245 0.02475096 0.078368604
000340 8f 8b 24 3e c2 cf 1d 3d 81 98 d1 3c 94 49 62 be
       0.16068862 0.03852821 0.025585415 -0.2209838
000350 25 06 f0 3d 70 44 16 bd 28 76 47 3e 4c 37 25 3c
       0.11719922 -0.03668636 0.19478667 0.010083985
000360 0d dc f6 bd 92 48 1d 3e a6 8a b9 3d 33 c3 7b 3e
       -0.1205369 0.15359715 0.09059648 0.24586181
000370 ed 6f 1a 3e c4 9a 27 3d 5d 9f 04 3e ba c2 f8 3d
       0.15081759 0.04091908 0.12951417 0.12146516
000380 dc 03 92 bc fa 05 be bc 6b c5 59 3d 08 90 f1 3c
       -0.017824106 -0.02319621 0.053166788 0.029487625
000390 34 11 7d bd cc 5b 2c 3e d5 90 ec 3d 80 25 80 3d
       -0.061783984 0.16831893 0.11551062 0.062571526
0003a0 2d 05 7f 3d fa 84 13 bb 41 2e 1a bd 5d 05 5d 3e
       0.062260795 -0.002250968 -0.037641767 0.21584077
0003b0 fd 62 0f 3e 57 90 c4 bd 46 8a fb bd 8f 1f d0 3c
       0.14002605 -0.09597843 -0.12282233 0.025405673
0003c0 2c eb b6 3d 77 17 90 3d b1 94 b9 3c c2 7b ae bb
       0.08931574 0.070357256 0.02265391 -0.0053248117
0003d0 f0 09 04 3c cf 09 8d bd 05 b6 72 be 67 b3 73 3e
       0.00805901 -0.068866365 -0.23702247 0.23798905
0003e0 77 09 34 3d 48 98 96 3d e8 1c ed 3d 6f 57 90 3d
       0.04395434 0.07353264 0.11577779 0.07047927
0003f0 39 b3 97 3d 3e 5a aa 3e 55 74 8d 3d dd 6a 9e 3d
       0.07407231 0.33271974 0.06906954 0.07735226

lstm.weight_hh_l0 f4 [256, 64]
000000 33 f4 d7 3d bb 8c bf 3c a9 61 b8 bd 91 6c 17 bd
       0.10544624 0.023382535 -0.09003002 -0.03696877
000010 50 6b a2 bd 78 41 45 3d 79 90 dc bd b4 4b 61 bd
       -0.079306245 0.04815814 -0.107697435 -0.055003837
000020 6b ac 95 3d 2e aa a6 3b 8e 5c 37 be ab df a4 bd
       0.07308277 0.005086205 -0.179064 -0.08050474
000030 ae ea 9b 3d f1 7d 31 3e 15 42 88 bd 4e 55 89 bd
       0.07613121 0.17333199 -0.06653229 -0.06705724
000040 73 82 04 3e bd 26 35 3d 54 e0 90 bd c7 84 f7 bd
       0.12940387 0.044226397 -0.07074037 -0.12085872
000050 e9 c6 28 bd fa f8 b1 bb d5 e9 0d bd 1e 7a 2b 3e
       -0.04120532 -0.0054312916 -0.034646828 0.16745803
000060 ec da 0c 3e 1c 99 f5 3d 6f 55 22 be 06 a4 e2 bd
       0.13755387 0.11992094 -0.15852903 -0.11066441
000070 64 87 c0 bd 18 76 8a bd 36 c7 67 3d 67 5b 3d bd
       -0.09400824 -0.06760806 0.056586467 -0.046229746
000080 c1 93 18 3e 5e 9d 0f 3c 82 67 99 bd 00 6c 39 be
       0.14900114 0.008765547 -0.07490446 -0.18107605
000090 05 8c ff bc 2d a7 4b 3d 65 d5 f3 3d db 96 a6 3d
       -0.031194696 0.049719978 0.11905936 0.08134242
0000a0 65 27 84 bd 0b c4 a6 3d cf 36 0d 3e 9e c7 a7 3c
       -0.064528264 0.08142861 0.13790439 0.020480927
0000b0 30 09 ae 3c 7f 6d 54 3d cf f7 9f 3c 86 44 f1 bd
       0.021244615 0.051862236 0.019527344 -0.11780648
0000c0 db e3 0d bd 94 8e d2 bd 37 78 35 be 53 07 61 3d
       -0.034641128 -0.10281101 -0.1772164 0.054938626
0000d0 4b 71 a8 bd dc af 7f 3e 05 1f e5 3c f9 b8 c3 bd
       -0.08224734 0.24969429 0.027968893 -0.09556765
0000e0 5d 00 db bd f1 3d ec 3c 83 d3 be bd 99 21 a2 3d
       -0.10693429 0.02883813 -0.093176864 0.079165645
0000f0 76 90 61 bd 41 2b d8 bd c7 f0 77 bd 3a 3e e5 3d
       -0.05506941 -0.10555125 -0.060532358 0.111935094
000100 0d 12 6f 3c b3 5b c5 bd f5 c8 13 be 37 80 91 bd
       0.014591706 -0.09636631 -0.14432128 -0.07104533
000110 cb ef 05 be 8d 6f 21 bd 2e a6 7a 3c e0 7a a6 3c
       -0.13079755 -0.039413024 0.015298409 0.020322263
000120 0c cb b1 bc e3 95 8a 3d 72 5b 5c be af f7 ae bd
       -0.021703266 0.0676687 -0.21519259 -0.08543336
000130 5c 8b 78 3d a1 4a 3b bd 90 4e 41 bd 57 df 82 bc
       0.06067978 -0.04572547 -0.047194064 -0.015975637
000140 5c 04 35 3e 19 8d a2 3d 44 84 00 be 67 49 ac bd
       0.17677444 0.079370685 -0.12550455 -0.08412438
000150 a0 2e 0a 3d 01 a6 53 3e 93 c4 ec 3c 83 54 90 ba
       0.03373587 0.20668794 0.028902328 -0.0011011515
000160 04 65 36 3e b7 13 91 bd f7 0b 95 3d b8 b3 e2 3d
       0.17811972 -0.070838384 0.07277673 0.11069435
000170 3d 42 34 bd 17 8a 92 3d 7d d5 7e 3d db c6 4d 3d
       -0.044008482 0.07155245 0.062215317 0.05023847
000180 69 5d 5f 3d b9 f8 b6 3c 7d ed 7b bd 17 30 52 bc
       0.054532442 0.022335397 -0.061505783 -0.012828848
000190 f6 7f a9 3d 35 17 09 3e 0f 83 f9 bb 7f e5 c1 bd
       0.0827636 0.13387759 -0.0076145004 -0.09467601
0001a0 8d f0 1b 3d f9 10 70 3c 88 50 10 bd 85 d5 be 3d
       0.038071204 0.014652484 -0.03523305 0.09318069
0001b0 de 4d e6 bd cb 2b 1f 3d bf d6 8a bd a7 6c a6 bb
       -0.11245321 0.038860124 -0.06779241 -0.0050788703
0001c0 85 df 8a 3d ed 19 39 bd dd d0 f7 bd aa 71 18 3e
       0.06780914 -0.04519074 -0.121003844 0.1488711
0001d0 64 e5 21 be 7d e3 13 3d 73 2a df 3c b3 f9 b7 3c
       -0.15810162 0.03610562 0.027241921 0.022457933
0001e0 a0 cc 5a 3c e6 51 ba bd 1e 37 c4 3c fb 6d ba 3d
       0.01335445 -0.09097652 0.023952063 0.09103008
0001f0 0f 93 ee bd 20 fe 12 be 43 bb ca 3d e9 72 76 bd
       -0.11649143 -0.14354753 0.098989986 -0.06016818
000200 94 35 85 bd c5 5c 4b bb ea 23 82 3d 96 3d ca bd
       -0.0650436 -0.0031030637 0.06354506 -0.09875028
000210 8a 63 10 bd 46 8f f6 3d 2d bc e4 bd 32 1e 22 bd
       -0.035251178 0.12039046 -0.11168704 -0.039579578
000220 3e 17 09 3e 25 94 e1 3d 9f 49 7f 3d c4 10 41 be
       0.13387772 0.110145845 0.06232607 -0.18854052
000230 f3 77 fe bc 7e 14 50 bb 70 9c 09 3e 3a f3 09 be
       -0.031063056 -0.0031750496 0.13438582 -0.1347169
000240 df b0 21 bd 61 db 05 3d 0b 75 1f 3d a0 b3 1c bd
       -0.039475318 0.03267992 0.03892998 -0.03825724
000250 fb ba 27 3e c7 08 c1 3d 16 b0 62 be e5 33 35 be
       0.16379921 0.09425502 -0.22137484 -0.17695577
000260 3e 0c 83 3d 9b 09 0e bb ed 94 07 3e c2 e1 4a 3e
       0.063988194 -0.0021673206 0.13240404 0.19812682
000270 fa 27 12 3e ad 11 cb bd 65 90 d2 3d 2d de 12 be
       0.14273062 -0.09915481 0.10281447 -0.14342566
000280 c6 49 23 3d fe 97 c2 bd ed fe 84 bd d5 53 21 bd
       0.039865278 -0.095016465 -0.06493936 -0.03938659
000290 35 23 8e 3d 13 fa 99 bd 90 a5 13 3d 74 38 1d bd
       0.06940309 -0.07518401 0.036046565 -0.038383916
0002a0 cb 5b f2 3d 0c 55 4b 3d 02 63 8d bc 9b 77 2b be
       0.11833914 0.049641654 -0.017259125 -0.16744845
0002b0 b0 b2 0f 3e 48 f7 04 bd c3 1d 59 3d 5c 42 2c 3d
       0.14033008 -0.03246239 0.0530069 0.042055473
0002c0 b4 bd 0f be 12 9b 67 3e ab bd 4f 3d e7 e9 1d be
       -0.1403721 0.22617748 0.05071799 -0.15421258
0002d0 08 c9 32 3e 05 a5 9c be 7f 88 d0 bd 34 b9 74 bc
       0.174595 -0.3059465 -0.101822846 -0.014936734
0002e0 c1 dc 26 3e 09 45 a7 bd 9b 67 d7 3d d1 ba 7c bd
       0.16295148 -0.08167464 0.10517808 -0.0617016
0002f0 d9 fc 67 3e c6 a6 bb 3d bf 59 5a 3e 6d 28 a6 bd
       0.22655047 0.09162669 0.21323298 -0.08113179
000300 e6 39 01 3e f0 ee 0d 3e 43 22 54 bb db e1 37 bd
       0.12619743 0.13860679 -0.0032369054 -0.044893127
000310 de 60 9c bd 28 a9 38 bd 12 91 da bc c9 8b ad bd
       -0.076356634 -0.045083195 -0.026680503 -0.084739275
000320 c7 de f4 3d b3 17 5e 3d 0e 24 ef 3d 34 1d be bd
       0.11956554 0.05422182 0.11676799 -0.09282914
000330 96 25 8f 3d 63 23 39 be 41 cb 84 bd 0a f6 5c 3d
       0.06989591 -0.18079905 -0.0648408 0.05394558
000340 b6 30 f6 bd 22 f3 26 3e e1 f9 99 bd 8b 94 ac bc
       -0.120210096 0.16303685 -0.07518364 -0.021066925
000350 17 58 8d 3d 2b 73 dc bb 53 ad 26 3b c5 eb 30 bd
       0.069015674 -0.0067275963 0.00254329 -0.043193597
000360 4f cd 0b bd 81 f0 bd bc 64 79 97 3d e7 e9 ce 3c
       -0.034131344 -0.02318597 0.073962 0.025258018
000370 47 e7 ef 3d a4 9d a7 bd e1 36 a9 bb 64 82 c9 3d
       0.117140345 -0.081843644 -0.005164013 0.09839323
000380 b5 09 4a bd 06 7e 07 bd 2c 2f 74 3d f4 1e 11 3d
       -0.049325664 -0.03307917 0.0596153 0.03542991
000390 90 b2 14 bd 7b 2f 90 3d 59 a6 96 bc 6b 79 2d bd
       -0.036303103 0.07040306 -0.018389868 -0.04235212
0003a0 b2 da 22 bc 32 da 1a 3e 13 28 a9 3a 92 70 8a 3d
       -0.009939836 0.15122297 0.001290562 0.06759752
0003b0 b3 b7 ee 3d ca 8d 45 bc 14 34 44 bd 9f 5d b3 3b
       0.116561316 -0.012057731 -0.047901228 0.005473807
0003c0 b9 1c ec bc b6 a3 0a 3e df 4a e9 3d 2d d5 f3 3b
       -0.02882229 0.13539013 0.11391234 0.007441184
0003d0 85 fb 9c 3c c0 d6 33 3d 3e 20 21 3c 35 00 84 bc
       0.019162903 0.043905973 0.009834347 -0.01611338
0003e0 01 39 a7 3a 29 04 92 bd 2b 78 b6 3c 32 db a5 bd
       0.0012758077 -0.071297 0.022274097 -0.08098449
0003f0 f3 64 80 3d 6f 97 b7 bd 6b 83 7e bd d6 ec 6b 3d
       0.062692545 -0.089644305 -0.06213705 0.05759891

lstm.bias_ih_l0 f4 [256]
000000 68 e1 02 3e 23 96 e4 3d 25 ea 28 3e 1f 90 b2 bd
       0.12781298 0.11161449 0.16495569 -0.08718895
000010 6b d4 89 3d e1 9f ad bd 10 82 b1 bc d2 48 ba 3d
       0.06729969 -0.0847776 -0.021668464 0.090959206
000020 10 fb 11 3e a5 fd 8f 3d 19 da 83 3e 2b bf 2e 3e
       0.14255929 0.07030801 0.25752333 0.17065112
000030 ab 21 3e 3c ce c0 58 3d 72 bb b1 3c e9 32 c4 3d
       0.011604707 0.052918248 0.021695826 0.09580023
000040 ef 6c c0 bd c2 b2 a9 3d 9e f9 f7 3c 8b eb 13 3e
       -0.093957774 0.082860485 0.030270394 0.14445321
000050 08 2d 4a bd 02 1b 5e 3d 19 67 5d bd 0f 8d 95 bd
       -0.04935935 0.054224975 -0.0540534 -0.073022954
000060 8b 95 34 3e cd 98 49 3e 92 e6 81 3c ea 37 86 bc
       0.17635171 0.19687195 0.015857015 -0.016384084
000070 ae 61 b0 3c e1 1b 06 3e 0a 92 57 bd bd f8 5c 3e
       0.021530952 0.13096572 -0.052629508 0.21579261
000080 0c bb 18 bb 42 b8 c5 bd 2f 17 59 3e 17 a5 26 3d
       -0.0023304848 -0.09654285 0.2120025 0.040684786
000090 72 ae f5 3d 40 ed 15 3e 5f c7 80 3d 2b 82 96 3d
       0.119961634 0.14641285 0.06288027 0.07349046
0000a0 9c 24 81 3e b7 c5 94 3d 55 18 fa 3c f5 49 ac 3d
       0.25223243 0.072642736 0.03052918 0.08412544
0000b0 73 2d 22 3e 8d d9 0e bd fb 18 4a 3d 57 1a a9 3d
       0.1583765 -0.03487544 0.04934023 0.08256977
0000c0 5e e5 fe 3d 7a 5a b5 bd 52 3b 96 3d cd c9 92 3d
       0.12446092 -0.08855148 0.07335533 0.07167397
0000d0 fb 7d 31 3e af 73 68 3e 89 30 83 3d ea 9e a9 3d
       0.17333214 0.2270038 0.06405742 0.082822636
0000e0 fc 9e 81 3d d6 d7 f2 3c f2 d3 5f bd 9f 4d 8b 3e
       0.06329152 0.029643934 -0.054645486 0.27207658
0000f0 58 38 c0 3d e5 8b fe 3d 8f c6 2a 3d e0 25 c7 bc
       0.09385747 0.124290265 0.041693266 -0.024310052
000100 e2 75 61 bd 72 d0 06 3e d9 01 80 bd fd c4 ee 3d
       -0.055044062 0.13165453 -0.062503524 0.11658666
000110 a6 1e 97 bd bf 7d 7f 3d 55 af 1c 3e 86 1e 9a 3d
       -0.073788926 0.06237578 0.15301259 0.07525353
000120 7d 05 7a bd e8 a4 83 3d 79 89 8c 3d 45 c2 0f bd
       -0.06104039 0.06427938 0.06862158 -0.03509738
000130 94 e8 f2 3b 79 eb 90 3d 5e 17 e2 3d 1b d1 1a bd
       0.0074129794 0.07076163 0.11039613 -0.037797075
000140 8e 3b 8b 3d c6 47 69 bd 84 f1 c9 3c c9 9f 42 bd
       0.067984685 -0.056953214 0.024651296 -0.047515664
000150 c5 2f d6 bc d5 55 c0 3d 0a c7 50 3b f1 35 d8 3d
       -0.026145825 0.09391371 0.0031856918 0.105571635
000160 b0 2a 37 bd 16 8c 94 bc 48 60 ba 3d d9 aa fb 3d
       -0.044718444 -0.018133204 0.091003954 0.12288446
000170 5d 3a de 3d ac 2b 40 3e fa a4 ff bc a5 f0 df 3d
       0.10850976 0.1876666 -0.031206597 0.10934571
000180 32 90 c7 3d 7a 0a 88 3d 6e 72 24 3d 62 8d 9f 3c
       0.097443 0.06642623 0.04014819 0.019476596
000190 1d bb 4e 3d cd b9 13 bd 95 e5 e9 3c db 55 8c bd
       0.050471414 -0.036065865 0.028551856 -0.06852313
0001a0 9c c5 00 bc 7c 41 2d 3e 1b 45 16 3e f5 89 f7 3d
       -0.007859614 0.16919512 0.14674799 0.1208686
0001b0 df e6 c0 3d 8c a8 b5 bc fc 3c 06 3c 23 f2 11 3e
       0.09419035 -0.022175096 0.008193251 0.14252524
0001c0 31 7d c5 3c ec 7c ba bd 34 9c 8e 3c 4c ee 42 bd
       0.024107547 -0.09105858 0.017408468 -0.04759054
0001d0 e6 cc 69 3c ee 37 57 3d f7 14 e9 3c 41 fb 8d 3c
       0.014270043 0.052543573 0.02845238 0.017331721
0001e0 d2 2d d2 bc 77 83 38 3e 75 9f 94 bd d0 d0 ac bb
       -0.025656614 0.180189 -0.072569765 -0.005273916
0001f0 45 b3 e9 3d bb 64 94 bc 3e 6c df bc 00 56 0b 3e
       0.11411146 -0.018114438 -0.027273294 0.13607025
000200 11 b2 2d bd c7 8c f4 bd 1f 3d 3a bd 3b c6 31 bc
       -0.042406145 -0.11940914 -0.045468446 -0.0108504845
000210 7f 3e d2 3d 1e c7 15 bd f6 da 47 bd f1 5a 0b 3d
       0.102658264 -0.036566846 -0.0487928 0.034022275
000220 08 b0 4b 3d 7d 63 bc 3d e6 5d ea bd 89 a7 fd bd
       0.049728423 0.091986634 -0.11443691 -0.123854704
000230 1f 06 c3 3d 28 1e d4 3d 71 a5 9f bd 25 94 c7 bc
       0.09522652 0.10357314 -0.07795227 -0.024362633
000240 00 0a 8c bd 90 39 d6 bc 22 9b a1 bd cf f3 86 3d
       -0.06837845 -0.026150495 -0.07890917 0.065894715
000250 2c 11 00 3e ef c7 11 bd 49 e4 0d be a3 7d e8 3d
       0.1250655 -0.035591062 -0.13856615 0.11352088
000260 46 aa ba 3d f6 eb e2 3d c1 01 57 3d 44 41 9b 3d
       0.09114508 0.11080162 0.052491907 0.07580808
000270 64 01 ae bd 8b 2e 0e 3c 18 4d 84 3d b5 94 22 3e
       -0.08496359 0.008678089 0.06460017 0.1587704
000280 1d 63 79 bd 0a a6 97 3d 82 97 e5 3c 9d a6 e3 bd
       -0.060885537 0.07404716 0.028026346 -0.11115763
000290 e0 cd f9 3d 1d fa ca 3d 07 42 c6 bd 85 84 25 3d
       0.12197471 0.099109866 -0.096805625 0.040409584
0002a0 3a 26 34 3d 37 42 a0 3d ec 94 f1 3d 24 f7 ee bd
       0.04398177 0.078251295 0.11795983 -0.11668232
0002b0 1f 95 de 3b 7f 72 c9 bd fd 3a 6f 3d 53 43 10 be
       0.006792679 -0.098362915 0.058405865 -0.14088182
0002c0 73 3e c9 bd 15 f5 95 3d 98 8e 4b ba 19 84 06 3e
       -0.09826364 0.07322136 -0.00077650836 0.13136329
0002d0 77 80 0d be a6 0d cc bd eb c7 82 bd 73 76 14 3e
       -0.13818537 -0.09963541 -0.063857876 0.1449831
0002e0 8c 7b 47 3b 76 bc 0d be b5 5e a7 bd 0e 8d f4 3d
       0.003043863 -0.13841423 -0.08172361 0.119409665
0002f0 d0 ab ca 3d 13 7e 8d 3d e5 f6 00 3e 83 45 13 3e
       0.09896052 0.069088124 0.12594183 0.14381985
000300 66 c3 fa 3d 1a 2e 2d 3d c1 1e 36 3d 0f ab e6 3d
       0.122443005 0.042280294 0.044462923 0.112630956
000310 09 6b 51 3e 72 27 9d 3d 78 7e 1b 3e c9 19 27 3e
       0.20450987 0.07673539 0.15184963 0.1631843
000320 3a f3 fc 3d 6e 24 70 bd 44 29 77 3e a0 42 ba 3d
       0.12351079 -0.058628492 0.24136835 0.09094739
000330 08 04 e0 3d 16 71 c4 bc 49 37 f5 3c dc c3 55 3d
       0.10938269 -0.023979705 0.029933589 0.05218874
000340 06 e2 00 3e 39 b2 a9 bb a1 d6 20 3e 8f c7 45 3e
       0.12586221 -0.0051787165 0.15706874 0.19314407
000350 2a e3 93 bc 97 61 67 3e f7 c2 b2 bd ad cd 89 3d
       -0.018052656 0.22595821 -0.08728593 0.06728683
000360 8a e0 d2 3d 83 51 fd ba f9 3f 67 3d 86 06 03 3e
       0.10296734 -0.001932666 0.056457493 0.12795457
000370 02 61 98 3d a8 2b 6d 3d 5d 72 2c 3d bb e8 1a 3d
       0.07440378 0.057902962 0.042101253 0.037819605
000380 1b fc 2a 3e 3f 38 d5 3d 46 ad 37 3e 3d 1a ba 3d
       0.16697733 0.10411119 0.17937192 0.09087036
000390 72 63 08 3e 9f 51 ce 3d d5 9f c2 3d 69 b2 f7 3d
       0.13319185 0.10074162 0.09503142 0.12094576
0003a0 bd e8 f6 3d 5c 11 41 bd 63 28 9c bc f4 4a 6f ba
       0.1205611 -0.047135696 -0.019062227 -0.00091282954
0003b0 2e 98 1f 3d a7 fb 00 ba 67 36 17 3e 1f 27 8c 3e
       0.03896349 -0.00049203116 0.14766847 0.27373597
0003c0 4c ec 59 bc 46 af e8 3d 46 dd 24 3e 41 71 c3 bd
       -0.0133009665 0.11361556 0.16100034 -0.09543086
0003d0 35 c3 5e 3e 39 82 8f 3e 65 b8 2e 3e 34 d1 81 3d
       0.21754153 0.2802904 0.17062528 0.063387305
0003e0 54 f9 07 bd db 98 60 3e 07 1a b7 bc 98 7a bb 3e
       -0.033196762 0.2193331 -0.022351278 0.3661697
0003f0 d0 9c f5 3c 33 b2 92 3d 12 82 83 3c d0 78 fc 3d
       0.029982 0.07162895 0.016053233 0.12327731

lstm.bias_hh_l0 f4 [256]
000000 59 89 df 3c 80 2a f8 3a a0 ce 17 3e 36 ea 8b 3c
       0.027287172 0.0018933564 0.14824915 0.017079454
000010 51 23 be 3d a7 10 d6 3d 32 1c 33 3d 84 d1 a5 bd
       0.0928408 0.10452395 0.04372806 -0.080966026
000020 0c c5 dc 3d e4 7d 05 3e 7f 2a ec 3e d5 08 02 3c
       0.10779771 0.13036305 0.46126172 0.007936676
000030 f0 26 ce bc fe 8f b1 3d c8 77 b0 3d cc a8 1d bc
       -0.025165051 0.086700425 0.086165965 -0.009622764
000040 99 a6 96 3d b3 4c 3a bd 8f 76 37 3e 1e 2d a5 3c
       0.07355995 -0.045483302 0.1791632 0.020163115
000050 5b 04 83 3d 87 66 ab 3d 5e dc 75 3b 3e 92 14 3e
       0.06397315 0.08369165 0.0037515382 0.14508912
000060 d8 16 36 3e 7c 1a 20 3c 55 b6 09 3e d1 12 b7 bd
       0.17782152 0.009771939 0.1344846 -0.08939136
000070 90 1a 9e 3c 63 7f 29 3e ac 9b 89 bb 2b 68 ab 3d
       0.019299775 0.165525 -0.0041994657 0.08369478
000080 76 d9 b9 bc a7 c2 62 bd e0 58 48 3e 8d aa da 3d
       -0.022686701 -0.055361416 0.19565153 0.10677061
000090 48 0c a8 3d cf 4c b8 3d b3 80 35 bd 26 df 56 ba
       0.082054675 0.08999025 -0.04431219 -0.0008196704
0000a0 25 c9 7b 3e 08 64 ff 3d 50 5a 24 3c c5 2e 13 3d
       0.2458845 0.12470251 0.010031298 0.035933275
0000b0 18 ff ae 3c c3 78 c3 3d b2 c0 e2 3d e5 7b 02 3e
       0.021361873 0.09544518 0.1107191 0.12742575
0000c0 7d 39 a5 3c 49 f5 c0 bc ea 2f 8b 3e 36 3e 75 3d
       0.020169014 -0.023554461 0.27184993 0.059873782
0000d0 af a9 2c 3e 92 63 35 3e de a1 c4 3d 87 a9 0a 3e
       0.16861604 0.17713764 0.09601186 0.13541232
0000e0 c9 31 fc 3d d4 86 77 3d 30 cf ef 3a 05 91 56 3e
       0.12314183 0.060431316 0.0018296 0.20953758
0000f0 12 3b a3 bd 5b 6f 23 3d 05 68 9e bd 51 5b 74 3c
       -0.07970251 0.03990112 -0.07734684 0.01491435
000100 26 a0 c8 bc 25 40 5e bd c8 32 a8 bc d0 76 f8 ba
       -0.024490427 -0.05426039 -0.020532027 -0.0018956307
000110 c2 2c 4a 39 bd 78 a8 3d 16 55 ad 3d 1c c0 94 3d
       0.00019280895 0.08226154 0.084634945 0.072632045
000120 85 92 82 3c 55 00 56 bc 16 1c 27 3e f4 80 00 bd
       0.015939007 -0.013061603 0.16319308 -0.03137298
000130 ca 16 89 bc 91 44 5c 3d f5 7d f9 3d 94 7b 8b bd
       -0.0167345 0.053776328 0.121822275 -0.0681068
000140 f4 ab cf 3c 2a 6c 27 bd c2 f8 15 3c 80 6f 8c bd
       0.025350548 -0.040874638 0.009153547 -0.068572044
000150 fa f5 0a 3e 43 d4 fa 3d 22 1f 8b 3d 68 32 95 3d
       0.13570395 0.12247517 0.067930475 0.07285005
000160 8f 69 55 bd e0 e1 c9 3c 5c 32 00 be 63 dc b1 bc
       -0.05210262 0.024643838 -0.1251921 -0.021711534
000170 97 a9 25 3e cf 89 8f 3d 2d 7b 39 3d 1a 0e 7f bb
       0.16177975 0.07008707 0.045283485 -0.0038918317
000180 54 68 12 bd 7b cd 80 bb fe fe 4c bb f4 2a 92 3d
       -0.035744026 -0.003930745 -0.0031279917 0.07137099
000190 12 27 a5 bd 7f 02 49 3d 63 af 11 3e e8 18 0f bd
       -0.08064093 0.049074646 0.14227061 -0.03493586
0001a0 1b e0 7d 3c 92 8b 1d 39 cb 94 10 bd e9 89 2b bd
       0.015495325 0.00015024681 -0.03529815 -0.04187957
0001b0 24 5a d0 3d c5 f1 03 bc 01 c7 3f 3c d9 6a 22 3e
       0.10173443 -0.008053248 0.011705161 0.15861072
0001c0 95 83 ff 3d ca 09 9c bd d8 e7 5f bd bf 52 aa bc
       0.12476269 -0.076190546 -0.054664463 -0.02079141
0001d0 a9 4e 08 be 76 66 33 3e 77 19 89 bc f7 93 51 bc
       -0.13311256 0.17519554 -0.016735775 -0.012791625
0001e0 cb 20 fc 3c c8 e0 37 3e 91 91 37 bd 45 f9 d1 3c
       0.030777356 0.17956841 -0.044816557 0.025631556
0001f0 5d db eb 3d 52 01 19 3e 4e c1 5e bc c2 11 0b 3e
       0.115164496 0.1494191 -0.013595892 0.13580993
000200 96 5b c0 bc 05 eb d4 3d b8 f2 23 3d e9 12 12 3e
       -0.023481172 0.10396389 0.040026397 0.14265026
000210 ee d8 43 bd d3 a7 15 be c5 bf d0 bc 0e f7 71 3d
       -0.047814302 -0.14614801 -0.025482068 0.0590735
000220 98 d0 15 3c 9f 73 d7 3d fb e4 05 3e 15 b0 61 bd
       0.009143971 0.105201 0.1307563 -0.055099566
000230 87 fd df 3d 67 4b 0e 3d ee b4 bd bc 3c 24 56 bd
       0.109370284 0.034739878 -0.023157563 -0.05228065
000240 79 a0 bf bc 14 e7 c9 3c ef 76 d5 3d d9 5f 9e 3d
       -0.023391949 0.02464632 0.104230754 0.07733125
000250 f2 77 10 3c 4d df 36 bd 24 cd 02 be a8 a3 79 bd
       0.00881766 -0.04464655 -0.12773567 -0.06094709
000260 02 18 7b 3d 74 2d 94 3d df 46 78 bd 4a b0 65 bd
       0.061302193 0.07235232 -0.060614463 -0.056076325
000270 2b da 22 3d 76 80 1d bd 50 36 c9 3d c8 62 38 3c
       0.039758842 -0.038452588 0.098248124 0.01125402
000280 f2 96 a6 3d 50 98 b5 bd d1 d0 5d bc 20 a7 ef bd
       0.08134259 -0.08866942 -0.013538555 -0.117017984
000290 4d cd 35 3d 1a 60 61 bd 16 58 ec 3d aa c7 05 be
       0.044385243 -0.05502329 0.115402386 -0.13064447
0002a0 97 68 8e 3d 91 39 f0 bc a9 62 37 3d cf eb 93 3d
       0.06953543 -0.029324325 0.044771824 0.07222711
0002b0 bb b4 e0 3c 2e f2 a0 3d 9c 0b 8b bd 41 48 ae bd
       0.027429929 0.07858692 -0.06789324 -0.08509875
0002c0 1b 82 8b bd a0 e3 37 3d b6 cc 81 bd 47 07 f9 3d
       -0.06811925 0.044894814 -0.06337874 0.12159591
0002d0 4c 1b 35 3d 8f 40 9f 3d ff b3 91 3d c9 6a e5 3d
       0.044215485 0.077759854 0.0711441 0.11202008
0002e0 c8 b2 0a bc 5e 73 58 3c 05 00 8b 3b 8e 37 c1 bd
       -0.008465476 0.013211099 0.0042419457 -0.09434424
0002f0 ce 57 e2 bd 46 f9 79 3c 5c 13 fc 3c 37 51 dd 3d
       -0.11051904 0.015257185 0.03077095 0.10806506
000300 07 9b 1f 3e fa 67 37 3d e8 6d f4 3d 62 54 61 bd
       0.15586482 0.044776894 0.119350255 -0.055012114
000310 9a 87 48 3e 8d 10 49 3d 1f c9 85 bc 50 12 de 3c
       0.19582978 0.04908805 -0.016331254 0.027108341
000320 6d 2f 34 3e 5a 96 b2 3d 4c fe 85 3e 44 7a 32 3e
       0.17596216 0.087200835 0.26170576 0.17429453
000330 1b dd 9f 3d 86 3d 06 bd bc cd 37 3c d3 f3 ce bc
       0.078058444 -0.032773517 0.0112184845 -0.025262749
000340 47 56 90 bd 7a cb a9 bc 41 15 29 3d 2f 79 77 3e
       -0.07047706 -0.020726908 0.041280035 0.24167322
000350 e5 46 14 3e 8b e7 74 3e 4c c3 27 bd 88 e7 85 bb
       0.14480169 0.23916452 -0.040957734 -0.0040864386
000360 31 a1 c6 3d ac 1b 0a 3e ff 4a d6 bc 2e a8 97 bd
       0.096987136 0.13487118 -0.026158808 -0.074051246
000370 64 7b 56 bd c5 4e 89 3d e7 99 4b bd be 73 3e 3e
       -0.05236377 0.06704477 -0.04970732 0.1859884
000380 ef 36 57 bd 68 6c 6d bb 18 79 aa 3c 03 39 b4 3d
       -0.052542623 -0.0036227945 0.020809695 0.087999366
000390 15 e2 6d bd 62 00 77 bd 7f 59 80 bc bc 1f b7 3d
       -0.058076937 -0.0603031 -0.015667675 0.089416
0003a0 66 25 12 3e 45 84 7d 3c 58 a8 a9 3d 63 bf e6 bc
       0.14272079 0.01547343 0.08284062 -0.028167432
0003b0 fc 61 98 3d eb 8a 03 3e 28 b4 75 3d c5 4e 5a 3e
       0.07440564 0.12845962 0.059986264 0.2131911
0003c0 f4 72 1e 3e 66 ca c8 bd 3a 44 bd 3d dd 43 ab bd
       0.15473539 -0.098042294 0.09241529 -0.08362553
0003d0 ef 4a 1e 3e 08 53 6d 3e 9d 95 cf 3d fb ee 00 3e
       0.15458272 0.23176205 0.10135958 0.12591164
0003e0 1e aa 33 bd d4 04 38 3d 36 bc ad bc bd 63 6a 3e
       -0.04386341 0.04492648 -0.02120791 0.2288961
0003f0 0b c7 43 bd c8 15 01 3e 94 93 28 3d 13 8d 32 3d
       -0.047797244 0.12605965 0.041156366 0.04359157

lstm.weight_ih_l1 f4 [256, 64]
000000 9c e5 a4 3c c6 e6 a1 bd b0 8e 05 bd b6 56 c6 bd
       0.020129018 -0.07905345 -0.03260678 -0.096845075
000010 a3 8e bc 3d 8e 54 5c bd 1b 4a 06 be 9e c2 1a 3b
       0.09206893 -0.053791575 -0.13114206 0.0023614536
000020 2d b0 29 3e 33 84 13 3d 18 17 ff bd ed 73 9d bd
       0.16571112 0.036014747 -0.12455577 -0.07688127
000030 83 6f b8 3d 82 5f bd 3d 36 c8 e1 bc d1 98 76 bd
       0.09005644 0.09246732 -0.027561288 -0.06020433
000040 45 43 e9 3c 6a 14 8f bd 7c d4 12 3d b1 ec 5a be
       0.02847446 -0.069863155 0.035847172 -0.21379353
000050 a6 ec ba bd 03 ff 37 bd 08 73 a7 bd 4e d3 0a bd
       -0.09127168 -0.044920933 -0.08176237 -0.033892922
000060 6b a7 a5 3d 88 00 b8 3c 66 81 18 3e 7e 82 a8 3d
       0.08088573 0.02246119 0.14893112 0.082280144
000070 fe 1b 01 bd 99 49 9b bd ab 7e f6 3d 2d f7 18 bd
       -0.031520836 -0.07582397 0.12035879 -0.0373451
000080 ba 4d d1 3c 14 d8 42 bd 84 0b a1 bd 57 23 23 3e
       0.025549758 -0.04756935 -0.078635246 0.1593145
000090 be bd 1f 3e 9c 92 f2 3d 57 d6 a1 3d 2f 10 c6 3d
       0.15599725 0.1184437 0.0790221 0.096710555
0000a0 a5 aa 26 3d b8 0f 3c bd fa 5c 2b bd 2b fe 18 bc
       0.040690083 -0.045913428 -0.041836716 -0.009337942
0000b0 13 25 fb 3d f1 58 e8 3b df f5 21 3d 7d 1f 94 be
       0.12262931 0.0070906808 0.03954112 -0.28930274
0000c0 7b b3 b1 3d e4 c4 a7 bd c9 e3 6f bd 7c dd 02 bd
       0.08676811 -0.08191851 -0.058566842 -0.031949505
0000d0 e9 f1 b5 3b 16 ed b9 3d 19 df 88 3c c3 b1 84 be
       0.0055525196 0.09078424 0.016707944 -0.2591687
0000e0 41 a9 4b 3e 66 7a f6 bc e3 ef 0c be d8 03 6b be
       0.19888784 -0.030087661 -0.13763385 -0.22950685
0000f0 e8 9b 00 be b0 8c 2e be 30 f9 be 3d 82 06 a1 bd
       -0.12559474 -0.17045856 0.093248725 -0.078625694
000100 26 1a 3e 3d cd dc ae 3d 92 1a cb bd 24 db 53 be
       0.046411656 0.08538208 -0.09917177 -0.20689064
000110 5e 6f a8 3c c6 8f aa 3d 41 be 27 3d bd d1 ea bd
       0.020560917 0.08328204 0.040952925 -0.11465786
000120 0d 9a 19 be a3 f7 a5 3d 3b f3 55 3e ec c8 ce bd
       -0.15000172 0.081038736 0.20893566 -0.100969166
000130 a1 a7 30 3e 4d bb 22 be 57 6b d3 bd 09 f0 aa bd
       0.17251445 -0.15891762 -0.10323208 -0.08346564
000140 eb af 2c 3d 94 b2 9c bc 01 85 50 3d b1 86 8a 3e
       0.042159956 -0.019128121 0.050908092 0.27055886
000150 43 32 05 3d 91 5e 8b bd f8 52 a6 3d ad 34 b6 3d
       0.032518636 -0.068051465 0.08121294 0.08896766
000160 20 74 f5 bd b0 0e 97 3c 48 0b 12 3c c2 55 b5 3d
       -0.1198504 0.01843962 0.0089138225 0.08854248
000170 e9 78 5e 3d b3 94 24 3e 6c 1b 8a 3c 24 ef 43 3c
       0.054314528 0.16072349 0.016858779 0.011958871
000180 1e 75 f7 3d e5 4b 43 be b0 8f 96 3c 24 06 10 bd
       0.12082885 -0.1907192 0.018379062 -0.035162106
000190 93 c7 63 3b 0f 6d 2e bc 82 54 19 bc 78 6d 14 3e
       0.0034756407 -0.010646119 -0.009358527 0.14494884
0001a0 a2 75 12 3e 0a eb 20 3c 62 94 11 be 35 23 be 3c
       0.14302686 0.009821663 -0.1421676 0.023210147
0001b0 15 4c 81 3c 5e ad 06 3e ab e4 39 be 7d 8f 3c 3e
       0.015783349 0.13152072 -0.18153636 0.18414111
0001c0 de d7 fc 3d e4 83 33 3d 78 88 89 3d b1 71 65 3c
       0.12345861 0.043826953 0.067154825 0.014004157
0001d0 74 84 07 bd ed d9 86 bd 07 54 e2 bd 92 b4 7b be
       -0.0330853 -0.06584535 -0.11051183 -0.24580601
0001e0 4c 29 be 3a a9 64 71 bd d8 e1 98 3d 54 ad cf 3d
       0.0014508157 -0.058933888 0.07464951 0.101404816
0001f0 ee fd b4 3d 99 9e ee 3c 95 f6 5d bd 6f 70 25 bd
       0.08837496 0.02912836 -0.054190237 -0.04039043
000200 df ae 7a b9 72 02 08 3e 61 65 ec 3d 44 46 c3 bc
       -0.00023907002 0.13282183 0.11542774 -0.023837216
000210 88 db a9 3c 3c 99 fb bc 5f fd 71 3d e2 8f c0 3c
       0.020734563 -0.030712716 0.059079524 0.023506109
000220 fc 69 f1 bd 71 52 fc bd ff 4c 59 be 86 c2 19 3d
       -0.11787793 -0.12320412 -0.21220778 0.037539028
000230 3b 54 72 bd 40 3f 19 be 7b 98 30 bd b3 37 db 3d
       -0.05916236 -0.14965534 -0.043114167 0.10703983
000240 47 e3 35 3e d9 3f c9 bd 97 4e 28 3d 43 3a b8 3c
       0.1776248 -0.09826631 0.041090574 0.022488719
000250 eb 73 a7 bd c4 81 d9 3d ba 83 0f be 25 a0 84 3d
       -0.081764065 0.10620454 -0.14015093 0.06475858
000260 5f 20 cc 3d 97 4e 05 bd 55 33 34 3d 65 36 9b 3d
       0.09967112 -0.032545652 0.043994267 0.07578734
000270 bc d0 5a bb 25 f7 36 3d 06 da 87 bc fa 15 1b bd
       -0.0033388576 0.04466929 -0.016583454 -0.037862755
000280 81 12 c5 3d 90 86 07 bd d9 b7 9d bd 69 e1 2d be
       0.0962267 -0.033087313 -0.07701082 -0.16980518
000290 8c 80 0d bd 54 95 0d 3e 84 eb bb bd 5d e3 8a bd
       -0.03454642 0.13826495 -0.091757804 -0.06781647
0002a0 16 37 06 be 73 0f d1 bc 4c 5c a7 3d 6f c0 22 3e
       -0.13106951 -0.025520062 0.08171901 0.1589372
0002b0 69 af d7 3c 16 41 08 3d 9a 14 06 bd b4 3d c6 bd
       0.02632876 0.033265196 -0.03273449 -0.09679738
0002c0 ee 10 e0 3d 0b a1 1c 3e 78 89 ab 3c 60 9b 8b bd
       0.10940729 0.15295808 0.020939574 -0.06816745
0002d0 0f 30 cb 3b a4 0e 00 bb 48 5b 93 bd 34 d7 03 bc
       0.0062007974 -0.0019539976 -0.07195145 -0.008046914
0002e0 6b a6 da 3d b4 00 c0 3d 93 23 01 be 45 36 bd bb
       0.10676273 0.09375134 -0.12611227 -0.0057742917
0002f0 99 0b 00 bb 89 67 50 3d ed c8 81 3d 03 b0 8d bd
       -0.0019538163 0.05087999 0.06337152 -0.06918337
000300 b1 64 4b be e6 b0 f0 3c 3e 86 b5 3d b1 33 42 3d
       -0.1986263 0.029381227 0.08863495 0.047412578
000310 ab 1e 37 3e 1c 5f ad bd f8 9f ba bd b8 38 04 be
       0.17882793 -0.08465406 -0.09112543 -0.12912261
000320 e5 1f 09 3d 23 d9 9b 3d 16 53 ac 3e 9c 64 b2 bd
       0.033477683 0.07609775 0.3365714 -0.08710596
000330 da 82 f4 3c f1 48 f5 bc b7 52 13 3c b7 8c d0 bd
       0.029847551 -0.029942008 0.008991889 -0.10183089
000340 e7 a2 08 bd bb d1 8f bc 9d a1 a0 bd b2 44 34 3e
       -0.03335848 -0.017556062 -0.07843325 0.1760433
000350 6f a1 b2 3d 34 5e f1 bd 1b f6 b6 bc 2e 9b 62 bd
       0.08722197 -0.11785546 -0.02233415 -0.055323772
000360 0b 5c ab 3d 50 e5 2c bd 8c c1 dd 3d 4c 35 aa bc
       0.08367165 -0.042210877 0.10827932 -0.020777367
000370 1d eb 53 3d dd d1 ed 3d 33 d8 61 3b b0 55 8c 3d
       0.051737893 0.11612294 0.003446114 0.06852281
000380 c6 45 9b 3d 4c a1 60 3d 2b 75 ae bd 48 bb 71 bd
       0.075816676 0.054841325 -0.08518442 -0.059016496
000390 c2 c2 29 3e a6 0b ea bd a3 30 22 be 9f 53 a8 bd
       0.165782 -0.11428003 -0.15838866 -0.082190745
0003a0 2b e9 87 3d a1 58 b6 bd 2c 12 6a 3c b3 64 84 bc
       0.0663627 -0.08903623 0.014286559 -0.016161298
0003b0 5d f5 65 3d 7c 78 d6 bd 0e 63 3e be aa 27 c2 bc
       0.0561422 -0.10472199 -0.18592474 -0.023700554
0003c0 6a ad 9a bd d6 70 1d 3e 4f 05 0b 3e f5 b3 8e 3d
       -0.07552607 0.15375075 0.13576244 0.06967918
0003d0 0e ac 65 3d 89 68 e5 3d 36 e6 c0 bd a7 85 51 3d
       0.056072287 0.11201579 -0.09418909 0.05115285
0003e0 43 ab 51 bc b8 1a e6 3c d5 69 db bc 71 2f b9 bb
       -0.01279718 0.028088912 -0.026783863 -0.0056514074
0003f0 c4 b7 0a 3e 1a dd 78 3d 76 17 6c bc e8 89 36 bd
       0.13546664 0.060757734 -0.01440989 -0.04456511

lstm.weight_hh_l1 f4 [256, 64]
000000 30 15 f5 bd c5 40 59 3d 42 68 15 3d 8d be b4 bc
       -0.11966932 0.053040285 0.03647638 -0.022063518
000010 76 65 70 3e 17 af df bc 63 92 55 3d fa 8f ee bd
       0.23476204 -0.027305169 0.05214156 -0.11648555
000020 90 46 fd bd 53 a1 59 bc a4 24 41 3e ad 6e 8c bd
       -0.12366974 -0.013283092 0.18861634 -0.06857047
000030 60 6f 09 bd 26 be 9e bd 9f c3 17 3d 8d 6e 77 bd
       -0.03355348 -0.07751112 0.037051793 -0.060408164
000040 f2 e8 d7 3d 5c db d1 b9 09 d2 a1 3d b6 a2 75 3c
       0.10542478 -0.00040027022 0.07901389 0.014992407
000050 b1 23 2e 3d cb 72 02 3d 54 f4 75 bd 9a 55 05 3e
       0.042514507 0.031847756 -0.060047463 0.13020936
000060 5f 7f e4 bd 0b b1 54 bd 30 83 80 3b 83 7a 52 3e
       -0.111571066 -0.051926654 0.003921889 0.20554547
000070 e4 d4 42 3e d2 58 ba bd 53 0e f9 bd 66 b3 05 be
       0.19026524 -0.090989724 -0.12160935 -0.13056716
000080 a6 22 4a 3e 57 66 4d bd 0d b0 0e 3e 72 c9 95 3c
       0.1973978 -0.050146427 0.13934346 0.018284533
000090 c6 a2 8e 3d 28 f5 f6 bd 98 b3 94 bd 54 a4 44 3d
       0.0696464 -0.120584786 -0.07260817 0.048008278
0000a0 7e a9 09 be 5a 15 b7 bc d0 33 b4 bc a6 e6 e0 3d
       -0.13443562 -0.022349048 -0.021997362 0.10981493
0000b0 2b 54 cb bd db 2f 87 bd 24 0a ce ba db 4c e0 3c
       -0.09928163 -0.066009246 -0.0015719575 0.027380398
0000c0 6f c9 b6 3c bc 80 ef 3b fc c9 b4 3c 31 58 ff bd
       0.022312848 0.0073090475 0.02206897 -0.12467993
0000d0 41 cb 7e 3d 7c b9 42 bd df 80 fe bc 0f e5 41 3e
       0.062205557 -0.047540173 -0.03106731 0.18935035
0000e0 2f 93 0c be 19 fc c7 bd b7 cc e8 3d 0f 79 61 3c
       -0.13728021 -0.09764881 0.11367171 0.013761773
0000f0 c0 8d b0 bd 9a 2c 29 3d 24 75 18 bd 33 cb 96 3d
       -0.08620787 0.0413023 -0.03722109 0.07362976
000100 58 e3 30 3e 23 76 25 3d 6d 33 15 be 64 7e d4 bc
       0.17274225 0.040395867 -0.14570399 -0.025939174
000110 bd 57 98 bd 2c f4 e8 bc 36 ec 58 3d 02 a9 bd bd
       -0.0743861 -0.028436743 0.052959643 -0.09260751
000120 ca 89 01 be dc 52 cf 3b 36 28 a3 bb c8 e9 73 be
       -0.12650219 0.0063270163 -0.0049791588 -0.23819649
000130 d3 d7 fd bb 8d 3f b5 3d 7f a9 9e 3d 79 27 17 bc
       -0.0077466755 0.08850012 0.077471726 -0.00922572
000140 d2 f8 2d bd 09 57 c8 3d ca d2 06 3e 0a be 10 3d
       -0.04247362 0.09782226 0.13166347 0.035337485
000150 ce 95 c7 3d 8a 03 30 3e 0b 9a 8a bc 9f d4 9e bd
       0.0974537 0.1718885 -0.016919157 -0.07755398
000160 58 23 28 3e 65 bc 27 be b5 60 b8 3c d7 2e 95 3d
       0.16419733 -0.1638046 0.022507051 0.072843246
000170 8d de 4c 3d 87 0e 82 ba 51 62 11 be 64 e2 06 3e
       0.05001693 -0.0009922542 -0.14197661 0.13172299
000180 97 46 3f bd 1d 2c cb 3c cd 9b 4a 3d e1 cd 85 bd
       -0.04669818 0.024801308 0.04946499 -0.06533409
000190 e2 7d ff bd 4c fd 6c 3d 6d 04 6b bd ff 83 05 3e
       -0.12475182 0.05785875 -0.057377268 0.13038634
0001a0 b5 87 94 3d 1f 3a 93 3d 8d 1f 22 be 03 5e 87 3d
       0.072524466 0.0718882 -0.15832348 0.06609728
0001b0 33 a9 aa bd 30 11 38 be b6 30 2f 3d 00 09 69 3d
       -0.083330534 -0.17975307 0.042771064 0.05689335
0001c0 43 76 01 3e 75 53 b2 bd f0 22 88 3e f0 c6 05 3e
       0.1264277 -0.087073244 0.26589155 0.1306417
0001d0 93 b0 b8 bd 32 61 fd bd f0 6a f9 bc 1b a4 ff bc
       -0.09018054 -0.12372054 -0.0304465 -0.031206181
0001e0 ed ea 9d bc c4 fb 07 be 7f 5a 51 3d b4 43 5b bd
       -0.01927706 -0.13279635 0.051111694 -0.053531364
0001f0 6a 93 a4 be 83 64 7f 3d f3 5e 82 bd 04 25 0f bd
       -0.32143718 0.062351715 -0.063657664 -0.03494741
000200 24 c8 fb ba 0c 88 4f 3e ac a7 bb 3d 64 45 44 bd
       -0.0019209427 0.20266742 0.0916284 -0.04791774
000210 cb 38 e8 b8 a0 41 b4 ba 0f 41 9f 3c 11 1c c0 bd
       -0.000110732006 -0.0013752468 0.019440202 -0.09380353
000220 b9 35 a0 3c 89 59 fd 3d aa 82 08 be 14 a7 52 3e
       0.019556867 0.12370593 -0.13331094 0.20571548
000230 af e2 6f 3e e0 95 77 be 50 5f 85 be f6 56 0e be
       0.23426317 -0.24178267 -0.2604928 -0.1390036
000240 82 36 05 be a0 3f 84 bc d7 ab 9b 3e 6d 0b a4 bc
       -0.13009074 -0.01614362 0.3040454 -0.02002498
000250 95 cc 86 3e ff 47 eb bd 9a e3 04 be 53 28 e5 3c
       0.2632796 -0.114883415 -0.12977448 0.02797333
000260 7b a1 19 bc 16 95 91 be b8 34 0b 3e d3 53 79 3c
       -0.009376879 -0.28434056 0.1359433 0.015217739
000270 4e e3 69 bd 68 3b eb 3d 84 78 ee 3c 3a fc 6f 3d
       -0.05710154 0.1148594 0.0291102 0.05859015
000280 0f 5e bd 3c c3 46 dd bc 42 64 0d be 10 40 35 3d
       0.02311614 -0.02701128 -0.13807777 0.044250548
000290 27 dd c0 be 53 f0 1f be 44 85 a1 bd 0f 39 f4 bd
       -0.37668726 -0.1561902 -0.078867465 -0.119249456
0002a0 b8 f4 05 be 04 32 3c 3d f7 fc a1 bd c1 0e 1d 3e
       -0.13081634 0.045946136 -0.07909577 0.1533766
0002b0 87 25 96 3c 3c e6 06 be 82 c5 ca bc 4c aa 1a 3e
       0.018328441 -0.13173765 -0.024752382 0.15104026
0002c0 cf 77 3d be a2 1a 04 be 12 c9 2c 3c a3 de b0 3d
       -0.18502735 -0.12900785 0.010545986 0.086362146
0002d0 e7 c6 66 3d 61 2c 78 be 99 57 26 bd ac c6 3d bd
       0.05634203 -0.24235679 -0.040610883 -0.046332046
0002e0 23 86 f7 3d 69 ad 47 3c 0c 72 07 bc 4e 05 90 bd
       0.120861314 0.01218734 -0.008266937 -0.07032262
0002f0 aa 30 0d 3e e5 2c d9 3d 79 12 47 bd 2d 6f 93 bd
       0.13788095 0.10604266 -0.0486016 -0.071989395
000300 4e 23 21 3e 3e b0 86 3d 3b c2 ca bd 2f 45 7a 3d
       0.15736124 0.06576584 -0.09900328 0.061101135
000310 bd 0a d5 3d 48 04 1e 3d 85 fc ff bd 0f e0 32 bd
       0.10402439 0.0385783 -0.12499336 -0.04367071
000320 72 a6 24 be ad 2e 2f 3c a1 c7 e6 bd bf 39 5c bd
       -0.16079119 0.010692281 -0.11268545 -0.05376601
000330 10 04 93 bc 6e db 20 bd ab 9e f8 bd d5 60 bd bd
       -0.017946273 -0.039271764 -0.121396385 -0.09246985
000340 0c a0 97 bd 5b bf bd bc 0c 69 1e 3c 7d 57 13 be
       -0.074035734 -0.023162534 0.0096686 -0.14388843
000350 48 b8 b8 bb 81 57 82 3d 58 08 8d 3d 4d 98 c9 3c
       -0.0056372024 0.06364346 0.06886357 0.024608755
000360 b9 24 00 be 0e a1 88 3d 58 7b f2 bd 0c 3e 92 bd
       -0.12514009 0.06671344 -0.11839932 -0.07140741
000370 d9 98 f2 3c 42 53 ed 3c 2e 9f 32 bd 4c 1f f0 3b
       0.029613899 0.028970364 -0.043608837 0.0073279496
000380 52 4c 09 bd fb 5a 5a 3d 41 c0 e8 bd 70 24 f7 3c
       -0.03352005 0.053309422 -0.113647945 0.030168742
000390 dd 2e 06 be cc 33 fa bd 3a 74 b9 3d 6c d3 16 3d
       -0.13103814 -0.12216911 0.090553716 0.03682272
0003a0 b3 20 f7 3c 30 94 44 bd d9 7a 8f 3d ca c2 8a 3c
       0.03016696 -0.047992885 0.07005853 0.016938586
0003b0 ae 5f 08 bd 61 91 23 3e 38 f3 77 ba 12 e1 a0 3d
       -0.033294372 0.15973426 -0.00094585447 0.07855429
0003c0 da 82 90 3a 3b 5d fa 3d fa 33 11 3d 5f bf a9 bd
       0.0011025325 0.122248136 0.03544996 -0.08288454
0003d0 2d 15 8e bb 05 b9 de bd 56 3b 13 3e 6b 2d a4 3d
       -0.0043360204 -0.108751334 0.14378104 0.08016475
0003e0 c4 a0 7f bd 3b 5b c1 3c 7a e4 4f 3c 1f 80 b5 bd
       -0.062409177 0.023603072 0.01268875 -0.08862328
0003f0 a6 73 66 bc 4e 22 60 3d 44 6e f9 bc a6 8a 36 3c
       -0.014065659 0.054720215 -0.030448087 0.011141455

lstm.bias_ih_l1 f4 [256]
000000 35 5e 40 bc 91 01 c8 3d 81 b2 9c 3d db a0 13 bc
       -0.011741211 0.09765924 0.076512344 -0.009010519
000010 4a bb 3e 3d cb 40 73 3d 23 88 5e bd 92 7a cb 3d
       0.04656533 0.059387963 -0.05432905 0.09935488
000020 b8 c2 4f bd a5 ad d8 3c 5c f9 a5 3c f7 8d 6c 3d
       -0.050722808 0.026449988 0.020260505 0.057752576
000030 d6 a6 03 bd 0d 1f 1c bd 97 4f 70 3d 31 6f bf bc
       -0.03214153 -0.03811555 0.058669653 -0.02336845
000040 9a bf 91 bd d2 24 f6 3d ce c7 b7 bd 04 74 d6 bc
       -0.07116623 0.12018742 -0.089736566 -0.026178367
000050 ee de 30 3e cd ea 03 3e 85 fe 61 bd 3a 61 ca 3c
       0.17272541 0.12882538 -0.05517437 0.024704564
000060 75 bb a9 3d e4 7a b0 3d 1a 49 d4 3d 50 91 86 3d
       0.08287708 0.086171895 0.103655055 0.06570685
000070 7c 89 3b bc 74 c0 30 3e bd cf d0 3c af 32 1d 3e
       -0.011446353 0.17260915 0.025489682 0.15351366
000080 86 09 04 3e b4 48 9a bd 62 4a 35 3e 8f c6 a0 bd
       0.12894258 -0.07533398 0.17704156 -0.07850372
000090 d0 05 f9 bd 09 23 93 3d 9d 67 6b bd ec 15 1a 3c
       -0.12159312 0.07184417 -0.05747186 0.009404641
0000a0 dd 4d 87 bc eb b6 3f 3d 32 22 06 bd e4 7a a1 bd
       -0.01651662 0.046805304 -0.032747455 -0.07884768
0000b0 ac 45 49 bc d6 bb 69 bd 78 4c 52 3d f5 99 0e 3d
       -0.0122846775 -0.0570639 0.051342458 0.034814794
0000c0 66 48 88 bd 4a c0 f9 3d b3 e5 9c bd a1 4b d8 bd
       -0.06654434 0.12194879 -0.07660999 -0.105613
0000d0 d5 f8 04 3c d3 99 f4 3b d9 50 18 3e 14 d3 00 bb
       0.008115967 0.0074646263 0.14874591 -0.0019657062
0000e0 84 fe e1 bd a8 3c 2c 3d 32 a8 a0 bc e8 da f7 3c
       -0.11034873 0.042050034 -0.019611452 0.03025575
0000f0 32 7d ad 3c 35 a7 87 bd c6 09 df 3d c3 f7 9c bd
       0.021177862 -0.06623689 0.10890536 -0.07664444
000100 eb 37 40 bc 7f 6f 0e 3d b2 35 9a 3d cb 7d 05 3e
       -0.011732082 0.0347743 0.07529773 0.13036267
000110 b7 41 a4 3d f7 58 68 3b 02 87 d7 bc 58 8c 08 3e
       0.080203466 0.0035453418 -0.026309494 0.13334787
000120 16 83 9f 3d e8 fe fe bd 70 38 85 3d 2a e8 dc 3d
       0.077886745 -0.12450963 0.06504905 0.10786469
000130 36 b7 de bb 7e eb e3 bd aa c7 d1 bd f5 d4 f4 3d
       -0.006796743 -0.11128901 -0.10243161 0.11954681
000140 0f 20 f7 3d 96 94 ab bd 71 e5 ba 3d 03 b8 e6 3b
       0.120666616 -0.0837795 0.09125794 0.007040979
000150 04 5a 09 bc 88 3d a5 3d 75 b2 bd bd 7e 2b 59 bd
       -0.008383278 0.08068377 -0.092625536 -0.053019993
000160 5a 78 de 3c 81 7a d0 bc 85 85 b2 bd 2e 8b 0d 3e
       0.027156997 -0.02544904 -0.08716873 0.13822624
000170 a8 12 9d bd 03 2e db 3d 00 8a 15 3c 67 c8 ec bc
       -0.07669574 0.107021354 0.00912714 -0.028904153
000180 9e 82 c2 3d ec 1a d5 3d 39 dc 04 be 97 d7 9a bc
       0.094975695 0.104055256 -0.12974633 -0.01890163
000190 6d a6 20 3e b1 a0 d1 bc d6 69 de bd b4 da 62 bd
       0.15688486 -0.025589319 -0.1086003 -0.055384353
0001a0 1f 5e 10 be 70 31 c1 3d b1 04 3b bd c5 a8 12 bd
       -0.14098404 0.094332576 -0.04565877 -0.035805482
0001b0 47 bc f1 3c 3b ac dd 3d 69 28 21 3b 75 63 ad 3d
       0.029508723 0.10823866 0.0024590737 0.084662355
0001c0 9b 78 24 bd 8e d9 f4 3d f0 b2 8e bd a2 c0 5e bc
       -0.04015408 0.11955558 -0.06967723 -0.013595732
0001d0 54 36 79 3d 90 8a b2 3d a4 e0 fb bc 73 23 13 3c
       0.060842827 0.08717835 -0.030746765 0.00898062
0001e0 19 6a 2b 3c b6 c4 ca 3d 81 43 ca 3d 25 39 72 3d
       0.010462307 0.09900801 0.098761566 0.05913653
0001f0 fa 4a 18 be ee b0 8d bd 20 32 a6 3b 24 60 e3 bd
       -0.14872351 -0.06918512 0.0050718933 -0.11102322
000200 25 d2 4d 3d 05 dc ae bd 85 07 a0 3d 49 9c 02 3d
       0.050249238 -0.08538059 0.07813934 0.031887326
000210 ca 7f 00 3b 55 09 99 3c dd c3 a9 3c eb c1 94 3d
       0.0019607418 0.018681208 0.020723278 0.072635494
000220 8c e3 d6 bd 9f 50 dd 3d 27 fe d1 3d bf 8a 9c bd
       -0.1049262 0.10806393 0.10253554 -0.07643651
000230 3e 69 8c 3d 48 96 be bd dd 3e 85 3d 38 1e c9 3b
       0.06856011 -0.093060076 0.06506131 0.0061376356
000240 74 f2 18 3d cc b3 c9 3d 39 9e 30 3d 74 db 39 bd
       0.037340596 0.09848747 0.043119643 -0.045375302
000250 e1 60 a9 bd af dc f1 3d 0e 7a 4b bd e1 53 00 3d
       -0.08270431 0.1180967 -0.049676947 0.031329993
000260 e2 9c c9 3d 17 ab 9a bd f8 c6 be bd e0 ef 1c bd
       0.09844376 -0.07552164 -0.09315294 -0.0383147
000270 c1 ee 85 3c 3d 39 a5 3d 1f ff 86 bd 7a fd b7 3d
       0.016349198 0.08067558 -0.06591629 0.08983894
000280 61 b2 ce 3c 6a 4b 64 3d 57 8b 1b bd 65 5f 81 bd
       0.025231542 0.055735983 -0.03797468 -0.06317023
000290 f8 58 41 3c b9 00 5c bd 4c 33 d4 3d e6 bf 1a 3c
       0.011800997 -0.053711627 0.103613466 0.009445166
0002a0 5e 23 69 bd b7 bc c2 3d 1b 77 f3 3c 9b f6 e2 3d
       -0.056918494 0.09508651 0.02971988 0.110821925
0002b0 d0 9e b0 bd 00 a9 ac 3d 3c e1 01 3e 4a 28 62 bd
       -0.08624041 0.08430672 0.12683576 -0.055214204
0002c0 40 39 8c 3c 90 38 d6 3d f2 b8 bc bd 76 36 aa bd
       0.017117143 0.10460007 -0.09214963 -0.08311169
0002d0 7b d9 8e 3d 93 dc 08 3b 53 2d 6d bd 0f 3b 4d bd
       0.06975075 0.0020883426 -0.057904553 -0.05010515
0002e0 49 ea bd 3d bc 37 18 3d aa 14 47 3d a9 01 7c bd
       0.09273202 0.037162527 0.04860369 -0.06152502
0002f0 ed c8 b4 3d 96 5c c2 bd ac 45 cd 3d ed d5 5f bd
       0.08827386 -0.094903156 0.100230545 -0.054647375
000300 ba a2 ce 3d 5c 72 53 bc 7c de 28 bd 4d 24 dd bd
       0.100896314 -0.012905683 -0.041227803 -0.107979394
000310 c6 33 92 bc 2a 9a 76 3d 01 d6 aa 3d a0 5c 9b bc
       -0.017846953 0.060205616 0.08341599 -0.018965065
000320 20 ee 1c 3c c1 4c 84 bc 98 e0 bd 3d b2 58 02 3e
       0.009578258 -0.01614988 0.092713535 0.12729147
000330 7e 24 c7 3d f0 ea de bd 76 39 a9 bb 7a 62 c4 3d
       0.09723757 -0.108846545 -0.0051643206 0.095890954
000340 25 bd e6 3d 76 26 8d ba ed 87 b0 3d b4 80 1d bd
       0.11266545 -0.0010768909 0.08619676 -0.03845282
000350 b7 b5 0c 3e f8 f3 dd bc 50 eb d9 3d 90 bf f1 3d
       0.13741194 -0.027093872 0.106405854 0.11804116
000360 99 9c a3 bb ff b5 51 3d f1 bf 82 3d 7f b0 11 3d
       -0.004993033 0.051198956 0.06384266 0.03556871
000370 0c f2 b6 bc 00 3d 40 bd 40 b2 6b bd 0e 7e fe 3c
       -0.022332214 -0.046933174 -0.05754304 0.031065967
000380 2c ce 73 bd ee 1b c3 bd 20 2d 74 bd c0 5d da bd
       -0.059522793 -0.095268115 -0.059613347 -0.10662413
000390 8f a4 09 3c 62 42 18 3d 73 b1 05 3e d4 a1 d0 3b
       0.00840105 0.037172683 0.13055973 0.0063669477
0003a0 2e d4 a5 3c 48 cd b8 3d 87 58 e5 3d 04 e0 8c bb
       0.020242777 0.09023529 0.11198526 -0.0042991657
0003b0 df e1 62 3d a2 d8 98 bd b0 8c d8 bc e2 8a 30 3d
       0.05539119 -0.074631944 -0.026434273 0.0431012
0003c0 b2 47 d8 3d 3d 96 68 3d 7f db 91 bd 2c f4 38 3d
       0.1056055 0.056783903 -0.07121944 0.045154735
0003d0 c1 c1 8b bd 58 c2 90 bd 3a 3a 61 3d 97 78 b3 3d
       -0.06824065 -0.07068318 0.05498717 0.08763235
0003e0 54 81 ab 3d 1e c1 20 3e 4a 47 6d bd 40 aa 97 3c
       0.08374277 0.15698668 -0.057929315 0.018513799
0003f0 7a 0d 92 bc 29 29 7a bd 65 af b3 bd ce ec 15 3e
       -0.017828692 -0.06107441 -0.08773688 0.14641115
