output/LSTM2CNN/LSTM2CNN_adam_128_500/model/LSTM2CNN_epoch_131.pth (torch, 350402 bytes, 16 tensors)

lstm.weight_ih_l0 f4 [256, 10]
0	0x3dffbb5d	0.124869086
1	0x3e47ae42	0.19500068
2	0x3e1d89c9	0.15384592
3	0x3c8757c9	0.016521351
4	0xbdf5ba38	-0.11998409
5	0x3e2e42d3	0.17017679
6	0x3e8657af	0.26238772
7	0xbdd162dd	-0.10223935
8	0x3cf552e9	0.029946761
9	0xbe03886d	-0.12845011
10	0xbcfc8781	-0.030826332
11	0x3d8455d5	0.06461684
12	0x3d8174bc	0.063210934
13	0x3d93fada	0.072255805
14	0xbde8e284	-0.113713294
15	0xbc93cebd	-0.018042916
16	0x3b36261d	0.0027793713
17	0xbd14127a	-0.036150433
18	0xbdf97bf6	-0.12181847
19	0xbcfd5b08	-0.030927196
20	0xbe17e482	-0.14833263
21	0x3cf337a4	0.029689617
22	0xbdbb30c8	-0.09140164
23	0x3a1aaa55	0.0005900015
24	0x3d33800c	0.043823287
25	0xbd21cfef	-0.03950494
26	0xbd0acf70	-0.033889234
27	0xbe1beb32	-0.15226439
28	0xbe038ffe	-0.12847897
29	0xbe1b3238	-0.15155876
30	0xbb1371cf	-0.0022498255
31	0xbe155a95	-0.14585336
32	0x3dafa839	0.08577008
33	0x3c9bfefb	0.019042483
34	0xbe1432b4	-0.14472467
35	0xbd1a7622	-0.037710316
36	0x3d1b581f	0.037925836
37	0xbe04e0a4	-0.12976319
38	0x3dab96f9	0.08378405
39	0x3da785ce	0.08179818
40	0xbd94c968	-0.07264978
41	0x3cfa66cd	0.030566597
42	0x3db7ad42	0.08968593
43	0x3df7e0d2	0.12103428
44	0xbd0d8ca0	-0.03455794
45	0x3df02cfd	0.11727331
46	0xbdbe47b9	-0.09291024
47	0x3d038db9	0.03211758
48	0x3c93ed17	0.01805739
49	0xbc107482	-0.00881684
50	0x3d8ce957	0.068804435
51	0xbdcbbf8c	-0.09948644
52	0x3d8997c2	0.06718399
53	0xbd9293d1	-0.071571
54	0xbc96e9db	-0.018422058
55	0xbe0a29f6	-0.1349257
56	0xbdf04102	-0.11731149
57	0x3e05ccd3	0.13066415
58	0xbc5f0ba6	-0.013613617
59	0xbde18a60	-0.11012721
60	0xbd23d10e	-0.039994292
61	0xbd1871ae	-0.03721779
62	0xbd9350cc	-0.07193145
63	0xbc96547d	-0.018350834
64	0x3e29facb	0.16599576
65	0xbe0905b0	-0.13381076
66	0xbd946693	-0.07246127
67	0x3e33d9a2	0.17563489
68	0x3e2010ab	0.15631358
69	0x3c9c60a2	0.019089047
70	0x3d2107d6	0.039314114
71	0x3e0489e2	0.12943223
72	0x3c9c47b0	0.019077152
73	0xbe0f176a	-0.13973776
74	0xbd6a86c5	-0.057257432
75	0x3cb78497	0.022402091
76	0x3dbcbd67	0.09215813
77	0xbdafa25c	-0.085758895
78	0xbda1131f	-0.07864975
79	0xbd5ab0bf	-0.053391214
80	0xbe0bba6f	-0.13645338
81	0xbd392616	-0.045202337
82	0x3c9b5704	0.01896239
83	0xbd8a9859	-0.06767339
84	0xbdb626ca	-0.08894117
85	0xbd172ea0	-0.0369097
86	0x3ce01d45	0.027357707
87	0x3b9160e1	0.0044365977
88	0xbc2c6922	-0.0105231125
89	0xbbf9b1d4	-0.0076200757
90	0xbcb1e7cc	-0.021716975
91	0xbd7f4417	-0.062320795
92	0xbdfa19c4	-0.12211946
93	0xbc98d7b9	-0.018657552
94	0xbca7dbc9	-0.020490544
95	0xbd354baf	-0.04426163
96	0x3c4b2ae0	0.012400359
97	0x3d79fb3f	0.061030623
98	0x3e109c1b	0.1412205
99	0x3e41f136	0.18939671
100	0x3d6ca614	0.057775572
101	0xbe1e8d73	-0.15483646
102	0xbe105fa0	-0.14098978
103	0x3dcb3270	0.099217296
104	0xbdf1a582	-0.11799146
105	0xbd95a5fc	-0.0730705
106	0xbdc843f1	-0.09778584
107	0xbe40498a	-0.18778053
108	0x3e1a1c4f	0.15049861
109	0x3e7077d2	0.23483208
110	0xbd3e7674	-0.046499684
111	0xbe18f8d1	-0.14938666
112	0xbdcc3b74	-0.09972277
113	0x3da31660	0.07963252
114	0xbd3019f1	-0.04299349
115	0x3cb81028	0.022468641
116	0x3d212aee	0.03934758
117	0x3e1a04f8	0.15040958
118	0x3e0dd837	0.1385201
119	0x3e28f4a9	0.1649958
120	0x3c34f5d1	0.011044935
121	0xbd3377a0	-0.043815255
122	0xbccc78c2	-0.024959926
123	0x3b73e6cd	0.0037216425
124	0x3c062b67	0.008189059
125	0xbca2a5f8	-0.01985453
126	0xbdd1151c	-0.102091044
127	0x3e16e76f	0.14736722
128	0x3e25fe31	0.16210248
129	0xbd490084	-0.049072757
130	0xbdb18f1a	-0.086698726
131	0x3d522994	0.051309183
132	0xbddc065c	-0.107434005
133	0x3c68aede	0.014201848
134	0x3d275b6f	0.040858682
135	0xbdaee11d	-0.08539031
136	0x3e1b49b1	0.1516483
137	0xbdaf9a69	-0.08574373
138	0xba4b384f	-0.0007752226
139	0xbdb93d1e	-0.0904486
140	0xbc819f93	-0.015823161
141	0x3ddfcfc4	0.109283
142	0x3da90c91	0.0825435
143	0x3bb92a67	0.0056508067
144	0xbd7b5e4a	-0.061369218
145	0x3e2e0304	0.16993338
146	0x3dcde512	0.10053457
147	0xbcc9863f	-0.024600146
148	0x3c4db421	0.012555153
149	0xbe18124f	-0.14850734
150	0xbd64f556	-0.055898033
151	0xbc5a4a5e	-0.013323395
152	0xbe162468	-0.14662325
153	0x3dced299	0.10098762
154	0x3dc73a88	0.09727961
155	0xbe385332	-0.18000486
156	0xbe60a99e	-0.21939704
157	0xbd155ad5	-0.036463577
158	0x3e3895e8	0.18025935
159	0xbc225792	-0.009908574
160	0xbd95b2d0	-0.073094964
161	0x3d8a4cc9	0.06752927
162	0x3dc56d6a	0.0964001
163	0x3d7e7ed3	0.062132668
164	0x3c97cb67	0.018529607
165	0xbd12bf20	-0.035826802
166	0xbc8763f5	-0.016527155
167	0x3e3acb18	0.18241537
168	0x3d667e3f	0.05627274
169	0xbc9f825d	-0.019471342
170	0x3d8cec5d	0.0688102
171	0x3d7c9a30	0.061670482
172	0x3dd81675	0.10551158
173	0x3de0eddf	0.1098287
174	0x390ab5b7	0.000132284
175	0xbdac3ce3	-0.08410051
176	0xbd79a918	-0.060952276
177	0xbd83d51c	-0.06437132
178	0xbd027902	-0.031853683
179	0xbb9d6847	-0.0048036906
180	0x3d10d560	0.03535974
181	0x3d5d7df7	0.054075208
182	0xbda6bd93	-0.08141627
183	0xbbbec963	-0.005822347
184	0x3d845e12	0.06463255
185	0xbd6305d9	-0.0554255
186	0xbd3967fc	-0.045265183
187	0xbda34b4f	-0.07973348
188	0x3c016873	0.007898438
189	0x3dffc405	0.1248856
190	0xbdf4e496	-0.11957662
191	0xbe2008c9	-0.15628351
192	0xbe031c63	-0.12803797
193	0xbe9056fd	-0.28191367
194	0x3e0bd0da	0.1365389
195	0xbe9b9421	-0.3038645
196	0xbe729566	-0.23689803
197	0x3e349bb0	0.17637515
198	0x3e318b31	0.17338254
199	0x3e2d4b31	0.16923214
200	0x3e0c28fa	0.13687506
201	0x3dadd0c6	0.08487086
202	0x3d8d09c6	0.0688663
203	0xbda9a98d	-0.08284292
204	0x3dbdc42f	0.09265935
205	0x3dc83d2b	0.09777292
206	0x3d24ab5c	0.040202484
207	0x3d5e37e5	0.054252524
208	0x3e177801	0.14791872
209	0x3d183195	0.03715666
210	0x3b279d86	0.002557607
211	0xbe5449bc	-0.20731252
212	0x3db7fb5a	0.089834884
213	0xbd7255a0	-0.05916369
214	0x3e35a634	0.17739183
215	0x3bf2e2ce	0.007412291
216	0xbde4a9ed	-0.11165223
217	0x3e11f30e	0.14252874
218	0x3d9b1bbf	0.075736515
219	0x3e65ac6b	0.22429053
220	0x3e1c1c06	0.15245065
221	0x3d68f2b4	0.056872085
222	0x3e047501	0.12935258
223	0x3dd9600e	0.10614024
224	0xbc893c69	-0.016752439
225	0xbc92dc0d	-0.017927194
226	0x3d5e9db7	0.054349627
227	0x3c85850d	0.016298795
228	0xbd84e760	-0.06489444
229	0x3e1f95ed	0.15584536
230	0x3deb5994	0.11491695
231	0x3d43a48f	0.047764357
232	0x3d817740	0.06321573
233	0xbb3d75b2	-0.0028909263
234	0xbcfed2ca	-0.031106371
235	0x3e5047b0	0.20339847
236	0x3e0106a9	0.12600197
237	0xbdb84b9a	-0.08998795
238	0xbde89cf1	-0.11358059
239	0x3d36e23f	0.04464936
240	0x3d8e8c27	0.06960326
241	0x3d5e67e5	0.0542983
242	0x3b838f83	0.0040149107
243	0x3c056dd4	0.008143861
244	0xbd320c67	-0.04346886
245	0xbd9ee40d	-0.07758341
246	0xbe3e8d89	-0.18608679
247	0x3e37edcf	0.1796181
248	0xbaab7263	-0.0013080355
249	0x3d08e8e2	0.03342522
250	0x3d7011c7	0.058610704
251	0x3d99e840	0.07515001
252	0x3c5f891c	0.013643529
253	0x3e63df70	0.22253203
254	0x3d153d7b	0.036435585
255	0x3cde2662	0.027117912

lstm.weight_hh_l0 f4 [256, 64]
0	0x3dc51373	0.0962285
1	0x3ca3c98c	0.019993566
2	0xbdab50c3	-0.083650135
3	0xbd204640	-0.039129496
4	0xbdcb60db	-0.09930583
5	0x3d424208	0.047426254
6	0xbdbf4b43	-0.09340527
7	0xbd649c05	-0.055812854
8	0x3cb31597	0.02186088
9	0xbd0cb157	-0.034348812
10	0xbe3e6465	-0.18592985
11	0xbde31392	-0.11087717
12	0x3c1028e1	0.008798809
13	0x3e0e2137	0.13879858
14	0xbd535289	-0.051592384
15	0xbd8bc70f	-0.06825077
16	0x3dbfefe2	0.09371926
17	0x3d6db296	0.05803164
18	0xbd897b66	-0.067129895
19	0xbe0ec3eb	-0.13941924
20	0xbd3ba89a	-0.045815088
21	0xbce37479	-0.0277655
22	0x3c415659	0.011800372
23	0x3e2038ae	0.15646622
24	0x3e17dd38	0.14830482
25	0x3dc11aa9	0.09428913
26	0xbe22d54c	-0.15901679
27	0xbe0d6f07	-0.13811885
28	0xbdc2d8cd	-0.09514008
29	0x3c822836	0.015888315
30	0x3d9d16df	0.07670378
31	0xbcf4a6b8	-0.029864654
32	0x3df0dc23	0.11760738
33	0x3c2890ad	0.0102884
34	0xbd1f297b	-0.03885792
35	0xbe21f6d0	-0.15816808
36	0xbcac8320	-0.021058619
37	0x3ca9cabb	0.020726552
38	0x3dcb2323	0.09918811
39	0x3d8125a0	0.063060045
40	0xbcf44f79	-0.029823052
41	0x3d8ca14d	0.06866703
42	0x3ddcac10	0.10775006
43	0x3ce51e0f	0.027968435
44	0xbc8179ef	-0.015805213
45	0x3ded33ba	0.11582132
46	0x3bfb60e8	0.0076714642
47	0xbd84df0b	-0.064878546
48	0xbd2ed654	-0.042684868
49	0xbdd25b09	-0.1027127
50	0xbe20cbd7	-0.15702759
51	0x3d441208	0.04786876
52	0xbe07bebc	-0.13256353
53	0x3de5e422	0.112251535
54	0x3ca8eab5	0.02061973
55	0xbd9fed73	-0.07808962
56	0xbde8722d	-0.11349902
57	0x3ce9d0a2	0.028541867
58	0xbdc5cdcc	-0.09658393
59	0x3d9de46e	0.07709585
60	0x3ca721f8	0.02040194
61	0xbd3476bd	-0.04405855
62	0xbd54ddf2	-0.051969476
63	0x3dccd605	0.100017585
64	0xbc5b3b61	-0.013380856
65	0xbdad55d4	-0.08463636
66	0xbdbed2c0	-0.09317541
67	0xbdc56da4	-0.09640053
68	0xbdf97925	-0.121813096
69	0xbc549250	-0.012974337
70	0x3c8eea37	0.017445667
71	0x3c059556	0.00815328
72	0xbd6580c5	-0.056031007
73	0x3d96e1d0	0.07367289
74	0xbe280c9f	-0.16411065
75	0xbd5f3d6d	-0.05450194
76	0x3d6f6903	0.058449756
77	0xbdc22f6d	-0.09481702
78	0xbd087e20	-0.033323407
79	0xbd0db378	-0.034594983
80	0x3e34df1b	0.17663233
81	0x3db10b05	0.0864468
82	0xbdcc1e18	-0.099666774
83	0xbd982b26	-0.07430105
84	0x3d46ab14	0.048502997
85	0x3e46b7e1	0.19406082
86	0x3cdfcc31	0.027319046
87	0xbbfa0f9f	-0.0076312567
88	0x3e135488	0.14387715
89	0xbda7e1d4	-0.0819737
90	0x3d92ff0b	0.07177552
91	0x3db02752	0.0860125
92	0xbd8aec48	-0.06783348
93	0x3da1c291	0.07898439
94	0x3d2338c9	0.039849076
95	0x3cb2b86d	0.021816457
96	0x3d7cf925	0.06176104
97	0xbcaed791	-0.021343024
98	0xbda52750	-0.08064139
99	0x3d003da9	0.031308804
100	0x3d9e1eb3	0.07720699
101	0x3de67876	0.11253445
102	0xbd75a93d	-0.05997585
103	0xbdc94a6e	-0.098286495
104	0xbd1a5d32	-0.037686534
105	0xbbddf85c	-0.0067739915
106	0xbd8338d1	-0.06407321
107	0x3dc0f529	0.094217606
108	0xbd62bf90	-0.05535847
109	0x3d3ec305	0.046572704
110	0xbd5bcc91	-0.053661887
111	0x3d928e69	0.07156069
112	0x3d9a5e10	0.07537472
113	0xbc8a5234	-0.0168849
114	0xbdcc1b21	-0.09966112
115	0x3dfd84ba	0.12378831
116	0xbe0df9a1	-0.13864757
117	0xbc43580c	-0.0119228475
118	0x3c9a278d	0.018817687
119	0x3d0a674c	0.033789918
120	0x3cfca4cd	0.030840302
121	0xbdb6db6d	-0.08928571
122	0x3d24aac6	0.040201925
123	0x3d2fc07b	0.042908173
124	0xbde56f25	-0.1120284
125	0xbdd64abd	-0.10463474
126	0x3d97b9db	0.07408496
127	0xbdae4438	-0.085091054
128	0xbd7fc768	-0.062446028
129	0xbce6c536	-0.02817021
130	0x3d7c01f4	0.0615253
131	0xbda65de0	-0.08123374
132	0xbd63eb61	-0.055644397
133	0x3e0b4214	0.13599426
134	0xbdb9c11b	-0.09070035
135	0xbd7f3cf4	-0.06231399
136	0x3da76a00	0.08174515
137	0x3e15331c	0.14570278
138	0x3df9b32e	0.12192379
139	0xbe3e53fb	-0.18586724
140	0x39c8652c	0.00038222352
141	0x3c2e0f59	0.010623776
142	0x3e00aa63	0.12564997
143	0xbde8a8a2	-0.11360289
144	0xbcf7fff6	-0.030273419
145	0x3cef78cb	0.029232403
146	0x3ce18e05	0.02753354
147	0x3c8efadd	0.017453605
148	0x3e210fb9	0.15728654
149	0x3d87986b	0.06620868
150	0xbe481d62	-0.19542459
151	0xbe3e3416	-0.18574557
152	0x3d36b990	0.04461056
153	0xbbaed920	-0.005335942
154	0x3de6ed8b	0.112757765
155	0x3e3d4099	0.18481673
156	0x3e0f9581	0.14021875
157	0xbdba8ca2	-0.09108855
158	0x3db94245	0.09045843
159	0xbe130622	-0.14357808
160	0x3d284cfb	0.04108904
161	0xbd92b0cc	-0.071626276
162	0xbd074ddd	-0.03303324
163	0xbd0ec24e	-0.034853272
164	0x3d88047e	0.06641482
165	0xbd9629e1	-0.073322065
166	0x3d5b88a8	0.053597122
167	0xbce9fc87	-0.028562797
168	0x3de2b8f0	0.1107043
169	0x3d60d86a	0.05489389
170	0xbbe336cc	-0.0069340225
171	0xbe115a26	-0.14194545
172	0x3e037e11	0.1284106
173	0xbcce3946	-0.025173794
174	0x3d83713f	0.06418084
175	0x3da4af64	0.080412656
176	0xbdf737a2	-0.12071158
177	0x3e58edf5	0.21184523
178	0x3d989211	0.07449735
179	0xbe0e82d7	-0.13917099
180	0x3e399cb0	0.18126178
181	0xbe931c05	-0.28732315
182	0xbdbac9d2	-0.091205254
183	0x3c1e0ec0	0.009647071
184	0x3e26d0a1	0.16290523
185	0xbd675cbc	-0.056484923
186	0x3db02461	0.08600689
187	0xbd541838	-0.05178091
188	0x3e59b75d	0.21261354
189	0x3dd07dd3	0.10180249
190	0x3e4b5750	0.19857526
191	0xbd9720b5	-0.07379285
192	0x3dc834d9	0.09775705
193	0x3e02f95e	0.12790439
194	0xbaa7397f	-0.0012758224
195	0xbd210533	-0.0393116
196	0xbda92499	-0.082589336
197	0xbd919689	-0.071087904
198	0xbc3a3d4a	-0.0113671515
199	0xbd651add	-0.055933822
200	0x3dccd58f	0.100016706
201	0x3d6e0c67	0.058117297
202	0x3d82399f	0.063586466
203	0xbde3c6b6	-0.111218855
204	0x3da34787	0.07972627
205	0xbe2e339b	-0.17011873
206	0xbd9730c5	-0.07382349
207	0x3d804e99	0.06264991
208	0xbdf23594	-0.118266255
209	0x3e1c5676	0.15267357
210	0xbda0b4ea	-0.078470066
211	0xbcbfc2da	-0.023408342
212	0x3dc2eed3	0.09518208
213	0xbc91abae	-0.017782059
214	0xbcebc09d	-0.028778369
215	0xbc900114	-0.01757864
216	0xbcafc7d4	-0.02145759
217	0xbd4a17f9	-0.04933927
218	0x3d8366d5	0.06416098
219	0x3d116375	0.03549524
220	0x3ddd6115	0.108095326
221	0xbdbcea0a	-0.09224327
222	0xbc7a8f13	-0.015292901
223	0x3dcbedac	0.09957442
224	0xbd58dca9	-0.052944813
225	0xbcb89b48	-0.022534981
226	0x3d8a8478	0.06763548
227	0x3cdecbf4	0.027196862
228	0xbd04730a	-0.032336272
229	0x3dc2866b	0.094982944
230	0xbc94956a	-0.018137652
231	0xbd0482f3	-0.032351445
232	0xbcbcc693	-0.023043906
233	0x3e1339b2	0.14377478
234	0x3c214027	0.009841955
235	0x3dcc18a6	0.09965639
236	0x3e011bb8	0.1260823
237	0xbc7f91a4	-0.015598688
238	0xbd146de7	-0.036237624
239	0xbd533400	-0.051563263
240	0xbc0cdaf6	-0.008597126
241	0x3dec8b66	0.11550026
242	0x3dec773b	0.11546179
243	0x3d0c82ff	0.034304615
244	0xbbce002e	-0.0062866425
245	0x3cbef23e	0.02330887
246	0x3cff2c45	0.031149039
247	0xbc847352	-0.01616827
248	0xbd0f5239	-0.034990523
249	0xbdb4b1e4	-0.088229924
250	0xba4cd84d	-0.0007814214
251	0xbd5a4e0b	-0.053297084
252	0x3d2a1357	0.04152235
253	0xbde57c5c	-0.1120536
254	0xbd904798	-0.070449054
255	0x3d86ffdd	0.06591771

lstm.bias_ih_l0 f4 [256]
0	0x3dd6be96	0.1048557
1	0x3dbdbb96	0.09264295
2	0x3e193d01	0.14964677
3	0xbdb0c2d4	-0.086309105
4	0x3c9ac3f8	0.018892273
5	0xbdd056c8	-0.10172802
6	0xbce4c172	-0.027924273
7	0x3d8c3972	0.06846894
8	0x3dba016d	0.09082303
9	0x3d6a5105	0.057206172
10	0x3e1efbc9	0.15525736
11	0x3dd9ef2c	0.106413215
12	0xbd31ee13	-0.043439936
13	0x3d4a7979	0.04943225
14	0x3cc6bed7	0.024260921
15	0x3d7e1faa	0.062041916
16	0xbdb6aded	-0.089198925
17	0x3d9710b1	0.073762305
18	0xbc641329	-0.013920584
19	0x3e0a4a7a	0.13504973
20	0xbd86ede6	-0.06588344
21	0x3c93c551	0.018038424
22	0xbd426180	-0.047456264
23	0xbdbc0594	-0.091807514
24	0x3e16e468	0.14735568
25	0x3e110a77	0.14164148
26	0xbc830b63	-0.01599664
27	0xbbdf3167	-0.006811309
28	0x3cfeda10	0.03110984
29	0x3d8b7960	0.0681026
30	0xbd7f63c4	-0.062351003
31	0x3e2789cb	0.16361158
32	0xbcc5dba2	-0.02415258
33	0xbdcf24f4	-0.1011447
34	0x3e16abe4	0.14714009
35	0x3cd0cd8c	0.025488637
36	0x3dc70225	0.09717206
37	0x3e0e4c93	0.13896398
38	0x3d28f92d	0.041253258
39	0x3d7a2b68	0.06107655
40	0x3e3f9d3b	0.18712322
41	0x3d80fa60	0.06297755
42	0x3c8fdee0	0.01756233
43	0x3d9aafe0	0.07553077
44	0x3db1ee31	0.086880095
45	0xbd0fe2ad	-0.035128284
46	0x3d3f9b01	0.046778683
47	0x3d10fd93	0.035398077
48	0x3df5dabf	0.12004613
49	0xbdcc6654	-0.09980455
50	0xbd0c536a	-0.034259237
51	0x3d9f9309	0.077917166
52	0x3e08bd01	0.1335335
53	0x3e006606	0.12538919
54	0x3cfda43a	0.030962098
55	0x3d6a8ff5	0.057266194
56	0x3d410448	0.047123224
57	0x3cb803e3	0.02246279
58	0xbdacdb81	-0.084403045
59	0x3e3560c7	0.17712699
60	0x3db22e37	0.08700221
61	0x3dc424cd	0.09577332
62	0x3ce3075e	0.027713474
63	0xbcec2aa7	-0.028828932
64	0xbd2a3214	-0.041551664
65	0x3dfb40f1	0.12268246
66	0xbd8256e2	-0.06364228
67	0x3dfbcfda	0.12295504
68	0xbdc4910f	-0.0959798
69	0x3d4731fe	0.04863166
70	0x3e2937e4	0.16525227
71	0x3d9f899b	0.07789918
72	0xbd56555f	-0.05232751
73	0x3d11aaa7	0.035563137
74	0x3d4bc7fc	0.049751267
75	0xbcdd5722	-0.027019087
76	0xbc887d54	-0.016661324
77	0x3d9031b6	0.070407316
78	0x3df30496	0.11866109
79	0xb894023a	-7.057605e-05
80	0x3d917e0d	0.071041204
81	0xbd50f0af	-0.051010784
82	0x3bb5e336	0.0055507673
83	0xbd4f5d7d	-0.050626267
84	0xbcbf3c62	-0.023344222
85	0x3da0ed33	0.07857742
86	0x3a9570f7	0.0011401464
87	0x3ddd22b5	0.107976355
88	0xbd40f98d	-0.04711299
89	0xbd1aaeb2	-0.03776426
90	0x3dcd56a5	0.10026292
91	0x3e038085	0.12841995
92	0x3de9a080	0.11407566
93	0x3e1db3c7	0.15400611
94	0xbd069833	-0.032859992
95	0x3de2b4b4	0.11069623
96	0x3dbebcd3	0.09313359
97	0x3d964bd9	0.073386855
98	0x3d0c0a44	0.034189478
99	0x3bab3d37	0.0052258032
100	0x3ce91fba	0.028457511
101	0xbcf06d27	-0.029348923
102	0x3ca4f349	0.020135539
103	0xbd6dd77e	-0.058066837
104	0xbc206a2b	-0.009790937
105	0x3e2184f7	0.15773378
106	0x3e0f1a78	0.13974941
107	0x3df116c3	0.117719196
108	0x3dd37432	0.10324897
109	0xbc349366	-0.011021471
110	0x3c2e1a3e	0.010626374
111	0x3e007a3d	0.1254663
112	0x3c13a56d	0.009011609
113	0xbdbc367f	-0.09190082
114	0x3d129bc8	0.035793096
115	0xbd13f116	-0.03611859
116	0x3d46a862	0.048500426
117	0x3d31a364	0.043368712
118	0x3cfe49a6	0.031040978
119	0x3b6606e7	0.003509933
120	0xbcb706d1	-0.022342118
121	0x3e3b7d2e	0.18309471
122	0xbd992ae6	-0.07478885
123	0xbadc5768	-0.0016810717
124	0x3df6c4c9	0.120492525
125	0xbcd95d67	-0.026533796
126	0xbd23a329	-0.039950524
127	0x3e0dced9	0.13848437
128	0xbd2afb84	-0.04174377
129	0xbde7c8f2	-0.11317624
130	0xbd2bbcbc	-0.041928038
131	0xbc76ee60	-0.0150714815
132	0x3dd5fc21	0.104484804
133	0xbd008eb6	-0.0313861
134	0xbd375cab	-0.04476611
135	0x3d018982	0.03162528
136	0x3d501ead	0.050810505
137	0x3da1ba8b	0.078969084
138	0xbdf3fc1e	-0.11913322
139	0xbdf3af4e	-0.11898671
140	0x3db966ab	0.090527855
141	0x3dc69cfe	0.09697913
142	0xbd9383e4	-0.072028905
143	0xbc98c83c	-0.018650167
144	0xbd8c182a	-0.068405464
145	0xbcc0e9d1	-0.023548992
146	0xbda2291a	-0.07917996
147	0x3d84aab5	0.06477872
148	0x3dfa12e2	0.12210633
149	0xbd0e22ca	-0.034701146
150	0xbe09d095	-0.13458474
151	0x3dea9d60	0.11455798
152	0x3db3e845	0.08784536
153	0x3ddd201d	0.10797141
154	0x3d5bd4a1	0.053669576
155	0x3d937379	0.07199759
156	0xbda0e2c0	-0.07855749
157	0x3cd00c90	0.025396615
158	0x3d86a5ef	0.06574618
159	0x3e0c874d	0.13723488
160	0xbd89beb3	-0.06725826
161	0x3d8ec40a	0.06970985
162	0x3cc137cf	0.023586182
163	0xbdc748a0	-0.09730649
164	0x3dec2c5f	0.115319006
165	0x3dd0a4af	0.10187661
166	0xbdc2c6d3	-0.09510579
167	0x3d06e047	0.03292873
168	0x3d63e2ed	0.055636335
169	0x3da2ad77	0.07943242
170	0x3debacbf	0.11507558
171	0xbddfa809	-0.10920722
172	0x3cd7ade4	0.026328035
173	0xbdc7886a	-0.09742816
174	0x3d5a5b1e	0.053309552
175	0xbe081f9c	-0.13293308
176	0xbdcf72ec	-0.101293415
177	0x3d9256ac	0.071454376
178	0xba7a2c64	-0.0009543358
179	0x3dfcf1b0	0.12350786
180	0xbde344c2	-0.11097099
181	0xbdb6f7f6	-0.089340135
182	0xbd613367	-0.05498066
183	0x3e0c2e76	0.13689598
184	0xbc0e1c74	-0.008673776
185	0xbe06ce99	-0.13164748
186	0xbd9bdd37	-0.07610553
187	0x3e040279	0.12891568
188	0x3dcd978c	0.10038671
189	0x3d8fd94b	0.07023867
190	0x3df243ed	0.11829362
191	0x3e0c73f3	0.13716106
192	0x3dbf2f4a	0.093351915
193	0x3cfd7a2b	0.030942043
194	0x3d12da2e	0.035852604
195	0x3de7db73	0.113211535
196	0x3e29ea63	0.16593318
197	0x3d87513b	0.0660729
198	0x3e0e9afb	0.13926308
199	0x3e05ee3b	0.13079159
200	0x3da0ebc5	0.078574695
201	0xbd8af293	-0.067845486
202	0x3e30367f	0.17208289
203	0x3ccd9c61	0.025098981
204	0x3d7fb4b6	0.0624282
205	0xbd0ada43	-0.033899557
206	0x3d152563	0.036412608
207	0x3b73b353	0.0037185743
208	0x3e0353e1	0.12824966
209	0xbc896285	-0.01677061
210	0x3dfe122c	0.1240581
211	0x3e0e00d0	0.13867497
212	0xbd1ab4b2	-0.03776998
213	0x3e25edca	0.1620399
214	0xbda64149	-0.08117921
215	0x3d376c13	0.044780802
216	0x3d939376	0.0720586
217	0xbd7611c6	-0.060075544
218	0x3c3dcde4	0.011584733
219	0x3e0ca4de	0.13734767
220	0x3d87557b	0.06608101
221	0xbcda1f0f	-0.026626138
222	0x3d0b6a0b	0.034036677
223	0x3b632dc0	0.003466472
224	0x3e0e0159	0.13867702
225	0x3dd1d992	0.10246576
226	0x3dffdf35	0.12493745
227	0x3d9963b1	0.07489718
228	0x3de6f72c	0.11277613
229	0x3db3a5bc	0.08771846
230	0x3d9f03df	0.0776441
231	0x3dd7a504	0.10529521
232	0x3d8e2a0f	0.06941616
233	0xbd38009c	-0.044922456
234	0xbcf3e66c	-0.02977296
235	0xbc9db6a2	-0.019252125
236	0xbd1234b1	-0.03569478
237	0xbc241ba4	-0.010016356
238	0x3e0cf64d	0.13765831
239	0x3e3b5948	0.18295777
240	0xbca0cb0c	-0.01962807
241	0x3dd88cfe	0.10573767
242	0x3d55758d	0.05211406
243	0xbdd846ed	-0.10560403
244	0x3e06582f	0.13119577
245	0x3e339db5	0.17540629
246	0x3e19887a	0.14993468
247	0x3d311a30	0.043237865
248	0xbd68f34a	-0.056872644
249	0x3e549edc	0.20763725
250	0xbd31edde	-0.04343974
251	0x3e8b789e	0.2724046
252	0x3d056a85	0.032572288
253	0x3d62b598	0.055348963
254	0xba43bab0	-0.0007466478
255	0x3df73dbc	0.12072322

lstm.bias_hh_l0 f4 [256]
0	0x3b8de0bb	0.0043297685
1	0xbc8be788	-0.017078176
2	0x3e08217b	0.13294022
3	0x3c931f54	0.017959274
4	0x3d35ffdc	0.04443346
5	0x3db359c4	0.08757356
6	0x3d197c82	0.037472256
7	0xbdd3e0e3	-0.10345628
8	0x3d65a0d2	0.056061573
9	0x3df0269f	0.117261164
10	0x3eb7ce4f	0.35899588
11	0xbd669c23	-0.056301247
12	0xbda44505	-0.08020977
13	0x3daa6c4f	0.083214395
14	0x3db5b89e	0.088731036
15	0xbd31b052	-0.043381043
16	0x3da0659a	0.07831879
17	0xbd5f90d1	-0.054581467
18	0x3e0a3623	0.13497214
19	0x3c304892	0.01075949
20	0x3d4259ee	0.047449045
21	0x3d4294b5	0.0475051
22	0x3c298d80	0.010348678
23	0x3e0155fa	0.12630454
24	0x3e1865b4	0.14882547
25	0xbd3a32c3	-0.045458566
26	0x3dd2302b	0.102630936
27	0xbda377ea	-0.07981856
28	0x3cec92ef	0.028878657
29	0x3dd24074	0.102662
30	0xbc6414ae	-0.013920946
31	0x3d0114ae	0.031513862
32	0xbd364ee3	-0.044508826
33	0xbd759c0b	-0.059963267
34	0x3e05ed95	0.13078912
35	0x3dbb8b66	0.091574475
36	0x3d72bfed	0.059265066
37	0x3da90b6a	0.0825413
38	0xbd870b23	-0.06593921
39	0xbc58d1d6	-0.013233623
40	0x3e391d26	0.18077525
41	0x3deb98af	0.115037315
42	0xbb406266	-0.0029355525
43	0x3cdff52e	0.02733859
44	0xbd4d59d2	-0.050134487
45	0x3dc2f433	0.095192336
46	0x3ddd81c1	0.10815764
47	0x3da45c38	0.08025402
48	0x3c810f17	0.015754266
49	0xbd0e9257	-0.03480753
50	0x3e282d5b	0.16423552
51	0x3d876862	0.06611706
52	0x3e03e8b3	0.12881736
53	0x3d9aabda	0.07552309
54	0x3d80da5b	0.06291648
55	0x3de0fc26	0.109855935
56	0x3ddb14ec	0.1069735
57	0x3d5a1ce0	0.053250194
58	0xbce4c93b	-0.027927985
59	0x3deaad26	0.11458807
60	0xbdb14534	-0.086557776
61	0x3c3a846a	0.011384109
62	0xbdbb097a	-0.09132667
63	0x3c2a51d8	0.01039549
64	0xbc3430ec	-0.010997992
65	0xbd817ff9	-0.06323237
66	0xbcb186f7	-0.021670802
67	0x3b929043	0.0044727637
68	0xbcb43532	-0.021998022
69	0x3d8c52e1	0.068517454
70	0x3dc66637	0.09687465
71	0x3d9a2b30	0.075277686
72	0x3cc9f2c0	0.024651885
73	0xbd2b1f3b	-0.04177783
74	0x3e13c961	0.14432289
75	0xbcbed480	-0.023294687
76	0xbd272720	-0.040808797
77	0x3d5ad106	0.053421997
78	0x3e053597	0.13008724
79	0xbcf8e018	-0.030380294
80	0x3ce8b5da	0.028407026
81	0xbd0f1515	-0.034932215
82	0xbc22f8a8	-0.00994698
83	0xbd92ce58	-0.07168263
84	0x3e0dd470	0.1385057
85	0x3ddb6ba6	0.10713892
86	0x3d86eea7	0.06588488
87	0x3d9a1f2d	0.075254776
88	0xbd5f386f	-0.05449718
89	0x3ba44230	0.005012773
90	0xbded6e51	-0.11593307
91	0xbc84838b	-0.016176006
92	0x3e2b5ca9	0.16734566
93	0x3d1533f5	0.036426503
94	0x3d32b581	0.043630127
95	0xbb268cf9	-0.0025413616
96	0xbd240f2a	-0.040053524
97	0x3b469136	0.0030298955
98	0xbc14e065	-0.009086703
99	0x3d69f6e0	0.057120204
100	0xbdd23ca3	-0.10265472
101	0x3d6485b8	0.055791587
102	0x3e091116	0.13385424
103	0xbcc8895a	-0.024479557
104	0x3c5e3b85	0.013563995
105	0xbc39527a	-0.011311168
106	0xbd2d3f6b	-0.04229681
107	0xbd387060	-0.045029044
108	0x3de2e776	0.11079304
109	0x3b4b2f97	0.0031003708
110	0x3c67a43e	0.0141382795
111	0x3e10f2f2	0.14155176
112	0x3de09906	0.10966687
113	0xbd9dc35c	-0.077032775
114	0xbd149a36	-0.03627988
115	0xbc18b08e	-0.009319438
116	0xbdca82c3	-0.09888222
117	0x3e2a0157	0.16602074
118	0xbc67c993	-0.01414718
119	0xbcda045b	-0.026613405
120	0x3d0ba3ee	0.034091882
121	0x3e3ada7e	0.1824741
122	0xbd40a878	-0.047035664
123	0x3cef67ed	0.02922436
124	0x3df8ece1	0.12154556
125	0x3e106241	0.14099981
126	0xbcd73aa5	-0.026273081
127	0x3e0d8a9c	0.13822407
128	0xbcbaee77	-0.022818787
129	0x3de1aedd	0.11019681
130	0x3d32731c	0.043566808
131	0x3e0dc06c	0.13842934
132	0xbd3c5dbb	-0.045987826
133	0xbe1059c1	-0.14096738
134	0xbcafc33c	-0.0214554
135	0x3d6825a0	0.056676507
136	0x3c278b6e	0.010226114
137	0x3dbccaac	0.09218344
138	0x3e0115dd	0.12605996
139	0xbd4dbfaf	-0.05023163
140	0x3dd65e13	0.10467162
141	0x3ce6923a	0.028145898
142	0xbc8d2ee6	-0.017234277
143	0xbd3ebe58	-0.046568245
144	0xbcbfd914	-0.02341894
145	0x3cdf36d6	0.027247828
146	0x3dd4e8f8	0.10395998
147	0x3d9c16bf	0.07621526
148	0x3bbff820	0.005858436
149	0xbd333a2e	-0.043756656
150	0xbdfd72e2	-0.12375428
151	0xbd756441	-0.059910063
152	0x3d6d93df	0.05800235
153	0x3d8e619c	0.06952211
154	0xbd7373ff	-0.059436794
155	0xbd754bc9	-0.059886727
156	0x3d3d1759	0.046164844
157	0xbcb20ba0	-0.021734059
158	0x3dcb8f25	0.09939412
159	0xbc287379	-0.010281437
160	0x3d9989c9	0.074969836
161	0xbdbe7a50	-0.09300673
162	0xbc93481d	-0.017978722
163	0xbdd34922	-0.10316683
164	0x3d1a8a4f	0.037729558
165	0xbd560ae6	-0.052256487
166	0x3defd34b	0.11710223
167	0xbe0d70ba	-0.13812533
168	0x3da646e6	0.081189916
169	0xbce68c94	-0.028143205
170	0x3d2b925e	0.041887634
171	0x3da33aef	0.07970225
172	0x3d405ea8	0.04696527
173	0x3da2dc42	0.07952167
174	0xbd957b90	-0.07298958
175	0xbd9e00d3	-0.07715001
176	0xbd91b691	-0.071149
177	0x3d30a6d8	0.043127865
178	0xbd8229ed	-0.06355653
179	0x3de8f0d0	0.11374056
180	0x3d9249d9	0.071429916
181	0x3db45640	0.088055134
182	0x3da3e225	0.08002118
183	0x3dd4dac2	0.10393287
184	0xbca5570e	-0.020183112
185	0x3ca3a863	0.019977754
186	0x3c218be8	0.009860016
187	0xbdadbfaf	-0.08483826
188	0xbddf6c13	-0.109092854
189	0x3c8669b2	0.016407821
190	0x3cbd6bd5	0.023122707
191	0x3dcfae27	0.10140639
192	0x3e01d0ee	0.12677357
193	0x3d08f6f5	0.03343864
194	0x3de2cb97	0.11073988
195	0xbd5ef39d	-0.054431546
196	0x3e2106f7	0.15725313
197	0x3d1d641e	0.038425557
198	0xbcece527	-0.028917862
199	0xbbad296f	-0.0052844803
200	0x3e062bb4	0.13102609
201	0x3d9fb5fb	0.07798382
202	0x3e4509d3	0.19242029
203	0x3dde1913	0.10844626
204	0x3cfecdad	0.031103933
205	0xbd2edf35	-0.042693336
206	0x3c90fa66	0.017697524
207	0xbd970153	-0.073732994
208	0xbd8b727b	-0.06808945
209	0xbd0460b9	-0.032318804
210	0x3c077c4c	0.008269381
211	0x3e3fb270	0.18720412
212	0x3e001622	0.12508443
213	0x3e3373be	0.17524621
214	0xbd0ebffc	-0.03485106
215	0xbcd9d883	-0.026592499
216	0x3d87541e	0.06607841
217	0x3d9d23c2	0.07672836
218	0xbd9178fe	-0.071031556
219	0xbd846b6c	-0.064658016
220	0xbd789274	-0.060686544
221	0xbc8f3b4a	-0.017484326
222	0xbd6ca237	-0.057771888
223	0x3e1b464d	0.15163536
224	0xbda590d9	-0.08084268
225	0xbbaca112	-0.0052682245
226	0xbd09ba21	-0.033624772
227	0x3d938279	0.0720262
228	0xbda0c0a9	-0.07849247
229	0xbd962c1a	-0.073326305
230	0xbd0764c7	-0.033055093
231	0x3d971258	0.07376546
232	0x3dbb8c09	0.09157569
233	0x3c90e3b4	0.017686702
234	0x3d93b8da	0.07212992
235	0xbd3e7dcf	-0.0465067
236	0xb98472e2	-0.00025262596
237	0x3df39467	0.1189354
238	0x3d4cb3da	0.049976207
239	0x3dfab3bb	0.12241312
240	0x3e17f856	0.14840826
241	0xbdd8ecae	-0.10592018
242	0xbc86ee22	-0.016470972
243	0xbdc0198a	-0.09379871
244	0x3d8bbfc4	0.06823686
245	0x3e01ec43	0.12687783
246	0x3da535c1	0.08066893
247	0x3dd899d4	0.105762154
248	0xbd8a5201	-0.06753922
249	0x3d081ccd	0.03323059
250	0xbd2d3ef1	-0.042296354
251	0x3e0a5fc0	0.13513088
252	0xbd392af7	-0.04520699
253	0x3de0d426	0.10977964
254	0x3cc78744	0.024356492
255	0x3d2816e3	0.04103745

lstm.weight_ih_l1 f4 [256, 64]
0	0xbd9034ec	-0.07041344
1	0xbdb05569	-0.08610041
2	0xbc4e08cd	-0.01257534
3	0xbddbf1f4	-0.10739508
4	0x3d8545b5	0.06507436
5	0xbca105dc	-0.019656114
6	0xbe00ac70	-0.1256578
7	0xbb07ef5c	-0.0020742035
8	0x3dd96f09	0.106168814
9	0x3ab128a3	0.0013516139
10	0xbd4b4da1	-0.04963458
11	0xbd485b03	-0.04891492
12	0x3d3f31a9	0.04667822
13	0x3cf96c21	0.030447068
14	0x3ce367f3	0.027759528
15	0xbd57ee2f	-0.052717384
16	0x3d1eeef8	0.038802117
17	0xbc308885	-0.010774736
18	0x3ce76af9	0.02824925
19	0xbe5b36ce	-0.21407625
20	0xbdad7839	-0.08470196
21	0xbcc90bbe	-0.024541732
22	0xbe0374fd	-0.12837596
23	0xbca0d7e6	-0.019634198
24	0x3d85d909	0.06535537
25	0x3c33317e	0.010937093
26	0x3e33c955	0.17557271
27	0x3d989751	0.07450736
28	0xbd74f06f	-0.059799608
29	0xbd525eb7	-0.05135986
30	0x3df8d709	0.1215039
31	0x3c4ffaf4	0.012694109
32	0x3c309e6c	0.010779958
33	0xbd75ea09	-0.060037646
34	0xbd1e2bee	-0.038616113
35	0x3de88ce6	0.11354999
36	0x3e202b6e	0.15641567
37	0x3de93ca8	0.113885224
38	0x3d4b52d6	0.049639545
39	0x3d5b8bcc	0.053600118
40	0x3acc9e47	0.0015611135
41	0xbd5cb074	-0.053879216
42	0xbdd9d844	-0.106369525
43	0x3c906c8e	0.017629888
44	0x3ddb0ea7	0.10696154
45	0xbb66245e	-0.0035116891
46	0x3d13942a	0.036029972
47	0xbe4e6153	-0.20154314
48	0x3ce44a75	0.027867535
49	0xbd8d88e2	-0.06910874
50	0xbd597620	-0.05309117
51	0xbc5f1147	-0.013614959
52	0xbc64ce3c	-0.013965186
53	0x3db31c3e	0.08745621
54	0x3d5edd23	0.05441011
55	0xbe59fd3a	-0.21288005
56	0x3e2bdd13	0.16783552
57	0xbd51c9cc	-0.05121784
58	0xbddc713f	-0.107637875
59	0xbe57c3a9	-0.21070732
60	0xbdd1932d	-0.1023315
61	0xbe1b3320	-0.15156221
62	0x3db2aff0	0.08724964
63	0xbda35a58	-0.07976216
64	0x3d4f7552	0.050648995
65	0x3cdd4fab	0.027015528
66	0xbdc763c4	-0.09735826
67	0xbe2868e4	-0.16446263
68	0xbc2eab85	-0.010661011
69	0x3b281186	0.002564521
70	0x3db1871e	0.0866835
71	0xbd3a9789	-0.04555467
72	0xbe3e34d5	-0.18574841
73	0x3c6b2ace	0.014353467
74	0x3cb4ad97	0.02205543
75	0xbcf63ed2	-0.030059252
76	0x3d0cd185	0.0343795
77	0xbe163714	-0.14669448
78	0xbd73ca52	-0.05951912
79	0xbdafd7cc	-0.08586082
80	0x3d04e1cb	0.032441895
81	0xbad6fdfa	-0.0016402595
82	0x3d7f45e5	0.062322516
83	0x3e1407f4	0.14456159
84	0xbd3c9ced	-0.046048094
85	0x3aeba519	0.001797828
86	0x3da54e70	0.080716014
87	0x3dbad1e7	0.09122067
88	0xbde7c391	-0.11316598
89	0xbd21a09d	-0.039459813
90	0x3d30facc	0.04320793
91	0x3c9a0231	0.018799873
92	0x3d8ab95b	0.06773635
93	0xba1b6d00	-0.0005929023
94	0x3cd5c541	0.026095035
95	0x3de45e6f	0.11150824
96	0x3cef5750	0.029216439
97	0xbe1716f5	-0.14754851
98	0xbd11b09c	-0.03556882
99	0xbdd73f74	-0.105101496
100	0xbd6b6c74	-0.057476476
101	0xbd0fd535	-0.03511544
102	0xbd0de53e	-0.03464245
103	0x3db4294a	0.08796938
104	0x3dfcf1f6	0.12350838
105	0x3cf5e48d	0.030016208
106	0xbdbc5f62	-0.0919788
107	0x3dcef3af	0.10105073
108	0x3d802494	0.06256977
109	0x3db34eec	0.087552875
110	0xbe19d44b	-0.1502239
111	0x3dd053cb	0.10172232
112	0x3d7a4d37	0.061108794
113	0xbc51ad99	-0.012797737
114	0x3cc33f4c	0.023833893
115	0xbb99a4b2	-0.0046888227
116	0xbe2efbf7	-0.17088304
117	0xbdbde84b	-0.09272822
118	0xbdb698a4	-0.08915833
119	0xbe19aa1c	-0.15006298
120	0xbd101429	-0.035175476
121	0xbdec6667	-0.11542969
122	0x3e0aa018	0.13537633
123	0x3d9f0193	0.07763972
124	0x3de13c1c	0.10997793
125	0x3d618750	0.055060685
126	0xbcef2c13	-0.02919582
127	0x3ba0e86e	0.0049105203
128	0x3c72c50d	0.014817488
129	0x3dc3d1de	0.09561513
130	0x3df62870	0.120194316
131	0xbc3a3722	-0.011365684
132	0x3cf68f2b	0.030097565
133	0xbca32ed7	-0.019919796
134	0x3d30a424	0.043125287
135	0x3c792933	0.015207577
136	0xbddd80c0	-0.10815573
137	0xbdc76b03	-0.09737208
138	0xbe5dd295	-0.21662362
139	0xbd00ddcb	-0.03146152
140	0x3cf88530	0.030336946
141	0xbe019b63	-0.12656932
142	0xbca65b2a	-0.020307142
143	0x3d8769b1	0.06611956
144	0x3e2a30f3	0.16620235
145	0xbd9f2230	-0.077701926
146	0x3d1ed79c	0.03877984
147	0x3d05658d	0.03256755
148	0xbd8243ab	-0.06360563
149	0xbcbc1578	-0.022959456
150	0xbe1516a1	-0.14559413
151	0x3d1e825f	0.03869855
152	0x3dd4032d	0.10352168
153	0xbc8c53ff	-0.017129896
154	0xbbe6bdeb	-0.007041683
155	0x3dc89134	0.0979332
156	0xbc67bdc7	-0.014144368
157	0x3d13e51e	0.036107175
158	0x3c28be0c	0.010299217
159	0x3d423921	0.047417764
160	0x3d83d315	0.06436745
161	0xbcdea3e3	-0.027177757
162	0xbd03c128	-0.03216663
163	0xbe0536f3	-0.13009243
164	0xbd783ada	-0.060603
165	0x3e06a6d9	0.13149585
166	0xbda6dc6c	-0.08147511
167	0xbd923af1	-0.071401484
168	0xbdde78bb	-0.10862871
169	0xbc5dc469	-0.013535597
170	0x3d723a25	0.059137482
171	0x3e0c37ca	0.13693157
172	0x3c4fc7f3	0.012681949
173	0x3c5503aa	0.013001362
174	0xbd1ba824	-0.03800215
175	0xbdbe0db2	-0.09279956
176	0x3d72cb02	0.059275635
177	0x3e0562e1	0.13026
178	0x3c104e30	0.008807704
179	0xbd8e2432	-0.069404975
180	0xbcd33b7f	-0.025785206
181	0xbafad5ea	-0.0019137238
182	0xbdc87473	-0.09787836
183	0xbcb3c22d	-0.021943176
184	0x3dc77e93	0.09740939
185	0x3cdb6916	0.026783507
186	0xbdae9a2a	-0.08525498
187	0xbb026f58	-0.0019902792
188	0xbb6bf7a8	-0.003600577
189	0x3cf3c13f	0.029755233
190	0x3d37a50d	0.04483514
191	0xbd712a7a	-0.0588784
192	0xbe4d652b	-0.20058124
193	0x3cdbd473	0.026834702
194	0x3dbabf17	0.09118479
195	0x3d27aa3a	0.040933825
196	0x3e0ec529	0.13942398
197	0xbd9ccf95	-0.07656781
198	0xbd9be08e	-0.0761119
199	0xbe0e51ba	-0.13898364
200	0x3d332517	0.043736544
201	0x3b35f5b4	0.0027764859
202	0x3e5f731b	0.21821253
203	0xbdfd22f1	-0.1236018
204	0xbbcf7165	-0.0063306564
205	0xbd39a2f0	-0.045321405
206	0x3af02cc4	0.0018323888
207	0xbde290f3	-0.11062803
208	0xbd166e42	-0.036726244
209	0xbccdfe71	-0.025145741
210	0xbda5275f	-0.0806415
211	0x3db174b6	0.08664839
212	0x3e05f03a	0.1307992
213	0xbdd9445e	-0.10608743
214	0xbcfba328	-0.030717447
215	0xbd6b951f	-0.05751526
216	0x3da703a4	0.08154991
217	0xbd351c6e	-0.044216566
218	0x3dbe565c	0.092938155
219	0xbb619b23	-0.0034424744
220	0x3d28da7e	0.041223995
221	0x3da66041	0.08123828
222	0x3c85fb7b	0.016355267
223	0x3dafd9d2	0.08586468
224	0x3d9602ac	0.07324728
225	0x3d47762e	0.04869669
226	0xbdb2a93a	-0.08723684
227	0xbc27b442	-0.010235848
228	0x3e1c626b	0.15271918
229	0xbdfddbeb	-0.12395462
230	0xbe25cc5d	-0.1619124
231	0xbd665919	-0.056237314
232	0x3dafbe59	0.08581228
233	0xbe046347	-0.12928496
234	0x3b9fe6a8	0.0048797913
235	0xbca75b50	-0.020429283
236	0x3d9d03da	0.0766675
237	0xbd834347	-0.064093165
238	0xbe315124	-0.17316109
239	0xbd5a97eb	-0.053367537
240	0xbdbd6b95	-0.09249035
241	0x3e04158b	0.12898843
242	0x3e0d0b8b	0.13773935
243	0x3d353899	0.04424343
244	0x3dbd8e40	0.09255648
245	0x3bac3906	0.005255821
246	0xbdeae3a3	-0.114691995
247	0x3c0708df	0.008241861
248	0xbcc99a45	-0.024609694
249	0xbc2b498f	-0.010454549
250	0xbc61eac8	-0.013788886
251	0xbcfbe7c2	-0.03075016
252	0x3e019771	0.12655427
253	0x3d26a334	0.040682986
254	0xbce7ce5f	-0.028296648
255	0xbd98e478	-0.07465452

lstm.weight_hh_l1 f4 [256, 64]
0	0xbddf6935	-0.109087385
1	0x3c760193	0.015015024
2	0x3d21e057	0.039520588
3	0xbce3e062	-0.027816955
4	0x3e373457	0.1789106
5	0xbdacafd6	-0.084319755
6	0x3d3245cd	0.0435236
7	0xbe139cdc	-0.14415306
8	0xbe24872f	-0.16067193
9	0x3c939a8a	0.018018026
10	0x3e172b2c	0.14762563
11	0xbd6b0ec6	-0.057387136
12	0xbc913730	-0.01772651
13	0xbd9648df	-0.07338118
14	0x3d2413e7	0.040058043
15	0xbd6dd11c	-0.05806075
16	0x3dae1880	0.08500767
17	0x3a4535f9	0.0007522996
18	0x3d9a501f	0.07534813
19	0x3d8a5ac9	0.06755597
20	0x3d708c6d	0.05872767
21	0x3d1cf496	0.038319193
22	0xbd530d70	-0.051526487
23	0x3d95f327	0.07321768
24	0xbdb1706f	-0.08664023
25	0xbd983252	-0.07431473
26	0xbce3a411	-0.027788194
27	0x3e1a14d1	0.15047003
28	0x3e22cb57	0.1589788
29	0xbd8d62b3	-0.06903591
30	0xbe0ace4b	-0.13555257
31	0xbdc9abc2	-0.09847213
32	0x3e405212	0.18781307
33	0xbd8f9d0a	-0.07012375
34	0x3dcaebfa	0.0990829
35	0x3d0eb118	0.03483686
36	0xbb69d652	-0.0035680723
37	0xbdd14956	-0.10219066
38	0xbcdad1b1	-0.026711317
39	0x3dd62a90	0.10457337
40	0xbded1786	-0.11576752
41	0xbd21c0ca	-0.0394905
42	0xbd572307	-0.05252364
43	0x3de6114f	0.1123377
44	0xbd885798	-0.06657332
45	0xbd0fe291	-0.03512818
46	0xbbef754a	-0.007307683
47	0x3d2d285c	0.042274818
48	0x3d2fa137	0.042878356
49	0xbc93df73	-0.018050885
50	0x3d405297	0.046953764
51	0xbde32bf0	-0.11092365
52	0x3c88a3a0	0.016679585
53	0xbd25fbf8	-0.0405235
54	0xbc58e7e6	-0.013238883
55	0x3e3066ea	0.17226759
56	0xbd9eb775	-0.077498354
57	0xbdd96f58	-0.1061694
58	0x3e010b92	0.1260207
59	0xb91de57b	-0.00015058175
60	0xbe10a179	-0.14124097
61	0x3cecab6c	0.028890334
62	0xbdb5c92f	-0.08876263
63	0x3d8fed5f	0.07027697
64	0x3dd83333	0.105566405
65	0x3d82fe22	0.06396128
66	0xbd5b5e7d	-0.053556908
67	0xbd30be49	-0.04315022
68	0xbde48f76	-0.111601755
69	0xbc78b338	-0.015179448
70	0x3cf48cc0	0.029852271
71	0xbdeadca8	-0.11467868
72	0xbcc3a77f	-0.02388358
73	0xbd2d1445	-0.04225566
74	0xbd15b27c	-0.03654717
75	0xbdf59297	-0.119908504
76	0xbd7f3d4d	-0.06231432
77	0x3c2be0a2	0.010490568
78	0xbd8eb23d	-0.0696759
79	0x3cb4fc38	0.022092924
80	0xbd232919	-0.039834116
81	0x3da400b3	0.08007946
82	0x3e171bff	0.14756773
83	0x3d771685	0.06032421
84	0x3dd7803d	0.105225064
85	0x3de78546	0.11304717
86	0x3aab3186	0.0013061024
87	0xbe068ab3	-0.13138847
88	0x3dd56eed	0.10421548
89	0xbd6a7c5c	-0.057247505
90	0x3d49d9a3	0.04927982
91	0x3da875a9	0.08225567
92	0xbd2c634b	-0.04208688
93	0xbd3ba3df	-0.045810577
94	0xbd7a353d	-0.06108593
95	0x3dabdbd7	0.083915405
96	0xbd1f21ac	-0.03885047
97	0xbcc1d474	-0.023660876
98	0x3d6f214d	0.058381367
99	0xbc2b1879	-0.010442846
100	0xbda92d19	-0.08260555
101	0x3d1b4794	0.03791006
102	0xbda8ea03	-0.08247759
103	0x3e4046c2	0.18776992
104	0x3d7ee47d	0.062229622
105	0x3d530c36	0.051525317
106	0xbd91f934	-0.0712761
107	0xbd7dcfa6	-0.061965607
108	0xbc8ab481	-0.016931774
109	0xbe47b0e4	-0.19501072
110	0x3d3e5701	0.046469692
111	0x3d84b0fd	0.0647907
112	0x3d772dcd	0.060346413
113	0xbde8de4c	-0.11370525
114	0x3dea0b7c	0.11427972
115	0x3e01df3a	0.1268281
116	0xbdd673c0	-0.10471296
117	0xbbf6eea2	-0.0075357715
118	0xbd267f64	-0.040648833
119	0x3d57982e	0.052635364
120	0xbcf481da	-0.029847074
121	0xbe1051fe	-0.14093778
122	0x3b35f159	0.0027762263
123	0xbd054825	-0.032539506
124	0xbe2d3c7c	-0.16917604
125	0x3d9a3c88	0.07531077
126	0xbdb257f3	-0.08708181
127	0x3d3a94da	0.045552112
128	0x3c2b5814	0.010458011
129	0x3e0efd5d	0.13963838
130	0x3d9ef9d6	0.07762496
131	0xbd39f908	-0.04540351
132	0xbd89899b	-0.06715699
133	0xbd7f7ec6	-0.06237676
134	0x3c27139e	0.010197548
135	0xbdeda9ed	-0.116046764
136	0x3d16631c	0.03671561
137	0x3d49adb6	0.04923793
138	0xbe262c20	-0.1622777
139	0x3e1ea475	0.15492423
140	0x3e2b9ffb	0.16760246
141	0xbe499816	-0.19686922
142	0xbe5bd45e	-0.2146773
143	0xbe05cc38	-0.13066185
144	0xbde651a7	-0.11246043
145	0xbb2de4f9	-0.0026534183
146	0x3e86781e	0.26263517
147	0xba9e97c6	-0.0012099675
148	0x3e6ee53e	0.23329636
149	0xbd75652f	-0.05991095
150	0xbde33601	-0.11094285
151	0x3ab8d1b1	0.0014100579
152	0x3cae90f3	0.021309352
153	0xbe75c24f	-0.23999904
154	0x3dd770c7	0.105195574
155	0x3d95f3e4	0.07321909
156	0x3c07de5c	0.008292761
157	0x3cbfe50c	0.023424648
158	0xbc2af8c6	-0.010435289
159	0x3da32181	0.07965375
160	0x3d0d10a0	0.034439683
161	0xbd0dbc2d	-0.034603287
162	0xbe0d60a9	-0.13806404
163	0x3d4de866	0.05027046
164	0xbea1b167	-0.3158066
165	0xbe194b9d	-0.1497025
166	0xbd1c1d39	-0.038113806
167	0xbdbb5824	-0.09147671
168	0xbe12e0cb	-0.14343564
169	0x3d439fdf	0.047759887
170	0xbdacbb2e	-0.08434139
171	0x3ded97d2	0.11601223
172	0xbc90580d	-0.01762011
173	0xbdc92773	-0.098219775
174	0xbc85dec7	-0.01634158
175	0x3d32e84b	0.043678563
176	0xbdd727f1	-0.10505665
177	0xbdbf0903	-0.09327891
178	0x3b1e1e4a	0.002412694
179	0x3d8af114	0.06784263
180	0x3d6330f3	0.055466603
181	0xbe44f62a	-0.19234529
182	0xbd1c36ff	-0.038138386
183	0xbd668e29	-0.05628792
184	0x3dee4ccb	0.11635741
185	0xbd85b294	-0.06528202
186	0x391028e0	0.00013748137
187	0xbd7abe3f	-0.06121659
188	0x3db8d7de	0.090255484
189	0x3d13ca6f	0.036081728
190	0xbdcdbe70	-0.10046089
191	0xbd954fe8	-0.072906315
192	0x3e1d0a54	0.15335971
193	0x3d1c4c1c	0.03815852
194	0xbdcbf2b4	-0.09958401
195	0x3d030057	0.031982746
196	0x3defebec	0.117149204
197	0x3c8d2552	0.01722971
198	0xbde13c05	-0.10997776
199	0xbd236f74	-0.03990121
200	0xbe275507	-0.16341029
201	0xbc377039	-0.01119619
202	0xbd91feef	-0.07128703
203	0xbcf1ecbb	-0.029531827
204	0x3ca55bf5	0.02018545
205	0xbd36ad26	-0.04459872
206	0xbe12f743	-0.14352135
207	0xbdb76e24	-0.089565545
208	0xbd9409be	-0.07228421
209	0xbd23d26a	-0.03999559
210	0x3d18b922	0.03728593
211	0xbdc7ea99	-0.09761543
212	0xbbdc1853	-0.006716767
213	0x3d5933fe	0.0530281
214	0x3dbd045d	0.09229348
215	0x3c827a94	0.01592759
216	0xbdc4468f	-0.095837705
217	0x3dc80c19	0.097679324
218	0xbda35697	-0.079755
219	0xbda03eff	-0.078245156
220	0x3d504741	0.050849203
221	0x3d6c0a6c	0.057627127
222	0xbccb5c6b	-0.024824342
223	0x3c8bb25f	0.017052827
224	0xbd7eb5f1	-0.06218523
225	0x3d259a41	0.04043031
226	0xbd844da0	-0.06460118
227	0x3d3e1859	0.04640994
228	0xbde33b46	-0.1109529
229	0xbdfd65e0	-0.12372947
230	0x3d988115	0.074464954
231	0x3d0ce976	0.034402333
232	0x3be3cd8c	0.0069519933
233	0xbd95c3a8	-0.07312709
234	0x3d505684	0.050863758
235	0x39c31108	0.00037205988
236	0xbd390b70	-0.045176923
237	0x3dd694a5	0.104775704
238	0xbbba9cf4	-0.00569498
239	0x3dc8f7ba	0.09812875
240	0xbcf499c1	-0.029858472
241	0x3dd73693	0.10508456
242	0x3becd721	0.007227794
243	0xbda43ff5	-0.08020011
244	0x3b83d83d	0.0040235803
245	0xbdb63d5e	-0.088984236
246	0x3df2228e	0.11822997
247	0x3d74cd51	0.059766117
248	0xbd911f4f	-0.0708605
249	0x3d08c448	0.033390313
250	0xbcfce546	-0.030871045
251	0xbdc3e1bc	-0.0956454
252	0x3ce7b49d	0.028284365
253	0x3d3133bf	0.04326224
254	0xbd4367de	-0.047706477
255	0x3d26c658	0.0407165

lstm.bias_ih_l1 f4 [256]
0	0xbcd0fa39	-0.02550994
1	0x3d88fd3d	0.06688926
2	0x3d943f78	0.07238668
3	0xbc05e0e1	-0.008171291
4	0x3d0f777a	0.03502605
5	0x3d44c614	0.048040465
6	0xbd9e5381	-0.07730771
7	0x3dcaea74	0.09908
8	0xbd83effc	-0.06442258
9	0x3c9fdca9	0.019514399
10	0x3b90a3aa	0.0044140415
11	0x3cd1d061	0.025612058
12	0xbd9ff838	-0.07811016
13	0xbd804628	-0.06263381
14	0x3cf2707a	0.029594649
15	0xbd053f24	-0.03253092
16	0xbda7d1e0	-0.08194327
17	0x3dd2c292	0.102910176
18	0xbdb33261	-0.087498434
19	0xbcbae620	-0.02281481
20	0x3e18de4e	0.14928553
21	0x3dceb1bd	0.10092495
22	0xbd477d90	-0.04870373
23	0x3c73eef3	0.014888513
24	0x3d5d96a3	0.054098736
25	0x3dbb5fdc	0.09149143
26	0x3dd4dedc	0.103940696
27	0x3d4693d8	0.04848084
28	0xbd68b034	-0.056808665
29	0x3e1b31c1	0.15155698
30	0xbbbfe253	-0.0058558374
31	0x3e1554a2	0.14583066
32	0x3de9d68c	0.11417875
33	0xbda38a99	-0.0798542
34	0x3e147f56	0.145017
35	0xbd9f1e46	-0.07769446
36	0xbdcb4b67	-0.09926491
37	0x3d831d41	0.06402064
38	0xbdc7c7a8	-0.09754878
39	0xbd0d2e17	-0.034467783
40	0xbcf5103b	-0.029914966
41	0x3d6602ec	0.05615513
42	0xbd36bd40	-0.044614077
43	0xbdf80c7b	-0.121117555
44	0xbc9e6db2	-0.019339416
45	0xbd3453ff	-0.044025417
46	0x3d5e61c2	0.054292448
47	0xbc0431a2	-0.008068474
48	0xbd8d7260	-0.06906581
49	0x3dfca409	0.12335975
50	0xbdc33e0d	-0.095333196
51	0xbdedf081	-0.11618138
52	0x39bec565	0.00036386694
53	0xbd3018c6	-0.042992376
54	0x3e023ef6	0.1271933
55	0xba2d90f3	-0.00066210254
56	0xbde61039	-0.11233563
57	0x3c8b37e2	0.01699442
58	0xbd02d4d6	-0.031941257
59	0x3c990969	0.018681245
60	0x3c798b79	0.015231007
61	0xbda1bdb0	-0.07897508
62	0x3d515f4e	0.05111628
63	0xbdc1e740	-0.094679356
64	0xbb85b450	-0.004080333
65	0x3d2b9f0a	0.04189972
66	0x3d8f825a	0.070072845
67	0x3de51bab	0.11186918
68	0x3dc4c8a3	0.09608581
69	0xbc12a3fe	-0.008950232
70	0xbd1e364c	-0.038626
71	0x3e11bd55	0.1423238
72	0x3d830694	0.06397739
73	0xbdca193a	-0.09868093
74	0x3d86e36b	0.06586345
75	0x3e05746f	0.13032697
76	0xba1b8604	-0.00059327506
77	0xbddf1a11	-0.10893644
78	0xbdcafe75	-0.09911815
79	0x3de23bf6	0.11046593
80	0x3de324ef	0.11091029
81	0xbdc941ad	-0.0982698
82	0x3db37481	0.08762456
83	0x3c6486e2	0.013948174
84	0xbceadb2a	-0.028668959
85	0x3de1cfb0	0.11025941
86	0xbdaed27e	-0.08536242
87	0xbd7ae7d0	-0.06125623
88	0x3cb4ca10	0.022069007
89	0xbc4e2c69	-0.01258383
90	0xbdb15755	-0.086592354
91	0x3dd2c8dd	0.10292218
92	0xbdb9258c	-0.090403646
93	0x3dd213b7	0.102576666
94	0xbca11635	-0.01966391
95	0xbd445bf6	-0.047939263
96	0x3db7ca13	0.089740895
97	0x3dde7c3d	0.1086354
98	0xbe111f2d	-0.14172049
99	0xbcc7ef41	-0.024406077
100	0x3e235370	0.15949798
101	0xbcc5d407	-0.024148954
102	0xbdd43b46	-0.10362868
103	0xbd2cc399	-0.042178724
104	0xbdfbcea4	-0.12295273
105	0x3dbbb2a6	0.09164934
106	0xbcbc3ed2	-0.022979174
107	0xbc91f142	-0.017815236
108	0x3cf07d0a	0.029356498
109	0x3ded16a6	0.115765855
110	0xba5580ce	-0.00081444986
111	0x3d914f69	0.070952244
112	0xbd3cf987	-0.046136405
113	0x3e0a5805	0.1351014
114	0xbd5cb946	-0.053887628
115	0xbc88141e	-0.016611155
116	0x3d547a11	0.051874224
117	0x3dc4cd6d	0.09609494
118	0xbd042cef	-0.032269415
119	0x3c0c5004	0.008563999
120	0x3c9fc591	0.019503387
121	0x3db96780	0.09052944
122	0x3dc9df9b	0.098571025
123	0x3d621457	0.05519518
124	0xbe035cb2	-0.12828329
125	0xbd7f47ec	-0.06232445
126	0xbaf7600b	-0.0018873228
127	0xbdd77574	-0.10520449
128	0x3d43c5ea	0.047796167
129	0xbdb0e677	-0.08637708
130	0x3da00341	0.07813121
131	0x3cc8145d	0.024423772
132	0x3be6bcc4	0.0070415456
133	0x3c887f8f	0.016662387
134	0x3c67ef20	0.014156133
135	0x3d9e2be6	0.07723217
136	0xbdc52f0e	-0.096281156
137	0x3dcfb40a	0.101417616
138	0x3de21d01	0.11040688
139	0xbd98f762	-0.074690595
140	0x3d5ce702	0.053931244
141	0xbdb00dac	-0.08596358
142	0x3d89fd70	0.067377925
143	0xbb8ae783	-0.004239024
144	0x3d1defda	0.03855882
145	0x3dc4e7d2	0.09614529
146	0x3d15ebc2	0.03660179
147	0xbd1a9a97	-0.037745085
148	0xbd9e2b85	-0.077231444
149	0x3de1b98c	0.110217184
150	0xbd59ccec	-0.053173944
151	0x3cdb2406	0.026750576
152	0x3da8d0e4	0.08242968
153	0xbda00714	-0.0781385
154	0xbdc379df	-0.095447294
155	0xbcf6c132	-0.03012142
156	0xba747ca3	-0.00093264336
157	0x3da1a3b1	0.0789255
158	0xbd8398e5	-0.06425647
159	0x3dc12366	0.0943058
160	0x3cab2167	0.02088995
161	0x3d3f46fa	0.046698548
162	0xbd0654ef	-0.032795843
163	0xbd545fed	-0.051849294
164	0x3c74a9a9	0.014933028
165	0xbd59ad29	-0.053143654
166	0x3dadc78a	0.08485325
167	0x3bfa4945	0.007638129
168	0xbd76d86c	-0.06026499
169	0x3ddffa97	0.10936468
170	0x3d05667d	0.032568444
171	0x3dd07d4c	0.101801485
172	0xbd8d227a	-0.068913415
173	0x3da84693	0.08216586
174	0x3e02efbf	0.12786768
175	0xbd5d2511	-0.053990427
176	0x3c9d2b28	0.019185618
177	0x3de75a7e	0.11296557
178	0xbdaf056c	-0.08545956
179	0xbd9f3c46	-0.07775168
180	0x3d911aaf	0.070851676
181	0x3cb95db6	0.022627693
182	0xbd61995b	-0.05507789
183	0xbd55e396	-0.052218996
184	0x3db14900	0.08656502
185	0x3d0d51bc	0.034501776
186	0x3d6b2741	0.057410482
187	0xbd85cccd	-0.06533203
188	0x3db1d917	0.08683985
189	0xbdb10104	-0.08642772
190	0x3dced4a7	0.10099154
191	0xbd66b21c	-0.056322202
192	0x3ddd90bb	0.10818621
193	0xbcd869f7	-0.026417715
194	0xbd1aef9a	-0.037826158
195	0xbdc88bde	-0.097923025
196	0xbcaabcf4	-0.020842053
197	0x3d6231bc	0.05522321
198	0x3d5faad1	0.054606263
199	0xbcb97de4	-0.022643037
200	0xba2f3aea	-0.0006684499
201	0x3b903ed6	0.004402022
202	0x3dbd0f6b	0.09231456
203	0x3e01258c	0.12611979
204	0x3d8c2731	0.06843413
205	0xbdd6378e	-0.10459815
206	0xbb9a25a4	-0.004704194
207	0x3db33e16	0.08752076
208	0x3de28608	0.11060721
209	0xbc29c05a	-0.010360802
210	0x3da78979	0.08180518
211	0xbce87979	-0.028378235
212	0x3dd8819d	0.10571597
213	0xbd88c368	-0.06677896
214	0x3df9a8d6	0.12190406
215	0x3de2d338	0.11075443
216	0xbbba5e88	-0.0056875385
217	0x3d243755	0.04009183
218	0x3d846376	0.06464283
219	0x3ccdafa4	0.025108166
220	0xbd6bcbbd	-0.057567347
221	0xbd6b3418	-0.057422727
222	0xbda73c8c	-0.08165845
223	0x3cc0551a	0.02347808
224	0xbd76a792	-0.0602184
225	0xbdc6370c	-0.09678468
226	0xbdb980a8	-0.09057742
227	0xbdba0735	-0.09083406
228	0x3c4932c4	0.01228017
229	0x3d0abc4a	0.033870973
230	0x3df81825	0.1211398
231	0xbcad06fa	-0.02112149
232	0x3d09b904	0.03362371
233	0x3dcf0712	0.101087704
234	0x3e004a81	0.12528421
235	0xbd2899ee	-0.041162424
236	0x3d563238	0.052293986
237	0xbd917320	-0.071020365
238	0xbc914d28	-0.017736986
239	0x3c3d23a8	0.011544146
240	0x3de233aa	0.110450104
241	0x3d6f986c	0.05849497
242	0xbd68c1ee	-0.05682557
243	0x3d4ade5e	0.049528472
244	0xbda61559	-0.081095405
245	0xbdbece09	-0.09316642
246	0x3d59dc18	0.053188413
247	0x3dbe8b23	0.09303882
248	0x3da3a953	0.079912804
249	0x3e11ca1d	0.14237256
250	0xbd7090a6	-0.058731697
251	0x3c5a4038	0.013320975
252	0xbd146ce5	-0.036236662
253	0xbd608e8c	-0.054823443
254	0xbdf392f1	-0.11893261
255	0x3e058786	0.1303998
