output/LSTM2CNN/LSTM2CNN_adam_128_500/model/LSTM2CNN_epoch_33.pth (torch, 350382 bytes, 16 tensors)

lstm.weight_ih_l0 f4 [256, 10]
0	0x3dc9a202	0.09845354
1	0x3dda189c	0.10649225
2	0x3e05dc45	0.13072307
3	0x3c4a9e1e	0.0123668
4	0xbdeba4f2	-0.1150607
5	0x3df671aa	0.120333984
6	0x3e155a56	0.14585242
7	0xbda14608	-0.078746855
8	0x3d62363f	0.055227514
9	0xbd7bad89	-0.061444793
10	0xbd29ddfc	-0.041471466
11	0x3bba6b48	0.0056890585
12	0x3d649436	0.055805407
13	0x3d9555cf	0.07291757
14	0xbdf7c29f	-0.12097668
15	0xbd408443	-0.047001135
16	0xbadd1b0d	-0.0016869024
17	0xbd0c7ac3	-0.034296762
18	0xbdf61f8f	-0.12017738
19	0xbc4b1ed5	-0.012397488
20	0xbdfc2313	-0.123113774
21	0x3ce1b9af	0.027554361
22	0xbd8280b5	-0.06372205
23	0x3d1e6c79	0.038677666
24	0x3d692967	0.05692425
25	0xbc884c19	-0.016637849
26	0xbcced13c	-0.025246255
27	0xbe067f04	-0.1313439
28	0xbdea468e	-0.114392385
29	0xbdfbb1a1	-0.122897394
30	0x3c8f189a	0.017467786
31	0xbe07d9b2	-0.13266638
32	0x3dd7fceb	0.10546287
33	0xbaf2893f	-0.0018504037
34	0xbdfa13f5	-0.12210838
35	0xbca1baa3	-0.019742316
36	0x3cb941bb	0.02261435
37	0xbdd17a3f	-0.10228395
38	0x3dd08a00	0.101825714
39	0x3db71683	0.08939841
40	0xbda615f0	-0.08109653
41	0x3c36306f	0.011119946
42	0x3da7c91b	0.08192655
43	0x3e0560ee	0.13025257
44	0xbd2328f0	-0.039833963
45	0x3dd5aead	0.104337074
46	0xbdbc8803	-0.0920563
47	0x3c8ec487	0.017427696
48	0x3c8464b5	0.016161302
49	0xbd07d2de	-0.033160083
50	0x3db01394	0.08597484
51	0xbdd4d78e	-0.10392676
52	0x3dac958e	0.08426963
53	0xbd74dfbb	-0.05978368
54	0xbd14912b	-0.036271255
55	0xbdbca70b	-0.092115484
56	0xbd9fb30e	-0.07797824
57	0x3dd640d2	0.10461582
58	0xbd098d20	-0.033581853
59	0xbe01377f	-0.12618826
60	0xbcd6c50b	-0.026217004
61	0xbd0cce35	-0.03437634
62	0xbd723c18	-0.05913934
63	0xbd1fe2e5	-0.039034743
64	0x3e1ce776	0.1532267
65	0xbdd2ffa3	-0.10302665
66	0xbd5e81bd	-0.054322947
67	0x3e288ae5	0.16459234
68	0x3e12ac06	0.14323434
69	0x3c35950d	0.0110829
70	0x3cfcdb2a	0.030866224
71	0x3dc04b55	0.093893684
72	0x3c72cd4c	0.014819454
73	0xbe0583fd	-0.13038631
74	0xbd51e92f	-0.05124777
75	0xbccc5aa0	-0.024945557
76	0x3d9a2138	0.07525867
77	0xbd955cab	-0.07293066
78	0xbd87fa75	-0.06639568
79	0xbce97754	-0.028499283
80	0xbde4591d	-0.111498095
81	0xbcb12223	-0.021622723
82	0x3d27578f	0.040854987
83	0x3b84fff1	0.004058831
84	0xbd982829	-0.07429535
85	0xbbecd49c	-0.0072274935
86	0x3d011484	0.031513706
87	0x3c433bc0	0.011916101
88	0xbaf0d57a	-0.0018374168
89	0xbd50d47f	-0.050983902
90	0xbc3933f2	-0.011303889
91	0xbba8f3b7	-0.005156006
92	0xbdec90c2	-0.11551048
93	0xbd27394b	-0.040826123
94	0xbd2f63f5	-0.042819936
95	0xbb9dbc8d	-0.004813737
96	0x3db32549	0.08747346
97	0x3d1b9cd0	0.037991345
98	0x3dd154bb	0.10221239
99	0x3e0773fc	0.13227838
100	0x3dbc7821	0.092026
101	0x3c60f503	0.01373029
102	0xbe026563	-0.12733988
103	0x3c97ad18	0.018515155
104	0xbdda2432	-0.10651435
105	0x3c977bf8	0.01849173
106	0xbd4fe77a	-0.050757863
107	0xbe0de46c	-0.13856667
108	0x3dcd74ec	0.10032067
109	0x3dc458bb	0.095872365
110	0xbd80695a	-0.06270094
111	0xbdd62cf5	-0.104577936
112	0xbdf53f02	-0.119749084
113	0x3d8305c6	0.063975856
114	0xbd7d7847	-0.061882284
115	0x3cffa2ab	0.031205496
116	0x3d8aa02c	0.067688316
117	0x3df994f9	0.121866174
118	0x3de357ac	0.111007065
119	0x3dcd117e	0.10013102
120	0xb8a645be	-7.928487e-05
121	0xbc98428e	-0.018586423
122	0xbd1a4f35	-0.037673194
123	0xbca7c820	-0.02048117
124	0xbcad125b	-0.021126917
125	0xbc64f50c	-0.013974439
126	0xbd89b20c	-0.06723413
127	0x3def698a	0.11690052
128	0x3e040db1	0.12895848
129	0xbda6fa75	-0.0815324
130	0xbda4cd34	-0.08046952
131	0x3d3fae01	0.046796802
132	0xbdce6768	-0.10078317
133	0x3ccbe2f1	0.024888488
134	0x3d963a4c	0.07335338
135	0xbdb9e9d9	-0.09077806
136	0x3d89afdf	0.06722998
137	0xbd23acda	-0.039959766
138	0x3d25984c	0.040428445
139	0xbd366eeb	-0.044539373
140	0xbd0d1242	-0.03444124
141	0x3dc46e07	0.095912986
142	0x3d870a76	0.06593792
143	0xbc27e799	-0.010248088
144	0xbd8b2f8a	-0.06796177
145	0x3e09fd5e	0.13475558
146	0x3daa4b1b	0.083151065
147	0xbcd4e3b6	-0.025987487
148	0x3c4875d5	0.012235125
149	0xbe13a9ed	-0.1442029
150	0xbd254acd	-0.04035454
151	0xbd91e4de	-0.07123731
152	0xbe0162bd	-0.12635322
153	0x3da59fea	0.08087142
154	0x3d57d844	0.05269648
155	0xbe0d6fe0	-0.13812208
156	0xbe26bd44	-0.16283137
157	0xbdb52275	-0.08844463
158	0x3e127633	0.14302902
159	0xbc120a34	-0.008913565
160	0xbda821a2	-0.0820954
161	0x3d8d1093	0.06887927
162	0x3db25ef8	0.0870952
163	0x3d743c1b	0.059627634
164	0xbbe4a048	-0.006977115
165	0xbd0775bc	-0.033071265
166	0x3c3cef41	0.011531652
167	0x3e16c259	0.14722575
168	0x3d0fcc8b	0.035107177
169	0xbd27be29	-0.040952835
170	0x3d947ab5	0.07249967
171	0x3d90b91d	0.070665576
172	0x3ddea2c8	0.10870892
173	0x3db8573f	0.09001016
174	0x3c0ced36	0.008601477
175	0xbda4ace2	-0.08040787
176	0xbd8af7d3	-0.0678555
177	0xbd920444	-0.0712972
178	0xbcd587df	-0.026065765
179	0xbba0849b	-0.0048986203
180	0x3d2c686c	0.042091772
181	0x3d856707	0.065137915
182	0xbd9999ca	-0.07500036
183	0xbc20fea1	-0.009826333
184	0x3d87cc64	0.06630781
185	0xbd39b3b8	-0.04533741
186	0xbd11c1b1	-0.03558511
187	0xbdaa8cdd	-0.08327649
188	0x3bd75d46	0.0065723984
189	0x3dc61a74	0.09673014
190	0x3d171925	0.036889214
191	0xbe089b88	-0.1334058
192	0x3cd1fd9d	0.025633628
193	0xbcfdd34c	-0.030984543
194	0x3db0af9f	0.08627247
195	0xbd321a3b	-0.043482047
196	0xbdae9033	-0.085235976
197	0x3db5e2fb	0.08881184
198	0x3dcc46dc	0.09974453
199	0x3de268e9	0.11055166
200	0x3df35397	0.11881178
201	0x3dbced9e	0.092250094
202	0x3d50306a	0.05082742
203	0xbd9bf7b3	-0.07615604
204	0x3d90a9c5	0.07063631
205	0x3dbe6a25	0.09297589
206	0x3d812cbd	0.06307361
207	0x3d21489e	0.039375894
208	0x3e02386c	0.12716836
209	0x3ca95886	0.020672094
210	0xbd0fba53	-0.035089802
211	0xbe25d246	-0.16193494
212	0x3d3d1111	0.046158854
213	0xbd1324aa	-0.035923637
214	0x3dc21921	0.09477449
215	0x3cc0753c	0.023493402
216	0xbd11dee5	-0.03561296
217	0x3d2c5abe	0.042078726
218	0xba6323ab	-0.0008664678
219	0x3e0cde1c	0.13756603
220	0x3de3151f	0.11088013
221	0x3d80367a	0.062603906
222	0x3db1acd9	0.08675546
223	0x3db9b4cd	0.09067688
224	0xbc905afd	-0.017621512
225	0xbd7f375e	-0.06230866
226	0x3d0e7eba	0.034788825
227	0xbbefb9e2	-0.00731586
228	0xbd8307ef	-0.063979976
229	0x3e05ca6d	0.130655
230	0x3de4d29d	0.11172984
231	0x3d17ae90	0.03703171
232	0x3d7bdecb	0.06149177
233	0x3c2f653d	0.010705289
234	0xbc743199	-0.014904403
235	0x3e361a03	0.1778336
236	0x3dcd4e36	0.10024683
237	0xbd96498c	-0.07338247
238	0xbdc54c8e	-0.09633742
239	0x3d8bde40	0.068295
240	0x3d577a6e	0.052606992
241	0x3d79a18b	0.060945075
242	0xbc607f2c	-0.013702195
243	0xbc498f95	-0.012302299
244	0xbdbba5ae	-0.0916246
245	0xbda1ab04	-0.07893947
246	0xbdf50d95	-0.11965481
247	0x3dd35881	0.10319615
248	0xbd5b3986	-0.053521655
249	0xbcc4e645	-0.024035582
250	0x3b2b92b4	0.0026179971
251	0x3ddcce5a	0.10781546
252	0xbd438301	-0.047732357
253	0x3e00ccbe	0.12578103
254	0x385f02e0	5.317002e-05
255	0xbc559dbc	-0.013038095

lstm.weight_hh_l0 f4 [256, 64]
0	0x3d7a52ca	0.06111411
1	0x3d026a69	0.031839762
2	0xbdda237f	-0.106513016
3	0xbd951a31	-0.07280386
4	0xbdf79f20	-0.120908976
5	0x3d9e7518	0.077371776
6	0xbcb378ea	-0.021908242
7	0xbda6f1de	-0.08151601
8	0xbd003743	-0.0313027
9	0xbd7496fe	-0.05971431
10	0xbdea3ebe	-0.114377484
11	0xbd6070d5	-0.054795105
12	0xbd8508a2	-0.06495787
13	0x3dbcc1e2	0.09216668
14	0xbd0115f3	-0.031515073
15	0xbc128af2	-0.00894426
16	0x3cfa2c7b	0.030538788
17	0x3dbb5f24	0.09149006
18	0xbd94a9d3	-0.07258954
19	0xbd8de7f5	-0.06929008
20	0xbd8979da	-0.067126945
21	0x3d5b69c6	0.05356767
22	0x3d1ea0bb	0.038727503
23	0x3e03d0c3	0.12872605
24	0x3df72f78	0.12069601
25	0x3b1d0a48	0.0023962427
26	0xbdeba917	-0.11506861
27	0xbdf3f2aa	-0.11911519
28	0xbdd25606	-0.10270314
29	0x3d8f1fb3	0.06988468
30	0x3db38d9b	0.087672435
31	0xbd574eae	-0.05256527
32	0x3cf92168	0.030411437
33	0x3cbdd62a	0.02317341
34	0xbd42cbeb	-0.047557753
35	0xbddef57b	-0.108866654
36	0x3c54fce9	0.012999752
37	0xbb0d2697	-0.0021537894
38	0x3d68cede	0.05683791
39	0x3df0fe6e	0.117672786
40	0xbd233f56	-0.039855324
41	0x3d6e9888	0.058250934
42	0x3d796a39	0.060892317
43	0xbb855e60	-0.0040700883
44	0xbcc2f353	-0.023797667
45	0x3e0239be	0.1271734
46	0xbd2046ff	-0.039130207
47	0x3d0cb940	0.034356356
48	0xbd9c7519	-0.07639522
49	0xbdc6f901	-0.097154625
50	0xbdd3d02b	-0.10342439
51	0x3b82b2fc	0.0039886218
52	0xbdf68554	-0.12037149
53	0x3dee24a3	0.11628082
54	0x3cc91935	0.024548152
55	0xbd97f9dc	-0.07420704
56	0xbdb21a0a	-0.08696373
57	0x3d6f15a8	0.058370262
58	0xbd97a56f	-0.07404601
59	0x3dad00de	0.08447431
60	0x3d6a0f76	0.05714365
61	0xbd869b9a	-0.065726474
62	0xbd2d62f8	-0.042330712
63	0x3d9e87cb	0.07740744
64	0xbc66b3f6	-0.014080992
65	0xbd917c7a	-0.0710382
66	0xbc1d0beb	-0.009585361
67	0xbde49d19	-0.111627765
68	0xbde4ab21	-0.11165453
69	0x3c0e7738	0.008695416
70	0xbb4d5ddc	-0.0031336462
71	0x3b52588d	0.0032096237
72	0xbd9c2633	-0.076244734
73	0x3d5862be	0.052828543
74	0xbdd4fd1b	-0.103998385
75	0xbd15d1a4	-0.036576882
76	0x3d4ae266	0.049532317
77	0xbe05f990	-0.13083482
78	0xbd5bf9ab	-0.0537049
79	0xbd714b88	-0.058909923
80	0x3df650eb	0.12027153
81	0x3db5d1d8	0.08877915
82	0xbd943098	-0.07235831
83	0xbe004076	-0.1252459
84	0x3d238661	0.039923076
85	0x3de54856	0.111954376
86	0x3da2e473	0.079537295
87	0x3c0d85c2	0.008637847
88	0x3ddd7974	0.10814181
89	0xbdc3b169	-0.09555323
90	0x3dde6b35	0.10860292
91	0x3d85f294	0.06540409
92	0xbdabcf71	-0.08389176
93	0x3d6edb83	0.05831481
94	0x3cfb6074	0.03068564
95	0x3c533b8a	0.012892613
96	0x3d8b3258	0.06796712
97	0xbd7da7cc	-0.0619276
98	0xbdd9b4af	-0.10630166
99	0x3d436fb0	0.047713935
100	0x3dae2d92	0.085047856
101	0x3dc8886e	0.09791647
102	0xbda7ace0	-0.0818727
103	0xbdb46b51	-0.088095315
104	0xbdac00c4	-0.083985835
105	0xbc9a1de3	-0.01881308
106	0xbdb80046	-0.08984427
107	0x3dafb373	0.08579149
108	0xbb04e0fc	-0.0020275703
109	0x3c346698	0.011010788
110	0xbd49dbe1	-0.04928196
111	0x3d84956d	0.06473813
112	0x3db4a9be	0.08821438
113	0x3bf86ba7	0.0075811925
114	0xbdcbddc4	-0.09954408
115	0x3dd0ec34	0.10201302
116	0xbdfccdb7	-0.123439245
117	0x3db906f6	0.09034531
118	0x3c7146ff	0.014726399
119	0x3c7338bf	0.014845072
120	0x3d4078ae	0.04699009
121	0xbd41a3a4	-0.0472752
122	0x3d0f36b2	0.03496427
123	0x3a791232	0.00095013075
124	0xbde0e05f	-0.109802954
125	0xbdd69a40	-0.104786396
126	0x3d89b409	0.06723792
127	0xbdc12e7c	-0.09432694
128	0x3a910f7a	0.0011067234
129	0xbd31c7fb	-0.043403607
130	0x3da0e0dc	0.078553885
131	0xbd9594dc	-0.07303783
132	0xbd8b18a4	-0.06791809
133	0x3e129cd3	0.14317636
134	0xbdc51b7a	-0.09624381
135	0xbc40adee	-0.011760218
136	0x3d32bd7f	0.04363775
137	0x3deaae97	0.114590816
138	0x3dc54881	0.0963297
139	0xbe2aa63c	-0.16664976
140	0xbcacd1a1	-0.021096053
141	0x3c9de2f6	0.019273262
142	0x3da816fa	0.082075074
143	0xbdd160df	-0.10223555
144	0xbce88417	-0.028383298
145	0x3c489188	0.012241729
146	0x3cd38224	0.025818892
147	0xbc535f84	-0.012901191
148	0x3dd2194d	0.10258732
149	0xbbb41558	-0.0054957084
150	0xbe10d0de	-0.14142177
151	0xbe16f11e	-0.14740416
152	0x3d08aa60	0.033365607
153	0xbd23478b	-0.03986315
154	0x3de2628a	0.11053951
155	0x3e1752c1	0.14777662
156	0x3e1cb048	0.15301621
157	0xbdf8f889	-0.12156779
158	0x3d99943e	0.07498978
159	0xbddc9d8b	-0.107722364
160	0x3ce6395d	0.028103525
161	0xbd723c64	-0.059139624
162	0xbc8539f1	-0.01626298
163	0xbca32daa	-0.019919235
164	0x3d65a054	0.056061104
165	0xbd6bc69f	-0.057562467
166	0x3d8c9eeb	0.06866249
167	0xbc92f2cd	-0.017938042
168	0x3d93c617	0.07215517
169	0x3d815301	0.0631466
170	0xb937c738	-0.00017526455
171	0xbde421cf	-0.11139261
172	0x3e044f0b	0.12920777
173	0xbcf780fa	-0.030212868
174	0x3d90f505	0.07077984
175	0x3d94e15a	0.07269545
176	0xbdeda8b9	-0.11604447
177	0x3e435746	0.19076261
178	0x3d8f784d	0.070053674
179	0xbe016ace	-0.12638399
180	0x3e0fd723	0.14046912
181	0xbe2e4f9b	-0.17022555
182	0xbd8f7bf9	-0.07006068
183	0x3d233370	0.039843976
184	0x3e0ab7e9	0.13546719
185	0xbbecbfe5	-0.007225024
186	0x3d389597	0.045064535
187	0xbd074079	-0.03302047
188	0x3e609c2f	0.2193458
189	0x3dd97030	0.10617101
190	0x3e3ba101	0.18323137
191	0xbd825e8d	-0.063656904
192	0x3dc5309a	0.09628411
193	0x3e0828da	0.13296834
194	0xbc3e42b3	-0.011612582
195	0xbc990834	-0.01868067
196	0xbd9c061d	-0.076183535
197	0xbdc17558	-0.0944621
198	0xbcee0661	-0.029055776
199	0xbd1088e5	-0.035286803
200	0x3d84f0e5	0.064912595
201	0x3d816188	0.06317431
202	0x3ceefd55	0.029173533
203	0xbdfc7442	-0.12326862
204	0x3dc91aae	0.09819542
205	0xbe04914f	-0.12946056
206	0xbdd724ba	-0.10505052
207	0x3d684399	0.05670509
208	0xbdc6850c	-0.096933454
209	0x3dfe7834	0.12425271
210	0xbd982893	-0.07429614
211	0xbd1b089e	-0.037850015
212	0x3de0b1c9	0.1097141
213	0xbd1c2e1d	-0.038129915
214	0xbd7f8387	-0.062381294
215	0x3cb555b8	0.0221356
216	0xbce377a7	-0.027767016
217	0xbd363afe	-0.044489853
218	0x3d374bb1	0.04474992
219	0xbc885747	-0.01664318
220	0x3daa9ea7	0.08331042
221	0xbe131969	-0.14365162
222	0xbcdb39b8	-0.02676092
223	0x3de30657	0.110851936
224	0xbb79a832	-0.0038094637
225	0xbbf44dfb	-0.007455585
226	0x3d92f729	0.07176048
227	0x3ca0d282	0.019631628
228	0xbd3297e2	-0.043601878
229	0x3db4a11c	0.08819792
230	0x3a935f0c	0.0011243536
231	0xbd1f1c15	-0.03884514
232	0xbd7a3c0d	-0.061092425
233	0x3dffbe28	0.12487441
234	0x3d2370d0	0.03990251
235	0x3dc2d561	0.09513355
236	0x3e08a874	0.1334551
237	0xbd0f04b6	-0.034916602
238	0xba0c6735	-0.0005355955
239	0xbdc4354c	-0.09580478
240	0x3d1acbba	0.037791945
241	0x3ddd143a	0.107948735
242	0x3dc6f192	0.09714045
243	0x3d3c7264	0.04600753
244	0xba85ca52	-0.0010207391
245	0x3d166950	0.036721528
246	0x3d200b26	0.039073132
247	0x3b04b37d	0.0020248585
248	0xbd3c9ef8	-0.046050042
249	0xbc70d562	-0.014699312
250	0xbc820d3c	-0.015875451
251	0xbd2b754e	-0.041859917
252	0x3b286952	0.0025697541
253	0xbdbef4b2	-0.09324016
254	0xbdaa12df	-0.083043806
255	0x3dbe029f	0.09277844

lstm.bias_ih_l0 f4 [256]
0	0x3d6e5333	0.058184814
1	0x3dae23ed	0.08502946
2	0x3e083f54	0.13305408
3	0xbda49a78	-0.08037275
4	0xbcfcce65	-0.030860135
5	0xbde112a4	-0.109898835
6	0xbd591aeb	-0.053004187
7	0x3d793563	0.06084193
8	0xbc8d5d35	-0.017256359
9	0x3d3bae84	0.045820728
10	0xbd5f9a91	-0.054590765
11	0x3d83eb44	0.06441358
12	0xbd92b5bf	-0.071635716
13	0x3d408e6d	0.047010828
14	0x3beb4a45	0.0071804845
15	0x3cde047a	0.027101744
16	0xbdbd6db6	-0.09249441
17	0x3d8168a8	0.0631879
18	0xbd21fdbd	-0.039548624
19	0x3d043d07	0.032284763
20	0xbdc45a28	-0.095875084
21	0xbdc6967b	-0.096966706
22	0xbdafdaed	-0.08586679
23	0xbdd26d3b	-0.1027474
24	0x3dec0f15	0.11526314
25	0x3dad7d7d	0.084712006
26	0xbc93ad06	-0.01802684
27	0xbc34f038	-0.011043601
28	0xbc8de404	-0.01732064
29	0xbc1625c2	-0.009164276
30	0xbd8cb360	-0.068701506
31	0x3dbd3990	0.09239495
32	0xbd80cd1d	-0.06289122
33	0xbdc64516	-0.09681146
34	0x3dee6bc7	0.11641651
35	0x3c4b4102	0.012405636
36	0x3daf4f9f	0.085601084
37	0x3def5854	0.11686769
38	0x3ce64b75	0.028112153
39	0x3d53c136	0.051697932
40	0x3dbba2ba	0.09161897
41	0x3c5be5a7	0.013421453
42	0x3c0a8351	0.00845416
43	0x3d6bebeb	0.057598036
44	0x3d19c00e	0.037536673
45	0xbd8f2e79	-0.06991286
46	0x3d498a20	0.049203992
47	0xbd9a6007	-0.07537847
48	0x3e0c4ec2	0.13701919
49	0xbddceaa0	-0.10786939
50	0xbda3e7ea	-0.080032185
51	0x3d59e9fb	0.053201657
52	0x3db679d9	0.08909959
53	0x3c003ab1	0.007826493
54	0x3cbffec0	0.023436904
55	0x3cc1321b	0.023583462
56	0x3d586955	0.052834827
57	0xbd323eaa	-0.043516792
58	0xbdcd7da2	-0.10033728
59	0xbb9b0c90	-0.004731722
60	0x3daad859	0.08342046
61	0x3d94b514	0.072611004
62	0x3d215814	0.03939064
63	0xbce20fda	-0.02759545
64	0xbd91e4ef	-0.07123744
65	0x3df82095	0.121155895
66	0xbd718f54	-0.05897458
67	0x3e0b0af8	0.13578403
68	0xbdf10555	-0.11768595
69	0x3d16fda5	0.036862988
70	0x3e1a1776	0.15048012
71	0x3db903d2	0.09033932
72	0xbdc6d50d	-0.09708605
73	0x3af20b2b	0.0018466463
74	0xbda29ca4	-0.07940033
75	0xbcafeec8	-0.021476164
76	0xbce4e11a	-0.027939368
77	0x3d771749	0.06032494
78	0x3de83e72	0.113400355
79	0xbcceaae7	-0.025227977
80	0x3db564e5	0.08857135
81	0xbd5eed77	-0.054425683
82	0xbc65c403	-0.014023784
83	0xbdb632f6	-0.08896439
84	0xbd12b619	-0.035818193
85	0xbc9d8af7	-0.019231303
86	0xbd24e60e	-0.04025846
87	0x3dd52b45	0.10408644
88	0xbd8fbd6d	-0.07018552
89	0xbda71f69	-0.08160288
90	0x3df4eb5b	0.11958953
91	0x3de1f6e2	0.11033417
92	0x3dd54b81	0.10414792
93	0x3dfffbe8	0.12499219
94	0xbd1587c7	-0.03650644
95	0x3d9a7976	0.07542698
96	0x3da4b652	0.08042587
97	0x3d955ab7	0.07292693
98	0x3cf497e2	0.02985758
99	0xbc3451a2	-0.011005791
100	0x3cb14861	0.021640958
101	0xbd056f16	-0.032576643
102	0xb9d3f348	-0.00040426315
103	0xbd6c501c	-0.057693586
104	0xbd9fcdf6	-0.07802956
105	0x3e1306de	0.14358088
106	0x3e084348	0.13306916
107	0x3dc0ddc6	0.094173
108	0x3dee81d4	0.116458565
109	0xbcb4fb27	-0.022092415
110	0x3b9513ae	0.004549465
111	0x3ddd4e75	0.1080598
112	0x3ca03005	0.019554147
113	0xbdc6bb70	-0.097037196
114	0x3d1b43af	0.037906345
115	0xbdd3cfbf	-0.10342359
116	0x3d0717fa	0.03298185
117	0x3c94ef9d	0.018180663
118	0x3d026d72	0.031842656
119	0xbbe830ae	-0.007085881
120	0xbc8c8356	-0.01715247
121	0x3de10edc	0.10989162
122	0xbdaa4542	-0.08313991
123	0xbdff9766	-0.12480049
124	0x3de4628a	0.11151607
125	0xbd4b03d0	-0.049564183
126	0xbd2106eb	-0.039313238
127	0x3e0a0caf	0.13481401
128	0xbd03c7bc	-0.032172903
129	0xbdd4e213	-0.10394683
130	0xbd0e6913	-0.034768175
131	0xbca1b00a	-0.019737262
132	0x3dd97d2d	0.106195785
133	0xbcf1c552	-0.029513035
134	0xbd21f2ef	-0.03953832
135	0x3d0127dc	0.031532153
136	0x3d3b78aa	0.04576937
137	0x3d8dc992	0.06923212
138	0xbde05ed2	-0.109555855
139	0xbde2d234	-0.11075249
140	0x3dc054c0	0.09391165
141	0x3db2b94e	0.0872675
142	0xbd906f7e	-0.070525154
143	0xbc222eba	-0.009898836
144	0xbda15c7f	-0.0787897
145	0xbcbfd86a	-0.023418624
146	0xbd977fa8	-0.07397395
147	0x3d88bd5d	0.06676743
148	0x3df0c575	0.11756412
149	0xbce8e9d9	-0.02843182
150	0xbdf83f67	-0.12121468
151	0x3dee0755	0.11622492
152	0x3db7a47b	0.08966919
153	0x3dd970f2	0.10617246
154	0x3d5da2dd	0.054110397
155	0x3d8869b6	0.06660788
156	0xbd94df5c	-0.07269165
157	0x3c055f19	0.008140349
158	0x3d8a0272	0.06738748
159	0x3dfb2ba1	0.12264181
160	0xbda1f979	-0.07908911
161	0x3d800adb	0.062520705
162	0x3cbbd350	0.02292791
163	0xbdbb9517	-0.09159296
164	0x3de4af5c	0.1116626
165	0x3dc9ca8c	0.09853086
166	0xbdc496ac	-0.09599051
167	0x3d060e86	0.032728694
168	0x3d83717a	0.06418128
169	0x3dac7960	0.08421588
170	0x3ddf3fb8	0.10900825
171	0xbdd6b0f2	-0.104829684
172	0x3d28467b	0.04108284
173	0xbde1676f	-0.110060565
174	0x3d4215c4	0.04738404
175	0xbe09a629	-0.13442291
176	0xbdd26282	-0.10272695
177	0x3d9dc642	0.0770383
178	0x3c5682c9	0.013092705
179	0x3ddcee9e	0.107877
180	0xbdce90c8	-0.100862086
181	0xbdab857e	-0.08375071
182	0xbd382350	-0.04495555
183	0x3dfb5a03	0.12273028
184	0xbc28ff20	-0.010314733
185	0xbdf14a2c	-0.11781725
186	0xbd9c2d41	-0.07625819
187	0x3e0249fe	0.12723538
188	0x3dc900fc	0.09814641
189	0x3da07952	0.0783564
190	0x3de4f94f	0.11180364
191	0x3dfd0554	0.12354532
192	0x3d203809	0.03911594
193	0x3ce88e31	0.028388115
194	0x3ca102b5	0.019654611
195	0x3dee7821	0.116440065
196	0x3df26f6f	0.118376605
197	0x3d719845	0.058983106
198	0x3df040d2	0.117311135
199	0x3df27b72	0.118399516
200	0xbcbc48f4	-0.022984006
201	0xbdab161b	-0.08353826
202	0xbd0b2527	-0.033970978
203	0xbc53e0a7	-0.012931979
204	0x3d02090a	0.0317469
205	0xbd1aa371	-0.037753526
206	0x3c96d9fb	0.018414488
207	0xbd220ec7	-0.039564874
208	0x3dff00ec	0.12451348
209	0xbcf8cf13	-0.030372178
210	0x3dc23673	0.094830416
211	0x3b141aad	0.0022598908
212	0xbd91be46	-0.0711637
213	0x3a20790a	0.0006121552
214	0xbdd1ae23	-0.10238292
215	0x3cfc9f40	0.030837655
216	0x3d0bf091	0.03416497
217	0xbde950a1	-0.11392332
218	0xba97e845	-0.0011589607
219	0x3dff7058	0.124726
220	0x3d3850dd	0.044998992
221	0xbdf04d42	-0.11733486
222	0x3cdc5ed5	0.026900688
223	0xbda153bf	-0.078773014
224	0x3dc95c81	0.09832097
225	0x3dd94f7f	0.10610866
226	0x3dc8bfac	0.098021835
227	0x3d53e182	0.051728733
228	0x3dcec9a4	0.10097054
229	0x3d872f48	0.06600815
230	0x3d52d482	0.051472194
231	0x3dd06d7a	0.10177131
232	0xbcb28951	-0.021793993
233	0xbd9d5fb7	-0.07684272
234	0xbd19026e	-0.037355833
235	0xbd363228	-0.044481426
236	0xbdb1a72e	-0.08674465
237	0xbd5dec61	-0.054180507
238	0x3e079238	0.13239372
239	0x3d14f356	0.036364876
240	0xbcb0ae69	-0.02156754
241	0x3dd0e2f8	0.10199541
242	0x3c4380c4	0.011932556
243	0xbe0ca8a9	-0.13736214
244	0x3d52e3a0	0.05148661
245	0x3d659215	0.056047518
246	0x3e13b7b1	0.14425541
247	0x3c684853	0.0141774
248	0xbd79c50e	-0.06097894
249	0x3e04e79c	0.12978977
250	0xbd772c17	-0.06034478
251	0x3db387af	0.08766114
252	0x3cf29587	0.029612316
253	0x3ce724aa	0.028215725
254	0xbb25cbdf	-0.0025298519
255	0x3decae59	0.11556692

lstm.bias_hh_l0 f4 [256]
0	0xbd2d6ddf	-0.04234111
1	0xbcca4656	-0.024691742
2	0x3dee4799	0.1163475
3	0x3cc3c090	0.023895532
4	0xbbae4aa9	-0.005318959
5	0x3da29de7	0.07940274
6	0x3c4b0970	0.012392387
7	0xbde37fa0	-0.11108327
8	0xbd5510ab	-0.05201785
9	0x3dd8d552	0.105875626
10	0x3e18ba36	0.14914784
11	0xbdc951f6	-0.09830086
12	0xbdde03c3	-0.10840561
13	0x3da576d4	0.08079305
14	0x3d92bd87	0.07165056
15	0xbda066e2	-0.07832123
16	0x3d99a5cf	0.075023286
17	0xbd857072	-0.06515588
18	0x3ddfefd1	0.10934413
19	0xbdbc6d67	-0.09200554
20	0x3c8f02d6	0.017457407
21	0xbd8a3d71	-0.0675
22	0xbce5e1e5	-0.028061816
23	0x3dec4450	0.11536467
24	0x3def11ac	0.116732925
25	0xbdd1b0d9	-0.10238809
26	0x3dce07c8	0.10060078
27	0xbdac22d7	-0.08405083
28	0xbca02b2a	-0.019551832
29	0x3cd0093e	0.025395032
30	0xbca6105c	-0.020271473
31	0xbd229f48	-0.039702684
32	0xbdaa7daa	-0.0832475
33	0xbd63dc50	-0.05563003
34	0x3dccef3c	0.10006568
35	0x3da0c01d	0.07849143
36	0x3d435ad9	0.04769406
37	0x3d779521	0.060444955
38	0xbda1f4d0	-0.079080224
39	0xbcb93d4c	-0.022612236
40	0x3daea290	0.085271
41	0x3d861b03	0.06548121
42	0xbc455305	-0.012043719
43	0x3c1a1b12	0.009405868
44	0xbdcbbb18	-0.09947795
45	0x3d776e1b	0.06040774
46	0x3de27957	0.110583
47	0xbcfa0a50	-0.030522496
48	0x3d060d06	0.032727264
49	0xbd2f9aed	-0.042872358
50	0x3df29c81	0.11846257
51	0x3d2994a9	0.04140154
52	0x3dacd140	0.08438349
53	0xbd2c31bf	-0.04203963
54	0x3d62e1f2	0.05539126
55	0x3d9c00b3	0.07617321
56	0x3de6c77d	0.11268518
57	0xbc508ed5	-0.012729366
58	0xbd33a8d4	-0.04386218
59	0xbd89c53e	-0.06727074
60	0xbdb89b0e	-0.09013949
61	0xbc40f94f	-0.01177819
62	0xbda31f42	-0.07964946
63	0x3c3e8762	0.011628957
64	0xbd26a412	-0.040683813
65	0xbd84a059	-0.064758964
66	0xbc8b4a18	-0.017003104
67	0x3c8dbc9e	0.017301854
68	0xbd330335	-0.04370423
69	0x3d687163	0.05674876
70	0x3da82561	0.082102545
71	0x3db3a567	0.08771782
72	0xbca4b6ca	-0.020106692
73	0xbd9a9cbf	-0.07549428
74	0x3c7890ea	0.015171269
75	0xbc916c23	-0.017751759
76	0xbd555908	-0.05208686
77	0x3d3184e2	0.043339618
78	0x3dffa51b	0.12482663
79	0xbd637b83	-0.05553771
80	0x3d3c2883	0.045937072
81	0xbd1d11db	-0.038347106
82	0xbcf1d720	-0.029521525
83	0xbde1528a	-0.11002071
84	0x3e010e76	0.12603173
85	0x3c18dd68	0.009330131
86	0x3cc8979b	0.024486354
87	0x3d9227bc	0.07136485
88	0xbd9edcde	-0.07756971
89	0xbd1f07d0	-0.03882581
90	0xbdc5d99e	-0.09660648
91	0xbd0c5615	-0.03426178
92	0x3e213230	0.15741801
93	0x3bf2e5cf	0.007412649
94	0x3d23c5ee	0.039983682
95	0xbd1adf50	-0.037810624
96	0xbd581c2d	-0.052761246
97	0x3b286d5f	0.0025699956
98	0xbc5bd985	-0.01341856
99	0x3d277acb	0.04088859
100	0xbde0327f	-0.10947131
101	0x3d574d42	0.052563913
102	0x3de81153	0.11331429
103	0xbcc57a91	-0.024106296
104	0xbd5ff286	-0.054674648
105	0xbcd09a0d	-0.025464082
106	0xbd489c21	-0.04897702
107	0xbd8c7133	-0.068575285
108	0x3dfdf515	0.12400261
109	0xbc029702	-0.007970573
110	0x3c0413d6	0.00806137
111	0x3dfe3fd6	0.124145195
112	0x3df63057	0.12020939
113	0xbda8484c	-0.082169145
114	0xbd0bf24e	-0.034166627
115	0xbd9ced46	-0.07662444
116	0xbdea4af5	-0.11440078
117	0x3e103676	0.14083275
118	0xbc5aa71a	-0.013345504
119	0xbd1868b3	-0.037209224
120	0x3d20e5af	0.039281543
121	0x3ddfc97d	0.10927103
122	0xbd62dd44	-0.055386797
123	0xbdc04c0c	-0.09389505
124	0x3de68aa2	0.11256911
125	0x3df199e5	0.11796931
126	0xbcd2023e	-0.025635835
127	0x3e09c872	0.1345537
128	0xbc590da6	-0.013247883
129	0x3df495bd	0.11942623
130	0x3d4fc6c7	0.05072668
131	0x3e08f954	0.13376361
132	0xbd355bac	-0.04427688
133	0xbe0e6ec1	-0.13909437
134	0xbc84efe2	-0.016227666
135	0x3d67c3f6	0.056583367
136	0x3ba9e69e	0.0051849624
137	0x3da8d9b4	0.082446486
138	0x3e0ae485	0.13563736
139	0xbd2c0566	-0.041997336
140	0x3ddd4c26	0.1080554
141	0x3c97036e	0.018434253
142	0xbc80dd60	-0.01573056
143	0xbd1ae5f6	-0.037816964
144	0xbd0a7546	-0.033803247
145	0x3ce0483e	0.027378198
146	0x3ddf926c	0.109166
147	0x3da0296c	0.078204006
148	0x3aac8617	0.001316252
149	0xbd198c47	-0.037487295
150	0xbde2112c	-0.110384315
151	0xbd6e9053	-0.058243107
152	0x3d750c4a	0.059826173
153	0x3d8ab270	0.067723155
154	0xbd71a5c1	-0.058995966
155	0xbd85af96	-0.06527631
156	0x3d551e25	0.0520307
157	0xbd1fb450	-0.03899032
158	0x3dceeba9	0.10103542
159	0xbccbc564	-0.024874397
160	0x3d814f04	0.06313899
161	0xbdcd337d	-0.10019586
162	0xbc98ac9c	-0.018636994
163	0xbdc79598	-0.097453296
164	0x3d0b901f	0.03407299
165	0xbd63bf2e	-0.055602245
166	0x3dee0373	0.11621752
167	0xbe0da52c	-0.1383254
168	0x3db7c6f6	0.08973496
169	0xbcbf5d08	-0.02335979
170	0x3d12b85e	0.035820358
171	0x3dac3206	0.08407979
172	0x3d7cce29	0.061720047
173	0x3d88fd3d	0.06688926
174	0xbda19e35	-0.07891504
175	0xbda10df8	-0.078639925
176	0xbd94a628	-0.07258254
177	0x3d4785f5	0.048711736
178	0xbd4aca71	-0.04950947
179	0x3dc8edb8	0.09810966
180	0x3da6fdd4	0.081538826
181	0x3dbfc8b8	0.09364456
182	0x3db86a37	0.09004634
183	0x3db7d7b5	0.0897669
184	0xbcb2c854	-0.02182404
185	0x3d0a7a0b	0.033807795
186	0x3c1f0b71	0.009707318
187	0xbdb130af	-0.08651864
188	0xbde402a2	-0.11133315
189	0x3cc8e9d6	0.024525564
190	0x3c88417c	0.016632788
191	0x3db3cbbf	0.08779096
192	0x3d948e9b	0.07253762
193	0x3cfd0210	0.030884773
194	0x3dc19f32	0.09454192
195	0xbd51ba41	-0.051203016
196	0x3de0a891	0.109696515
197	0x3d0059df	0.031335708
198	0xbd505cd3	-0.050869774
199	0xbc90ce39	-0.01767646
200	0x3cf165c2	0.029467467
201	0x3d7f24df	0.062291022
202	0xbc5f5f23	-0.013633522
203	0x3d9035e2	0.07041527
204	0x39dd9197	0.00042260878
205	0xbd3ea861	-0.046547297
206	0xb99d9976	-0.0003005971
207	0xbdefa64a	-0.11701639
208	0xbd93195f	-0.071825735
209	0xbd3c1705	-0.04592039
210	0xbcabb09f	-0.020958243
211	0x3d500824	0.050789014
212	0x3dbbc855	0.0916907
213	0x3c626692	0.0138184
214	0xbd659985	-0.05605461
215	0xbd2608bc	-0.040535673
216	0x3ce6e3ba	0.02818476
217	0x3cbb7017	0.022880597
218	0xbdab924d	-0.08377514
219	0xbd9e44ca	-0.07727964
220	0xbda77647	-0.081768565
221	0xbddd9450	-0.10819304
222	0xbd84ee67	-0.06490784
223	0x3d8e1f6a	0.069395855
224	0xbdf83707	-0.12119871
225	0xbad505cc	-0.0016252338
226	0xbd77f927	-0.060540345
227	0x3d481f12	0.048857756
228	0xbdb8ee2f	-0.09029805
229	0xbdc2a290	-0.095036626
230	0xbd729801	-0.059226993
231	0x3d8fdacc	0.07024154
232	0x39bfaed7	0.00036560625
233	0xbc6933d1	-0.014233545
234	0x3d843146	0.06454711
235	0xbd92ea52	-0.07173599
236	0xbd522288	-0.051302463
237	0x3d9921a2	0.07477118
238	0x3d37232b	0.044711273
239	0xbcc614cf	-0.024179844
240	0x3e15fbe2	0.14646867
241	0xbde096b4	-0.10966244
242	0xbd680c80	-0.056652546
243	0xbe0091f8	-0.12555683
244	0xbc3bf65a	-0.011472309
245	0x3bf662b9	0.007519093
246	0x3d99945e	0.07499002
247	0x3d9d15b4	0.07670155
248	0xbd92bae4	-0.07164553
249	0xbd36c086	-0.0446172
250	0xbd727d2b	-0.0592014
251	0xbd4b3694	-0.049612597
252	0xbd454abe	-0.048166983
253	0x3da9428a	0.082646444
254	0x3cb8eb9c	0.022573285
255	0x3d12f82a	0.0358812

lstm.weight_ih_l1 f4 [256, 64]
0	0xbe0626a3	-0.13100676
1	0xbdef6e34	-0.116909415
2	0xbd45dc5e	-0.04830586
3	0xbdabc586	-0.08387284
4	0x3bf9b1ed	0.0076200874
5	0xbc4f74dc	-0.012662139
6	0xbe1d1186	-0.15338716
7	0x3c2e3708	0.010633238
8	0xbd63304a	-0.055465974
9	0x3cff5fa2	0.031173531
10	0x3ddcb8da	0.10777445
11	0xbd40391d	-0.046929467
12	0x3d0defe0	0.03465259
13	0x3d1b4088	0.03790334
14	0x3dba1b13	0.09087195
15	0xbd8b049e	-0.0678799
16	0x3da8329c	0.08212778
17	0xbc94dad4	-0.018170752
18	0xbd061139	-0.03273127
19	0xbe1d1373	-0.1533945
20	0xbdb711ed	-0.08938966
21	0xbdbc7855	-0.09202639
22	0xbdb3781e	-0.08763145
23	0xbccbd32f	-0.024880974
24	0x3d740f71	0.05958504
25	0xbd8f5118	-0.06997889
26	0x3e046b22	0.12931493
27	0x3d810e6e	0.0630158
28	0xbd9c621f	-0.076359026
29	0xbbeb08c2	-0.007172675
30	0x3dd8bee2	0.10583283
31	0x3d266aa5	0.040629048
32	0x3c10be5c	0.008834448
33	0xbdaceade	-0.08443235
34	0x3cb276db	0.02178519
35	0x3d83f314	0.06442848
36	0x3e0c0583	0.13673978
37	0x3d7ced5b	0.061749797
38	0x3d81fbea	0.06346877
39	0xbd0a1616	-0.03371247
40	0xbcbbd35c	-0.022927932
41	0xbd133d99	-0.035947416
42	0xbdcdc601	-0.10047532
43	0x3d1ad42b	0.037799995
44	0x3d1907c6	0.03736093
45	0x3c62fd53	0.0138543425
46	0x3d262cf1	0.040570203
47	0xbdd46212	-0.10370268
48	0x3cd9cd10	0.02658704
49	0xbde3aff6	-0.11117546
50	0xbdb93f4d	-0.09045277
51	0xbd3d1e36	-0.04617139
52	0xbd0ae835	-0.033912856
53	0xbd7206bf	-0.059088465
54	0x3d67454c	0.05646257
55	0xbe0c3ed4	-0.13695842
56	0x3e034b58	0.1282171
57	0x3bb2f58b	0.0054614
58	0xbd64566e	-0.05574649
59	0xbdfe33a8	-0.124121964
60	0xbdce2a3a	-0.10066648
61	0xbdce821d	-0.10083411
62	0x3d8a11b4	0.06741658
63	0xbd3f1f02	-0.04666043
64	0x3d03a533	0.032139968
65	0x3d6eee4c	0.058332726
66	0xbda23234	-0.07919732
67	0xbe0a5b1d	-0.1351132
68	0x3d7c2f81	0.06156874
69	0xbcb98338	-0.022645578
70	0x3d330839	0.043709014
71	0xbcffa980	-0.031208754
72	0xbe0186c0	-0.1264906
73	0x3c0ae8d9	0.008478367
74	0xbd2ed278	-0.042681187
75	0x3b1725d2	0.0023063314
76	0x3d3f28d3	0.046669792
77	0xbdf89ab7	-0.121388845
78	0xbd977042	-0.07394458
79	0xbe18791d	-0.14889951
80	0x3d66e1d9	0.05636773
81	0xbc66dff1	-0.014091478
82	0x3db14038	0.08654827
83	0x3d838f75	0.06423847
84	0xbcc4698a	-0.023976106
85	0xbd5b2cd1	-0.053509537
86	0x3d1d8f9c	0.038467035
87	0x3de60d8c	0.112330526
88	0xbdd6af16	-0.10482614
89	0xbd8467ea	-0.064651325
90	0x3c10c899	0.008836889
91	0xbdee1d30	-0.11626661
92	0x3cf57d32	0.029966924
93	0xbd7361c5	-0.059419412
94	0x3c0ac27b	0.008469219
95	0x3d4166f1	0.047217313
96	0x3d3e1bab	0.046413105
97	0xbe0f208f	-0.13977264
98	0xbcc6b591	-0.0242565
99	0xbdd46e13	-0.103725575
100	0xbda6f0b5	-0.0815138
101	0xbb8486a5	-0.004044371
102	0x3bb6c3c2	0.0055775354
103	0x3d997cd9	0.07494516
104	0x3d816438	0.06317943
105	0xbaeef9af	-0.001823237
106	0xbd38bc99	-0.045101736
107	0x3daa0174	0.083010584
108	0x3da415bd	0.08011959
109	0x3d2100a9	0.03930727
110	0xbdb0d09d	-0.0863354
111	0x3c27b7f3	0.010236728
112	0x3d910db6	0.07082693
113	0xbd8074c0	-0.06272268
114	0xb8d0f752	-9.96428e-05
115	0x3c225dc5	0.009910052
116	0xbdb6d6ca	-0.089276865
117	0x3dc64a76	0.09682171
118	0xbdb25cce	-0.08709107
119	0xbdea48b6	-0.1143965
120	0xbcaf6003	-0.021408087
121	0xbdab654e	-0.08368932
122	0x3e0b880a	0.13626114
123	0x3d887770	0.06663406
124	0x3dae91be	0.08523892
125	0x3dcd1d40	0.100153446
126	0xbcc3726f	-0.023858277
127	0x3c8ad22f	0.016945926
128	0xbd14d15f	-0.036332484
129	0x3db81c1d	0.08989737
130	0x3d5a3495	0.053272802
131	0x3b90882b	0.0044107637
132	0xbbe46729	-0.0069703055
133	0xbd3f173c	-0.046653017
134	0x3d39802d	0.045288254
135	0xbcebe2a6	-0.028794598
136	0xbe088499	-0.13331832
137	0xbda856b3	-0.082196616
138	0xbd64ad08	-0.055829078
139	0xbc6a1a60	-0.014288515
140	0x3c91e17b	0.017807713
141	0xbdf15fa5	-0.11785821
142	0x3d2fcfc1	0.04292274
143	0x3dac6ea2	0.08419539
144	0x3de27fa5	0.110595025
145	0xbd579e80	-0.05264139
146	0x3c55b823	0.01304439
147	0x3d5611bd	0.05226301
148	0xbcdd7ca2	-0.027036969
149	0xbd8730a7	-0.066010766
150	0xbd1a56e2	-0.037680514
151	0xbbae602d	-0.0053215236
152	0x3de7ee68	0.11324769
153	0xbdd309d3	-0.10304608
154	0xbd6799a9	-0.056543026
155	0x3e0551f9	0.13019551
156	0xbcc10095	-0.023559848
157	0x3dade5cb	0.08491095
158	0x3ca29ea2	0.019851033
159	0xbd42545f	-0.047443744
160	0x3d417612	0.04723174
161	0xbd27447e	-0.040836804
162	0x3c475827	0.012167013
163	0xbdfbad80	-0.12288952
164	0xbd6a899e	-0.05726015
165	0x3dd9192b	0.106005035
166	0xbd651726	-0.05593028
167	0xbdc64962	-0.096819654
168	0xbdb60c73	-0.08889093
169	0xba677734	-0.00088297133
170	0x3d63e5fd	0.055639256
171	0x3db59c74	0.08867732
172	0xbd05d738	-0.03267595
173	0x3c07fc0c	0.008299839
174	0xbd094cde	-0.033520572
175	0xbd883092	-0.06649889
176	0xbba08ba7	-0.0048994604
177	0x3daa0a32	0.08302726
178	0xbc862932	-0.016377065
179	0xbd90d883	-0.07072546
180	0x3d528136	0.051392756
181	0xbc76800e	-0.015045179
182	0xbde475a3	-0.1115525
183	0xbd1032eb	-0.03520481
184	0x3de5fe05	0.11230091
185	0x3d26d30d	0.040728617
186	0xbd13a39a	-0.036044694
187	0x3dac4819	0.08412189
188	0x3c2233a3	0.009900006
189	0x3d96209f	0.07330441
190	0x3d8c4c7e	0.06850527
191	0xbd923d12	-0.071405545
192	0xbe0ee6ba	-0.13955203
193	0xbc8fbba9	-0.017545538
194	0x3d142ff9	0.036178563
195	0x3db3d47a	0.08780761
196	0x3de9f89a	0.1142437
197	0xbdcceafb	-0.100057565
198	0xbd4c0552	-0.04980976
199	0xbde933b3	-0.11386814
200	0x3d0d66ad	0.034521747
201	0xbcf5a5be	-0.029986259
202	0x3c787537	0.015164665
203	0xbda63398	-0.081153095
204	0xbcb3c197	-0.021942897
205	0xbc1fa7bc	-0.009744581
206	0xbc854e2f	-0.016272632
207	0xbd8382d2	-0.06421436
208	0xbcdf9b25	-0.027295658
209	0xbd90b227	-0.0706523
210	0xbdcb39f2	-0.099231616
211	0x3db646df	0.08900236
212	0x3dc124b3	0.09430828
213	0xbdc813ab	-0.09769376
214	0xbce39320	-0.027780116
215	0xbd15bfb8	-0.03655979
216	0x3de832be	0.11337803
217	0xbd213da1	-0.039365415
218	0x3d9ea39d	0.077460505
219	0x395b6948	0.00020924688
220	0x3d9160bd	0.070985295
221	0x3d6cb432	0.057789035
222	0xbbe32129	-0.0069314432
223	0x3db9d6b8	0.090741575
224	0x3d699d6e	0.057034902
225	0x3dd8ea45	0.10591558
226	0xbd802225	-0.062565126
227	0xbc1af130	-0.009456918
228	0x3e02db29	0.12778915
229	0xbdf0fe14	-0.117672116
230	0xbdc7624f	-0.09735548
231	0xbd4ba190	-0.049714625
232	0x3db1c787	0.08680635
233	0xbdb90996	-0.090350315
234	0x3d50ee7a	0.05100868
235	0xba9c5ee3	-0.0011930134
236	0x3d7f7561	0.0623678
237	0xbcf70cd4	-0.030157484
238	0xbe0b4468	-0.13600314
239	0xbdaf8b05	-0.08571438
240	0xbdab5119	-0.083650775
241	0x3d951215	0.072788395
242	0x3de19bd3	0.11016049
243	0x3d11c95d	0.035592426
244	0x3dae8947	0.08522277
245	0xbb917216	-0.004438649
246	0xbda05454	-0.07828584
247	0x3d77de5a	0.060514785
248	0xbd3a746f	-0.045521196
249	0xbd838e1a	-0.06423588
250	0xbc1e56a3	-0.0096642105
251	0xbc6b7153	-0.01437028
252	0x3dedf237	0.116184644
253	0x3d30025b	0.042970996
254	0xbd7ec198	-0.062196344
255	0xbc3d797f	-0.011564611

lstm.weight_hh_l1 f4 [256, 64]
0	0xbdca7982	-0.09886457
1	0xbd95767d	-0.072979905
2	0x3d0024c4	0.031285062
3	0xbdbfd763	-0.09367254
4	0x3db5e3a2	0.08881308
5	0xbcacd58b	-0.021097919
6	0x3da0d747	0.07853561
7	0xbdc52aab	-0.09627279
8	0xbdee4135	-0.11633531
9	0xbbd785bb	-0.006577221
10	0x3def9de5	0.11700038
11	0xbd8ac425	-0.06775693
12	0xbd63fb30	-0.055659473
13	0xbda9e970	-0.08296478
14	0x3d06880c	0.03284459
15	0xbc8c0220	-0.017090857
16	0x3d437dbd	0.047727335
17	0xbb866336	-0.0041011823
18	0x3d070c93	0.032970976
19	0x3db1e8cc	0.086869806
20	0x3b7a5935	0.0038200144
21	0x3d48fc53	0.04906876
22	0xbde21085	-0.11038307
23	0x3df34c63	0.11879804
24	0xbd069bd2	-0.032863446
25	0xbdc732b1	-0.097264655
26	0xbd9dfa31	-0.07713736
27	0x3dc2e91a	0.09517117
28	0x3e0c8fa7	0.13726674
29	0xbd2f1ac1	-0.042750124
30	0xbdac382c	-0.084091514
31	0xbd14bb39	-0.036311362
32	0x3df4ca30	0.11952627
33	0xbd424ef7	-0.047438588
34	0x3ddfe156	0.10931651
35	0x3d1579cb	0.036493104
36	0xbdb46d08	-0.088098586
37	0xbd031837	-0.032005515
38	0xbd0ecc6e	-0.034862928
39	0x3dd4a4bd	0.10382984
40	0xbd977194	-0.0739471
41	0xbd66bb74	-0.056331113
42	0x3cba44d1	0.022737892
43	0x3d8d5225	0.069004335
44	0x3e07c1a3	0.1325746
45	0x3d252944	0.040322557
46	0xbc871840	-0.016491055
47	0x3dbabc23	0.091179155
48	0xba556c82	-0.0008141474
49	0xbd089ae9	-0.03335086
50	0x3dc7ae79	0.09750075
51	0xbdd5aba8	-0.104331315
52	0x3d3a046e	0.04541438
53	0xbd10f7a9	-0.035392437
54	0x3d892343	0.06696179
55	0x3e00e8f8	0.1258887
56	0xbcdea3f3	-0.027177786
57	0xbd28f392	-0.04124791
58	0x3e07f9d0	0.1327889
59	0x3cb67686	0.022273313
60	0x3bfcbf8a	0.007713263
61	0x3cf3f8ae	0.029781666
62	0xbdc237eb	-0.09483322
63	0x3bf4f2bc	0.0074752253
64	0x3d65a4b8	0.05606529
65	0x3d1e9463	0.03871573
66	0x3c81574d	0.015788699
67	0xbc007d34	-0.007842351
68	0xbdc41871	-0.09574974
69	0x3caea0d2	0.02131692
70	0x3da7954f	0.08182775
71	0xbdbefa47	-0.0932508
72	0x3d84cce8	0.06484395
73	0xbb798c48	-0.0038078
74	0xbc697b92	-0.014250653
75	0xbdbb2306	-0.091375396
76	0xbdaa00a7	-0.08300906
77	0x3ca9f38d	0.020746017
78	0xbd0e4013	-0.034729075
79	0x3c9a1351	0.018808039
80	0xbd87c34a	-0.06629045
81	0x3daa5187	0.08316331
82	0x3ddb4ff1	0.10708607
83	0x3c156778	0.009118907
84	0x3de636f4	0.1124095
85	0x3db5f27d	0.088841416
86	0xbc89d731	-0.016826244
87	0xbe084062	-0.1330581
88	0x3dca160e	0.09867488
89	0xbd90f518	-0.07077998
90	0x3b8ee04f	0.0043602358
91	0x3ddb5178	0.10708898
92	0xbc7e844d	-0.015534473
93	0xbd751e40	-0.0598433
94	0xbd2d4070	-0.04229778
95	0x3d1da384	0.03848602
96	0x3c9913d2	0.018686209
97	0xbca2cf98	-0.019874379
98	0x3d80443b	0.06263014
99	0xbd17a678	-0.03702399
100	0xbd66905c	-0.056290016
101	0x3cfa08a6	0.030521702
102	0xbddba34c	-0.10724506
103	0x3e12cc84	0.14335829
104	0x3ddda518	0.10822505
105	0x3d9e21aa	0.07721265
106	0xbc492d9c	-0.0122789405
107	0xbdd06423	-0.101753496
108	0x3d7fc535	0.06244393
109	0xbe0c61c1	-0.13709165
110	0x3d8a2e0b	0.06747063
111	0x3daabb30	0.083364844
112	0x3d88d5a5	0.066813745
113	0xbda65b2c	-0.081228584
114	0x3dad07c1	0.084487446
115	0x3de0ebb4	0.10982457
116	0xbda89fb6	-0.082335874
117	0x3ccdd84b	0.02512755
118	0xbc6312f3	-0.013859498
119	0x3d8db7e7	0.06919842
120	0xbcd93534	-0.026514627
121	0xbdef2219	-0.116764255
122	0x3c47157e	0.01215112
123	0xbcaf6c48	-0.021413937
124	0xbe06f109	-0.13177885
125	0x3d830ccc	0.06398925
126	0xbdc23009	-0.09481818
127	0x3d3ce22f	0.046114143
128	0x3d19c8ad	0.037544895
129	0x3d824365	0.06360511
130	0x3d05048b	0.032475036
131	0xbdb89f1d	-0.090147234
132	0xbd26cc29	-0.040722046
133	0xbdab788b	-0.08372601
134	0x3c98e1b8	0.018662319
135	0xbd477d14	-0.04870327
136	0x3dafb38b	0.08579167
137	0x3c74b446	0.014935559
138	0xbd9140ef	-0.07092463
139	0x3daa2514	0.08307853
140	0x3df5ce29	0.120022126
141	0xbdf7861f	-0.120861284
142	0xbdd41aa0	-0.10356641
143	0xbdb3bb45	-0.08775953
144	0xbdd19866	-0.10234146
145	0xbcf1b3ae	-0.029504623
146	0x3deb901a	0.115020946
147	0xbd04655d	-0.03232323
148	0x3e091872	0.13388231
149	0xbc9f9392	-0.019479547
150	0xbddf07ba	-0.108901456
151	0x3d1bf518	0.038075536
152	0x3de262aa	0.11053975
153	0xbdcb9838	-0.09941143
154	0x3d897dda	0.067134574
155	0x3dc3b3ff	0.09555816
156	0x3d3e3c92	0.046444483
157	0xbddbc68a	-0.10731228
158	0xbc227579	-0.009915703
159	0x3dd0544e	0.1017233
160	0x3c6fac1e	0.014628438
161	0xbd1e0191	-0.038575713
162	0xbdbac337	-0.091192655
163	0x3d9d391e	0.0767691
164	0xbe205ca6	-0.15660343
165	0xbd9f4376	-0.07776539
166	0xbd0feb47	-0.035136487
167	0xbddc86af	-0.10767876
168	0xbe045b8d	-0.12925549
169	0x3d2cc24c	0.042177483
170	0xbd30951b	-0.043110948
171	0x3d8c1b93	0.06841197
172	0xbdc99130	-0.098421454
173	0xbd87adf8	-0.06624979
174	0xbbe8d0ff	-0.0071049924
175	0x3c80f87f	0.015743492
176	0xbde94baa	-0.11391385
177	0xbd85092b	-0.06495889
178	0x3d0f56a5	0.03499474
179	0x3d83fd9e	0.06444858
180	0x3d6ec859	0.058296535
181	0x3c361fd1	0.011115984
182	0xbd24931c	-0.040179357
183	0xbdcf9b5f	-0.101370566
184	0x3da38d26	0.07985906
185	0xbd8616ae	-0.065472946
186	0xbc9e5f12	-0.019332442
187	0xbd0426ec	-0.03226368
188	0x3d88b5e3	0.06675317
189	0xbc5014f9	-0.012700313
190	0xbdc1337f	-0.0943365
191	0xbd87845d	-0.06617043
192	0x3ddf9894	0.10917774
193	0x3a99bf1b	0.0011729928
194	0xbd72f721	-0.05931771
195	0x3d0760e8	0.0330514
196	0x3da4f7d4	0.08055082
197	0x3d8cb27c	0.06869981
198	0xbd9cb4fe	-0.07651709
199	0xbc4fa0e6	-0.0126726385
200	0xbde2e0ab	-0.11078008
201	0xbcf599da	-0.029980589
202	0xbd6ca2df	-0.057772513
203	0xba3a3be1	-0.00071042596
204	0xba58551d	-0.0008252429
205	0xbd128394	-0.035770014
206	0xbdce9824	-0.10087612
207	0xbdd018e8	-0.101610005
208	0xbdcbc4bd	-0.09949634
209	0xbd31550b	-0.043293994
210	0x3d164257	0.03668436
211	0xbdc8ad78	-0.097987115
212	0xbcadefa5	-0.021232435
213	0x3d2fce46	0.042921327
214	0x3d9076d1	0.070539124
215	0x3d0ce76a	0.03440038
216	0xbd9eca49	-0.077534266
217	0x3dcbffbd	0.099608876
218	0xbdb81a08	-0.0898934
219	0xbdb93876	-0.09043972
220	0x3d4673aa	0.04845015
221	0x3d9a7dc7	0.075435214
222	0xbc1cda5c	-0.009573545
223	0xbc6dad94	-0.014506716
224	0xbd8965e5	-0.06708888
225	0xbcdcbb87	-0.026944889
226	0xbd16babb	-0.036799174
227	0x3ce8b804	0.028408058
228	0xbdf68bd7	-0.12038391
229	0xbe054501	-0.13014604
230	0x3caf44cb	0.021395108
231	0x3cfb9be2	0.03071398
232	0x3b8b85b2	0.004257881
233	0xbd651bf8	-0.055934876
234	0x3e00f867	0.12594758
235	0xbcfd87bf	-0.030948518
236	0x3bda767c	0.0066669565
237	0x3ddc9bf7	0.107719354
238	0x3c28bf56	0.010299524
239	0x3de1b199	0.11020202
240	0xbd3b6ed4	-0.04575999
241	0x3dec0fff	0.115264885
242	0xbb75fc5b	-0.0037534449
243	0xbdc9ba44	-0.098499805
244	0x3d292694	0.041296557
245	0xbd0af172	-0.033921666
246	0x3ddaeb22	0.10689379
247	0x3d7ad005	0.06123354
248	0xbd84e0b6	-0.06488173
249	0x3d876d98	0.066127
250	0xbc3ddf9d	-0.011588958
251	0xbdc23d71	-0.09484375
252	0x3dbe2b60	0.09285617
253	0x3d20ae39	0.03922865
254	0xbd4ec445	-0.050480146
255	0x3cf70ad3	0.030156529

lstm.bias_ih_l1 f4 [256]
0	0xbd21733b	-0.039416533
1	0x3d8d8b1c	0.06911299
2	0x3d83fa14	0.06444183
3	0xbc317c7b	-0.010832901
4	0xbd2dc937	-0.04242822
5	0x3d180eab	0.037123363
6	0xbdd0616b	-0.10174831
7	0x3db3462f	0.08753621
8	0xbd80298d	-0.06257925
9	0xbd1e4e83	-0.038649093
10	0xbb4b9893	-0.0031066283
11	0x3c90164a	0.017588753
12	0xbdbda73f	-0.09260415
13	0xbd9dc1bc	-0.077029675
14	0xbc0d8b92	-0.008639233
15	0xbd1caafb	-0.038248997
16	0xbd913156	-0.07089488
17	0x3de1a3ba	0.110175565
18	0xbd8816c5	-0.06644968
19	0xbca83676	-0.020533781
20	0x3db1603e	0.08660935
21	0x3da4b668	0.08042604
22	0xbd71171a	-0.058859922
23	0x3cec2135	0.028824428
24	0x3d8111ea	0.06302245
25	0x3e07c089	0.1325704
26	0x3dc94981	0.09828473
27	0x3ceee70d	0.029162908
28	0xbd8a5346	-0.067541644
29	0x3e0ac203	0.13550572
30	0xbb08247f	-0.0020773706
31	0x3de34c65	0.110985555
32	0x3da95181	0.08267499
33	0xbdbbe26f	-0.09174048
34	0x3dd379fb	0.10326
35	0xbdb92883	-0.0904093
36	0xbddac816	-0.106826946
37	0x3d654157	0.055970516
38	0xbdf1a455	-0.11798922
39	0xbd72610a	-0.059174575
40	0xbd91eb36	-0.07124941
41	0x3d488ee6	0.048964404
42	0xbd6e2d1c	-0.05814849
43	0xbdee2ef6	-0.11630051
44	0xbd31a07d	-0.043365944
45	0xbd40277e	-0.046912663
46	0x3d6c46bc	0.057684645
47	0xbd08fd29	-0.033444557
48	0xbdb6a974	-0.08919039
49	0x3df6c742	0.12049724
50	0xbddc13ff	-0.107460015
51	0xbdd6fcc4	-0.1049743
52	0xbc1aafe6	-0.0094413515
53	0xbdc4e073	-0.09613123
54	0x3dd62770	0.10456741
55	0xbb718788	-0.0036854465
56	0xbde22aaa	-0.11043294
57	0xba9c0e6a	-0.0011906151
58	0xbc9701aa	-0.01843341
59	0x3d087add	0.033320297
60	0x3c6a95aa	0.014317909
61	0xbda43d56	-0.080195114
62	0x3d446f11	0.047957484
63	0xbdb1b411	-0.08676923
64	0xbc980e5d	-0.018561536
65	0x3d5d44ef	0.05402082
66	0x3d4b0b0f	0.049571093
67	0x3dcb4afd	0.09926412
68	0x3da24442	0.079231754
69	0x3b6e8b1e	0.0036398838
70	0xbd0039e9	-0.031305227
71	0x3e03f4d3	0.12886362
72	0x3d834b9d	0.064109065
73	0xbde1b7ba	-0.11021371
74	0x3da3db11	0.08000768
75	0x3dfc5480	0.123208046
76	0xbb38bece	-0.00281899
77	0xbde8385b	-0.11338874
78	0xbdc47a58	-0.09593648
79	0x3dc46392	0.09589304
80	0x3de50e5f	0.11184382
81	0xbdc4c829	-0.0960849
82	0x3dc7a3ad	0.097480156
83	0x3ca58f97	0.02021007
84	0xbd6b12ad	-0.057390857
85	0x3ddd8d80	0.108180046
86	0xbdc743f4	-0.09729758
87	0xbd5a16f3	-0.053244542
88	0x3cd978cc	0.026546858
89	0xbc409c44	-0.011756007
90	0xbdbcdf39	-0.09222264
91	0x3db9b673	0.090680026
92	0xbde44b75	-0.11147205
93	0x3dcb97ea	0.09941085
94	0xbc98d14c	-0.018654488
95	0xbda50590	-0.080577016
96	0x3d98ad31	0.07454909
97	0x3d7c6f37	0.0616295
98	0xbdfef5ee	-0.12449251
99	0xbce2a9b5	-0.027668813
100	0x3e061cce	0.13096926
101	0xbcea7c3b	-0.02862369
102	0xbdd0bdbe	-0.101924405
103	0xbd737885	-0.05944111
104	0xbde9eb37	-0.11421817
105	0x3da50ec3	0.08059456
106	0xbd1990c4	-0.037491575
107	0xbc6caf92	-0.014446156
108	0x3d02d4f6	0.031941377
109	0x3def0157	0.116701774
110	0x3c13ae46	0.009013718
111	0x3db8347b	0.08994385
112	0xbd99513d	-0.07486198
113	0x3e051dcd	0.1299965
114	0xbd7f17a8	-0.06227842
115	0xbbf867f8	-0.0075807534
116	0x3d4b2587	0.049596336
117	0x3d7f78b5	0.062370975
118	0xbd14b844	-0.036308542
119	0x3b1f9c89	0.0024354777
120	0x3d107792	0.03527028
121	0x3d9a511c	0.07535002
122	0x3dc8477f	0.09779262
123	0x3d8a2036	0.06744425
124	0xbdfdf099	-0.12399406
125	0xbd8a8141	-0.067629345
126	0xbc970008	-0.018432632
127	0xbdbfa6a9	-0.0935796
128	0x3d2ecb46	0.042674325
129	0xbdb83c30	-0.08995855
130	0x3da9d91b	0.08293363
131	0x3cee8664	0.029116817
132	0x3cc9af27	0.024619652
133	0x3cde7524	0.027155466
134	0x3be11bbb	0.006869761
135	0x3da8be59	0.08239431
136	0xbdcc3150	-0.09970343
137	0x3dd36ca8	0.10323459
138	0x3ddfa585	0.10920242
139	0xbda9b599	-0.0828659
140	0x3d6aa32b	0.057284515
141	0xbdcbbe4a	-0.09948404
142	0x3d9d8e7b	0.076931916
143	0x3b8cd913	0.004298338
144	0x3d506002	0.05087281
145	0x3de2e1a9	0.110781975
146	0x3d02558c	0.031819865
147	0xbd41c376	-0.047305547
148	0xbd8f537d	-0.06998346
149	0x3dea2141	0.11432124
150	0xbd66a482	-0.05630923
151	0x3cf7d101	0.030251028
152	0x3db08294	0.08618656
153	0xbdaca220	-0.084293604
154	0xbdc4b165	-0.09604148
155	0xbc92c1b4	-0.01791463
156	0x3b04a6d8	0.0020241048
157	0x3da3ba2a	0.07994492
158	0xbd89dfab	-0.067321144
159	0x3dc74f17	0.09731882
160	0x3ca9453f	0.020662902
161	0x3d11d2f5	0.035601575
162	0xbd10d8ec	-0.035363123
163	0xbd32d697	-0.04366168
164	0x3c944bc0	0.018102527
165	0xbd783375	-0.06059595
166	0x3d9c76a7	0.07639819
167	0x3bde4d4f	0.0067841182
168	0xbd81176e	-0.06303297
169	0x3ddcc4b4	0.10779706
170	0x3d1f18dc	0.038842067
171	0x3dbe2f33	0.09286346
172	0xbd7f300a	-0.062301673
173	0x3da39aa4	0.0798848
174	0x3dfcbac3	0.123403095
175	0xbd532fba	-0.051559187
176	0x3c7d8824	0.015474353
177	0x3df15d88	0.11785418
178	0xbdb947a5	-0.09046868
179	0xbdb464a4	-0.08808258
180	0x3d9a0da4	0.07522133
181	0x3cb64f98	0.02225475
182	0xbd5fe169	-0.054658327
183	0xbd3acf21	-0.04560769
184	0x3dacb084	0.08432105
185	0x3d0dc620	0.034612775
186	0x3d869d94	0.065730244
187	0xbda1a0b3	-0.07891979
188	0x3de32942	0.11091854
189	0xbdc17c56	-0.09447543
190	0x3dcc96e5	0.09989718
191	0xbd695335	-0.056964118
192	0x3dde866f	0.10865485
193	0xbcb77e31	-0.02239904
194	0xbd1f0193	-0.03881986
195	0xbdbd83d4	-0.0925366
196	0xbdc27da4	-0.0949662
197	0x3d377149	0.04478577
198	0x3d075714	0.03304203
199	0xbd15b9cb	-0.03655414
200	0x3ba7d3e2	0.005121694
201	0xbd36c5d9	-0.044622276
202	0x3db145da	0.08655901
203	0x3e030e4c	0.12798423
204	0x3d577b5e	0.052607886
205	0xbded7c8b	-0.1159602
206	0xbd016d69	-0.031598482
207	0x3da4b90a	0.08043106
208	0x3dfe7ac2	0.12425758
209	0xbb197c19	-0.0023419915
210	0x3dc4c955	0.096087135
211	0xbcf232a3	-0.029565161
212	0x3d103146	0.03520324
213	0xbdad44d0	-0.084603906
214	0x3de19433	0.11014595
215	0x3df2bd90	0.118525624
216	0x3b746a02	0.003729463
217	0x3d83adc6	0.06429629
218	0x3d6e74a9	0.058216725
219	0x3b78307c	0.0037870696
220	0xbd8561bf	-0.06512784
221	0xbd915117	-0.07095545
222	0xbd9fb88d	-0.07798872
223	0xbc69ebee	-0.014277441
224	0xbda1317e	-0.07870768
225	0xbddc3b85	-0.1075354
226	0xbdfa0b42	-0.122091785
227	0xbdcd597f	-0.10026836
228	0x3c024ec1	0.007953347
229	0x3ccfd6f2	0.025371049
230	0x3dd933ba	0.10605569
231	0xbd2ed6c2	-0.042685278
232	0xbbcaac0e	-0.0061850613
233	0x3dc58400	0.096443176
234	0x3de29a83	0.11064627
235	0xbd2730fe	-0.040818207
236	0x3cde535f	0.027139364
237	0xbd9eae35	-0.07748071
238	0xbc553a65	-0.013014411
239	0xbc18d0bb	-0.009327109
240	0x3dc255e6	0.0948904
241	0x3d61832f	0.055056747
242	0xbd84d0b0	-0.064851165
243	0x3d7cb5cc	0.061696813
244	0xbdbc1776	-0.09184162
245	0xbe0ccbc5	-0.13749607
246	0x3d2bb370	0.04191917
247	0x3dbab2dc	0.09116146
248	0x3da80747	0.08204513
249	0x3e0a626c	0.13514107
250	0xbd30e33c	-0.043185458
251	0x3ce41366	0.027841281
252	0xbd0e66aa	-0.034765877
253	0xbd471662	-0.04860533
254	0xbdf89446	-0.12137656
255	0x3e0a5034	0.13507158
