output/LSTM2CNN/LSTM2CNN_adam_128_500/model/LSTM2CNN_epoch_449.pth (torch, 350402 bytes, 16 tensors)

lstm.weight_ih_l0 f4 [256, 10]
0	0x3e2018d5	0.15634473
1	0x3e7e6da6	0.24846515
2	0x3e396614	0.18105346
3	0xbd082b78	-0.03324458
4	0xbe003697	-0.12520824
5	0x3e6a89b3	0.2290409
6	0x3eb36414	0.3503729
7	0xbd96e161	-0.07367206
8	0x3b466121	0.0030270296
9	0xbe2f423d	-0.17115112
10	0xbb29c27d	-0.0025903278
11	0x3e10b271	0.1413057
12	0x3db019d0	0.08598673
13	0x3daf8cfa	0.08571811
14	0xbe295aa4	-0.16538483
15	0x3dc7ceb5	0.09756223
16	0x3e064ea2	0.13115934
17	0xbdd0500f	-0.1017152
18	0xbe44ec88	-0.19230855
19	0xbda6660e	-0.08124934
20	0xbe509a31	-0.2037132
21	0x3ca5a670	0.020220965
22	0xbe1b3e74	-0.15160543
23	0xbe213563	-0.15743022
24	0xbbb89f67	-0.0056342366
25	0xbda91f90	-0.08257973
26	0xbc893c33	-0.016752338
27	0xbe4a74cf	-0.19771121
28	0xbe3ea9fa	-0.18619528
29	0xbe2d2697	-0.16909252
30	0xbcb6dd64	-0.022322364
31	0xbe45d615	-0.19319947
32	0x3d8c32a9	0.068456
33	0xbcec1ad8	-0.028821394
34	0xbe5ddf4f	-0.21667217
35	0xbd51699d	-0.05112611
36	0x3e0c4583	0.13698392
37	0xbe57c5fd	-0.2107162
38	0x3c0a00e5	0.008423065
39	0x3da803e1	0.08203865
40	0xbc3b236c	-0.011422019
41	0x3e2a3558	0.16621912
42	0x3e139e40	0.14415836
43	0x3da5402d	0.08068881
44	0xbcdac3e2	-0.026704732
45	0x3e6c3fb1	0.23071171
46	0xbcfcd3c5	-0.030862698
47	0x3d50183f	0.050804373
48	0xbbdb451c	-0.006691588
49	0xbd8829b4	-0.06648579
50	0x3d00d44b	0.03145246
51	0xbd033a69	-0.032038126
52	0x3cd0e7f1	0.025501223
53	0xbe1148be	-0.14187905
54	0x3c2a6f41	0.010402502
55	0xbe455790	-0.19271684
56	0xbe486ae7	-0.1957203
57	0x3e2e4a98	0.17020643
58	0x3c5b872c	0.013398927
59	0xbddb397c	-0.10704324
60	0xbd67b2a7	-0.05656686
61	0xbd9d311c	-0.076753825
62	0xbda78606	-0.0817986
63	0x3d1cdb24	0.038294926
64	0x3e331240	0.1748743
65	0xbe379693	-0.17928533
66	0xbdb56483	-0.08857062
67	0x3e4509e1	0.1924205
68	0x3e2fde68	0.17174685
69	0x3d43b0cf	0.04777604
70	0x3db6a7fb	0.089187585
71	0x3e6602d1	0.22462012
72	0x3d62861e	0.055303685
73	0xbe233a5b	-0.1594023
74	0xbd58955b	-0.05287681
75	0x3e164c99	0.14677657
76	0x3df15357	0.11783474
77	0xbdc61d36	-0.0967354
78	0xbdc04d85	-0.09389786
79	0xbde1a109	-0.11017043
80	0xbdf2452e	-0.11829601
81	0xbd8d387a	-0.06895538
82	0x3d20881f	0.039192315
83	0xbd89d080	-0.06729221
84	0xbe21bd05	-0.15794761
85	0x3c91317a	0.017723788
86	0x3de35cca	0.111016825
87	0xbd29efcd	-0.041488457
88	0xbd984d9d	-0.074366786
89	0xbd41e33f	-0.04733586
90	0x3ca7fb7f	0.020505665
91	0xbd8298b1	-0.0637678
92	0xbda35736	-0.079756185
93	0xbd0eafa0	-0.034835458
94	0x3d514189	0.05108789
95	0xbcb0106a	-0.021492202
96	0xbda83f30	-0.08215177
97	0x3e33fe17	0.17577396
98	0x3e585db1	0.2112949
99	0x3e884184	0.26612484
100	0x3d9baa26	0.076008126
101	0xbe669d52	-0.2252095
102	0xbdeb165b	-0.11478873
103	0x3e1ed7e2	0.1551204
104	0xbe47bd78	-0.1950587
105	0xbc8e7f48	-0.017394677
106	0x3a29e3e6	0.0006480798
107	0xbe717e75	-0.23583396
108	0x3db8dd21	0.09026552
109	0x3e842ccb	0.25815424
110	0xbbaab710	-0.005209811
111	0xbe487dac	-0.1957919
112	0xbd59d5fa	-0.05318258
113	0x3e1ef568	0.15523303
114	0x3c894bb6	0.016759735
115	0x3cf0cc67	0.029394342
116	0xbd0a6bac	-0.03379409
117	0x3e51f9ea	0.20505491
118	0x3e563bd8	0.20921266
119	0x3e82283e	0.25421327
120	0xbb39f60c	-0.0028375415
121	0xbe849f7a	-0.2590292
122	0xbcce61d8	-0.02519314
123	0x3d405179	0.0469527
124	0x3d8b667a	0.06806655
125	0xbde13234	-0.109959036
126	0xbe50437a	-0.2033824
127	0x3e72cfd7	0.23712097
128	0x3e82bb42	0.2553349
129	0x3e13a7b6	0.14419445
130	0xbdb4f947	-0.088366084
131	0x3d1f01bd	0.038820017
132	0xbddcec9a	-0.10787316
133	0x3c2655ac	0.010152262
134	0xbd331e6b	-0.04373018
135	0xbd759732	-0.059958644
136	0x3e9e77df	0.3095083
137	0xbe276023	-0.16345267
138	0xbdb9cebf	-0.09072637
139	0xbdf62ec8	-0.120206416
140	0xbccdf23f	-0.025139926
141	0x3e1de1e8	0.15418208
142	0x3d8f7933	0.07005539
143	0x3cf1eede	0.029532846
144	0xbdcdd448	-0.10050255
145	0x3e434d9d	0.19072576
146	0x3e4ebdb7	0.20189558
147	0xbda22de7	-0.079189114
148	0xbd19c9fa	-0.037546135
149	0xbe49b7fa	-0.19699088
150	0xbc8b7957	-0.017025633
151	0x3da2a00d	0.079406835
152	0xbdf40a40	-0.119160175
153	0x3da21fc1	0.07916213
154	0x3e38ef91	0.18060137
155	0xbe280ee7	-0.16411935
156	0xbe98ced1	-0.29845288
157	0x3d4063fa	0.046970345
158	0x3e776ee0	0.24163389
159	0x3c72964d	0.014806342
160	0xbd6f2fa8	-0.058395058
161	0x3d996e71	0.07491768
162	0x3de2bae7	0.11070805
163	0x3d3ce067	0.046112444
164	0x3d298a95	0.041391928
165	0xbccb9eaa	-0.02485593
166	0xbd2477c7	-0.04015329
167	0x3e52959e	0.20564887
168	0x3d9aa0cd	0.075502016
169	0xbc4b18c5	-0.012396042
170	0x3d962505	0.0733128
171	0x3ba4cd8d	0.0050293864
172	0x3dec0869	0.115250416
173	0x3e07fa68	0.13279116
174	0x3d2044e6	0.039128207
175	0xbdd4d98a	-0.10393055
176	0xbddc5e95	-0.107602276
177	0x3d641bbb	0.05569051
178	0x3cb1b4f1	0.021692725
179	0x3db81d42	0.089899555
180	0x3c8dd1a3	0.017311877
181	0x3e347fb2	0.17626837
182	0xbddd5a40	-0.108082294
183	0xbddb2c39	-0.10701794
184	0x3db4a3d2	0.08820309
185	0xbd806a64	-0.062702924
186	0xbdc30843	-0.0952306
187	0xbdc4ea84	-0.09615043
188	0x3c667ed0	0.01406832
189	0x3d8efd8a	0.069819525
190	0xbe0cf6bc	-0.13765997
191	0xbe805151	-0.2506204
192	0xbe0e0e0f	-0.1387255
193	0xbebe7197	-0.37196037
194	0x3e407667	0.18795167
195	0xbee4b36b	-0.44668135
196	0xbea8c70d	-0.32964364
197	0x3e773430	0.24141002
198	0x3e76a3bf	0.24085902
199	0x3e9c9342	0.305811
200	0x3e1b0564	0.15138775
201	0x3dea0dfb	0.11428448
202	0x3d9f7e64	0.07787779
203	0xbda43dd9	-0.08019609
204	0x3e0b02e3	0.1357532
205	0x3dc8d136	0.09805529
206	0x3b708ef8	0.003670631
207	0x3deb46f5	0.11488143
208	0x3e3606df	0.17776059
209	0x3d3a6b93	0.045512747
210	0x3d001841	0.03127313
211	0xbe68b3da	-0.22724858
212	0x3dfde2f5	0.12396804
213	0xbcc6312a	-0.024193365
214	0x3e532301	0.20618822
215	0x3bd7712d	0.006574771
216	0xbe057fd5	-0.13037045
217	0x3e21dab5	0.15806086
218	0x3dcefd39	0.10106892
219	0x3e87e67a	0.26543027
220	0x3e1bfe3a	0.15233698
221	0x3d133edc	0.03594862
222	0x3e07073f	0.13186358
223	0x3e093138	0.13397682
224	0xbc18f4d8	-0.009335719
225	0xbcdb3e26	-0.026763033
226	0x3d3bc77c	0.04584454
227	0x3d5fcf46	0.05464103
228	0xbd5b0c97	-0.053478803
229	0x3e381a12	0.17978695
230	0x3e08b746	0.13351163
231	0x3dc1df2e	0.09466396
232	0x3d9be7e5	0.0761259
233	0xbbc0bae6	-0.005881655
234	0xbd84c11f	-0.064821474
235	0x3e8f142f	0.27945086
236	0x3e520cbd	0.20512672
237	0xbe06f91b	-0.13180964
238	0xbe21cbeb	-0.15800445
239	0xbc536fb2	-0.012905048
240	0x3dd93350	0.1060549
241	0x3d26ef64	0.040755644
242	0x3d2f1cc4	0.042752042
243	0xbc7c4fe4	-0.015399907
244	0x3d1a92ef	0.037737783
245	0xbd8b57c8	-0.06803852
246	0xbe8739ef	-0.26411387
247	0x3e8db651	0.2767816
248	0x3da10f0d	0.07864199
249	0x3dfa7fb7	0.12231391
250	0x3e275174	0.16339666
251	0x3e19cae0	0.15018797
252	0x3de91fc2	0.113830104
253	0x3ec99b61	0.39376357
254	0x3dd265fe	0.1027336
255	0x3e0dc751	0.13845564

lstm.weight_hh_l0 f4 [256, 64]
0	0x3da12033	0.0786747
1	0xbca9b789	-0.0207174
2	0xbe156003	-0.14587407
3	0x3d68ba4e	0.0568183
4	0xbddbfd89	-0.10741717
5	0x3d2088b8	0.039192885
6	0xbdb6d9bd	-0.08928249
7	0xbd947d50	-0.07250464
8	0x3dfac55b	0.12244674
9	0xbd13e7d4	-0.03610976
10	0xbe946771	-0.2898517
11	0xbda3c4da	-0.07996531
12	0x3da42932	0.0801567
13	0x3ea583f8	0.32327247
14	0xbd3d5aba	-0.0462291
15	0xbd0adfda	-0.033904888
16	0x3da772b2	0.08176173
17	0xbd06149c	-0.0327345
18	0xbd1adde1	-0.037809256
19	0xbe421455	-0.18953069
20	0xbca1ea35	-0.019764999
21	0xbddafdbd	-0.10692928
22	0xbd254761	-0.040351275
23	0x3e0f541f	0.13996933
24	0x3e3af11f	0.18256043
25	0x3e0366c9	0.12832178
26	0xbe5a3816	-0.21310458
27	0xbe72b97c	-0.23703569
28	0xbd75f801	-0.060050968
29	0x3cdb2371	0.026750298
30	0x3d8efe4f	0.06982099
31	0xbcc71089	-0.024299877
32	0x3dd8bb8f	0.10582649
33	0x3d6bdb72	0.057582326
34	0xbc38535c	-0.011250343
35	0xbe7b02a1	-0.24512722
36	0xbdae8d43	-0.08523037
37	0x3acd08a2	0.0015642832
38	0x3e97919a	0.29603273
39	0xbe119ce5	-0.14220007
40	0xbd76db18	-0.060267538
41	0x3dd240c7	0.102662615
42	0x3e7e7157	0.24847923
43	0xbc5cb801	-0.013471604
44	0xbd017200	-0.03160286
45	0xbc013240	-0.007885516
46	0x3e21b2eb	0.15790908
47	0xbe6acac6	-0.22928914
48	0xbd4f7d61	-0.05065668
49	0xbe07d747	-0.13265716
50	0xbe8dc8e4	-0.2769233
51	0x3d805595	0.062663235
52	0xbdafe743	-0.085890315
53	0x3e8e1b32	0.27755123
54	0x3cec1290	0.028817445
55	0x3ce2d439	0.027689086
56	0xbdcfee43	-0.10152867
57	0x3d687533	0.056752395
58	0x3d6d579a	0.05794487
59	0x3dc216a8	0.094769776
60	0xbd353b82	-0.044246204
61	0x3cadae75	0.021201352
62	0xbdb19dbf	-0.08672666
63	0x3e358c16	0.1772922
64	0x3d20dd76	0.0392737
65	0xbd9cb976	-0.07652561
66	0xbe1f3e1f	-0.15551041
67	0xbd854bef	-0.06508624
68	0xbde4a1c2	-0.11163665
69	0xbd8b991d	-0.068163134
70	0x3cff8e4e	0.031195786
71	0x3d554b7e	0.052073948
72	0xbcd4b7f2	-0.025966618
73	0x3dfd0197	0.12353819
74	0xbe406df4	-0.18791944
75	0xbe122a50	-0.14273953
76	0x3daa25eb	0.083080135
77	0x3d851a4c	0.06499156
78	0xbd8ac0fe	-0.067750916
79	0x3d4c4327	0.04986873
80	0x3e08f341	0.13374044
81	0x3deb8db3	0.11501636
82	0xbe19802e	-0.14990303
83	0xbd344e31	-0.04401988
84	0x3d81e0bc	0.06341693
85	0x3e219d46	0.15782651
86	0x3c5b7aaf	0.013395949
87	0x3d864891	0.0655681
88	0x3e59ba36	0.2126244
89	0xbddb0d8f	-0.106959455
90	0x3d941c6c	0.072319835
91	0x3dfb231a	0.122625545
92	0xbd275ae4	-0.040858164
93	0xbd19bc74	-0.03753324
94	0x3d6f9cd7	0.058499184
95	0x3d3f951b	0.046773057
96	0x3c9afe73	0.018920159
97	0x3da32308	0.07965666
98	0xbd651038	-0.05592367
99	0xbd3fa501	-0.04678822
100	0x3dd9b56d	0.10630307
101	0x3e04a13f	0.12952136
102	0x3d80f402	0.06296541
103	0xbe04bdc2	-0.12963012
104	0x3e0d5f9d	0.13806005
105	0x3c2a70bd	0.010402855
106	0x3a0ff5f4	0.0005491667
107	0x3dd8c2e9	0.10584051
108	0xbe3a2b4c	-0.18180579
109	0x3d9b2911	0.07576192
110	0xbdaec894	-0.08534351
111	0xbcc201c8	-0.02368249
112	0x3d2e5357	0.042559948
113	0xbdb439fa	-0.08800121
114	0xbe21cea2	-0.1580148
115	0x3e316a89	0.17325796
116	0xbe2ffcb6	-0.17186245
117	0x3dd4d05d	0.10391305
118	0x3d8fc242	0.070194736
119	0x3ca946c0	0.020663619
120	0xbb5344e1	-0.00322371
121	0xbd29f39c	-0.04149209
122	0xbd15db17	-0.036585893
123	0x3e57356f	0.21016477
124	0xbe04fc14	-0.12986785
125	0xbe3994e1	-0.18123199
126	0x3d8528b9	0.06501908
127	0xbd0fc2db	-0.035097938
128	0x3c2660b7	0.010154895
129	0xba5d84e5	-0.0008450284
130	0x3d940f47	0.072294764
131	0xbdb9c89d	-0.09071467
132	0xbdc89987	-0.09794908
133	0x3ddd3419	0.108009525
134	0xbd91ad9a	-0.0711319
135	0x3c44ee7b	0.012019749
136	0x3e1159db	0.14194433
137	0x3dab4d6e	0.08364378
138	0x3b1ea408	0.0024206657
139	0xbe8289ab	-0.25495657
140	0xbd6d12d1	-0.057879273
141	0xbc8362fb	-0.016038409
142	0x3e29234d	0.16517372
143	0xbdf234a6	-0.11826448
144	0xbd0ed356	-0.034869514
145	0x3d083c20	0.033260465
146	0x3da075d9	0.07834978
147	0xbdf22bf9	-0.11824793
148	0x3e33e643	0.17568307
149	0x3d8935eb	0.06699737
150	0xbe509a69	-0.20371403
151	0xbe3d6899	-0.18496932
152	0x3dac1858	0.08403081
153	0xbd6579a3	-0.056024205
154	0x3e0bf379	0.13667096
155	0x3e365632	0.17806318
156	0x3e47b4bc	0.19502538
157	0xbdbbee0d	-0.09176264
158	0x3e130ca5	0.14360292
159	0xbdb7aaa1	-0.08968092
160	0x3cfa3c1c	0.03054624
161	0xbde6aeda	-0.11263819
162	0xbd8d506d	-0.069001056
163	0xbcb315d8	-0.021861002
164	0x3d8a0d23	0.06740787
165	0xbe04e4b5	-0.1297787
166	0x3d3bc130	0.045838535
167	0xbd6d4fc1	-0.057937387
168	0x3e2b4066	0.16723785
169	0x3d347d95	0.044065077
170	0xbd2f2b49	-0.04276589
171	0xbe04b169	-0.12958302
172	0x3e131fd3	0.14367609
173	0xbaea8bc4	-0.0017894437
174	0x3dbd2dbe	0.0923724
175	0xbc01a90b	-0.007913838
176	0xbe26a2a7	-0.16272984
177	0x3e6f82fd	0.23389812
178	0x3cb76969	0.02238913
179	0xbe5165dc	-0.20449013
180	0x3e24e9d7	0.16104828
181	0xbec0f516	-0.37686986
182	0xbe054c07	-0.13017283
183	0xbd8211c6	-0.06351046
184	0x3e17fd56	0.14842734
185	0xbd63cde4	-0.055616274
186	0x3e0c390d	0.13693638
187	0xbd9e1379	-0.07718558
188	0x3e902a9a	0.28157502
189	0x3e0178a8	0.12643683
190	0x3e6256f9	0.2210349
191	0xbdd5bb23	-0.10436084
192	0x3e346139	0.17615213
193	0x3e203e23	0.15648703
194	0x3c1be045	0.009513919
195	0xbd3812a3	-0.04493965
196	0xbd93358b	-0.07187947
197	0xbcdd289e	-0.026996907
198	0x3bbcd376	0.005762513
199	0xbbd09e7c	-0.006366549
200	0x3e0da549	0.13832583
201	0x3d80eb52	0.06294884
202	0x3df984c7	0.121835284
203	0xbd478da6	-0.04871907
204	0x3d24a86e	0.04019969
205	0xbe5b2d3d	-0.21403976
206	0xbd077521	-0.033070687
207	0x3d4c8a46	0.049936555
208	0xbdb68553	-0.08912148
209	0x3e5e0d7d	0.21684833
210	0xbd1e3ece	-0.038634114
211	0xbd147940	-0.036248446
212	0x3d3966cf	0.04526406
213	0xbd2e4156	-0.042542778
214	0xbca63995	-0.02029113
215	0xbcab5b69	-0.020917611
216	0xbc40fdca	-0.011779258
217	0xbd4a69c9	-0.04941729
218	0x3df8af76	0.121428415
219	0xbd23f27a	-0.040026166
220	0x3e0b35ac	0.13594693
221	0xbe3d34e1	-0.18477203
222	0x3be66764	0.007031368
223	0x3e128f04	0.14312369
224	0xbe142f2f	-0.14471124
225	0xbd20f744	-0.03929831
226	0x3d61e073	0.055145692
227	0x3d86339b	0.06552812
228	0xbd6f3fb6	-0.05841037
229	0x3c08a329	0.008339682
230	0xbcc8fa9c	-0.024533562
231	0xbdea6e00	-0.11446762
232	0xbd2966d5	-0.041357834
233	0x3e3998ef	0.18124746
234	0xbcdc2d19	-0.026876973
235	0x3dc9a409	0.0984574
236	0x3df862b4	0.12128201
237	0xbd31fd09	-0.043454204
238	0xbd1cc28e	-0.03827148
239	0x3cd8539f	0.026407061
240	0xbd9ec918	-0.07753199
241	0x3dfb02cb	0.12256392
242	0x3e030077	0.12793146
243	0xbcd8f805	-0.026485452
244	0x3c10e2ae	0.008843107
245	0x3d5d75ac	0.0540673
246	0x3d10a20e	0.035310797
247	0xbc5a0c3b	-0.01330858
248	0x3c3acd56	0.011401495
249	0xbd4719ee	-0.048608713
250	0x3d9ce39b	0.076606
251	0xbcf4f442	-0.029901627
252	0x3d6a6e6c	0.057234213
253	0xbc489653	-0.012242871
254	0xbda4dfd0	-0.08050501
255	0x3d5675da	0.052358486

lstm.bias_ih_l0 f4 [256]
0	0x3e6014d2	0.21882942
1	0x3e113f4b	0.141843
2	0x3e4a06d7	0.19729172
3	0xbd9122ca	-0.070867136
4	0x3e03cf72	0.12872103
5	0xbd860897	-0.06544607
6	0xbc64efdf	-0.013973205
7	0x3e0faa31	0.14029767
8	0x3e5022ff	0.2032585
9	0x3dd4aebb	0.1038489
10	0x3e9a751a	0.30167466
11	0x3e8df79d	0.27727976
12	0x3da5fbe4	0.08104685
13	0x3db1dee8	0.08685094
14	0x3d8b8c89	0.06813914
15	0x3e51f3f0	0.20503211
16	0xbdd186c4	-0.10230783
17	0x3e3747d8	0.178985
18	0x3d5f6555	0.054539997
19	0x3e232a97	0.15934215
20	0xbcc79f86	-0.024368059
21	0x3dc23a58	0.094837844
22	0xbd819cbb	-0.06328722
23	0xbd0382b9	-0.03210709
24	0x3e63115c	0.22174591
25	0x3e8ddb6a	0.27706462
26	0x3e19322f	0.1496055
27	0xbc8bfd39	-0.01708852
28	0x3d390f42	0.045180567
29	0x3e9150e6	0.28382033
30	0xbce673bc	-0.028131358
31	0x3e9012f4	0.2813946
32	0x3d126184	0.03573753
33	0xbd9051af	-0.0704683
34	0x3ebc08b9	0.36725405
35	0x3c149021	0.009067566
36	0x3e168a50	0.147012
37	0x3e4ed503	0.20198445
38	0x3de30175	0.11084262
39	0x3df7f92e	0.12108074
40	0x3e9b2624	0.30302536
41	0x3da53780	0.080672264
42	0x3d4d8e1d	0.050184358
43	0x3ddad09f	0.106843226
44	0x3ea612a6	0.32436103
45	0xbcd61702	-0.026134018
46	0x3d57bcfb	0.05267046
47	0x3e0f58e3	0.13998751
48	0x3ddf6658	0.109081924
49	0xbd880ebc	-0.06643435
50	0x3e7f4b5a	0.24931088
51	0x3d8f8a1a	0.07008763
52	0x3e85219a	0.26002198
53	0x3ea6747d	0.32510749
54	0x3e023b7c	0.12718004
55	0x3dd1f337	0.10251468
56	0x3e066ca0	0.13127375
57	0x3d560a8b	0.05225615
58	0xbbe62a85	-0.0070241117
59	0x3ec8abc6	0.39193553
60	0x3df1696f	0.11787688
61	0x3dfe3aa2	0.12413527
62	0x3d2b5450	0.041828454
63	0xbcef8468	-0.02923794
64	0xbd8e6601	-0.069530495
65	0x3e04d0d1	0.12970282
66	0xbd8a800f	-0.067627065
67	0x3dd77fe4	0.1052244
68	0xbd8e924b	-0.06961497
69	0x3d67077f	0.056403633
70	0x3e18034d	0.14845009
71	0x3d1d5da2	0.038419373
72	0xbd8dc7fb	-0.06922909
73	0x3d9c3477	0.076271944
74	0x3c9ab26a	0.018883903
75	0xbd7aa286	-0.06119015
76	0x3c626fc9	0.013820597
77	0x3da00a8b	0.07814511
78	0x3dfb38ac	0.12266669
79	0xbdcda6a3	-0.10041549
80	0x3d932c42	0.07186176
81	0xbd941881	-0.07231236
82	0x3cca3b30	0.024686426
83	0xbd6c51a7	-0.057695057
84	0xbd04eeb2	-0.0324542
85	0x3d9f4649	0.07777078
86	0x3c29e84e	0.010370327
87	0x3ddecd9c	0.108790606
88	0xbd834381	-0.0640936
89	0xbc6225e1	-0.013802976
90	0x3d17e509	0.03708366
91	0x3df32f78	0.11874288
92	0x3de629e8	0.11238462
93	0x3e1ff324	0.15620095
94	0xbc982c13	-0.018575704
95	0x3db1837c	0.08667657
96	0x3daa2862	0.08308484
97	0x3d66384c	0.056206033
98	0xb8c10822	-9.204472e-05
99	0xbb739d44	-0.0037172595
100	0x3d8181a0	0.06323552
101	0xbd069a45	-0.032861967
102	0x3d0e8b8b	0.034801047
103	0xbd1b5d87	-0.03793099
104	0xbc4013a9	-0.011723437
105	0x3e2b1346	0.16706571
106	0x3e1e4729	0.15456833
107	0x3dca4a0f	0.09877407
108	0x3d092dec	0.03349106
109	0xbcf3d086	-0.029762518
110	0x3c09feb9	0.008422547
111	0x3e25696a	0.16153494
112	0x3d270a54	0.040781334
113	0xbdbd097d	-0.09230325
114	0xbd2851db	-0.04109369
115	0xbd8fb5e1	-0.070171125
116	0xbd17f1aa	-0.037095703
117	0x3d13d724	0.036093846
118	0x3cb42d0d	0.021994138
119	0x3cf24aa8	0.029576614
120	0xbc6c6fe7	-0.0144309765
121	0x3e333dda	0.17504063
122	0xbd979c5e	-0.074028715
123	0xbcd59285	-0.026070843
124	0x3ded5ee4	0.115903646
125	0xbd029c90	-0.03188759
126	0xbc3b2d37	-0.011424354
127	0x3dfc1cca	0.123101786
128	0xbd0fe33b	-0.035128813
129	0xbdec633a	-0.115423635
130	0xbd4c59af	-0.049890216
131	0xbb800496	-0.0039067967
132	0x3dc12cfe	0.0943241
133	0xbd363b1e	-0.044489972
134	0xbd69ee3a	-0.057111956
135	0x3d40659a	0.046971895
136	0x3d536605	0.051610965
137	0x3dda412a	0.1065696
138	0xbdd3b59b	-0.10337373
139	0xbe067b25	-0.13132913
140	0x3de2850d	0.11060534
141	0x3deccb6d	0.11562238
142	0xbdb4c97c	-0.088274926
143	0xbd298383	-0.041385185
144	0xbd8e08de	-0.06935285
145	0xbd1318c5	-0.035912294
146	0xbd9b2784	-0.075758964
147	0x3d83be5d	0.06432793
148	0x3e05824f	0.1303799
149	0xbd23e5d9	-0.04001412
150	0xbe12b4a9	-0.14326729
151	0x3e0314c5	0.12800892
152	0x3d98952b	0.074503265
153	0x3de6cbd2	0.112693444
154	0x3d05762e	0.032583408
155	0x3da3d9e1	0.080005415
156	0xbdbf45b2	-0.09339465
157	0xbc4b85c0	-0.012422025
158	0x3d49e149	0.049287114
159	0x3e334ee5	0.17510565
160	0xbd6b6c22	-0.05747617
161	0x3db19241	0.08670474
162	0x3d1be877	0.038063493
163	0xbdf312ed	-0.11868844
164	0x3df88d0c	0.121362776
165	0x3dc993eb	0.09842666
166	0xbdc411f1	-0.095737346
167	0x3d481b07	0.0488539
168	0x3d17edd9	0.037092064
169	0x3d8e4ce0	0.069482565
170	0x3dfd3151	0.12362922
171	0xbdfcc096	-0.1234142
172	0xbc5f2c6c	-0.013621431
173	0xbdbca215	-0.09210602
174	0x3d76c852	0.060249634
175	0xbe26e1d9	-0.16297092
176	0xbdc4d576	-0.09611027
177	0x3d8faeef	0.07015788
178	0x3bc09add	0.005877836
179	0x3e15629a	0.14588395
180	0xbe3a9de1	-0.18224289
181	0xbdc8ca69	-0.09804232
182	0xbda47831	-0.08030737
183	0x3e1b1dfc	0.15148157
184	0x3c750c78	0.014956586
185	0xbe15bc3d	-0.14622588
186	0xbdec8bba	-0.11550088
187	0x3de6b0de	0.112642035
188	0x3dc48670	0.095959544
189	0x3d821ad6	0.06352775
190	0x3e03c741	0.12868978
191	0x3e1a160c	0.15047473
192	0x3e2dd4b7	0.16975676
193	0x3d74e69c	0.05979024
194	0x3d77ae40	0.060468912
195	0x3e091b41	0.13389303
196	0x3e6b16d9	0.22957934
197	0x3d9e92e6	0.077428624
198	0x3e2e009b	0.16992418
199	0x3e856bec	0.260589
200	0x3e3ff595	0.18746026
201	0xbd6ed07d	-0.0583043
202	0x3e6bc388	0.23023808
203	0x3e5130e2	0.20428804
204	0x3e1f92cf	0.15583347
205	0xbb00096a	-0.0019536861
206	0x3d4fdb60	0.05074632
207	0x3e14caea	0.1453053
208	0x3dde09c7	0.10841709
209	0x3db32c41	0.08748675
210	0x3e3049bd	0.17215629
211	0x3e58986c	0.21151894
212	0x3c0aa0ee	0.00846122
213	0x3ea57eb7	0.32323238
214	0xbde52126	-0.11187963
215	0x3e07077f	0.13186453
216	0x3e080051	0.1328137
217	0x3da08e42	0.078396335
218	0x3e562c34	0.209153
219	0x3dee8dd5	0.11648146
220	0x3dc7cf69	0.09756357
221	0x3e4efd1c	0.20213741
222	0x3d51dcb4	0.05123587
223	0x3d6aec92	0.057354517
224	0x3e547ae2	0.20750001
225	0x3e032adc	0.12809318
226	0x3e8946fa	0.26811963
227	0x3d84d1ac	0.06485304
228	0x3e22f83c	0.15915006
229	0x3e2163a6	0.15760669
230	0x3de9e561	0.11420704
231	0x3e334d4a	0.17509952
232	0x3e1afb4d	0.15134926
233	0xbd9bf509	-0.07615096
234	0xbc02cdd2	-0.007983642
235	0x3d10fc91	0.035397116
236	0x3e4ceabd	0.2001142
237	0xbbcb5bda	-0.006206018
238	0x3e2d2d52	0.1691182
239	0x3ec8af0c	0.3919605
240	0xbcb407f5	-0.02197645
241	0x3dfa64c6	0.12226252
242	0x3eaa9fd3	0.3332506
243	0xbd8c6d67	-0.06856804
244	0x3eaa685f	0.33282754
245	0x3eb1587e	0.34637827
246	0x3e61a3b2	0.22035101
247	0x3d9b9c91	0.07598222
248	0x3d9fbfd6	0.07800262
249	0x3e4596d9	0.19295825
250	0x3a99260e	0.0011684315
251	0x3ee8cab7	0.4546716
252	0x3d2f05da	0.04273019
253	0x3d7a6ba8	0.061137825
254	0xbc50fb0e	-0.012755169
255	0x3ddd6405	0.10810093

lstm.bias_hh_l0 f4 [256]
0	0x3df24932	0.11830367
1	0x3d039212	0.032121725
2	0x3e38eb53	0.18058519
3	0x3d08cfa3	0.033401143
4	0x3e1df6ef	0.15426229
5	0x3dfda7ef	0.123855464
6	0x3d52a147	0.051423337
7	0xbd018bf4	-0.03162761
8	0x3e2c8a77	0.16849695
9	0x3e27d67e	0.16390416
10	0x3f0162bd	0.5054129
11	0x3deaa154	0.11456552
12	0x3d355bce	0.044277005
13	0x3df70e78	0.120633066
14	0x3e07caba	0.13260928
15	0x3dcbffbe	0.09960888
16	0x3d858cc6	0.06520991
17	0x3d4f6cfb	0.05064104
18	0x3e5050bb	0.20343296
19	0x3d0f92be	0.035052054
20	0x3db6330c	0.08896455
21	0x3dfe9361	0.12430454
22	0xbbb3a48e	-0.005482263
23	0x3e3e7813	0.18600492
24	0x3e6492ab	0.22321574
25	0x3db83f8f	0.08996498
26	0x3e8955d3	0.2682329
27	0xbdb88427	-0.09009581
28	0x3d2febb6	0.0429494
29	0x3ea302a7	0.3183796
30	0x3ca6498c	0.020298742
31	0x3e18e119	0.14929618
32	0x3c7c020d	0.015381348
33	0xbcefeb67	-0.029287053
34	0x3eb3a993	0.35090312
35	0x3d99e9fc	0.07515332
36	0x3ddf7263	0.109104894
37	0x3e150e2e	0.1455619
38	0x3b6f3806	0.0036501898
39	0x3d3f928c	0.046770617
40	0x3e97e61c	0.29667747
41	0x3e07eadf	0.1327319
42	0x3cf33119	0.029686498
43	0x3d703c48	0.05865124
44	0x3e3fd7b9	0.18734635
45	0x3dd55fce	0.10418664
46	0x3de992be	0.11404942
47	0x3e3d478d	0.18484326
48	0x3b9cf428	0.004789848
49	0xbabc6878	-0.0014374396
50	0x3ee546c2	0.44780546
51	0x3d6ebeda	0.05828748
52	0x3e82b76f	0.25530574
53	0x3e8cec7d	0.27524176
54	0x3e22f42b	0.15913455
55	0x3e1ed3a4	0.15510422
56	0x3e43b608	0.19112408
57	0x3daa12b8	0.083043516
58	0x3d4a8d1e	0.049450986
59	0x3ea8a6a4	0.32939637
60	0xbd6413dc	-0.055683002
61	0x3d22cccf	0.039746102
62	0xbd9e213a	-0.07721181
63	0x3c239e48	0.009986468
64	0xbd1fa642	-0.038976915
65	0xbd663ea7	-0.056212094
66	0xbcd22b7c	-0.0256555
67	0xbc59386a	-0.013258079
68	0x3b8f1716	0.0043667657
69	0x3d9c3d97	0.07628935
70	0x3da3fd24	0.08007267
71	0x3d12a0d5	0.035797913
72	0x3bfdf62f	0.0077502946
73	0xba8c1db8	-0.0010690009
74	0x3de85b51	0.11345542
75	0xbd6b6139	-0.057465766
76	0xbc293216	-0.010326883
77	0x3d7a829f	0.061159726
78	0x3e094fa1	0.13409282
79	0xbe05dcd6	-0.13072523
80	0x3cef6eee	0.0292277
81	0xbd66557d	-0.05623387
82	0x3c168c16	0.0091886725
83	0xbda1486f	-0.07875144
84	0x3e048045	0.12939556
85	0x3dd9c4bb	0.106332265
86	0x3d99d608	0.07511526
87	0x3d9bca12	0.07606901
88	0xbd9262fd	-0.07147787
89	0x3ced5b0a	0.028974075
90	0xbe376941	-0.17911245
91	0xbcd3ca04	-0.025853164
92	0x3e29a15f	0.16565464
93	0x3d1e3186	0.038621448
94	0x3d6d37a3	0.057914387
95	0xbcd99697	-0.026561065
96	0xbd4d3805	-0.050102253
97	0xbc67d98e	-0.01415099
98	0xbd31a2d9	-0.043368194
99	0x3d45555f	0.04817712
100	0xbd8b0306	-0.06787686
101	0x3d56220c	0.052278563
102	0x3e181594	0.14851981
103	0xbb8e560d	-0.004343754
104	0x3c3e922b	0.011631529
105	0xbb01b079	-0.0019789024
106	0xbce1195a	-0.027477909
107	0xbd8304d8	-0.06397408
108	0x3d281476	0.041035138
109	0xbc8020d9	-0.015640663
110	0x3c4388ba	0.011934454
111	0x3e35e220	0.17762041
112	0x3e10d4af	0.14143632
113	0xbd9e965d	-0.07743523
114	0xbde7c3df	-0.11316656
115	0xbd31a6e7	-0.04337206
116	0xbe3ce7df	-0.18447827
117	0x3e228e45	0.15874584
118	0xbcbe0169	-0.023194032
119	0xba0f5253	-0.00054672844
120	0x3d2c0b67	0.04200306
121	0x3e329b2a	0.17442003
122	0xbd3d8b35	-0.046275336
123	0x3b9e6bcf	0.004834629
124	0x3def86fc	0.11695668
125	0x3e0ae6cb	0.13564603
126	0x3b13a7f0	0.0022530518
127	0x3dfb944a	0.12284143
128	0xbc84be0b	-0.0162039
129	0x3ddd1493	0.1079494
130	0x3d11d628	0.035604626
131	0x3e192f28	0.14959395
132	0xbd65fc05	-0.056148548
133	0xbe1dc4dc	-0.15407127
134	0xbd0a732a	-0.033801235
135	0x3d9380ca	0.07202299
136	0x3c34a8a9	0.01102654
137	0x3df5514b	0.11978396
138	0x3e11390c	0.14181918
139	0xbd8026b5	-0.06257383
140	0x3dff7c78	0.124749124
141	0x3d3fa621	0.046789292
142	0xbd09228b	-0.03348021
143	0xbd8deecf	-0.06930315
144	0xbcc79bbc	-0.024366252
145	0x3c73de2d	0.014884514
146	0x3ddbea91	0.10738099
147	0x3d9b2a69	0.075764485
148	0x3c678a81	0.014132143
149	0xbd48fd39	-0.049069617
150	0xbe079d85	-0.13243683
151	0xbd3e4be9	-0.046459112
152	0x3d36edda	0.044660427
153	0x3d980d4c	0.07424411
154	0xbda4e936	-0.08052294
155	0xbd547f21	-0.051879052
156	0x3d005191	0.031327788
157	0xbd73eda1	-0.059552792
158	0x3da9d9db	0.08293506
159	0x3ce20334	0.027589418
160	0x3dad927e	0.08475207
161	0xbd9bac17	-0.07601183
162	0xbb657732	-0.0035013673
163	0xbdff1372	-0.12454881
164	0x3d334bc7	0.04377344
165	0xbd642c7a	-0.05570648
166	0x3dee8828	0.116470635
167	0xbdfa4419	-0.1222002
168	0x3d804c71	0.0626458
169	0xbd1c0764	-0.038092986
170	0x3d4e9b9b	0.050441366
171	0x3d86225b	0.065495215
172	0x3be5e502	0.0070158252
173	0x3dadc297	0.08484381
174	0xbd8744f4	-0.06604949
175	0xbddb8540	-0.10718775
176	0xbd87191f	-0.06596588
177	0x3d2b5767	0.0418314
178	0xbd6857c7	-0.056724336
179	0x3e0b6229	0.13611664
180	0x392588ad	0.00015786542
181	0x3da283cc	0.079352945
182	0x3d600777	0.05469462
183	0x3df2b9b7	0.118518285
184	0x3b61eb4e	0.0034472528
185	0x3bb0edd6	0.005399446
186	0xbcf1f3f7	-0.029535277
187	0xbdcf13c1	-0.1011119
188	0xbde87d31	-0.11352003
189	0x3c1edee1	0.009696693
190	0x3d094b66	0.03351917
191	0x3deaf252	0.11472
192	0x3e500e08	0.20317852
193	0x3d7f207b	0.062286835
194	0x3e0a9ad4	0.13535625
195	0xbd0a3d64	-0.033749953
196	0x3e623367	0.22089921
197	0x3d4be77c	0.049781308
198	0x3ae47fce	0.0017433108
199	0x3dff00bd	0.12451313
200	0x3e75ab69	0.23991169
201	0x3db34041	0.0875249
202	0x3e804b6b	0.2505754
203	0x3e9344f3	0.28763542
204	0x3dfefecc	0.124509424
205	0xbc30162f	-0.0107474765
206	0x3d03331f	0.032031175
207	0x3d8af6f3	0.06785383
208	0xbdb41088	-0.087922156
209	0x3d935486	0.07193856
210	0x3d66e18c	0.056367442
211	0x3e85250f	0.26004836
212	0x3e2f6d52	0.17131546
213	0x3eac41b0	0.33643866
214	0xbd863fbb	-0.06555124
215	0x3d77c5d8	0.060491413
216	0x3e01e0a6	0.12683353
217	0x3e5c5d73	0.21520023
218	0x3e0192da	0.12653676
219	0xbdaf2759	-0.08552427
220	0xbcef3d18	-0.029203936
221	0x3e585999	0.21127929
222	0xbd262f8f	-0.0405727
223	0x3e5274a6	0.2055231
224	0xbc44ef50	-0.012019947
225	0x3ca6c86c	0.02035924
226	0x3de05f70	0.10955703
227	0x3d7de0e8	0.061982065
228	0xbd038eb8	-0.03211853
229	0xbb615572	-0.0034383205
230	0x3b65e53e	0.0035079266
231	0x3e1303fa	0.14356986
232	0x3e31ac4e	0.17350885
233	0xbc5dde26	-0.013541734
234	0x3dc058b2	0.09391917
235	0x3c056819	0.008142495
236	0x3e7135ad	0.23555632
237	0x3dfb6218	0.12274569
238	0x3da6c7ee	0.08143602
239	0x3ea9af4e	0.3314156
240	0x3e1590b5	0.14605983
241	0xbdb714e4	-0.089395314
242	0x3e87823b	0.26466545
243	0xbd688007	-0.05676272
244	0x3e8a2c2c	0.26986825
245	0x3e987fcb	0.29784998
246	0x3e1ab614	0.1510852
247	0x3e0dd4a3	0.13850646
248	0x3d89e76d	0.06733594
249	0x3c97f9ef	0.018551795
250	0x3b178142	0.0023117815
251	0x3ea281fd	0.31739798
252	0xbd0f8f9c	-0.035049066
253	0x3decaf22	0.115568414
254	0x3c4a4f0b	0.012347947
255	0x3ce8c6be	0.02841508

lstm.weight_ih_l1 f4 [256, 64]
0	0x3d32c621	0.04364598
1	0xbd98d42f	-0.07462346
2	0xbd44bc5a	-0.04803119
3	0xbd841b1f	-0.064504854
4	0x3db29b7b	0.08721062
5	0xbcbe581a	-0.02323537
6	0xbdee9e57	-0.11651295
7	0xbd0f0721	-0.034918908
8	0x3e146da0	0.14494944
9	0x3d2d3bff	0.042293545
10	0xbe1a915c	-0.15094513
11	0xbe22a899	-0.15884627
12	0x3e1d8f79	0.15386762
13	0x3e030a78	0.12796962
14	0xbb9dc8a0	-0.004815176
15	0xbdae0ac0	-0.08498144
16	0xbca931e1	-0.020653667
17	0xbd88cd2e	-0.0667976
18	0x3dab095e	0.08351396
19	0xbe25c56d	-0.16188593
20	0xbdcdcd2e	-0.100489005
21	0xbe0019b6	-0.12509808
22	0xbc99b423	-0.018762654
23	0xbd694384	-0.056949154
24	0x3da507a7	0.080581
25	0x3d1eef87	0.03880265
26	0x3e015426	0.12629756
27	0x3d98ba0a	0.07457359
28	0x3cbc6c17	0.02300076
29	0xbde42e45	-0.11141638
30	0x3e2aa150	0.16663098
31	0xbc6f40b2	-0.014602827
32	0xba57ff87	-0.00082396757
33	0xbc73740e	-0.014859213
34	0xbdf4a853	-0.11946168
35	0x3e3d162c	0.18465489
36	0x3e358f11	0.17730357
37	0x3ca8c82f	0.020603267
38	0x3dfd8d87	0.1238051
39	0x3d506160	0.050874114
40	0x3d8d3dc1	0.06896544
41	0xbb83fe73	-0.0040281354
42	0xbd28e075	-0.041229684
43	0x3cbb1fdf	0.022842346
44	0x3d669fc1	0.056304697
45	0x3d11a33e	0.03555607
46	0x3d9da4dd	0.07697461
47	0xbea8da1b	-0.329789
48	0x3dc20252	0.09473099
49	0xbda789b1	-0.081805594
50	0xbd849861	-0.064743765
51	0xbda7b371	-0.081885226
52	0xbacae64c	-0.0015480011
53	0x3d82da2b	0.063892685
54	0xbc81710f	-0.01580098
55	0xbe9b85b3	-0.30375442
56	0x3e4ab8ed	0.19797106
57	0x3c7f355b	0.015576686
58	0xbdc9cc1c	-0.09853384
59	0xbe76d84e	-0.24105951
60	0xbd70998f	-0.058740195
61	0xbddf2fcb	-0.10897788
62	0x3df1b235	0.118015684
63	0xbd73f848	-0.05956295
64	0x3d857d87	0.06518083
65	0x3e069713	0.13143568
66	0xbd386abe	-0.045023672
67	0xbe9e1f89	-0.30883434
68	0x3c8ae4c1	0.016954781
69	0x3e72b1f0	0.2370069
70	0x3c33eeb8	0.010982208
71	0xbe04af6d	-0.12957545
72	0xbe7c1782	-0.24618343
73	0x3e2dc59c	0.16969913
74	0x3e878602	0.26469427
75	0xbdd829d9	-0.10554857
76	0x3de5bc5e	0.11217569
77	0xbcb78ebd	-0.02240693
78	0xbe51abb1	-0.20475651
79	0xbcd4b7e8	-0.0259666
80	0xbd9c39fa	-0.07628246
81	0x3d09f23c	0.03367828
82	0xbde88ffc	-0.11355588
83	0x3e78e4da	0.2430605
84	0x3db896e2	0.090131536
85	0xbddfaf75	-0.10922138
86	0x3e617e61	0.22020866
87	0x3da14475	0.07874385
88	0xbd880a37	-0.06642573
89	0xbd583ed2	-0.052794285
90	0x3d01e629	0.03171364
91	0x3ea283b6	0.31741112
92	0x3e0820b5	0.13293727
93	0x3e06006a	0.13086095
94	0x3dacbc1a	0.08434315
95	0x3c5999f7	0.013281337
96	0x3e0189df	0.1265025
97	0xbe806cc1	-0.25082973
98	0x3ddd3b69	0.10802347
99	0xbdb05175	-0.08609287
100	0x3e152263	0.14563899
101	0xbd1aa286	-0.03775265
102	0x3d041bba	0.032253005
103	0x3dd18f18	0.10232371
104	0x3e893d67	0.2680466
105	0x3d65ccc6	0.05610349
106	0xbe574a4b	-0.21024434
107	0xbd77af56	-0.060469948
108	0xbd0dae76	-0.034590207
109	0x3e2251a8	0.15851462
110	0xbe858bef	-0.26083323
111	0x3e3c7e05	0.18407448
112	0x3dc07eab	0.0939916
113	0x3e08b1b6	0.13349041
114	0xbb2d829f	-0.0026475561
115	0x3e261873	0.16220264
116	0xbda04f90	-0.07827675
117	0x3d093889	0.03350118
118	0xbc067910	-0.0082075745
119	0xbe2cd21c	-0.16877025
120	0xbce4bacf	-0.027921109
121	0x3bffc063	0.0078049167
122	0xbcd997c1	-0.02656162
123	0x3e73be8d	0.23803158
124	0x3e03aa40	0.12857914
125	0xbe34e706	-0.17666253
126	0xbdd04c29	-0.101707764
127	0xbd8b88be	-0.06813191
128	0x3d09f9d6	0.033685528
129	0x3dee45a5	0.116343774
130	0x3e496716	0.1966823
131	0xbd31e07b	-0.043426972
132	0xbbfc4497	-0.0076986062
133	0xbbc39624	-0.005968826
134	0x3da4b1ba	0.08041711
135	0x3cfe2fee	0.031028714
136	0xbdc5018b	-0.09619435
137	0xbe2e8d02	-0.17045978
138	0xbe1c743f	-0.1527872
139	0x3cf6bb3e	0.03011858
140	0xbdec3fb8	-0.11535591
141	0xbe48e288	-0.19617665
142	0xbdaa4c5e	-0.08315347
143	0x3e05ed92	0.13078907
144	0x3e0b04ba	0.13576022
145	0xbda68c42	-0.08132221
146	0x3d081476	0.033222638
147	0xbd3ffa32	-0.046869464
148	0xbd96fb14	-0.07372108
149	0x3e397860	0.18112326
150	0xbe1a696f	-0.15079282
151	0x3d200da6	0.039075516
152	0x3dcdc992	0.10048212
153	0x3cb88bf9	0.022527682
154	0x3d9af2ae	0.07565819
155	0x3dc3881c	0.09547445
156	0x3d239640	0.03993821
157	0x3cd8e300	0.02647543
158	0x3c0ff1ef	0.008785709
159	0xbcb23b9a	-0.021756936
160	0x3d8808e0	0.06642318
161	0xbd7a0817	-0.06104287
162	0xbd4724f7	-0.048619237
163	0xbe12032e	-0.14259025
164	0x3cdc2297	0.026871962
165	0x3e44930f	0.19196723
166	0xbdaca2a7	-0.08429461
167	0xbd3876d2	-0.04503519
168	0xbd08d75f	-0.03340852
169	0xbd393e64	-0.045225516
170	0x3d9faae7	0.07796269
171	0x3e4cd745	0.20003994
172	0x3d9fc6ac	0.078015655
173	0x3d068eac	0.032850906
174	0xbcd2cf90	-0.02573374
175	0xbdae6a23	-0.08516338
176	0x3df7d5e5	0.12101344
177	0x3df676bf	0.12034368
178	0x3d3dc4fc	0.046330437
179	0xbd7b058a	-0.06128458
180	0xbd5a5595	-0.053304274
181	0xbcad507c	-0.021156542
182	0xbd8ca982	-0.068682685
183	0xbcd1e518	-0.025621936
184	0x3d8a1875	0.06742946
185	0x3dc66d8f	0.096888654
186	0xbe24fdfa	-0.1611251
187	0x3cc6a1a6	0.024247002
188	0x3cb5c625	0.02218921
189	0x3d1b7aa2	0.03795875
190	0x3dd8df7d	0.10589502
191	0xbdbd9b66	-0.092581555
192	0xbe587c0e	-0.21141073
193	0x3ccbeb29	0.024892407
194	0x3e1ef89d	0.15524526
195	0xbc8075b5	-0.015681127
196	0x3e447e9e	0.19188926
197	0xbd5e1845	-0.054222364
198	0xbdc2b8fb	-0.095079385
199	0xbe06a245	-0.13147838
200	0x3c69c383	0.014267805
201	0x3d5b517b	0.053544503
202	0x3ea23642	0.3168202
203	0xbdc634eb	-0.09678062
204	0x3dbac6a1	0.09119917
205	0xbdd0a695	-0.10188023
206	0xbd3c8c5f	-0.046032306
207	0xbe2c213b	-0.16809551
208	0xbd2c4c44	-0.04206492
209	0xbc47e82c	-0.01220135
210	0xbdb5b670	-0.08872688
211	0x3dbfe1aa	0.09369214
212	0x3dcc4d18	0.09975642
213	0xbe0fad34	-0.14030915
214	0xbd624af9	-0.05524728
215	0xba7bf686	-0.0009611625
216	0x3d65b9b4	0.056085303
217	0x3c8eca71	0.017430516
218	0x3db6f131	0.08932722
219	0x3dbb47e1	0.09144569
220	0x3db3d5ad	0.0878099
221	0x3e153117	0.14569508
222	0xbd2f1260	-0.042742133
223	0x3dad2884	0.08454993
224	0x3d90fc6a	0.07079394
225	0xbc5add87	-0.01335848
226	0xbdbdf8c4	-0.09275964
227	0xbe0c49b5	-0.13699992
228	0x3e790d7e	0.24321553
229	0xbd0e827c	-0.03479241
230	0xbe54a201	-0.20764925
231	0xbcebcd85	-0.028784523
232	0x3dc0c9d9	0.094134994
233	0xbcce750d	-0.025202299
234	0xbc44c105	-0.01200891
235	0x3b6483eb	0.0034868668
236	0x3d5f5cc2	0.05453182
237	0xbe00df84	-0.12585264
238	0xbe5d3336	-0.21601567
239	0xbde5ed51	-0.11226905
240	0xbd3fe005	-0.0468445
241	0x3e00d841	0.12582494
242	0x3deaa4ab	0.11457189
243	0x3da97740	0.08274698
244	0xbbaf204d	-0.0053444267
245	0x3e150928	0.14554274
246	0xbd999402	-0.074989334
247	0x3d6db021	0.058029298
248	0xbd916ffa	-0.07101436
249	0xbcc2884a	-0.023746628
250	0xbdf86b4c	-0.1212984
251	0xbcd7b0ce	-0.026329424
252	0x3d9454a5	0.07242707
253	0x3d166bf7	0.036724057
254	0x3dfe6117	0.12420862
255	0xbd39d930	-0.04537314

lstm.weight_hh_l1 f4 [256, 64]
0	0xbdfc14cc	-0.12308654
1	0x3ca036d5	0.019557396
2	0x3cad285e	0.021137413
3	0x3d45c27d	0.04828118
4	0x3e85597f	0.26044843
5	0x3dba5e7e	0.09100054
6	0x3d2d7d8a	0.04235605
7	0xbdff0217	-0.124515705
8	0xbe3e28c6	-0.18570241
9	0x3c11caae	0.00889842
10	0x3e750623	0.23928122
11	0xbd7cb9ba	-0.06170056
12	0x3c764fbd	0.0150336595
13	0x3bf95f59	0.0076102433
14	0x3dff0743	0.12452557
15	0xbc9d95b5	-0.019236425
16	0x3e3ff4f8	0.18745792
17	0x3d0c01f0	0.034181535
18	0x3e34f5ca	0.17671886
19	0xbd260723	-0.04053415
20	0x3d924af9	0.07143206
21	0x3d0c0ce2	0.034191974
22	0xbb4bd98b	-0.0031105008
23	0x3e5274aa	0.20552316
24	0xbdcebda7	-0.10094767
25	0xbd921058	-0.071320236
26	0x3c0cb90c	0.0085890405
27	0x3e8bef2c	0.2733091
28	0x3e8a464f	0.27006766
29	0xbdd56270	-0.10419166
30	0xbe5e7b18	-0.21726644
31	0xbdef001b	-0.11669942
32	0x3e764d2d	0.24052878
33	0xbde7a6b9	-0.11311097
34	0x3e087498	0.13325727
35	0xbd7f4847	-0.06232479
36	0x3daa8a6a	0.08327182
37	0xbe23832a	-0.15968004
38	0xbda15129	-0.07876808
39	0xbd2b9c79	-0.04189727
40	0xbe571e0c	-0.21007556
41	0x3c9a531b	0.018838456
42	0x3de3054d	0.110849954
43	0x3e53ceee	0.20684406
44	0xbdee51b2	-0.11636676
45	0xbd23f27b	-0.04002617
46	0x3cceb6bc	0.025233619
47	0xbd9638f5	-0.073350824
48	0x3d53b25c	0.05168377
49	0x3d1fe307	0.03903487
50	0xbd0447a1	-0.032294873
51	0xbe570b5a	-0.21000424
52	0x3d7b9f90	0.061431468
53	0xbaeb4732	-0.0017950295
54	0x3cf3d4f7	0.029764635
55	0x3e54691e	0.20743224
56	0xbe2919dc	-0.16513771
57	0xbde14d89	-0.11001117
58	0x3e04afb2	0.12957647
59	0xbd033223	-0.032030236
60	0xbdab98a6	-0.08378725
61	0xbba303c9	-0.0049748165
62	0x3b078d60	0.0020683631
63	0x3c70d60a	0.014699468
64	0x3db5f6f4	0.08884993
65	0x3cfc3b45	0.03078998
66	0xbe53f082	-0.20697215
67	0x3d02e977	0.03196093
68	0xbdb7039b	-0.089362346
69	0xbd27d66c	-0.040975973
70	0x3de37e24	0.11108044
71	0x3d62a067	0.055328753
72	0xbe9ce8c3	-0.30646333
73	0xbcaff838	-0.021480665
74	0x3d0d4594	0.034490183
75	0xbe253874	-0.16134816
76	0x3da7b924	0.0818961
77	0x3e9043bd	0.2817668
78	0x3eb154e2	0.34635073
79	0xbc69eef3	-0.014278161
80	0x3d04b86f	0.032402452
81	0x3e3b63a6	0.18299732
82	0x3d8f0c46	0.06984763
83	0xbc53a3c3	-0.012917462
84	0x3e7faea3	0.24968962
85	0x3e61fe74	0.22069722
86	0xbc4a357e	-0.012341855
87	0xbe156d50	-0.1459248
88	0x3e478b7f	0.19486807
89	0xbe5a6072	-0.21325853
90	0x3d2bbe52	0.04192955
91	0x3e2dddc4	0.16979128
92	0x3e85c65a	0.26127893
93	0xbd2f5e38	-0.042814463
94	0xbe4ce2ab	-0.20008342
95	0x3e31c254	0.17359287
96	0xbdc43233	-0.09579887
97	0x3d3fb831	0.046806518
98	0x3d6a156e	0.057149343
99	0xbd5ee7df	-0.05442035
100	0xbe20da82	-0.15708354
101	0xbdfc54a8	-0.123208344
102	0x3d8e5d8c	0.069514364
103	0xbcfedd96	-0.03111152
104	0x3e1d1c5f	0.15342854
105	0x3e869c58	0.26291156
106	0xbe81343c	-0.25235164
107	0x3e17c132	0.14819792
108	0xbd97fc0a	-0.074211195
109	0xbe392d94	-0.18083793
110	0x3dac5c99	0.08416099
111	0xbcc3a64c	-0.023883007
112	0x3e4e72f0	0.20161033
113	0xbd8f3e81	-0.069943435
114	0x3e4c43a1	0.19947673
115	0x3ccd7735	0.025081256
116	0xbdfe1278	-0.124058664
117	0xbd94feb1	-0.07275141
118	0xbdc23eb2	-0.094846144
119	0xbc96dc51	-0.018415602
120	0xbdd9d141	-0.10635615
121	0xbe574151	-0.2102101
122	0x3da31f60	0.07964969
123	0x3d21e397	0.039523687
124	0xbef89a68	-0.48555303
125	0x3d3c1c6a	0.045925535
126	0xbdee03b6	-0.116218016
127	0xbdab59a7	-0.08366709
128	0x3b958238	0.0045626424
129	0x3e632b69	0.22184528
130	0x3df91484	0.12162116
131	0xbc8868bd	-0.016651506
132	0x3d05a6ca	0.032629766
133	0xbdd8d70e	-0.105878934
134	0x3d376358	0.044772476
135	0xbdb45375	-0.08804981
136	0xbce02bed	-0.027364695
137	0x3ddf6c50	0.10909331
138	0xbe01312e	-0.12616417
139	0x3e2daeca	0.16961208
140	0x3e2bf7e6	0.16793784
141	0xbe60f1b2	-0.219672
142	0xbe5826c1	-0.21108533
143	0xbe255752	-0.16146591
144	0xbe4e4e7e	-0.2014713
145	0x3cd2f1db	0.025750091
146	0x3eb3c5a6	0.3511173
147	0xbd15cbaa	-0.036571182
148	0x3ea66cdd	0.3250493
149	0xbdcd15f0	-0.1001395
150	0xbe01a17f	-0.12659262
151	0xbc9076db	-0.0176348
152	0xbd2dacc3	-0.042401087
153	0xbed2219d	-0.4104127
154	0x3e118f7b	0.1421489
155	0x3cfc29c6	0.030781638
156	0xbd74c782	-0.059760578
157	0x3e2becfb	0.1678962
158	0x3bdc72b4	0.006727541
159	0x3dc110f4	0.09427062
160	0x3c71f126	0.014766967
161	0xbdcbdfd6	-0.09954803
162	0xbe761e4a	-0.24034992
163	0x3d2f435c	0.04278885
164	0xbeb8a7fd	-0.36065665
165	0xbe83be9f	-0.2573137
166	0xbdf4c274	-0.119511515
167	0x39dca83a	0.00042087008
168	0xbdb60317	-0.08887308
169	0x3c0ca196	0.008583447
170	0xbd7b54ab	-0.061360043
171	0x3e8ff86f	0.28119227
172	0xbc591859	-0.013250434
173	0xbe7037bf	-0.23458765
174	0xbcfb70e9	-0.030693488
175	0x3e0538a3	0.13009886
176	0xbdfb6faf	-0.12277161
177	0xbe1fa819	-0.15591468
178	0x3d8621e8	0.06549436
179	0x3e1ae7fe	0.1512756
180	0x3ca3835c	0.019960098
181	0xbe21b1ca	-0.15790477
182	0xbe1b889e	-0.15188834
183	0xbd860504	-0.065439254
184	0x3e6df469	0.23237766
185	0xbbcc2896	-0.006230424
186	0xbc60de2c	-0.013724845
187	0xbda944cb	-0.08265074
188	0x3de639f0	0.112415195
189	0x3e1660c8	0.14685357
190	0xbc8d97b0	-0.017284244
191	0xbe1ed174	-0.15509588
192	0x3e0ee869	0.13955845
193	0x3e35feb3	0.17772941
194	0xbdd17653	-0.10227647
195	0x3d9e0c44	0.07717183
196	0x3dd1d3b6	0.10245459
197	0xbccb9e3f	-0.024855731
198	0xbdca5cf5	-0.098810114
199	0x3d1d253d	0.03836559
200	0xbe33b242	-0.17548469
201	0x3d191d12	0.03738124
202	0xbdab49ac	-0.08363661
203	0xbdbb458e	-0.09144126
204	0x3c398075	0.01132213
205	0xbd323332	-0.043505855
206	0xbd9904f6	-0.07471649
207	0xbe081711	-0.13290049
208	0xbd7a8168	-0.061158568
209	0x3d2f1bb9	0.042751048
210	0x3c868376	0.016420107
211	0xbe3493c3	-0.17634492
212	0x3c92c1c5	0.017914662
213	0x3e5f9e75	0.2183779
214	0x3db71298	0.08939093
215	0xbd3350d6	-0.043778263
216	0xbdb84426	-0.08997373
217	0x3d8d9492	0.06913103
218	0xbe186fc0	-0.14886379
219	0xbdf1cb0d	-0.11806307
220	0xbc43093a	-0.011904055
221	0xbacd2cdc	-0.0015653628
222	0xbdb8ca9d	-0.090230204
223	0x3d8b0fec	0.06790146
224	0xbcb7c4b0	-0.022432655
225	0x3df45a88	0.1193133
226	0xbe29e5e1	-0.16591598
227	0x3dbda93a	0.09260793
228	0xbddb997b	-0.107226335
229	0xbe368809	-0.17825331
230	0x3d8c9dc4	0.06866029
231	0x3b1e11a7	0.0024119408
232	0x3d9a32f4	0.0752925
233	0xbd51bd3e	-0.051205866
234	0x3dac2cbf	0.08406972
235	0x3c924f74	0.017860152
236	0xbdfacab1	-0.122456916
237	0x3dab07ea	0.08351119
238	0x3bc63518	0.0060488097
239	0x3e024b15	0.12723954
240	0x3d40f9a9	0.047113094
241	0x3db9348b	0.09043225
242	0x3d3ae532	0.045628734
243	0xbd97cd87	-0.07412248
244	0xbc9ebf8e	-0.01937845
245	0xbd8c36b4	-0.06846371
246	0x3de01464	0.10941389
247	0x3df5361d	0.11973212
248	0xbd11b610	-0.03557402
249	0x3c888391	0.016664298
250	0x3d4ebee6	0.050475024
251	0xbe25c674	-0.16188985
252	0x3c8083fc	0.015687935
253	0x3cf3e92e	0.029774275
254	0x3d100dcb	0.035169404
255	0xbd989b14	-0.07451454

lstm.bias_ih_l1 f4 [256]
0	0x3d01f700	0.0317297
1	0x3e1074fc	0.14107126
2	0x3dc93d71	0.09826172
3	0x3c1a160c	0.00940467
4	0x3db312ff	0.087438576
5	0x3dda3ba2	0.10655905
6	0xbc0a63a2	-0.008446606
7	0x3dd84c54	0.105614334
8	0xbd66c107	-0.05633643
9	0x3d63206c	0.05545084
10	0x3d6bfbb2	0.057613082
11	0x3ddc3c9f	0.1075375
12	0x3c8fd267	0.017556382
13	0x3c5e7650	0.013578013
14	0x3e0f16be	0.13973519
15	0xbc6f7563	-0.0146153895
16	0xbd5a8cb8	-0.053356856
17	0x3e136c9b	0.14396898
18	0xbd90ae7e	-0.07064532
19	0xbc782264	-0.015144918
20	0x3e3bb9e6	0.18332633
21	0x3e22e73b	0.1590852
22	0xbd389cd5	-0.04507144
23	0x3d2bedbf	0.04197478
24	0x3dd78d87	0.10525041
25	0x3dae4e28	0.08511001
26	0x3de8f586	0.11374955
27	0x3dc59b8d	0.096488096
28	0x3ce92732	0.028461073
29	0x3e3b262b	0.18276279
30	0x3d6c0ffa	0.057632424
31	0x3e547f47	0.20751677
32	0x3e1bb5cb	0.15206067
33	0xbcafd906	-0.02146579
34	0x3e780e69	0.24224247
35	0xbd22d660	-0.039755225
36	0xbe0bb869	-0.13644566
37	0x3dc6820e	0.09692775
38	0xbc79d5e6	-0.015248751
39	0x3d278474	0.0408978
40	0x3c31685e	0.010828106
41	0x3d6db70a	0.058035888
42	0x3ccc4014	0.024932899
43	0xbd34bd8d	-0.044126082
44	0xbc54562f	-0.012960001
45	0xbd6304b7	-0.05542442
46	0x3db49c6b	0.08818897
47	0x3d72d0da	0.059281208
48	0xbd6d421f	-0.057924386
49	0x3e0d566a	0.13802496
50	0xbd4cbbbc	-0.049983725
51	0xbd956754	-0.07295099
52	0x3ca8aea6	0.020591091
53	0x3d8ebaa8	0.069691956
54	0x3e3f2a92	0.18668583
55	0x3ca62214	0.020279922
56	0xbd9e3573	-0.077250384
57	0x3d1bc02d	0.03802507
58	0x3c5d9380	0.013523936
59	0x3d536ff5	0.051620442
60	0x3d6ed193	0.058305334
61	0xbcdd5553	-0.027018225
62	0x3e469bc3	0.19395356
63	0xbce9cca1	-0.028539957
64	0xbc51089e	-0.012758402
65	0x3d58cfc9	0.052932534
66	0x3da3b0fc	0.079927415
67	0x3e15cfbd	0.14630027
68	0x3d58132c	0.05275266
69	0x3b9791cd	0.004625535
70	0xbd03db38	-0.032191485
71	0x3de34667	0.110974126
72	0x3df9202d	0.1216434
73	0xbe05c65e	-0.13063952
74	0x3d8b470d	0.06800661
75	0x3da74bb6	0.081687376
76	0x3baa185a	0.005190891
77	0xbdf8ec49	-0.12154443
78	0xbd9cee87	-0.07662683
79	0x3df9b9af	0.121936195
80	0x3e13e035	0.14440997
81	0xbd9ce318	-0.07660502
82	0x3dc959f9	0.09831614
83	0x3cced4e2	0.025247995
84	0xbcb70c9a	-0.022344876
85	0x3d6b9e40	0.057523966
86	0xbdcda09b	-0.10040399
87	0xbd14dd35	-0.036343772
88	0x3c8ee410	0.017442733
89	0xbca93161	-0.020653429
90	0xbdcc0363	-0.099615835
91	0x3e1a2572	0.15053347
92	0xbdbae782	-0.09126188
93	0x3e00ae5c	0.12566513
94	0x3d3d322d	0.04619043
95	0xbc19f1c1	-0.0093960175
96	0x3dcf3546	0.10117583
97	0x3e02e258	0.12781656
98	0xbe1fc359	-0.15601863
99	0xbc8b5869	-0.01700993
100	0x3e263d89	0.16234411
101	0x3abce9d6	0.001441295
102	0xbdd7b410	-0.10532391
103	0xbd3ee65b	-0.046606403
104	0xbdda6238	-0.10663265
105	0x3df4ddd7	0.11956375
106	0xbd29807f	-0.04138231
107	0xbda60c5c	-0.08107826
108	0x3d2ebedf	0.042662498
109	0x3e048530	0.12941432
110	0x3c07bf90	0.008285418
111	0x3d1f0b58	0.038829178
112	0xbd32b371	-0.04362816
113	0x3dfbe44a	0.12299402
114	0xbd5633af	-0.052295383
115	0x3b94555d	0.0045267777
116	0x3d78a0ed	0.060700346
117	0x3d9fa38a	0.077948645
118	0xbcfb9ae3	-0.030713504
119	0x3c1825dc	0.00928637
120	0xbb4012c0	-0.002930805
121	0x3dc13217	0.09433382
122	0x3df98b6e	0.12184797
123	0x3d870afa	0.065938905
124	0xbe520331	-0.2050903
125	0xbd673938	-0.056451052
126	0xbd2711ff	-0.040788647
127	0xbdc57e68	-0.09643251
128	0x3d6c559b	0.057698827
129	0xbdc7a89a	-0.09748955
130	0x3d959d3f	0.07305383
131	0x3d099ff3	0.033599805
132	0x3c208823	0.0097980825
133	0x3cd89b3b	0.026441207
134	0x3caa6024	0.020797797
135	0x3d943950	0.07237494
136	0xbdf7c6dd	-0.12098477
137	0x3dfb2fe3	0.12264993
138	0x3db2c788	0.08729464
139	0xbdc09856	-0.09404056
140	0x3db975df	0.09055685
141	0xbdc89de5	-0.09795741
142	0x3d7488ef	0.059700903
143	0x3ca48a0e	0.02008536
144	0x3cef07ca	0.029178519
145	0x3db57f57	0.08862179
146	0x3d41f50b	0.04735283
147	0xbcf6616e	-0.030075755
148	0xbdb36bfc	-0.08760831
149	0x3e0823e2	0.13294938
150	0xbd53b3b1	-0.05168504
151	0x3d24f645	0.040273923
152	0x3e046452	0.12928894
153	0xbd8e3781	-0.0694418
154	0xbdb14879	-0.08656401
155	0xbd365de8	-0.04452315
156	0x3ca244ec	0.019808255
157	0x3da36379	0.07977957
158	0xbda4d343	-0.080481075
159	0x3dcd52e5	0.100255765
160	0x3c38249a	0.011239195
161	0x3da694ad	0.081338264
162	0xbd1dfdf7	-0.038572278
163	0xbda6678c	-0.08125219
164	0x3c6e735f	0.014553874
165	0xbd7e329b	-0.06205998
166	0x3e0b26a4	0.13588959
167	0x3a305b5f	0.00067274825
168	0xbd40c2f0	-0.047060907
169	0x3db7dfaf	0.08978211
170	0x3d09ed6f	0.0336737
171	0x3ddf35f9	0.10898966
172	0xbdd2d69b	-0.10294839
173	0x3dabc8a3	0.08387878
174	0x3e0d20d0	0.13782048
175	0xbd594285	-0.053041954
176	0x3c37282d	0.011179012
177	0x3de09530	0.10965955
178	0xbdd4b20f	-0.103855245
179	0xbdbc9825	-0.09208707
180	0x3d92981a	0.07157917
181	0xbc328f8d	-0.010898483
182	0xbd844ce0	-0.06459975
183	0xbd51996f	-0.051171716
184	0x3db55fe3	0.088561796
185	0x3d3f4fe5	0.046707053
186	0x3d2d9c29	0.042385254
187	0xbd6f88d0	-0.058480084
188	0x3da76451	0.08173431
189	0xbdcf43af	-0.101203315
190	0x3db78f01	0.08962823
191	0xbd207f02	-0.039183624
192	0x3e03b5c9	0.12862314
193	0xbcd4a728	-0.025958613
194	0xbc488c9a	-0.012240553
195	0xbdde9158	-0.10867566
196	0x3cd85aa7	0.026410414
197	0x3db50487	0.08838754
198	0x3dee2de2	0.11629845
199	0xbc5f23d2	-0.01361938
200	0xbb8ca780	-0.0042924285
201	0xbd1c9951	-0.03823215
202	0x3dc0c2f2	0.09412183
203	0x3e0d2a4a	0.13785663
204	0x3dde044f	0.108406655
205	0xbdae9ac1	-0.08525611
206	0x3d3d2982	0.046182163
207	0x3d8bd269	0.06827242
208	0x3df71a0b	0.12065514
209	0x3b576207	0.0032864825
210	0x3dcea702	0.10090448
211	0xbd079aec	-0.03310673
212	0x3e2ec0b5	0.170657
213	0x3cc74272	0.024323676
214	0x3da4045a	0.080086425
215	0x3e0f4d42	0.13994315
216	0xbc8acca5	-0.016943285
217	0x3db2fa9f	0.087392084
218	0x3d98c2b5	0.074590124
219	0x3d751447	0.05983379
220	0xba2e82a3	-0.00066570396
221	0xbd15f43b	-0.03660987
222	0xbd186749	-0.037207875
223	0x3dc39131	0.095491774
224	0xbd671b60	-0.05642259
225	0xbdb08c09	-0.086204596
226	0xbcb9f2f0	-0.02269885
227	0xbd9bb041	-0.07601977
228	0x3d297df1	0.041379873
229	0x3d2375d5	0.039907295
230	0x3e050126	0.1298872
231	0xbbec54f4	-0.0072122756
232	0x3ca68dcf	0.020331291
233	0x3dd2f347	0.10300308
234	0x3dbe8d0d	0.09304247
235	0xbcabdd53	-0.020979559
236	0x3cebfb3f	0.028806327
237	0xbd8e2f2e	-0.069425926
238	0x3b96b718	0.004599463
239	0x3d51ba81	0.051203255
240	0x3dc442e4	0.09583071
241	0x3d2a33c3	0.04155327
242	0xbde95155	-0.11392466
243	0x3cd6c08b	0.026214859
244	0xbd48899c	-0.04895936
245	0xbd1500a3	-0.03637756
246	0x3d923910	0.0713979
247	0x3db03a28	0.086048424
248	0x3da6f4b5	0.08152143
249	0x3e2a27ed	0.16616793
250	0xbd6a92e7	-0.057269003
251	0x3c1f6b52	0.009730177
252	0x3bd00142	0.006347806
253	0xbd73adf9	-0.059492085
254	0xbce68933	-0.028141594
255	0x3e23faaa	0.1601359
