output/LSTM2CNN/LSTM2CNN_adam_128_500/model/LSTM2CNN_epoch_300.pth (torch, 350402 bytes, 16 tensors)

lstm.weight_ih_l0 f4 [256, 10]
0	0x3e10fe29	0.14159454
1	0x3e68d36f	0.22736906
2	0x3e2c51dc	0.16828102
3	0xbc4a118a	-0.012333283
4	0xbe15d6ac	-0.14632672
5	0x3e58d425	0.21174677
6	0x3ebf00a0	0.37305164
7	0xbe043b56	-0.1291326
8	0xbc43eddf	-0.011958568
9	0xbe34c45c	-0.1765303
10	0xbc708fd5	-0.01468273
11	0x3dfdf64b	0.12400492
12	0x3d9a23bb	0.07526346
13	0x3da699f2	0.081348315
14	0xbe11316d	-0.1417901
15	0x3d52aab9	0.051432345
16	0x3d9ff094	0.078095585
17	0xbd9b91f8	-0.07596201
18	0xbe268d1b	-0.16264765
19	0xbd77b04f	-0.060470875
20	0xbe3be2eb	-0.18348281
21	0x3c453e69	0.0120388055
22	0xbe02c014	-0.12768584
23	0xbda788d2	-0.08180393
24	0x3ba718e8	0.0050994046
25	0xbd8cc18c	-0.06872854
26	0xbb6574fe	-0.003501236
27	0xbe44155e	-0.19148776
28	0xbe2ddfd6	-0.16979918
29	0xbe192ab3	-0.14957695
30	0xbcd99f53	-0.02656523
31	0xbe338500	-0.17531204
32	0x3d7f78f3	0.062371206
33	0xbcaf1672	-0.021373007
34	0xbe50c649	-0.2038814
35	0xbd5eedf2	-0.05442614
36	0x3dea5231	0.11441458
37	0xbe48874a	-0.19582859
38	0x3c972675	0.018450955
39	0x3d96917e	0.07351969
40	0xbd0ca10c	-0.034333274
41	0x3e0cc6e9	0.13747753
42	0x3dfbbe43	0.12292149
43	0x3de1fa25	0.110340394
44	0xbd06b1b9	-0.032884333
45	0x3e46c3d3	0.19410639
46	0xbd2dcd92	-0.042432375
47	0x3d0fb142	0.035081156
48	0xbb9218b4	-0.0044585112
49	0xbd605f3e	-0.05477833
50	0x3d51c16a	0.051209845
51	0xbd2d5ef4	-0.042326882
52	0x3d3c2c8c	0.04594092
53	0xbdfc326e	-0.12314306
54	0x3acb0073	0.0015487805
55	0xbe24317f	-0.16034506
56	0xbe259941	-0.16171743
57	0x3e226df2	0.15862253
58	0x3ada1408	0.001663805
59	0xbde8e2ad	-0.1137136
60	0xbd4bdefc	-0.0497732
61	0xbd81d473	-0.063393496
62	0xbd9ea2fd	-0.07745931
63	0x3c6c9121	0.014438898
64	0x3e2c1c23	0.16807608
65	0xbe22a0ad	-0.15881605
66	0xbda10962	-0.07863118
67	0x3e3b1b28	0.18272078
68	0x3e26dac5	0.16294391
69	0x3d018189	0.031617675
70	0x3d81e7b6	0.063430235
71	0x3e1f0990	0.15530992
72	0x3d1fe241	0.039034132
73	0xbe0c382a	-0.136933
74	0xbd5bf92b	-0.053704422
75	0x3d93cd0b	0.07216843
76	0x3dd0b501	0.10190774
77	0xbdbb6284	-0.0914965
78	0xbda6ce31	-0.08144797
79	0xbd8c00c1	-0.06836081
80	0xbe0442ff	-0.12916182
81	0xbd479e69	-0.048735056
82	0x3cd8f856	0.026485603
83	0xbd8c2e5d	-0.068447806
84	0xbe0b5b3d	-0.13609023
85	0xbab0f833	-0.0013501704
86	0x3dabe82a	0.08393891
87	0xbcb32a99	-0.021870898
88	0xbd646dd1	-0.05576879
89	0xbd0345fd	-0.032049168
90	0xbc13ea63	-0.00902805
91	0xbdabe72b	-0.08393701
92	0xbddcdb65	-0.10784034
93	0xbd2a3103	-0.041550647
94	0x3cb43956	0.021999996
95	0xbd57e82a	-0.052711643
96	0xbd8990d4	-0.06717077
97	0x3e097ef2	0.13427332
98	0x3e41fa6f	0.18943189
99	0x3e79f7bb	0.24410908
100	0x3da6d473	0.0814599
101	0xbe444287	-0.19166003
102	0xbde94c0d	-0.11391459
103	0x3e371b17	0.17881428
104	0xbe360035	-0.17773516
105	0xbc09f73c	-0.008420762
106	0xbc39dcd2	-0.011344152
107	0xbe634ebf	-0.22198008
108	0x3dca8aac	0.09889731
109	0x3e7e2270	0.24817824
110	0xbccbc639	-0.024874793
111	0xbe568a72	-0.2095125
112	0xbd91724a	-0.07101877
113	0x3dfb4709	0.12269408
114	0xbd0297f1	-0.031883184
115	0x3c9e23ec	0.019304238
116	0x3cd718ca	0.026256938
117	0x3e2552f4	0.16144925
118	0x3e2b15a7	0.16707478
119	0x3e669171	0.22516419
120	0xbb50006e	-0.0031738537
121	0xbe3f7f67	-0.18700944
122	0xbcf432b8	-0.02980934
123	0x3cda559c	0.02665215
124	0x3d6257cc	0.05525951
125	0xbdba6f4c	-0.091032594
126	0xbe3b4874	-0.18289357
127	0x3e55d950	0.2088368
128	0x3e6db7b1	0.23214604
129	0x3dbdfa6c	0.0927628
130	0xbda589d4	-0.08082929
131	0x3d1e885f	0.038704272
132	0xbdcd5394	-0.10025707
133	0x3ce7c993	0.02829436
134	0xbc03d7cf	-0.008047058
135	0xbd832f9a	-0.06405564
136	0x3e849d07	0.25901052
137	0xbe0a344d	-0.13496514
138	0xbd5dbee3	-0.054137122
139	0xbdd63a26	-0.1046031
140	0xbd059ff5	-0.03262325
141	0x3ddcb588	0.10776812
142	0x3d888470	0.066658854
143	0x3cd7e424	0.026353903
144	0xbdd7f6c1	-0.105451114
145	0x3e29a3c4	0.16566378
146	0x3e3c4b0e	0.18388006
147	0xbda6a508	-0.08136946
148	0xbce65ca8	-0.028120354
149	0xbe2b3449	-0.16719164
150	0xbd3c8049	-0.04602078
151	0x3d8bdd87	0.06829362
152	0xbe151bc8	-0.14561379
153	0x3d9a5888	0.07536417
154	0x3e1b69d5	0.1517709
155	0xbe3bb235	-0.183297
156	0xbe8d48ed	-0.275947
157	0x3ca690bc	0.020332687
158	0x3e60340e	0.21894857
159	0xbacbc0a2	-0.001554508
160	0xbd85093c	-0.06495902
161	0x3dab3efd	0.083616234
162	0x3dd193a6	0.1023324
163	0x3ce73f7f	0.02822852
164	0x3cbef092	0.023308072
165	0xbcb7a853	-0.02241913
166	0xbc51cafc	-0.012804743
167	0x3e3e43e9	0.18580593
168	0x3d5693dc	0.052387103
169	0xbcf0e52f	-0.029406158
170	0x3d620202	0.055177696
171	0x3cb06583	0.02153278
172	0x3dc1c894	0.09462085
173	0x3e083090	0.13299775
174	0x3c99ea9c	0.018788628
175	0xbddf5611	-0.10905088
176	0xbdc637c4	-0.09678605
177	0x3c50c5b4	0.012742449
178	0x3b33b05a	0.0027418346
179	0x3d737461	0.05943716
180	0x3d008ef1	0.03138632
181	0x3e0594b3	0.13045006
182	0xbdb8d471	-0.09024895
183	0xbd7c73c2	-0.061633833
184	0x3d995749	0.074873514
185	0xbd48d5f0	-0.04903215
186	0xbd791016	-0.060806356
187	0xbdb1f404	-0.086891204
188	0x3bb88ace	0.005631781
189	0x3db0dcca	0.08635862
190	0xbe01f748	-0.12691987
191	0xbe4deb08	-0.20109189
192	0xbe06c42c	-0.13160771
193	0xbeb7c16a	-0.3588975
194	0x3e3c31c6	0.18378362
195	0xbecc7446	-0.3993246
196	0xbea04dc5	-0.31309333
197	0x3e7156a1	0.23568203
198	0x3e6b40da	0.22973958
199	0x3e8e4358	0.27785754
200	0x3e1db884	0.15402418
201	0x3dd3d25a	0.10342856
202	0x3da90243	0.082523845
203	0xbd9eea4b	-0.077595316
204	0x3df656e7	0.12028294
205	0x3dd4d02e	0.103912696
206	0x3c95d5c0	0.0182904
207	0x3dbb3d24	0.09142521
208	0x3e2b16a0	0.1670785
209	0x3d2b2443	0.04178263
210	0x3cc32f8b	0.023826381
211	0xbe63340f	-0.22187828
212	0x3dece356	0.115667984
213	0xbd083222	-0.033250935
214	0x3e4a96ed	0.19784136
215	0x3be539c0	0.0069954097
216	0xbdfde4d2	-0.1239716
217	0x3e1fc60c	0.15602893
218	0x3dbf404c	0.093384355
219	0x3e813090	0.25232363
220	0x3e15e274	0.14637166
221	0x3d055b7c	0.03255795
222	0x3e00ec44	0.12590128
223	0x3e04a876	0.12954888
224	0xbc89340a	-0.016748447
225	0xbcf1aa06	-0.029500019
226	0x3d49c847	0.049263265
227	0x3d1212aa	0.03566233
228	0xbd6eee72	-0.058332868
229	0x3e322b4d	0.1739933
230	0x3df63249	0.1202131
231	0x3d8ce70b	0.068800054
232	0x3d875509	0.06608016
233	0xbb1d3332	-0.0023986814
234	0xbd4758e0	-0.048668742
235	0x3e6fb75c	0.2340979
236	0x3e267691	0.16256167
237	0xbde04377	-0.10950368
238	0xbe0a5e79	-0.13512601
239	0x3c612622	0.013742002
240	0x3dcc6f19	0.09982128
241	0x3d88f278	0.06686872
242	0x3d0a975c	0.033835754
243	0xbc8d12d6	-0.017220896
244	0x3cfebc0c	0.031095527
245	0xbd873bbb	-0.066031896
246	0xbe838d63	-0.25693807
247	0x3e877acf	0.26460883
248	0x3d87cbdb	0.06630679
249	0x3dbefb49	0.093252726
250	0x3e07a066	0.13244781
251	0x3da1bbe4	0.078971654
252	0x3db974a2	0.09055449
253	0x3ebbc7cf	0.3667588
254	0x3daff070	0.08590782
255	0x3db63d56	0.08898418

lstm.weight_hh_l0 f4 [256, 64]
0	0x3df2abff	0.11849212
1	0x3c055e23	0.00814012
2	0xbdcfb0bd	-0.10141132
3	0xbc8dadc1	-0.017294766
4	0xbdaabfae	-0.08337341
5	0x3d6541cb	0.05597095
6	0xbdde2712	-0.10847296
7	0xbd8ddb30	-0.06926572
8	0x3de6aa21	0.11262918
9	0x3bd52d3c	0.0065056365
10	0xbe48fa53	-0.19626741
11	0xbd8d8771	-0.06910599
12	0x3df287d0	0.118423104
13	0x3e52c756	0.20583853
14	0xbd9eed55	-0.07760111
15	0xbd8b5024	-0.06802395
16	0x3deda6c8	0.116040766
17	0x3cdfe87e	0.02733254
18	0xbd49e790	-0.0492931
19	0xbe14fa82	-0.14548686
20	0xbc4f4290	-0.012650147
21	0xbda97605	-0.082744636
22	0xbd2478ef	-0.040154394
23	0x3e2ce52b	0.16884296
24	0x3e05fc9c	0.13084644
25	0x3e0d37ae	0.13790771
26	0xbe3c3ebc	-0.18383306
27	0xbe160f95	-0.14654382
28	0xbdbd9513	-0.09256949
29	0xbd9db4d1	-0.077005036
30	0x3d44983f	0.047996756
31	0xbd1dbdd5	-0.038511116
32	0x3e12f4cc	0.14351195
33	0x3c953a08	0.018216148
34	0xbd78d7ee	-0.0607528
35	0xbe3fb8d0	-0.18722844
36	0xbd566a18	-0.052347273
37	0x3d4bc8e5	0.049752135
38	0x3e211aff	0.15732954
39	0x3caf9c5c	0.021436863
40	0xbd835f09	-0.06414611
41	0x3da4f775	0.08055011
42	0x3e2fd29a	0.17170182
43	0x3c0f4c66	0.008746242
44	0x3c6dd680	0.014516473
45	0x3d3a2825	0.04544844
46	0x3d702f0e	0.058638625
47	0xbe3a87a2	-0.18215802
48	0xbd1ef866	-0.03881111
49	0xbddf26da	-0.10896082
50	0xbe71e8ef	-0.23624013
51	0x3d733589	0.059377227
52	0xbd946cc8	-0.07247311
53	0x3e916587	0.28397772
54	0x3c958db5	0.018256048
55	0xbd6d670f	-0.057959612
56	0xbdc528a2	-0.09626891
57	0x3d2d4408	0.042301208
58	0xbd7199c6	-0.05898454
59	0x3d9ef812	0.077621594
60	0xbd70aacb	-0.05875663
61	0xbd8ba6b1	-0.06818903
62	0xbdb8eb6e	-0.0902928
63	0x3e075d6f	0.13219236
64	0x3ccac2db	0.024751117
65	0xbdd8e8ad	-0.105912544
66	0xbe09c1a1	-0.1345277
67	0xbd7ee68d	-0.06223159
68	0xbe065a50	-0.13120389
69	0xbd3ce20f	-0.046114024
70	0x3cd4607a	0.02592491
71	0x3ca59b86	0.02021576
72	0xbd1c47fb	-0.038154583
73	0x3d9f3483	0.07773688
74	0xbe448778	-0.19192302
75	0xbdebc734	-0.11512604
76	0x3d83975d	0.06425355
77	0xbc2679a2	-0.010160835
78	0xbd56860b	-0.052373927
79	0x3c3166ff	0.010827779
80	0x3e2ab91b	0.16672175
81	0x3dc21272	0.094761744
82	0xbe091bb6	-0.13389477
83	0xbda490ff	-0.08035468
84	0x3d1ae065	0.037811656
85	0x3e490954	0.19632465
86	0x3c4e1bb9	0.012579852
87	0x3c0b8dfc	0.008517738
88	0x3e3e7ba2	0.1860185
89	0xbd5beb3e	-0.05369114
90	0x3da96b84	0.0827246
91	0x3de4dcf5	0.11174957
92	0xbd2cbc98	-0.042172045
93	0x3cb82e28	0.022482947
94	0x3d8ed939	0.06975026
95	0x3d244f87	0.040114906
96	0x3d2b8354	0.04187329
97	0x3d1fba7a	0.038996197
98	0xbd4f4bf5	-0.050609548
99	0xbcac31c9	-0.021019833
100	0x3db60958	0.08888501
101	0x3e10da6e	0.14145824
102	0x3c8263ab	0.015916666
103	0xbdd7bf81	-0.10534573
104	0x3d7b56dd	0.061362136
105	0x3c77092c	0.01507787
106	0xbcd8dcdd	-0.026472503
107	0x3dd44dd4	0.10366407
108	0xbdfb3a78	-0.122670114
109	0x3d3ba2b0	0.045809448
110	0xbd8ff031	-0.07028235
111	0xbbc9653a	-0.0061461003
112	0x3d6228f6	0.055214845
113	0xbd674f6b	-0.056472223
114	0xbdf2f4dd	-0.1186311
115	0x3e2f8769	0.17141499
116	0xbe1903e7	-0.14942895
117	0x3d880e15	0.06643311
118	0x3d378750	0.04480678
119	0x3c95a3ad	0.018266523
120	0x3bd2dc62	0.006434963
121	0xbd8abfd8	-0.067748725
122	0x3ba7a87a	0.0051165195
123	0x3de11c8b	0.10991772
124	0xbdf6f870	-0.120591044
125	0xbe241e50	-0.16027188
126	0x3daf4f44	0.085600406
127	0xbd44f65a	-0.0480865
128	0xbd1fbb11	-0.03899676
129	0x3b9383f0	0.004501812
130	0x3d8b6b12	0.068075314
131	0xbdc9f08e	-0.09860335
132	0xbd3edca5	-0.04659714
133	0x3dec2233	0.115299605
134	0xbdc08bff	-0.09401702
135	0xbc1548d4	-0.009111602
136	0x3e13eb80	0.14445305
137	0x3dcd8bc9	0.100364275
138	0x3cce97b4	0.025218822
139	0xbe560425	-0.20900019
140	0xbd35aa31	-0.04435176
141	0xbc677f47	-0.014129466
142	0x3e151a48	0.14560807
143	0xbdfcf91b	-0.123522006
144	0xbd3ef8ab	-0.046623867
145	0x3d136c8d	0.035992194
146	0x3d73d975	0.059533555
147	0xbd9745b4	-0.07386342
148	0x3e256c69	0.16154636
149	0x3daec501	0.08533669
150	0xbe529782	-0.20565608
151	0xbe30f8b2	-0.1728237
152	0x3d9d8919	0.07692165
153	0xbcb74b47	-0.022374762
154	0x3e0f01f1	0.13965584
155	0x3e38d335	0.18049319
156	0x3e2a6e5f	0.16643666
157	0xbde01b96	-0.109427616
158	0x3df62261	0.12018276
159	0xbdf5157e	-0.1196699
160	0x3cb4aceb	0.02205511
161	0xbdceea3c	-0.101032704
162	0xbda21552	-0.07914223
163	0xbcc96cd2	-0.024588022
164	0x3d907fea	0.07055648
165	0xbdc526ac	-0.09626517
166	0x3d0f8d25	0.035046715
167	0xbd3cf15c	-0.046128616
168	0x3e0aafce	0.13543627
169	0x3d51fbe7	0.051265623
170	0xbcfc1573	-0.030771947
171	0xbe2735c1	-0.16329099
172	0x3e184aae	0.14872238
173	0xbced9580	-0.029001951
174	0x3d8a7bf1	0.06761921
175	0x3ca61279	0.02027248
176	0xbe1f8fd5	-0.15582211
177	0x3e67e96f	0.22647642
178	0x3d274d0a	0.040844955
179	0xbe3542fa	-0.17701331
180	0x3e2119e5	0.15732534
181	0xbea89466	-0.3292572
182	0xbde512c9	-0.111852236
183	0xbd135064	-0.03596534
184	0x3e11b3d1	0.14228751
185	0xbd8ad927	-0.067797
186	0x3de7e818	0.11323565
187	0xbd904cc1	-0.0704589
188	0x3e7dad3e	0.24773118
189	0x3ddd77bc	0.10813853
190	0x3e6438f3	0.2228735
191	0xbdb27c19	-0.08715076
192	0x3e1655a5	0.14681108
193	0x3e19b7c4	0.15011507
194	0x3c3fb245	0.011700218
195	0xbd474054	-0.048645332
196	0xbd9b0d16	-0.07570855
197	0xbcf60c7c	-0.03003525
198	0xbc02c3d8	-0.007981263
199	0xbd8beb2b	-0.06831964
200	0x3df45818	0.11930865
201	0x3d59c8f8	0.053170174
202	0x3dd3ed5b	0.10348006
203	0xbdb8139b	-0.089881144
204	0x3d66ef6c	0.056380674
205	0xbe483a83	-0.1955357
206	0xbd8811d9	-0.06644029
207	0x3d6ec1dd	0.05829035
208	0xbddbd54d	-0.10734043
209	0x3e3cb264	0.18427426
210	0xbd431313	-0.047625612
211	0xbd04edbd	-0.032453287
212	0x3d51ba2a	0.05120293
213	0xbcd3fc11	-0.02587703
214	0x3aec76a5	0.001804073
215	0xbd200dcb	-0.039075654
216	0xbd13770a	-0.036002196
217	0xbcdac803	-0.026706701
218	0x3dba0455	0.090828575
219	0xbc3fddec	-0.011710625
220	0x3e024dcf	0.12724994
221	0xbe03b05a	-0.12860242
222	0x37ae94ca	2.0811702e-05
223	0x3df9f4da	0.12204905
224	0xbd8e4b93	-0.069480084
225	0xbd275161	-0.040849093
226	0x3d4f9d41	0.05068708
227	0x3d9def02	0.07711603
228	0xbd53c17b	-0.05169819
229	0x3d09bca0	0.033627152
230	0xbcb2f38f	-0.021844653
231	0xbd739c56	-0.059475265
232	0xbcff9005	-0.031196604
233	0x3e230e11	0.15923335
234	0xbc47e53d	-0.012200651
235	0x3d85f8e5	0.065416135
236	0x3e0680f0	0.13135123
237	0xbccc7e29	-0.024962502
238	0xbd1a111b	-0.03761397
239	0x3cbe814c	0.023255013
240	0xbd371187	-0.04469445
241	0x3e1069e0	0.14102888
242	0x3e0e0295	0.13868172
243	0xbcc4eb9b	-0.024038127
244	0x3cc0c9e3	0.023533767
245	0x3d3377bb	0.043815356
246	0x3c650468	0.013978101
247	0xbcce4357	-0.025178595
248	0x3b14a24a	0.002267974
249	0xbd4677e9	-0.0484542
250	0x3d23b487	0.039967086
251	0xbd97f0a1	-0.07418943
252	0x3d7f8768	0.062384993
253	0xbd225018	-0.039627165
254	0xbd95a921	-0.073076494
255	0x3d5123ce	0.051059537

lstm.bias_ih_l0 f4 [256]
0	0x3e1cf0fb	0.15326302
1	0x3df28b51	0.11842979
2	0x3e348283	0.17627911
3	0xbdad8186	-0.0847197
4	0x3dbbec45	0.09175924
5	0xbdabcecd	-0.083890535
6	0xbcb25790	-0.021770269
7	0x3dd6149f	0.10453152
8	0x3e19de87	0.15026294
9	0x3db28eaa	0.08718617
10	0x3e8afaa5	0.27144352
11	0x3e558cdf	0.2085452
12	0x3d2195b2	0.0394494
13	0x3d7a4992	0.06110532
14	0x3d1b1fbc	0.03787206
15	0x3e0a306b	0.13495032
16	0xbdcb6bba	-0.099326566
17	0x3dc7b28c	0.09750852
18	0x3d0f9c0f	0.03506094
19	0x3e1a8a1b	0.15091746
20	0xbd2ceecb	-0.04221992
21	0x3d91db05	0.07121853
22	0xbd6ffa05	-0.058588047
23	0xbd82c30f	-0.06384861
24	0x3e459d5f	0.19298314
25	0x3e66a887	0.22525226
26	0x3d2c1427	0.042011406
27	0xbc9b2844	-0.018940099
28	0x3ce39d24	0.027784891
29	0x3e2eeef8	0.17083347
30	0xbd4ed9fd	-0.05050086
31	0x3e7a10dd	0.24420495
32	0x3c49963e	0.012303887
33	0xbdb7f4fc	-0.08982274
34	0x3e85a287	0.2610056
35	0x3d07beaa	0.033140816
36	0x3e0d5c80	0.13804817
37	0x3e2792db	0.16364615
38	0x3da3e804	0.08003238
39	0x3da92335	0.08258668
40	0x3e882611	0.26591542
41	0x3da50216	0.080570385
42	0x3d1db8e6	0.03850641
43	0x3db65996	0.08903806
44	0x3e6a5de3	0.22887377
45	0xbd1e2085	-0.03860523
46	0x3d5cdf60	0.053923965
47	0x3dea5d3a	0.11443563
48	0x3df72f09	0.12069518
49	0xbda7bab1	-0.081899054
50	0x3e1aebc1	0.15128995
51	0x3d98b3cf	0.07456171
52	0x3e590343	0.2119265
53	0x3e8bf4b5	0.27335134
54	0x3db37631	0.087627776
55	0x3dc12e07	0.09432607
56	0x3da16659	0.078808494
57	0x3d1b7956	0.03795751
58	0xbd20f3f0	-0.039295137
59	0x3ead2459	0.33816794
60	0x3dd11f3c	0.102110356
61	0x3e07233a	0.13197032
62	0x3d28661a	0.041112997
63	0xbcd23b5b	-0.025663069
64	0xbd77c448	-0.060489923
65	0x3e070a8d	0.13187619
66	0xbd87585b	-0.06608649
67	0x3de65a7a	0.11247726
68	0xbd93c0c7	-0.07214504
69	0x3d5c90eb	0.053849142
70	0x3e1772aa	0.14789835
71	0x3d8bbd69	0.068232365
72	0xbd90962e	-0.070598945
73	0x3d8e0d67	0.0693615
74	0x3d4ebf19	0.050475214
75	0xbd53fc12	-0.051754065
76	0x3c4037f4	0.01173209
77	0x3d8f5d44	0.07000211
78	0x3df4dfbd	0.11956737
79	0xbda0c6b7	-0.07850402
80	0x3d8cdd73	0.068781756
81	0xbd9448bd	-0.07240436
82	0x3ccb4a15	0.024815599
83	0xbd34ad69	-0.04411069
84	0xbcd22c7e	-0.025655981
85	0x3dbfe983	0.09370711
86	0x3bf9a602	0.0076186666
87	0x3ddde789	0.108351775
88	0xbd4cdc5f	-0.05001485
89	0xbc86dfed	-0.016464198
90	0x3d9180e2	0.071046606
91	0x3dfb8bcc	0.122825235
92	0x3dde9e6b	0.108700596
93	0x3e38e934	0.1805771
94	0xbd03d992	-0.032189913
95	0x3ddd004e	0.10791074
96	0x3dc7fa25	0.09764508
97	0x3d7d9154	0.061906174
98	0x3cdbc16c	0.02682563
99	0x3c46c83f	0.012132703
100	0x3d7eb5a5	0.06218495
101	0xbd18af81	-0.03727675
102	0x3cf1f4e5	0.02953572
103	0xbd7633d7	-0.060108032
104	0xbc266ca6	-0.01015774
105	0x3e3523ec	0.17689484
106	0x3e1816ad	0.148524
107	0x3dedab36	0.116049215
108	0x3d96a8d3	0.073564194
109	0xbccbb480	-0.024866343
110	0x3c1435ba	0.009046013
111	0x3e2766f9	0.16347875
112	0x3cfe996c	0.031079017
113	0xbdc09cc0	-0.09404898
114	0x3b938a91	0.0045026024
115	0xbd5bd23d	-0.053667296
116	0xba39f39c	-0.00070934906
117	0x3d5770ba	0.05259774
118	0x3ceba5d9	0.028765606
119	0x3cb8804d	0.022522116
120	0xbcd81a04	-0.026379593
121	0x3e35951a	0.17732659
122	0xbd8d2327	-0.068914704
123	0xbba94107	-0.0051652226
124	0x3def195d	0.116747595
125	0xbc9f591b	-0.019451668
126	0xbca61a00	-0.02027607
127	0x3e04c621	0.12966205
128	0xbd27676d	-0.04087012
129	0xbdf41a73	-0.11919107
130	0xbd401b30	-0.046900928
131	0xbbf3066a	-0.007416536
132	0x3dca89f5	0.098895945
133	0xbd1c34a4	-0.03813614
134	0xbd56b300	-0.0524168
135	0x3d226692	0.0396486
136	0x3d5364fc	0.051609978
137	0x3dc8375e	0.097761855
138	0xbdde9f5e	-0.10870241
139	0xbe02d5b2	-0.12776831
140	0x3dd2ac58	0.10286778
141	0x3dde8d3a	0.108667806
142	0xbda98b76	-0.08278553
143	0xbcabc9f0	-0.020970315
144	0xbd8bf724	-0.06834248
145	0xbce00273	-0.027344918
146	0xbd9e7dd3	-0.07738843
147	0x3d86bf6e	0.06579481
148	0x3e02a8d9	0.12759723
149	0xbd10cd4b	-0.035352033
150	0xbe10bd82	-0.14134791
151	0x3df3eab5	0.11910001
152	0x3db281cb	0.08716162
153	0x3de8ba63	0.113636754
154	0x3d3dc1c3	0.046327364
155	0x3d9e9186	0.077426
156	0xbdb4dc55	-0.088310875
157	0x3afbc8fe	0.0019209681
158	0x3d7de5df	0.0619868
159	0x3e282d36	0.16423497
160	0xbd7376ad	-0.05943935
161	0x3d9f94e4	0.077920705
162	0x3d0a9757	0.033835735
163	0xbdedbcf6	-0.11608307
164	0x3dfcf009	0.123504706
165	0x3dd13c5c	0.10216591
166	0xbdc679fc	-0.096912354
167	0x3d307b99	0.043086622
168	0x3d1ef0d8	0.038803905
169	0x3d9b169c	0.07572672
170	0x3df76dbb	0.12081476
171	0xbdf2f0f5	-0.11862365
172	0x3ba5ef5b	0.005063934
173	0xbdc54af7	-0.09633439
174	0x3d6eac0c	0.058269545
175	0xbe19b300	-0.1500969
176	0xbdc7c9d4	-0.097552925
177	0x3d972fdb	0.073821746
178	0x3bb39ed4	0.0054815803
179	0x3e0dc147	0.1384326
180	0xbe1c8b58	-0.1528753
181	0xbdd05a78	-0.101735055
182	0xbd87f593	-0.066386364
183	0x3e162b69	0.14664997
184	0x3c26e1c3	0.010185662
185	0xbe12df07	-0.1434289
186	0xbdbeebd7	-0.09322327
187	0x3df445eb	0.11927398
188	0x3dca43c7	0.09876209
189	0x3d8ae59d	0.067820765
190	0x3e00b700	0.12569809
191	0x3e163e74	0.14672261
192	0x3e0fbf8f	0.14037918
193	0x3d30863a	0.04309676
194	0x3d47381b	0.04863749
195	0x3ded8301	0.11597253
196	0x3e619fbb	0.22033589
197	0x3d93436d	0.07190595
198	0x3e22a1f1	0.15882088
199	0x3e423ed4	0.1896928
200	0x3e0f4d68	0.13994372
201	0xbd573bb3	-0.052547168
202	0x3e769549	0.24080385
203	0x3e04c559	0.12965907
204	0x3e0646d7	0.13112961
205	0xbc96b6c9	-0.018397706
206	0x3d155965	0.036462206
207	0x3db95de7	0.090511136
208	0x3dfba481	0.12287236
209	0x3c122b26	0.00892142
210	0x3e2718b4	0.16318017
211	0x3e565430	0.20930552
212	0xbc0cff20	-0.008605748
213	0x3e875dc4	0.26438725
214	0xbdc46e1c	-0.09591314
215	0x3dae0ab6	0.08498137
216	0x3dede821	0.11616541
217	0x3cd870e9	0.026421027
218	0x3db6eec1	0.089322574
219	0x3e008fd8	0.12554872
220	0x3da7330f	0.081640355
221	0x3dd7d7a9	0.10539181
222	0x3d28a1ea	0.04117004
223	0x3d518bb4	0.051158622
224	0x3e3b3b20	0.18284273
225	0x3de119a6	0.1099122
226	0x3e589d41	0.21153738
227	0x3dae9a54	0.085255295
228	0x3e1836c5	0.14864643
229	0x3df39fdf	0.11895727
230	0x3dd08926	0.10182409
231	0x3e084614	0.13307983
232	0x3e0bb208	0.13642132
233	0xbd5dc5f3	-0.054143857
234	0xbc8156b3	-0.015788412
235	0x3c24bfe6	0.010055518
236	0x3dd59bee	0.10430132
237	0xba84f9dc	-0.0010145265
238	0x3e1b4e2a	0.15166536
239	0x3eaad068	0.33362126
240	0xbc5b388a	-0.013380179
241	0x3df2af7a	0.11849876
242	0x3e722d66	0.2365013
243	0xbdb2f2ca	-0.087377146
244	0x3e8b4fc5	0.27209297
245	0x3ea0b313	0.31386623
246	0x3e3fec3d	0.18742462
247	0x3d958403	0.0730057
248	0xbbf59a4f	-0.0074952017
249	0x3e5f8796	0.21829066
250	0xbc73a676	-0.01487123
251	0x3ed6f136	0.41980904
252	0x3d0a9aaa	0.033838905
253	0x3d7e7876	0.0621266
254	0x3c23f8e0	0.010008067
255	0x3df2ab96	0.11849134

lstm.bias_hh_l0 f4 [256]
0	0x3d580307	0.052737262
1	0x3c0eaed2	0.008708673
2	0x3e2366fe	0.15957257
3	0x3ca02460	0.019548595
4	0x3df03b2c	0.11730036
5	0x3dd7e1ba	0.10541101
6	0x3d32b172	0.043626256
7	0xbd8a05b6	-0.067393705
8	0x3dec8c00	0.115501404
9	0x3e16c65f	0.1472411
10	0x3ef34b0b	0.4751819
11	0x3d3bb914	0.0458308
12	0x3b2f9cd2	0.0026796353
13	0x3dc25456	0.09488742
14	0x3dd198d1	0.102342255
15	0x3cf1e354	0.029527344
16	0x3d8ba7cf	0.06819116
17	0xbcfc9a49	-0.030835288
18	0x3e3c5e5f	0.18395375
19	0x3cda21bd	0.026627416
20	0x3d91a383	0.071112655
21	0x3dce340d	0.10068522
22	0xba4d47b4	-0.0007830814
23	0x3e1df740	0.1542635
24	0x3e471eac	0.19445294
25	0x3d1c4571	0.038152162
26	0x3e247e8f	0.16063903
27	0xbdbc4eee	-0.09194742
28	0x3cd15601	0.025553705
29	0x3e52527a	0.20539275
30	0xbb07b662	-0.0020708074
31	0x3de59875	0.112107195
32	0xbc03edea	-0.008052329
33	0xbd473c1b	-0.048641305
34	0x3e7a86be	0.24465463
35	0x3dcb3754	0.099226624
36	0x3dcd16c0	0.10014105
37	0x3ddb9802	0.107223526
38	0xbcde7ec5	-0.027160058
39	0x3c079a49	0.008276531
40	0x3e84e609	0.25956753
41	0x3e07d031	0.13263012
42	0x3c9386a0	0.01800853
43	0x3d274e15	0.04084595
44	0x3dbc2099	0.09185905
45	0x3dbbd544	0.091715366
46	0x3dec23eb	0.11530288
47	0x3e231d4f	0.15929149
48	0x3c866019	0.016403245
49	0xbc8a7637	-0.016902072
50	0x3eb316f3	0.34978446
51	0x3d808916	0.06276147
52	0x3e542ef8	0.20721042
53	0x3e64d955	0.2234853
54	0x3df4e787	0.11958223
55	0x3e167114	0.14691573
56	0x3e0dfc98	0.13865888
57	0x3d8cca22	0.06874491
58	0x3c8cbd09	0.017179983
59	0x3e8d1f37	0.27562878
60	0xbd92542e	-0.07144962
61	0x3d42e482	0.047581203
62	0xbd9f983e	-0.0779271
63	0x3c5e304c	0.01356132
64	0xbcf53cfc	-0.029936306
65	0xbd5d57d5	-0.05403884
66	0xbcc58ce0	-0.024115026
67	0xbbc4c5ea	-0.0060050385
68	0x3af0bdf8	0.0018367162
69	0x3d970254	0.07373491
70	0x3da2dbd0	0.07952082
71	0x3d865f00	0.065610886
72	0x3bd112c8	0.0063804127
73	0xbc02bc14	-0.007979412
74	0x3e148725	0.14504679
75	0xbd44bac6	-0.048029684
76	0xbc4b69f7	-0.012415401
77	0x3d59281e	0.053016774
78	0x3e062330	0.1309936
79	0xbdded9b8	-0.1088137
80	0x3cd633a6	0.026147675
81	0xbd66b5e6	-0.056325816
82	0x3c18a9e2	0.009317847
83	0xbd85764d	-0.06516705
84	0x3e0b7667	0.13619386
85	0x3dfa67f7	0.12226861
86	0x3d943356	0.07236354
87	0x3d9ae3ff	0.07563018
88	0xbd6b1b3f	-0.05739903
89	0x3cd78e0c	0.02631285
90	0xbe14a210	-0.14514947
91	0xbcb2587d	-0.02177071
92	0x3e25db9b	0.16197054
93	0x3d8104e9	0.06299765
94	0x3d357419	0.044300172
95	0xbbae8cc4	-0.005326839
96	0xbd119483	-0.035542022
97	0xbc0a753b	-0.0084508015
98	0xbc86c343	-0.01645053
99	0x3d83209e	0.064027056
100	0xbd8d29d0	-0.06892741
101	0x3d440cce	0.047863774
102	0x3e12b14e	0.14325449
103	0xbcd94226	-0.0265208
104	0x3c583910	0.0131971985
105	0x3c009df1	0.007850156
106	0xbd094e77	-0.033522096
107	0xbd3f4766	-0.04669895
108	0x3da61c1a	0.08110829
109	0xbc3009a3	-0.010744485
110	0x3c4dbfb7	0.012557915
111	0x3e37dfaf	0.17956422
112	0x3e06e54f	0.13173412
113	0xbda229a1	-0.07918096
114	0xbd8a6250	-0.06757033
115	0xbcdc1a9e	-0.02686816
116	0xbe17a56c	-0.14809197
117	0x3e3374ad	0.17524977
118	0xbc868898	-0.016422555
119	0xbbf913d2	-0.0076012397
120	0x3cf6349c	0.030054383
121	0x3e34f26a	0.17670599
122	0xbd2898dc	-0.041161403
123	0x3cd2dd3b	0.025740257
124	0x3df14174	0.11780062
125	0x3e17a2c5	0.14808185
126	0xbbd839b0	-0.0065986738
127	0x3e0481e3	0.12940173
128	0xbcb3c65f	-0.021945177
129	0x3dd55d59	0.10418195
130	0x3d1e14a8	0.038593918
131	0x3e159721	0.14608432
132	0xbd534207	-0.05157664
133	0xbe17433c	-0.14771742
134	0xbcee6fd2	-0.029106054
135	0x3d848157	0.06469982
136	0x3c34a467	0.011025525
137	0x3de3477f	0.11097621
138	0x3e0bc431	0.1364906
139	0xbd71b7c5	-0.059013147
140	0x3defa3c1	0.117011555
141	0x3d2329a8	0.03983465
142	0xbce54d01	-0.02799082
143	0xbd483f1b	-0.048888307
144	0xbcbf54f7	-0.023355944
145	0x3cc01e33	0.0234519
146	0x3dd8943f	0.10575151
147	0x3d9e2b78	0.07723135
148	0x3c39f2df	0.011349409
149	0xbd35e4a9	-0.04440752
150	0xbe05a65e	-0.13051745
151	0xbd62c990	-0.055368006
152	0x3d6ac721	0.05731881
153	0x3d99fbe1	0.07518745
154	0xbd88c36b	-0.06677898
155	0xbd5f0fc8	-0.05445841
156	0x3d152458	0.036411613
157	0xbd392dd6	-0.04520973
158	0x3dc3dc27	0.09563475
159	0x3c88f59d	0.01671868
160	0x3da98d25	0.08278874
161	0xbdada976	-0.08479588
162	0xbbfd44f8	-0.007729169
163	0xbdf9bd7b	-0.12194344
164	0x3d3c11b4	0.04591532
165	0xbd54db8d	-0.051967192
166	0x3dec2020	0.11529565
167	0xbe0309e6	-0.12796745
168	0x3d83cde1	0.06435753
169	0xbd0273f9	-0.03184888
170	0x3d43144d	0.047626782
171	0x3d8ff1fd	0.070285775
172	0x3cd28b4d	0.02570119
173	0x3da519b6	0.080615446
174	0xbd8b531d	-0.06802962
175	0xbdc1279d	-0.09431384
176	0xbd8a0d7b	-0.067408524
177	0x3d3a5939	0.045495246
178	0xbd69f750	-0.05712062
179	0x3e03c0d6	0.1286653
180	0x3cf1df9b	0.029525569
181	0x3d9af3bd	0.07566021
182	0x3d8c8656	0.0686156
183	0x3de8d4a9	0.11368687
184	0xbaad7f33	-0.0013236761
185	0x3c0649e8	0.008196332
186	0xbbedd245	-0.007257732
187	0xbdc17eb1	-0.094479926
188	0xbde2bfd9	-0.11071748
189	0x3c653599	0.013989829
190	0x3cfa1472	0.030527327
191	0x3de3431d	0.11096785
192	0x3e31f8e2	0.17380098
193	0x3d3ac018	0.04559335
194	0x3dfcfa92	0.1235248
195	0xbd53a471	-0.051670495
196	0x3e58bc4a	0.21165577
197	0x3d354886	0.044258617
198	0xbc195a4d	-0.009359908
199	0x3d5b9d54	0.053616837
200	0x3e45033b	0.19239514
201	0x3dbf0aba	0.09328218
202	0x3e85b455	0.26114145
203	0x3e5a1e59	0.21300639
204	0x3dcc66c8	0.099805415
205	0xbcdec0b2	-0.027191494
206	0x3c916259	0.017747091
207	0x3c55f806	0.013059622
208	0xbd9675cd	-0.073466875
209	0xbbd92579	-0.0066267815
210	0x3d421d88	0.047391444
211	0x3e8402e7	0.25783464
212	0x3e1df35e	0.15424868
213	0x3e8e20bc	0.2775935
214	0xbd4b198d	-0.049584914
215	0x3c5ef482	0.0136081
216	0x3de1a8c9	0.11018521
217	0x3e272474	0.163225
218	0x3bdbc04a	0.0067062723
219	0xbd9c9586	-0.07645707
220	0xbd38d752	-0.04512722
221	0x3dea909e	0.11453365
222	0xbd4f6a58	-0.050638527
223	0x3e4c1c75	0.1993273
224	0xbd163ae9	-0.036677275
225	0x3b0ec0f9	0.00217825
226	0x3d58fc5b	0.05297504
227	0x3da8b91c	0.08238432
228	0xbd2e94cd	-0.042622376
229	0xbd2c63e1	-0.04208744
230	0xbc1168b4	-0.008875061
231	0x3dcff97a	0.10155006
232	0x3e22630a	0.15858093
233	0x3c0ab21e	0.008465318
234	0x3db05cc1	0.086114414
235	0xbc8ce515	-0.017199079
236	0x3e0f18ea	0.13974348
237	0x3e0301ef	0.12793706
238	0x3d830993	0.063983105
239	0x3e8bd0aa	0.27307636
240	0x3e1e5e2c	0.15465611
241	0xbdbeca31	-0.09315909
242	0x3e2bf23e	0.16791627
243	0xbd9ac567	-0.07557183
244	0x3e562734	0.20913392
245	0x3e87da60	0.26533794
246	0x3df1fd41	0.118158825
247	0x3e0ac85f	0.13552998
248	0xbc94c831	-0.018161865
249	0x3d33bfca	0.043884076
250	0xbc60eae2	-0.013727875
251	0x3e90a87c	0.28253543
252	0xbd33facc	-0.04394035
253	0x3deeb593	0.11655726
254	0x3d0fd0c5	0.035111208
255	0x3d1ef286	0.038805507

lstm.weight_ih_l1 f4 [256, 64]
0	0x3d435092	0.04768426
1	0xbd904e81	-0.070462234
2	0xbd1dad0d	-0.038495112
3	0xbdbca20b	-0.09210595
4	0x3df07c6f	0.11742484
5	0xbd2a48f5	-0.041573483
6	0xbdf890f4	-0.121370226
7	0xbbfe08e2	-0.0077525238
8	0x3e251314	0.16120559
9	0x3d3d0692	0.046148844
10	0xbe141f26	-0.14465007
11	0xbdc9e926	-0.09858923
12	0x3deb3e80	0.1148653
13	0x3de1ddae	0.1102861
14	0xbce5a225	-0.028031418
15	0xbd67e688	-0.056616336
16	0x3b96e308	0.004604701
17	0xbda3781f	-0.07981896
18	0x3d500d10	0.050793707
19	0xbe37297c	-0.17886919
20	0xbdc24602	-0.09486009
21	0xbda85e1b	-0.08221074
22	0xbd8a44d1	-0.06751407
23	0xbd649235	-0.055803496
24	0x3dbebc23	0.09313228
25	0x3d270fd4	0.04078658
26	0x3e228ae9	0.15873303
27	0x3da46d88	0.08028704
28	0xbbaa8d26	-0.0052048145
29	0xbdbf9f42	-0.09356548
30	0x3e19fbe6	0.15037498
31	0xbcf04e62	-0.02933425
32	0x3c03a99c	0.0080360435
33	0xbd211440	-0.039325953
34	0xbdcb526d	-0.09927831
35	0x3e32eecd	0.17473908
36	0x3e2123c0	0.15736294
37	0x3db5bb1e	0.088735804
38	0x3dd6c812	0.10487379
39	0x3dc0af01	0.09408379
40	0x3d8c5f1b	0.068540774
41	0xbcbf428e	-0.023347165
42	0xbd13e24b	-0.03610448
43	0x3b987604	0.0046527404
44	0x3de7aec7	0.11312633
45	0x3c42d4d3	0.011891562
46	0x3cf38bb8	0.029729709
47	0xbe9bd21e	-0.30433744
48	0x3da975e2	0.082744375
49	0xbda445d5	-0.08021132
50	0xbd736397	-0.05942115
51	0xbd6be20f	-0.057588633
52	0x3c522293	0.012825626
53	0x3db7be6a	0.089718655
54	0x3c0c478f	0.008561983
55	0xbe94bd9c	-0.2905091
56	0x3e5b440b	0.21412675
57	0xbc77f7b6	-0.0151347425
58	0xbe010a46	-0.12601575
59	0xbe748fa0	-0.23882914
60	0xbdc5dde4	-0.09661463
61	0xbe25a08d	-0.16174527
62	0x3dd77d1c	0.105219096
63	0xbd85b8a0	-0.06529355
64	0x3d894abc	0.067037076
65	0x3df28ce7	0.11843281
66	0xbdd9d9ec	-0.106372684
67	0xbe80ed82	-0.25181204
68	0x3d53282c	0.051551983
69	0x3e12e8e5	0.14346655
70	0x3d58c426	0.052921437
71	0xbdc9c949	-0.09852845
72	0xbe2f658f	-0.17128585
73	0x3e3129f8	0.17301166
74	0x3e8e2297	0.27760765
75	0xbd8e0115	-0.069338
76	0x3e33f756	0.1757482
77	0xbe173f04	-0.14770132
78	0xbdffdfb1	-0.124938376
79	0xbca0269e	-0.019549664
80	0x3c12a4e6	0.008950448
81	0x3c877ed7	0.016539974
82	0x3c4a5942	0.012350382
83	0x3ea461ea	0.32105953
84	0x3d13a8b3	0.036049556
85	0xbdb9ae1f	-0.09066414
86	0x3df6dc91	0.120537885
87	0x3dbec113	0.0931417
88	0xbdc277b5	-0.094954886
89	0xbc2242b0	-0.009903595
90	0x3d19a4f7	0.03751084
91	0x3e0d6158	0.13806665
92	0x3da3b82e	0.07994114
93	0x3e3210b9	0.17389192
94	0x3d0ad9b5	0.033899028
95	0x3a01c1e3	0.0004949851
96	0x3dfd6a9c	0.1237385
97	0xbe521715	-0.20516618
98	0x3d8b6b3f	0.06807565
99	0xbd1af54f	-0.0378316
100	0x3d950b18	0.072775066
101	0xbc9e0a89	-0.019292133
102	0xbbfde8dc	-0.0077487063
103	0x3e1c4645	0.1526118
104	0x3e372fb4	0.17889291
105	0x3ccf9efd	0.025344366
106	0xbe2cf2fb	-0.16889565
107	0xbd0be4a9	-0.034153614
108	0xbcefa026	-0.02925117
109	0x3e01474f	0.12624858
110	0xbe684387	-0.2268201
111	0x3e5568b7	0.20840727
112	0x3df78040	0.120850086
113	0x3dab502e	0.083649024
114	0x3d7453a3	0.059650075
115	0x3d8c46ba	0.068494275
116	0xbd8c2950	-0.06843817
117	0xbc7e8177	-0.0155337965
118	0xbd8124eb	-0.0630587
119	0xbe642cee	-0.22282764
120	0x39b3d4f8	0.00034300215
121	0xbd1ff61c	-0.039053068
122	0x3d4e095d	0.0503019
123	0x3e3820c9	0.17981257
124	0x3dcae20a	0.09906395
125	0xbcc9a448	-0.024614468
126	0xbd779c3e	-0.06045174
127	0xbd55c62b	-0.05219094
128	0xbc817fdf	-0.015808044
129	0x3e04e171	0.12976624
130	0x3e023de6	0.12718925
131	0xbcc68995	-0.024235526
132	0x3b8acbc4	0.0042357165
133	0xbce172d6	-0.027520578
134	0x3d695a72	0.05697102
135	0x3d19f206	0.037584327
136	0xbdc67e8d	-0.096921064
137	0xbdf720f4	-0.12066832
138	0xbe544501	-0.20729448
139	0x3cc9dbf0	0.024641007
140	0xbdbf2994	-0.09334102
141	0xbe382b2a	-0.17985216
142	0xbd4bee68	-0.04978791
143	0x3e08df79	0.13366498
144	0x3e3799d2	0.17929772
145	0xbde57387	-0.11203676
146	0x3cbefa97	0.02331285
147	0xb798c710	-1.8212508e-05
148	0xbdabce61	-0.08388973
149	0x3e2d56ab	0.16927592
150	0xbe272c70	-0.16325545
151	0x3d86f00d	0.06588755
152	0x3dcfaebb	0.10140749
153	0xbd34b717	-0.04411992
154	0x3d51989f	0.05117094
155	0x3dcf0a6a	0.10109408
156	0x3bb446c8	0.005501602
157	0x3d4e1f12	0.0503226
158	0x3aedf581	0.0018154831
159	0xbd21762f	-0.03941935
160	0x3dcf7bf6	0.101310655
161	0xbd2a74e8	-0.041615397
162	0xbd8e8249	-0.06958444
163	0xbe3e58c9	-0.18588556
164	0xbc70d5d6	-0.01469942
165	0x3e26765f	0.16256092
166	0xbdc1ba0c	-0.09459314
167	0xbd80bb82	-0.06285764
168	0xbdb417db	-0.087936126
169	0xbd241040	-0.04005456
170	0x3dbb75d7	0.091533355
171	0x3e31fbf8	0.17381275
172	0x3d51d5a7	0.051229145
173	0x3d31dcc4	0.04342343
174	0xbcaf091c	-0.021366648
175	0xbe021862	-0.12704614
176	0x3df30fd8	0.11868256
177	0x3e1b327b	0.15155976
178	0x3d1a11bf	0.03761458
179	0xbd6b69ad	-0.057473827
180	0xbc899f2b	-0.01679953
181	0xbac400e4	-0.0014953879
182	0xbd97027c	-0.07373521
183	0xbc3fa039	-0.011695915
184	0x3db986e3	0.09058931
185	0x3dcdfc75	0.10057918
186	0xbe1d6cc3	-0.1537352
187	0x3becb59d	0.0072237984
188	0xbbecc2e0	-0.0072253793
189	0x3d146668	0.036230475
190	0x3db439ab	0.08800062
191	0xbdafaa22	-0.08577372
192	0xbe69abb7	-0.2281941
193	0x3cbc39aa	0.022976715
194	0x3df2a3c5	0.11847643
195	0x3d2148fd	0.039376248
196	0x3e47e57d	0.19521137
197	0xbd974df9	-0.07387919
198	0xbdc543fb	-0.09632107
199	0xbe025ee0	-0.12731504
200	0x3c7ea771	0.015542851
201	0x3d9a432a	0.07532342
202	0x3eb4107d	0.3516883
203	0xbd6e2aa7	-0.058146145
204	0x3d2502cc	0.04028587
205	0xbd21d78e	-0.03951221
206	0x3b9eb10d	0.0048428834
207	0xbdf5135c	-0.11966583
208	0xbd04d3ca	-0.03242854
209	0xbcbe72af	-0.023248045
210	0xbdc69321	-0.09696031
211	0x3e16b932	0.14719084
212	0x3da1a319	0.078924365
213	0xbddc85cb	-0.107677065
214	0xbca15827	-0.019695355
215	0xbd37a0af	-0.044830974
216	0x3da9be66	0.08288269
217	0xbccbc984	-0.024876364
218	0x3deadbba	0.11467691
219	0x3cb9ee39	0.022696601
220	0x3d6bf29a	0.05760441
221	0x3e23089a	0.1592125
222	0xbc9b724f	-0.018975405
223	0x3d8bd0ad	0.06826911
224	0x3d93fe3b	0.07226225
225	0x3cb21442	0.021738175
226	0xbdafa2af	-0.08575951
227	0xbda10b97	-0.07863539
228	0x3e3d673c	0.18496412
229	0xbdbfefed	-0.09371934
230	0xbe3514e5	-0.17683752
231	0xbd9b00a5	-0.07568482
232	0x3d7f715c	0.062363967
233	0xbd963972	-0.073351756
234	0x3c96ee52	0.018424187
235	0x3bd7c5ba	0.00658485
236	0x3d568641	0.05237413
237	0xbdd8d158	-0.10586804
238	0xbe3fd858	-0.18734872
239	0xbca5ab61	-0.020223321
240	0xbd5e4ec3	-0.05427433
241	0x3e117d0e	0.14207861
242	0x3e0868f1	0.13321282
243	0x3daa9a67	0.08330231
244	0x3bdf3ae3	0.0068124398
245	0x3df7ff1c	0.12109205
246	0xbdaa7dae	-0.08324753
247	0x3d8225df	0.063548796
248	0xbd0ee058	-0.03488192
249	0x3d02f770	0.031974256
250	0xbd2138b0	-0.039360702
251	0x3bc8ff87	0.006133977
252	0x3e02baa0	0.12766504
253	0x3d426be7	0.047466185
254	0xbba12c49	-0.0049186093
255	0xbd20c7cb	-0.039253037

lstm.weight_hh_l1 f4 [256, 64]
0	0xbdf4dd89	-0.11956317
1	0x3cd63af5	0.02615116
2	0x3d146fdc	0.03623949
3	0xbb885afc	-0.004161237
4	0x3e74bf2f	0.23901056
5	0x3c6422cc	0.013924312
6	0x3d3acc0e	0.045604758
7	0xbdeb1021	-0.11477686
8	0xbe14e3ac	-0.14539975
9	0xbd2206f4	-0.039557412
10	0x3e56e718	0.20986593
11	0xbd9abe95	-0.07555882
12	0xbd12e512	-0.03586299
13	0xbcbd5cae	-0.023115482
14	0x3d9e9b2e	0.07744442
15	0xbd3e551f	-0.046467897
16	0x3e0c7189	0.13715185
17	0x3bc37417	0.0059647667
18	0x3dda695a	0.106646255
19	0xbb80a15c	-0.0039254855
20	0x3d4e7643	0.050405752
21	0x3cf8e429	0.030382233
22	0xbd48b235	-0.048998076
23	0x3e304c11	0.17216517
24	0xbd8caf15	-0.06869332
25	0xbda3a28a	-0.07989986
26	0x3c53e3a0	0.012932688
27	0x3e8210f5	0.25403562
28	0x3e646ead	0.22307844
29	0xbdcb3458	-0.09922093
30	0xbe1ea56e	-0.15492794
31	0xbe19b066	-0.15008697
32	0x3e5411e0	0.20709944
33	0xbd180f56	-0.037124
34	0x3e033644	0.1281367
35	0xbbd217c1	-0.006411523
36	0x3da15ca2	0.078789964
37	0xbe14ed73	-0.14543705
38	0xbd9244f8	-0.07142061
39	0x3d14086c	0.036140844
40	0xbe182efd	-0.14861675
41	0xbbf722a4	-0.0075419713
42	0xbbeb2f94	-0.0071773026
43	0x3e1968c8	0.14981377
44	0xbdecb87d	-0.11558626
45	0xbd648817	-0.055793848
46	0x3c32b891	0.010908262
47	0xbccc2ce2	-0.024923746
48	0x3d22dc67	0.039760973
49	0x3d070281	0.032961372
50	0x3c901f17	0.01759295
51	0xbe1fc761	-0.15603401
52	0x3da39326	0.07987051
53	0xbd681a33	-0.05666561
54	0xbd128db1	-0.03577966
55	0x3e4ca10a	0.19983307
56	0xbe19cca7	-0.15019475
57	0xbdee0f63	-0.116240285
58	0x3de6f298	0.1127674
59	0xbc007ebc	-0.007842716
60	0xbdb26022	-0.08709742
61	0x3d03d985	0.032189865
62	0xbb7c91fd	-0.0038539164
63	0x3ce126bb	0.027484288
64	0x3e141400	0.14460754
65	0x3d049fc2	0.03237892
66	0xbe3788ff	-0.17923354
67	0xbc106f4e	-0.0088156
68	0xbdc4ad46	-0.09603362
69	0xbc592501	-0.013253451
70	0x3dd7d0e5	0.1053789
71	0xbd2caf7a	-0.042159535
72	0xbe308e29	-0.1724173
73	0x3ccdd641	0.025126578
74	0x3d29aca8	0.041424423
75	0xbe369069	-0.17828526
76	0x3cc2c226	0.023774218
77	0x3dda6b0a	0.10664947
78	0x3e6d639c	0.23182529
79	0x3c98fa39	0.018674003
80	0x3a5724d7	0.00082070887
81	0x3df07ee6	0.11742954
82	0x3ddc8a48	0.107685626
83	0x3bfc798d	0.0077049197
84	0x3e18156c	0.14851922
85	0x3e129c41	0.14317419
86	0xbd1bfcf7	-0.038083043
87	0xbd9a9850	-0.075485826
88	0x3e38ef8b	0.18060128
89	0xbe26b193	-0.16278677
90	0x3ae3bd6c	0.0017375178
91	0x3e00123e	0.12506959
92	0x3dddbf59	0.10827512
93	0xbb967028	-0.004591007
94	0xbe2b6f23	-0.16741614
95	0x3e29e6d3	0.16591959
96	0xbce1b30c	-0.027551197
97	0x3ce21d94	0.027601995
98	0x3db6dd3d	0.089289166
99	0xbdad4385	-0.08460144
100	0xbdff76bc	-0.12473819
101	0x3c390bb8	0.011294298
102	0xbd10a639	-0.035314772
103	0x3b2a1264	0.0025950903
104	0x3da64cd3	0.08120122
105	0x3e102f9c	0.14080662
106	0xbe321fa8	-0.17394888
107	0x3d948286	0.07251458
108	0xbdda50fb	-0.10659977
109	0xbe25fc44	-0.16209513
110	0x3d5c871c	0.053839788
111	0x3d547944	0.05187346
112	0x3e28c17e	0.16480061
113	0xbd842e59	-0.064541526
114	0x3e7415c0	0.23836422
115	0x3d89c20d	0.067264654
116	0xbdb2e2fd	-0.08734701
117	0xbdcfca80	-0.10146046
118	0xb963f153	-0.00021738307
119	0xbd389d26	-0.045071743
120	0xbd6eb029	-0.05827347
121	0xbdfbbde7	-0.122920804
122	0x3db96fa9	0.090545006
123	0xbd200732	-0.039069362
124	0xbed40a2c	-0.4141401
125	0x3cc73088	0.024315134
126	0xbdadf7f3	-0.08494558
127	0xbd850601	-0.06495286
128	0x3bfaf63d	0.0076587484
129	0x3e6262d6	0.22108015
130	0x3dcb67a9	0.09931881
131	0xbd441413	-0.047870707
132	0xb97add8a	-0.00023924388
133	0xbd23f1b8	-0.040025443
134	0x3d036033	0.032074165
135	0xbdb243ad	-0.087043144
136	0x3b9f849f	0.0048681046
137	0x3e0bac09	0.13639845
138	0xbe0b7beb	-0.1362149
139	0x3e49e815	0.19717439
140	0x3e4c865b	0.19973128
141	0xbe901bf4	-0.28146327
142	0xbe710268	-0.23536074
143	0xbe0d730e	-0.13813421
144	0xbe2290d0	-0.15875554
145	0xbc9dda07	-0.019269003
146	0x3eaa2873	0.33233985
147	0xbc814a2c	-0.015782438
148	0x3e988589	0.2978938
149	0xbe0f2ce8	-0.13981974
150	0xbe109e9b	-0.14123003
151	0x3cb9abff	0.022665022
152	0xbcae2abc	-0.021260612
153	0xbeaf0073	-0.3418003
154	0x3e252187	0.16126071
155	0x3c933b67	0.017972661
156	0xbda6dbf0	-0.081474185
157	0x3e2ae2f4	0.16688138
158	0x3c8fa92c	0.017536722
159	0x3da8fd19	0.082513995
160	0xbba71781	-0.0050992374
161	0xbdc743b7	-0.097297125
162	0xbe27e452	-0.16395691
163	0x3d82c2ed	0.063848354
164	0xbed22114	-0.41040862
165	0xbe3d42e3	-0.18482547
166	0xbddaeee3	-0.10690095
167	0xbd737cd2	-0.05944521
168	0xbde0c95b	-0.109759055
169	0x3d195270	0.037432134
170	0xbd188b64	-0.03724231
171	0x3e654d4f	0.22392772
172	0x3b01f664	0.0019830698
173	0xbe282fa6	-0.16424426
174	0xbcd8fbda	-0.02648728
175	0x3e2cb197	0.1686462
176	0xbe37e989	-0.1796018
177	0xbe1a3df8	-0.15062702
178	0x3c54af23	0.012981209
179	0x3db5502c	0.08853182
180	0x3d1700e5	0.036866087
181	0xbe680c1f	-0.22660874
182	0xbd9c8839	-0.0764317
183	0xbd4a00f6	-0.049317323
184	0x3e1fd08f	0.15606903
185	0x3d1c359d	0.038137067
186	0x3c8a77c9	0.016902821
187	0xbda63169	-0.08114893
188	0x3e05409f	0.13012932
189	0x3e14abf5	0.14518721
190	0xbccf75f3	-0.025324797
191	0xbdde0b68	-0.10842019
192	0x3e2d7969	0.16940846
193	0x3dd2c6f8	0.102918565
194	0xbdc34b8d	-0.095358945
195	0x3d95d72b	0.07316431
196	0x3dcdf32f	0.10056149
197	0x3c9ad54d	0.018900538
198	0xbdeca879	-0.11555571
199	0xbd1ed8bf	-0.038780924
200	0xbe2eb226	-0.17060146
201	0x3cdfbf47	0.027312888
202	0xbe0d063d	-0.13771911
203	0xbdcfcd7c	-0.10146615
204	0xbc64db56	-0.013968309
205	0xbd625cb1	-0.05526418
206	0xbe0bacf0	-0.13640189
207	0xbdf60df5	-0.12014381
208	0xbdba412f	-0.09094464
209	0x3a03eeb8	0.0005032825
210	0x3c21b20d	0.009869111
211	0xbe1d50ae	-0.15362808
212	0xbb61d926	-0.0034461706
213	0x3e01ca76	0.12674889
214	0x3d77f0a7	0.06053224
215	0x3a374d68	0.00069924304
216	0xbe0fd370	-0.14045501
217	0x3cf548e6	0.029941987
218	0xbe11672c	-0.14199513
219	0xbdcc5d92	-0.099787846
220	0x3c28e751	0.010309056
221	0x3d41cfbc	0.04731725
222	0xbd72cad2	-0.059275456
223	0x3ce312b1	0.027718874
224	0xbd366ef3	-0.044539403
225	0x3d991130	0.074739814
226	0xbe1ede23	-0.15514426
227	0x3d20589c	0.039147004
228	0xbe03e991	-0.12882067
229	0xbe0a0fef	-0.1348264
230	0x3d9c08ec	0.07618889
231	0x3d4006f6	0.04688164
232	0x3d3696f3	0.04457755
233	0xbd83c72e	-0.06434475
234	0x3da20e78	0.07912916
235	0x3c9a2d57	0.018820448
236	0xbd702648	-0.058630258
237	0x3e18db0e	0.14927313
238	0xbb1edeb8	-0.0024241637
239	0x3dcd62c5	0.100286044
240	0x3c9041b8	0.017609462
241	0x3ddf1bed	0.10893998
242	0x3d8525f4	0.065013796
243	0xbda11167	-0.07864647
244	0xbccbf39b	-0.024896434
245	0xbdc7fc12	-0.097648755
246	0x3e0ecd30	0.1394546
247	0x3dac60a3	0.084168695
248	0xbd204bca	-0.039134778
249	0x3c12421a	0.008926893
250	0x3cc29879	0.023754345
251	0xbdd2a4c1	-0.102853306
252	0x3bc5dfae	0.0060386276
253	0x3d74ccac	0.059765503
254	0xbc8dac49	-0.017294066
255	0xbca65f2e	-0.020309057

lstm.bias_ih_l1 f4 [256]
0	0x3c383901	0.01124406
1	0x3dfd1e02	0.12359239
2	0x3db1d377	0.08682912
3	0xbc0dcb03	-0.008654359
4	0x3d815ae5	0.06316165
5	0x3d9d5f83	0.07684233
6	0xbd1e5705	-0.038657207
7	0x3dd2616d	0.10272489
8	0xbd55ea03	-0.052225124
9	0x3d16bb16	0.036799513
10	0x3d022e61	0.03178251
11	0x3d95d49d	0.073159434
12	0xbbf42a7c	-0.0074513536
13	0xbcc5c786	-0.024142992
14	0x3dbdfc49	0.09276635
15	0xbcc6d313	-0.02427057
16	0xbd87a6a6	-0.066235825
17	0x3e069e02	0.13146213
18	0xbdac9125	-0.084261216
19	0xbcb5d0b9	-0.022194253
20	0x3e3b8d2c	0.18315572
21	0x3e14f1db	0.14545386
22	0xbd5eab5e	-0.054362647
23	0x3d0102f8	0.03149697
24	0x3db033ed	0.08603654
25	0x3da42a00	0.08015823
26	0x3dd3f29a	0.10349007
27	0x3d99cbcb	0.075095735
28	0x3b8e9657	0.004351418
29	0x3e2f12a3	0.17096953
30	0x3d29ccd8	0.04145512
31	0x3e2c60b0	0.16833758
32	0x3e0db5bc	0.13838857
33	0xbd6f52d0	-0.058428586
34	0x3e52d5de	0.20589396
35	0xbd916208	-0.07098776
36	0xbe06100c	-0.13092059
37	0x3da5d358	0.08096951
38	0xbd3cd0fa	-0.046097733
39	0x3ced1bb6	0.028943878
40	0xbafc8392	-0.0019265285
41	0x3d60708a	0.054794826
42	0xbb8b345c	-0.004248185
43	0xbd860b68	-0.06545144
44	0xbc301591	-0.010747329
45	0xbd6c88d2	-0.05774767
46	0x3d7d5047	0.061844137
47	0x3d4c8b2b	0.04993741
48	0xbd69c9c7	-0.057077195
49	0x3dfb67bb	0.122756444
50	0xbd95e98b	-0.073199354
51	0xbdbd140e	-0.09232341
52	0x3c78de02	0.01518965
53	0x3ce3e204	0.027817734
54	0x3e23a9e5	0.15982778
55	0x3b088540	0.0020831376
56	0xbdcdc4fc	-0.100473374
57	0x3d40ecf5	0.04710098
58	0xbc397097	-0.011318347
59	0x3d1f8b89	0.03895143
60	0x3cefbd53	0.029265082
61	0xbd536adf	-0.051615592
62	0x3e16684f	0.14688228
63	0xbd851c7c	-0.064995736
64	0xbc2e1f90	-0.010627642
65	0x3d20a7b1	0.039222423
66	0x3da2fb10	0.079580426
67	0x3e0bd717	0.13656269
68	0x3d82f364	0.06394079
69	0x3be66c3a	0.0070319446
70	0xbd2adac3	-0.041712534
71	0x3e00af14	0.12566787
72	0x3db3afa7	0.087737374
73	0xbe02c6e7	-0.12771188
74	0x3d885a9e	0.06657909
75	0x3dafe46a	0.085884884
76	0xbba793bc	-0.005114047
77	0xbded2b44	-0.11580518
78	0xbdb9e31c	-0.09076521
79	0x3de3ff64	0.11132696
80	0x3e07f2c0	0.13276196
81	0xbdabaa65	-0.083821096
82	0x3db0fa90	0.08641541
83	0x3bab94cf	0.005236245
84	0xbc035400	-0.008015633
85	0x3d48a32b	0.048983734
86	0xbdc402a0	-0.09570813
87	0xbd3d677c	-0.04624127
88	0x3cc5f4f4	0.024164654
89	0xbcae884c	-0.021305226
90	0xbdc529b6	-0.09627096
91	0x3e0ea48b	0.13929956
92	0xbda08af0	-0.07839
93	0x3de38922	0.111101404
94	0x3cd0cd0c	0.025488399
95	0xbcd430be	-0.025902148
96	0x3dd7fd1d	0.105463244
97	0x3de6f66b	0.11277469
98	0xbe0c25ae	-0.13686249
99	0xbcbaea19	-0.022816705
100	0x3e243b74	0.16038305
101	0xbc69a50d	-0.014260543
102	0xbdf84103	-0.12121775
103	0xbd5dacc4	-0.05411984
104	0xbe03bb96	-0.12864527
105	0x3dd0cd67	0.101954274
106	0xbcee7192	-0.029106889
107	0xbd8a5289	-0.067540236
108	0x3ce81e80	0.028334856
109	0x3debb414	0.115089566
110	0x3a6eb310	0.0009105662
111	0x3d8b37d7	0.0679776
112	0xbd33f104	-0.043931022
113	0x3def10a3	0.11673095
114	0xbd8ee687	-0.06977563
115	0xbb39985a	-0.0028319568
116	0x3d841e92	0.06451143
117	0x3d9c0719	0.07618541
118	0xbd068d49	-0.032849584
119	0x3c1c49e0	0.009539098
120	0x3c2b0f3f	0.010440647
121	0x3db86224	0.09003094
122	0x3ddd48f8	0.10804933
123	0x3d77dd52	0.060513802
124	0xbe2f3d99	-0.17113341
125	0xbda0162d	-0.0781673
126	0xbc57d497	-0.013173244
127	0xbdd85416	-0.10562913
128	0x3d582f09	0.05277923
129	0xbdb1125a	-0.086460784
130	0x3d99b8f6	0.075059816
131	0x3d093e33	0.033506583
132	0x3ab701e2	0.0013962353
133	0x3ca1cf70	0.019752234
134	0x3cb3586a	0.021892745
135	0x3d99d895	0.07512013
136	0xbdde855e	-0.108652815
137	0x3df2d118	0.11856288
138	0x3dc38040	0.09545946
139	0xbda7dc00	-0.081962585
140	0x3da52a70	0.08064735
141	0xbdc66e1c	-0.096889704
142	0x3d7ad1e7	0.061235335
143	0x3c474f49	0.012164899
144	0x3d0d3dfa	0.034482934
145	0x3dc3218f	0.09527885
146	0x3d243259	0.040087078
147	0xbd279a61	-0.04091871
148	0xbdac98aa	-0.08427556
149	0x3dfb28e9	0.12263662
150	0xbd52e1b4	-0.05148478
151	0x3d04afc4	0.032394186
152	0x3ddf44c1	0.10901786
153	0xbd8e8561	-0.06959034
154	0xbdb84b22	-0.089987054
155	0xbd1ba39a	-0.03799782
156	0x3c8f11d9	0.017464565
157	0x3d9ba8f4	0.076005846
158	0xbd8dad6e	-0.06917845
159	0x3dbab764	0.0911701
160	0x3cd2b482	0.025720838
161	0x3d81a1b2	0.06329669
162	0xbd1ffe8a	-0.039061107
163	0xbd90034d	-0.070318796
164	0x3c3aa0f0	0.01139091
165	0xbd5fdf83	-0.054656517
166	0x3de835d2	0.113383904
167	0x3c1dc51a	0.009629512
168	0xbd4f08ae	-0.050545387
169	0x3dbac6b2	0.091199294
170	0x3cf33c1a	0.029691745
171	0x3de725c8	0.11286503
172	0xbdbb51f0	-0.09146488
173	0x3db12515	0.08649651
174	0x3e029423	0.12751822
175	0xbd6577be	-0.0560224
176	0x3c634563	0.013871524
177	0x3dd8ae1e	0.10580085
178	0xbdc07e8a	-0.093991354
179	0xbdaf7a1a	-0.08568211
180	0x3d8e9cb6	0.06963484
181	0xbb106835	-0.0022034768
182	0xbd7ef95a	-0.06224952
183	0xbd50a8e4	-0.050942317
184	0x3dbe6da0	0.09298253
185	0x3d21aa57	0.03946909
186	0x3d3cb41d	0.046070207
187	0xbd75bcb2	-0.059994407
188	0x3dae7e3a	0.085201696
189	0xbdcec0ae	-0.100953445
190	0x3dbca2fc	0.09210774
191	0xbd3ca599	-0.046056364
192	0x3deb17ea	0.114791706
193	0xbb9e2652	-0.0048263455
194	0xbce79253	-0.028268015
195	0xbdf0547b	-0.11734863
196	0xbb314017	-0.0027046257
197	0x3d9962d4	0.07489553
198	0x3dc10eb8	0.094266355
199	0xbc6b020f	-0.0143437525
200	0x3b845c20	0.0040393025
201	0xbcc1cf8d	-0.023658538
202	0x3dae6027	0.08514433
203	0x3dfcf642	0.123516575
204	0x3ddc89ba	0.10768457
205	0xbdd37ad4	-0.10326162
206	0x3c9bc732	0.019015882
207	0x3d987220	0.074436426
208	0x3de54eed	0.111966945
209	0x3b91225a	0.004429144
210	0x3db1e6c6	0.08686595
211	0xbd170b2f	-0.0368759
212	0x3e1aa747	0.15102874
213	0xbb93d8bf	-0.004511922
214	0x3dc86e12	0.09786619
215	0x3e035e8a	0.12829033
216	0xbc2fc474	-0.01072799
217	0x3d7700de	0.06030356
218	0x3d81afc7	0.06332355
219	0x3d40d80a	0.04708103
220	0xbc4e7c80	-0.012602925
221	0xbd3a22b9	-0.04544327
222	0xbd3c8163	-0.04602183
223	0x3d4bbce4	0.049740687
224	0xbd80bfa6	-0.06286554
225	0xbdbe751b	-0.0929968
226	0xbd2ba66a	-0.04190675
227	0xbdc84f51	-0.097807534
228	0x3c6653f7	0.014058105
229	0x3d26215b	0.040559154
230	0x3e027f70	0.12743926
231	0xbb21616e	-0.0024624723
232	0x3cc08ef7	0.023505671
233	0x3dc8c52f	0.09803235
234	0x3dded9e2	0.108814016
235	0x3b646def	0.0034855565
236	0x3d597277	0.053087678
237	0xbd954632	-0.07288779
238	0xbc967ed5	-0.018371025
239	0x3d5e9f0c	0.054350898
240	0x3de1c684	0.11024192
241	0x3d540b74	0.051768735
242	0xbdde0546	-0.108408496
243	0x3d06b904	0.03289129
244	0xbd778302	-0.060427673
245	0xbd8c73a1	-0.06857992
246	0x3d66c3d1	0.05633909
247	0x3db0df03	0.08636286
248	0x3db5ce46	0.08877234
249	0x3e29640b	0.1654207
250	0xbd8f95c4	-0.070109874
251	0x3c902bef	0.017599074
252	0xbc7b3485	-0.015332346
253	0xbd799522	-0.06093324
254	0xbd87af7a	-0.066252664
255	0x3e1a0b8b	0.15043466
