output/LSTM/LSTM_adam_32_100/model/LSTM_epoch_70.pth (torch, 219346 bytes, 12 tensors)

lstm.weight_ih_l0 f4 [256, 11]
00000000: 7785 9c3d 958f 823b 8208 9c3c 28cc cbbd
00000010: 62ef 73bd d668 c43d 17dd e2bd 8a9f fcbd
00000020: 0c6c f8bd 9509 2a3c d376 ea3c 3fdf 81bc
00000030: 663f 013e 7d58 36bc 0cf3 a9bd f0e9 e9bc
00000040: 80d0 103a 0b6a da3d d471 033e 382d 803d
00000050: d82b 833d 43c3 ce3c 4085 8b3d e2a9 563d
00000060: 9a05 1c3b 9826 41bd 0ebd b6bd 755d 44bc
00000070: ac32 073d 2578 c93d 775f db3c 4e00 81bd
00000080: 86a8 683d 45b9 e13d 5545 22bd e171 0a3e
00000090: c4a8 773c 67af 0fbd c90f 5bbd 3e47 813d
000000a0: 53c9 e5bd 505e cbbd 273f a43d 7de9 4d3d
000000b0: 8856 1e3c 1dce 643d 45e7 4b3d e4f9 e43c
000000c0: 10bd 993c 257f b0bd 8785 a3bd 5232 08bd
000000d0: a139 843d c051 6f3b 7211 ca3c 220c d1bd
000000e0: 02a7 31bc 89ef 69bd b953 a63d fedb d53d
000000f0: 0cda c1bd 52d4 c53d e2ea 23bd d5e7 b73d
00000100: 91cf 9d3b 1f10 89bd c9ca 8e3d f0e8 01be
00000110: f05b ec3d 6061 a63c 604e 29bd 1437 143d
00000120: f8d2 41bd 2cf3 ffbc 40df 113d 3245 92bc
00000130: 2d5c 33bd 0709 8abd 699c babd 7448 e13d
00000140: bf00 dbbd 6ac5 973d 3f24 9c3b 4577 9f3c
00000150: 3045 1dbb c560 453b 0632 5a3d 61c7 783b
00000160: 0947 ea3d 1aa3 7dbd a91c c7bd dff3 87bd
00000170: 23a3 373d 2dd7 d83d 4fe8 ecbd 5d99 b7bd
00000180: d0fd 743d 91e3 8fbd 7154 0dbd 1a21 913d
00000190: de41 b039 af4e 42bd b233 9dbc d07b 48bb
000001a0: 7737 bc3d 6573 fabc e081 98bd b1a2 bcbc
000001b0: 47d8 6cbd fede 07be 5f11 0abc 390c edbd
000001c0: f4f1 7b3d 3684 fcbd eef5 86bd 3397 6f3d
000001d0: c548 66bd 2a5d d9bd 4046 873c 383c 08bc
000001e0: 6b23 bb3d 761c b8bc c8a1 bd3d 5c28 b8bb
000001f0: dce7 8fbd 0632 16ba 4e06 96bd 9d2a aabd
00000200: d2fa adbd 68dc b43d 8dac 233d c938 6ebc
00000210: 7c50 033e 25b9 d13c bf68 dd3d 1ba4 65bd
00000220: e967 be3d 1f31 c73d 08fa b4bc ee5d 5e3d
00000230: 699f 9c3d a530 b23d ebf6 123c 4428 e63d
00000240: cd2d 97bd d49f 6f3d 7af7 d53d 9aca dd3d
00000250: 0c0e a13d c832 1fbd 9663 2d3d 91ab 3cbd
00000260: bd7c 1b3d dfbe 613d f030 c2bd 5813 9f3d
00000270: 8351 07be 910d 08bd ac65 883d 313b b23b
00000280: 560b bebd a193 3e3d cb18 2e3c ea0a a33c
00000290: 8980 de3d adaa e53d 15b1 e4bd d93c be39
000002a0: a24f d83d 4173 c1bd 5a79 4abd dbe0 04be
000002b0: 8cc9 01bc 21c8 94bc 6e11 743b 2fe9 0cbe
000002c0: 166d 08bc dff7 883d e465 583d c1d7 38bd
000002d0: dd78 86bc 1138 dc3d bca7 4abd 2881 babd
000002e0: e66e f23c 9b2a c73d 8a8d 3cbd bc34 873d
000002f0: f07e b13d fcc9 b2bd 6105 1d3d 9725 33bd
00000300: ab9c 30bd 95a3 d53d 2ff9 ea3d 5e69 c1bd
00000310: 4171 9d3d 705c 543c aca8 57bd d83b 923d
00000320: 7336 15bd d6c7 f33d fbee 1bbb 5c0a 5b3d
00000330: 2ce7 ab3d 17fc 48bd 26bc c2bd c18b 55bc
00000340: 76a1 0b3d 78a6 af3d e4f5 e6bd 564a cbbd
00000350: fc5c 07be 9020 873d fe66 933d b00c 903d
00000360: 1bdf 4dbd 0d93 22bd ffcc b73c 5a4e f53d
00000370: 40de 01be 829c 3c3e 7439 21bd 369a 3fbd
00000380: c63e 94bc 1a38 f0bc f43d 72bd 8196 e4bd
00000390: be3f 06be 7349 1cbe 1f9f e6bc f4d4 7bbd
000003a0: c827 303d dcff 943c c522 7c3d 5e51 87bd
000003b0: d516 c5bd b8ed f3bd 2891 0d3e 4f31 44bb
000003c0: 289c 463c 6ead 503e 28d6 173c 950b 613d
000003d0: 9887 093d 20f2 debd 821e e7bc ef57 803c
000003e0: d2c9 3b3d ae4c 373d 1ac8 963d c36f 913d
000003f0: f00f 973d dd1a e83d 51e9 9fbc 6c40 023d
0.07642644 0.0039844015 0.019047026 -0.09951049 -0.059554465 0.09590308 -0.11077326 -0.12335117
-0.12129983 0.010378261 0.028621113 -0.015853522 0.12621841 -0.011129496 -0.08298311 -0.028553933
0.0005524233 0.10664757 0.1283639 0.06258625 0.06404847 0.025239592 0.06812525 0.052408107
0.002380705 -0.047155946 -0.08922778 -0.0119851725 0.03300731 0.09837369 0.02677892 -0.06298886
0.05680134 0.110216655 -0.0396169 0.13520004 0.01511592 -0.035079386 -0.05348185 0.063124165
-0.1122004 -0.09930098 0.08019858 0.0502715 0.009664185 0.055860627 0.049781103 0.027951188
0.01876691 -0.08618001 -0.07984453 -0.033251114 0.06456304 0.0036517233 0.024666522 -0.10207392
-0.01084304 -0.057113204 0.081214376 0.10442351 -0.09465417 0.096596375 -0.040018924 0.08979765
0.0048160036 -0.06692528 0.06972272 -0.12686515 0.11540973 0.020310104 -0.04133451 0.03618534
-0.047320336 -0.031243883 0.0356133 -0.01785526 -0.043789078 -0.06740003 -0.09111864 0.110001475
-0.10693502 0.074107006 0.004765063 0.019466052 -0.0023997538 0.0030117494 0.053270362 0.0037960636
0.1143933 -0.061923124 -0.09722263 -0.066383116 0.044833314 0.105879165 -0.11567747 -0.089647986
0.059812367 -0.07025827 -0.034504358 0.07086392 0.0003361841 -0.04743832 -0.01918969 -0.0030591376
0.091902666 -0.030572603 -0.07446647 -0.023026796 -0.057823446 -0.13268659 -0.008426993 -0.11574597
0.06151004 -0.12329905 -0.06589876 0.058493804 -0.056221742 -0.10613473 0.01651299 -0.0083151385
0.09137615 -0.022474509 0.09259373 -0.0056200456 -0.070266455 -0.00057295 -0.07325421 -0.08308909
-0.08495106 0.08831102 0.03995948 -0.014539906 0.12823671 0.02560098 0.10810994 -0.056064706
0.09297163 0.09726166 -0.02209188 0.054288797 0.076475926 0.087006845 0.008970003 0.11238149
-0.07381783 0.058502033 0.10447593 0.10829659 0.07864007 -0.03886679 0.0423313 -0.046062056
0.037960757 0.05511367 -0.0948199 0.077673614 -0.13214688 -0.033216063 0.06660017 0.005439185
-0.09279506 0.04652751 0.010626028 0.019902665 0.1086436 0.112141944 -0.11166588 0.0003628496
0.10562064 -0.09445811 -0.049432136 -0.129764 -0.007921588 -0.018161835 0.0037241834 -0.13760827
-0.008326789 0.06687903 0.052831545 -0.045127634 -0.016415054 0.10752881 -0.04947637 -0.09106666
0.029593896 0.09724923 -0.04603342 0.06601855 0.086667895 -0.08729932 0.038335208 -0.04373702
-0.04311816 0.104315914 0.11473309 -0.09443925 0.07687617 0.012961492 -0.052651092 0.071403205
-0.03642888 0.1190335 -0.0023793567 0.053476676 0.08393702 -0.049068537 -0.09508543 -0.013033808
0.034089528 0.08576673 -0.11277369 -0.09926288 -0.13219064 0.06598008 0.071973786 0.0703367
-0.050261598 -0.03969102 0.022436617 0.11977835 -0.12682438 0.18419078 -0.039361432 -0.046777926
-0.018096339 -0.029323626 -0.059141114 -0.11161519 -0.13110253 -0.15262394 -0.028152047 -0.061482385
0.04300669 0.01818841 0.061556596 -0.066073164 -0.096234955 -0.11910576 0.13824904 -0.0029936617
0.0121221915 0.20378658 0.009267367 0.054942686 0.033576578 -0.108860254 -0.02821279 0.01566693
0.045846768 0.04475086 0.07362385 0.07101395 0.07376087 0.11333249 -0.019520434 0.03179972

lstm.weight_hh_l0 f4 [256, 64]
00000000: 8d1d e73d 9518 ab3d d780 b63b 00e5 00bd
00000010: 602c 60bc 84c8 cdbb be62 b9bc d28d c9bd
00000020: 17c7 003d ba33 41bd 1035 053b 7fa1 02be
00000030: 9800 92bd 3df3 703c 15df b0bc bba8 5ebd
00000040: bcb3 4f3c 2a73 09bc dc60 4dbd ecb0 803c
00000050: 888e 963d 7415 27be f1b9 df3c 2ec5 fbbd
00000060: 4ff4 05be 59b9 b13d e04e 013e 174c b53c
00000070: 4f08 9c3d f527 b83d 479d 7cbd 3111 0e3d
00000080: 88ae fe3d 9d62 793d 5b0e 8fbc e717 3ebd
00000090: 6958 c13d cb97 393d 46fb 7c3c 19a6 943d
000000a0: 2097 40bd 3ab4 a33b cec1 09be fcb4 e1bc
000000b0: da23 f73c 58f5 9abd 56b3 a2bd 6e7f d73d
000000c0: 2c4a 2cbd df4f 1b3b c281 9dbd eaf0 383d
000000d0: 295c 833d 36f1 a5b9 f285 7ebd b921 b83d
000000e0: cf16 833d 2309 debb dda0 57bd 482b 9dbd
000000f0: ed6d 853d d5f9 463d d54c b03c 45e9 d7bd
00000100: c777 6cbd ea6a 2abc ce6c ebbd 955d 313c
00000110: 269e e33d 9ab4 343d 01fb f23c 7e7c 9d3d
00000120: c91d 1fbd 3c2b f43d ba5d b83b 45cb 733d
00000130: 69e9 e9bd d1dd d1bd 060c 51bd c51e 84bd
00000140: 6505 2abd a563 a0bd c563 1b3a 0e7e febd
00000150: a9d6 5cbd b905 8f3d cc79 ef3d 80fb d0bd
00000160: da72 a3bd bd1f c73d 2b2c c43a 4b28 0ebe
00000170: 4632 6c3d 5700 dabd 7553 e5bd c4b2 bf3d
00000180: b5c9 513d b947 d9bc c404 053e 6985 573d
00000190: eaaa f1bd a98d a23c 3c31 92bd f025 b63d
000001a0: 3887 a2bd 66bc ce3d 6aef 623d 607c 59bd
000001b0: d88e 9cbd 9dc3 d5bd 34ce 76bd 8641 26bc
000001c0: 941c bfbc d42e a73c f7f8 b8bd d232 66bd
000001d0: 3aba 013d 1ba5 d23d 56f0 d93d a987 0abe
000001e0: 82de 803c 3e2c af3b 745d 6bbd 0a21 863d
000001f0: 0560 dc3c 2e31 e1bd d461 c33d aa66 ee3d
00000200: 363c a9bd 0806 8e3c e710 e63d 56d0 debd
00000210: 7414 b43d 3e69 243d 2d11 f53c b3e2 77bd
00000220: 1d17 17be 49b6 0d3d cb52 5c3d 01dd c13c
00000230: bd1d 183e 1527 e1bc 92e2 523d bf01 873b
00000240: 4b08 093d 4dd3 54bd cbb4 8dbc d2a9 b03d
00000250: 5ebf 03bd b4b6 00be d4e7 db3d 6e10 403d
00000260: 115c 653d 9465 19be d37f ccbd ffa4 563d
00000270: b4eb 19bd 96b8 993d 1d58 f3bd fe42 993d
00000280: 4c83 843c ff38 823d 8b51 953c 78b6 0cbe
00000290: fb12 dfbd 7b06 6bbd e5f4 53bd 1240 013d
000002a0: c3f3 af3d 6ac2 fabd 6766 f83d ea60 ad3d
000002b0: 24d6 19bd 2fe6 4b3e 4d75 a43d 7eea ce3d
000002c0: 3176 2e3c cbaa eabc 0fc5 2abd 2233 8a3c
000002d0: 2f01 0fbd cdbf f1bd babc bd3d 53c2 593c
000002e0: c28e ad3d c8d9 b3bc 7140 a8bd ba27 863d
000002f0: 9266 bebd e668 a1bc 92f0 6ebd 5adb d4bd
00000300: c000 d33d decd d1bd badd aa3d ea62 bfbd
00000310: 273d d53a 8344 e43c d196 2fbd 8adc f7bd
00000320: 8213 5bbd 464c 2d3d 5e91 b03d ad2f b73c
00000330: d324 ccbd 0f23 a1bd 3294 93bd 6a32 c2bd
00000340: 83e3 1a3d 4d8e a1bd 60f2 93bd 1e33 0c3e
00000350: 0fee 77bd fcf1 9e3d f8aa ff3c 863d ca3d
00000360: 0203 0a3e 6ca7 0d3d 9983 e0bd 03b6 d43d
00000370: f9a1 39bd 728f eebd c293 8ebd 6c10 91bc
00000380: 8911 a13d fbdb 613d 771d 99bd 6084 6ebc
00000390: f26a d63b 98cf 6d3d ae15 4a3d 34c5 d9bc
000003a0: 6712 ac3d 3037 9abd 1ed0 c4bd 6051 ea3d
000003b0: a370 eb3d 6fc0 e23d 04b6 f53d 8112 94bd
000003c0: 51ed a1bc 94f8 71bd 264d 633d b43f 38bd
000003d0: 3632 d6bd 7ea5 e33d 277a f3bd 18b3 203d
000003e0: 0ce2 cdbd a592 8abd c424 a7bd 2d70 f5bd
000003f0: f4a3 b7bd 8a08 523d 1c26 c5bd a81b 123d
0.11284933 0.08354298 0.005569558 -0.03146839 -0.013682455 -0.006280007 -0.022630092 -0.09841503
0.031439867 -0.04716847 0.0020325817 -0.12756918 -0.071290195 0.01470643 -0.021590749 -0.054360133
0.012677129 -0.008389274 -0.0501412 0.015709363 0.073514044 -0.16316777 0.027310343 -0.122934684
-0.13081478 0.086779304 0.12627745 0.022131009 0.07618772 0.08991996 -0.06167343 0.034684364
0.12435633 0.06088506 -0.0174629 -0.046409514 0.09440691 0.045310777 0.015440768 0.07258243
-0.047019124 0.00499585 -0.13452837 -0.02755212 0.030168463 -0.07566327 -0.07944362 0.10522352
-0.042062923 0.002369873 -0.07690765 0.04515163 0.064140625 -0.0003165097 -0.06213946 0.08990807
0.06400835 -0.0067759915 -0.052643646 -0.07674271 0.06515107 0.048578102 0.021521011 -0.105425395
-0.057731416 -0.010401467 -0.11495362 0.010825534 0.11114149 0.044117548 0.029660704 0.076897606
-0.038846765 0.11922309 0.0056264075 0.059520025 -0.114214726 -0.10247386 -0.051036857 -0.06451181
-0.04150905 -0.07831506 0.00059276476 -0.12426387 -0.053915653 0.069835134 0.11693153 -0.1020422
-0.079808906 0.097228505 0.0014966776 -0.13882558 0.057665132 -0.10644596 -0.11197559 0.09360269
0.051217753 -0.026523458 0.12990099 0.052617464 -0.118001774 0.01984294 -0.07138297 0.08893955
-0.07935947 0.10094528 0.055404104 -0.05309713 -0.07644433 -0.10437701 -0.060255244 -0.010147458
-0.023329057 0.020408072 -0.09031861 -0.05620081 0.03167174 0.102853976 0.106415436 -0.13528313
0.0157311 0.0053458503 -0.05746217 0.065492705 0.026901254 -0.109957084 0.095401436 0.11640675
-0.082634374 0.01733686 0.112336926 -0.10879581 0.087929636 0.04013943 0.029915417 -0.06051893
-0.14754911 0.03459767 0.053789895 0.023664953 0.14855094 -0.027484456 0.051485606 0.004120081
0.033455174 -0.051959325 -0.017298123 0.08626141 -0.032164924 -0.12569696 0.10737577 0.04689067
0.055996004 -0.14980155 -0.09985318 0.052403446 -0.0375783 0.0750591 -0.11882041 0.07483481
0.016175888 0.063585274 0.01822736 -0.13741481 -0.10892292 -0.057379227 -0.05174722 0.031555243
0.08591416 -0.12244113 0.12128907 0.084657505 -0.037557736 0.19912027 0.08030186 0.101033196
0.010648296 -0.028645894 -0.041691836 0.016870085 -0.03491324 -0.11804161 0.09264512 0.013290959
0.084744945 -0.021954432 -0.08215416 0.06550546 -0.092969075 -0.01970334 -0.058334894 -0.103934005
0.103028774 -0.10244344 0.08343072 -0.09345038 0.0016268835 0.0278647 -0.04286844 -0.12102611
-0.0534854 0.04230907 0.086214766 0.0223616 -0.09967961 -0.07868015 -0.072060004 -0.09482272
0.03781463 -0.0788847 -0.07223964 0.13691375 -0.060529765 0.077609986 0.031209454 0.09875016
0.1347771 0.034583494 -0.109626 0.103862785 -0.045320485 -0.11648454 -0.06961776 -0.017708026
0.07864673 0.05514143 -0.07476323 -0.014557928 0.0065435106 0.058059305 0.04933708 -0.026583292
0.084019475 -0.075300574 -0.09610008 0.11441302 0.11496093 0.1107186 0.11997607 -0.07230092
-0.019766482 -0.059074953 0.055493496 -0.044982627 -0.10458796 0.111155495 -0.11888533 0.039233297
-0.10052881 -0.067662515 -0.08161309 -0.119842865 -0.089668185 0.051277675 -0.096264094 0.035670906

lstm.bias_ih_l0 f4 [256]
00000000: 1bc5 c03c cf89 fabd 2b0f b83d 8815 ad3d
00000010: ce2c c53d 6a21 3d3d 6bfd 0b3d 7a41 c43d
00000020: 1a10 53bc a700 96bd 3f74 9dbd 6e28 debd
00000030: 26b0 6bbd 13f9 40bd 6315 77bd 24c4 f4bd
00000040: 8429 8abd 1fe5 84bd f5c8 013e 07f6 ae3d
00000050: 2cf5 88bc 112a 5cbd 8cde 653a ac68 ed3d
00000060: 8af5 a03d a383 073c 95e8 303b a7b6 343d
00000070: 8c9c 283d abd4 92bd baaf 63bb 07b1 433d
00000080: cdea bcbd 545e 24bd 3985 9fbd 8893 12be
00000090: c7d3 c4bd 84f6 f93d 9b51 ec3c 22a2 d93d
000000a0: fd32 7fbc 53ca 9abd 20a6 04be 514b 783d
000000b0: a647 953d 0e2e a0bd 561b f53c 945e 92bc
000000c0: cce0 4cbd 520b efbd 6de8 c8bd e2ec 00be
000000d0: 6be7 003d 3a0b 09be b3b2 2abd 41d0 8b3d
000000e0: 2759 babc a060 44bd 08bb bb3d f643 dcbd
000000f0: f4e4 18bd 6502 f53d 92c7 113d b42c d1bb
00000100: d1ce 373d 3e0c 45bd 36a8 71bd d835 96bd
00000110: 7d04 cbbd 523b b0bd 38dc 93bd 658d 343d
00000120: 9406 0bbd 74f8 c83d 6309 08be b341 d4bc
00000130: 08f9 aa3d 5a0f d73d 9693 843c ea23 b93d
00000140: 6b3a 9dbc c0b1 42bd e8e2 da3d 76b2 81bd
00000150: 4a84 5fbd 81ea 473c 362d 8d3d 2247 83bd
00000160: 6262 843c d73a c13d 36aa 69bd 7de9 0ebd
00000170: 38e0 8abd 54c9 b53d d9c8 d63d 9a73 8fbb
00000180: f2b2 32bb 980e 26bd 189f febd beae babd
00000190: ac12 d63d 0dbe 40bc 16a7 c83d 7c66 b23d
000001a0: bd9c 6cbd 50da 73bc 5cb2 8ebd 53a2 993d
000001b0: 23dc 06bd a9fd 2c3d c370 99bd d50c 643d
000001c0: 1684 b6bd 1e29 443d 08be 96bd 798a d8bc
000001d0: 6d6c 8f3d 84a3 9ebd 7107 053b 5327 c03d
000001e0: e5ca e93d d79d 473d 257e a5bd 4484 133e
000001f0: e9f2 9dbd 0822 673d 7abe 92bd ba4c 013e
00000200: d753 75bd e6ad 0d3d c8af 0ebe 805c cbbc
00000210: 8fa5 3dbd 4656 99bd fbcc 25bc b3f3 b03d
00000220: 7d03 b3bb fcd0 663d 284f 8abc 473c a43d
00000230: 4f02 58bd 32a7 18bc f638 d3bd 7060 5f3c
00000240: eb38 38bd 77dc 2dbd 6c62 aa3d da6b f73d
00000250: fde5 c4bd 2c5c e2bd f5ec 26bc bef4 913d
00000260: 6b48 d9bc ce9a e8bd 3133 11bd 2011 853d
00000270: 9bc3 cabd 3ce6 6b3d b731 ed3d e766 b8bd
00000280: a106 37bc 5a9d bcbc f844 cd3d f2fa 863d
00000290: 1ecb 043d 3957 dbbd 0bf8 6dbd 1f95 023c
000002a0: 9cf4 3cbd 73f5 83bb 1067 a3bc af94 02bc
000002b0: eb3c 1c3d c902 013c 13f3 b5bb 6b4b 9a3d
000002c0: 66cf 75bd 79c7 65bb 2ae6 adbd 2c3e 91bd
000002d0: 3795 c5bc 5918 a3bd f325 be3d 5132 803c
000002e0: 74b0 96bd 157e 453b e904 cbbd 6331 e03c
000002f0: 1aa7 cabd 2dd8 0f3e 049f bd3d 9217 9dbd
00000300: deef a0bc d866 2abc 63ea 28bd 641b 5cbd
00000310: 1ed4 13bd 5437 e8bc 8c22 b93d dfe1 333d
00000320: d005 4e3d 8b69 d8bd eb75 b4bc 8d60 7a3c
00000330: 5fd6 f43c 57ee 583d 7515 433d f01a 32bd
00000340: c411 0ebe 8e31 24bd 90e9 29bd 95e8 89bc
00000350: ed7d 03bc c6dd 1e3e f8a9 d33d a8c3 223d
00000360: b45d 59bd adef 98bd 0593 673d b690 9b3c
00000370: f683 823d 768f a13d b834 d73d c1e3 e4bd
00000380: 230f 9fbc 1a02 cdbb 941f c43c 8d5d d4bd
00000390: 2843 01bc de61 c43d 3ff3 9b3c 1ab9 d5bd
000003a0: b8a8 f13d e1f6 023e 67c8 d8bd 56a0 d53c
000003b0: 137c dabd a91e d53c ec62 dabc e4a5 2c3d
000003c0: 2b72 8d3d f9fc e7bd 0504 e73c 4a0c d73c
000003d0: a666 983d 79a0 cb3d 1402 9abd 4e40 b33c
000003e0: ed9a 80bd bfee 133d 7128 d0bd 4d46 853d
000003f0: 5a68 97bb aa3f c43d fd96 47bd 05a4 f6bd
0.023531487 -0.12233316 0.08987268 0.084513724 0.096276864 0.046174444 0.034177225 0.09582801
-0.012882257 -0.07324343 -0.07688188 -0.10847555 -0.057541035 -0.047112536 -0.06032313 -0.11951473
-0.067462 -0.06489014 0.12674315 0.0854302 -0.01671847 -0.053751055 0.0008768819 0.1159223
0.07859333 0.008271131 0.0026994098 0.044119503 0.04116492 -0.071694694 -0.0034742192 0.04777625
-0.09224472 -0.04012902 -0.07789082 -0.14314091 -0.09610706 0.12205222 0.028847506 0.106266275
-0.015576121 -0.075581215 -0.12953997 0.060618702 0.072890565 -0.07821284 0.029920261 -0.017867364
-0.05001907 -0.11672081 -0.09809957 -0.12590364 0.031470697 -0.13383189 -0.041674327 0.06826831
-0.02274759 -0.04794371 0.09166533 -0.1075515 -0.03732772 0.11963347 0.035590716 -0.006383503
0.04487497 -0.04810738 -0.05899831 -0.07334489 -0.099129654 -0.086050645 -0.07219738 0.044080157
-0.03394182 0.09813014 -0.13284831 -0.025910234 0.0834828 0.10500975 0.016183656 0.09040053
-0.019192895 -0.047532797 0.1068781 -0.06332867 -0.05456952 0.012201906 0.06893389 -0.06410052
0.016160194 0.09435051 -0.05704709 -0.03489064 -0.067810476 0.08876291 0.104875274 -0.0043777945
-0.0027267304 -0.04054126 -0.124326885 -0.09115361 0.1045278 -0.011764062 0.09797494 0.087109536
-0.057766665 -0.014883593 -0.06967613 0.07501664 -0.032924782 0.042234097 -0.07492211 0.0556763
-0.08911912 0.047890775 -0.07360464 -0.026433216 0.070031025 -0.07746032 0.0020298625 0.093825005
0.11415652 0.048734512 -0.08080701 0.14405924 -0.07712347 0.05642894 -0.07165237 0.12626925
-0.05989441 0.03458967 -0.13934243 -0.02482438 -0.046300467 -0.074871585 -0.010119672 0.08640232
-0.0054630623 0.056351647 -0.016883448 0.080193095 -0.052736577 -0.009317206 -0.10313599 0.013633832
-0.044976156 -0.04244658 0.08319554 0.12081118 -0.09614179 -0.11052737 -0.010188331 0.07126759
-0.02652379 -0.11357652 -0.03544921 0.06497407 -0.0990059 0.057592615 0.11581748 -0.09004002
-0.011171014 -0.02302425 0.1002292 0.06590833 0.03242027 -0.10709996 -0.05809788 0.007970124
-0.046131715 -0.0040270626 -0.019946605 -0.007970019 0.038144033 0.007874199 -0.0055526583 0.07533916
-0.060012244 -0.0035061522 -0.08491166 -0.070919365 -0.024119003 -0.07963628 0.09284582 0.015648993
-0.073578745 0.0030134965 -0.09913046 0.0273673 -0.09895153 0.14047308 0.092588454 -0.07670511
-0.019645628 -0.010400496 -0.041239154 -0.05373706 -0.036090963 -0.028346695 0.090397924 0.04391658
0.050298512 -0.10567006 -0.022028884 0.015281809 0.029887376 0.052961674 0.047627885 -0.04348272
-0.13873965 -0.04008632 -0.04148251 -0.016834537 -0.0080256285 0.15514287 0.10335153 0.039737374
-0.053067878 -0.074675895 0.056536693 0.018989902 0.06372826 0.07888691 0.10508102 -0.11176253
-0.019416397 -0.006256354 0.023940839 -0.10369406 -0.007889546 0.09588979 0.019036887 -0.10435696
0.11799759 0.1278949 -0.10585099 0.02607743 -0.106681965 0.026015596 -0.026658498 0.042150393
0.069065414 -0.113275476 0.028200159 0.026250977 0.07441454 0.09942717 -0.075199276 0.021881249
-0.0627955 0.036116358 -0.101639636 0.065075494 -0.004620594 0.095824555 -0.048727978 -0.12043003

lstm.bias_hh_l0 f4 [256]
00000000: 41cb cd3d 3cfd babc 1cb0 b53d ebc5 f73c
00000010: 72df cc3d 49b4 f13d 4eb4 e4bc aa42 663d
00000020: ef53 5dbd d116 95bd 598e cb3d 0dd6 7f3d
00000030: d7dd 1a3d 7884 cfbd c4a4 133d 5184 cebd
00000040: d633 d4bb c24e c0bb 26b7 fe3d 3471 923d
00000050: 252d a53d 9150 3e3d 2451 c43d 2c39 68bd
00000060: 9976 a2bd f399 e53d 5505 ebbd b562 d5bd
00000070: 927a b23d 04be a6bd 5852 b2bc af2b 3bbc
00000080: 57ce a5bd ee38 91bd a334 99bb 7170 36bd
00000090: b2c4 04be 426b ce3d d986 a93d 88bb a93d
000000a0: f289 2cbd d914 34bd ea04 953c c635 0d3e
000000b0: 6400 6abc 4754 59bd fab4 103b 3a93 7bbc
000000c0: 9891 acbd bc1d 843d 8c07 babd d53f 6dbd
000000d0: 98f7 ac3d 212e d8bb a4cd afbc 0549 b3bd
000000e0: ce45 e0bd ea9e ea3c 37fa 833d ae50 233d
000000f0: e5a4 cebd b5b5 7f3d 4ed2 f9bd 140c f23d
00000100: e240 bf3d b626 b638 2462 5e3d 64a3 b53d
00000110: 6d38 013e a532 cdbd 9c82 8bbd d5f4 a53c
00000120: ec0c d63d 1e6f f03d bf18 9cbb 7a16 ee3d
00000130: ee36 8b3d 7f07 a5bd 24ad cdbc 64ed babd
00000140: fdbe 57bd 8d78 efbc f5dc f83a 0ed0 d8bd
00000150: eb60 8e3d 8f95 093e 10dd a2bc 6416 b33d
00000160: 760d 19bd fa9a fc3d 9d08 f9bb 7924 243c
00000170: 6d44 9e3a 70c3 fb3d 690d eabd c2b7 ff3c
00000180: 248c 7dbd eac1 da3d 73f7 bbbd 1a14 8c3d
00000190: 54a6 12bd 3931 0e3e 4fb9 b3bd 0daf ffbc
000001a0: 5cbf 37bc b692 17bd 0625 833c 0ee5 8abd
000001b0: 325b 393d 397e 59bc 48d2 8bbd 839e 80bd
000001c0: 5b05 87bc 8bae 16bd 316f 8a3c f401 74bd
000001d0: 2c67 2b3d 162a aebd 096b 063d 58c8 91bd
000001e0: 8874 5bbd 7791 d83d 8c22 6ebd 1808 8b3d
000001f0: f489 953b 3bd9 ea3d 9e41 7cbd c2ba eebc
00000200: 61a3 17bd 357b e93d cbd4 b63d b9fe 09bb
00000210: c65d 44bd 0240 5dbd 4527 513d a6e3 873d
00000220: 3754 7e3d d748 adbd aab9 c23d 4dd5 c6bd
00000230: 1955 e73d a001 20bd 74a3 b1bd 8cdf cabd
00000240: 7f8b 20bd 231c e03d efdb 1f3d a874 b93d
00000250: 8eaf 723d 39fe 683d b7fd b4bb 525e 053d
00000260: 5a45 f4bd 00a5 d43c 48af a9bd f281 e33c
00000270: 34b3 55bd e1e6 053e 098d 52bd 1093 383d
00000280: b6a9 edb9 6f28 263d 6680 d6bd e69c a93d
00000290: 3fcb 643d e9f4 4f3d ff6a 8d3d 1186 423d
000002a0: 933d bd3d 25ed 533b ba6b fe3d c36e 8dbc
000002b0: dc95 bebc 06a9 dabd 2252 dabd ec72 88bd
000002c0: ce8a ae3d f8f3 44bd 99f5 eb3d f40c fdbc
000002d0: 74e6 ae3d cb88 4cbd 5222 9d3d fb5f 923b
000002e0: aeec 88bd 4011 573c e719 253d 5f73 d03b
000002f0: c594 be3d 592d c1bd 43b3 cc3c 41d8 28bd
00000300: f501 c9bd 97a3 dfbc 532a cdbd e525 053e
00000310: 2abf 173d ea34 223d 9290 d93d 32d3 b2bd
00000320: eada 573d bdab 9fbd 857d 88bd b89d d8bd
00000330: 35e4 7cbd 0bf5 e2bb 43c5 7cbd d6f7 f63c
00000340: 52cc 0c3d 56e0 033d a631 643c 84ee e13d
00000350: 3929 ffbc a8ac ef3d 2c01 68bb b31d a73c
00000360: b177 a93d f43c 3ebd 68ed e33d acf1 37bc
00000370: cc87 eebc a7be 443d b2b3 18bd 9080 383d
00000380: bb37 403d a36e 393b 1575 e9bd a2c3 0bbd
00000390: ba33 2abb c3df e9bd b476 2fbc 5113 8d3d
000003a0: 1b4b 38bc fc70 ed3c 00cc 25bd 9e7c 42bd
000003b0: 7ad0 d0bc 7b53 babd 6f1c febd 673d be3d
000003c0: bcbd cdbd 7b50 bdbd c5b4 cfbd 2549 b4bd
000003d0: 3d62 30bd 9f1e 273d 4e1c 9dbd 5853 713c
000003e0: 94fb ccbd 49cd febd 581c 8ebd f2a7 d83d
000003f0: 49f4 bfbc d2fc c1bd e5a9 d43d 186d c3bd
0.10048533 -0.02282583 0.08871481 0.030245742 0.10003556 0.11801965 -0.027918007 0.05621592
-0.054035123 -0.072797425 0.0993926 0.062459994 0.03780922 -0.10132688 0.036045805 -0.10083831
-0.006475906 -0.0058687637 0.124372765 0.07150498 0.08065251 0.046463553 0.09585789 -0.05669515
-0.07932777 0.11211004 -0.114756264 -0.104192175 0.08714785 -0.08141711 -0.02176778 -0.011423989
-0.08095997 -0.070909366 -0.0046754642 -0.044540826 -0.12965658 0.100790516 0.08277673 0.08287722
-0.042123742 -0.043965194 0.01819082 0.13790044 -0.01428232 -0.05305889 0.0022080527 -0.015354926
-0.08426207 0.06450984 -0.09083471 -0.057922203 0.08445662 -0.006597296 -0.021460362 -0.08754162
-0.10950814 0.02864023 0.06444209 0.039871864 -0.10090045 0.06242915 -0.121983156 0.1181871
0.09338547 8.685647e-05 0.054292813 0.08869055 0.12619181 -0.10019425 -0.06812021 0.020258347
0.104516834 0.11739944 -0.004763692 0.11625381 0.067975864 -0.080580704 -0.025106974 -0.0912731
-0.052672375 -0.029232288 0.0018986749 -0.10586558 0.069520794 0.13435958 -0.019880801 0.08744505
-0.037366353 0.12334247 -0.0075999037 0.010018461 0.0012074836 0.12293136 -0.11428339 0.031215552
-0.061901227 0.106815174 -0.091780566 0.068397716 -0.035803154 0.13885964 -0.08775579 -0.0312114
-0.011215057 -0.03700515 0.016008865 -0.0678197 0.045252986 -0.013274723 -0.06827217 -0.06280234
-0.016482046 -0.03678755 0.016898723 -0.059572175 0.04184644 -0.08504121 0.03281692 -0.07118291
-0.05357793 0.1057462 -0.058138415 0.06788653 0.0045635644 0.11467215 -0.061586015 -0.029141787
-0.037021045 0.11400453 0.08927306 -0.0021056368 -0.04794099 -0.05401612 0.05106284 0.06635217
0.062092032 -0.08461159 0.09508069 -0.09708653 0.11295528 -0.03906405 -0.08673754 -0.099059194
-0.039195534 0.10942867 0.039028104 0.090554535 0.059249453 0.05688307 -0.005523409 0.032560654
-0.1192729 0.025957584 -0.08285385 0.027771924 -0.052172855 0.13076355 -0.051404033 0.045062125
-0.00045330607 0.040565904 -0.10473709 0.08281879 0.055857893 0.050770674 0.069051735 0.047491137
0.0924026 0.0032337394 0.12422891 -0.01726473 -0.023264818 -0.1067677 -0.10660197 -0.066625446
0.08522569 -0.04808423 0.115214534 -0.030889966 0.08540049 -0.049935143 0.07672562 0.004467008
-0.06685768 0.013126671 0.040307906 0.0063614096 0.09305719 -0.094324775 0.024987822 -0.04122186
-0.098148264 -0.027299685 -0.10017838 0.13002737 0.037047543 0.039601244 0.10623278 -0.087316886
0.052699007 -0.07796428 -0.06664566 -0.105769575 -0.061741073 -0.006926184 -0.06171156 0.030147474
0.034374543 0.032196365 0.013927853 0.11031821 -0.031147586 0.117028534 -0.003540109 0.020399904
0.082747824 -0.04644485 0.11129266 -0.011227053 -0.029117487 0.048033383 -0.037280746 0.04504448
0.04692815 0.0028294704 -0.11399285 -0.034122117 -0.0025970773 -0.11419632 -0.010709453 0.0688845
-0.011248375 0.02898454 -0.040477753 -0.047482125 -0.025490034 -0.09097954 -0.12407767 0.09289055
-0.100459546 -0.09243866 -0.10141901 -0.08803014 -0.043062437 0.040800687 -0.07671414 0.014729343
-0.10008922 -0.12441499 -0.06939 0.10578908 -0.023431914 -0.0947205 0.10383967 -0.09542292

lstm.weight_ih_l1 f4 [256, 64]
00000000: 50cd 44ba aa06 b03d 2f8d 04be 20a6 053e
00000010: a0e1 393d 18ad 103e 73ca d83d c306 8b3d
00000020: ba96 2a3d 72a0 c3b9 ddd9 06be 9787 8d3c
00000030: da94 9abd b5a4 f33c e6ea f0bd cf74 89bb
00000040: 56e2 a43d f9a3 29bc bcce 90bc 435d e2bc
00000050: 4c07 0fbc 358e 763d 5f01 373d 3f13 a5bd
00000060: 95b6 643d 2d85 cc3d c49a 1b3c 67c9 05be
00000070: 7eed bc3b 93b9 163b bc21 8a3d a793 6d3d
00000080: 5084 1fbd 9c75 723d 6d81 b73d a380 9cbd
00000090: 2ffc 6ebd 1f62 813c 3cc1 38be 5f7b 2dbd
000000a0: 81e7 bfbc d808 d13d 8f9d 6f3d e374 903d
000000b0: fde1 133d 5a20 a4bc b3f5 1ebd 91ab 26bb
000000c0: 5651 2ebd fe42 c9bd c113 82bd 457b 8f3d
000000d0: 51ca b9bc 035c a3bd 6158 073d fb7f 62bd
000000e0: 9f2c 50bd 56df 083d 27ca 843d c75e a43d
000000f0: 6c8c 653c 57df 89bd 4c94 803d cdba c83d
00000100: 5f47 b2bd 482c 13be f1f9 a83c f5be 77bd
00000110: f73a 8dbc 8f58 d63d 3d47 d3bd 693d babc
00000120: 8919 f23c b8b5 36bc c291 c1bd 0fdb e3bd
00000130: a6f0 343c 3c75 f8bc e0aa 32bd 5dd7 cb3d
00000140: f025 fbbd 9b39 d5bd eda9 a2bd 5a3a fbbc
00000150: 0d56 c9bc 5ce9 523d 374c 28bd 46f9 c73d
00000160: 5c20 043d 4b78 d9bc 4888 2d3d 9564 423d
00000170: e92d efbb 131e cebd c246 2a3d 809b 0abc
00000180: 2bd7 40bd 73fa 1dbe 7ef5 cf3d 1b5c ffbd
00000190: 1e72 c1bd 2384 9bbd 864a c8bb bb94 8b3d
000001a0: 581d b53d 62e8 acbd 55be ec3d 38b8 f23d
000001b0: f5fc 32bd fbb3 a8bc f0aa 163e da8c f93d
000001c0: 58c0 92bd de92 f23c a198 4e3d e420 013e
000001d0: 66a6 063d 894b 603d 0b51 66bc 4b00 003d
000001e0: 0f8a 51bd b823 053b 6437 be3c d4a1 243e
000001f0: 5892 a2bd 934b 8b3d 981d 3b3d 22ff b2bd
00000200: f6e1 e73d 7706 6abd 5b25 923d 8686 f83c
00000210: e5b8 4d3d d892 9b3d 3d27 5d3d 888a 9cbd
00000220: 382f 02bc bf1f b4bd 27d5 f7bc 14a0 07bd
00000230: 4078 663d 1321 d0bd f084 b6bd 253d c03d
00000240: d1d5 903d 5b84 e6bd fad9 8abd 30de d53c
00000250: 8ee3 bbbc dd83 893d 98e6 d2bd 7416 46bb
00000260: 0d81 953b 4bc5 6ebc 1f9d 89bd 6a2f 9e3d
00000270: df59 bf3c 201d e13d b168 f03d fce9 0c3d
00000280: d288 c3bd 537b 0fbc dba9 65bd 35f1 453d
00000290: 05c9 cdbd 0198 653d 9431 d83b b603 793d
000002a0: fef1 173d 2511 c23d 6842 1a3d f5b6 bebd
000002b0: 46a6 053e 4921 553d d05c da3c 9e61 2dbe
000002c0: 18a6 2fbd 4fd9 f93d 8353 c6bc eb70 4c3d
000002d0: 0399 013e e6d7 06bd c74f ac3d 5af1 db3c
000002e0: 1d02 87bd 1ca6 463d 0c7d fa3d 1df9 a6bd
000002f0: 5b94 ad3d 42fa 8dbd e419 0f3d 4906 da3d
00000300: e6ce 933c 9327 bebd 0a6d a13d b573 793d
00000310: 3d39 a4bd 7e7f 85bd 27db dfbd 0a1e edbd
00000320: 53a9 653c d036 00be bf41 8c3d d94b 7fbd
00000330: a9df a1bd 8380 ee3c ef43 753d f91e 023d
00000340: b612 d0bd 60bd e0bd aaa3 573d feee f1bc
00000350: d62e ebbd 9fbe 593c 7f23 d4bd b6f9 3cbd
00000360: 1519 b93d 87bc a43c ac13 8dbd f7d1 7fbd
00000370: 9e88 b83d 7aa1 3dbd 7ba4 023e 140e c0bd
00000380: 58f2 153d 8630 81bd f9d1 203c 8f78 493d
00000390: 5e1d c6bd 8a1c c5bc 321e e1bc 7445 9d3d
000003a0: 757f 373d 01fc 603c e016 253c fbc2 9a3d
000003b0: c6eb 70bd 3b5d febd 4864 cdbd e114 eebd
000003c0: 5759 953d 9c55 bd3d 1ebf ea3d d6d2 2fbd
000003d0: 4bde 5dbd 2bff 51bd 39a3 ca3d 776a 73bd
000003e0: 609e f93d a618 efbd f56a 2bb9 370c da3d
000003f0: 09fd cf3c fd1c b73c 58b2 af3c d918 a8bd
-0.00075074006 0.08595021 -0.12944482 0.13051653 0.04538119 0.1412853 0.10585489 0.06788399
0.04164765 -0.0003731284 -0.13169046 0.017276568 -0.075479224 0.029741624 -0.11763553 -0.004194833
0.08050983 -0.0103540355 -0.017676704 -0.027632361 -0.008729767 0.060194213 0.044679042 -0.080603115
0.055838186 0.09986339 0.009497348 -0.1306511 0.005765616 0.0022998794 0.067447156 0.05800214
-0.038944542 0.059194192 0.08960233 -0.07641723 -0.05834597 0.015793858 -0.18042463 -0.042353984
-0.02342582 0.10206765 0.05849987 0.07053544 0.03610419 -0.020034958 -0.038808536 -0.0025431851
-0.042558037 -0.09827231 -0.06351424 0.07005934 -0.02267948 -0.07976534 0.03304327 -0.055297833
-0.050823804 0.033416115 0.0648387 0.0802589 0.01401053 -0.06732052 0.062782854 0.098012544
-0.08705019 -0.1437236 0.020626994 -0.060484845 -0.01724003 0.1046611 -0.10316322 -0.02273436
0.029553192 -0.011151724 -0.09451629 -0.111257665 0.011043703 -0.03032934 -0.04361999 0.09953187
-0.122630954 -0.10411378 -0.07942567 -0.030667473 -0.024577165 0.05149208 -0.04108831 0.09764342
0.032257423 -0.026546618 0.042366296 0.047459204 -0.007299174 -0.1006433 0.041571386 -0.008459926
-0.0470802 -0.1542757 0.10154246 -0.124687396 -0.09445594 -0.075935625 -0.0061123995 0.068154775
0.088434875 -0.08442761 0.115597405 0.11851543 -0.04369827 -0.020593634 0.14713645 0.121850684
-0.07165593 0.029611047 0.050438527 0.12610203 0.032873534 0.054759536 -0.014057408 0.03125028
-0.051157054 0.002031548 0.023219772 0.16077358 -0.07938069 0.06801524 0.04568252 -0.08740069
0.113223955 -0.05713507 0.07136031 0.030337583 0.050225157 0.075963676 0.0539925 -0.0764361
-0.007945828 -0.087951176 -0.030253006 -0.033111647 0.056267023 -0.101625584 -0.089120746 0.093866624
0.07072032 -0.112557136 -0.06779857 0.026106924 -0.022935655 0.06714604 -0.102978885 -0.0030225785
0.004562503 -0.0145734055 -0.067194216 0.07723887 0.023358284 0.10991883 0.11738718 0.034402832
-0.09547581 -0.00875743 -0.05607019 0.048325736 -0.10048107 0.056053165 0.006597707 0.060794555
0.037096016 0.09475926 0.037660986 -0.0931224 0.1305171 0.052033696 0.026655585 -0.16931769
-0.04288301 0.121996514 -0.024209743 0.049912374 0.12656026 -0.03292074 0.08413654 0.026848484
-0.065922 0.048498258 0.12230882 -0.08152983 0.08475562 -0.069324985 0.0349368 0.1064573
0.018042993 -0.09284892 0.07882126 0.060901362 -0.0801873 -0.06518458 -0.10930472 -0.11577995
0.014017421 -0.1252091 0.068484776 -0.062328193 -0.07903988 0.029114014 0.05987924 0.03176782
-0.10159819 -0.109736204 0.052646317 -0.029532906 -0.114835426 0.0132900765 -0.10358333 -0.04613658
0.09037987 0.020109428 -0.06888518 -0.062456097 0.09010433 -0.046296574 0.12758057 -0.09377685
0.03660807 -0.06308083 0.009815686 0.04918724 -0.0967357 -0.02406146 -0.027480219 0.07679263
0.044799287 0.013731957 0.010076255 0.07556721 -0.0588186 -0.12420126 -0.10028893 -0.11625076
0.07292431 0.09244844 0.11462234 -0.04292568 -0.054167073 -0.051268738 0.098944135 -0.059427705
0.12188411 -0.11674623 -0.00016347675 0.10646861 0.025389211 0.02235269 0.021447346 -0.08207864

lstm.weight_hh_l1 f4 [256, 64]
00000000: fe1b f73d 00a4 373d c66e 083e ed29 fe3d
00000010: b17f 03bd 5162 0f3d a11c 223c 328c 533d
00000020: 6ecd c13d a538 85bd 5ff8 9e3d 4e06 fcbc
00000030: 2333 cbbd 939f 5dbd 6d27 cdbc 8568 553d
00000040: 6e0c dd3d e82e 8e3d 4326 4e3d ce18 b9bd
00000050: 991f eb3d 7313 9cbd 8ce3 68bd afa9 883d
00000060: e4f0 fc3d 10c9 ec3c 644a 6bbd b93f 8e3d
00000070: 3ee2 fcbc a6c2 c73d be55 333d e67e 463d
00000080: c838 00be 51da 4d3c 0218 94bd da09 b8bd
00000090: fb37 033e 1af6 84bd 184d fcbc 2b79 22bc
000000a0: c07b 813d 715f a7bd 79d7 38bd 40f8 02be
000000b0: cbb9 1d3d 91af a93d afe6 9f3c 6712 b63d
000000c0: df12 243b 450c 483d 0f1d c73c 802e d33d
000000d0: 64a2 503b a305 bc3d 7f45 5fbd aa4b febd
000000e0: eef1 3dbc 76cf bfbc 4bae 9d3d 06a2 8ebd
000000f0: 6be1 873d 60fc 783c f8ac bcbd 76df d53c
00000100: 81e3 de3d 6734 8abd 19e4 1ebd 6151 1c3c
00000110: 951c ce3d d095 a83d 1e32 d9bb b507 47ba
00000120: 9dcd 89bd fbdc 6b3d 3517 c83d 9b25 683d
00000130: 3e1b c5bd 8552 4abd cdd1 973d a3a1 0c3c
00000140: a17c 15bd 7242 e1bd bb8b c7bd 91f8 19bd
00000150: 6092 bcbd ee51 403d 68ec a3bc e39a 373d
00000160: 1c45 7dbd 24a6 1b3d 6a4e 54bc c916 f3bd
00000170: d55c 133d c4c9 c53c 6afb ca3d 6ab2 0c3d
00000180: f472 c0bd 647e cabd 35e8 513d bdcd d2bd
00000190: 9599 32bc 14a6 573d 4971 833d 0ada 7fbc
000001a0: fbda 84bd e1c4 02be 23cb a8bd 0f43 173d
000001b0: b68c bdbd 2ec8 013e f334 9abd 57d7 a23d
000001c0: df26 9b3c d622 79bd 491b 2b3c 60cb c33d
000001d0: 79cc 99bc 7a9b 683d 9b46 1abe 20cf eb3d
000001e0: 63b6 00be c80f 09bb df28 c7bd 417b a0bc
000001f0: c456 b13d 7a57 b6bd 0c03 153d e6b8 a13d
00000200: ce89 353c b319 a43d 27b5 cb3c 8f19 c1bd
00000210: 8a0a 1c3e a695 ea3d df5c 27bc 4a40 7fbd
00000220: d466 0fbc a570 e43d fa46 8d3c 3f35 863b
00000230: 7fdf a2bd 3b3c 75bd 5733 cbbd bee0 9d3d
00000240: df70 9abd 1e1b 5aba 088e 0bbd 2d34 f93d
00000250: 54bd afba bd58 933d 0404 853c 4e04 c4bc
00000260: ee9a d43d b156 b4bd 13bb 5ebc 7552 f03c
00000270: e06b 37bd 7d4e fb3d a805 e8bd 833d 5e3c
00000280: e94f a93d d5af 983c 9c04 ed3d ad05 fe3d
00000290: 01d0 913d 3473 7ebd 9028 383c 6929 853d
000002a0: c863 e6bd 4125 b9bd c078 23bd ad70 573d
000002b0: 7b20 5c3d 52e9 47bc d531 1b3b b4d0 853c
000002c0: 4140 a03d dbab 6c3d d45f 91bc 7d19 6abd
000002d0: 558e 49bd e9b2 8e3d 4f0e 9e3c 0efd 933d
000002e0: e42e a13d c7f1 f73c 6208 75bd 5622 97bd
000002f0: 1adc cc3d f7a0 0bbd 54b3 f2bd c2be f3bc
00000300: 1bea febc 71d2 753c e718 713d 6cfb 833d
00000310: 43d3 ff3c a334 efbc 2034 aebc 7b55 e4bc
00000320: fd26 9bbd 8c51 903d 0b9c be3d b0ee b23d
00000330: 67c9 523d 6b51 ad3d 689d 06bb c835 0c3e
00000340: 42be 14bd 0a11 8fbd a348 3ebd 86ca ca3d
00000350: 7ab6 ccbd ff94 a53d 1eeb 73bd 8655 463d
00000360: 775d 2c3d bc13 9ebd 0e41 a9bb c931 07bd
00000370: dfd2 b8bd 0871 c43d cc6c 713d f927 0bb9
00000380: 2781 09bd f936 9fbd b0b8 143d 2922 793d
00000390: 87d1 d5bd 6847 14bd 7c28 b3bd e4cb e33d
000003a0: 9078 003e 0ef6 81bd 65e7 b4bc 0aba 4e39
000003b0: fd9e bd3d 7f4f 2e3d df3e c1bc 96b5 78bd
000003c0: f527 b83c cad6 a83d 31a9 3fbd b3a0 473d
000003d0: 1597 b53d fa60 993d 64b9 8f3b bfde 283c
000003e0: 4099 8d3d 4b32 8bbd 7d08 ab3b 4fc8 bb3c
000003f0: 7cf8 15bd 0a38 8fbd 0a68 a73c 8e86 c9bd
0.12065886 0.044834137 0.13323507 0.124103405 -0.032104198 0.03500587 0.009894521 0.051647373
0.09463011 -0.06504945 0.07762217 -0.030764725 -0.09921863 -0.05410726 -0.025043214 0.05210163
0.107933864 0.069425404 0.050329458 -0.09037934 0.11480636 -0.07620897 -0.05685763 0.066729896
0.12350634 0.028904468 -0.05744399 0.06945748 -0.0308696 0.09753923 0.043782942 0.048460864
-0.1252166 0.012564258 -0.072311416 -0.08986254 0.12814324 -0.06492253 -0.03079848 -0.009916584
0.063224316 -0.08172501 -0.045127366 -0.12790012 0.038507264 0.0828544 0.019519178 0.08890229
0.0025035662 0.048839826 0.024305848 0.103116035 0.0031835074 0.091807626 -0.054509636 -0.124167755
-0.011593325 -0.023414355 0.07699259 -0.06964497 0.06634792 0.01519689 -0.09212679 0.026107531
0.10883237 -0.06748276 -0.03879175 0.009540887 0.10064045 0.082316995 -0.006628289 -0.0007592396
-0.06728671 0.05758379 0.097700514 0.05667649 -0.09624337 -0.049395103 0.07413063 0.008583459
-0.03649581 -0.109990016 -0.09743448 -0.037590567 -0.09207606 0.046953134 -0.020010188 0.044825446
-0.061833486 0.03800024 -0.0129581485 -0.1186958 0.035977203 0.02414406 0.09911235 0.034349836
-0.093969256 -0.09887388 0.05124684 -0.10293148 -0.010900875 0.05264862 0.06418092 -0.015615949
-0.0648708 -0.12770416 -0.0824187 0.036929186 -0.09255354 0.12674019 -0.075296305 0.07951229
0.018939434 -0.060824238 0.010443517 0.09560275 -0.018774258 0.0567889 -0.15065996 0.11514115
-0.12569575 -0.0020913947 -0.097245924 -0.019590022 0.08659127 -0.089034036 0.03637986 0.07896595
0.0110802185 0.08012714 0.024866654 -0.09428703 0.15238395 0.114543244 -0.010215013 -0.06231717
-0.0087525435 0.11154298 0.017245758 0.004095703 -0.07952785 -0.059871893 -0.09921902 0.07708882
-0.0754106 -0.0008320081 -0.034071 0.12168155 -0.0013407865 0.0719466 0.016237266 -0.023927834
0.10381113 -0.088055976 -0.013594407 0.029336194 -0.044780612 0.1227083 -0.11329204 0.01356447
0.08267195 0.01863853 0.11573145 0.12403426 0.07119752 -0.062121585 0.01124014 0.06502039
-0.112495005 -0.09040309 -0.039910078 0.05259769 0.053741913 -0.012201624 0.0023680825 0.016334869
0.078247555 0.05778108 -0.01774589 -0.057153214 -0.049208004 0.06967718 0.019293932 0.07226001
0.07870272 0.030266656 -0.059822448 -0.07379596 0.100029185 -0.034089055 -0.118506104 -0.029754046
-0.03111749 0.015003786 0.05886164 0.06444439 0.031228667 -0.029199904 -0.02126509 -0.027872792
-0.07575796 0.07046804 0.093071066 0.08736932 0.051461603 0.08462795 -0.0020540599 0.13692391
-0.036314256 -0.06985672 -0.04645599 0.099019095 -0.09995742 0.080850594 -0.059550397 0.048421405
0.042081323 -0.07718608 -0.005165226 -0.033006463 -0.090245955 0.095918715 0.058941647 -0.00013270964
-0.033570435 -0.07774157 0.036308944 0.060823593 -0.10440355 -0.03620091 -0.08747956 0.111228734
0.12545991 -0.06345759 -0.022082994 0.00019714996 0.0925884 0.042556282 -0.02358955 -0.06072005
0.02247999 0.08244093 -0.046792213 0.04873724 0.08866707 0.074892 0.004386114 0.010307013
0.06913996 -0.06796702 0.0052195177 0.022922663 -0.036613926 -0.069931105 0.020435352 -0.098401174

lstm.bias_ih_l1 f4 [256]
00000000: 5a97 f4bd 05d8 0e3c 99a7 b33b c41b a5bd
00000010: 0cb3 293d 603e b93d d439 9dbd afb3 b1bd
00000020: 9a23 eb3d 11d3 43bd 14d9 363d f9c6 013d
00000030: 6235 a6bd 742a 0cbd 12f2 c5bd 66cc 0dbc
00000040: 306a 163d 5533 823d 2572 b23c 60af c6bc
00000050: 4984 c03d e126 9c3c fc3a 4cbd c527 183d
00000060: 0f27 8ebd 5d8f f13d 79c7 153d 646c 9d3d
00000070: f437 80bd 002f 90bd 6ab2 c83d afd9 a93c
00000080: 9728 91bd 6640 e23c bb46 b1bb 47d6 19bd
00000090: 4b4a b73d e23d 653d 7f64 82bc c4a1 9fbd
000000a0: 2661 b2bd eb90 983d 69ca 623d 876b df3d
000000b0: 11f2 16be 23e3 8abd 75d3 f2bd d6c2 12bd
000000c0: c090 d93d 3b5e bebd 4644 dd3d dedf a2bd
000000d0: ab40 62bd bf82 af3d f2c1 5dbc 5e0b 9e3d
000000e0: 64a8 b8bc cc21 40bd 2b7e b1bd 48f9 87bd
000000f0: 71e9 5ebc 4365 c93c afc3 c8bc 1171 113d
00000100: df06 bf3d 1ebe a9bd 6258 a73c d7b7 0abd
00000110: 99b7 fbbd 8630 c83d 8ef2 883d b08e bdbd
00000120: ed52 633c 3cf4 693d c2ce e0bc 2247 abbd
00000130: 8f73 443d 7485 8a3d 3fd7 593d cc39 0dbd
00000140: c6c7 9bbd 29e1 08be 23c6 b8bd cc1e 3d3d
00000150: 9b11 7ebd 435e d2bd 77cd e53d b6c8 bd3c
00000160: d375 003e c777 7d3d 2b74 18bd 6720 b7bd
00000170: 8f49 263d ec42 d73b 7320 923b 8449 ee3d
00000180: 1634 c9bc 6fdb 413d 6702 d63d bae0 513d
00000190: dc56 c5bd 0465 c03d 251d 85bc 2d29 f2bc
000001a0: 3158 ca3c 4ada 9c3d bb7d e5bd 08bf 4b3c
000001b0: 176c ecbd c508 c23d 656f 243c dd0e a9bd
000001c0: 0ded d83d fd92 fa3c 6284 9ebd 6222 31bd
000001d0: 5b53 363d 1da4 d03d ec0a 2bbc 473b e7bc
000001e0: 85a0 1d3b a8ed 34bd 9f50 a93d e922 003e
000001f0: f3db 8cbc 3f37 b73d b4a0 dd3d 1348 4ebd
00000200: 80b6 a0bd 0460 e03d f2ef 503d f1b7 763d
00000210: ed35 f73c 65f5 30bd 3e8a 943c 916e e53d
00000220: 331a ee3c c912 90bd 423b d9bd a5da 9b3d
00000230: 1521 91bc 3cf0 f03d 9fd0 e7bd 075d c2bd
00000240: d6b7 bbbd 4c17 eb3d 8c63 d53d ab53 15ba
00000250: f331 903d 5a2c c1bb cb97 c23d ea87 91bc
00000260: 50cc 32bd edc3 013e ee7b 5ebd b413 fc3d
00000270: b644 d33d 3b09 f23d 51d4 c23d b41c d5bb
00000280: 9bb3 a63d 4223 3e3d 637c 67bd d7ac ee3d
00000290: 429b 4c3d b3d8 de3c 0996 6c3d 9eb6 bebd
000002a0: ca33 893c 7592 6c3d 1172 4fbd 981b c0bd
000002b0: 297e 95bd c517 ecbd 6cda 07bd 3208 dcbc
000002c0: 8434 953d 0447 d5bd 6e0a b0bc ab41 afbd
000002d0: c019 d1bc 2901 fe3d 69fd 503d 2cf5 c83d
000002e0: b6e9 aeba 3f69 e2bd d7df 7d3d fa53 9fbc
000002f0: b91a 04be 19f1 c33d 2437 b1bd 0d96 a43d
00000300: e72d b13d 9b3f 933d 64ec c03d 15db aabd
00000310: c148 f9bd 2411 7a3d e51b ddbc 9255 d6bd
00000320: af18 753d 2ccb 953d b584 9a3d 6bef ea3d
00000330: 2efc 02be 3873 9dbd c8a4 2a3a 3d87 e63d
00000340: bc34 9dbc 292b e2bd b675 48bd a51a bbbb
00000350: f6be e3bd f40e b63c 3439 203b 97d5 39bd
00000360: b50d 84bd 9cf1 ae3d 3c2d 5c3d 4874 8c3d
00000370: 66df e6bd 2f31 ab3b 5895 ad3d 6cf6 0e3c
00000380: 2d76 c7bd 8eb3 b23c 6818 af3d e542 8c3d
00000390: fb00 adbd 6895 5bbc ad27 c3bd 98d3 903d
000003a0: c9aa 8dbd 06bb cebd 1bfb eb3d b6b6 34bd
000003b0: 9841 a03d 4381 a03d 158d ce3d 6a64 29bd
000003c0: eda3 be3d d13b aa3c 1d49 583d a8a2 093d
000003d0: 98ec d83d 02c3 0abc 1333 a63c 5cb3 1bbd
000003e0: 4364 353b 6e90 e03d cf1f 73bd 76a2 ef3d
000003f0: 3664 e13d f947 fcbc 894d 35bd 8338 983d
-0.119429305 0.008718495 0.0054826257 -0.080619365 0.041430518 0.090451 -0.076770455 -0.0867685
0.114814 -0.04780871 0.044640616 0.031683896 -0.08115651 -0.034220174 -0.09665312 -0.008654689
0.036722362 0.06357447 0.021782944 -0.024253547 0.094002314 0.019061508 -0.04986094 0.037147302
-0.069410436 0.117949225 0.036567185 0.076866895 -0.06260672 -0.070402145 0.09799655 0.020733682
-0.0708782 0.027618598 -0.005410043 -0.037557866 0.08949717 0.05596722 -0.01591706 -0.07794526
-0.08709936 0.07449516 0.055368815 0.10909181 -0.14740779 -0.06781604 -0.118567385 -0.03583034
0.10623312 -0.09295317 0.10804038 -0.079528555 -0.055237453 0.0856986 -0.01353501 0.07717012
-0.022541232 -0.04690723 -0.08666643 -0.066393435 -0.013605461 0.024584418 -0.024507372 0.03550822
0.093274824 -0.08288215 0.020427886 -0.03386673 -0.12290878 0.0977488 0.06686889 -0.09255731
0.0138747515 0.057117686 -0.02744234 -0.08363177 0.047961768 0.067637354 0.05318379 -0.034478948
-0.07606463 -0.13367142 -0.090221666 0.04617195 -0.06202851 -0.10271885 0.1122083 0.023166995
0.12544946 0.061881807 -0.03722016 -0.08941727 0.040597495 0.006569257 0.0044594347 0.11635116
-0.02456097 0.04732841 0.10449677 0.051239707 -0.09635708 0.09394267 -0.016249249 -0.02956065
0.024700256 0.07658823 -0.11205622 0.012435682 -0.11544054 0.09474329 0.010036324 -0.08254788
0.10592089 0.030587668 -0.07740094 -0.04324568 0.044513088 0.10187552 -0.010439616 -0.028226508
0.0024051976 -0.04417196 0.082673304 0.12513317 -0.017194724 0.08946084 0.10821667 -0.050361704
-0.07847309 0.109558135 0.05101008 0.060234014 0.030177081 -0.043202776 0.018132325 0.112027295
0.029065227 -0.07034833 -0.10607006 0.076100625 -0.01771597 0.11764571 -0.11319088 -0.094904
-0.09165923 0.11479053 0.10419378 -0.00056963664 0.07040777 -0.0058951797 0.095016085 -0.017765004
-0.04365188 0.12672396 -0.054317407 0.123084456 0.1031584 0.11818167 0.095131524 -0.006503666
0.08139726 0.046420343 -0.05651511 0.1165406 0.049952753 0.02720294 0.057760272 -0.09312175
0.016748328 0.05775686 -0.05064589 -0.09380263 -0.07299454 -0.11527971 -0.033167288 -0.026859377
0.07285407 -0.10413936 -0.021489348 -0.08557447 -0.025524974 0.12402565 0.05102292 0.09812388
-0.0013344798 -0.1105523 0.06198105 -0.019449223 -0.12900819 0.0956747 -0.08653095 0.080364324
0.08651333 0.07189866 0.09420088 -0.08342568 -0.1217208 0.061051503 -0.02699084 -0.1046554
0.059837993 0.073141426 0.07544843 0.114714466 -0.12791511 -0.07687992 0.00065095397 0.112562634
-0.019190185 -0.110433884 -0.048940383 -0.0057099634 -0.11120407 0.022223927 0.0024448158 -0.04536971
-0.06447927 0.08542177 0.053754076 0.068581164 -0.112730786 0.005224369 0.08475751 0.008725744
-0.09739337 0.021814134 0.08549577 0.068486966 -0.08447453 -0.01340232 -0.09529052 0.07071608
-0.0691734 -0.10094266 0.11522504 -0.04411956 0.07825011 0.07837155 0.10085503 -0.041355528
0.0930861 0.020780476 0.0528041 0.033602387 0.10592002 -0.008469345 0.020288026 -0.038012847
0.002767817 0.10965048 -0.059356507 0.11700909 0.11005442 -0.030796038 -0.044263396 0.07432654
