output/LSTM2CNN/LSTM2CNN_adam_16_90/model/LSTM2CNN_epoch_43.pth (torch, 349870 bytes, 15 tensors)

lstm.weight_ih_l0 f4 [256, 11]
00000000: d6b9 b73c 5372 cdbd 29b5 cabb f4f7 893d
00000010: 654f b93c af0b 0ebd 3995 c13d e909 c33d
00000020: a736 a7bd 0596 99bc 4fce c93d 7500 e23d
00000030: f911 7ebd c2cd 2dbd adb7 4ebb 5e42 0b3e
00000040: 6c1a e0bc 1162 5cbd cb52 163e d18e 4a3d
00000050: 3e2c 6e3d 942e 173e d3b9 bb3d 44b5 913b
00000060: 0540 913c 1f92 743d 3b66 0bbc 1027 373c
00000070: a8a5 6ebc c72a 5bbd 1ae3 87bd cea0 b23d
00000080: 3eb6 a5bd a517 d2bc 105f b8bc 6b76 bdbd
00000090: a678 3c3d d5b1 64bd c1f2 bfbc 139d cd3c
000000a0: 0bc7 5abd c4b9 5abd 46fc 6b3d 6bcc 8a3c
000000b0: 8c29 d93d 6950 a1bd 8192 c9bd 0913 a4bb
000000c0: 299a 863d 239d bb3c 68f0 a33d 30e2 bbbd
000000d0: 5e59 fbbc 9b9c 8cbd 45c6 ab3c 33f1 0abd
000000e0: 6228 a53d d205 cd3d f683 94bd dcb4 0bbd
000000f0: 2fda 0e3e 2ca5 4abc 8247 9abd 8eac c7bd
00000100: 05b3 d8bd 301f 0bbd 61d2 473a e768 0b3e
00000110: a3a4 2dbd 4eee 003d 9df1 803c 88ba 033d
00000120: 5a39 33bb 0771 edbc 2558 7cbd a105 91bd
00000130: e868 303d c91b 893d 7463 5f3d b6f2 c1bc
00000140: 3d75 2f3d 49f0 b5bd fa1e 843d 04b7 64bd
00000150: e46e 65bd 5902 b63d da6d 75bc 78f0 153d
00000160: 8be1 043c f43a fa3d 6260 073c 8f19 bcbd
00000170: 36a5 9dbc 3b57 613d d227 f53d a918 5a3d
00000180: ac4d e9bd e6d0 243d 5e3a b6bc 2f75 7b3d
00000190: 6bb8 833b 9d08 b73d 3448 59bd 137a a2bd
000001a0: 5914 6bbc dd60 09bc a4b1 093e cb20 1abd
000001b0: fc38 98bd 03c3 783d 76e6 c83c 4462 873d
000001c0: 27c1 e2ba 4aae 9d3d c375 8f3c e837 15be
000001d0: d704 84bc 96df a1bc cc44 91bd 7b91 bd3c
000001e0: 423c 5ebc 8456 b7bd 8b68 e6bc 4597 afbd
000001f0: cd34 803d 37eb f93d cd3e 47bd 6c2b 153c
00000200: b247 143e d68e 853d 07ef bb3c 20db 9d3b
00000210: 7ac7 043e 729d 873d 5e57 4bbd 2672 fbbd
00000220: b164 f13d eb8e 12bc 9009 dc3d ccbe dd3d
00000230: 2840 c539 f241 2a3c 3395 cabd 873a 1a3d
00000240: 13dd 0a3d 5b60 9ebd 975c b53b a870 56bd
00000250: a6c6 a43d cde1 87bd 38d5 b7bc c400 163e
00000260: e925 4e3d 08be c4bd 565c dbbc 0eec 90bc
00000270: b877 fd3d 2538 0c3e 82de 1c3d d104 a7bd
00000280: cf57 46bb ab67 503d 9c6b afbd a374 0dbd
00000290: eeae ff3b 7db7 243b 9595 e7bc d928 043d
000002a0: d5f9 703d ca44 0ebe ec0a b8bc 58ed 103d
000002b0: 87f6 8b3d 9a8f b03d e2c4 11bd 8616 ee3c
000002c0: a4f4 173d bfb8 6cbd 1341 e2bc 6037 dbbd
000002d0: 8e83 bc3c 78a4 20be fdf7 5f3b 7ec9 43bc
000002e0: fb12 39bd 78d1 e03d bb24 973d 3557 8ebd
000002f0: 35d6 663b 436d b4bd efe4 09bd 9005 393c
00000300: 1fab 0d3d 8e02 513c f051 dc3d 3c10 f03d
00000310: d3b7 ecbd 0fa9 ff3d 8644 95bd d437 9c3d
00000320: 4e59 d53d f9e8 d33c 7eea f3bd 7004 003e
00000330: e4e4 4e3d ce08 80bd d459 dcbd 497b 6cbd
00000340: 88ff e13c b9d8 553d 56c6 aa3c d642 c03d
00000350: 9928 903d 6be4 673d 662c e53c ce40 823c
00000360: 83cb a63d 2d3b 1e3d 30ea a9bc 1b11 7bbd
00000370: 1f73 823d fa35 81bd 03c8 ab3d d8f5 80bd
00000380: ff43 23bd d52b c8ba b4c7 083e 1d92 8cbc
00000390: d54c 2bbd 6cf5 e3bc 67d2 973d 9df6 c23d
000003a0: 163f 923d fb69 383c eb1c 7ebd 39e0 88ba
000003b0: eb67 33bc b241 1ebd 529a 023e 87c3 933d
000003c0: 0004 b3bd 500c b8bc 6462 b4bd 85b1 803d
000003d0: a53f 7fbb 2886 463d 0f2e 893c 9caf 60bd
000003e0: f3b6 afbb 12c7 1639 f9f0 abbd 0bae b03c
000003f0: d74b 32bd 9b3b 7a3d ffde 3dbd d1d2 d8bd
0.02242748 -0.10031571 -0.0061861468 0.067367464 0.022620866 -0.03467911 0.0945229 0.095233746
-0.08164721 -0.018748293 0.09853803 0.110352434 -0.06202886 -0.042432554 -0.0031542585 0.13599536
-0.027356349 -0.05380446 0.1468002 0.049452607 0.05814766 0.14763862 0.091663025 0.0044466574
0.017730722 0.059709664 -0.00850826 0.011178747 -0.014565863 -0.053507593 -0.06635113 0.08722077
-0.080914006 -0.02564604 -0.022506267 -0.09251102 0.046013497 -0.055833656 -0.023431184 0.025099313
-0.05341248 -0.053399816 0.057613634 0.016943177 0.106036276 -0.07876665 -0.098423965 -0.005007152
0.065723725 0.022902077 0.08004838 -0.09174001 -0.030682262 -0.068658076 0.020968566 -0.03392143
0.08064343 0.10010876 -0.07251732 -0.034108028 0.13950418 -0.012368482 -0.0753317 -0.09749709
-0.1058102 -0.03396529 0.00076225965 0.13614236 -0.042393338 0.031477265 0.01574021 0.032160312
-0.0027347417 -0.02898456 -0.0616075 -0.07081152 0.043068796 0.06694753 0.054538205 -0.023675304
0.042836417 -0.088837214 0.06451221 -0.0558386 -0.056013957 0.088871665 -0.014979804 0.036606282
0.008110414 0.12218276 0.008262726 -0.091845624 -0.019243818 0.05501483 0.11970486 0.053246174
-0.11391768 0.040238284 -0.022244629 0.06139105 0.004019787 0.0893719 -0.053047374 -0.0793344
-0.014348113 -0.00838491 0.13446671 -0.03762893 -0.07432744 0.060732853 0.024523955 0.066105396
-0.0017299996 0.076992586 0.017512208 -0.14572108 -0.016115589 -0.019759934 -0.070932 0.02314066
-0.013564171 -0.089520484 -0.028126022 -0.08573774 0.06260071 0.12203067 -0.048643876 0.009104591
0.14480475 0.065213844 0.022941126 0.0048173815 0.1296672 0.06621827 -0.049643867 -0.122776315
0.117867835 -0.008945207 0.107440114 0.10827407 0.00037622568 0.010391699 -0.09891739 0.037653472
0.03390224 -0.07733222 0.005534719 -0.05235353 0.08045702 -0.06634865 -0.022440538 0.1464873
0.050329123 -0.09606558 -0.026777428 -0.017690685 0.1237635 0.13693292 0.038298137 -0.081552155
-0.003026474 0.050880115 -0.08565447 -0.03453506 0.0078028357 0.0025133782 -0.028269568 0.032265518
0.05883201 -0.13893428 -0.022466145 0.0353826 0.06834131 0.0862114 -0.035588153 0.029063474
0.03709854 -0.057793375 -0.02761892 -0.10703921 0.023011949 -0.1568774 0.0034174912 -0.011949895
-0.045184117 0.10977453 0.07380053 -0.06950227 0.0035222892 -0.088099025 -0.033665594 0.01129283
0.034587022 0.012756957 0.10757816 0.117218465 -0.11558499 0.12483417 -0.072884604 0.07627836
0.10417424 0.025867926 -0.1190996 0.12501693 0.050511256 -0.06251679 -0.10759321 -0.05773476
0.027587667 0.052208636 0.020846527 0.09387748 0.070389934 0.05661432 0.027975272 0.015900042
0.081442855 0.038630653 -0.020741552 -0.06129561 0.06369614 -0.06309123 0.083877586 -0.06296891
-0.039859768 -0.0015271852 0.1335743 -0.017159516 -0.04182132 -0.027826987 0.07413178 0.09519694
0.07140939 0.011255736 -0.062039297 -0.00104428 -0.010950069 -0.03863687 0.12754181 0.07215028
-0.08740997 -0.022466809 -0.08807829 0.06283859 -0.0038947847 0.048467785 0.016745595 -0.054854974
-0.0053623854 0.00014379274 -0.08395571 0.021567365 -0.043529358 0.061092 -0.046355244 -0.10587085

lstm.weight_hh_l0 f4 [256, 64]
00000000: b4eb 283d f54d 6a3d 6df8 313d a4a8 033e
00000010: 0e1e b1bc 0ed0 08be 7ef0 323c d9c8 de3d
00000020: 1837 7fbd 0640 0ebd c66b 11bd d81b e03d
00000030: 3d1b fdbc 5dc1 cfbd 8481 1ebd 35de e43d
00000040: 4674 08bd 4b3a 9ebc d4e6 24bc 3ae1 10bd
00000050: decd ebbd 8765 b93c 22e6 803d 7fe2 da3d
00000060: 26e1 0dbd 1d69 e7bd b5d0 6a3c 2a4f 7bbd
00000070: 8a39 c03d 6e62 643d 7ca9 d9bd a01a 8f3d
00000080: 9337 00be dcc9 8a3d 0231 94bd 7177 82bd
00000090: 2d2e 163d be04 abbd 2651 adbd 0c91 c3bd
000000a0: ee50 f13d ffdf 3bbd 3e67 a73d 7833 11bd
000000b0: 6794 a3bc a859 373d 1ab5 943d 003a d53d
000000c0: bed8 043c e3b2 b6bd e94e 7ebd b25a ecbc
000000d0: a5d3 0fbe 7a2d 39bc 862a c83d ae7d 0dbd
000000e0: cefb 68bc ae1d 523d f6a1 eb3d 2721 963d
000000f0: 4327 3f3c 6215 73bd 0402 423d dbc6 c93d
00000100: 4f12 5e3d 0a47 05bd 8c07 543d 1e44 9fbd
00000110: f6a3 66bd 68c8 e2bd 99b3 cebd f46f 33bc
00000120: e50c 473b ffdd 29bd 647e 453d 7ff6 dfbc
00000130: deec 0bbe 3213 28bd 1538 983d c2c9 603d
00000140: 748e 6abd c7b4 783b eeaa 2cbe b86d 203e
00000150: 6d06 e23d 97af ae3c 7e08 d33d 4c4e debd
00000160: d468 2f3d d68c e43b 725e bd3b 08d6 54bd
00000170: cf39 ebbd 735c 7339 5087 b23c 8f4c cd3d
00000180: 498f e33c 0546 f53d 59ab a13d fbae 963c
00000190: 2984 cc3c 9236 203e a596 94bd 2a2d 64bd
000001a0: 2780 273d 2939 29be f5ff 36be 030e d63d
000001b0: c927 bdbd d50c acbd 2169 263e 4d14 ca3d
000001c0: 662e e23c cd19 8bbd bccf fe3d 232f 33be
000001d0: daab 0dbe 3b56 233e 436f 823c d639 b8bd
000001e0: 5352 1fbe d253 783d 44ae 593c 6246 08bd
000001f0: 66bc 17be e864 923d 2ec0 753d 6a4a 38bd
00000200: 96ec 68b9 b8c9 e2bd 860e 9ebd e6c8 7c3c
00000210: 4dbd 7abd 63ee c03d b053 4e3e 3c0e c53d
00000220: cf1a 933d df3f f53c 3b0c 993d e4ec d0bc
00000230: bb17 953c 2c83 9ebd 096e fa3d 054c 3dbd
00000240: 61a5 773b a4d1 b53d 02ec 55bd a561 bbbc
00000250: 1166 0f3e 1833 6cbd ffcf 5bbd 4eb1 a9ba
00000260: 800c 29bd 1f80 c6bd f7d8 d7bc 72a4 ccbd
00000270: 4e33 f63b ab1e d3bd 05fb 3d3c 4176 003e
00000280: 8a00 453d 55fa cd3d b802 113d 6b70 893d
00000290: 284b ff3c 5fa5 883d 734b d5bc 8114 0d3e
000002a0: 9e7e b2bd 79dc 01be f465 ad3d c8c3 babd
000002b0: 4bfa 7a3d 09db 64bd b7ab b13d 42cd c8bc
000002c0: 53db 13be 8e98 8fbd 95f1 fcbd f641 85bd
000002d0: 2c3a 91bd f2e7 1fbc 4274 c33d 696b babd
000002e0: 3e92 e43c 5195 683d f77b b4bd 48e1 88bd
000002f0: c0d4 adbd 38ec f83d 617e 49bd 69ff 793d
00000300: ff7d f23c 8d76 52bd 547f ce3d 6bad 243e
00000310: 69ea f43d d4de 793d decb 17be baa7 a5bd
00000320: 3430 0fbc 516d 6cbb f30c 983d 9687 943d
00000330: e633 393e f754 b63d 6c1c 113e ca0e e73c
00000340: 4dbd 95bd 0e1e 373d 3ee8 153d f432 b8bd
00000350: e6ef c0bc a06e 663d 1484 95bc d025 ae3d
00000360: b050 b73c dba8 b4bb b702 f43d bbe9 c83d
00000370: 3169 6f3d 4de0 083d 2b7a eb3c 898f 50bd
00000380: c886 23be 0c6b 75bd 46e8 1b3e 47ec 8e3b
00000390: 29b1 b43d df05 1fbe b698 193c d2aa adbd
000003a0: 6660 863c 7fd7 23bc c266 cb3d 5021 81bd
000003b0: 9dbf ff3d 594a 853d de7c 0fbc bf89 753d
000003c0: d724 3dbd 1c8b 05bd 2daa a8bd 4818 d5bc
000003d0: 4902 d9bd ba49 4bbd 02ff 1abd 4c4c fbbc
000003e0: fb6f 06be 80d0 293c c33e 363c 9dd1 41bd
000003f0: 9162 b7bd 7e85 403d 208d a1bd 475c a1bd
0.04124041 0.057203252 0.043449808 0.128573 -0.021620777 -0.13360617 0.010921596 0.108781524
-0.0623084 -0.034729026 -0.03550317 0.10942811 -0.030896777 -0.10144303 -0.038697734 0.11175195
-0.033314012 -0.019314906 -0.010064799 -0.035371043 -0.115138754 0.02263142 0.06293894 0.10687732
-0.034638546 -0.11299346 0.014331986 -0.061354794 0.09385975 0.055757932 -0.1062803 0.069875
-0.125212 0.06776783 -0.0723591 -0.06370438 0.03666513 -0.08350514 -0.084627435 -0.0954915
0.11783014 -0.045867916 0.08173989 -0.035449475 -0.019968225 0.044763237 0.07261105 0.10411453
0.008108316 -0.08920839 -0.062086973 -0.02885184 -0.1404558 -0.011302346 0.09773736 -0.034543686
-0.014220191 0.051297836 0.11505501 0.07330542 0.011667076 -0.059346564 0.047365203 0.09852382
0.05421668 -0.03253845 0.05176501 -0.07776664 -0.05630871 -0.11073381 -0.10092849 -0.010951985
0.0030372676 -0.041471478 0.04821624 -0.027339218 -0.13664576 -0.04103393 0.07432572 0.05487991
-0.05726476 0.0037949549 -0.1686208 0.15666854 0.11036382 0.021323962 0.10304354 -0.10854778
0.04282458 0.0069747968 0.005779081 -0.05196193 -0.114856355 0.00023208726 0.021793038 0.10024368
0.027778285 0.11976246 0.0789401 0.018393984 0.024965363 0.15645817 -0.07255296 -0.055707134
0.0408937 -0.16525711 -0.17871077 0.10451891 -0.09236104 -0.08400885 0.16251041 0.09867153
0.027610015 -0.067920305 0.12441966 -0.1749845 -0.13835087 0.15950863 0.015922194 -0.08995406
-0.15558748 0.060626812 0.013286177 -0.033270247 -0.14817962 0.071481526 0.05999773 -0.04499284
-0.00022213379 -0.11073631 -0.07717614 0.015428757 -0.061215688 0.09420469 0.20149112 0.096218556
0.07182848 0.029937683 0.07473036 -0.025503583 0.018199792 -0.07739863 0.12228019 -0.046215076
0.0037787782 0.088778764 -0.052227028 -0.022873709 0.14003779 -0.057665914 -0.053665157 -0.0012946518
-0.041271687 -0.09692406 -0.026348574 -0.09992303 0.00751344 -0.10308584 0.011595492 0.1254511
0.048096217 0.10057513 0.035402983 0.06710895 0.031163767 0.06672167 -0.026036954 0.13777353
-0.087155566 -0.1268176 0.08466712 -0.091193736 0.061273854 -0.05587295 0.0867533 -0.024511937
-0.14439134 -0.07011519 -0.123507656 -0.06506722 -0.070911735 -0.00975989 0.09543659 -0.09102518
0.027901765 0.056783024 -0.08812707 -0.06683594 -0.084878445 0.1215443 -0.04919279 0.061034594
0.029601095 -0.05138259 0.1008288 0.16081779 0.11958773 0.06100352 -0.14823863 -0.08088632
-0.00873952 -0.00360759 0.07424345 0.072524235 0.18086204 0.089029245 0.14170998 0.028205294
-0.07311497 0.044706397 0.036598437 -0.089940935 -0.023551892 0.056257844 -0.018251456 0.08503306
0.022377342 -0.005513293 0.1191458 0.098102055 0.058449928 0.033417035 0.028744778 -0.050918136
-0.15969384 -0.05991654 0.15225324 0.0043616625 0.08822853 -0.15529583 0.009374788 -0.08479847
0.016403388 -0.010000109 0.09931709 -0.06305182 0.12487719 0.06508321 -0.008757798 0.059945818
-0.04617771 -0.03260337 -0.082355835 -0.026012555 -0.10596139 -0.049630858 -0.03784085 -0.03067603
-0.13128655 0.010364652 0.011123362 -0.047319043 -0.08954347 0.047002308 -0.078882456 -0.07878929

lstm.bias_ih_l0 f4 [256]
00000000: f77e b03d 12dd f1bd fea5 44bd 757a 813d
00000010: 4aef dcbd 4091 c23d 1c90 c5bd e792 27bd
00000020: c263 c3bd 381d 60bd 5374 d73d 8d27 f6bc
00000030: 0e93 8f3d 472c c33d 0943 22be c57b 8f3d
00000040: 469a 82bc c881 97bd 982d 12be a542 1cbc
00000050: 3653 8fbd af9d 343d 75ad a53d 2a21 a13d
00000060: 2f7b 523d 7169 e63d 768a 52bc 6670 553d
00000070: 1674 0b3d 423f 30bd 0101 4abd 021e 80bd
00000080: 53cb 96bc e36e 9fbd 8290 6fbc f912 243d
00000090: 75d2 a0bd b041 9d3d 0295 22bd dae3 9a3d
000000a0: e367 ad3d 6b44 873d 1954 b9bd 378d ca3d
000000b0: 4a53 02be 0744 a43d b0d8 e73d b161 d6bd
000000c0: 7437 77bc 46cc a53c d05a e8bc 3c76 07be
000000d0: a355 adbd b185 9f3c 52c7 01be 9cca 543d
000000e0: d300 41bd 2eca 533c 434a c53d 63fb c2bd
000000f0: e9c2 ba3d 782e edbd 4062 bebd 335c 43bd
00000100: a25e 9ebd 23fb e1bd fcbc c0bd 369c d13d
00000110: 71ca c1bd 78e2 c83b 6e28 bcba d866 c7bd
00000120: 2a0e e03d de02 0abe d4b4 e03c 299b 9d3c
00000130: 166a 063c 9ced b9bd fd40 a4bd fb77 093d
00000140: 36c9 bfbd 85a8 d3bd bf32 0ebe f1ed 2ebd
00000150: b6e0 53bd 4ab3 ae3d ba5b d5bd 11b1 d9bd
00000160: 2c3d a8bd 279f 3dbd 1858 01bd db67 efbd
00000170: 35bd 7abd 9db7 a4bd 8d6c 213d cc42 e73d
00000180: 1606 8ebd dca7 f0bc 9492 9cbc 0403 7e3d
00000190: 9395 4e3d 5123 d3bd dc7b 2a3c aa8a 5b3d
000001a0: b348 e43c f6ef 16bd d4bb e63d 310b 8dbb
000001b0: 8304 f43d d199 ee3c 583a 1bbd f48b 1dbc
000001c0: af80 99bd 7e1a d73d 2711 c9bd 6e87 20bc
000001d0: f6de a5bd 0fb9 b3bd 8405 0e3d 0fbe 213d
000001e0: cb15 5a3b 70f7 b03d ca53 f43c 7dbf a63d
000001f0: ff08 d5bd ef0b d93b 4885 6a3b 229e c53d
00000200: 5c4f 373d 0983 f2bd 1d3b c43c a19e cbbd
00000210: 44f1 e2bb 8bf9 563d a828 2b3d 4354 1dbd
00000220: 8b84 29bc b22d cb3d 749a 80bd ff9b f13c
00000230: cebc edbd 5264 5d3d 9d2c 313d eb51 51bc
00000240: e4ec ce3d 39e4 eebd 7695 35bc ccbd da3b
00000250: 32d9 303d a63b cd3a 8ead 8c3d c451 07bd
00000260: 0dd6 d93d 2bc2 a23d daa8 0abe 5b19 1ebd
00000270: 3253 1f3b 5309 873d a222 17bc d349 153d
00000280: e81a 7c3d 1a37 f9bc b952 47bd 6854 da3c
00000290: fa17 89bd 6e2b 4cbd 4a17 913c 475f 06bc
000002a0: 09be 0abd 0745 e93d 25cb 23bd 093b f6bc
000002b0: 9ab2 0d3d 635e 33bd 130b 48bd d942 b93d
000002c0: 4d50 6dbd aafd 05be a825 093e 2f36 d33b
000002d0: 539b 123e e20b 463d 4b12 d33d 4d1b 083e
000002e0: b0d0 053c d4b8 68bd 0a26 733c faa3 6ebd
000002f0: 088f 783d 5bf4 f2bc 4f7c 15bc 3cb7 9fbd
00000300: 5624 82bd 9364 bfbd 3ab4 15bd 66c7 943d
00000310: 3d56 923b 22f8 dc3d 27d7 d93d 4a47 babd
00000320: ddb1 873d cf34 f23c 3da5 c7bc 35ca aa3c
00000330: a63b d7bd f5b3 86bc e45d 87bd 92ba c63c
00000340: e361 94bd b9e5 36bd d4ab fdbc 0fef 0dbd
00000350: 2873 a9bd 1e50 aebd 2616 24bd c08c 57bd
00000360: 83ca 9e3d 942e db3d d3b5 09bd 4b3c 03be
00000370: 42bd c43d 90a6 91bd ca21 1dbd c437 2e3d
00000380: 7ba6 5a3d 8647 a33d ed8a d43d d7d9 bdbd
00000390: 2341 81ba ac35 c2bd 19e9 76bc 7575 b6bc
000003a0: d4ca e939 eaaf c5bd 89b9 30bd abff f1bd
000003b0: 28bb 9e3d 5653 083d c998 513c e8cd dc3c
000003c0: 2499 f8bd ae03 e53d ae32 f13c 23db f8bb
000003d0: f953 c63d 7b28 2cbc fddd 2dbd dfb5 9c3d
000003e0: d5cd 8d3a 9603 05be 1a40 0dbe 4042 c03d
000003f0: e9f7 6ebd d05d bb3d 78e3 89bd a5a2 fbbc
0.086179666 -0.11809744 -0.048009865 0.06322185 -0.10787828 0.095003605 -0.09646627 -0.04091158
-0.09540512 -0.054715365 0.10520234 -0.030048156 0.0701047 0.095299296 -0.15845884 0.07006029
-0.015942704 -0.07397801 -0.14275205 -0.009537374 -0.06998293 0.04409569 0.08089725 0.07867654
0.05138701 0.1125058 -0.0128503945 0.052109145 0.034046255 -0.043029077 -0.049317364 -0.062557235
-0.0184075 -0.07784822 -0.014621856 0.040057156 -0.078526415 0.076785445 -0.039692886 0.075629905
0.084670804 0.066048466 -0.090492435 0.09890216 -0.12727085 0.08020788 0.11320627 -0.10467852
-0.015088905 0.020239007 -0.028363615 -0.13228697 -0.084635995 0.019472929 -0.12673691 0.051951036
-0.047119927 0.012926621 0.09633305 -0.095206045 0.091192074 -0.11581129 -0.092960835 -0.04769535
-0.077328935 -0.11034229 -0.09411046 0.10234873 -0.09462441 0.006130513 -0.0014355311 -0.09736413
0.109402016 -0.13477656 0.027429976 0.019239025 0.008204004 -0.090785235 -0.08020208 0.033561688
-0.0936455 -0.10334877 -0.13886546 -0.042707387 -0.051727973 0.085302904 -0.10417886 -0.10629476
-0.082147926 -0.046294358 -0.031578153 -0.11689731 -0.061215598 -0.08042834 0.039410163 0.11292037
-0.069347546 -0.029376917 -0.019112863 0.062014595 0.050435614 -0.103094704 0.010405507 0.053599037
0.027866697 -0.03684994 0.11266294 -0.0043043126 0.11914923 0.02912608 -0.037897438 -0.009615887
-0.074952476 0.105031 -0.09817725 -0.009797914 -0.08099167 -0.087755315 0.03467323 0.039487895
0.003327715 0.08640945 0.02982511 0.08141992 -0.104021065 0.006623737 0.0035785008 0.09649302
0.044753417 -0.11841399 0.023953969 -0.099423654 -0.0069257338 0.052484076 0.04178682 -0.038410436
-0.010346542 0.09920825 -0.062794596 0.02949333 -0.11608277 0.05405075 0.043255437 -0.012775878
0.10103777 -0.11664624 -0.011082998 0.0066754576 0.043175884 0.0015658035 0.068690404 -0.033036962
0.1063653 0.07947191 -0.13540974 -0.0385984 0.0024311063 0.06593575 -0.009224566 0.036447357
0.061549097 -0.030421782 -0.048662875 0.026651576 -0.06694026 -0.049846105 0.0177113 -0.008201427
-0.033872638 0.11390119 -0.039988656 -0.030057447 0.034594156 -0.043791186 -0.048838686 0.09045953
-0.05793791 -0.13085046 0.13393271 0.006445668 0.14317064 0.048351176 0.103062235 0.13291664
0.008167431 -0.05681689 0.014840612 -0.05826185 0.06068328 -0.029657533 -0.009123876 -0.07798621
-0.06354587 -0.09345355 -0.03654883 0.07264595 0.004465847 0.10789515 0.1063674 -0.090956286
0.066257216 0.029566197 -0.024370784 0.020848373 -0.10509424 -0.016443232 -0.06609705 0.024258886
-0.07245233 -0.044652674 -0.030965723 -0.034651812 -0.082739174 -0.08511375 -0.040060185 -0.052624464
0.0775347 0.107022434 -0.033620667 -0.12815969 0.096064106 -0.071118474 -0.038362302 0.04253365
0.053381424 0.079726264 0.103780605 -0.09270065 -0.0009861331 -0.09482893 -0.015070223 -0.022272805
0.00044592342 -0.096526936 -0.04314569 -0.11816343 0.07750541 0.0332826 0.0127927745 0.026953653
-0.12138584 0.111823425 0.029443111 -0.0075944825 0.09683985 -0.010507698 -0.042448033 0.07651877
0.0010818789 -0.12989649 -0.13793984 0.09387636 -0.058341894 0.09148753 -0.06732839 -0.030717203

lstm.bias_hh_l0 f4 [256]
00000000: cd59 d9bc 403d b1bd 71f3 103e c455 0dbe
00000010: c05e c8bd f43f fe3d 270a 7d3d c010 f9bd
00000020: 3901 f5bd 7844 5fbd e86f 0ebd d3a5 db3d
00000030: 1a4c 6a3d 5105 d2bd 2339 183d e64d d23d
00000040: 5c97 a33c 0f12 03bd d328 00be c792 39bd
00000050: 0776 28be 82a9 15bd 1702 8f3d d21f b93d
00000060: afbe 5e3d 6e83 debc ea39 aabc 6c3f c7bd
00000070: d252 9b3c 8cc3 d53d de9a d2bd 34cd 9fbd
00000080: 1a2d 3dbd d1d2 d33d a009 ef3c 5753 19be
00000090: 0a51 31bd df95 2bbd ec71 583b a6a0 9fbd
000000a0: af1f b3bc 279b 513d 5ef9 b0bd 6949 403d
000000b0: fe9f f6bd 5747 a43c 0250 853d 6962 f53b
000000c0: 3995 443c a2fa dfbd f6a1 2b3d c160 a03d
000000d0: 4adb 823d fe9e 14bd ea08 1dbd 5de8 dc3d
000000e0: ea27 29bb ec7e 8c3a d545 1abe 3782 c7bd
000000f0: 873b ac3d e36d d9bd d9d1 98bd 9b52 c93c
00000100: ea78 9bbd 6519 ce3d a199 c63d 35f2 f33c
00000110: 8e8a ccbd e4c6 74bd 4253 623d ee11 dc3b
00000120: b591 86bd 5a0d cd3d 209c 883d 3040 ab3d
00000130: c2e8 373d 0ae5 cdbc 5bef b63d 9825 f23c
00000140: aea6 c9bd ea2b eebd 9e52 9e3d 5899 803d
00000150: 9812 cabc f308 d6bd 5280 d0bd 705f b4bc
00000160: d6b8 f4bd 71e2 28bd ab7c 993d 07b2 26bd
00000170: 15e2 f4bd e115 56bd 0b86 b53d 02c8 0cbd
00000180: 2137 85bd 1a4f bebd b736 373d c075 ebba
00000190: ed6b eb3d 29fd b93d c92f 95bc 6298 5c3d
000001a0: 40ae c2bd ff46 5dbd fac2 c93d 5f00 c53c
000001b0: cbd2 bebd 84ff b03d 7f32 91bd 8de9 dbbd
000001c0: b72a a53c 067a aabd 5c9c 9c3c e40a c13b
000001d0: bb1c c6bd f550 fabc 668f 52bd 7b16 803d
000001e0: 4355 bcbd 2283 f0bd d528 793d 27f1 04be
000001f0: bd48 41bd cab8 323d 5da6 0e3c 5807 063b
00000200: de95 ca3c 91b9 9ebd e73f efbd 8781 823d
00000210: 86e7 cb3d c122 7f3d 44af e23d 8796 7abd
00000220: af8d c9bd e074 91bd bdaa 6cbd e05c c8bd
00000230: e91f 02bd be62 23bd 362c 4b3d d813 6f3c
00000240: 9e1c 58bd 8e8e 3c3d 27c0 083d bb3e 1bbd
00000250: 2404 ec3c 10db f53d ad32 98bd 0097 b0bd
00000260: 31aa 4bbd c192 cb3d 9616 683b ca9d cdbd
00000270: e38f 013e d52a 403d 209a 713d 75de 31bd
00000280: 2de0 abbd e6aa aebd 50cc 9ebd 6d98 7f3d
00000290: f17d f5bd 75a4 493d 2159 903d 5b13 d83d
000002a0: cf23 f0bd 778f 26bd 3767 263c 2418 f0bc
000002b0: 8c6c c23d 6378 853d 6eba da3a 2ad9 11bd
000002c0: 2282 35bc c704 9bbd ebd8 0b3e 6c56 383d
000002d0: e23d e43d 1804 e6bc e101 8fbd 7d07 823c
000002e0: 0713 963c 641c c4bd 7ca2 8dbc 3e1b a63d
000002f0: e40a 5cbd 150f a1bc c628 0dbd b385 c83d
00000300: 3a8c 9dbc 125e 26bd e427 47bd 75ab debc
00000310: 84b2 e6bb 9cce cc3d 24a9 cf3d 27c0 a33c
00000320: 28dd 8f3c cdd6 4c3d 7633 453c 9578 4f3b
00000330: 9b52 65bd 93b2 ddbd 6502 073d 7597 a2bc
00000340: 59d9 4a3d bf0e 89bd 7f0b d3bd cb6c 54bb
00000350: a4bd 853c 4959 f2bd 3fd4 c6bd c4dd cabd
00000360: 496c 1fbd 6ad3 b33d 6042 033e 4edf bebd
00000370: c486 1f3c bfcb dfbd 86a0 05be e946 d0bb
00000380: c40e ddbc ea91 8fb9 7a97 86bd daf0 2dbc
00000390: 87bb 913d 8d10 2d3a fa52 923d bf1b 30bd
000003a0: a8a0 b13d c55f 15bc 014c 1cbc 9655 863d
000003b0: 6038 42bc a0d3 e13c 1496 babd 5672 d83b
000003c0: baff 0bbe 994d 7b3d 8c53 0fbd 5762 bc3d
000003d0: 51c4 16bd a73d 3e3d 5495 d03d fdf5 603c
000003e0: 88d9 283c 9f88 c3bd 158b 3abd 2534 cd3c
000003f0: be55 a2bc 2aab 0abe 55c2 e0bc 2216 0fbe
-0.026532078 -0.08654261 0.14155366 -0.13802248 -0.09783697 0.12414542 0.06177726 -0.12161398
-0.11963124 -0.054508656 -0.03477469 0.10724988 0.057201482 -0.1025492 0.037163865 0.10268764
0.019969635 -0.031999644 -0.12515573 -0.045305993 -0.16451274 -0.03653861 0.069828205 0.09039272
0.05438107 -0.02716228 -0.020779569 -0.09728894 0.01896039 0.10437688 -0.10283445 -0.07802811
-0.04618559 0.103429444 0.029179394 -0.14973198 -0.043290175 -0.041890975 0.0033026887 -0.07794313
-0.021865694 0.051173355 -0.08641313 0.04694501 -0.12042235 0.020053549 0.06509401 0.007488538
0.011998468 -0.10936476 0.041902505 0.07830954 0.06389482 -0.03628444 -0.03833858 0.10786507
-0.0025811144 0.0010718978 -0.15065701 -0.097416334 0.084097914 -0.10616662 -0.074619 0.024575522
-0.07591422 0.10063437 0.09697271 0.02977858 -0.09987365 -0.05975999 0.055255182 0.0067160046
-0.0657076 0.10012312 0.066704035 0.08361852 0.04489971 -0.025133628 0.08932372 0.029558942
-0.09846245 -0.1162947 0.07730602 0.06279248 -0.02466707 -0.10450926 -0.10180725 -0.022018164
-0.11949317 -0.041231576 0.07494482 -0.040697124 -0.11957184 -0.05226696 0.08863457 -0.03437043
-0.06504656 -0.09292431 0.044729915 -0.0017964169 0.114951946 0.090814896 -0.018211262 0.05385626
-0.09505892 -0.054022785 0.09851642 0.024048029 -0.09317549 0.08642486 -0.070897095 -0.10737906
0.02016197 -0.083240554 0.019117527 0.005891191 -0.09673449 -0.030556181 -0.051406287 0.06254288
-0.0919595 -0.117437616 0.060829956 -0.12982617 -0.04718851 0.04363326 0.008706656 0.0020451155
0.024729665 -0.07750238 -0.1168211 0.06372362 0.09956269 0.062289003 0.110685855 -0.06117871
-0.09841477 -0.0710237 -0.057780016 -0.097833395 -0.031768713 -0.03988909 0.04960271 0.014592133
-0.052761666 0.04603439 0.033386376 -0.03790162 0.028810568 0.120046735 -0.07431541 -0.08622551
-0.049722854 0.099401005 0.0035413853 -0.100398615 0.12652545 0.046915848 0.058984876 -0.043425042
-0.083923675 -0.0852869 -0.07753813 0.062401224 -0.11986912 0.049229104 0.0704825 0.10550567
-0.1172558 -0.040664162 0.010156444 -0.029308386 0.0949336 0.065171026 0.001668764 -0.035607494
-0.011078389 -0.075692706 0.13656966 0.045004293 0.11144616 -0.028078124 -0.0698278 0.015872711
0.01831962 -0.095757276 -0.017289393 0.08110665 -0.053721324 -0.019660512 -0.034462713 0.09791126
-0.019231904 -0.040617056 -0.048622027 -0.027181366 -0.0070403237 0.10000345 0.10139683 0.019989086
0.01756151 0.050009537 0.012036195 0.0031657566 -0.05598698 -0.10825076 0.032961268 -0.019847611
0.049523685 -0.06692266 -0.10304927 -0.0032413478 0.01632578 -0.11833436 -0.097084515 -0.0990558
-0.03892163 0.087805584 0.12818289 -0.09319936 0.0097367205 -0.10927533 -0.13049516 -0.0063561094
-0.02698458 -0.000273838 -0.065718606 -0.0106165055 0.07115846 0.00066018925 0.07144733 -0.04299521
0.08673221 -0.0091170715 -0.009539605 0.06559293 -0.011854261 0.027566731 -0.091106564 0.006605427
-0.1367177 0.0613533 -0.034991786 0.09198444 -0.036808316 0.046445515 0.10184732 0.013730523
0.01030577 -0.09547543 -0.045542795 0.025049279 -0.019816276 -0.13541856 -0.027436415 -0.13973287

lstm.weight_ih_l1 f4 [256, 64]
00000000: 4e96 ad3c 06d4 a2bd d5a3 0a3e c0b9 dcbd
00000010: 233f 353c 23ca bdbc 4eac ac3d 5ac4 a2bc
00000020: f530 b93d 45ff 2f3d 1aae 033d 9b02 dfbc
00000030: 20fa e43b d83e e4bd 6a8c efbd fe40 3d3d
00000040: c4eb 89bd d451 de3d 173c 8d3d 5ea4 013e
00000050: 8170 893d d07b 67bd 7b56 3d3d 9543 af3d
00000060: a403 a4bd 40c2 a83d 1a3d cc3d 54d4 2b3d
00000070: 2fe4 673d 3798 b43d 75bb 94bd 4e75 51bd
00000080: 0dea 163d 7b9b ad3d ae76 2f3d 1d20 f33d
00000090: cf74 613d ac53 c33d 153a e8bc 5c9c d4bd
000000a0: a548 a3bd 6459 e43c 087d b63c 5481 85bc
000000b0: 4f5c d1bd bd6c 04be 8258 fb3d 7ce4 bf3c
000000c0: 1922 01be 812c afbd 7cd4 973d d0a2 09be
000000d0: dfed 96bd 06ed 6c3d 9e3e 2a3d 9f90 d03d
000000e0: 2b96 19be 459e a13c bca8 643b 678a 003c
000000f0: 7c92 3ebd 6de0 89bd 6059 823d e4c3 92bd
00000100: 2963 8d3d 45db 0e3e 31f3 023e 74e1 9e3d
00000110: 984f f23c 616f 1bbd b369 dabd 36cb 74bd
00000120: 7608 fb3d 31ef 13bd 4784 7abd 1cfd d23b
00000130: 0dfb c53c 4e27 da3c 375b b1bb 5265 e3bb
00000140: f36f 243c 1475 f73c 39a6 f0bd 8ad0 2cba
00000150: dd8c 8abd de7f e1bc 0674 533d ed20 28bd
00000160: a000 ae3d e02f bbbd 7ca1 713d 6c56 fcbd
00000170: c877 673b e4db bfbc ba01 313b acfc 60bd
00000180: d3de 2d39 7d3d 6dbc b82a 75bd 6f6d bb3d
00000190: 3941 053c 6bc4 133e 4b7d 4cbd e80e 9dbd
000001a0: 9744 ecbd e9ab 013d 3868 90bd 6179 a3bd
000001b0: e36c aebd b926 8cbc 3d30 05bd d5cc aebc
000001c0: 2824 8bbd 6741 033e 1e5a bd3d 5d3a f0bd
000001d0: 82a2 19be 9d67 adbd d910 81bd 678c b13c
000001e0: 4acc 80bd 644e 39bc ef94 f8bd 565e 153d
000001f0: 685c 34ba 5ece 473c 9e96 8abd 193f fabb
00000200: b811 793c c2cf f93c e024 8fbd eb2e eebb
00000210: ce58 893d 0004 25bc 2b20 f73b 60e7 04bd
00000220: 8582 cb3d 7026 eabc 251c 88ba e8e1 863d
00000230: d1b5 b83d 10fd dcbd 8858 d8bc 908b 81bd
00000240: a314 603d e870 3b3d e858 593c e645 b83d
00000250: c710 ae3a 8e4e 21bc 79d5 c3bd 8589 42bd
00000260: d5ed d53d da17 963d df3d 153c 5b61 20bd
00000270: 9ce7 4b3d 309c aabd 310a 0abd 23be df3d
00000280: ec26 283c 1c25 243d 130f cbbc 20ec 2a3d
00000290: 3406 fa3d 510a 07bc a29f a63d 4d87 e53d
000002a0: 2c8b 4a3d f8fc 84bd fa57 3d3d 2237 86bb
000002b0: 3b70 ef3d 66b4 cb3d 4ea8 8abd cea4 a8bd
000002c0: 0b16 e4bd e258 b7bd 586e 9e3c d4e9 8b3c
000002d0: a3eb 03be d1bf a1bc 085c 0fbc a70e 09bd
000002e0: d8b3 8ebd 6649 c0bd 1efc d3bd 26a0 ae3d
000002f0: 06d2 2fbd 1645 8fbd a1bc e1bc 8eed 9f3c
00000300: 8cb2 a43d a1b8 ac3d 28d5 313e b739 04bd
00000310: e9b8 853b 18d1 a3bd 77cf 86bd 70d8 b83d
00000320: 96c2 e6bc 708a 143e 693f 5bbd 7d99 72bd
00000330: 3fe6 03be 34ca 363a 66a0 fa3c 4514 e4bd
00000340: 9cc5 933d 4ac3 9a3d 7b5f f4bd 4fe6 b8bc
00000350: 6401 10bd 0367 34bd 0d9c 4ebb 043a e23d
00000360: ac92 2fbc 230f 1dbe 1f05 ba3a 008f d9bd
00000370: bc0f 903d 89c0 bbbd 1131 073e 90ac 0bbe
00000380: 52b4 003c 68ff 423c 023a 4e3d 2ee3 293d
00000390: 0e2e fb3d 2965 c93d 4901 05bc 6cf4 793d
000003a0: de54 94bd 59da debc e160 8a3c 8c76 cb3c
000003b0: 8fe5 c1bd 728f a6bd 1bc8 9cbd 3711 7e3d
000003c0: 6302 003d fdf0 093e 948d 8abc 0951 6ebd
000003d0: 8a76 253c 5f44 f33d 406a 953d 6314 71bd
000003e0: 1862 5f3d 2f60 c83d 593b a1bd eb88 c53d
000003f0: 35e1 d93d 6064 383a a748 0dbe 7914 db3d
0.021189835 -0.079505965 0.1353906 -0.107776165 0.011062416 -0.023167675 0.08431302 -0.019869018
0.09042541 0.042968053 0.032148458 -0.027222922 0.006987825 -0.11144799 -0.11696704 0.04620456
-0.06734422 0.10855451 0.06896227 0.12660357 0.067109115 -0.05651456 0.046225052 0.08557812
-0.08008507 0.08240175 0.09972592 0.04195054 0.056614097 0.08818095 -0.07262317 -0.05113726
0.036844302 0.08476921 0.04283779 0.118713595 0.055043038 0.095374435 -0.028348008 -0.10381386
-0.0797284 0.027874656 0.022276416 -0.01629702 -0.102226846 -0.12932105 0.12272741 0.02342438
-0.12610663 -0.0855341 0.07413575 -0.13441014 -0.07369589 0.05784323 0.041563623 0.10183834
-0.14998691 0.01972879 0.0034890613 0.007845498 -0.046526417 -0.06732259 0.06364703 -0.071662694
0.06903679 0.13950832 0.12788083 0.077578455 0.029578969 -0.037948016 -0.10664692 -0.05976411
0.12257473 -0.036116783 -0.061161306 0.0064388644 0.024167562 0.02663007 -0.005412485 -0.0069395686
0.010036456 0.030207194 -0.117504545 -0.0006592354 -0.06765149 -0.027526792 0.05162432 -0.041047025
0.08496213 -0.09139991 0.058991894 -0.12321171 0.0035319198 -0.023420282 0.0027009086 -0.054928467
0.00016581574 -0.014479992 -0.059855193 0.09151732 0.008133226 0.14430396 -0.049924176 -0.07668859
-0.1153652 0.031658087 -0.07051128 -0.079821356 -0.08516862 -0.017108308 -0.032516707 -0.021337906
-0.06794006 0.12817918 0.09245704 -0.11729882 -0.15003398 -0.08467028 -0.063020416 0.021673394
-0.06288965 -0.011310194 -0.12137782 0.03646692 -0.00068802247 0.012195198 -0.06767009 -0.0076369164
0.015201978 0.030494574 -0.06989455 -0.0072687767 0.06706391 -0.010071754 0.0075416765 -0.03244722
0.09937004 -0.028582782 -0.0010384364 0.06586057 0.09019054 -0.10790455 -0.026409402 -0.063254476
0.05470718 0.045761973 0.013265826 0.08997707 0.0013280147 -0.009845389 -0.09562201 -0.04749443
0.104457535 0.07328768 0.0091089895 -0.039155345 0.049781427 -0.08330572 -0.033701126 0.109249376
0.010263186 0.040074453 -0.024787461 0.041729093 0.122082144 -0.008242206 0.08135916 0.11207447
0.04944913 -0.064935625 0.04622648 -0.004095928 0.11691328 0.09946518 -0.06770383 -0.08234559
-0.11137017 -0.089525 0.019339725 0.017079271 -0.12882857 -0.019744786 -0.008749969 -0.03346124
-0.06967896 -0.09389 -0.10350822 0.0852664 -0.042924903 -0.06995599 -0.027555766 0.019522455
0.080418676 0.08433653 0.17366469 -0.032281604 0.004080881 -0.07998866 -0.065825395 0.09025657
-0.028168958 0.14505935 -0.05352727 -0.05922841 -0.128808 0.00069728796 0.030594062 -0.111366786
0.07215425 0.0755678 -0.11932274 -0.022570757 -0.035157576 -0.044043552 -0.003152612 0.11046222
-0.010716122 -0.15337805 0.00141922 -0.10622978 0.07034251 -0.091675825 0.13202311 -0.13640046
0.007855492 0.011901714 0.05034829 0.04147642 0.122646436 0.09833748 -0.008117982 0.061024114
-0.0724275 -0.027203726 0.016891899 0.024836801 -0.09467613 -0.08132829 -0.076553546 0.062028136
0.031252276 0.13470836 -0.016913213 -0.05818275 0.010099063 0.11878275 0.07295656 -0.058857333
0.05453691 0.097839706 -0.07872648 0.09645256 0.10638658 0.0007034 -0.13797246 0.10697264

lstm.weight_hh_l1 f4 [256, 64]
00000000: 3a62 a8bd 1630 ecbd e84a 2abc c7e5 323d
00000010: d26e b93d 2e26 18bc 600c c93d 8cb0 783d
00000020: c527 19bd 46f1 73bd 88fc cbbd a695 433c
00000030: 589e bf3d 133d f63b 3ba6 a0bd e45f 03be
00000040: a486 a23d 5c89 dcbd a9eb ddbd b526 9fbc
00000050: 2d80 e1bd b6d3 5fbd f6f6 80bd fd13 abbd
00000060: 7a34 b33d 3fd0 01bd 9dd7 09bc a199 b33d
00000070: c76d f3bd 8c8d 1ebd 3b94 be3d 56b8 03bc
00000080: 3b48 c13d af26 c93b 1049 063d c15e d73c
00000090: af7c c6bd 3bf9 003e 1152 553d bc97 a3bd
000000a0: cb68 d03d c04c 013e d83d 37bd 8f7e bd3d
000000b0: d15e 85bd 5b10 b93d a3b2 b13d c1b5 e93c
000000c0: bac2 e73d 60a8 b43d 407a 6cbd 6f9d f83d
000000d0: 96c7 d13c a3b7 8cba 768e e5bd 156d fbbd
000000e0: e04f 793d e713 4a3d f783 2dbd 0bc1 213d
000000f0: 9590 203d 6911 a9bd 4b5b 82bd 25b6 013e
00000100: ce9c 88bd 4161 01bc 70f7 c6bb f4d7 053e
00000110: 376b b4bd f7f1 f9bd eccf 25bb 0a90 b2bd
00000120: d7c5 ecbc cb15 b73d e0fc 88bd 3066 fc3d
00000130: 7e64 543d 6aef c1bd e826 8f3d c4e8 eabc
00000140: b692 d2bd ff84 84ba c746 aa3d 64a8 68bd
00000150: 788c b03c d15b 3bbd 2208 553d df99 8ebc
00000160: 6a97 95bd 7ebd 003e 7774 88bd 7b0f 073d
00000170: dce1 dabc cd96 e9bd 7462 8a3d ed9f 603d
00000180: 7178 263d b85f e7bc c340 49bd d2fd 6fba
00000190: 89a3 613b 2125 f63d 04ea 6abd da73 a63d
000001a0: 9812 9abd 32fb 773d 21e7 893d d93c 0a3e
000001b0: c6fd 0a3a 8b77 f3bc 3b63 9abd d25a e33d
000001c0: c6f6 29bd 8147 68bd a13d b93d b3e8 893d
000001d0: d343 aebd b567 9a3d 7856 96bd e207 dbbd
000001e0: e00c 03bd 99b4 81bd daee c6bd da9f b7bd
000001f0: c9fc 2ebd a324 0e3e a32b 7cbd 559c c73c
00000200: 4d82 8abc 4a47 cd3c 2527 0dbe 7c98 103d
00000210: 0b0c babd ea35 76bd 634f d53d ea67 b33d
00000220: 7f97 6abd d9a2 e83a 4f66 b0bc 6fde a9bc
00000230: 3c5f 74bd 4339 b4bd 6873 dd3d 6609 c63d
00000240: 0b3c a03d 8ba0 bcbd 4bb6 683d da3f 613d
00000250: 2c74 343d fe38 48bd 643a 8d3d 5094 1abd
00000260: 7e8d da3d 9930 e9bd 1e07 d93c 57ea d53d
00000270: aa1c 9fbd ad0c c4bd 8167 033e eb01 babd
00000280: cab4 b93d 365f 203d c9b3 b63d 22f1 203d
00000290: db8a e83d b571 48bd bb72 f9bc 8b02 8d3d
000002a0: 36a0 3c3d 566b 123d dd27 d9bd 1bcb d0bd
000002b0: febf f93d 1e92 b83d 795a 0e3d 5df5 673d
000002c0: 877b a5bd 8963 54bb f8b4 dfbc 25a0 81bd
000002d0: ac1e 2dbd 0e1a 68bd 820c 05bd 36e9 be3c
000002e0: 8412 8d3c 7aa7 3ebd 8d8e 25bd 976c 003e
000002f0: f6ee cabd b499 02bd 2c70 6fbd 38f3 1d3d
00000300: ea08 b4bd de08 763d d783 a6bd a5ff 90bc
00000310: cb66 edbb f988 b9bd 9c0f 9e3d 646d 0fba
00000320: 6d50 8dbc 408f f13d 53eb aebb dcbe 2dbd
00000330: be24 a73d e894 02be eeaa 013e 0504 8f3d
00000340: f8a7 3fbd 73e5 0ebc ff1d 52bd a4cb 04be
00000350: b17b 9eba d790 a5bd cfc6 253c 4be7 73ba
00000360: 62a3 a53d 004e 1d3d 59f4 3bbd 8470 b13b
00000370: 55e6 8b3c 2f41 863d 117e 96bd 331f cebd
00000380: d217 b3bd 740a 653d 312d 9ebd 833d 1f3d
00000390: 8050 b03d 3a9e dfbc 37c5 f8bc 7a17 8b3d
000003a0: 3025 fb3d b365 363d d26a 8a3d 4850 4d3d
000003b0: ebed 8fbc 5cb8 e1bd f14a b83d 18b5 acbd
000003c0: 6646 2abd 8419 e2bc 7210 033d acb1 fdbd
000003d0: 8dd4 7fba cb22 9c3d 9f06 ccbd 36ec 4cbd
000003e0: ae57 3d3d d9b8 0e3d 861f bfbd d835 0a3d
000003f0: 825c dcbd 3090 fbbb c111 053d 1052 e7bd
-0.0822186 -0.11532609 -0.010393836 0.043676164 0.090543404 -0.0092864465 0.098168135 0.060715243
-0.037391443 -0.05955627 -0.09960276 0.011937534 0.093563735 0.007514605 -0.07844206 -0.12829548
0.07935837 -0.10768387 -0.10835964 -0.019427637 -0.11010776 -0.054645263 -0.06297104 -0.08353422
0.087502435 -0.03169274 -0.008413223 0.08769537 -0.11886173 -0.03870921 0.093056165 -0.008039555
0.09437605 0.0061386446 0.03278452 0.0262903 -0.0969175 0.12595074 0.052080218 -0.079879254
0.10176238 0.12626934 -0.044736713 0.09252655 -0.065122254 0.09036323 0.086766504 0.02852905
0.11316438 0.088211775 -0.057733774 0.12139403 0.025607865 -0.001073588 -0.11208813 -0.12276665
0.06086719 0.049335387 -0.04236218 0.03949074 0.039200384 -0.08255274 -0.06365069 0.12667139
-0.06670533 -0.007896722 -0.0060719773 0.13070661 -0.08809512 -0.12204354 -0.0025300933 -0.087188795
-0.028902931 0.089397036 -0.06688857 0.12324178 0.05185365 -0.09469493 0.06989843 -0.028675444
-0.10281889 -0.0010110437 0.08314281 -0.056801215 0.021551356 -0.04574186 0.05200971 -0.017407356
-0.073042706 0.12572286 -0.06662839 0.032973748 -0.026719026 -0.11405716 0.0675706 0.054840017
0.040642206 -0.028243884 -0.049134027 -0.00091549486 0.003442975 0.120188005 -0.05735208 0.08127566
-0.07523078 0.060542293 0.067335375 0.13499774 0.00053020974 -0.029720088 -0.07538458 0.11101307
-0.041495107 -0.056708816 0.09044958 0.06733837 -0.0850903 0.07539312 -0.07340711 -0.10694863
-0.0319947 -0.063332744 -0.09713526 -0.08966036 -0.042721543 0.13881163 -0.061565053 0.024366537
-0.016907835 0.025058407 -0.13784464 0.03530167 -0.09084328 -0.06011001 0.104155324 0.087600544
-0.057273384 0.0017748728 -0.02153316 -0.020735947 -0.059661135 -0.08799984 0.108130276 0.09669761
0.07823952 -0.09210309 0.056814473 0.054992534 0.044056103 -0.048882477 0.06895903 -0.037739098
0.10671519 -0.113862224 0.026492652 0.104450874 -0.07769139 -0.0957273 0.12832452 -0.09082397
0.09067686 0.0391533 0.0892101 0.039292462 0.113546096 -0.048936564 -0.030450216 0.06885251
0.046051227 0.035746895 -0.106033064 -0.10194989 0.12194823 0.09012245 0.03475425 0.05663048
-0.080802016 -0.003240796 -0.027307972 -0.06329373 -0.04226558 -0.056665473 -0.03248263 0.023304563
0.017220743 -0.046546437 -0.04041915 0.12541424 -0.099088594 -0.031884864 -0.058456585 0.03856203
-0.08790763 0.06006705 -0.08130615 -0.017700026 -0.00724492 -0.090593286 0.07717821 -0.00054713176
-0.017250264 0.11794901 -0.0053381114 -0.042418346 0.08161305 -0.12752116 0.12662861 0.069831885
-0.046791047 -0.008721697 -0.051298138 -0.12968308 -0.0012091306 -0.08084267 0.0101182 -0.00093041797
0.080878034 0.038404465 -0.045887325 0.0054150242 0.017077604 0.065554015 -0.07348264 -0.100645445
-0.08744778 0.055918172 -0.07723463 0.03887702 0.08609104 -0.027297128 -0.030367477 0.06791587
0.12262952 0.04453058 0.067586556 0.05012539 -0.017569503 -0.11021492 0.08998669 -0.084329784
-0.041571043 -0.027600057 0.031998105 -0.12387404 -0.00097591506 0.07623824 -0.099622004 -0.050029956
0.046226196 0.034844253 -0.093321845 0.033742756 -0.10759832 -0.0076771006 0.032487635 -0.11294949

lstm.bias_ih_l1 f4 [256]
00000000: a105 d83d b33b c9ba cb84 56ba 4380 f63d
00000010: 9fcb dbbd 24b0 38bd 2a12 93bd 4e70 e0bc
00000020: eac8 ad3d 1645 a43d da6f 1cbd f02d 043d
00000030: eca9 a53c 7a85 1abc af61 ee3d 9726 8a3d
00000040: ae8c 053d 30ee 44bd bd58 79bc 590e d9bb
00000050: d31f 833d 46f9 bfbd f1fc a63d 3cb3 f9bd
00000060: 376c c9bd 14cf c83c 34c0 81bd bc2f d6bd
00000070: 0bbf b6bb f1c9 8f3d db3a 72bd 5af5 4c3d
00000080: e535 00be 50ce 95bd 34f9 d93b ce77 a6bb
00000090: d81f bc3d b6b7 5a3d 3076 f2bd 95ed 9cbc
000000a0: 4ef0 a8bd 2393 c63d ae5a febd f453 7f3d
000000b0: 6590 f7bb f4a5 f8bc 06e4 88bd 9c69 d33c
000000c0: 8677 fd3d 311a d63d 3ffb 623d ab6b 723d
000000d0: af38 223c 74be ecbc 6df1 89bd 6728 5f3d
000000e0: befc 383d c0d1 1fbd 99c1 963c 55fe 4bbd
000000f0: 5797 edbc bcae c13d 3c3b aa3d 433c 4d3d
00000100: 9d10 95bd ae33 d9bd 3b4f af3d a96e 00bd
00000110: 4bf4 933d f889 843d 363c dc3d b51d aabd
00000120: 6a40 c33d c09e 9bbd 608b 9e3c 05ad cabc
00000130: 5146 a33c ed48 1bbc e0f4 05bd f7a2 c0bd
00000140: cef0 c6ba 31aa 08be 19ac 123c 513e 033e
00000150: c886 87bd 4366 153d 4007 c6bd 48bf 9cbd
00000160: c0fe 1bbd 2b85 8b3d 8803 823d f908 dd3c
00000170: 0311 9bbd bf9d a23c fc21 a83c 1f81 a63d
00000180: 568a dfbd 468c c73c a10e 0c3d 28f3 073e
00000190: 3142 693b a191 c73b 8078 fcbd 6205 fe3c
000001a0: 8a32 d2bd 2f7c 03bd 1c49 2fbb 3835 d3bd
000001b0: bd3a 613d b61c 483c 75bf fe3c 43cd a1bd
000001c0: 9aed 223e 9121 003e 247c 05bd f8b3 81bd
000001d0: 360b d93b ae30 c3bc d32a a0bc 56e2 cdbd
000001e0: 66cb 54ba a102 f23d 97f5 dd3c 13b5 84bd
000001f0: be6e f1bd 4b21 893c 6a0e babd 0ad3 1cbd
00000200: 06af f3bd 7d00 163c 8cad b33d d8fb c1bc
00000210: e7db 363d d175 ff3c fcfb c4bd a7b4 213d
00000220: b9a1 063e 10ce 5a3d ef84 30bd e4d9 adbd
00000230: 1db0 83bd 395a dd3b 7010 90bd 69a1 c5bd
00000240: 03f4 793d f70b 0ebd c68e 3b3c b91c 6abd
00000250: 967b 1dbc 4acc ccbd 5fa7 5a3c 3d3d 83bd
00000260: 87b3 cc3c 6d1e 1c3d 551f ecba fba3 33bc
00000270: 9c6e 8bbd 4984 823d 172f 65bd 6efc 51bd
00000280: 6d77 cebd 3c28 f4bd e096 423d bfe4 e2bd
00000290: b004 5b39 b9e7 afbd b040 a3bc d18e e0bd
000002a0: 1538 4c3d 2746 d6bc ef56 0f3c 87c7 93bd
000002b0: 4f04 46bd 59ff 933c 586b 2a3d ab86 a5bb
000002c0: a8d7 1cbe 0be4 78bd a3d1 f7bb fb7d aa3d
000002d0: 81ad 5bbc 517a 7bbd 3f43 e93c ec37 61ba
000002e0: 8bfc eabc e0fb b23d 18be 713c 92ed a0bd
000002f0: bebd 22bd 870e 62bd 2004 d23c 7586 f13d
00000300: 7491 3d3d 9a79 6abb 3e32 963d c3c0 debc
00000310: fa09 cbbd 58d3 f5bd 8435 b43d 29e3 303c
00000320: bc56 ba3d 774a e53c fd83 a83d 8841 273d
00000330: 0102 a93d 126a 98bd 4f08 b5bd f0f0 63bd
00000340: 6a0d 233d 951e b4bd a0f5 663d c561 013c
00000350: 8223 0bbd aec6 cf3d 43f5 23bd b3b2 2abd
00000360: 0542 5bbd 57de a2bd 82b0 ab3d d259 423c
00000370: a98d ddbd 5076 403c 1ab8 d0ba 0bcc f53d
00000380: f4e9 f23c b005 c0bc f528 73bc 6fb3 fc3d
00000390: 899f 98bd 2d00 f2bd 143d 5fbd 4c3b c6bd
000003a0: 816e 533d 9118 8abc 739d 3fbd a543 78bd
000003b0: 6c4e e9bd b1ed 90bd 368d c8bb 9ce5 833d
000003c0: c746 6cbd a811 f53d 44d3 c63d 1428 c0bb
000003d0: c405 28bd 7780 8c3d b51c 1fbd f325 ce3c
000003e0: f2aa a73d 6001 b7bd 113c d9bd 95c3 d3bd
000003f0: fb74 d63c 565b 9c3c dba4 a23c de4e 933d
0.10547949 -0.0015352875 -0.000818324 0.12036183 -0.10732197 -0.045089856 -0.07181199 -0.027397301
0.08485587 0.080209896 -0.038192607 0.032270372 0.020222627 -0.009431237 0.116397254 0.06745642
0.032604866 -0.048078716 -0.015218911 -0.006624025 0.06402554 -0.09373717 0.081537135 -0.12192389
-0.098350935 0.024512805 -0.06335488 -0.10458323 -0.0055769733 0.07020939 -0.05913816 0.050038673
-0.12520559 -0.073147416 0.006652022 -0.0050802 0.09185761 0.053397857 -0.11838949 -0.019156257
-0.082489595 0.09696033 -0.124196395 0.062335923 -0.007555055 -0.03035257 -0.06684117 0.025807194
0.12376313 0.10454214 0.05541539 0.05918471 0.00990121 -0.028899409 -0.067355014 0.05448189
0.04516291 -0.039018393 0.018402861 -0.049803097 -0.029002829 0.09457156 0.08312079 0.0501063
-0.07278559 -0.1060556 0.08560034 -0.031355534 0.072243296 0.06471628 0.10753672 -0.083064474
0.095337704 -0.075986385 0.019353569 -0.024740705 0.01993099 -0.009477836 -0.032704234 -0.09406083
-0.0015177967 -0.13346173 0.008952164 0.1281674 -0.06617504 0.036474477 -0.096693516 -0.076536715
-0.038084745 0.06812509 0.0634833 0.026981818 -0.07571604 0.01985061 0.020524018 0.08130097
-0.10915057 0.02435888 0.03419364 0.1327635 0.0035592432 0.0060903584 -0.12327671 0.031008426
-0.10263546 -0.032100853 -0.0026746457 -0.10312885 0.054987658 0.0122138765 0.031097153 -0.07900479
0.1591095 0.12512805 -0.032589093 -0.063331544 0.006623651 -0.023826923 -0.01955167 -0.10052936
-0.0008117467 0.11816908 0.027094645 -0.0647985 -0.117887005 0.016739508 -0.090847805 -0.0382872
-0.118986174 0.00915539 0.08773336 -0.023679659 0.04464331 0.031184109 -0.09618375 0.039478924
0.1314763 0.053419173 -0.043095525 -0.08488825 -0.06430075 0.00675514 -0.07034385 -0.09649927
0.061023723 -0.03467938 0.011447614 -0.0571563 -0.009611985 -0.099999025 0.013345568 -0.06408165
0.024987949 0.038114954 -0.0018014709 -0.010964389 -0.068082064 0.06372888 -0.05595311 -0.051266126
-0.100813724 -0.119217366 0.047507167 -0.11078786 0.00020887214 -0.085891195 -0.019928306 -0.1096474
0.04985817 -0.026156498 0.008748754 -0.07215791 -0.048343953 0.018066095 0.041606277 -0.005051454
-0.15316641 -0.060764354 -0.0075628324 0.0832481 -0.013408066 -0.061395947 0.028474448 -0.0008591402
-0.028684875 0.087394476 0.014754795 -0.07857813 -0.039731734 -0.055189636 0.025636733 0.11793224
0.046281293 -0.0035778047 0.07333802 -0.027191525 -0.09914012 -0.12003201 0.0879927 0.010796347
0.090985745 0.02798961 0.082283 0.04083398 0.08252335 -0.07442106 -0.08839475 -0.055649698
0.039807715 -0.087948956 0.05638659 0.007896845 -0.03396941 0.10145317 -0.04002882 -0.041674327
-0.053529758 -0.07952564 0.083832756 0.011862235 -0.10818035 0.011746958 -0.0015924007 0.12001809
0.029652573 -0.023440212 -0.014841308 0.12338912 -0.07452304 -0.1181644 -0.054501608 -0.09679279
0.051619057 -0.016857417 -0.046781015 -0.060611386 -0.11391911 -0.07076586 -0.0061203493 0.06440279
-0.057684686 0.11966258 0.097082645 -0.0058641527 -0.041021124 0.0686044 -0.038845737 0.02516458
0.08186902 -0.08935809 -0.1060716 -0.10340039 0.026178828 0.019086521 0.019854 0.07192777
