output/LSTM2CNN/LSTM2CNN_adam_16_90/model/LSTM2CNN_epoch_74.pth (torch, 349870 bytes, 15 tensors)

lstm.weight_ih_l0 f4 [256, 11]
000000 02 e7 cc 3c 17 2b be bd 43 59 7e bb 10 8d 70 3d
       0.025012497 -0.092855625 -0.0038810528 0.058728278
000010 2f 87 b1 3c 10 ec f3 bc 6a c4 d0 3d d8 69 c1 3d
       0.021670906 -0.02977565 0.10193713 0.09444016
000020 27 7e ad bd 66 8f e4 bc 21 02 be 3d 1d ce 08 3e
       -0.08471327 -0.027900409 0.0927775 0.13359876
000030 5e 0a 99 bd 70 6e 96 bc 6f 35 dd 3b fd a4 1c 3e
       -0.074726805 -0.018363208 0.0067507545 0.15297313
000040 5a 88 23 bc 0e f6 78 bd ec c0 22 3e 10 74 86 3d
       -0.009981239 -0.06078153 0.15893906 0.06565106
000050 f3 b7 84 3d a0 8d 2d 3e d9 01 c4 3d 98 9a 99 3c
       0.06480398 0.16948557 0.09570665 0.018750474
000060 4b b4 ad 3c ac c8 60 3d f0 28 2d bb 09 e0 87 3c
       0.021204134 0.054878876 -0.0026422106 0.01658632
000070 9c ee 8d bc b0 2a 48 bd 7e 4f 81 bd a8 95 ad 3d
       -0.017325692 -0.048868835 -0.0631399 0.0847581
000080 8e 4b 9d bd 37 f3 e0 bc 82 a7 06 bd c2 d0 bd bd
       -0.076804265 -0.027459724 -0.03287459 -0.09268333
000090 03 77 03 bb 6f 8b 36 bd ba 3f 41 bd ea c5 1b 3c
       -0.002005995 -0.044566568 -0.047179915 0.009507636
0000a0 e5 f1 37 bd f3 8a 23 bd 08 31 a5 3d 49 63 18 3d
       -0.044908423 -0.039927434 0.080659926 0.03720406
0000b0 83 db 00 3e c0 c5 a2 bd 8e b4 a3 bd 42 eb c2 bb
       0.12583737 -0.07947874 -0.079934224 -0.005948455
0000c0 a2 7d 99 3d 0b c3 3e 3d b9 38 9d 3d 79 92 b4 bd
       0.07494666 0.046572726 0.076768346 -0.08817
0000d0 fa bd c2 bc f5 49 8c bd 72 13 04 3d 1f 34 ac bc
       -0.023772229 -0.06850044 0.032245107 -0.021020947
0000e0 47 b8 a4 3d 44 87 e6 3d e6 35 94 bd ab 69 d6 bc
       0.080429606 0.112562686 -0.07236843 -0.026173433
0000f0 49 bf 1e 3e 1c f8 d1 bb d3 3f 94 bd 7a a0 bc bd
       0.15502657 -0.006407751 -0.07238736 -0.09210296
000100 7c b1 d9 bd c5 d7 40 bc b9 e8 93 bc 7d 52 0e 3e
       -0.106295556 -0.011770193 -0.018055307 0.13898654
000110 72 f7 78 bd 48 4b 01 3d d5 37 e1 3c 15 a1 e0 3a
       -0.060782857 0.031565934 0.027492443 0.001713785
000120 b6 9a 33 bd af 3e 4f bc da 09 44 bd 68 77 83 bd
       -0.043848716 -0.012649222 -0.047860958 -0.06419259
000130 6e c8 32 3d f6 ec 88 3d dc b6 8e 3d a2 98 c8 bc
       0.043648176 0.06685822 0.069684714 -0.024486843
000140 ba 82 0e 3d fe ee b6 bd 85 bb 89 3d 35 71 5b bd
       0.03479264 -0.08932303 0.0672522 -0.05357476
000150 da b0 5f bd 8c 63 b0 3d 25 d4 be bc 8a 7f 28 3d
       -0.05461202 0.08612737 -0.023294518 0.041137256
000160 b3 80 91 3c 76 e4 fa 3d f0 bd 8f 3c b2 fe aa bd
       0.017761564 0.12250607 0.017546624 -0.083493605
000170 de 4c 6b bc ce 01 7b 3d f8 64 f1 3d 3b e2 74 3d
       -0.014361588 0.061281018 0.117868364 0.059786063
000180 c9 87 e1 bd 3d f3 23 3d 74 10 1c bc b5 b7 84 3d
       -0.11012227 0.040026892 -0.009525407 0.06480352
000190 08 ff c2 bb b1 57 c1 3d c2 0c 20 bd 41 1e 85 bd
       -0.0059508123 0.09440554 -0.039074667 -0.06499911
0001a0 5b ea c5 bc 53 35 c7 bc 9a bc 15 3e 26 aa bd bc
       -0.024159601 -0.02431742 0.14622727 -0.023152422
0001b0 b3 50 78 bd 11 c7 6f 3d 88 38 3a 3c 92 9b a1 3d
       -0.060623836 0.058539454 0.011366017 0.07891001
0001c0 6f ec 80 bc a7 66 92 3d c4 7d 99 3b a0 a5 1d be
       -0.01573774 0.07148486 0.004684182 -0.15395212
0001d0 8b 92 5e bc c5 4a e1 bc 5b cf a9 bd c9 64 85 3c
       -0.013584743 -0.027501473 -0.08291503 0.01628341
0001e0 bd 54 a3 bc 1b 3f af bd b5 96 af bc 53 3f a8 bd
       -0.019937867 -0.08556958 -0.021434167 -0.08215203
0001f0 73 d7 39 3d ed 78 f9 3d a2 cc 26 bd 7f 35 48 3c
       0.045371484 0.12181268 -0.040722497 0.012219786
000200 dd a2 14 3e 44 d9 80 3d 7b bf 4f 3c 7e c8 45 bb
       0.14515252 0.0629144 0.01267993 -0.0030179317
000210 7b 93 f5 3d b2 15 7c 3d 29 15 70 bd 5c 9a 06 be
       0.1199102 0.061544128 -0.05861393 -0.13144821
000220 9e 95 e3 3d 87 93 ab bc 99 58 e1 3d 83 3e d5 3d
       0.111125216 -0.02094437 0.11003227 0.10412314
000230 83 69 93 bb d7 05 25 3c ff f5 d0 bd 1e 1e 2f 3d
       -0.004498662 0.010072193 -0.1020317 0.04275333
000240 d2 21 fa 3c 78 34 92 bd 64 01 13 3d c8 18 11 bd
       0.030533705 -0.07138914 0.035889998 -0.035424024
000250 20 de a5 3d 28 11 9a bd 51 8a f9 bb 26 07 26 3e
       0.080990076 -0.075228035 -0.0076153656 0.16213664
000260 43 09 87 3d e7 41 ca bd 5b 42 9a bc 25 d7 ae bc
       0.065935634 -0.09875851 -0.018830469 -0.021342823
000270 50 b8 06 3e d8 5b 18 3e 12 87 25 3d 0c 80 95 bd
       0.13156247 0.14878786 0.040412016 -0.07299814
000280 d2 dc 25 bb 93 81 5c 3d 56 9e ab bd f6 25 08 bd
       -0.002530862 0.05383451 -0.083798096 -0.033239327
000290 6a b1 72 3c c7 0e f9 bb 87 3c 1f bd 33 24 bf 3c
       0.014812807 -0.0076006385 -0.038876083 0.02333269
0002a0 0a e4 68 3d fc 49 12 be bb cf 25 bd d8 70 e9 3c
       0.0568581 -0.14286035 -0.04048131 0.02849619
0002b0 ab 28 8e 3d 82 be af 3d a3 fe d4 bc e2 b4 e3 3c
       0.069413505 0.08581258 -0.026000326 0.027796213
0002c0 8e ca db 3c 15 a9 59 bd 9b 03 1a bd 21 d5 e3 bd
       0.026829984 -0.053139765 -0.037601095 -0.111246355
0002d0 f1 6b 97 3c bf 2c 2f be e9 41 85 3b f3 e9 29 bc
       0.018484088 -0.17106913 0.004066695 -0.010370719
0002e0 9f 18 4a bd ef 76 de 3d 20 52 8e 3d 67 9d 81 bd
       -0.049339887 0.108625285 0.06949258 -0.0632885
0002f0 fc 57 30 3c be 47 a8 bd 15 47 00 bd ba 24 0b 3d
       0.010763165 -0.08216809 -0.03131779 0.033970572
000300 3b 38 14 3d d3 e8 54 ba 5b 4f fd 3d d3 0f 0a 3e
       0.036186438 -0.0008121852 0.123686515 0.13482599
000310 f9 db e8 bd 07 49 26 3e 96 c9 c5 bd 3b 68 7b 3d
       -0.113700815 0.16238795 -0.0965759 0.0613787
000320 fd 0d a8 3d 3e f7 8e 3c 08 0a 05 be e9 f3 bf 3d
       0.08205793 0.017451879 -0.12992108 0.09372694
000330 c5 2a 3e 3d df 1b 8a bd 82 9d e6 bd df 98 64 bd
       0.046427507 -0.06743597 -0.11260511 -0.05580985
000340 9f 9a c9 3b f6 d5 73 3d 9e 42 8e 3c 73 36 cf 3d
       0.0061524655 0.05953022 0.01736575 0.10117807
000350 19 5d 91 3d cf 36 63 3d ab 1f 28 3d 73 4d c3 3c
       0.07097835 0.05547219 0.041045826 0.023840642
000360 db 73 a0 3d b3 ca 18 3d 4f 55 a6 bc b2 c8 76 bd
       0.07834598 0.037302684 -0.02030435 -0.06024999
000370 c9 10 4d 3d af c0 84 bd 2e 34 92 3d a4 3c 85 bd
       0.050064836 -0.06482064 0.07138859 -0.06505707
000380 94 55 6d bd 0d 2d aa bb 48 c7 19 3e ce 45 07 bd
       -0.05794294 -0.0051933588 0.15017426 -0.033025555
000390 b6 06 69 bd 79 07 1a bd 3b 05 66 3d 1c 63 e0 3d
       -0.056891166 -0.037604783 0.056157332 0.109564036
0003a0 5a 0d ad 3d 1a ce c1 3c c3 3c 80 bd 43 d6 8d 3b
       0.08449812 0.023657847 -0.062615894 0.0043285205
0003b0 e6 94 9f 3c d6 ab 0b bd 14 18 05 3e 43 d2 95 3d
       0.01948018 -0.034099422 0.12997466 0.07315495
0003c0 d8 40 b9 bd 80 58 89 3b 20 e7 b2 bd 5a d2 97 3d
       -0.09045571 0.004191458 -0.0873549 0.07413168
0003d0 81 03 79 bb 1b 39 48 3d 92 9e 9c 3c 32 b0 57 bd
       -0.0037996473 0.048882585 0.019118581 -0.052658267
0003e0 ca 5a ef bb 2e be f8 3b dd 30 ab bd 94 97 b3 3c
       -0.007304524 0.0075910306 -0.08358929 0.021922864
0003f0 d5 64 10 bd 6a 38 5e 3d f6 07 49 bd 52 c4 e6 bd
       -0.03525241 0.05425302 -0.049079858 -0.11267914

lstm.weight_hh_l0 f4 [256, 64]
000000 bc 41 14 3d ab f1 94 3d 7a 01 3b 3d 77 b9 0e 3e
       0.0361955 0.07272657 0.045655705 0.13937937
000010 61 76 fb bc 91 ee 12 be f8 cf ae 3b 7f 44 d5 3d
       -0.030696096 -0.14348818 0.0053348504 0.10413455
000020 05 c5 73 bd d2 de 21 bd 0c 88 e9 bc 1b c4 d1 3d
       -0.059514064 -0.03951914 -0.028507255 0.10242482
000030 e5 62 ef bc 07 21 ce bd 0a 5d 23 bd ab 34 e5 3d
       -0.029221961 -0.10064893 -0.03988365 0.11191686
000040 73 00 15 bd cc 51 3a bc 39 b5 23 bc c3 34 11 bd
       -0.03637738 -0.011372041 -0.009991937 -0.035450708
000050 0f d6 eb bd b0 30 0d 3c 4f 31 78 3d d2 ef e7 3d
       -0.11515438 0.008617565 0.0605939 0.11325039
000060 0e dc 0d bd 50 aa 06 be 1c 57 0f 3d 8b 6b 6b bd
       -0.03463369 -0.13150907 0.034995183 -0.057475608
000070 b1 62 b6 3d d8 11 64 3d 6e 7e e8 bd 72 05 99 3d
       0.08905543 0.05568108 -0.113522395 0.07471742
000080 14 42 07 be a0 49 8a 3d 0f 62 85 bd dd 26 81 bd
       -0.132088 0.06752324 -0.06512844 -0.06306241
000090 f8 87 38 3d 16 a1 ad bd 58 ec a4 bd 49 56 d0 bd
       0.045051545 -0.0847799 -0.080528915 -0.101727076
0000a0 91 60 ee 3d 34 67 11 bd 73 f2 c2 3d 71 75 2b bd
       0.11639512 -0.035498813 0.095189 -0.041860048
0000b0 86 6b 54 bc 6d 3e 31 3d 21 51 87 3d 4f ee cc 3d
       -0.012965089 0.043272424 0.06607271 0.10006391
0000c0 bd 20 15 3c de 37 b1 bd 18 f3 93 bd 68 7e f9 bc
       0.009102044 -0.08653234 -0.07224101 -0.030455783
0000d0 e5 50 33 be 9c 10 50 bc 08 5a c6 3d bc 31 2a bd
       -0.17511328 -0.0126992725 0.09685141 -0.041551337
0000e0 e3 44 19 bc 8e 8b 7b 3d 25 a4 cc 3d 62 36 95 3d
       -0.009354803 0.061412387 0.099922456 0.07285763
0000f0 c4 47 6c 3c ba c4 67 bd d5 ae 39 3d e3 42 c6 3d
       0.014421407 -0.056584097 0.04533275 0.096807264
000100 34 ca 94 3d 91 df 77 3c a7 09 8d 3d 61 e8 2c bd
       0.0726513 0.015128986 0.06886607 -0.0422138
000110 77 23 a0 bd 8e d5 05 be bb 98 d4 bd 49 66 0c bc
       -0.078192644 -0.13069746 -0.103806935 -0.008569309
000120 2c 2b 01 3d 64 5d 5d bd a8 1f 37 3d eb 82 57 bc
       0.031535313 -0.054044142 0.044707924 -0.013153772
000130 ad 2f 0c be c7 be 79 bd 2c 10 87 3d 7f 71 53 3d
       -0.13690062 -0.060972955 0.065948814 0.05162191
000140 70 19 5c bd e1 ad 14 3d ef 0b 2d be bc ba 33 3e
       -0.053735197 0.036298636 -0.16899084 0.17551702
000150 a8 42 f0 3d 1d be d5 3a fc b3 e7 3d a2 c4 dc bd
       0.11731464 0.0016307269 0.11313626 -0.10779692
000160 00 17 05 3d dc 55 07 bd 55 33 61 3d 38 19 4a bd
       0.032492638 -0.033040866 0.054980595 -0.049340457
000170 69 4b 08 be 59 76 91 bc 88 92 ae 3c 20 01 cb 3d
       -0.13310017 -0.017756628 0.021310106 0.09912324
000180 7a a9 9e 3c 5e 83 08 3e 22 e4 9f 3d 5a 88 46 3b
       0.019367922 0.13331363 0.07807185 0.0030293674
000190 5a de 1a 3d af f9 30 3e c7 cc 90 bd 7e d6 80 bd
       0.037809707 0.17282747 -0.07070308 -0.06290911
0001a0 ce 1f 7d 3d 73 e8 2b be a9 f9 49 be 73 5c e6 3d
       0.06179791 -0.16787891 -0.19724144 0.11248102
0001b0 07 87 81 bd 09 d0 bf bd 93 0a 33 3e b6 63 ac 3d
       -0.063245825 -0.093658514 0.17484502 0.08417456
0001c0 ed 05 fe 3c ab e2 2f bd 49 84 fd 3d d1 03 44 be
       0.031008685 -0.042940777 0.12378747 -0.19142081
0001d0 01 8f 3b be 13 d8 2a 3e 64 5f 4e 3c e1 bb d6 bd
       -0.1831627 0.16683988 0.012595985 -0.10485054
0001e0 ed bf 37 be d1 98 6f 3d 22 55 38 bd 34 81 28 bd
       -0.17944308 0.058495346 -0.045003064 -0.041138843
0001f0 22 ce 31 be be ef 90 3d e6 ba 2b 3d f4 c8 99 bd
       -0.1736379 0.07076977 0.041926287 -0.07509032
000200 2f 61 25 3c 60 54 cf bd d0 53 93 bd a2 00 47 3c
       0.010093971 -0.10123515 -0.0719372 0.012146147
000210 bd ca 7d bd 1e 09 af 3d c1 aa 54 3e f8 66 cc 3d
       -0.061960924 0.08546661 0.20768262 0.09980577
000220 9f 01 a0 3d f6 e6 3a 3d c3 6e 9d 3d 6e 8a a2 bc
       0.07812809 0.045630418 0.07687142 -0.019841399
000230 d8 e5 58 3c 18 2b cf bd 85 19 04 3e d3 ac 25 bd
       0.013238393 -0.10115641 0.1290036 -0.04044802
000240 0e 62 18 bc a8 d2 cb 3d dd a0 8c bd a0 d1 24 bc
       -0.009300722 0.09952289 -0.0686662 -0.010059744
000250 bb dc 0f 3e 6b 71 71 bd a6 ad 49 bd b6 ac 92 3b
       0.14049046 -0.058946054 -0.04923787 0.004476155
000260 30 35 a1 bd 59 45 00 be b3 5d 8e 3c 9e 1e ec bd
       -0.07871473 -0.12526454 0.017378664 -0.11529277
000270 45 3b ee 3a 17 b1 d6 bd 3d 82 c5 3c 85 53 08 3e
       0.0018175623 -0.10482996 0.024109954 0.1331311
000280 7b b0 59 3d 58 9b ed 3d e5 2a 36 3d 2b e9 51 3d
       0.05314682 0.11601895 0.0444745 0.051247757
000290 18 59 2f 3d 3b 46 a1 3d d8 85 09 bd dd e5 0c 3e
       0.042809576 0.078747235 -0.03357491 0.13759561
0002a0 c0 48 a4 bd b8 7f 0c be 6b a2 a7 3d 58 91 a6 bd
       -0.080216885 -0.13720596 0.08185276 -0.08133191
0002b0 94 aa 63 3d 02 87 6b bd f1 e5 b5 3d c7 49 50 bd
       0.055582598 -0.0575018 0.088817485 -0.05085161
0002c0 9d 2a 15 be 46 f8 4e bd 4f 18 13 be 26 56 a7 bd
       -0.14567037 -0.05052974 -0.14364742 -0.081707284
0002d0 5e 4f b7 bd dd ab d9 3a 21 5e b8 3d 27 60 c9 bd
       -0.08950685 0.0016607005 0.09002329 -0.09832793
0002e0 60 06 a8 3c 07 71 65 3d 85 38 c0 bd bb f6 9a bd
       0.020510852 0.056015994 -0.0938578 -0.07566591
0002f0 54 68 af bd 0b b5 00 3e 71 c7 87 bd 97 b5 83 3d
       -0.08564821 0.12569062 -0.06629837 0.0643112
000300 d7 d5 2b 3d be c2 23 bd 07 e6 d6 3d 10 a1 7c 3e
       0.04195198 -0.039980642 0.10493093 0.24670815
000310 f4 9d 06 3e 62 ef 0b 3d 76 86 18 be ae 23 a2 bd
       0.13146192 0.03416384 -0.14895043 -0.079169616
000320 d4 50 28 3d f1 f5 b0 3c 57 58 69 3d e7 be 42 3d
       0.04109271 0.021601649 0.056969013 0.04754534
000330 07 39 65 3e 04 30 b3 3d b9 35 34 3e de d1 25 3d
       0.22385035 0.08749393 0.17598619 0.040483348
000340 ad 6d b8 bd f8 a8 d5 3d 7c d6 22 3c 29 d0 cf bd
       -0.09005294 0.10432619 0.009938832 -0.10147125
000350 c3 94 18 bd 2a 79 39 3d 2c cf 9c bc 5f 12 e4 3d
       -0.037251245 0.045281567 -0.019141756 0.111363165
000360 d0 08 a3 3b db da 12 bd 79 5e 10 3e bb 2b c9 3d
       0.0049754158 -0.035853248 0.14098538 0.09822794
000370 fd 94 9c 3d a0 ec 04 3d 7e d7 a8 bc cf 69 8a bd
       0.07645605 0.032452226 -0.020610567 -0.06758463
000380 d9 c6 81 be 63 6c 51 bd ca 64 2a 3e aa f8 a4 3c
       -0.2534702 -0.051128756 0.1664001 0.020138104
000390 e8 4b c5 3d 9c 6e 45 be 8a 10 1d 3c 7e 43 a9 bd
       0.096336186 -0.19280475 0.009586463 -0.08264826
0003a0 55 f7 93 3c 1a e8 7e b9 34 98 eb 3d b1 34 c5 bd
       0.018062273 -0.00024309792 0.1150364 -0.09629191
0003b0 9c 3a 21 3e 8d 5f 83 3d 60 b4 a6 3c 9b e1 bd 3d
       0.15745014 0.06414709 0.020349681 0.092715465
0003c0 70 26 3e bd c2 ac 9a bc 7b bb e9 bd 91 54 03 bd
       -0.046423376 -0.018881205 -0.11412712 -0.03206307
0003d0 19 eb e2 bd cd 2e 37 bd e6 41 23 bd 6d 1f 5c bd
       -0.110799976 -0.044722367 -0.039857768 -0.053740907
0003e0 24 e1 1f be f0 d9 65 3c 1d 38 87 bd f9 21 12 bd
       -0.15613228 0.014029011 -0.066025 -0.03567693
0003f0 4f 1b f7 bd fb a1 73 3d d8 84 9e bd 53 06 f1 bd
       -0.120657556 0.05948065 -0.07740182 -0.117687844

lstm.bias_ih_l0 f4 [256]
000000 c3 c0 9d 3d f6 22 05 be 9e 18 3f bd 37 16 4e 3d
       0.07702782 -0.13001618 -0.046654336 0.050314154
000010 7e 4e ec bd 3a d0 bb 3d 2a 6d d0 bd f4 f9 33 bd
       -0.11538409 0.091705754 -0.101770714 -0.043939546
000020 24 41 ca bd c1 ed 6a bd e4 91 cf 3d 45 11 1b bd
       -0.09875706 -0.057355646 0.10135248 -0.037858266
000030 63 7f 8a 3d f4 70 c6 3d 22 89 30 be 36 e0 7d 3d
       0.06762578 0.09689513 -0.17239812 0.061981402
000040 e0 fb af bc 01 2b 9e bd 0a 1e 0f be ec cb 67 bc
       -0.021482408 -0.07723046 -0.13976303 -0.01414774
000050 f0 c9 9b bd d0 41 31 3d a5 6e 9a 3d 3d 10 9e 3d
       -0.07606876 0.043275654 0.07540635 0.07717941
000060 b1 47 37 3d 51 96 ce 3d 51 34 89 bc 6a 67 4a 3d
       0.044746105 0.10087264 -0.01674858 0.04941503
000070 0e 86 c9 3c c8 76 22 bd 04 27 67 bd 53 b5 85 bd
       0.024600055 -0.03966406 -0.056433693 -0.065287255
000080 39 43 d9 bc 3b 3b a5 bd 39 5f 67 bc e8 42 cf 3c
       -0.026521312 -0.08067938 -0.014121824 0.025300458
000090 a8 20 a0 bd 01 38 99 3d 60 28 59 bd 7f 93 8f 3d
       -0.07818729 0.07481385 -0.05301702 0.070105545
0000a0 c6 79 a5 3d f5 64 75 3d b3 b7 c4 bd 9e 26 c0 3d
       0.08079867 0.059910733 -0.0960535 0.09382366
0000b0 1e 59 0a be a2 39 a4 3d d8 96 df 3d df 30 e1 bd
       -0.13510558 0.08018805 0.10917443 -0.109956495
0000c0 0c 1c a0 bc a7 38 28 3c 31 f7 0a bd 37 6e 0b be
       -0.019544624 0.010267413 -0.033927146 -0.13616262
0000d0 fa d2 c0 bd 8a 98 97 3c 7f 1f 04 be 38 0f 4a 3d
       -0.094152406 0.018505353 -0.1290264 0.04933092
0000e0 e4 c7 60 bd 07 ba 28 3c 11 6a 91 3d 59 76 cb bd
       -0.05487813 0.010298259 0.07100309 -0.099346824
0000f0 be 1e b1 3d 79 34 f6 bd e8 f3 cd bd 7c d3 85 bd
       0.08648442 -0.12021727 -0.10056287 -0.06534478
000100 39 c0 b0 bd f3 bb ee bd 2a da d1 bd 9f df b3 3d
       -0.086304136 -0.11656942 -0.102466896 0.08782887
000110 2d c6 d1 bd 6a 60 93 bb 66 70 83 bc ad 5e d0 bd
       -0.10242877 -0.0044975774 -0.016044807 -0.10174308
000120 97 a3 d7 3d fa 7c 06 be 95 8f b8 3c 73 21 50 3c
       0.10529249 -0.13133612 0.022529403 0.012703287
000130 02 a4 e4 3a b4 6f c6 bd 3b b7 a6 bd e4 c3 d9 3c
       0.0017443898 -0.096892744 -0.08140417 0.026582666
000140 7a 8f cf bd ab 1d d5 bd 55 31 12 be 3d 72 4b bd
       -0.10134788 -0.10406049 -0.14276631 -0.049669493
000150 b4 ea 16 bd 07 fa b1 3d fb e1 ea bd 87 50 e6 bd
       -0.036844924 0.08690267 -0.114688836 -0.11245828
000160 29 75 a4 bd fc 66 4b bd 39 33 1a bd 33 41 fb bd
       -0.08030159 -0.04965876 -0.037646506 -0.12268295
000170 29 eb 93 bd 0b c8 aa bd 28 2b 1c 3d 2c 66 e1 3d
       -0.072225876 -0.083389364 0.038127095 0.11005816
000180 24 f7 8a bd 60 dd 03 bd 72 06 c4 bc 69 1c 35 3d
       -0.067854196 -0.03219354 -0.023928855 0.044216547
000190 6e d0 41 3d 41 2b d5 bd 4f a3 f1 b9 b8 7b 4a 3d
       0.047317915 -0.10408641 -0.00046088776 0.049434394
0001a0 64 5d bf 3c 61 dd 32 bd c3 d4 e4 3d 80 d9 00 bc
       0.023359962 -0.043668155 0.111733936 -0.007864356
0001b0 a2 cf 01 3e f1 80 da 3c fa 85 33 bd b4 da 0f bc
       0.12676862 0.026672812 -0.043828942 -0.00878017
0001c0 51 e8 9e bd d5 e1 c7 3d 2b 3b ed bd 26 68 82 bc
       -0.077591546 0.09759871 -0.11583551 -0.015918802
0001d0 f1 c8 b6 bd 5d 7c c7 bd 4f 55 e8 3c e8 04 ef 3c
       -0.08925045 -0.09740517 0.02836099 0.029177144
0001e0 ee 14 d5 ba 87 7b a9 3d c8 0a 5d 3c 40 b0 98 3d
       -0.0016256848 0.08275514 0.01349134 0.07455492
0001f0 e6 33 e0 bd 5d 4e e3 3b 13 5f 38 bc fe 5d a9 3d
       -0.10947399 0.006936832 -0.011253136 0.08269881
000200 f0 56 1d 3d 02 04 fc bd 3a 02 ca 3c 72 78 ca bd
       0.03841299 -0.12305452 0.024659265 -0.09886254
000210 67 3d cf bb 29 aa 63 3d 11 04 29 3d fb a2 14 bd
       -0.0063244584 0.0555822 0.041263644 -0.036288243
000220 67 da 7c bc 78 72 ce 3d 6c d1 8a bd a1 a2 f4 3c
       -0.015432931 0.10080427 -0.06778225 0.029862704
000230 31 76 e6 bd 47 21 5e 3d db 4d 13 3d f6 c3 8f bc
       -0.11253012 0.054230954 0.03596292 -0.017549496
000240 b2 5e d5 3d 41 ed f4 bd f1 7d 7e bc bf 74 23 3b
       0.10418452 -0.11959315 -0.015532956 0.0024941412
000250 5e 8b 2e 3d 98 c0 e0 3b 3b 0e 8c 3d c4 d3 1e bd
       0.04261338 0.0068588965 0.06838652 -0.038776174
000260 18 10 ec 3d 3b 5c af 3d 0b 88 10 be 9c 03 0d bd
       0.11526507 0.085625134 -0.14114396 -0.03442727
000270 8c 64 e2 3b b1 c3 87 3d 95 ff 39 bc 59 e9 ff 3c
       0.006908959 0.06629122 -0.011352439 0.031239199
000280 46 9c 83 3d d6 9f 0c bd e2 22 68 bd 8a f8 a4 3c
       0.06426291 -0.03433212 -0.05667389 0.020138044
000290 e9 56 98 bd d7 fe 4e bd 8f 2f 31 3c ce 2a 56 bb
       -0.07438452 -0.050536003 0.0108145615 -0.0032679322
0002a0 f0 0d 12 bd bc b0 ef 3d a8 ed 47 bd 4f ea 03 bd
       -0.035657823 0.11703631 -0.04881063 -0.032205876
0002b0 fb 3d ae 3c 5f f1 2c bd ba 38 43 bd 17 72 d4 3d
       0.021269789 -0.042222377 -0.04766152 0.103733234
0002c0 a6 95 5e bd 34 d6 08 be fd ad 0f 3e e9 24 44 3c
       -0.054341935 -0.13362962 0.14031215 0.011971691
0002d0 14 1b 1f 3e 7b 82 37 3d 24 02 d0 3d 1e 04 0b 3e
       0.15537673 0.04480217 0.10156658 0.1357579
0002e0 ad c7 b7 3b 4b cc 7d bd d0 30 9e 3c 1a 3f 74 bd
       0.00560852 -0.061962407 0.019310385 -0.05963049
0002f0 e0 8c 7b 3d d5 ec 07 bd 1d 18 5b bb ef fc 9d bd
       0.061413646 -0.033184845 -0.003343112 -0.07714259
000300 a8 e0 94 bd 64 de d8 bd 14 64 0c bd 51 3d 84 3d
       -0.07269412 -0.10589293 -0.03427513 0.06457008
000310 c8 7a 03 bc 26 28 cf 3d 1d f3 c9 3d a9 50 be bd
       -0.008024879 0.101150796 0.09860823 -0.092927285
000320 2f 17 7e 3d 15 ff ca 3c ca 88 e8 bc 4d 7d 47 3c
       0.06203383 0.024779836 -0.028385539 0.01217587
000330 a5 61 da bd e9 06 50 bc 39 f9 a5 bd e6 fa 65 3c
       -0.106631555 -0.01269696 -0.08104176 0.01403687
000340 a2 db a0 bd d8 c6 3b bd c1 57 f0 bc 36 47 1d bd
       -0.07854392 -0.04584393 -0.02933872 -0.03839799
000350 7b 43 b1 bd 84 88 af bd e0 a2 36 bd f3 fe 5b bd
       -0.08655449 -0.0857096 -0.044588923 -0.053709935
000360 55 91 98 3d 89 a2 ca 3d 87 ad 04 bd 47 8b 05 be
       0.07449595 0.09894282 -0.03239205 -0.13041411
000370 15 43 b0 3d 95 b2 89 bd bb a2 3e bd 67 16 24 3d
       0.08606545 -0.06723515 -0.04654191 0.040060427
000380 74 fe 39 3d 1b 7f 9a 3d fd 31 d1 3d 33 7d d8 bd
       0.04540868 0.07543775 0.10214613 -0.10570755
000390 d2 c7 90 39 d4 72 c3 bd 51 21 ca bc 8d 0c de bc
       0.00027614698 -0.09543386 -0.02467409 -0.027105594
0003a0 d4 16 0f bb 97 ff d3 bd 56 94 43 bd bf 7a f8 bd
       -0.0021833675 -0.10351484 -0.047748886 -0.12132787
0003b0 3a 97 8b 3d 67 21 09 3d 71 ce 1b 3c e3 89 a6 3c
       0.068159536 0.03347912 0.009509669 0.020329421
0003c0 90 37 ff bd 28 1a da 3d a5 ef ad 3c 82 fa 28 bc
       -0.124617696 0.1064952 0.021232435 -0.010313632
0003d0 be 22 bf 3d c5 d4 26 bc 9b ea 32 bd af 8a 95 3d
       0.093327984 -0.010182564 -0.04368077 0.073018424
0003e0 5d 12 a8 bb 5f 0a 07 be 88 51 20 be c8 27 b7 3d
       -0.005129142 -0.1318755 -0.15656102 0.089431345
0003f0 a7 ae 80 bd 4f ef b0 3d c5 5e 98 bd d6 a7 53 bd
       -0.06283312 0.086393945 -0.07439951 -0.051673733

lstm.bias_hh_l0 f4 [256]
000000 54 29 12 bd 1c a6 c9 bd c7 56 12 3e 76 8d 1a be
       -0.035683945 -0.09846136 0.14290915 -0.15093026
000010 f4 bd d7 bd e6 7e f7 3d fd 4f 67 3d 4b 44 ff bd
       -0.105342776 0.12084751 0.056472767 -0.12464198
000020 9e de fb bd 04 15 6a bd cc 34 1e bd fa a6 cb 3d
       -0.1229832 -0.05714895 -0.03862457 0.099439576
000030 b0 24 60 3d a1 c0 ce bd b4 41 be 3c 40 c2 c1 3d
       0.054722488 -0.10095335 0.023224689 0.09460878
000040 70 6b 6c 3c 53 64 10 bd 91 32 fa bd 1e 75 4c bd
       0.014429912 -0.035251927 -0.12216676 -0.04991638
000050 76 b1 2e be 64 05 19 bd 47 c3 83 3d e5 0e b6 3d
       -0.17059883 -0.037358657 0.064337306 0.0888956
000060 33 8b 43 3d 25 e8 1e bd 04 29 ca bc d5 c3 cc bd
       0.047740173 -0.03879561 -0.02467776 -0.099982895
000070 70 e1 1b 3c e2 a7 dc 3d dd 2d e1 bd 87 64 a5 bd
       0.009514198 0.107742086 -0.10995076 -0.08075815
000080 07 69 5e bd 79 06 ce 3d 3d 22 f3 3c bc 6f 28 be
       -0.05429938 0.10059828 0.029679412 -0.16448873
000090 8a ed 2f bd 36 a9 33 bd 88 30 24 bc 00 f1 aa bd
       -0.042951144 -0.043862544 -0.010021336 -0.08346748
0000a0 28 d8 d2 bc 4a 77 38 3d f9 5c bc bd 52 7c 2b 3d
       -0.025737837 0.045035638 -0.091974206 0.041866608
0000b0 d4 55 03 be 85 1d a4 3c 57 1c 7a 3d 5e dd 10 3b
       -0.1282571 0.020033607 0.061062183 0.0022104601
0000c0 28 29 f7 3b 9b 66 f4 bd 29 d8 14 3d ee 70 98 3d
       0.007542748 -0.11933633 0.03633896 0.07443415
0000d0 e5 bb 5e 3d 98 95 18 bd 92 69 26 bd aa 8a d7 3d
       0.05437841 -0.03725204 -0.040628023 0.10524495
0000e0 90 66 29 bc ed 01 cc ba f6 35 34 be 2d fd cf bd
       -0.010339394 -0.0015564539 -0.1759871 -0.10155711
0000f0 5c 97 a2 3d e7 73 e2 bd 80 63 a8 bd 92 f4 e2 3b
       0.07939026 -0.11057263 -0.08222103 0.0069261277
000100 80 da ad bd 94 58 c1 3d 74 7c b5 3d 26 00 7a 3c
       -0.08488941 0.09440723 0.08861628 0.015258824
000110 4d 86 dc bd ad 27 90 bd 54 7c 26 3d 7b 29 19 3b
       -0.10767803 -0.070388176 0.040645912 0.0023370672
000120 48 fc 8e bd e8 18 d4 3d ab 25 7d 3d 95 dd 9d 3d
       -0.069817126 0.10356313 0.0618035 0.07708279
000130 73 73 1d 3d 85 ed ff bc 1d 79 b4 3d 7a f9 b8 3c
       0.03844018 -0.031241188 0.08812163 0.022579897
000140 f0 6c d9 bd 10 a1 ef bd 74 55 96 3d 69 ae 64 3d
       -0.10616481 -0.11700642 0.07340518 0.055830393
000150 20 4d 20 bc 36 c2 d2 bd 91 06 e6 bd 71 dd e6 bc
       -0.009784013 -0.10290949 -0.11231721 -0.028181763
000160 d5 f0 f0 bd 46 aa 36 bd 23 0f 8d 3d b8 64 3e bd
       -0.11764685 -0.04459598 0.06887653 -0.04648277
000170 49 b7 05 be cd 36 62 bd 55 e5 b2 3d 47 81 18 bd
       -0.13058199 -0.055228043 0.08735148 -0.037232663
000180 27 28 82 bd d8 13 c4 bd e1 7c 23 3d 92 84 a0 bc
       -0.06355315 -0.095740974 0.039914016 -0.019594464
000190 57 09 e5 3d 36 f5 b7 3d 3a 34 ee bc 70 89 4b 3d
       0.11183422 0.08982317 -0.029077638 0.049691617
0001a0 07 e9 cb bd 6b 34 79 bd e9 db c7 3d 60 d6 a7 3c
       -0.09956556 -0.060841005 0.097587414 0.020487964
0001b0 0b 38 af bd 4d f9 ab 3d 47 58 9d bd 64 33 da bd
       -0.08555611 0.0839716 -0.07682853 -0.10654333
0001c0 25 8c 8f 3c af b2 b9 bd c0 40 bf 3a c5 d9 70 b9
       0.01752288 -0.09067284 0.001459144 -0.00022969309
0001d0 b3 06 d7 bd fb ae 24 bd 41 6a 6c bd 58 f1 55 3d
       -0.10499325 -0.040205937 -0.05771852 0.052232116
0001e0 47 7a c6 bd 0c ff f7 bd 99 41 36 3d a3 f8 0b be
       -0.09691291 -0.12109193 0.044496153 -0.13669066
0001f0 a4 9e 57 bd 18 01 34 3d fc b3 c8 bb 88 7f 40 bc
       -0.052641526 0.043946356 -0.0061249714 -0.011749156
000200 10 a5 96 3c 8a 3a a8 bd 21 ce ed bd b5 a7 83 3d
       0.018389255 -0.082142904 -0.116115816 0.06428472
000210 a8 22 cd 3d ba e9 85 3d e8 9c e1 3d 37 e5 71 bd
       0.10016376 0.065387204 0.110162556 -0.059056487
000220 57 f8 d3 bd 1c 30 8e bd 4e 8c 80 bd 22 9b c7 bd
       -0.103501014 -0.0694277 -0.06276761 -0.09746386
000230 52 25 e7 bc c7 a5 22 bd 72 4d 2d 3d dd dd 20 3c
       -0.028216038 -0.03970888 0.042310186 0.009818521
000240 06 39 4b bd 64 7c 30 3d fb 0b ed 3c 2a 5f 2c bd
       -0.04961493 0.04308738 0.028936377 -0.042082943
000250 7f 68 e7 3c 17 59 00 3e ff d1 98 bd 12 58 bc bd
       0.02824807 0.12533985 -0.074619286 -0.091964856
000260 05 36 27 bd cf 2c d8 3d ca b4 0f bb de 12 c5 bd
       -0.040823 0.105554216 -0.0021927827 -0.09622739
000270 b3 25 06 3e c4 9f 41 3d e4 e2 68 3d 9d 33 47 bd
       0.13100319 0.047271505 0.056857005 -0.048633207
000280 5f 51 a6 bd 08 ad b6 bd 69 34 af bd 87 ea 64 3d
       -0.08120989 -0.08919722 -0.08554918 0.055887725
000290 68 5e 02 be 0c d1 46 3d 2e 39 82 3d ee 2d e2 3d
       -0.12731326 0.048539206 0.063585624 0.11043917
0002a0 b8 cb f3 bd 07 b8 19 bd 33 e8 ae 3a de d8 00 bd
       -0.11904091 -0.037529018 0.0013344347 -0.03145682
0002b0 b0 22 a7 3d ea ae 88 3d 6a 83 3a 3b b6 f5 b6 bc
       0.08160913 0.06673987 0.0028459677 -0.022333961
0002c0 f6 2e f5 bb dc b5 a0 bd 40 61 12 3e eb f8 4e 3d
       -0.007482405 -0.07847187 0.1429491 0.050530355
0002d0 6b 3d fd 3d 83 8b 01 bd 09 12 92 bd e7 4d 99 3c
       0.1236523 -0.03162719 -0.07132346 0.018713905
0002e0 93 1c 81 3c 2e a6 ce bd 48 09 52 bc a4 4d a3 3d
       0.015760696 -0.1009029 -0.012819596 0.07973793
0002f0 24 0d 59 bd 63 f4 bd bc 57 f6 ea bc 00 40 ca 3d
       -0.052991048 -0.023187822 -0.028681917 0.09875488
000300 8f 7d e8 bc 90 51 59 bd c0 d7 3d bd bc 69 10 bd
       -0.028380184 -0.0530563 -0.046348333 -0.035257086
000310 8b ff 9f bc a1 fe be 3d 18 c5 bf 3d 9c 9a 93 3c
       -0.019531032 0.0932591 0.093637645 0.01801806
000320 14 88 5a 3c ea 3b 39 3d 69 6c 03 3c 15 72 b4 bb
       0.013338108 0.045223154 0.008021452 -0.0055067637
000330 86 9e 6b bd 6f 06 d6 bd 90 97 93 3c 91 54 f6 bc
       -0.057524227 -0.10450446 0.018016607 -0.030069621
000340 e3 e5 31 3d 36 7f 8b bd 7d b6 cf bd 03 f8 e4 bb
       0.043432128 -0.06811373 -0.10142229 -0.006987573
000350 bc f8 4c 3c b0 91 f3 bd 8d 1a d0 bd d9 16 cd bd
       0.012510475 -0.11893022 -0.10161314 -0.100141235
000360 bb de 2b bd 5f 47 a3 3d 76 84 04 3e 3e 7d c3 bd
       -0.04196046 0.07972597 0.12941155 -0.095453724
000370 9c 6a 89 b9 c5 d7 d7 bd be 00 0e be 2e a9 10 bc
       -0.00026210106 -0.10539202 -0.1386747 -0.008829398
000380 6d 2f 0f bd 1e 7f 95 bb 68 f0 89 bd 38 86 c1 bc
       -0.034957338 -0.0045622727 -0.06735307 -0.02362357
000390 4e 51 94 3d e6 81 67 38 7b 4f 7d 3d 40 e7 43 bd
       0.0724207 5.519567e-05 0.061843377 -0.04782796
0003a0 1d 3e ac 3d ae ee 83 bc 29 b7 67 bc fc b4 7f 3d
       0.08410285 -0.016105022 -0.01414279 0.06242846
0003b0 e3 ab ad bc cc 6f e3 3c 50 4f c1 bd 74 d8 9d b7
       -0.021200126 0.02776327 -0.09438956 -1.8816652e-05
0003c0 06 4f 0f be 8c 7a 65 3d e9 f4 30 bd ba d0 b6 3d
       -0.13994989 0.056025073 -0.043202315 0.0892653
0003d0 cc 26 25 bd 89 92 3f 3d e7 0e ce 3d 4b 9c 27 3c
       -0.040320203 0.046770606 0.10061436 0.010230134
0003e0 2b 2d 86 3b 4e 96 c7 bd 45 68 83 bd 3a ca a8 3c
       0.00409474 -0.09745465 -0.06416372 0.020604242
0003f0 99 20 c7 bc 75 e2 0f be c0 57 0d bd c0 8b 24 be
       -0.024307536 -0.1405123 -0.034507513 -0.16068935

lstm.weight_ih_l1 f4 [256, 64]
000000 73 c0 96 3c 3b 98 74 bd 77 03 11 3e 87 47 c9 bd
       0.018402314 -0.05971549 0.14161478 -0.09828096
000010 d4 0c 5d 3b 06 5e d5 bc 2c 49 b0 3d 86 4d b5 bc
       0.003372957 -0.02604581 0.086077064 -0.022131693
000020 d3 45 c7 3d c5 15 09 3d 2e fc 1f 3d 1a b8 e1 bc
       0.09730115 0.033468027 0.039058857 -0.027553607
000030 1b 84 30 3c 29 b6 e2 bd 9f cd 03 be d7 20 4f 3d
       0.010773684 -0.110699005 -0.12871407 0.050568428
000040 32 d2 87 bd 0d b6 e3 3d a8 5a 9c 3d 15 0c 05 3e
       -0.066318884 0.11118708 0.07634479 0.1299289
000050 6f 09 83 3d 6d 2a 86 bd 9b 4d 3e 3d c7 58 bc 3d
       0.06398284 -0.06551061 0.04646073 0.091966204
000060 c0 7f a8 bd e5 20 8d 3d 4a 57 ea 3d 17 d3 32 3d
       -0.082274914 0.0689104 0.1144243 0.043658342
000070 d5 1e 5d 3d 11 21 b0 3d 2d 95 8a bd 4a bd 39 bd
       0.05398448 0.08600057 -0.06766734 -0.045346536
000080 cb 51 30 3d f6 d8 c5 3d cb 91 36 3d 95 34 e4 3d
       0.043046754 0.09660523 0.044572633 0.11142842
000090 ca 45 6b 3d a3 7f cc 3d f7 12 f5 bc 1e 6c d8 bd
       0.057439603 0.09985282 -0.02991627 -0.10567497
0000a0 d1 ab a1 bd 15 6d c0 3c b4 75 81 3c de ab 8f bc
       -0.078940995 0.023489514 0.015803196 -0.017538007
0000b0 2b bb c9 bd 55 ac 02 be 57 23 f9 3d f0 e1 94 3c
       -0.098501526 -0.12761052 0.12164944 0.018174142
0000c0 cb 82 ff bd ab 87 9a bd 63 40 9f 3d 70 77 0c be
       -0.12476119 -0.07545408 0.07775953 -0.13717437
0000d0 3c c6 c6 bd 13 7c 61 3d ba eb 15 3d 03 67 ce 3d
       -0.09705779 0.055049967 0.03660176 0.10078242
0000e0 6b 10 17 be d8 61 e3 3c b1 5c ff bb dd 70 03 3c
       -0.14752357 0.027756616 -0.007793032 0.008022514
0000f0 11 bd 4c bd 6a 39 86 bd c4 af 78 3d b6 8f 99 bd
       -0.049984995 -0.065539196 0.0607145 -0.07498114
000100 d4 23 94 3d 01 32 30 3e 37 15 0e 3e 50 1f b3 3d
       0.07233396 0.17206575 0.1387528 0.08746207
000110 9e 76 79 3c db cd 0e bd 42 67 e7 bd 6f 58 61 bd
       0.015226034 -0.034864288 -0.11298992 -0.055015977
000120 96 c4 03 3e c2 02 12 bd 3d 74 5a bd c4 1e 41 3c
       0.1286796 -0.03564716 -0.05333351 0.01178712
000130 b3 a7 9e 3c d1 a3 a3 3c 07 ab 39 bc bb 39 9c b9
       0.019367075 0.019975575 -0.01133228 -0.0002979765
000140 ce f9 da 3b 47 b4 1c 3d 45 0f ed bd b4 6b 10 3c
       0.006682611 0.038257863 -0.11575178 0.008814741
000150 ad ab 86 bd 70 8a 29 bd 06 44 56 3d 07 b3 00 bd
       -0.06575713 -0.04139179 0.052310966 -0.031420734
000160 b3 53 c4 3d 98 03 c6 bd 60 05 94 3d 4b e4 fc bd
       0.09586277 -0.09668654 0.07227588 -0.12348231
000170 4e 1a bd bb 3d e2 13 bd dc 06 a6 3c 02 90 54 bd
       -0.005770958 -0.03610443 0.020266943 -0.05189515
000180 c9 13 09 3c 70 b1 32 bb 2d 53 4e bd ad 8a b8 3d
       0.008366534 -0.0027266406 -0.05037229 0.09010825
000190 19 38 ae 3c 66 5a 23 3e 35 f1 51 bd f7 76 a1 bd
       0.021266984 0.15952453 -0.051255424 -0.07884019
0001a0 83 28 d9 bd 26 49 e1 3c e4 ad 84 bd 3b f9 7b bd
       -0.1060343 0.0275007 -0.064784795 -0.06151698
0001b0 e1 8f 9f bd c8 c4 ba bc e9 47 fa bc 6e 96 e5 bc
       -0.077911146 -0.02279891 -0.030551868 -0.028025832
0001c0 4a 9c 94 bd 32 92 11 3e 3b 94 9f 3d 27 1e fe bd
       -0.07256372 0.14215925 0.077919446 -0.12408095
0001d0 35 f6 32 be 09 cf b8 bd 22 6d 8e bd ea c8 31 3c
       -0.17476733 -0.09023864 -0.06954409 0.010851124
0001e0 a4 58 a0 bd 24 f0 f2 bb 5d ca 10 be 39 20 07 3d
       -0.07829407 -0.007413881 -0.14139695 0.032989714
0001f0 80 e9 f1 b9 da 10 25 3c e7 a4 93 bd 51 c7 68 bb
       -0.00046141073 0.0100748185 -0.07209187 -0.0035519192
000200 e1 b4 3e 3c 7e 5a 22 3d a3 61 79 bd c8 88 79 3b
       0.011639805 0.03963708 -0.06088413 0.0038075913
000210 9d 45 7e 3d f1 82 a4 bc a8 c9 64 3b a4 0c cf bc
       0.062078107 -0.020081969 0.0034910236 -0.025274582
000220 43 47 f2 3d c7 97 0d bd 25 ff ce 3b d3 91 65 3d
       0.11829998 -0.034568574 0.0063170367 0.056047272
000230 21 56 c7 3d df ef da bd da f5 e2 bc e4 6b 87 bd
       0.09733225 -0.10690283 -0.027705122 -0.066123754
000240 43 52 57 3d e9 3b 74 3d 69 66 51 3b 21 7d b5 3d
       0.052568685 0.059627447 0.003195191 0.08861757
000250 5a 0e 17 bb fc 69 8c bc d9 40 c4 bd de b0 26 bd
       -0.0023049326 -0.017140381 -0.09582681 -0.040696017
000260 f3 39 f0 3d 74 4e 6f 3d 30 8f 6b 3c a9 39 03 bd
       0.11729803 0.058424428 0.0143774 -0.03203741
000270 d8 ed 55 3d ce 3e c0 bd 55 04 0f bd d8 c2 e6 3d
       0.05222878 -0.09386979 -0.03491624 0.11267632
000280 d9 4a 8b 3c 90 cb 35 3d fb e9 a2 bc 1c 09 02 3d
       0.017003464 0.044383585 -0.019886961 0.03174697
000290 5a 4d ff 3d 2f 5a cd bb c4 03 92 3d 32 be dc 3d
       0.124659255 -0.0062668542 0.071296245 0.107784644
0002a0 72 89 55 3d 89 f9 85 bd be a9 d3 3c d8 4e 12 bc
       0.05213303 -0.06541736 0.025837775 -0.008929931
0002b0 a7 59 f7 3d 8f 1d ce 3d d6 a9 85 bd c1 8f ae bd
       0.12077647 0.100642316 -0.06526534 -0.08523513
0002c0 79 55 db bd 1b 48 b0 bd 48 3e 81 3c f4 19 3c 3c
       -0.10709662 -0.08607503 0.015776768 0.011480797
0002d0 ce 15 16 be 4e ec c8 bc 71 bf 8b bc da 55 1c bd
       -0.14656755 -0.024526741 -0.01705906 -0.038167812
0002e0 c7 1d 95 bd 25 1f c4 bd b6 19 f3 bd e6 67 bd 3d
       -0.0728107 -0.09576253 -0.11870138 0.09248333
0002f0 75 58 3c bd 56 16 91 bd 1b 99 d7 bc b7 1d f5 3b
       -0.045982797 -0.07084338 -0.026318124 0.007480349
000300 13 4f ab 3d 40 39 7c 3d d6 bb 3b 3e ac 6e 04 bd
       0.083646916 0.061578035 0.18333372 -0.032332107
000310 28 60 8a 3b 7f a3 a5 bd c4 6c 88 bd d4 a4 f5 3d
       0.0042228885 -0.08087825 -0.066613704 0.11994329
000320 4f 25 56 bc a1 87 21 3e 25 28 61 bd 9c 22 64 bd
       -0.0130704185 0.15774395 -0.054969925 -0.05569707
000330 86 39 04 be ad cc 05 bc 4a 57 1a 3d 34 af de bd
       -0.12912568 -0.008166474 0.0376809 -0.10873261
000340 f8 09 94 3d 38 75 b7 3d 9f 4b f8 bd 17 5b b9 bc
       0.07228464 0.089579046 -0.121237986 -0.022626443
000350 09 8a fa bc e2 49 33 bd e3 60 87 bb ae fe ee 3d
       -0.030583398 -0.043771632 -0.004131423 0.1166967
000360 04 7c 11 bd 91 7f 21 be cf c3 e1 3a 47 97 db bd
       -0.03551866 -0.15771319 0.0017224493 -0.10722213
000370 0f 9a a3 3d 46 b3 c8 bd 9d e7 0a 3e 43 d6 12 be
       0.07988369 -0.09799819 0.13564916 -0.14339547
000380 e8 50 b9 3b 2f 5c 37 3d 86 6b 56 3d b4 53 17 3d
       0.0056553967 0.044765648 0.052348636 0.03694506
000390 eb 88 fa 3d 8f 18 d2 3d ac b0 85 bc 97 23 78 3d
       0.12233146 0.102585904 -0.016319595 0.060580816
0003a0 f1 7b 8c bd 6a 00 0f bd 96 b5 8e 3c 00 e0 eb 3c
       -0.068595774 -0.034912504 0.017420571 0.028793335
0003b0 c5 43 d4 bd cb 40 ac bd 0b 6e 96 bd d5 34 87 3d
       -0.103644885 -0.08410796 -0.07345208 0.06601874
0003c0 ca e9 dc 3c b2 ed 1a 3e db 59 a4 bc 9f dc 9a bd
       0.026966948 0.15129736 -0.020062378 -0.075616114
0003d0 2c fe 83 3c f2 06 f5 3d de 02 95 3d ee aa 84 bd
       0.01611241 0.11964215 0.072759375 -0.06477915
0003e0 15 89 29 3d 92 c4 c8 3d 70 43 80 bd 9d 8c a7 3d
       0.041390497 0.09803118 -0.06262863 0.08181117
0003f0 8c 0c cd 3d 9b b7 7f bb 2f b9 0c be 4e b3 db 3d
       0.10012159 -0.003901935 -0.13742517 0.10727559

lstm.weight_hh_l1 f4 [256, 64]
000000 96 2e a5 bd cd d1 ef bd 8d 5e 54 bc 59 4f 47 3d
       -0.08065526 -0.11709938 -0.012961996 0.048659656
000010 4e 05 c2 3d 4c 95 56 bc 6e 38 d2 3d d3 15 60 3d
       0.09473668 -0.013097119 0.10264669 0.054708313
000020 9b 6a 31 bd 98 88 85 bd 4e ff be bd 9d 96 9c 3c
       -0.043314558 -0.06520194 -0.09326039 0.019114787
000030 bb 9d c0 3d 3e bd d5 3b ae 6e 9a bd 33 87 05 be
       0.09405085 0.0065228036 -0.07540642 -0.13039856
000040 33 a5 9a 3d e6 ac fc bd 81 80 ea bd 1b 44 62 bc
       0.075510405 -0.12337665 -0.114502914 -0.013810183
000050 e9 d7 df bd 28 f1 61 bd bf c0 69 bd 91 72 a6 bd
       -0.109298535 -0.055161625 -0.057068583 -0.081273206
000060 27 cb a6 3d 4f a2 15 bd 7e 48 5b bc a9 ab b0 3d
       0.08144217 -0.036531743 -0.013383983 0.086264916
000070 e2 14 ee bd ef 99 27 bd e6 ba a9 3d 35 1b c9 ba
       -0.11625077 -0.040918287 0.08287601 -0.0015343191
000080 03 ff bd 3d be 92 5e 3c 8b 27 ea 3c 37 76 0e 3d
       0.09277155 0.013584791 0.028583309 0.034780707
000090 fc f1 bf bd 40 61 09 3e c4 77 61 3d 5b 1e 9c bd
       -0.09372327 0.13416004 0.055045858 -0.07622977
0000a0 2b 56 ca 3d ae fc 08 3e ef f3 36 bd a7 64 ce 3d
       0.098797165 0.1337764 -0.044666227 0.10077792
0000b0 1f 57 7c bd c3 4f c6 3d c4 26 ab 3d c9 ad db 3c
       -0.061606523 0.09683182 0.08357003 0.026816266
0000c0 ab 23 f2 3d 73 fe aa 3d 6c 09 57 bd 08 d6 fa 3d
       0.118232094 0.083493136 -0.05249922 0.122478545
0000d0 be 4b 80 3c 5a 95 95 bb e6 66 fd bd bd 5f 00 be
       0.015661117 -0.0045649232 -0.12373142 -0.12536521
0000e0 14 88 91 3d ef dc 3c 3d 79 3f 30 bd 26 33 32 3d
       0.07106033 0.046109136 -0.043029282 0.04350581
0000f0 26 e9 26 3d a1 86 a2 bd bd e3 7e bd b3 66 ff 3d
       0.04074969 -0.07935835 -0.062228907 0.1247076
000100 e3 81 7a bd 18 83 07 38 ef 2a 44 bc 88 1d 09 3e
       -0.061159026 3.23086e-05 -0.011973127 0.13390172
000110 45 61 ac bd 1f 20 00 be a3 f2 0e 3c 5d 0c ca bd
       -0.0841699 -0.12512253 0.008724841 -0.09865639
000120 a5 51 1b bd 9d ae 9d 3d d8 e0 7c bd ff f0 04 3e
       -0.03791966 0.076993205 -0.061737865 0.12982558
000130 85 7f 47 3d 69 10 cc bd d9 0e a5 3d 45 75 33 bd
       0.048705596 -0.099640675 0.080594726 -0.04381301
000140 a9 d7 db bd d2 e0 7a bc 70 37 85 3d 36 e5 7a bd
       -0.10734493 -0.01531239 0.065047145 -0.06125375
000150 2f 95 a7 3c b0 8c 16 bd 10 27 77 3d 81 e6 8c bc
       0.020456878 -0.036755264 0.060339987 -0.017199757
000160 d8 8b aa bd 7f e7 e5 3d 60 36 a7 bd 29 d7 e3 3c
       -0.08327454 0.11225795 -0.08164668 0.027812557
000170 c9 1b 8b bc ba 20 f8 bd 8c de 51 3d 9a 76 84 3d
       -0.016981022 -0.12115617 0.051237628 0.06467934
000180 95 be 1a 3d 44 ed 7f bc a6 ee 52 bd 8d 08 67 3c
       0.03777941 -0.015620533 -0.051497124 0.01410116
000190 b5 ff 87 3c e3 99 07 3e f8 d9 44 bd 5c d3 be 3d
       0.016601423 0.13242297 -0.048059434 0.09317657
0001a0 13 10 b3 bd 0b c1 8e 3d f6 a3 76 3d b0 b2 17 3e
       -0.087433 0.06970414 0.06021496 0.14814258
0001b0 86 9d 3c 3c 93 56 7c bc fb fe a7 bd db cd e0 3d
       0.011512166 -0.0154015 -0.082029305 0.10976764
0001c0 8c 40 e6 bc 40 06 77 bd 04 3a d6 3d b0 ae 83 3d
       -0.02810695 -0.060308695 0.10460284 0.06429803
0001d0 5f 4b c3 bd 60 4a 8e 3d 76 6e bb bd cc 14 e5 bd
       -0.0953586 0.0694778 -0.09151928 -0.11185607
0001e0 ed 68 83 bc f1 c8 93 bd 90 c3 d4 bd 3f 5f b1 bd
       -0.016041243 -0.07216061 -0.10388863 -0.08660745
0001f0 43 72 43 bd fe f3 17 3e 23 f6 73 bd e9 3b b8 3c
       -0.04771639 0.1483917 -0.059560906 0.022489505
000200 43 d9 91 bc 9b 60 bf 3c da 02 0d be d2 ec 36 3d
       -0.017803794 0.023361495 -0.13770619 0.044659443
000210 ee 57 9f bd 2f a8 86 bd 31 5c e4 3d b3 83 a6 3d
       -0.07780443 -0.06575047 0.111503966 0.081305884
000220 f3 2c 83 bd dc 21 97 b9 11 2c 4c bc 9d e8 63 bc
       -0.06405058 -0.00028826192 -0.012461678 -0.01391044
000230 51 f9 65 bd 20 ef b6 bd a4 24 ee 3d 0e 95 c8 3d
       -0.05614597 -0.08932328 0.116280824 0.09794055
000240 d3 d9 9d 3d b8 36 d4 bd 28 ee 50 3d cd 5c 82 3d
       0.07707562 -0.10361999 0.051008373 0.063653566
000250 17 80 34 3d b3 70 33 bd bf 68 98 3d da cd 0b bd
       0.04406747 -0.04380865 0.07441854 -0.034131862
000260 7a f7 c9 3d 9f a7 f0 bd 5a 6d 9c 3c ac a2 d4 3d
       0.098616555 -0.11750721 0.019095112 0.1038259
000270 5e 5f 91 bd a3 22 d0 bd 79 0c f6 3d 45 30 aa bd
       -0.07098268 -0.101628564 0.12014098 -0.08309988
000280 85 32 a8 3d 4f 6c 3e 3d 72 1d ad 3d 8e 39 4b 3d
       0.08212761 0.04649001 0.08452882 0.049615435
000290 47 c1 e3 3d 90 16 1f bd 21 45 b8 bc 86 9d 94 3d
       0.11120849 -0.038839877 -0.0224939 0.07256608
0002a0 68 b4 16 3d 7b 13 38 3d b7 42 df bd 98 26 bb bd
       0.036793143 0.044940453 -0.10901397 -0.091382205
0002b0 de 78 01 3e 32 e8 c5 3d 2b e6 f5 3c ee e3 6e 3d
       0.12643763 0.09663428 0.03001698 0.05832284
0002c0 03 a3 93 bd f9 3d 66 bc 93 b6 95 bc 7e 6c 80 bd
       -0.072088264 -0.014052861 -0.018275535 -0.06270693
0002d0 70 2f 57 bd bb cd 7a bd ca e2 20 bd 18 e9 73 3c
       -0.052535474 -0.061231356 -0.039278783 0.014887117
0002e0 9a 0e f6 3c ad 85 4e bd 57 a4 28 bd 28 41 02 3e
       0.03003626 -0.050420452 -0.04117235 0.12720168
0002f0 5e db ce bd 58 8b d2 bc 41 18 83 bd 39 3e 13 3d
       -0.10100435 -0.02570121 -0.064011104 0.035948012
000300 54 19 b8 bd 0d c0 8b 3d ef 3c 98 bd 99 9d c6 bc
       -0.08989206 0.0682374 -0.07433497 -0.02424507
000310 a7 bc 11 bd c9 28 b8 bd 8a 73 9e 3d 07 ed d3 b9
       -0.035580304 -0.08992154 0.07736881 -0.00040421655
000320 e2 12 6f bc 20 c6 fb 3d 6f b1 33 bc f5 b2 30 bd
       -0.014591904 0.12293649 -0.010967596 -0.043139417
000330 05 5e 9d 3d 0f fd 08 be a1 be 01 3e 4a 24 84 3d
       0.076839484 -0.13377784 0.12670375 0.06452234
000340 cd c3 e5 bc fd 80 2c bc d0 cb 5a bd e8 2e 1a be
       -0.028047467 -0.0105288 -0.053417027 -0.15056956
000350 2d 4a f6 3b c1 26 a3 bd b8 e1 1d 3c 4d 9d 9d b8
       0.0075161667 -0.07966376 0.009636335 -7.515643e-05
000360 78 6b ad 3d c2 9e de 3c 5a 37 3c bd 5e 2c 3a 3b
       0.08467764 0.027175311 -0.045951225 0.0028407793
000370 a5 cb b6 3c 4e 1d 8a 3d d5 a5 91 bd eb cc cf bd
       0.022313902 0.06743871 -0.07111708 -0.10146507
000380 b2 0b a7 bd 40 7a 5f 3d 59 da a7 bd b2 9c 1a 3d
       -0.081565276 0.054559946 -0.081959434 0.037747093
000390 5a 88 a6 3d bd 35 eb bc fe c6 f7 bc 9d 7e 87 3d
       0.08131476 -0.028712148 -0.030246254 0.066159464
0003a0 1d a5 01 3e 8d d6 35 3d ad 27 88 3d d9 e5 3d 3d
       0.12660642 0.044394065 0.066481926 0.046361778
0003b0 96 38 5c bc 3b 95 e1 bd d6 1f be 3d af 80 aa bd
       -0.0134412255 -0.110147916 0.09283416 -0.08325326
0003c0 46 ec 24 bd 5a cd 7c bc 5c c3 0c 3d b7 3c 00 be
       -0.04026439 -0.015429819 0.034365997 -0.12523161
0003d0 c9 85 01 bb 8d c9 a4 3d 65 c0 dc bd c4 8e 32 bd
       -0.001976358 0.08046255 -0.10778884 -0.043593183
0003e0 45 e5 29 3d 67 6b 19 3d ff 57 c1 bd e9 b2 14 3d
       0.041478414 0.037455942 -0.09440612 0.036303435
0003f0 62 82 e4 bd 67 04 f7 bb d0 4a cf 3c a4 01 dd bd
       -0.11157681 -0.0075383666 0.025304228 -0.107913285

lstm.bias_ih_l1 f4 [256]
000000 5a 8b ca 3d 29 51 37 bc b3 5c 04 bc 69 f0 f8 3d
       0.098898605 -0.011188784 -0.008078742 0.121552296
000010 16 5d 03 be d3 bc 60 bd 4e cb 9b bd b2 be 0b bd
       -0.12828478 -0.054867577 -0.07607137 -0.034117408
000020 cc d4 b1 3d 3c a7 96 3d d1 ae 1a bd cb 58 dc 3c
       0.08683166 0.07356116 -0.037764374 0.026897809
000030 2b e0 85 3c 1e ac 8d bc b2 f0 f0 3d 1b 47 7c 3d
       0.016342243 -0.017293986 0.11764659 0.06159125
000040 9b f8 d2 3c 01 02 7e bd 9f 88 53 bc 46 c2 6d 3c
       0.02575331 -0.06201363 -0.012910991 0.01451165
000050 a2 46 76 3d 87 59 ca bd 72 a6 99 3d ae 3e 05 be
       0.060125954 -0.09880357 0.0750245 -0.13012192
000060 9a 39 dd bd ee 14 48 3c 13 22 98 bd 31 9a db bd
       -0.10802002 0.012212021 -0.07428374 -0.10722769
000070 9d 54 14 bc 12 06 8f 3d f8 37 7c bd 6d b9 5b 3d
       -0.0090533765 0.0698358 -0.061576813 0.053643633
000080 12 bd 07 be 4f c7 92 bd 43 27 1d 3c 66 34 33 bb
       -0.13255718 -0.07166921 0.00959188 -0.0027344464
000090 56 1c af 3d 2e 11 53 3d 55 fc 02 be fe a1 c4 bc
       0.085503265 0.051530056 -0.1279157 -0.024003025
0000a0 0d 92 b7 bd 7a a4 b3 3d 44 c2 05 be c4 cb 6f 3d
       -0.08963404 0.08771606 -0.13062388 0.058543935
0000b0 22 e9 28 bc 5a 4a 0f bd 59 f6 80 bd 6d dc 82 3c
       -0.010309489 -0.034983017 -0.06296987 0.015974248
0000c0 a1 91 04 3e 0c e6 c4 3d f3 67 54 3d 62 55 2e 3d
       0.12946178 0.096141905 0.051856946 0.042561896
0000d0 2d f2 21 3c 3d 34 3a bd a3 11 a8 bd da 94 35 3d
       0.009884399 -0.045459975 -0.08206489 0.04433141
0000e0 0d 3b 28 3d 63 27 36 bd 59 6d 69 3c fb 39 4b bd
       0.04107194 -0.044471156 0.014247262 -0.04961584
0000f0 eb 8a 1c bd 8d 02 b7 3d 8e d4 94 3d f9 e9 14 3d
       -0.03821842 0.089360334 0.07267104 0.036355946
000100 7e a3 8e bd e9 75 e6 bd 67 21 bb 3d 32 42 d5 bc
       -0.069647774 -0.11252958 0.0913723 -0.026032541
000110 2e c8 90 3d cf 4f 77 3d 8d 51 d9 3d 4e db ad bd
       0.07069431 0.060378846 0.10611258 -0.08489095
000120 9e 9e cc 3d 20 fa a2 bd 6d 7b fa 3c e3 d0 d5 bc
       0.09991191 -0.07957864 0.030576432 -0.026100582
000130 bf 2c e0 3c f3 87 42 bc e7 d0 d6 bc 09 5e b9 bd
       0.027365087 -0.011873233 -0.02622266 -0.09051139
000140 ee 5e e7 3a f8 73 0d be b7 b5 99 3c a2 ff 42 3e
       0.0017652193 -0.1381377 0.018763406 0.19042829
000150 6e b8 89 bd a3 68 0e 3d 00 af c2 bd 16 0c a1 bd
       -0.0672463 0.034767758 -0.09506035 -0.07863633
000160 30 35 30 bd d8 7b 87 3d 0f cc 7f 3d 16 29 dc 3c
       -0.043019474 0.06615418 0.062450465 0.02687506
000170 ea 75 98 bd c3 2b af 3c 20 b3 a9 3c 75 b9 b6 3d
       -0.07444365 0.021383172 0.020715296 0.08922092
000180 e0 9e db bd 74 b8 f2 3c 64 35 47 3d e1 0a 0d 3e
       -0.107236624 0.02962897 0.0486349 0.13773681
000190 f3 39 6f 3b e2 d4 dc 3b 0e 9e ff bd e3 60 fa 3c
       0.0036503046 0.006739245 -0.124813184 0.030563777
0001a0 e8 dd d3 bd b6 d7 05 bd 2f f3 43 bb e2 fd c9 bd
       -0.1034506 -0.03267642 -0.0029899587 -0.098628774
0001b0 23 16 73 3d 4a 02 76 3c 4e db 29 3d b9 75 a2 bd
       0.059347283 0.015015194 0.04146891 -0.0793261
0001c0 64 d5 2b 3e d7 d1 fd 3d de 72 0b bd 9c 98 93 bd
       0.16780621 0.123935394 -0.034045093 -0.07206842
0001d0 7b 00 85 3c 16 c4 d9 bc 2c da 87 bc 46 5f d9 bd
       0.01623558 -0.026582759 -0.016583525 -0.10613875
0001e0 48 f1 10 3b 50 d5 ef 3d ef 01 02 3d 27 c4 6f bd
       0.002211647 0.11710608 0.031740125 -0.058536675
0001f0 bd c6 ea bd 99 db 56 3c eb 95 c2 bd 93 fe 42 bd
       -0.114636876 0.01311388 -0.09501251 -0.047606062
000200 c0 e2 f8 bd 85 83 5a 3c 4a 91 b2 3d e5 5e ad bc
       -0.12152624 0.013337021 0.08719118 -0.021163413
000210 e5 13 26 3d 1f b7 ef 3c c8 b6 c1 bd e2 c2 1a 3d
       0.040546317 0.029262124 -0.09458691 0.03778351
000220 43 e3 08 3e fc c6 68 3d 8d ce 2d bd 0b e0 a9 bd
       0.13367943 0.05683039 -0.04243331 -0.08294686
000230 ba f9 88 bd 90 56 16 3b 66 55 92 bd 8c 39 cf bd
       -0.066882566 0.002293978 -0.07145195 -0.10118398
000240 ba bd 77 3d 6b f1 0a bd 61 aa 8a 3c 19 b1 6f bd
       0.06048367 -0.03392164 0.016926946 -0.058518503
000250 11 d2 25 bc 15 b3 d1 bd 32 ad 70 3c 57 5c 80 bd
       -0.0101208845 -0.10239235 0.0146897305 -0.062676124
000260 90 33 a2 3c b7 d8 35 3d 8a 90 88 b9 d8 8c 2e bc
       0.019799978 0.04439613 -0.0002604763 -0.010653697
000270 26 4c 8b bd 93 53 87 3d bf 3b 5d bd 69 a2 61 bd
       -0.068016335 0.066077374 -0.054012056 -0.055086527
000280 97 b8 c8 bd 42 df fb bd d5 24 4d 3d 3d bc e8 bd
       -0.09800833 -0.122984424 0.050083954 -0.113640286
000290 48 b6 a2 bb 3e 92 af bd e9 04 a4 bc e2 a0 e5 bd
       -0.0049655773 -0.08572815 -0.020021873 -0.112123266
0002a0 2b e2 4c 3d 9d 2f d0 bc 02 e5 d8 3b 6a 7e 9a bd
       0.050020378 -0.025413329 0.0066190967 -0.07543643
0002b0 dc 3f 40 bd 28 a0 97 3c 24 fa 37 3d e7 7b d7 bb
       -0.0469359 0.018508986 0.044916287 -0.0065760496
0002c0 55 ef 21 be 15 ce 74 bd 72 f4 23 bb 08 2f a7 3d
       -0.15813954 -0.059766848 -0.0025017527 0.081632674
0002d0 e0 80 1d bc 40 73 78 bd f8 ec 0e 3d c0 31 7f ba
       -0.009613246 -0.060656786 0.03489396 -0.00097348914
0002e0 e4 bd f1 bc e7 a8 b3 3d 64 b5 81 3c 12 7f 9e bd
       -0.029509492 0.0877245 0.015833564 -0.077390805
0002f0 08 a3 2a bd 93 0a 5c bd dc 62 cd 3c 1c 99 ea 3d
       -0.041659385 -0.05372102 0.025071554 0.114549845
000300 d8 ca 23 3d 9f 42 50 bc 1d ba 87 3d 5b 0a cf bc
       0.03998837 -0.012711196 0.06627295 -0.025273493
000310 3b f1 f5 bd a2 39 05 be e9 ea ab 3d bd f2 89 3b
       -0.12008902 -0.13010266 0.08394415 0.004209845
000320 c6 25 bf 3d 97 26 b1 3c 5d 2f aa 3d 34 d6 10 3d
       0.093333766 0.021624846 0.08309815 0.03536053
000330 03 aa a0 3d d2 0b a6 bd c7 ad b1 bd 14 78 79 bd
       0.07844927 -0.08107723 -0.086757235 -0.06090553
000340 ca 5e 08 3d 8e 56 d1 bd a6 32 6f 3d 59 19 c9 3c
       0.033293523 -0.10221587 0.05839791 0.02454822
000350 72 77 1b bd e4 dc c5 3d e5 65 3f bd b1 1f 4b bd
       -0.03795571 0.09661272 -0.046728034 -0.04959077
000360 aa 69 82 bd 6d cc bc bd 96 42 96 3d 3e 3b 10 3c
       -0.0636781 -0.092186786 0.07336919 0.008803187
000370 06 05 e5 bd 25 fc 39 3c ec dc 88 bb 05 7f ff 3d
       -0.11182599 0.01135162 -0.0041767266 0.12475399
000380 9c b0 b4 3c 14 2b b5 bc 9e 8a 40 bc 74 f8 00 3e
       0.02205687 -0.022115268 -0.011751799 0.12594777
000390 fd d9 a6 bd 69 43 f6 bd 6e e4 83 bd ef 27 d0 bd
       -0.08147047 -0.12024576 -0.06440054 -0.10163867
0003a0 da ea 36 3d 16 d3 d4 bc 5b 4c 58 bd b5 b3 83 bd
       0.044657566 -0.02597956 -0.052807193 -0.06430761
0003b0 2a 32 ef bd c7 6b 99 bd a4 f7 f1 ba f9 0e 60 3d
       -0.1167949 -0.0749126 -0.0018460643 0.05470178
0003c0 90 d7 51 bd ab bc e4 3d 2e 69 bf 3d 45 0c bc bc
       -0.051230967 0.11168798 0.09346233 -0.02295507
0003d0 a1 44 26 bd 29 a3 55 3d dc 5e 55 bd 05 95 7a 3c
       -0.040592793 0.052157555 -0.052092418 0.015294318
0003e0 11 4f 9e 3d 59 c5 c1 bd 16 7a df bd b0 c8 d2 bd
       0.077299245 -0.09461469 -0.10911958 -0.10292184
0003f0 d1 3e 8d 3c 22 71 5f 3c 29 fe 1d 3c 6c e0 6c 3d
       0.017241867 0.013637813 0.009643116 0.057831213
