output/LSTM2CNN/LSTM2CNN_adam_32_100/model/LSTM2CNN_epoch_83.pth (torch, 350126 bytes, 16 tensors)

lstm.weight_ih_l0 f4 [256, 11]
00000000: 5d57 0ebe aa40 9c3d 8f7b 62bd 68f5 703d
00000010: d843 2f3e 2d9f 58be 3eba c83a 755d 3d3c
00000020: bdd7 0e3e 6170 7c3d 8310 99b6 0b69 43bc
00000030: a3a8 26be 048f e13c 6fb0 24bc 3c97 51be
00000040: fc65 a9bd 6182 11bd ba05 12be d2a8 27be
00000050: ad1e db3d e6f1 853d 5ed9 3f3e 2802 a83e
00000060: 33ec 213d 2cee 3abd 3ec4 12be 5c5a aa3e
00000070: 2629 ff3c d833 cfbd af76 7cbe 259d 9ebe
00000080: 6a84 76bc 7bd4 30bc fa7e ddbc 9122 6a3d
00000090: a64a df3d 217a e2bd 7602 a83d c5b3 3d3e
000000a0: 2e91 0b3d f985 a4bb b908 f3bd 41b0 6f3d
000000b0: 9195 c5bc cc55 423d a486 b13c 7a70 84bd
000000c0: ab5a 44bd 330b d13d 2bad 8a3d 65e1 b2bc
000000d0: a1fb 363d 2156 1bbd e769 323b 5d7a ba3d
000000e0: a707 eb3c 695e a2bd 0615 323d f407 e33d
000000f0: a099 f5bc 9ba0 aebc 4cec 1f3e bf40 063e
00000100: 7f99 ec3d 0688 ce3d d2c9 fb3d c0f1 b5bc
00000110: 47a6 fbbc ee39 dd3d 8f4e 31be 0522 bb3d
00000120: 89aa 2d3e c9d9 f5bd 960b b63b 4488 2cbd
00000130: aee1 4b3e 8120 17be 3d3a 9abe d414 39be
00000140: ce9f 57bc ed3e 4dbd 1e58 92be 1ef7 8bbb
00000150: 81a5 6c3d 4e17 aebd a02d 433e f9e9 63be
00000160: e80f 85bd 0dbe 1bbe 2010 3cbc 70f2 7bbd
00000170: 3368 ee3c 744d 05be e8f6 2abe c7d3 ef3c
00000180: fc95 48bd db33 413e 143c f33d 30f2 bfbc
00000190: 5c3c ca3c 5889 54be 9f56 70be ddb2 1cbd
000001a0: 8f23 40bd 1a22 9fbc a787 073e f9be 89bd
000001b0: 6640 d03d 61b3 e23d 8ce7 d23d 6ada 143d
000001c0: 86e1 073e 810d 3a3d 175e 283e eabb 803d
000001d0: 49ff 6bbe ed30 8b3d e107 203e 01bd a63b
000001e0: 4688 e23d 4e72 6b3d 4282 ad3e 5dcf c83b
000001f0: b1c5 383d 4d97 d63d 6dbc 2e3d e0a9 963d
00000200: 040a 01be 49fe 43bd 381d 7bbe 8ba9 933c
00000210: 905d 183e f8b4 153e 8392 673d 9d8e ddbd
00000220: 29f4 afbd 2da0 8e3e 8205 1b3e c046 32be
00000230: 4f81 71be 0f97 91be 25e0 c33d af55 2bbd
00000240: 8a16 df3d 1836 6e3d 031d a73d a81d 62bc
00000250: 68e3 e03c a530 19bd 23be c5bd 9a3d c7bd
00000260: 8e66 5a3b f457 403e 6acd 043e bc15 7fbe
00000270: 5f4c a3bd 4e85 993d b91b 473e d544 4dbe
00000280: c19a 6fbe e2d2 583c c22e 6b3e 65cc 4c3e
00000290: 5a32 0d3e f22a a0bd a53b 073e 2460 01be
000002a0: 005c 0ebe 8b40 a0bd 2889 30bd dd29 603d
000002b0: ae0d eabd 6622 04be a9f2 fdbc 15f1 82bd
000002c0: a81b d93d c79a 993d 4671 473e bfa7 e43d
000002d0: e006 9d3e 660f 0abd f144 71be 4001 ad3e
000002e0: 3fb5 433e d351 ea3d f304 133e 9fb2 74bd
000002f0: ed9e 23be 2350 00be e075 5ebd ff51 563d
00000300: d118 23bd db65 c2bd 472f 8b3d 892b fd3d
00000310: 0831 0e3d 8271 fbbd 06cc abbd 224d 143e
00000320: b07d a2bd d644 d2be 57f8 33bc ab18 313d
00000330: 52c0 8abd 74f9 0b3d 8443 19be 00d0 c73c
00000340: e040 393e 2f79 2dbe 2045 fa3c cba9 7fbe
00000350: bbfe fbbd eb08 cf3c 66d1 4c3d 41ed a83c
00000360: 303c 34be 4032 3abe bf4c 34bc 413b 32be
00000370: cdfe 07be 2829 b63d 6a6b 25bc 979b fdbd
00000380: 8656 adbc 2e76 f7bc 78b2 80bd 98a4 04be
00000390: f493 023d af5f 26be 9688 3ebe 2b4c 47be
000003a0: 59ab c53d f473 1abe 7202 983c f926 0abf
000003b0: c6f5 95bc 7e9f c63e 3caa f4be e9f2 dcbe
000003c0: 7e4e e4bd 7b47 30bf 6de7 33be 1e61 ad3e
000003d0: 10e7 9bbc 52db 2dbe 8d3c 9c3d f378 a43d
000003e0: 6da5 6dbc ca68 6f3d 6493 76bd e238 16be
000003f0: 37b2 fbbc 660a 1dbe 7ea5 203e 2242 b73d
-0.13900514 0.07629521 -0.055293616 0.058827788 0.17115724 -0.2115447 0.0015314294 0.011557926
0.13949485 0.06163061 -4.5616775e-06 -0.0119269 -0.16275267 0.027534015 -0.010051831 -0.20467848
-0.08271405 -0.03552473 -0.14259997 -0.16372994 0.1069921 0.06540279 0.18735263 0.32814145
0.039531898 -0.045637295 -0.14332673 0.33272064 0.03114755 -0.1011731 -0.24654649 -0.30979267
-0.015046218 -0.010792847 -0.027038086 0.05716187 0.1090291 -0.110584505 0.082035944 0.18525608
0.034074 -0.0050208536 -0.11866898 0.0585177 -0.02411917 0.047445104 0.021670647 -0.06466766
-0.04793803 0.10207214 0.067713104 -0.021835992 0.044673566 -0.037923936 0.0027223767 0.0910537
0.028690172 -0.079281636 0.04347708 0.11085501 -0.02998048 -0.021316817 0.15617484 0.13110636
0.115527146 0.10084538 0.122943535 -0.022210002 -0.030718936 0.10802065 -0.17315124 0.09137348
0.16959585 -0.1200443 0.0055555804 -0.04212214 0.19910309 -0.14758493 -0.30122557 -0.18074352
-0.013160659 -0.05010884 -0.28582853 -0.004271402 0.057775024 -0.08500539 0.19060373 -0.22257222
-0.064971745 -0.15209217 -0.011478454 -0.061510503 0.02910242 -0.13017827 -0.1669575 0.029275788
-0.04897116 0.18867438 0.11876693 -0.023430914 0.024686985 -0.20755517 -0.23470543 -0.038256515
-0.04690891 -0.01942544 0.13235341 -0.06725878 0.10168533 0.1106937 0.1029807 0.03634111
0.13269624 0.045423035 0.16442142 0.06285842 -0.23046602 0.06796441 0.15628006 0.005088449
0.11061148 0.057482056 0.3388844 0.0061282353 0.04511041 0.10478077 0.042660166 0.0735662
-0.12601477 -0.047849927 -0.24522865 0.01802518 0.14879441 0.14619815 0.05653621 -0.10818217
-0.08591492 0.2785658 0.1513882 -0.17409801 -0.23584484 -0.2843556 0.095642366 -0.04182976
0.10892971 0.058157057 0.081598304 -0.013801016 0.027452186 -0.037399907 -0.09655406 -0.097285464
0.0033325288 0.18783551 0.12968984 -0.24910635 -0.07973551 0.07496129 0.19444169 -0.20045789
-0.23398878 0.013233872 0.22967055 0.19999845 0.13788739 -0.07820691 0.13206346 -0.12634331
-0.13902283 -0.078248106 -0.043099552 0.054727424 -0.114283904 -0.12903747 -0.030999498 -0.06393639
0.10600978 0.075002246 0.19476804 0.111648075 0.30669308 -0.03370609 -0.23561455 0.33790016
0.19112109 0.11441388 0.14357357 -0.05974066 -0.15978594 -0.1253057 -0.054311633 0.05232429
-0.03981859 -0.09492084 0.06796127 0.12361819 0.03471473 -0.12277509 -0.08388524 0.14482549
-0.07934129 -0.41068143 -0.010984502 0.043236416 -0.067749634 0.034173444 -0.14967161 0.024391174
0.18091154 -0.16940759 0.03055054 -0.24967115 -0.12304445 0.025272807 0.050004385 0.020620944
-0.17601085 -0.18183231 -0.011004626 -0.17405416 -0.13280793 0.08894569 -0.01009641 -0.12383192
-0.021159422 -0.03020772 -0.0628404 -0.12953413 0.03187938 -0.16247438 -0.18606791 -0.1946265
0.096518226 -0.15083295 0.018555854 -0.5396572 -0.01830567 0.38793558 -0.4778613 -0.43154076
-0.11147784 -0.6885907 -0.1756875 0.33863157 -0.019031078 -0.16978195 0.07628737 0.08030882
-0.014504773 0.058449544 -0.060199156 -0.14670137 -0.030724628 -0.15335998 0.1568813 0.08948161

lstm.weight_hh_l0 f4 [256, 64]
00000000: caab ec3c eea8 fb3d 7e8e 60be 84cb 88bd
00000010: f95a 163e f494 08be aafd 5a3d 4bca 16be
00000020: 9605 913d 3ada d3bd e10e 263e 63c3 02be
00000030: 7208 8fbe 3c76 25be be61 0fbe 7498 6dbc
00000040: 2223 613e 987f 4d3e 8512 afbd 9deb 54be
00000050: 4723 dfbc c4a7 a1be ecef 9e3e 78ae 5e3e
00000060: 0742 363d 00a9 893d 6890 17bd aa90 373d
00000070: 7fbc a4bd a2b5 693d bd98 3f3d 2b4d 503e
00000080: eff2 c5be ad50 98be b5a9 82be e2f3 afbd
00000090: 08ba 3abe b0e2 55be 14b4 20be 5343 413e
000000a0: 39ba 823d 3687 013e 5613 d9bd 1d59 af3d
000000b0: e566 e5bd 4a81 05be bd87 993e 9c0e 4bbe
000000c0: 00c7 27be 8787 2fbe 95f3 98be 273a 87bd
000000d0: 6c72 6bbe 19b4 de3c 16ca 043d 35a1 5b3e
000000e0: b818 eb3d 9290 283e a003 563e fa72 7d3e
000000f0: c259 8a3e d1d9 f53d 08c1 4ebe 6b0a debb
00000100: ecc4 313d 537a c03c 0b6a c2bd 7816 923d
00000110: d6b2 1b3e 8502 7bbc a762 433e 7939 d33d
00000120: 5538 6e3d 81ca c73d 48a9 a0bd f798 12be
00000130: 1417 a6bd 8472 50be c359 883d 65eb cdbd
00000140: a5e2 91bc 561d 673d 05aa 373e d8ea 3dbd
00000150: e235 28be 0704 d4bd 8ef6 e63d 7f14 d93d
00000160: da23 97bc 7adb 123d 7ee9 33bd dc87 2ebc
00000170: 4e36 593c cf8f 923d 5a39 8cbd e7c5 be3b
00000180: 80bf a2bc 7197 e1bc 1b2b ff3d 4ce8 803d
00000190: 4066 83bd f018 d23c 0e8f a6bd 380a af3d
000001a0: 3b25 763c d292 3e3e f187 c2bd c763 7dbd
000001b0: 9b58 1e3d d36a 6b3d 98ba b53d 364f f2bd
000001c0: e29b 40be 0292 eabd 8ef0 8bbd bfc4 973d
000001d0: 2b1e 123d b094 923d 94d6 0a3e ddc3 143c
000001e0: 4535 9fbc fa09 253e f0de fabb ff33 e83c
000001f0: e722 283e aed0 b23b d406 c2bd d008 e23d
00000200: 3437 e5be f717 203e 15c8 983e 0792 fc3e
00000210: d838 b5bd 9ecd 4dbd e36f 443e 3ecf 523d
00000220: 25d4 d1bc 4031 bc3e d8ad c4be 5e2f be3d
00000230: 305b d63e cf79 cdbd c4c1 46bd c003 3c3e
00000240: ed67 5dbd 1452 6bbd 1f1a ca3e 507c 39be
00000250: f8e7 03be a8af c13b 3722 debe 6d0a 9abd
00000260: 29f5 883d 53eb 5fbe bdb4 a4be 67d4 203e
00000270: 808f 95be 3f69 e2bd 40c2 c0be c0dd 7d3e
00000280: 3624 91be 0f3b 2c3e 7de8 cc3e 2a4b 78be
00000290: 0fc0 afbe 6688 dc3e 957e 9dbd 46a4 87be
000002a0: d54c ccbe 1411 02be e254 40be 461a 0d3e
000002b0: 85b2 b83e f3ca f1bd 7d82 43be adaa acbd
000002c0: f4ea 253e dcd9 cc3e 4a6b de3e 9250 a2be
000002d0: c973 293e eaf5 e9bd 4ed4 393e 2497 5b3c
000002e0: 46fb 80bd a110 7c3e c48f a73d e771 7fbe
000002f0: 2685 b0be 6d50 0dbd a0eb 68be 69d5 433e
00000300: dde0 86bc bf39 8e3c e794 563d c23c 0e3e
00000310: 036a 893d 67b6 81bc dacd 9b3c 758b 07be
00000320: dbeb f43d e9f0 563b 3552 41be 620e 23bd
00000330: 54a5 b43e 4e28 463c f0a8 433c 815d 58bd
00000340: 6eeb 0abe f59a 503d b69a 853e 1874 573d
00000350: b8a3 ae3d 7c8d f03c 312d 85be ee33 583d
00000360: 37a1 eb3d cd96 1ebd 9ef8 6abd 9614 6c3d
00000370: bb18 143d 2706 0ebe b2f5 dd3c 9d67 1a3b
00000380: c8f5 1cbf e66a f93b 289a f8bb 5d2b 90bd
00000390: cd7a a5bd 2f73 243d e9c8 38be 2fdb 65bd
000003a0: cfe8 0abe 6ba8 6ebc a55d 27be 0a34 09bd
000003b0: a4fb ff39 a758 d93b 3c9e e63d 9a61 393e
000003c0: 864b b2be 9b3e bfbd eae5 623d b06b 2fbe
000003d0: a066 c73e 98e4 81bd 63da c73d 5251 623e
000003e0: 88c6 683d 45c7 4ebc 38e6 d63d c71c 7ebe
000003f0: 7ca2 1abe cbd2 c9bd c0ef 3b3e 1779 1a3d
0.02889051 0.1228808 -0.21929356 -0.066794425 0.14683141 -0.13338071 0.05346457 -0.14725606
0.070811436 -0.10344358 0.16216613 -0.12769847 -0.2793613 -0.16158384 -0.1400213 -0.01450168
0.21986058 0.20068204 -0.08548454 -0.20793004 -0.027238501 -0.31573308 0.3104242 0.21746242
0.044496562 0.06721687 -0.03700295 0.044815697 -0.08043765 0.057057984 0.046776522 0.20341937
-0.38661906 -0.2974905 -0.255201 -0.08591439 -0.18235028 -0.20887256 -0.15693694 0.18873338
0.063831754 0.12649235 -0.10599391 0.08561919 -0.11201266 -0.13037601 0.29986373 -0.19829792
-0.16384506 -0.17141543 -0.29873338 -0.066028886 -0.22992867 0.027185487 0.032419287 0.21448214
0.11479324 0.16461399 0.2089982 0.24750891 0.27021605 0.12004436 -0.20190823 -0.0067761443
0.04340069 0.023495829 -0.09492882 0.07133192 0.15204939 -0.015320425 0.19080602 0.103136964
0.05815919 0.097554214 -0.07844788 -0.14316164 -0.081098706 -0.20356184 0.06657746 -0.100546636
-0.017808268 0.05642446 0.17935951 -0.046366543 -0.16426805 -0.10352331 0.11277495 0.105996124
-0.018449713 0.03585384 -0.043923847 -0.010652509 0.013257576 0.071563356 -0.068468764 0.0058219316
-0.019866705 -0.027538033 0.124593936 0.06294307 -0.06415987 0.025646657 -0.08132754 0.08546871
0.015023525 0.18610695 -0.09498585 -0.061862733 0.03865872 0.057474922 0.088734806 -0.118315145
-0.18809465 -0.1145363 -0.068329915 0.07410573 0.0356733 0.07157266 0.13558418 0.009079901
-0.01943458 0.16117087 -0.0076559708 0.028345106 0.16419564 0.0054570055 -0.094739586 0.11036837
-0.4476868 0.15634142 0.2984015 0.4933016 -0.08848733 -0.05024492 0.19183306 0.051467173
-0.025613854 0.36756325 -0.38413882 0.09286378 0.41866446 -0.10032999 -0.048524633 0.18360806
-0.05405419 -0.057451323 0.39473054 -0.18113828 -0.12881458 0.0059108324 -0.4338548 -0.0752152
0.066873856 -0.21867113 -0.32169142 0.15706025 -0.29211044 -0.1105523 -0.376482 0.24791622
-0.2834794 0.16819404 0.40021124 -0.24247423 -0.34326217 0.43072814 -0.07690159 -0.26492518
-0.39902368 -0.12701827 -0.1878238 0.13779554 0.360737 -0.118062876 -0.19092746 -0.08430991
0.16202909 0.40009964 0.4344123 -0.31702095 0.16548075 -0.114238575 0.18147394 0.013402734
-0.062979266 0.24615718 0.08181718 -0.24945794 -0.34476584 -0.034500528 -0.22746134 0.19124378
-0.016464645 0.01736152 0.052388098 0.13890365 0.06709673 -0.015834047 0.019019056 -0.13236792
0.11959048 0.0032797402 -0.18879016 -0.03980864 0.35282385 0.01209457 0.011942133 -0.052823547
-0.13566372 0.05092903 0.26094598 0.05260095 0.085273206 0.02936434 -0.2601104 0.0527839
0.11505359 -0.038718034 -0.057366006 0.05763682 0.036156397 -0.13869534 0.027094696 0.0023560293
-0.6131253 0.0076116202 -0.007586736 -0.07039521 -0.08080063 0.04014891 -0.18045391 -0.056117233
-0.13565372 -0.014566521 -0.16344316 -0.033496894 0.00048824877 0.0066328826 0.112606496 0.18103638
-0.34823245 -0.09338113 0.055395044 -0.17130923 0.38945484 -0.06342429 0.09758451 0.22101334
0.05682996 -0.012620752 0.104931295 -0.24815665 -0.15101045 -0.09854659 0.18353176 0.037713137

lstm.bias_ih_l0 f4 [256]
00000000: 4a5a 123e f30a ae3d e004 193e eb50 813e
00000010: 0988 803e 5aff a63e 490b 82b9 8503 423d
00000020: 3b34 bcbb ea63 113b c3bd 833d a601 5cbd
00000030: dee2 1f3e 5fae 9cbd 909f 17bd 1e31 8cbd
00000040: 149e 8d3e 5324 983d 5afd 873e 17d0 71bc
00000050: 254e 0e3d 60b6 913e 31db 993e 563a efbc
00000060: 0ba5 803d 76d6 cd3d 7b99 293d 040a 143e
00000070: a9c2 f83c eb5c 7d3c 67a5 89bd 9ed2 183e
00000080: efef 4c3e bf5d 563e b32f bc3d c2ad 19bb
00000090: caed 0e3e c435 80bd 5069 643e d470 9d3d
000000a0: 5129 023e e094 b1bd cbec d13d 76f7 583d
000000b0: 6df5 f2bb b22f db3c a414 553e 0fc4 183e
000000c0: bae0 383e 0664 523e 858e 853e 30b4 4fbc
000000d0: bc89 edbb cb8f 013c 7e3d 323e da31 b63e
000000e0: 84ae e43d cf49 6a3e d306 80bd b38d 543e
000000f0: 84fd 6dbc b35a 013e 68b0 113e 7d74 ad3d
00000100: 62a1 94bd f941 a6bc 561a fc3d f98e fc3d
00000110: 0a8b 2e3d 65e1 1abe aa5e dcbd abb5 0dbe
00000120: 1113 933d 9f8d aebd 615b f83d 91c0 9f3d
00000130: 8947 4ebe 8244 7f3d 78f4 a73d 94ee 123c
00000140: 52d2 f43b 7181 adbc 7f0e d73d e645 84bc
00000150: fc67 0b3d a523 96bb 425d c2bd c47e c6bd
00000160: 44f9 6b3c 22bb 593d bd21 fe3d 1bd0 8fbd
00000170: 37b7 5abd bc75 033d 0307 d9bd 63cd 0c3e
00000180: b201 92bd 8ac7 aabd 9982 f63c 2b99 b9bd
00000190: 912d 8e3d fb09 1cbd a88a 123c 8065 cfbd
000001a0: 1ba3 acbc 87d5 5b3d 27dd 86bc e2b2 e23d
000001b0: 7c8f 5ebd d670 b33c ec3f 423d f806 d4bd
000001c0: f5ae febc 7593 493e e85f acbc 5f29 bcbc
000001d0: 1d58 043e 531b d9bd cb73 033e bc03 b8bb
000001e0: f8f0 d9bc f2c4 e1bd bb96 b5bd bad1 10bd
000001f0: c8f3 a9bc d1e2 be3b f652 46be dec3 1f3d
00000200: 5f84 83bd 78b6 e63c 9ea6 a6bb 476b c5bc
00000210: 1f45 4abd 959c 1bbc 9e58 c63d 1709 ebbd
00000220: 591f 31bc b615 133e a427 babd e244 11bc
00000230: 5c49 8bbc 9cda a13c 68ef 82bd 9dec b43c
00000240: abcb 75bc cff7 b33b 77ac d23d 1c9b aa3d
00000250: 03e1 c93d 0945 98bd 4932 abbd 4b67 0b3d
00000260: 8de5 3cbc 022a 46bd 2879 01be 3e91 6abd
00000270: e129 2fbe 4b28 eb3c 7d15 353a 5e4b ce3c
00000280: 9f68 3e3c a3e2 423d 7963 243c 2280 84bd
00000290: a475 fc3d e9e5 c33d 3daf acbd 57b9 d73d
000002a0: 7a19 4e3d a68e c1bd f845 d5bd 52ee ea3c
000002b0: 9990 e13d 7d45 bebd e999 953d 1903 44bd
000002c0: 7347 99bd 6f5d c73d 43e9 f23c 810a 1bbd
000002d0: 505b e6bc c1d4 273d 6c80 a23d a4c9 c2bc
000002e0: b19b 63bd 88ff af3d 2b28 1dbe ca04 0d3d
000002f0: 168f 2d3d f3a7 82bc 8ed5 ee3c c249 b53d
00000300: 76ab 103c 50b7 f33b 2874 8b3e f8b8 713e
00000310: e276 1d3e 86d0 943e 65d9 9e3d 3c2d ecbb
00000320: b36b 853d cd01 0d3e 6857 083d 459b d7bd
00000330: f17f 583e 6a5d e63d 27d1 033e ed61 163d
00000340: a5a7 873e 6fc9 1dbd e914 cd3e d506 833c
00000350: ebc7 8a3b 9cbe ab3e 5139 833e 9f60 dabd
00000360: a4c3 6b3d 67d0 dbbd a3db 503e 5536 2abd
00000370: 2079 b73c c1b9 ad3d 9165 10bd cd6c e73e
00000380: cc83 fb3d cf16 c73e c3f0 243e d934 c4bc
00000390: 3626 2b3e 6e39 93bc e108 1b3d 7368 e83d
000003a0: d8be 743d 2c23 c33c b5bf 25bd d282 ad3d
000003b0: ab28 84bb 083e 3bbd 698b 3d3e 317b 403d
000003c0: d2e5 4f3e 4b2a 243e 9776 533e 7f8a 5fbd
000003d0: 39b6 d73d cb67 3c3e d56f 483e 973f 8a3e
000003e0: 47de ae3d 4484 4d3e 0822 2d3e 4dba 373e
000003f0: a6ed fcbc ea01 04bd c309 10bb 02a2 2b3e
0.14292255 0.08498182 0.14943266 0.25257048 0.25103787 0.32616693 -0.0002480394 0.047366638
-0.005743531 0.0022184798 0.064326786 -0.05371251 0.15613887 -0.07650446 -0.037017405 -0.06845306
0.27659667 0.07428803 0.2656048 -0.014759085 0.034742493 0.28459454 0.30050042 -0.029202621
0.062814794 0.10050671 0.041406136 0.14456946 0.030366259 0.015464048 -0.06721001 0.14924094
0.20013402 0.20934199 0.091887854 -0.0023449515 0.13957897 -0.06260255 0.22305799 0.07687536
0.12711073 -0.08670974 0.10250243 0.052970372 -0.007414511 0.026756141 0.20808655 0.1491854
0.18054476 0.20545968 0.26085296 -0.012677237 -0.007249085 0.007907818 0.1740627 0.3558491
0.11166099 0.22879718 -0.062513016 0.20757179 -0.014525775 0.12632255 0.1422745 0.08469484
-0.07257344 -0.02029513 0.12309711 0.12331957 0.042613067 -0.15125044 -0.10760243 -0.13838832
0.07181371 -0.08523106 0.12126804 0.07800401 -0.20144476 0.062321194 0.082009256 0.008968014
0.007471361 -0.021179887 0.10500812 -0.016146611 0.034034714 -0.004581886 -0.09490444 -0.096921474
0.014402691 0.05315698 0.12408779 -0.07022115 -0.053397384 0.032094702 -0.105970405 0.13750224
-0.071292296 -0.0833884 0.03009157 -0.090624176 0.06942285 -0.038095456 0.008944191 -0.101267815
-0.021073868 0.053670432 -0.016462876 0.110692754 -0.054336056 0.02190439 0.047424242 -0.10352892
-0.031089285 0.19685157 -0.021041825 -0.022968946 0.12924238 -0.10600915 0.1283714 -0.0056156795
-0.02660416 -0.110238925 -0.0886664 -0.03535626 -0.020746127 0.0058253785 -0.19367585 0.039005153
-0.06421732 0.02816318 -0.0050857803 -0.024099005 -0.049382325 -0.009497781 0.09684871 -0.11476343
-0.0108106965 0.14363751 -0.09089592 -0.008866521 -0.017002754 0.019757561 -0.06393319 0.022085482
-0.0150021715 0.0054921876 0.10286801 0.08330366 0.09857371 -0.074350424 -0.083592005 0.034034055
-0.011529339 -0.048379906 -0.12643874 -0.05726742 -0.1710582 0.028705737 0.0006907804 0.025182422
0.011621623 0.04757942 0.010033482 -0.06469752 0.12327126 0.09565336 -0.084318615 0.10533398
0.050317265 -0.09451036 -0.10413736 0.028678093 0.11013908 -0.092905976 0.07304747 -0.047854517
-0.07484331 0.09734618 0.029652243 -0.037851814 -0.028119713 0.040974382 0.07934651 -0.02377779
-0.0555684 0.085936606 -0.15347354 0.034428395 0.042372786 -0.015949225 0.029154565 0.08851959
0.008829942 0.007437624 0.27237058 0.23605716 0.15377381 0.2906534 0.077563085 -0.007207541
0.065146826 0.13770218 0.033286482 -0.10527662 0.21142556 0.11248286 0.12872754 0.036714483
0.2649509 -0.03852218 0.40055016 0.015994469 0.004235258 0.3354386 0.25629666 -0.1066296
0.057559624 -0.10733109 0.20396285 -0.04155572 0.022396624 0.08482695 -0.03525311 0.45200196
0.12280998 0.3888459 0.16107468 -0.023950981 0.16713795 -0.01797172 0.037850264 0.11348047
0.059752315 0.023820482 -0.04046603 0.084722176 -0.0040331683 -0.045713454 0.18510212 0.046992484
0.20302513 0.16031758 0.20650707 -0.05457544 0.10532803 0.18398969 0.1957391 0.2700164
0.0853849 0.20069987 0.16907513 0.17942162 -0.030875038 -0.032228388 -0.0021978475 0.1676102

lstm.bias_hh_l0 f4 [256]
00000000: be88 b23d e511 a2bd 586e 743e c371 943e
00000010: 12a0 c33d 5c3a b43e 7773 f93d 81ab 82bd
00000020: e980 fdba e78d e83d 344f 503e 0969 b8bd
00000030: bfdd 8c3e 27e3 1cbd 6633 b6bc b590 223d
00000040: 644c f93d fa89 06be ec2f 2f3e 0425 3a3d
00000050: cacd d53d c839 8c3e baeb b83e a5e3 50bd
00000060: b6d6 c83d c934 4dbc efa7 b2bd c27c 083b
00000070: e454 263d 182f 9c3c 2e41 313d 59c2 923e
00000080: f40a b53e 6940 263e b37f 713e 3cf4 02bd
00000090: 29dd 533d 9fca 1a3d b198 603d 1848 7e3c
000000a0: 7c8e e6bc 5325 e6bd ed8e 283e 3abd 173e
000000b0: d8f6 b63d ae3a d4bd 212a e63d 8bb7 dabc
000000c0: 168f 783d 7666 713c c758 8d3e 7ebe 3abd
000000d0: b3f8 033e 3616 f13d 9e6d 0e3e 4ac9 7d3e
000000e0: 7dcd cf3d e649 8c3d 7def 713d b4ba 2d3e
000000f0: ddda e03d c647 c2bb eaa6 f63d 7956 9cbd
00000100: ed64 113d 2486 bd3d 350d 243e 4a06 a5bd
00000110: ea7a d83d 4c7f 553c f8a8 8db8 8a0e 553c
00000120: a8c7 6b3d 31c2 5dbc 9c2f 11bd 5113 cdbd
00000130: ae88 3bbe ce4c b9bc 782f 6d3a 1d35 82bd
00000140: 11ca c73c 787e b6bd fc9b 5d3d 650a fcbc
00000150: fcaa 6f3d b35c 233d d021 1dbd d3d0 0d3d
00000160: 3047 67bc a6db 82bc 28ba 9cbd df43 8bbd
00000170: 3c7b 993d cbd6 87bd 807d 54be 331b 423e
00000180: 19d0 10be c31b 0abe ae4d 373d 518c d8bd
00000190: 1a46 693d 2906 e9bd 8033 58bd f820 a53d
000001a0: 6b83 f33b d65d 10be be75 5d3d 596b 20bb
000001b0: e009 2dbd d129 863d 3104 043e 3c4b 3d3d
000001c0: 06d0 23be c377 043e b722 213e 316c af3d
000001d0: 49f5 243e eba9 c73d 0886 293e 542a 53be
000001e0: 4c6a ad3d d091 573c 2fc2 05be 38af f73d
000001f0: 6467 62bd 0ef3 85bd 4d9e b2bb af9b 683c
00000200: df48 c8bd 67be 973d 08ca 81bc 2983 9c3d
00000210: 1301 473d 1e82 0d3d 7255 20bd d30d dcbd
00000220: c6b9 b23d ce8b 5ebc 5cb2 cbbd 79e3 e3bc
00000230: b180 893d 37f1 533d eb56 91bc de36 8ebc
00000240: a159 edbc a1bb e23c 9966 76bd 4893 9c3d
00000250: ff30 f53d b153 993d 26df bb3d cb70 f4bc
00000260: be7e c93d bd3c 03be 88be 0ebe ada5 643d
00000270: 5fb5 523d f86a 15bd 9e10 e83d 4bf0 6cbd
00000280: d39a a1bd 823c 5f3d 01bd 213b a54b b6bb
00000290: 9d0a bc3d 632f 3dbc c56f 003c e5de 533d
000002a0: 1257 a9bd 4e37 7a3d a5dd 5dbc 1689 f9bd
000002b0: 30c3 103d 2cd9 b2bd 7e4f b6bd 956d 253d
000002c0: c823 f63c 48f2 db3d af97 d13c e4ac 983d
000002d0: c1f4 383d 7b60 dfbd 00bd 383e 377a 463d
000002e0: 75e1 5e3d c293 e2bc 12b3 eabc 2390 18bd
000002f0: 6a7e edbd 7255 043e f095 183b d2f7 473d
00000300: 0382 82bc a30d c73d 9eb3 ab3e 616f 253e
00000310: 9bf3 343e 2bf3 b63e 6a6e 1cbb 2b5f ad3d
00000320: 74a6 313d f440 203e 1645 553e d74a d03d
00000330: 5421 cc3e cc9c 0f3e b8f5 7cbc 393d 55bd
00000340: 4cfa 1b3e affb ae3d 93fc 903e 4486 d3bb
00000350: c32f c3bc 1eb2 9c3e 9696 a13e cdf4 f1bd
00000360: 3748 96bd fc64 21bd 8628 0e3d 9303 833d
00000370: e965 313e 6676 f33d f2de 933d f55a 953e
00000380: 0df3 133e 4ef8 4f3e 3635 5b3e 41ac 2d3e
00000390: f024 3e3e 45fd e83b c5af 023e 1ecc 413e
000003a0: 59e1 043e 3b62 8bbc 3c72 41bd c185 db3d
000003b0: 95db 2d3d f1d1 c83d d365 583e 2693 8c3d
000003c0: f116 ae3d 2f11 263e dc77 a13e efb2 d13d
000003d0: 50a5 373e 32e8 cc3d 3399 293d 85b8 8f3e
000003e0: 0d64 04bd a99f 5f3d 664a 2a3e 3ed9 0f3e
000003f0: d9dd 723d 9036 eb3d 4cfe 8c3d dfeb 4c3d
0.08717488 -0.07913569 0.23870218 0.28993043 0.09552015 0.35200775 0.12180226 -0.06380368
-0.0019340786 0.11355191 0.20342714 -0.09004409 0.2751293 -0.038302567 -0.022241306 0.039688785
0.121727735 -0.13138571 0.17108124 0.045445457 0.10439642 0.27387834 0.36117345 -0.05099835
0.09806578 -0.012524792 -0.08723437 0.0020826315 0.0406083 0.019065425 0.04327505 0.286639
0.3535992 0.16235508 0.2358387 -0.0319712 0.051724587 0.03779089 0.054833118 0.015520118
-0.028144114 -0.11237588 0.16460772 0.14818278 0.089338005 -0.10362755 0.11238504 -0.026698848
0.060683332 0.014733901 0.27606794 -0.045591824 0.1288784 0.117718145 0.13909003 0.24783817
0.10146616 0.068500325 0.059066284 0.16965753 0.10979245 -0.005928966 0.12043555 -0.07633681
0.03549664 0.09254101 0.16020663 -0.0805784 0.10570319 0.013030838 -6.754877e-05 0.013003955
0.057563454 -0.013535068 -0.035445794 -0.1001345 -0.18313858 -0.022619631 0.0009047906 -0.06357787
0.024388345 -0.08910841 0.054103836 -0.030766675 0.058512673 0.039883327 -0.038362324 0.03462298
-0.0141160935 -0.015973877 -0.07652694 -0.06800055 0.07494208 -0.066327654 -0.20751 0.18955688
-0.14141883 -0.13487153 0.044751815 -0.10573638 0.05695162 -0.11378128 -0.05278349 0.08062929
0.0074314377 -0.14098296 0.054067366 -0.0024478047 -0.042245746 0.065509446 0.12892224 0.046214327
-0.15997323 0.1293631 0.15735899 0.08565558 0.16109194 0.09749206 0.16555035 -0.20621616
0.0846754 0.013157323 -0.13062356 0.12093967 -0.055274382 -0.065405 -0.005451 0.014197274
-0.09779524 0.07409363 -0.015843406 0.07642204 0.04858501 0.034547918 -0.039143987 -0.10744824
0.0872684 -0.013583137 -0.09946129 -0.027818428 0.06713999 0.051743712 -0.017741641 -0.017360147
-0.028973402 0.027677359 -0.06015644 0.07645279 0.11972236 0.07486666 0.091734216 -0.02983894
0.09838627 -0.12816139 -0.1393987 0.055822063 0.0514425 -0.036478966 0.113312945 -0.05784635
-0.078908585 0.054501064 0.0024679305 -0.0055632167 0.09181712 -0.011546942 0.007839148 0.05172624
-0.082685605 0.0610879 -0.013541614 -0.1218435 0.035342395 -0.087328285 -0.08901881 0.04038771
0.030046359 0.10739571 0.025585024 0.07454851 0.04515529 -0.10907074 0.18040848 0.048456397
0.05441423 -0.027658347 -0.02864984 -0.037246834 -0.11596377 0.1292322 0.002328273 0.048820324
-0.015931135 0.09719398 0.33535475 0.16155769 0.17671053 0.35732397 -0.0023869523 0.084654175
0.043371633 0.15649778 0.20827135 0.101705246 0.39869177 0.14024657 -0.015439443 -0.05206034
0.152322 0.085440986 0.283177 -0.0064552147 -0.023826485 0.30604643 0.315602 -0.1181427
-0.07337993 -0.039402947 0.034706615 0.06397166 0.17324032 0.11887817 0.07220258 0.29170957
0.14448185 0.20309564 0.21407017 0.16960241 0.18568778 0.00711027 0.12762363 0.18925521
0.12976588 -0.017014613 -0.047228083 0.10718871 0.042445738 0.09805668 0.21132593 0.06864004
0.085004695 0.16217493 0.31536758 0.10239207 0.17934155 0.10005225 0.041405868 0.28070465
-0.03232198 0.054595623 0.16629943 0.14047715 0.0592936 0.11485016 0.06884441 0.05002963

lstm.weight_ih_l1 f4 [256, 64]
00000000: 8392 a73d f7a9 27be bddd 2e3e 1a5c 223c
00000010: f410 9ebd c555 d1bd 2de6 1e3e b7a8 05bd
00000020: 22d4 a4bc 08a8 20be ba65 3dbe 9fa3 8fbd
00000030: 938e 32be 7033 373e 9336 a43c 5497 b5bd
00000040: 650b 283e 652b 723a 8bd0 d5bd 9706 993d
00000050: eff3 743d 167f 663e d7e2 883c bb35 e1bd
00000060: 4ba9 b6bc 64d6 ed3d 4e1c 30be 019c aebd
00000070: e127 083e 8ed1 4e3e bba6 223e 86ab 82be
00000080: a48b d23d 9141 d0bc 1246 163d a469 1a3d
00000090: 8885 233e 3ff4 fabd 73d6 af3d f817 0abd
000000a0: 70df 993c 16c8 a23a 1821 273d 9368 6fbe
000000b0: 90b6 1e3c 4134 57be e87d b2bc a6d2 a7bc
000000c0: 25e4 51be 08d1 d5bd e8f5 6f3d 4b08 153e
000000d0: 2e70 bbbd 2cf3 b93d b0bd a23b 609c aebd
000000e0: 13af bbbc fa7e 91bd 0769 80bd c7c0 9abd
000000f0: e099 fc3d 5581 553d 5570 133e c118 323d
00000100: eb15 443b 89b4 6a3e ffc1 0d3e 8668 443d
00000110: 9a1e 97bd f2f8 5bbe 97af 2a3d a3ab 6a3d
00000120: 8cbd 423e 4b08 44bd 6c4b 5abe 676d f23d
00000130: 2445 4f3e 5434 9ebc 62cc 173e 5fb9 debc
00000140: 7925 033e 72cf fdbc 1e7a e33d 7429 d339
00000150: 137a 41bd 9058 3a3d bdd8 10be 9214 e4bd
00000160: c8b9 b5bd cee0 0cbe 4ba1 ae3c a5ab 20bd
00000170: 0221 583e 597b 70bd 7751 91bc 158e 25be
00000180: 06d3 303d b334 e93c baeb 443d dc10 c13c
00000190: 33c1 3abd a722 bf3d e403 973d 87bf cf3a
000001a0: 907e c53d d8d4 8e3d ae06 f5bd 7880 1c3e
000001b0: 3ea2 8fbd 6d43 d53d dae7 23be b40b a8bd
000001c0: 5eb7 49bd 7082 3cbe e2db 163e 69a7 68bd
000001d0: 3707 3a3d a49d 7a3b ce3f a5bc 2f52 b6bc
000001e0: c7ae 4fbd b8f7 ff3d d026 63bd c36e c2bc
000001f0: baeb 31be 739b 58be ce52 70bc 4a30 063e
00000200: e5d9 abbd 91b3 8c3c 10ee 403e 3f15 e63d
00000210: f1b8 0bbd 2d27 46be cbe1 f8bc c189 cebd
00000220: 64bc 283d f141 8bbc a786 20be a33f 063e
00000230: e1e4 3c3e b706 d2bc 1c89 563d 6fb4 c03d
00000240: 3df3 023e eea6 003b d41a 543d a5a9 b23d
00000250: 79ea 88bd 7c66 e93d 224c 88bd ee2d 8e3d
00000260: f931 8d3d df89 96bd d11c 79bc 282a 173e
00000270: 84d5 633e ffdb bab9 fc89 af3d 8fae 0abe
00000280: cf01 b6bd fbfb 5d3e 396f 963c fb16 30be
00000290: 9d34 b13d fbcf ab3d 1ea5 223e e80b 9f3d
000002a0: b1fb d2bc 4e2d bcbd 3445 183e 5e05 0abe
000002b0: b693 7e3d 5306 ffbd 0de6 67bd 642c a03b
000002c0: 32c9 a5bb 2ac7 c43b 4c0f 553c 40f6 c93b
000002d0: e741 103e 60e6 3b3d 4c4b 8cbd c9c4 1bbd
000002e0: 56b1 093e dc08 a9bd 32b5 aabc b8a3 95bd
000002f0: 9f70 12bd 0288 483d eb98 85bd c640 1cbe
00000300: 355f 5f3e 7602 923d 28ee 22bd 9646 d73d
00000310: 9b2f bbbd 881d b33e 3d30 50bd 94fe 0b3d
00000320: 6150 4d3d 43b6 66bd 471f ad3d 9115 ba3d
00000330: 52e9 ea3d ab9f e0bd 484b 27be a252 903d
00000340: e075 6e3e 683d b5bd 821c 1fbd 0129 203e
00000350: af4c 5d3e 5001 4dbe 7188 203d e92e 34be
00000360: 5e17 82bd 5ab5 ccbd 5c92 0d3e 81bb 103d
00000370: 3dfd 753c 8449 803d b2b7 0f3e 5645 e9bd
00000380: 8583 f4bd 139e 8cbe c28d 3cbe 610c 533d
00000390: d0a2 2cbe 77f1 763d 850e 3ebd 8f49 1bbd
000003a0: 011e 3cbe 9ebd 29be fee5 5abe 0924 c33d
000003b0: 89b1 873c 970e be3d f78d 35bd 5e3d c63d
000003c0: c3d0 2f3e b5dc 0abe e70c f53d 7aa1 8dbd
000003d0: 19af 663d dffa 9ebc 69fa 753e 5510 96bd
000003e0: 86c1 a6bd 7790 453c d618 8cbe 5b92 6cbe
000003f0: f53e f5bd 0c49 cb3c 85e7 48be 2161 653e
0.08182242 -0.1637343 0.17076774 0.009909654 -0.07718077 -0.10221437 0.15517493 -0.032631602
-0.020120684 -0.15689099 -0.18495837 -0.0701363 -0.174372 0.17890716 0.020045554 -0.08866754
0.16410597 0.00092380337 -0.10440167 0.0747196 0.059802946 0.22509417 0.016709728 -0.109965764
-0.022297522 0.116131574 -0.17198297 -0.08525849 0.13296463 0.20197126 0.15883915 -0.25521487
0.102805406 -0.02542189 0.036687918 0.037698403 0.15968907 -0.122536175 0.08585825 -0.033714265
0.018783301 0.0012419249 0.040803045 -0.23379736 0.009687081 -0.21016027 -0.021788552 -0.020486187
-0.20497186 -0.1044026 0.058584124 0.14553945 -0.09152256 0.090795845 0.00496646 -0.0852592
-0.02291063 -0.07104297 -0.062700324 -0.075563006 0.12334037 0.052125294 0.1439832 0.04348064
0.002992029 0.22920431 0.13843535 0.047951244 -0.07378884 -0.21481684 0.04167136 0.05729259
0.19017619 -0.04785947 -0.21317834 0.11837273 0.20241219 -0.019312061 0.1482406 -0.027188001
0.12807263 -0.030982707 0.111072764 0.0004027594 -0.04723556 0.045494616 -0.14145179 -0.11136736
-0.088733256 -0.13757631 0.021317145 -0.039226193 0.21106341 -0.058711383 -0.01773904 -0.16167481
0.043169998 0.028467512 0.04807637 0.02356761 -0.045594405 0.09332781 0.07373789 0.0015849926
0.096432805 0.069741905 -0.11964165 0.15283382 -0.07013367 0.10413251 -0.16006413 -0.08205357
-0.04924714 -0.18409133 0.14732316 -0.05680028 0.045417037 0.0038240934 -0.020172026 -0.022255985
-0.05070379 0.124984205 -0.055456936 -0.023734456 -0.17375079 -0.21153049 -0.01466818 0.13104358
-0.083911695 0.017175468 0.18840814 0.11234521 -0.03411192 -0.19350882 -0.030381104 -0.10084868
0.04119529 -0.016999217 -0.15676366 0.13110213 0.18446685 -0.025637968 0.05237685 0.09409415
0.127881 0.0019630748 0.051783398 0.087237634 -0.06685347 0.113965005 -0.06655146 0.06942354
0.06894297 -0.073505156 -0.015204624 0.14762175 0.22249418 -0.00035640594 0.0857124 -0.13543151
-0.08887064 0.21678154 0.018363582 -0.17196266 0.08652613 0.083892785 0.158833 0.07765943
-0.025754781 -0.09188329 0.14870149 -0.1347861 0.062152587 -0.12452378 -0.056615878 0.0048881043
-0.0050593847 0.0060051875 0.013004135 0.0061633885 0.1408764 0.045874 -0.06850299 -0.038029466
0.13446555 -0.08253643 -0.020838354 -0.073066175 -0.035751935 0.048957832 -0.065233074 -0.15259084
0.21813662 0.07129376 -0.039777905 0.1051151 -0.091399394 0.34983468 -0.050827254 0.03417833
0.050125483 -0.056326162 0.08453231 0.09086145 0.114702836 -0.10967954 -0.16337311 0.07047011
0.23287153 -0.08849603 -0.038845547 0.15640642 0.21611284 -0.20020032 0.03919262 -0.1759602
-0.06352113 -0.099955276 0.13825363 0.035335068 0.01501399 0.06264022 0.14034918 -0.11390178
-0.11939148 -0.2746435 -0.18413451 0.051525477 -0.16858983 0.060288873 -0.046400566 -0.037911948
-0.1837082 -0.1657624 -0.21376798 0.095283575 0.016564148 0.092801265 -0.04432484 0.096796736
0.1716948 -0.13560756 0.119653516 -0.06915565 0.05631933 -0.019406734 0.24021305 -0.07327334
-0.081423804 0.012058369 -0.27362698 -0.23102705 -0.11974899 0.024815105 -0.19619568 0.22400333

lstm.weight_hh_l1 f4 [256, 64]
00000000: d8b3 e6bd 97b8 5f3d 5e54 db3d 6279 213d
00000010: 2d66 6f3d 7bc9 df3d 1b3d 363c 7707 dd3b
00000020: 4611 4cbe cc2f 833e ca78 e0bd d83e 853d
00000030: f4c5 e6bc c8fc c3bd 3679 723c 6f3b b3bc
00000040: ada9 84bd d7ac ef3d 3c06 6fbe f770 2ebd
00000050: bf26 2ebe aed6 893e 6328 463c d529 553c
00000060: 08c6 1d3d af51 443d 586b e0bd bf80 cdbd
00000070: 2d78 b4bd 8d33 6f3e 4308 033d 25af b2bc
00000080: b1b5 0a3e fb32 c33c ee0d 073e 39ec 2f3c
00000090: f1ff a93b 1d25 1f3d 8b0e e73c ff8f d7bd
000000a0: a3dc df3b d63b 0cbe e9bf 95bd 0fb6 d53d
000000b0: 6c23 dbbd 0090 0cbe 51bb 1cbc ef86 7ebd
000000c0: f07f 0e3c 4cfd dc3a b2a9 0f3e 8e4d 45bd
000000d0: fead a0bd 1d73 6e3e 4ea1 bd3d ede5 443e
000000e0: ff85 023d 79dd b33d 48a7 d83c b58c c63c
000000f0: 51a0 d4bc 9c19 7b3d 9458 e33d 00cc 32be
00000100: 4d58 9c3d 3c27 183e 7ded 96bd ed75 ce3e
00000110: 2885 f1bd e215 9f3c f427 a73e ed39 693d
00000120: 0030 943d f766 68be 3cf7 24be c425 513e
00000130: f366 ccbd 9a29 3b3e ede2 353e 732a a4bd
00000140: 3d8b 8a3e 8d32 983e 6af6 813d f465 67bd
00000150: af63 81bb c990 b93b e14c 9cbc ae95 87be
00000160: af75 a83d af54 d1bd b17d a6be 6ca1 203e
00000170: 3b9b 7cbc 96dc bfbd eed7 003e e568 51bc
00000180: ed22 c93b af90 cbbd 42d1 adbc 9f30 a33c
00000190: 6550 bfbd 7af2 113d b6fc cfbd 4c16 bf3c
000001a0: 5f9f d7bd fc78 053e fe95 543e 76cd 3d3c
000001b0: 1b2b 59bd 4e89 263e edd2 633b c430 353e
000001c0: 8a64 adbb f997 873d 9918 3c3e 62a9 14be
000001d0: 1dd7 b53d bd8d 1ebe 3d8c a83d bfa7 88bd
000001e0: 4e59 8d3d eab3 96bc 0ff3 0dbe 133e dabc
000001f0: b29e f7bd 6e79 ffbd f83a 17bd 4a63 033e
00000200: 24fb 2f3d d1a5 9bbd 8c53 9cbd 2801 95bc
00000210: 6cae 7c3c e28f 223d d4f7 473d dccf 6d3d
00000220: ee56 89bd 20f6 213d fce3 a33d b580 48bd
00000230: ceba b2bb 2e68 1bbe 4e63 18bd 4e02 c3bd
00000240: ab9e e53c 1067 cf3d 2728 363d f056 27bd
00000250: 7883 18be 87d4 a83d 3752 ae3d 4fc5 84bd
00000260: 57f9 e9bd 4965 c6bd f928 46be 60a8 2d3d
00000270: 8915 363e d535 133c a032 4dbd 4830 afbd
00000280: 53a2 da3d 4fc0 d7bd 8855 d63d d782 0abd
00000290: bfd5 6439 b980 023e e508 ddbb 3d8a 86bd
000002a0: e322 a53c 960e 163e 163e e1bb 348f 8f3d
000002b0: 40a3 c0bd e157 a53d c08e 9cbd 9ee2 7c3d
000002c0: e7d8 9e3d c06d 4dbd 54ae 6f3c ffc0 0e3d
000002d0: 1354 bebd 8672 bc3d 6e9f 60bd 78f3 0c3e
000002e0: cba0 dcbd 6a4a bc3d b4bc cc3d f649 273e
000002f0: 4cf0 433d 2e49 1a3d 15d3 f73d 2863 be3c
00000300: e113 4a3e ba2d 933b 6cb0 4b3e 3219 c1bc
00000310: 662b 2e3b 5966 763d 8ac9 e03d a74a 513d
00000320: d774 d83d c832 44be c8d0 b03d d08a ca3d
00000330: f877 ae3d e386 b4bd d35c d93d 0ea4 febd
00000340: c1b9 763d 7c7e 0bbe 1992 36bb 638e d1bd
00000350: c435 01be 2e98 27be 4bcd 4bbe d353 81bc
00000360: ae92 97bd 2154 7dbd 6d53 74be b6ba 1f3e
00000370: 85cf 043e 3ce5 7abe f96d 4c3e 3600 12be
00000380: ce1d cf3d ae56 1cbe 42e5 0bbe 8d4c 0cbe
00000390: 0869 96bc 5f16 57bd 8f2e 41bd 4bc5 9c3d
000003a0: f683 92bd 8d07 f03d d8de 7a3d 1cbf 4ebb
000003b0: 9481 0b3e 9348 bdbd 29d4 99bd ed33 3d3d
000003c0: ab60 22bc cf7e 103e 12e7 f6bd 6c8d 0c3e
000003d0: a16f 3e3e ddce 073d ffe4 80bd f9ae 883c
000003e0: 43a6 273e bdcf 933d acc6 82bd 96f0 87bd
000003f0: 4045 a13a 171b 91bd 5451 c53d 56c8 c8bc
-0.11264771 0.054619398 0.10709451 0.0394224 0.05844705 0.10927101 0.011122967 0.0067452746
-0.19928464 0.25622404 -0.10960539 0.06506127 -0.028170563 -0.095696986 0.014799407 -0.021878926
-0.064776756 0.117028885 -0.23342222 -0.0425882 -0.17006968 0.269216 0.01209459 0.013010462
0.038518935 0.047929462 -0.10957974 -0.10034322 -0.08811984 0.23359509 0.0319903 -0.021812031
0.13545872 0.02382802 0.13188908 0.010737472 0.0051879813 0.038853753 0.028205177 -0.10525512
0.006831722 -0.136947 -0.073119946 0.104351155 -0.107001156 -0.13726807 -0.009566144 -0.0621404
0.008697495 0.0016860156 0.14029577 -0.048169665 -0.078456864 0.232861 0.09259282 0.19228335
0.03186607 0.08782477 0.026446953 0.024237016 -0.025955351 0.06130372 0.11100879 -0.17460632
0.076340295 0.14858717 -0.07369516 0.40324345 -0.11792976 0.019419614 0.3264767 0.056940008
0.07235718 -0.22695528 -0.16109937 0.20424563 -0.099805735 0.18277588 0.17762347 -0.08015909
0.27059355 0.29726067 0.06345828 -0.056493714 -0.003948651 0.0056630117 -0.019079627 -0.26481384
0.08225571 -0.1022123 -0.3251777 0.15686578 -0.015417869 -0.09368245 0.1258237 -0.012781356
0.0061381967 -0.099397056 -0.021217946 0.019920645 -0.09341506 0.035631634 -0.10155623 0.023326062
-0.105284445 0.13034433 0.20760342 0.01158463 -0.053019624 0.16263315 0.0034763173 0.17694384
-0.005291526 0.06620783 0.18368758 -0.1451774 0.0887892 -0.15483756 0.08229873 -0.0667262
0.06901799 -0.018396337 -0.13862251 -0.026640927 -0.120908156 -0.12474333 -0.03692147 0.12830845
0.042964116 -0.07599986 -0.07633123 -0.018189028 0.015422445 0.039688 0.04882033 0.05805956
-0.06706034 0.039541364 0.08002469 -0.04895087 -0.0054543978 -0.1517646 -0.03720408 -0.09521924
0.02802976 0.101270795 0.044471886 -0.040854394 -0.14893901 0.082436614 0.08511775 -0.06482946
-0.11424511 -0.09687287 -0.19351567 0.042396903 0.17781653 0.0089850025 -0.050097108 -0.08554131
0.10675492 -0.10534727 0.104655325 -0.033816185 0.00021823401 0.12744416 -0.006745445 -0.065693356
0.020158237 0.14654002 -0.0068738563 0.07009736 -0.094061375 0.08073402 -0.07644415 0.061739556
0.077562146 -0.050153494 0.014628965 0.034852024 -0.0929338 0.09201531 -0.054839544 0.13764751
-0.10772856 0.09193881 0.0999693 0.16336808 0.047836587 0.037667446 0.121008076 0.02324064
0.19734146 0.004491535 0.19891518 -0.023571584 0.002657616 0.0601562 0.109759405 0.051096585
0.105691604 -0.19159997 0.08633572 0.09889758 0.08518976 -0.0881479 0.10613408 -0.12433635
0.060235742 -0.13622469 -0.0027858077 -0.10232236 -0.12618166 -0.16366646 -0.19902532 -0.01578704
-0.07401024 -0.06184781 -0.2385995 0.15598568 0.12969787 -0.24501508 0.19963826 -0.14257893
0.10113107 -0.1526744 -0.13661674 -0.13701077 -0.01836063 -0.05251157 -0.047163542 0.07654818
-0.07154076 0.1172019 0.061247677 -0.0031547016 0.13623649 -0.09242358 -0.075111695 0.0461921
-0.009910743 0.14110874 -0.12055792 0.13725823 0.1859727 0.033156265 -0.062936775 0.016684996
0.16372018 0.07217357 -0.0638555 -0.06637685 0.0012303963 -0.07085245 0.09634653 -0.02450959

lstm.bias_ih_l1 f4 [256]
00000000: 59a0 a3bb 7516 923d 976f ebbd aeb2 6fbc
00000010: c127 e93d 4ca0 4ebc c381 0e3e fe20 2f3d
00000020: 78dd d4bc 50d7 9e3d d8ae a03d c471 bd3d
00000030: 23f9 9e3c 9b5a a23c 3760 e83d 325a 0d3e
00000040: 42d0 69bd a936 a7bd f0b3 703d df71 b3bd
00000050: caa6 84bd ad46 0e3e 3b49 16be c15f b7bd
00000060: 88e6 29be 39bd 3fbd 6b93 1a3d 1fda a53d
00000070: 73d1 c8bc 6f22 323d dafb 31bd adf3 923d
00000080: 21b3 4dbd 10a0 81bc 80fa 95bd 6f05 fc3d
00000090: 6070 273d 668a 99bc 8714 c43c 639c a2bd
000000a0: 3ac6 dc3d 2c96 393c 2636 f43d 9d4a 7b3c
000000b0: ad12 4ebc fd6a e2bd 7401 c03b 842d b43c
000000c0: 7838 41bc d19b 883d bd53 a2bd 4695 143e
000000d0: b22a 6bbd fb0e d6bd dd9d 4abd 9362 393c
000000e0: 4480 cf3d 25a1 b73d 8c48 c13c fa2c 44bd
000000f0: 5b75 d03d 2c32 a4bd d511 9c3d 2bb1 4dbd
00000100: 978e c8bd 2cc7 44be a11c c13d 62d8 03bd
00000110: bb4c 85bd 6dec 2cbe 6a6e 19be 467a b03d
00000120: 8015 d3bd 43f8 76be 06b0 f5bd 4ca4 a3bd
00000130: 406c 3bbd f2d9 f93d 2590 bd3d dfd4 55bd
00000140: 3791 183e 595a 193c 4610 4ebd 7d95 cf3d
00000150: 07f4 90bc 9891 44be 2110 62bd ad10 95bd
00000160: 03e9 06be e614 a6bd 3ef6 ffbd 34c3 dabd
00000170: 2283 653d 6285 ae3d d7cb 2b3d aa4a 493d
00000180: eecd c23a fead 7a3c a28c 423d 2a1c f4bc
00000190: 3193 78bd 52de ddbd 84a1 bf3d 1584 20bd
000001a0: 3dd7 ba3c 734d c0bd e03a 8ebd 86c1 2fbd
000001b0: bb21 07bd 006e a63d 403b 24be 0760 ebbd
000001c0: 85b7 61bc a944 293d 55c0 23be ee9d 003e
000001d0: ce8b 26be 54ee aabc cc3c dcbd cc96 4b3d
000001e0: 1fdc 0b3d 6bdd cbbb 1a52 5a3d 5b9f 1fbe
000001f0: a103 fb3d 0b2e eb3c f802 cbbd 718a 09be
00000200: 0b79 2f3d c34c bcbd 0778 523d 08a4 80bd
00000210: 693c 82bc e310 243b f4d0 3a3d 3b0a 403b
00000220: a3e8 c4bb 22ee f4bb 5946 7dbd 85b4 ce3c
00000230: 1053 20bd 3c24 ddbd cdca d63c f7dd 21bd
00000240: eb70 80bd 40c3 18bb a7f6 03bd ec9d c63d
00000250: 5c12 133d 04ab a3bd 125e 803d d02b b9bd
00000260: 7e37 c0bd 8ac4 b6bd 7d4e e73c b8ed 0e3d
00000270: 6320 5dba 96ef 53bd a933 7a3c fdb5 3c3b
00000280: 7b7f cf3d c937 e53d e879 753c 417c 96bd
00000290: 03a4 8bbd a32f 28bd 96b4 f2bd 8439 0dbd
000002a0: 491e 943d 3b33 723d 21ca a5bd d950 963d
000002b0: 9819 203c e2fd e6bc e884 9ebd 0772 d6bd
000002c0: b455 353d 577f 453d 40e1 603d 113f 7dbc
000002d0: e888 c2bc 970b cebd ddb1 96bc 01a8 04be
000002e0: 2bbc f83d 3a24 923d 5316 cebd 63f4 ee3b
000002f0: 52e5 163d 68e1 f7bd 90fa cdbd cd9e c63d
00000300: cffd e63b 470a e33b a436 9bbd 259f c53d
00000310: 0364 c4bd c842 fc3d a970 1b3d 90ec 69bd
00000320: c738 813b 9933 cf3c 39d5 533d c558 bdbd
00000330: a7f7 c43d fb36 d43c 51aa b93d d36c c93d
00000340: 878f 613d 125f 68bd ef1d 673d b3d4 e7bd
00000350: 0d4d 983d 5a80 38bc 4a99 1f3d c47b d73d
00000360: fa1d 2ebe 05ab b2bc 12dc c83d dc05 313c
00000370: fb53 bbbd eff1 89bd 9d3c d7bd 30e9 f83d
00000380: 4abe 3ebc c640 aabd 2691 f7bc 0883 6cbd
00000390: 77be 8cbd a4ed 263c 35ba 87bd a389 b73d
000003a0: 7956 8b3d d6ef a63c f665 0a3d 10db 83bd
000003b0: 181b a1bc 652f 943d fbdb 08be e745 77bd
000003c0: 79ad a83d 7053 b5bd 0926 f73c 0f17 ebbc
000003d0: 78cf 5a3d d2d6 a23d ee31 d33c a735 9bba
000003e0: 40b1 a63d 0e5d 09be dca3 0fbe baa2 9cbd
000003f0: b47f 4cbd 9716 f5bc dbb3 2e3d 2a7a ca3b
-0.00499348 0.071331896 -0.114958934 -0.014630003 0.113845356 -0.01261146 0.13916688 0.042756073
-0.02598451 0.07755911 0.07845849 0.09250215 0.019405907 0.019818595 0.113464765 0.13803938
-0.057083376 -0.081647225 0.05876535 -0.087619536 -0.06477125 0.13894148 -0.14676373 -0.089538105
-0.16591847 -0.046811316 0.037738245 0.08098244 -0.024513936 0.04348987 -0.043453075 0.07175384
-0.05021966 -0.015823394 -0.0732317 0.12305724 0.040878654 -0.018742751 0.02393557 -0.07939985
0.10779996 0.011327308 0.119243905 0.015337613 -0.012577695 -0.11055563 0.005859548 0.02199436
-0.011793248 0.066703446 -0.07926128 0.14510068 -0.057413764 -0.10452076 -0.049466956 0.011315006
0.101318866 0.08966283 0.023594163 -0.047894455 0.10178634 -0.08017382 0.07620589 -0.05021779
-0.09792822 -0.19216603 0.09429289 -0.03218878 -0.06508776 -0.16887064 -0.14983526 0.08617072
-0.10306835 -0.24118142 -0.119964644 -0.079903215 -0.045757532 0.12199773 0.09256009 -0.052204963
0.14899145 0.0093599195 -0.05030849 0.101359345 -0.017694486 -0.19196165 -0.055191163 -0.07278571
-0.13174824 -0.08109455 -0.12498139 -0.10681763 0.05603326 0.085215345 0.041942444 0.04914347
0.0014862397 0.015300272 0.0474974 -0.029798586 -0.060687248 -0.1083342 0.093569785 -0.039188463
0.022807712 -0.09389772 -0.06944823 -0.042909168 -0.032991152 0.081264496 -0.16038227 -0.11492925
-0.013776665 0.041325245 -0.15991338 0.12560245 -0.16264269 -0.020865597 -0.107537836 0.049704358
0.03414547 -0.0062214634 0.053300954 -0.15588133 0.122565515 0.028708478 -0.099126756 -0.13431717
0.042840045 -0.09194329 0.051384 -0.062812865 -0.015897946 0.002503448 0.04560943 0.0029302973
-0.006009178 -0.0074746767 -0.061834667 0.025232563 -0.039141715 -0.10797927 0.02621975 -0.039518323
-0.062715374 -0.0023309737 -0.032217648 0.0969809 0.03590618 -0.07991603 0.062679425 -0.0904156
-0.09385584 -0.089242056 0.028235668 0.034894675 -0.0008435307 -0.05174216 0.015271106 0.0028794997
0.10131737 0.11192281 0.014982678 -0.07347918 -0.06818392 -0.041061055 -0.1185085 -0.03447868
0.07232339 0.05913089 -0.08095194 0.07339639 0.009771727 -0.028197233 -0.077401936 -0.10470968
0.044271186 0.048217144 0.054902315 -0.015456931 -0.023746923 -0.10060804 -0.018395359 -0.12954713
0.12145265 0.07135816 -0.10062852 0.0072923168 0.03683979 -0.1210354 -0.10057557 0.096982576
0.0070492993 0.0069287154 -0.07578781 0.09649495 -0.09589388 0.12317425 0.037949238 -0.05711037
0.003943536 0.025293158 0.051717017 -0.09245447 0.096175484 0.025905123 0.090656884 0.0983521
0.05506852 -0.05673129 0.05642503 -0.11319866 0.07436571 -0.01126107 0.038964547 0.10521653
-0.17003623 -0.021810064 0.098076 0.01080462 -0.091468774 -0.06735598 -0.10509608 0.12153852
-0.011642048 -0.08313136 -0.03022058 -0.05774215 -0.06872266 0.010188494 -0.06627313 0.08961799
0.06803603 0.020378035 0.033788644 -0.06438267 -0.01966624 0.07235602 -0.13365166 -0.0603694
0.08236212 -0.08853805 0.030169504 -0.028697519 0.053420514 0.0795113 0.025780644 -0.0011841551
0.081392765 -0.13414404 -0.14027351 -0.07648225 -0.049926475 -0.029917998 0.042651992 0.006179114

lstm.bias_hh_l1 f4 [256]
00000000: d8ea 8c3a 00fa 313d 16b6 dcbd f5eb 5cbd
00000010: d530 dbbc 20b9 d7bd f46e 71bd ea5d 99bd
00000020: 9d09 cb3d a708 7cbd af46 dd3d cb3b a8bc
00000030: 16a5 1f3e 8317 84bc 6cb2 da3d 8947 b0bd
00000040: a6c8 f5bd 997c 77bc fd53 0bbc 435a 58bd
00000050: 4d94 8abb 5d37 bd3d 3c51 b73c 66b4 4b3d
00000060: dc64 e4bd 3d70 9c3d 90fb f03d 2279 6eba
00000070: efac 813d ae7e ca3d 5243 ac3a 1a75 823d
00000080: 3922 3dbe d9fd b6bb 422c ecbd 617b 22bc
00000090: 3d32 97bd e4eb 8f3d 3e4a 703d a1c4 b2bd
000000a0: 8823 27bb c7f1 e1bd 3a30 0b3e 6ba1 86bd
000000b0: 4eff 4dbd bdc2 9abd 994f 09be 3795 813d
000000c0: 0988 6abd 4963 c7bd cc05 0e3d d50e b7bc
000000d0: 40f2 1f3e 74b2 a23c f806 2d3d f296 d6bb
000000e0: 3614 ab3d eec6 cd3d 25f4 c93b 8e1f a7bd
000000f0: 1bd8 69bd 7547 033e 054c 77bd d367 d1bd
00000100: 8f1f 71bd 055e bebd 192f 4fbd 4d16 edbd
00000110: 6f5c ab3c 196d 8d3d 3732 97bc be94 d53d
00000120: 4020 4abd e051 0fbe 2495 ac3d b0c1 4e3b
00000130: 2e5e d73d e57a 253c 8778 8bbd 8d26 9abd
00000140: 5c17 dd3d 1861 fcba d7f6 9c3d 676d be3d
00000150: 7b91 5ebb 1d89 adbc ff71 f23c 0861 a3bd
00000160: ef95 793b fdb9 2bbe 313d f6bd 3d33 16bc
00000170: 4845 083e 29f6 a1bd d0bc 0abd e1ac c2bd
00000180: a1be 19bc 715a 683c 67cb 17be 71ac 8ebc
00000190: 98b9 2b3d b086 a93d fbf0 a73b f4d9 84bd
000001a0: 46d3 b83d 7d9f adbd c348 eabd 8d8b 883d
000001b0: 8ef0 863d f7d7 ed3d af70 c53c cdd4 b0bd
000001c0: 8974 2bbe 0ee4 23bd 0b49 aabd 42ba 003e
000001d0: 8875 87bd 947a 9bbd 9f6d fcbd 7dca 343d
000001e0: 18e6 d2bb 2817 9a3d 652d ac3d cd15 1dbe
000001f0: 61ea 0e3c 5520 bebd 63ec abbd 1c6f 01bd
00000200: 8e7a 773d 1bc4 56bd a377 f3bc 89a9 8b3d
00000210: 065d eebc 99c9 b33d 1237 293d 0b9b a4bc
00000220: 57dd 5d3d 567b a53c 5087 d4bd 6a07 a8bd
00000230: d651 363d 0601 e3bc db07 c4bd 844f 46bd
00000240: 78ff 933d 4824 89bd 1966 5abd 386f 1c3d
00000250: c81b 60bc c90a 153c bcc9 febc 87f5 08bc
00000260: 3334 243d b5b3 70bd 5919 2ebd 4283 d4bb
00000270: 2f95 debc f142 6e3d 641e c63c 0077 ecbc
00000280: 3db6 7f3d e7bf 25bd 7206 a83d c3d7 893d
00000290: 63f2 efbb ae28 c93b a208 a1bd d8b6 f3bd
000002a0: ef4b 42bd 9c76 39bd 4512 ac3d 8e1e fd3c
000002b0: d9d4 703d ae8f c1bc d616 db3d d389 bd3d
000002c0: 4e07 4a3d 38f4 cebd 44a5 653d ae57 b2bd
000002d0: ff5a 85bd 23f4 b73d 2a4f f7bc 585c d13d
000002e0: 49bc a83c e0a1 9b3d ebb8 e23d b000 dfbd
000002f0: 154d d6bd 031b 0a3d 7be3 e13d de23 ae3d
00000300: d582 05be 2510 05be 1ce3 d5bd 7a13 b2bc
00000310: 5dd7 c1bc 9bd1 80bd 5daa 94bc 3f86 e0bb
00000320: 146c 9fb9 df79 23bd b06c c73c be34 0c3e
00000330: 58de 6d3d b5a3 4b3c 8792 43bd 4e92 4b3d
00000340: 7be6 75bd 9b8a 93bc bc3e 86bb 393d 85bd
00000350: ce5b 01be d4f2 923d b5ab 9abd e386 293d
00000360: 38e9 d0bc c79a e93b 5367 413e fcef a0bd
00000370: 90a0 acbd a537 023e 0703 963d 456c 92bd
00000380: fea1 febd ba0d f1bd 4a31 49bd 95d3 35bc
00000390: 347f 88bd ebc8 f2bc 9288 953d c85a bc3d
000003a0: a48b 0b3c 3275 6fbc 422d 1f3e 84f2 ce3d
000003b0: 25c0 92bd f15b a83d ae09 943d 771e 81bb
000003c0: 9938 babd fe9c e13d 3ce5 9a38 4dec ee3d
000003d0: 646c 883d 5ed9 be3c 57f7 40bc d7b1 bbbd
000003e0: 8cf3 e1bd 1233 ff3c c5e6 7b3d 0797 d53d
000003f0: 7d8e ac3d 5d99 3f3d 73bb 0e3b 2e7e 3c3d
0.0010751141 0.04345131 -0.10776918 -0.053935964 -0.026756683 -0.10533357 -0.058943704 -0.07488616
0.09913943 -0.06153169 0.108044975 -0.020536324 0.15590319 -0.016124493 0.106785625 -0.08607394
-0.12001161 -0.01510539 -0.008503911 -0.052820455 -0.0042291046 0.09239075 0.022377603 0.04973259
-0.1115205 0.07638595 0.11766732 -0.00090970297 0.063318126 0.098874435 0.0013142622 0.063699916
-0.18470086 -0.00558446 -0.11531879 -0.009917111 -0.07382629 0.070274144 0.058664553 -0.0872891
-0.0025503356 -0.110324435 0.13592616 -0.06573757 -0.050292306 -0.07556675 -0.1340927 0.063272886
-0.05725864 -0.09735734 0.034673497 -0.02234594 0.15619755 0.019860484 0.042242974 -0.006548756
0.08353464 0.100477085 0.0061631375 -0.081603155 -0.05709086 0.12820227 -0.060375232 -0.10224881
-0.058867987 -0.092952766 -0.050582025 -0.11576519 0.0209181 0.06905574 -0.018456561 0.10428761
-0.049347162 -0.13996077 0.08426884 0.0031548552 0.1051601 0.010100101 -0.06810098 -0.07526884
0.10795471 -0.001925501 0.076642685 0.092982106 -0.0033961225 -0.021183545 0.029595373 -0.079774916
0.0038083752 -0.16770168 -0.1202339 -0.00916749 0.13307679 -0.079082794 -0.033871472 -0.0950563
-0.009383828 0.014181719 -0.14823686 -0.01741621 0.041925043 0.08277643 0.0051251627 -0.06486884
0.09024672 -0.084776856 -0.114396594 0.06667242 0.06588851 0.11613458 0.024101583 -0.086343385
-0.16743673 -0.04001241 -0.08314713 0.12571052 -0.06614214 -0.07591739 -0.12325596 0.04413842
-0.0064361207 0.07523948 0.08407096 -0.15340348 0.0087228725 -0.092835106 -0.083946966 -0.031600103
0.06041961 -0.052433114 -0.029720133 0.06819446 -0.029097091 0.08778686 0.041312285 -0.020093461
0.054166164 0.020200413 -0.10377371 -0.08204539 0.04451164 -0.027710449 -0.09571811 -0.048415676
0.07226461 -0.06696373 -0.053320024 0.038192004 -0.013678499 0.00909681 -0.031102054 -0.0083593195
0.040088844 -0.058765132 -0.042504642 -0.0064853737 -0.027170746 0.05816931 0.024184413 -0.028865337
0.062429655 -0.040466215 0.08204354 0.067306064 -0.007322596 0.0061388826 -0.07862975 -0.11900109
-0.047435697 -0.04527913 0.08401922 0.030898359 0.058796737 -0.023628082 0.10697715 0.092548035
0.049323373 -0.10105175 0.056065813 -0.0870813 -0.06511497 0.08982112 -0.030189116 0.10222691
0.020597594 0.075992346 0.110704266 -0.10888803 -0.10463921 0.033717167 0.110297166 0.08502935
-0.1303819 -0.1299444 -0.10443708 -0.021737803 -0.023662264 -0.06289979 -0.018147642 -0.006851941
-0.00030407368 -0.039911147 0.024343818 0.13691995 0.05807337 0.0124291675 -0.04774716 0.049700074
-0.060034256 -0.018010428 -0.004096834 -0.06505818 -0.12632677 0.07175222 -0.07552282 0.041388404
-0.025501832 0.0071290466 0.18887071 -0.078582734 -0.08429062 0.12716539 0.07324796 -0.07149557
-0.12433241 -0.11770196 -0.04911927 -0.011097808 -0.06664887 -0.02963682 0.07301439 0.09197003
0.00851718 -0.014615344 0.15544608 0.1010485 -0.07165555 0.082206614 0.07228409 -0.0039403993
-0.090928264 0.11016272 7.3859905e-05 0.116661645 0.06661299 0.023297008 -0.01177772 -0.0916478
-0.11032781 0.031152282 0.061499376 0.10429197 0.08425615 0.046777118 0.002177921 0.04601877
