output/LSTM2CNN/LSTM2CNN_adam_32_100/model/LSTM2CNN_epoch_18.pth (torch, 350382 bytes, 16 tensors)

lstm.weight_ih_l0 f4 [256, 11]
00000000: c76a 223e d0e0 5f3d 3161 ce3c 5d1b 063e
00000010: f25b 37bd 5b30 3b3e 0341 233d b9a1 00be
00000020: f32e 693d ba64 b43d 59ff 953c 9f7d e0bd
00000030: 16a6 2ebd ebf8 f13d 8e46 3c3b 9be5 cabd
00000040: 6e52 ac3d 47a7 233d bbb8 f5bd c27f 94bc
00000050: 0d72 003e e0d3 9a3a 22cb edbd 0ae6 92bd
00000060: a4e8 5cbd 785a d73b dfb5 de3d 0400 90bd
00000070: 0bc4 33bd 6b95 be3b 82aa 173b bea1 39bd
00000080: 59e5 64bd 651f 8dbd fdda 90bd 2847 e23c
00000090: 40ef 4c3c 46d3 57bd f4d5 5bbd 2aa2 78bd
000000a0: a3d6 fbbd 659f b23d db86 0bbd d8d1 723c
000000b0: 716c 22bd 58d2 643d 995d e23d d656 c33d
000000c0: ea6b d8bd ab0d e73d 2753 db3d d081 b7bb
000000d0: ad6a d73c 5ab6 ef3d 9c4b debd c2e4 aabd
000000e0: 468b 343d 9161 e4bd 5e4d bdbc 5e81 e93d
000000f0: 449d 663c 810b bc3d 20c6 aa3d b1b7 d53d
00000100: e839 dcbc c0f7 e43c fac4 c0bd 8cdd c23d
00000110: 399e 793d 7fa8 53bd db7d 2e3d cd63 96bd
00000120: a129 babd 6d25 6c3d 346c 30bd 1ce2 9d3d
00000130: 2ae4 c83d 8b08 dabd 4e78 c0bd 597a 623d
00000140: 5de6 163d 37b3 fa3c d129 2abd 1672 0fbe
00000150: cbfd e1bd 34d0 60bd 6468 17bc daef b5bd
00000160: 43ad ce3d 1b68 67bc 547b 8cbd 0c33 c0bd
00000170: 4f91 4abd 497e a23c ae8e f1bd 8781 823d
00000180: e0f6 9fbd b9cc 153d a33c ff3d d80a 053d
00000190: 53b3 adbd 1c9c df3a 7351 fbbd 63db 843d
000001a0: 85f2 a73d bb42 c43d 09d0 e5bb b64a 04be
000001b0: 1425 cb3d 9fe6 803b fcd8 bfbd 3172 d8bc
000001c0: bace da3c da66 9dbd 4b7b 953c 10d2 b0bc
000001d0: 83e3 94bc dc09 0c3d ed97 2cbd d554 ee3c
000001e0: 6eae 0c3e 297d b1bd 281d bf3d ad85 903d
000001f0: 992b 863d cb88 63bd 5f87 033e 5ef3 083e
00000200: 387e d6bb 5e00 7c3d 1f81 863d 60f0 873d
00000210: b093 9f3d 7a5b ba3d da13 20bd 5692 60bd
00000220: 81d2 32bd af65 f43c 7bf8 4abd c8ca 9d3d
00000230: b35a bebd 03cf 83bd 03db c1bd db07 21bd
00000240: 4d6c 913d af6a 8b3d 293e 9ebd c2be 80bd
00000250: 87f1 04bd 92a5 7bbd ea80 743a 8329 16bc
00000260: 256f b83d acaf 8f3b c71a 7cbd 8479 e6bd
00000270: f86b e3bd 8ed8 3e3d f9cf acbd bd08 123c
00000280: de03 b53c 6624 933d eb53 79bd ea04 fbbd
00000290: f5fd df3c 9273 5d3d 0c33 bfbd 2ae2 953d
000002a0: 8046 dbbd c59f 19bd a522 32bd c31e 64bb
000002b0: 18fb 15bd 789c 53bc 6b28 893d 1cfb b43d
000002c0: 4c99 d0bd ef86 af3c 3e16 6a3d 7cf0 c1bc
000002d0: 9e1a 323c d29c c0bd c4b5 d7bd e936 023d
000002e0: 8a8a 8a3c 7b38 c13d 0ec2 c2bc 4ace 6fbd
000002f0: 562d adbb 09c5 3b3c 38dc d83d 089c 2fbc
00000300: 7a0c b0bd 5136 2a3d 8dc1 05bd aad7 bc3c
00000310: 26d4 c2bd 42b4 fcbc 3321 1ebd 2d5a 9b3c
00000320: 9440 41bd a04d 3abd 2295 7f3d d447 d13c
00000330: 0ec5 61bd 091b cbbd 13f5 3c3d 83b9 90b9
00000340: b85f 3ebd e533 8bbd d3ea 603d e6ff ddbc
00000350: 1fe9 21bd 4729 1dbd f7db c6bd aad6 94bd
00000360: 9c4c 0fbd e8ae 1ebd 57a8 01bd 86ca 993d
00000370: 0f33 dcbc 71a0 ce3b ef31 3c3d 8e8b 89bc
00000380: 77eb e8bd 8933 b1bd 4253 983b 3c4c 123d
00000390: fc1e 973d cb78 28bd 54ab 6bbd 5b7e 14bd
000003a0: ea92 88bd 79c0 e53c 650c e5bd 3c6c bb3d
000003b0: df5e 033d ce49 283d d100 acbc 9587 e73d
000003c0: 0825 c93d 7574 af3d ac24 903d 5b53 7ebd
000003d0: 3603 1f3b 466c 54bd 0e7d 573c 6491 53bc
000003e0: b9f6 9dbd 13a4 4e3c f3dd ee3d 99a6 f0bd
000003f0: 81a4 fabc 71fd f7bd 1645 2d3c 7bd1 86bd
0.15861045 0.054657757 0.025192829 0.13096376 -0.04476542 0.18280165 0.039856922 -0.12561692
0.05692954 0.088082746 0.018310236 -0.1096146 -0.04263886 0.118150555 0.0028728577 -0.09907075
0.0841416 0.03995445 -0.11998125 -0.018127326 0.12543507 0.0011812411 -0.1161101 -0.07172783
-0.0539328 0.006572064 0.10874533 -0.07031253 -0.043888133 0.005816152 0.0023142402 -0.045320265
-0.055882785 -0.06890754 -0.07073019 0.02762182 0.0125082135 -0.05269172 -0.05367084 -0.060701527
-0.12296798 0.08721808 -0.034064155 0.014820538 -0.0396542 0.055864662 0.110530086 0.09538047
-0.10567458 0.11281904 0.107092194 -0.0056001917 0.026295984 0.11704703 -0.10854265 -0.08344413
0.044078134 -0.11151422 -0.02310818 0.11401628 0.014075581 0.09181882 0.083385706 0.10435427
-0.02688308 0.027950168 -0.0941257 0.09514913 0.06094191 -0.051674362 0.042600494 -0.07343254
-0.09089971 0.05765288 -0.04307194 0.077091426 0.09809144 -0.10646161 -0.09397946 0.05529246
0.036840785 0.030603034 -0.041543785 -0.14008364 -0.11034735 -0.054886058 -0.009241197 -0.08883639
0.10091641 -0.014123942 -0.068594605 -0.093847364 -0.049454983 0.019835608 -0.11794792 0.06372362
-0.078107595 0.036572192 0.124627374 0.032481045 -0.08481469 0.0017060074 -0.122713946 0.06487157
0.08200554 0.0958304 -0.007013325 -0.12919125 0.099191815 0.003933742 -0.09367558 -0.026421638
0.026709903 -0.07685633 0.018247267 -0.02158454 -0.018174892 0.03418909 -0.042137075 0.029093185
0.13738415 -0.086664505 0.09331733 0.07056747 0.06551284 -0.055550378 0.12844609 0.13374087
-0.006545808 0.061523788 0.06567597 0.06637645 0.07791841 0.09099479 -0.039081432 -0.054827057
-0.043657783 0.029833643 -0.049553376 0.07704693 -0.09294643 -0.06435969 -0.09465601 -0.039314132
0.07100735 0.06807458 -0.077267 -0.06286384 -0.0324569 -0.061437197 0.0009327071 -0.009165171
0.09005574 0.0043849554 -0.061548974 -0.11253646 -0.11104578 0.04659324 -0.08438105 0.008913216
0.02209657 0.07184677 -0.060871046 -0.12256797 0.027342776 0.054065295 -0.09335908 0.07318528
-0.10706806 -0.037505884 -0.04349007 -0.0034808374 -0.036616415 -0.012915723 0.06697162 0.08836958
-0.10185489 0.021426646 0.057150118 -0.023674242 0.010870604 -0.09404911 -0.10532716 0.031790648
0.016911764 0.09434601 -0.023774173 -0.058546342 -0.0052849455 0.011460551 0.105888784 -0.010718353
-0.0859613 0.041555706 -0.032655288 0.023052055 -0.0951312 -0.030847672 -0.03860588 0.018963898
-0.047180727 -0.045484185 0.062398084 0.025546946 -0.055119567 -0.09917266 0.04613216 -0.00027604037
-0.046478003 -0.067970075 0.054911446 -0.027099561 -0.039528962 -0.038369443 -0.09709924 -0.072675064
-0.03498517 -0.038741022 -0.031654682 0.075093314 -0.026879815 0.006305747 0.045946058 -0.016790178
-0.11373036 -0.08652408 0.004648597 0.035717234 0.07378957 -0.041130822 -0.057536438 -0.036253314
-0.06668647 0.02804588 -0.11184005 0.091515034 0.032072898 0.04108601 -0.020996483 0.11305157
0.09821516 0.08567134 0.070382446 -0.062091213 0.0024263388 -0.05186107 0.013152374 -0.012913082
-0.07713074 0.0126123605 0.11663427 -0.11750526 -0.03059602 -0.12108887 0.010575553 -0.06582924

lstm.weight_hh_l0 f4 [256, 64]
00000000: c7b8 febc 5c3f cdbc 437e 0b3e 203c 9fbd
00000010: a3d9 023d bd66 15be 9276 793d d5a6 083e
00000020: 8717 813d 8ff5 82bd f007 5dbd a531 e0bd
00000030: 8a5e a83d cde2 073e f4e4 1d3d 04bc 50bc
00000040: 9bec b9bd d5a0 833d 5e02 d2bd c7a8 933d
00000050: 03cd 103d d4d5 3abd c2a7 29bd 85ff 8abd
00000060: 2de1 b3bc 9099 41bc 51a1 58bc 03f2 2ebd
00000070: aa0a 0a3e 8607 a2bc 750a 70bd 6d00 8dbb
00000080: 97be eebd 9db7 31bd 05d2 f73c 3d1d f7bd
00000090: 414c 53bd ec9e e23b 27c6 d63d 62dd 9dbd
000000a0: 9a3f b0bd 8928 cabc e8f4 10be f76c 9b3d
000000b0: 6fd8 a53d 5055 653c fe2d 74bd 79ca 32bb
000000c0: 64e9 283c fb07 91bd bf98 cc3d 8709 1cbe
000000d0: 27f1 a8bc cdf8 853d eb71 c83d 081d 663d
000000e0: 2093 0a3e 238b c5bc 84fc 2ebd 32e4 c9bd
000000f0: 5548 c93d 1a84 063e b6e3 05bd a3ee 313d
00000100: e616 7dbd 1edf 0a3c 6fc7 85bd f7ae 653c
00000110: d97d 6d3a 1d57 c9bc 7f35 78bd b98b 2cbd
00000120: 54d1 20b8 e34a bdbd 67bf db3d 274a 893d
00000130: 65a7 93bc dd39 cabb 8d17 60bd 371a a23d
00000140: 1048 99bd 0f19 c63c 46d1 4f3d 595b c73d
00000150: 84ce 883c cbdc 163d d628 84bc 992c d7bd
00000160: 8f18 d23c 9a72 a0bc 3acf 2e3c e08a b2bc
00000170: 5fd4 723c 8c82 a5bd c89c 29bd c3fb c93c
00000180: a582 8c3d c452 493c 4993 fb3b 8c62 b6bd
00000190: e95e fcbc 9d72 bd3b b956 373c bba3 0b3e
000001a0: 3b4d ea3d 7b1c bd3d fc89 bc3d 8b3b 85bd
000001b0: 34a0 0e3d 07b9 adbc 554e f73b ac05 e73d
000001c0: 72d4 d0bd 5ea5 d2bc 46ad db3d 8a9b 05bd
000001d0: 02c1 cc3d 5982 9d3c a0f0 5b3c a333 c3bd
000001e0: e854 d43d 2964 66bd 98dd bcbd 12c1 8fbc
000001f0: cacd 49bd 014a 8d3d 0b89 eebd 0bf2 373c
00000200: 7b9a 4cbd 52f0 bcbd 759e 7abd 6b2a f03c
00000210: 50ad c83d 9d56 c9bc 2a24 61bd 923a babd
00000220: 5e64 b2bd 3fd4 c3bd 3b9a cc3d eca2 253d
00000230: 7779 a63c 294c 59bd 15b6 03bd 02ee a73d
00000240: d667 c1bc a1b0 673c dbdd e03b 5202 853c
00000250: 899a 4cbd 44bb 6d3d 93df 90bc b099 19bc
00000260: bf79 00bd 60ab e2bd 6720 943d ccac 013d
00000270: 0ce2 2f3c d0e9 debd 6d96 26bd ea08 c0bd
00000280: 5cd6 0d3e ac44 f3bc 6985 05be 13b1 efbc
00000290: 6412 aa3d 7edd dc3c fa26 c53d 9992 aa3d
000002a0: afce 5dbc a090 a03c b535 a8bb b87b 383c
000002b0: 3a48 69bc 1ea1 a3bd 84a0 813d 4141 bcbd
000002c0: 2dc0 bbbd 0b5e 273d 95f9 0bbc df54 c43d
000002d0: 3ef3 513d 7bb6 02be 84fb 6b3d f9ad fabc
000002e0: a228 c73b f046 1abd fece ad3d a989 983d
000002f0: 7681 cbbd c1be fb3d 678f e3bd 77aa 4c3d
00000300: cbc2 ee3d bb33 d1bd 9d3c 403d 6af1 a7bd
00000310: 24f4 21bd f86b a43d fd7a 983d d7c7 54bd
00000320: 6109 87bb 4a7e c6bd 4384 fdbc 7571 893b
00000330: f3f2 ecbd 9c42 db3d 7d99 e93d 8c07 65bd
00000340: 2975 083c 8952 cabc 91c6 61bc e4fb 7dbd
00000350: aea9 4d3d 02b7 febd 3944 f1bc cad2 05be
00000360: 2e41 293d 1e6c 883d 3b45 64bd dc27 b0bd
00000370: bcf3 6e3d 5d55 c13d a159 19bd e6c2 adbc
00000380: 7e4a 713d 3606 b93c 4dc7 00be d329 263c
00000390: 2956 e7bd b9cf dfbd eeca a83d 3d70 443d
000003a0: 5abe 653c 6a61 b63d 5644 263d d3df e83d
000003b0: 546a bdbd b949 5e3d 38b6 94bd 0d2b d5bd
000003c0: 4e24 9a3d 6622 b23c 31fa 193c 5b8e bb3d
000003d0: fd86 923d 3b52 d13d 1984 c83d 035f a63d
000003e0: 3d70 e53d cac1 edbd 13b6 74bc 62eb 84bc
000003f0: edda fa3c 090e 8a3d 1b00 1e3d 987f c83d
-0.031093968 -0.025054626 0.13622384 -0.0777514 0.031945836 -0.14589973 0.060904093 0.13344891
0.063033156 -0.06394493 -0.053962648 -0.10946969 0.08221157 0.13270111 0.038548425 -0.012740139
-0.09078332 0.06427161 -0.10254358 0.07209926 0.035351764 -0.04561408 -0.041419752 -0.06787018
-0.021957958 -0.011816397 -0.013222055 -0.04271127 0.1348063 -0.019778978 -0.058603723 -0.0043030293
-0.11657446 -0.043387998 0.030251512 -0.12066124 -0.051586393 0.0069159176 0.10487013 -0.07708241
-0.08605881 -0.024677532 -0.14155924 0.07589143 0.08097922 0.013997391 -0.059614174 -0.0027281328
0.010309551 -0.070816 0.099900715 -0.1523801 -0.020622803 0.065415956 0.09787353 0.05618003
0.13532686 -0.024114197 -0.042721286 -0.09857978 0.09828249 0.1313633 -0.032687865 0.043440472
-0.061789416 0.008476047 -0.065321796 0.014018766 0.0009059585 -0.024577672 -0.060597893 -0.042125437
-3.8341925e-05 -0.09242799 0.107298665 0.067035966 -0.018024156 -0.0061714486 -0.05470996 0.07915156
-0.07484448 0.02418187 0.050736688 0.0973422 0.016700037 0.03683166 -0.016132753 -0.10506553
0.025646476 -0.019585896 0.010669524 -0.021794736 0.014821141 -0.080815405 -0.041409284 0.024656182
0.06860856 0.012287799 0.00767747 -0.08905515 -0.030806975 0.0057814852 0.01119011 0.13636677
0.11440512 0.09233948 0.09206006 -0.065054975 0.03482075 -0.021206392 0.0075471797 0.11280379
-0.10196771 -0.025713619 0.10726409 -0.032619037 0.09997751 0.019227194 0.013424069 -0.09531333
0.10367757 -0.056247864 -0.09221953 -0.017548118 -0.04926852 0.06898881 -0.116472326 0.011227141
-0.04995201 -0.09225525 -0.061186273 0.029317101 0.09798682 -0.024577433 -0.05496613 -0.09093203
-0.0871055 -0.09561967 0.099903546 0.040438578 0.02032159 -0.053051148 -0.03215607 0.08199693
-0.023609083 0.014141233 0.0068623847 0.016236458 -0.049952064 0.05803992 -0.017684733 -0.009375021
-0.031366106 -0.110678434 0.07232743 0.031658933 0.010735046 -0.1088444 -0.0406708 -0.093767
0.13851303 -0.029695831 -0.13039173 -0.02925924 0.08304289 0.026961084 0.09626575 0.083287425
-0.013538047 0.019600213 -0.0051333555 0.011259966 -0.014238412 -0.07989715 0.06329444 -0.09192134
-0.09167514 0.04086117 -0.008543392 0.095865004 0.051257364 -0.12764923 0.05761291 -0.030600535
0.006077842 -0.037665308 0.08486746 0.074481316 -0.09936802 0.12292243 -0.11111336 0.049967255
0.116582476 -0.10214945 0.046932805 -0.08200343 -0.03953947 0.08028406 0.07445333 -0.051948395
-0.004120991 -0.096920565 -0.030946856 0.0041944333 -0.115697764 0.10706064 0.11406229 -0.0559154
0.008328714 -0.024697559 -0.013780252 -0.0620078 0.050210647 -0.1243725 -0.029451476 -0.13068691
0.041321926 0.06661247 -0.055730086 -0.086013526 0.058337912 0.0944011 -0.037438992 -0.021211099
0.058908932 0.02258597 -0.12576027 0.010141808 -0.112957306 -0.10928292 0.08241831 0.0479586
0.014022434 0.08905299 0.040592514 0.11370816 -0.09248796 0.054269526 -0.07261318 -0.10408602
0.07526456 0.021744918 0.009398029 0.091580115 0.07154653 0.10220762 0.09790821 0.08123591
0.112030484 -0.11609228 -0.014935988 -0.01622552 0.03062197 0.06740958 0.03857432 0.097899616

lstm.bias_ih_l0 f4 [256]
00000000: e0cb 9abc 1380 99bd ec67 85bb ce30 d9bc
00000010: 9831 103d c32a 653d d598 08bc 14c7 d2bd
00000020: fcd9 efbd 0c39 143d 067e 313c 9711 4dbd
00000030: 8573 7cbd cee2 bc3d 94cf f5bd ec4a b0bd
00000040: 4d65 1cbd 260e d5bc 9b27 683d ed72 7bbb
00000050: d641 683d d248 a0bd ccce fbbd 926e 97bd
00000060: 36d6 ab3c cf76 31bd 5330 a33d a244 af3d
00000070: 5907 bb3c 4e56 e1bd 2c0a e6bd 63eb c03d
00000080: 6863 ddbd 4dfb b9bd af0b 61bd fef2 c53d
00000090: 73b3 99bd 6ed8 be3c 3eeb 82bc 82d1 01bd
000000a0: 9196 eebd d13f 9dbc d721 f33c d033 b93d
000000b0: 7342 763d 8fd1 113e b980 c53d 00b0 8cbd
000000c0: 2472 17bd e1a8 93bd a85c 82bc 9b37 083d
000000d0: ba4c 74bc e92b 07bd 3b4f c73d d5db 3fbd
000000e0: c28f f03d 51f7 3e3d 9ccc 02bd 785f 98bb
000000f0: f82f d1bc 288a a73d b0fb ad3d 118c a23d
00000100: 2606 c0bd 4010 883d b942 b3bd 5816 20bd
00000110: 626e 06bd 7bab 67bc 5288 043e c8e4 16bc
00000120: c5a5 873d 777e 3cbd a0cb 65bc ae0c 893c
00000130: dca1 00bd 432c cd3d cdf2 ccbd 4eaa c0bc
00000140: 7f14 c5bd b7f0 debd fd7b 4fbd 96f0 31bb
00000150: 4399 81bd 46ec c23d d73d e5bd c85f 4ebd
00000160: 097e 20bd eff8 a73d 3486 17bd 1441 6dbd
00000170: 32b2 d0bd 9913 63bd a852 a13d c8bf b8bd
00000180: d374 b9bd f566 833d 8fd9 51bd 7600 c73d
00000190: 7816 c83d e9bf cf3c 0d35 d6bd ffce ae3d
000001a0: 0236 d3bd 1118 08bd 56b8 c4bc 33b9 f7bc
000001b0: 20d1 e53d 6e91 08ba 8b81 5e3d 6971 fd3d
000001c0: be0f 4e3d 290b 7bbd e114 f6bd b0e9 0dbd
000001d0: 392c 59bd f88c e3bc ed86 433c cc2e 843c
000001e0: 5044 2bbb f38a ac3d 53e9 aebd fafb 8d3d
000001f0: e047 a23a 0a10 0ebd 8809 74bd 0238 80bd
00000200: efa3 abbd a5b6 65bc 96e0 d0bc e761 b7bd
00000210: 8b12 0e3d 6ff4 633d 8e40 8cbd ee1f 13bd
00000220: e52b 893d 0c58 19bd 8c4c acbd bdce d03d
00000230: 6b26 973d 25c6 f33d de30 30bd c215 60bc
00000240: 75da 493d 708d c43d 588b 7e3d 048e 80bd
00000250: 3ca4 c2bc 1d47 e03d f125 91bb df3f e3bd
00000260: cc8b d8bd 9d0a f8bc a84a 61bc 4bec a03d
00000270: a722 ecbd cf8e eebd fc2f 113d 8e0e 9ebd
00000280: 1154 d1bc 96f8 08be 2cbe 9e3d f874 d03c
00000290: ba66 d7bb d511 133c 6332 82bd 741b 94bc
000002a0: 5999 9ebd d2ac 093d 6692 e53d a5a8 d6bc
000002b0: e2f9 50bd a6ec e6bd 359a 95bd ebeb d7bd
000002c0: b641 4bbc 182f 3a3d ade0 95bd 740f 08bc
000002d0: e7d4 333d c9dd 3ebd 7446 6fbd 14ed 7bbd
000002e0: deb4 5dbd dedf c23d e02a 393d 70af 333c
000002f0: 6a09 8fbc 7476 363d d3cc b9bd a3f5 a13d
00000300: f637 c13c 1901 db3d 212a 9abd 09d1 af3d
00000310: a5e9 f03d 1b32 a2b9 da87 9dbd c648 563c
00000320: 1451 bcbd 8b1d b4bd f253 dcbd 0d12 93bd
00000330: 882d 773d e579 283d 1f05 10bd f9f8 a7bd
00000340: 227f e5bd a600 77bd 5d6a 783d aede adbd
00000350: b676 c8bd 4b75 88bd 3832 653d 26a5 84bd
00000360: 7593 d23d 1109 393d 2272 a33c d559 aabd
00000370: 010d c03d 548c d8bd 48f3 01bd 9964 c6bd
00000380: feb9 d9bd 149d c4bb f52e 093d fd84 56bd
00000390: 8a4e e9bd 907f c03d 5ae1 e53d 17c8 08be
000003a0: a0f8 90bc 8b80 143d 6a7f 233d 747f b3bd
000003b0: 9d11 cdbd cb90 12bc bf44 e83d 5006 63bd
000003c0: bf97 d6bd 107a bd3d 8737 993d 2f97 89bd
000003d0: 41d9 003d c323 f2bd 6777 8d3c 670b 8f3c
000003e0: d1dd 453d a3bd f43b 3025 323d 77f7 6bbd
000003f0: 715c e7bd 7163 1d3c 3357 513d de3d e8bd
-0.018896043 -0.07495131 -0.0040712263 -0.02651253 0.035203546 0.055948984 -0.008337219 -0.102918774
-0.11711499 0.036187217 0.010833269 -0.050065603 -0.061633606 0.09222947 -0.12002483 -0.0860804
-0.038182545 -0.026007723 0.056678396 -0.0038368062 0.05670341 -0.07826389 -0.12295303 -0.073941365
0.020976167 -0.043326195 0.079682015 0.085580125 0.022830652 -0.110027894 -0.11232409 0.094198965
-0.10809976 -0.09081135 -0.054942783 0.09665488 -0.0750493 0.023296561 -0.015981313 -0.031693943
-0.11649812 -0.01919547 0.029679222 0.090430856 0.060121965 0.14240097 0.096436925 -0.06869507
-0.036974087 -0.072099455 -0.015913323 0.033256155 -0.014910871 -0.03300086 0.09731909 -0.046840508
0.117461696 0.046622578 -0.031933412 -0.0046500526 -0.025535569 0.08180648 0.08495271 0.07936872
-0.09376173 0.066437244 -0.08752961 -0.03908381 -0.032820113 -0.014140005 0.12942627 -0.009209819
0.06623415 -0.046019044 -0.014025599 0.016729679 -0.03140436 0.10018208 -0.10007248 -0.023518708
-0.0962305 -0.108857565 -0.050655354 -0.0027151457 -0.063280605 0.09517722 -0.11193436 -0.050384313
-0.039182696 0.08201777 -0.03699322 -0.05792339 -0.10190238 -0.05543861 0.078770936 -0.09020954
-0.090554856 0.06416122 -0.05123287 0.09716885 0.097699106 0.025360065 -0.104593374 0.08535575
-0.103130355 -0.033226077 -0.02401368 -0.030239677 0.11221528 -0.0005209659 0.05432276 0.12375147
0.05030798 -0.06128994 -0.12015701 -0.03464669 -0.05302069 -0.02777718 0.011934024 0.016135596
-0.0026133247 0.0842494 -0.08540597 0.06932826 0.001238104 -0.034683265 -0.059579402 -0.06260683
-0.08380877 -0.014020597 -0.025497716 -0.0895422 0.034685653 0.055653032 -0.0684825 -0.035919122
0.06697825 -0.037437484 -0.08413038 0.10195682 0.073803745 0.119030274 -0.043015353 -0.0136770625
0.049280602 0.095972896 0.062144607 -0.06277087 -0.023759954 0.10951064 -0.004429572 -0.11096167
-0.10573539 -0.030278498 -0.01375071 0.07857569 -0.11530047 -0.11648332 0.035446152 -0.0771762
-0.025552781 -0.13376078 0.07751116 0.0254464 -0.0065735253 0.008976419 -0.06357267 -0.018079497
-0.077440925 0.03361208 0.11209564 -0.026203463 -0.051019557 -0.11275606 -0.07304803 -0.10543045
-0.012405803 0.04545507 -0.07318244 -0.008304466 0.04390421 -0.04659823 -0.0584168 -0.061505392
-0.054127567 0.095153555 0.045206904 0.0109671205 -0.017460544 0.04454656 -0.0907227 0.079081796
0.023586255 0.10693569 -0.07527567 0.08584792 0.11763314 -0.0003093638 -0.07691927 0.013078874
-0.09195152 -0.087946974 -0.10758199 -0.07181177 0.060346156 0.041131873 -0.035161134 -0.08201785
-0.11205889 -0.060303353 0.06064831 -0.084897384 -0.09788267 -0.06662997 0.055956095 -0.06476812
0.102820314 0.045174662 0.019951884 -0.08317915 0.0937748 -0.105736405 -0.03172615 -0.09687156
-0.10631178 -0.0060001705 0.033492047 -0.05237292 -0.11391933 0.093993306 0.11224623 -0.13357578
-0.017696679 0.0362554 0.039916433 -0.08764544 -0.10013125 -0.008945654 0.11341237 -0.055425942
-0.10478162 0.09251797 0.07481294 -0.06718289 0.03145719 -0.11823227 0.01726885 0.017461492
0.048307244 0.0074688955 0.043492496 -0.057609048 -0.11296929 0.009606228 0.05110855 -0.11339925

lstm.bias_hh_l0 f4 [256]
00000000: acb0 4ebc c3ff 673d f49b 49bd c0b4 cb3c
00000010: 3128 763d fb9a 263d 1f0e c8bc d530 93bc
00000020: c006 3cbd ecdf 963d 48e9 ee3d 246c 003e
00000030: 9b54 313d 96e9 2f3c 104c aebd e23e b1bd
00000040: 39bf a23d b45b 9d3c fb72 23bd 92ae 83bd
00000050: bab8 f13d 8eaa ffbd 09af 083d 9095 673d
00000060: ec19 6f3c 93f3 17bc c829 37bd c199 04bd
00000070: c681 e0bd a673 303d 0fc6 e53c a7a1 c23d
00000080: f69e 683d 4175 d33d c2bf de3d 2477 73bd
00000090: 2a5c a2bd 0889 8bbd a218 00be 5dd9 303d
000000a0: eb46 d2bd e458 e0bc 94aa a8bc 2772 613d
000000b0: 5332 abbd d700 ac3d f6fb 113d 1172 c23d
000000c0: f61b bb3b 9a06 bd3d e43c 473a 9f67 9e3d
000000d0: 3116 4cbc b948 aabc e433 82bd 1542 833c
000000e0: f07a ec3c 9511 8abd 51f9 563d 7c24 f1bd
000000f0: fe05 9abd 9b2f 273c eef7 babd e727 053d
00000100: 9fea a93d c7f6 c83c 8163 d63c 7531 ad3d
00000110: a02c 7dbc 5225 cc3d 6239 983d e729 03be
00000120: 567d b03d 214a 3f3d 3bb0 d8bd 4347 5b3c
00000130: c706 c9bd c8eb 953d d518 8a3d 8ba5 1cbd
00000140: 8c50 21bc 70b2 643d 62d0 dd3b 8894 8abc
00000150: b71d e2bd 45fd 0d3b d8b6 16bd a8ac 34bd
00000160: e650 3abc 5085 e53d a988 203d 527d ee3d
00000170: b70f 313d 9c59 023b 9e68 09be 52a0 aebd
00000180: c4be 35bd 883f 05be f710 813c eb2c c43c
00000190: 0848 9d3d 2ec8 9a3d 91f4 8bbc 105a d73d
000001a0: 5b76 fc3c e56b e3bc 3c7b 82bc 2a5f 3c3d
000001b0: 3406 eb3d e8e7 993d b3f7 08be 2c38 d53c
000001c0: 3f3a d73d 4ded a03c 939b 66bd 54e4 1f3c
000001d0: 7aa3 293b b59a eebd ae47 f03d bf5c 843c
000001e0: 84fa 7e3d 3b02 bfbd a48f 5c3d 6a96 6bbd
000001f0: a2f0 6f3c c298 a7bb 11b3 ef3d b3c3 a73d
00000200: 265a 25bd f2e4 fabd aa99 e1bd 9c1d f1bc
00000210: f9f7 843d b9ba cfbb 34a5 b4bd 005e 36bd
00000220: 21fd bcbd 99c2 d13d 2d44 073e 3c2e e93d
00000230: bf80 a43c e77a 043d 1552 33bd dc8f ce3d
00000240: 195c 373d 3468 8abd c2c0 0a3c 87b8 eabd
00000250: aa37 bfbd dc0e d1bb 8018 4dbd e9d2 7f3d
00000260: 5388 833c 0bd3 21bc cd1a 6fbd 7aed f53c
00000270: eb26 783d 05d0 d63b e080 4c3d b5c0 b23d
00000280: 21e6 ff3d 0994 e33c 096b 923d 4162 383d
00000290: 9098 aa3d 02a2 0b3c d5b0 96bc f958 81bd
000002a0: 56b6 183c 49c4 74bd 40fe ecbc 479e b5bd
000002b0: 6852 2b3d da10 cbbd 0bb2 693d e2f2 a13d
000002c0: e666 ba3d 3070 40bd 6bff c23d c731 b6bd
000002d0: 6a2f 1c3d 583a 87bd 8caa 26bd 8f02 f5bd
000002e0: f318 cd3c d08e edbd aaad 843d 6501 0ebd
000002f0: e58f f2bd 6306 1b3d ba0a 61bd 0548 0fbd
00000300: fe38 dcbd 35cf a33c 3633 86bd 2c05 ca3d
00000310: ef92 d6bd fc6a 873d d4e5 e9bc ee81 09be
00000320: 4444 863d 3547 ac3c 30cc cc3a 8590 38bd
00000330: b7a8 b6bc 1436 29bd e662 953d 196d 83bd
00000340: 596e 5abb f464 96bd 4e70 d83d ac61 143d
00000350: 8b78 9ebd baea 583c 7cb9 bf3d c85a 963c
00000360: f8a1 073d 3785 42bd 245e 443d 0681 323b
00000370: 984b da3d bfdd 953c cc4b bd3c 47ee c3bc
00000380: 42f1 873d cf80 97bc 0531 343d b946 1e3d
00000390: 4fb6 d03d 3b27 99bd f336 8c3d ebc6 b1bd
000003a0: 69c4 833c 6a6b 2cbb 72a3 a0bc 5083 cebd
000003b0: c3e4 533d 50de 4cbd f4d8 ab3d 64e6 7d3b
000003c0: 369c 3abc 342a 04be 8bf6 a7bc dc43 aebc
000003d0: 0b5e a9bd c343 a0bd 994c ac3d e7df 6e3d
000003e0: a1af 40bc 393a 68bc f4e5 1ebc e37e 81bd
000003f0: a10b cfbd b71a 1a3d fddd a13b 62c8 543d
-0.012615364 0.056640398 -0.049220994 0.024866462 0.060096923 0.040675145 -0.024420796 -0.01796762
-0.045904875 0.073669285 0.116655886 0.12541252 0.043293577 0.010736844 -0.085106015 -0.08654572
0.07946629 0.019208767 -0.039904576 -0.06429781 0.11802812 -0.124837026 0.03337005 0.05653912
0.014593583 -0.009274381 -0.04471758 -0.032373194 -0.10962252 0.04307904 0.028048543 0.09503489
0.056792222 0.10325099 0.10876419 -0.059439793 -0.07927735 -0.06813246 -0.12509397 0.043176044
-0.10267433 -0.027386136 -0.02058915 0.055040505 -0.08359208 0.08398598 0.03564068 0.09494413
0.0057101203 0.09229775 0.0007600321 0.07734608 -0.012456463 -0.02078663 -0.063575536 0.016022721
0.028867215 -0.06741635 0.05248386 -0.11774537 -0.07520674 0.010204221 -0.0912932 0.032508757
0.082967035 0.024531735 0.026170494 0.08456699 -0.015452534 0.09968056 0.0743282 -0.12808953
0.08617656 0.046701554 -0.10580488 0.013383689 -0.09815746 0.07320362 0.067430176 -0.03824381
-0.009845864 0.055834234 0.006769226 -0.016916528 -0.11040824 0.0021665853 -0.036795467 -0.04410997
-0.011371827 0.11207068 0.03919283 0.11644997 0.043227877 0.0019889837 -0.13418815 -0.085266724
-0.04437138 -0.13012516 0.01575516 0.0239472 0.076797545 0.075577125 -0.017084392 0.10515225
0.030818155 -0.027761409 -0.015927903 0.045989193 0.114757925 0.07514936 -0.1337574 0.026027761
0.105091564 0.019644404 -0.05630071 0.0097590275 0.0025884793 -0.11650602 0.11732422 0.016157506
0.06225063 -0.09326597 0.053847924 -0.057516493 0.014644774 -0.0051146457 0.11704076 0.081916235
-0.040369175 -0.12250699 -0.11015637 -0.029433064 0.064926095 -0.0063393977 -0.088205725 -0.04452324
-0.09227968 0.10242195 0.13209601 0.11385772 0.020080922 0.03234377 -0.04377945 0.10086033
0.044765566 -0.067581564 0.008468809 -0.11460977 -0.09336789 -0.006379945 -0.050072193 0.062457
0.016056215 -0.009876977 -0.05837517 0.030020464 0.06058399 0.0065555596 0.049927592 0.08728162
0.124950655 0.02778055 0.071493216 0.045015577 0.0832988 0.008522512 -0.018394867 -0.06315798
0.009320816 -0.059757505 -0.02892983 -0.0886808 0.041826636 -0.099153236 0.05705456 0.07907654
0.091016576 -0.04698199 0.09521373 -0.08896213 0.038131155 -0.06602925 -0.04068999 -0.11963379
0.02503631 -0.11599505 0.06478436 -0.0346693 -0.11843852 0.037847888 -0.05494187 -0.034980793
-0.10753058 0.019996265 -0.065527365 0.09864268 -0.10477244 0.066122025 -0.028551973 -0.1342847
0.065559894 0.021030048 0.0015624817 -0.0450597 -0.022297246 -0.04131134 0.07294254 -0.06417293
-0.0033329932 -0.07343474 0.105682954 0.03622596 -0.077378355 0.013239557 0.0936155 0.018353835
0.03311345 -0.047490325 0.047941342 0.0027237548 0.106589496 0.018294213 0.023107432 -0.02391733
0.06637813 -0.018494038 0.04399206 0.038641665 0.101910226 -0.07478186 0.06846418 -0.08680519
0.016084867 -0.002630914 -0.019609187 -0.100836396 0.051731836 -0.0500167 0.0839099 0.003874206
-0.011389783 -0.12906724 -0.020503303 -0.021272592 -0.082698904 -0.078254245 0.08413047 0.058319
-0.011760623 -0.014174038 -0.00969838 -0.0632303 -0.1010964 0.037623134 0.004939793 0.051948912

lstm.weight_ih_l1 f4 [256, 64]
00000000: 1095 be3d d305 443d b8c8 bdbd 735b a4bd
00000010: 72c4 e9bd c15c 8fbd 4959 a3bc 9e0e 933d
00000020: 684b aa3c 2430 e5bd 0c72 68bd 5e2f 813d
00000030: 738e 473d 04a8 e9bd bd41 993d 8e97 ee3b
00000040: 0506 da3d 16bc 2a3c 35aa 883d b6df 1b3b
00000050: 7186 97bd 81ac 88bc 91e6 ee3d 239f cf3c
00000060: b1d1 fc3d 507b 463a c910 c63c 3792 aebc
00000070: f8de 3abd d61b a1bd dfa9 95bd 80a3 c0bd
00000080: 390f 073d 55dd 83bc 9c10 ee3d d771 fc3c
00000090: 76c1 83bd 3eb4 febc 309c 75bd 06c9 9dbd
000000a0: 11d7 a3bd d465 c5bd fd82 b3bd 9dc2 a0bd
000000b0: 275d 593d fdb3 1ebd 4467 76bd 1a63 c83d
000000c0: 0f00 f23c 76ea 893d ad2f 943d 6962 aabd
000000d0: 4018 f3bd aadb 9f3d 167d 89bd 9c7b b6bd
000000e0: 9e19 82bd 7c5e 5f3d 3ce5 b2bd c2a1 12bd
000000f0: 57d1 6c3d 01f2 a83c 4ce8 a13d 445a 493d
00000100: 9828 783d 1bb7 023e cc30 2fbd ea04 d3bd
00000110: 52f7 bebd 33e0 003e 6fd8 18bd ad11 ce3d
00000120: e2ce 7e3d b450 a83d 1a4e 823b 50b6 6f3d
00000130: 8773 fcbd 3a8c ecbc 23a6 cbbc 690b d23c
00000140: 9e86 af3c 67ff 9bbc 3741 503d a91c 963d
00000150: 1755 ec3c 6cd9 56bd f66c b3bd 640c 55ba
00000160: e337 443d 1e42 16bd 3f0a fcbc dd65 d6bd
00000170: 1e25 2c3d 8c05 953d aa1e 0b3c 320a dd3d
00000180: e400 e63c c4d9 dd3d 6d2b c63c 2837 2dbd
00000190: 01a7 42bd 8514 e03c 2bc8 003d 2982 83bd
000001a0: 8dac 42bd 2f0b 30bd 1474 e33d a00c 38bc
000001b0: ddcb 8bbd ceee 023e ef39 03bd b12a 503c
000001c0: 4d18 60bd ea35 e1bd efa4 f63c f3db a33d
000001d0: b76b 67bd 3c99 c5bb f5e7 c43d bed1 09bd
000001e0: 8e39 edbd 5286 4a3d d0c0 d93d 61c0 e93d
000001f0: 4f14 a63d 6cbc 1f3d e19f aabd 62c6 dbbd
00000200: 4fe4 273e b4ae 833d e2b7 d039 bb9f fa3a
00000210: 3fc9 91bc 7931 a23d 178d 993d 8e32 9fbd
00000220: 8b5d 4dbd 97ff 923d 74e4 78bd 1b48 afbd
00000230: 2f44 943c 349f aebd 5773 953c bc76 983c
00000240: dacf 9fbd ed3e 763d 27a0 04bd 31a8 cb3d
00000250: 72c5 05be 6ada 563d f6e1 a53d 5616 073c
00000260: 1518 fa3c baae 8dbd cc2d 67bd 0129 053e
00000270: 0c1e b4bd 0445 8bbd dc16 fa3b 5665 b6bd
00000280: 2d84 a7bd 4934 533d 609e 23bd dbbb ebbd
00000290: 00ce d23d 3d14 133d b367 1b3c 73a7 c1bd
000002a0: 70c6 b8bb a19f e1bc 3fd4 bbbd c0df 07be
000002b0: 3de9 9d3d 0247 b7bd efd7 643d 9cec 5fbd
000002c0: c849 5abd 8f6a c43d 5531 a5bd fe46 29bd
000002d0: 389a 703d d447 fb3c c39e df3d 1fd8 91bd
000002e0: 61ed 4f3d 2969 b53a 1d8c 04bd a93b 81bd
000002f0: 5984 663c 41c5 35bd 7aa5 fabc 5fd4 82bc
00000300: f518 b1bd 8007 9fbd 63ca d73d c08a 3cbd
00000310: f22c 7d3d 33de c73d d923 8abd 2776 963d
00000320: 76f5 6f3d 0f8e 733d c6f4 403d 71c4 cf3c
00000330: e58c 85bb 14b5 f43d 02b2 99bd 157c a5bd
00000340: 8d28 7cbc 5a2d bd3c 77bf bd3d 1c12 c33d
00000350: c834 673d 2bbd c33d 2371 1b3d 45f2 e5bd
00000360: 8c0f b8bd a989 acbd cdc3 d13d ea98 823d
00000370: 00b6 e9bc 944d a9bb bb15 e6bc 1818 f7bd
00000380: 83cc 04be f2ac 33bd 854e d7bd 5081 e1bd
00000390: cceb f13c 9b15 cfbc 4f70 84bc 3d76 eabd
000003a0: 037d fabd ce91 eebd de64 c0bc 0c59 62bc
000003b0: 5420 bc3d da77 063e 0b78 81bd dddc 1dbb
000003c0: c65b 123d 0ff6 bd3d e074 303d b2c3 c5bd
000003d0: 98c5 e1bd cd37 eebd a2a9 18bd 2c91 db3d
000003e0: d69f a3bd 2326 1a3b a683 a03d 8bb4 c8bc
000003f0: 7247 1b3c 15de 54bd 1c13 c43d b1da 0cbe
0.09305775 0.047857117 -0.092668 -0.08025255 -0.11414422 -0.07000113 -0.019940035 0.071805224
0.02078791 -0.11190823 -0.05674939 0.06307863 0.048719835 -0.114089996 0.07483242 0.0072812503
0.106456794 0.01042082 0.066730894 0.0023784465 -0.073986895 -0.016683819 0.11665071 0.025344437
0.12344683 0.00075714756 0.024177926 -0.021309955 -0.045622796 -0.078666374 -0.07307791 -0.09406185
0.0329735 -0.01609675 0.11624262 0.030816002 -0.06433384 -0.031091806 -0.059963405 -0.07704358
-0.08000005 -0.09638563 -0.087652184 -0.078496195 0.053067353 -0.03874587 -0.060157076 0.09784527
0.029541044 0.06734173 0.07235656 -0.083195515 -0.1186986 0.078055695 -0.067133114 -0.08910295
-0.06352542 0.054533467 -0.08735129 -0.035798796 0.05781683 0.020623209 0.07905635 0.04915835
0.06058559 0.12765162 -0.042771146 -0.10303672 -0.09324516 0.12585525 -0.037315782 0.10061965
0.062209018 0.08218518 0.0039765956 0.058523476 -0.123267226 -0.028875459 -0.024859494 0.025640206
0.021426495 -0.019042684 0.050843444 0.07329685 0.028849168 -0.052453443 -0.08761017 -0.00081271515
0.04790486 -0.036684148 -0.030766604 -0.10468648 0.042027585 0.072764486 0.008491198 0.1079296
0.028076597 0.10832551 0.024190629 -0.04228893 -0.04752255 0.027353534 0.031440895 -0.064213105
-0.04752784 -0.042979416 0.111061245 -0.011233479 -0.06825993 0.1278641 -0.03203767 0.012705491
-0.054710675 -0.109966114 0.030107943 0.08000936 -0.05649921 -0.00603023 0.09614555 -0.03364729
-0.11583243 0.049444504 0.10632479 0.114136465 0.08109342 0.038998052 -0.08331276 -0.10731198
0.16395687 0.06429806 0.00039809855 0.001912109 -0.017796157 0.079195924 0.07497614 -0.077733144
-0.050138038 0.07177656 -0.060764745 -0.08558675 0.018098919 -0.08526459 0.018243475 0.018611304
-0.078033164 0.060118604 -0.032379296 0.09944189 -0.130636 0.05245439 0.08099739 0.008245071
0.030529061 -0.06918092 -0.05644016 0.13003923 -0.087947935 -0.06800273 0.0076321196 -0.08906047
-0.081795074 0.051563535 -0.03994596 -0.1151044 0.10293198 0.035907973 0.009485173 -0.094557665
-0.00563889 -0.027541937 -0.09171342 -0.13268948 0.07710502 -0.089490905 0.055869993 -0.054669008
-0.05329302 0.09590637 -0.0806605 -0.04132747 0.058740824 0.030673899 0.10918953 -0.071213
0.05076349 0.0013840544 -0.032360185 -0.063102074 0.01406964 -0.04437757 -0.030596483 -0.015970407
-0.08647338 -0.077651024 0.10536649 -0.04603076 0.06181044 0.09759178 -0.06745119 0.073467545
0.0585837 0.05946165 0.047108434 0.025362225 -0.004075634 0.119486004 -0.075046554 -0.080803074
-0.015390527 0.023092914 0.09265035 0.095249385 0.05644682 0.09557565 0.037949692 -0.1122785
-0.0898734 -0.08424694 0.10242424 0.06376822 -0.028529167 -0.0051667187 -0.028086534 -0.120651424
-0.1296864 -0.043866105 -0.10513023 -0.110109925 0.029531382 -0.025278857 -0.016166834 -0.114483334
-0.12230875 -0.11648904 -0.023485597 -0.013815176 0.091858536 0.13131657 -0.063217245 -0.0024087944
0.035732053 0.092754476 0.04308021 -0.096564665 -0.11024016 -0.11631737 -0.03727115 0.10721049
-0.07989471 0.0023521266 0.0783761 -0.024500152 0.009477483 -0.051969606 0.09573957 -0.13755299

lstm.weight_hh_l1 f4 [256, 64]
00000000: bc50 debd a53d 953d 9d91 98bd 7509 66bd
00000010: 86e1 c5bd 2811 103d c5f0 be3d 9880 4a38
00000020: 591f e13d 7844 463d b2ec b33d b388 afbd
00000030: e0db 5c3c e15c e83c 88bd 67bd 33ad 003d
00000040: 1209 3fbc 0129 083d 0f12 11bd 4b51 873d
00000050: 9c12 803c a39e ccbb da08 8c3d b74c 513d
00000060: 98e4 d0bd 8896 913d 570e 11bd 5a8f acbd
00000070: d28d d33d 2559 d83d 7a27 da3d c810 8e3c
00000080: e7c2 4ebd 45a8 ebbc 8cfe 53bd dbbb c23d
00000090: cb03 5fbd 78da ba3c 7bb8 c03d 3b4a 483d
000000a0: ff5d d3bd 451d d8bd c339 4a3d ea9b f23d
000000b0: 0f7a bfbd 8513 e43d a758 65bc 025a a83d
000000c0: a31a d1bd 552d 8b3d 4fd0 d03d e754 e13d
000000d0: 9d7a 06bb d804 3f3c 07e9 013e 3cd5 fbbd
000000e0: 4f1a 7ebd 7d13 febc 0fb4 913d e9f6 babb
000000f0: 7687 b63d 9f79 8cbd 0139 cebd 0cfc 0bbd
00000100: f99b 4abd af6a 86bd 5303 5ebd 467c c13d
00000110: 217d cfbd 5be4 083e b3cf 663d ef0f d03d
00000120: e7fa 8c3d d904 c5bc b0bb 62bc 6518 4e3c
00000130: 9167 c5bd dae7 ee3a 9b1f 083c f062 8d3c
00000140: daf6 cb3d c8de 163d c257 413d f3b6 63bd
00000150: 72af a53d 98be 403d c32e c13d 4ae7 81bd
00000160: 66a5 09bd 2561 9dbc 9a0a 17bc 8957 6bbd
00000170: ae51 083e fe90 a4bd 57e3 d43d 7637 913d
00000180: ec73 cfbd 9c9a 9abd f3e2 8a3d 69ad d3bd
00000190: 871a a7bd 121a 293d c5de 27bd c735 e8bd
000001a0: 8a80 84bd c8ca ebbd 8345 f53d 1e97 fb3d
000001b0: 1986 ab3d 69a0 d03d b9b8 673c 7230 9ebd
000001c0: d0c3 d4bd 44cd adbd 6904 3d3d ed8a e5bd
000001d0: 1297 96bd 7103 20bd 7a56 1ebd 0f9d 42bd
000001e0: 8b49 cebd b6ec 973c 1a9d f3bc 3edf a03d
000001f0: fc6c 193c edeb 973c c353 59bd 9432 103e
00000200: 27cf 08bd be4c 503d 0898 55bd 17c2 9bbd
00000210: 14b3 65bd 790f a3bd 342c 053d 7f4d 8e3d
00000220: 2251 85bd c3c9 48bc dd6b 013e 95bc f53d
00000230: 79f1 96bd 85c7 9f3d 54fd 0bbd 752b 143e
00000240: e8dd 593d 0ba2 a8bd 88e4 8e3c 16be ce3d
00000250: 53ae 143d 315e 203c 0a41 fabc 4fc8 e7bd
00000260: 6f52 4bbd ed5e d83b 2641 bcbd db6c 3e3d
00000270: 2683 bdbd 25cd ef3d 471d c8bd baac 9fbd
00000280: 9c4f af3d 9d60 e4bd e5a4 373b 1e24 633d
00000290: d718 c7bd 5897 dcbd 3131 b3bd 211e ba3d
000002a0: 4b91 acbc 6f3d 06be 7231 f7bd fcd8 2d3c
000002b0: e75d 01be 8162 03bd 03af f73d 59dd fabd
000002c0: 1946 8c3d c90f 30bc b6da b2bd 1d80 c0bd
000002d0: ecc8 3bbd 8f3c a1bd d848 10bd 4edb 013d
000002e0: 4cf2 003d 71dd dbbd a68f e4bb 3606 f6bd
000002f0: bd0f ad3d d60f b13d f504 8ebd 9f3d b7bc
00000300: 51ad 073e 8c9a 4e3b 0433 fb3d bf67 863d
00000310: 12d0 ae3c c04f 0d3c daa9 adbd ae9a 89bd
00000320: f9d3 febb c915 bfbc 9a86 f33c 9e61 bf3d
00000330: e9d2 86bd 6606 d33d 5a2e 7ebd 9216 ad3c
00000340: 041f 7dbd 3f3b 17bd 6f72 d6bd e982 a4bd
00000350: ae3c 803d 2c47 c13c 62f1 153d ecfe a73d
00000360: 74d1 85bc ed80 4c3d 1134 54bc 06fc 75bd
00000370: 1989 8dbd 2ff8 c5bd 0b4b acbb 9a94 5a3d
00000380: af2a bfbc 7818 083b b077 8b3d c904 df3b
00000390: ea98 6bbd e647 253d 364b b0bd bf19 53bd
000003a0: cf47 d03d 1e66 83bc 32f0 41bc 9a10 b5bc
000003b0: 0d0b adbd b394 b93d 1b74 b3bb 762f cbbd
000003c0: 6839 0b3d 3a47 a13d d9c5 33bc 39d5 c0bd
000003d0: 6e10 e1bd ff0f 44bd 50c4 bbbd b973 cb3d
000003e0: da99 7dbd 8e07 083d 0846 9d3d 8364 ac3d
000003f0: 41e6 7abd df34 ac3d 94ef 87bd d3b3 4abb
-0.108552426 0.072871484 -0.074496485 -0.056161363 -0.09662156 0.03517261 0.09323267 4.8280315e-05
0.10992307 0.04840514 0.087853804 -0.08570995 0.013480157 0.0283646 -0.056577235 0.031415176
-0.011659877 0.03324223 -0.035417613 0.06607302 0.015633874 -0.006244497 0.06837626 0.05109855
-0.10199851 0.0710879 -0.035414066 -0.0842578 0.103297845 0.10563878 0.10652061 0.017341986
-0.050478842 -0.02876676 -0.051756427 0.09508487 -0.054446977 0.022809252 0.09410187 0.048898917
-0.10320663 -0.10552458 0.049371492 0.118461445 -0.09349453 0.111365356 -0.013998187 0.08220293
-0.10210159 0.06795756 0.10195982 0.11002522 -0.002051986 0.01165887 0.12686549 -0.122965306
-0.06203681 -0.031015152 0.071144216 -0.0057057035 0.08912556 -0.06859135 -0.100694664 -0.034175918
-0.049465153 -0.06563317 -0.05420239 0.094475314 -0.10131288 0.1336836 0.05635042 0.10159289
0.06883793 -0.024050163 -0.0138386935 0.012579058 -0.09638894 0.0018227056 0.008308317 0.017259091
0.099591926 0.036833555 0.047202833 -0.055594396 0.08090104 0.047056764 0.09432747 -0.06342943
-0.033605002 -0.019211361 -0.009218836 -0.057456527 0.13312408 -0.080354676 0.10394924 0.070906565
-0.10129532 -0.07549021 0.067815684 -0.1033581 -0.081593566 0.04128463 -0.040983934 -0.11338382
-0.064698294 -0.11513287 0.11976149 0.12284683 0.083751865 0.10186846 0.014143162 -0.07724084
-0.10388911 -0.08486417 0.046146784 -0.112081386 -0.07353033 -0.039065782 -0.03865669 -0.047513064
-0.10072621 0.01854549 -0.029737998 0.0785508 0.009364363 0.018545115 -0.053058397 0.14081794
-0.03340068 0.050854437 -0.05214694 -0.07605379 -0.056078985 -0.079619355 0.03251286 0.06948375
-0.065096155 -0.012255135 0.12638803 0.1199886 -0.07370276 0.07801727 -0.03417714 0.14469703
0.053190142 -0.08234032 0.017442957 0.1009485 0.03629906 0.009788082 -0.030548591 -0.11317503
-0.04963916 0.006603113 -0.091921136 0.04649053 -0.0925353 0.1170905 -0.09771209 -0.07796617
0.08560106 -0.1115124 0.0028021869 0.055454366 -0.09721535 -0.10771054 -0.08749617 0.09087778
-0.021065375 -0.13109373 -0.12069978 0.010610815 -0.12633477 -0.032076363 0.12093928 -0.1224925
0.068493076 -0.010745951 -0.08733122 -0.09399436 -0.04584591 -0.07872879 -0.03522572 0.031703286
0.031481072 -0.10735596 -0.006975132 -0.120129034 0.084502675 0.086455986 -0.06934539 -0.02236825
0.13249709 0.0031525223 0.1226559 0.06562757 0.02133945 0.008624971 -0.08479662 -0.06718956
-0.007776734 -0.023325818 0.029727269 0.09344791 -0.06583197 0.10303955 -0.062055923 0.021128926
-0.061797157 -0.036921736 -0.10471045 -0.08032782 0.06261574 0.023593508 0.036607154 0.08202919
-0.016335227 0.04992764 -0.012951867 -0.0600548 -0.06910915 -0.09666478 -0.0052579693 0.053364374
-0.023335783 0.0020766538 0.06809938 0.0068059904 -0.057518877 0.04035177 -0.08608095 -0.051538225
0.101699464 -0.016039904 -0.011837052 -0.022102643 -0.084493734 0.09061565 -0.0054764873 -0.09921162
0.033990294 0.078749135 -0.0109724635 -0.09415669 -0.10989462 -0.047866818 -0.09168303 0.09934182
-0.061914302 0.03321033 0.07679373 0.084176086 -0.061254743 0.08408522 -0.06637493 -0.0030929937

lstm.bias_ih_l1 f4 [256]
00000000: db1a 5a3d 693d ca3d 1ff7 eebd 77a9 39bc
00000010: c240 05be 1998 a6bd 26ef 5bbd 61a7 9abd
00000020: 84a2 07bd 3ed7 d23d 11c8 ba3d fa88 213d
00000030: 3557 313d 8d9d 213b f153 d2bd 2f4b 8fbc
00000040: 97f0 09bd be61 ea3c e679 4638 c72b cbbd
00000050: 7825 353c f8c7 cabd 1e28 23bd 6cb9 d2bd
00000060: e2a3 8abd 16e2 b2bd ed08 193d 0aee cabd
00000070: 633a 313c c008 a8bd b1f3 823d f61b fdbd
00000080: 2782 d2bc c707 683d 87b0 613d 18f5 bb3d
00000090: b18d b9bd 8fd1 87bd 486f bebc d54b 733d
000000a0: a8be a03d df7a 24bd 57e5 ca3d 70ab 163d
000000b0: 2166 003d 0bbd bcbd 53dc 80bd e382 a5bd
000000c0: 2693 613d ee32 75bc 8a8a 79bd 84f9 49bc
000000d0: 1b27 dc3d 3658 96bc abff 043e 9fe5 4abd
000000e0: fd91 aebd df1f 083c cb4a aebd ad06 613c
000000f0: 85a0 89bd 5bd4 0ebd 123e d73d 9121 7dbd
00000100: 32da 8a3d d43c c43d 6998 30bd 0ebc 82bd
00000110: 575a c73d 66e9 bbbd 8431 01bd 471f ce3b
00000120: f4be 3e3d c2c2 6cbd 12b1 3abb 34e1 ab3d
00000130: cb44 c03c 552f 843d f471 84bd bd25 b13d
00000140: f8ac 183d e4d6 b33d 58b0 8e3c 7b58 a33c
00000150: 7867 6b3d b122 9dbd ec9d f23d faf3 d33c
00000160: dadd 6abd 44a4 55bd 1e02 a3bd c5c5 11bc
00000170: 9a41 dabd 5ffb b4bc 6788 fe3a 049f b7bc
00000180: 6471 e0bd ab24 78bd d01a 9bbd 2ebf c83c
00000190: 9a57 6d3d 07f5 693d 4f37 b9bd 101b d33d
000001a0: 1d29 873d 9e5d cdbd a171 e63d c03f 16bd
000001b0: 77b7 d2bd 7f06 f23d 0954 d73d 7a88 583d
000001c0: 91a0 683d 942f 45bd df63 a63d c721 093e
000001d0: 2ac6 aebd 63c6 fabc d6da 87bc 8444 cbbc
000001e0: ad5c 0fbd c4c2 8d3d b5aa c3bb 79e8 cebc
000001f0: d85e 59bd 3019 8abd 3102 efbd 9d1e 58bd
00000200: 9b86 3cbd 5272 e0bd bc25 603d c24d 1bbd
00000210: 7647 b4bd 0b12 edbd e540 cf3d 104a a33d
00000220: d4ad 02bd 73ac ebbd c7ab d0bc 6892 1a3d
00000230: b0ad 65bd 07c0 ecbc 6cfc b23d 72bd 04bc
00000240: 5d43 0abe e687 ff3d de22 d2bc 3f23 81bd
00000250: 1526 e83c e53b ea3d c872 a33d aa9b 023b
00000260: 3655 723b d208 4d3d c869 8ebd 0fa0 aa39
00000270: c2a3 f6bd 89ce de3c 1cdf 40bd e9e1 87bd
00000280: 5543 1e3d 4e0f e03d 7ea3 e83d b48e ddbd
00000290: b8c4 07bc ff58 a83d e1a3 27bd bf0a 933d
000002a0: 863e db3d 41ff 18bd 433b fabb 7e6e 9fbc
000002b0: 8831 febc 6823 0fbd 2c5e 9e3d 6637 93bd
000002c0: 5b8c 96bd c963 18bd 7b88 8cbd 7a8e b53d
000002d0: 32dc d83d f541 f73d 0f00 a4bc cea4 f6bb
000002e0: 460d 773d 62e0 cb3d ec8c 0f3d 5c13 403d
000002f0: 2e75 70bc fba6 ffbd 950e 8b3c 0b65 b8bd
00000300: 7358 b43d 7449 a0bd a18f 1abc b0df 3c3d
00000310: 7d3a c9bd 9459 bebd 23ca 0cbd 8956 1a3d
00000320: 3bda fc3b ede4 a93d e373 b03d 1637 87bc
00000330: 78ad b43c 2896 a63a 24b3 e7bd d9aa 8d3d
00000340: a3a6 e4bd 88bc b03b 0551 ef3d 4616 2e3d
00000350: 78d6 4b3c 8479 86bd fef8 a7bd 024a 333d
00000360: 886b 62bc 4103 e43d 94ae e5bc 47ea 69bb
00000370: ad11 3c3d 1309 683d 0227 673d e72d ecbc
00000380: b789 733d f100 ba3c 4b68 8e3a 35f1 dabd
00000390: 5e3e 173d 3e95 12bd 855b 9cbd f052 923d
000003a0: 0d24 933d 878a ad3d bde4 e03c 319d 4b3d
000003b0: 1f71 0e3d e0f1 1cbd da6b 403c 9e96 cabc
000003c0: be7c 1bbd 0ec9 05bc fc84 f03c 5e92 c2bd
000003d0: ffab 30bd d437 23bd 6437 193d 2049 ef3c
000003e0: faca 373c 5fc3 373c b15c 493b c4cc 8a3d
000003f0: 6ece 733c 6de8 603d 8b1c d6bd 07f4 183d
0.053248268 0.09874994 -0.11668228 -0.0113319075 -0.13012984 -0.08134479 -0.053694867 -0.07551456
-0.03311397 0.102949604 0.09120191 0.03943727 0.043296058 0.0024660558 -0.10269917 -0.017491905
-0.03367671 0.02861106 4.7320405e-05 -0.09920459 0.0110562965 -0.09901422 -0.03983318 -0.10289273
-0.067695394 -0.08734529 0.037362028 -0.099086836 0.010817143 -0.08204794 0.06394137 -0.12358849
-0.025696827 0.056648042 0.05509999 0.09177607 -0.090602286 -0.06631767 -0.023246422 0.05939849
0.07848865 -0.04015624 0.09907024 0.03678459 0.031347398 -0.092157446 -0.062920235 -0.08081605
0.055071972 -0.014965756 -0.060923137 -0.012327556 0.10749646 -0.01835261 0.12988155 -0.04953539
-0.08523939 0.00830838 -0.085103594 0.013734502 -0.0672007 -0.034870487 0.10509886 -0.06179959
0.06779899 0.095819145 -0.0431141 -0.06383525 0.09734028 -0.091753766 -0.031541362 0.0062903496
0.046568826 -0.057802923 -0.002848689 0.083925635 0.023470303 0.0645434 -0.06467047 0.08649776
0.03727433 0.087812215 0.017418072 0.019939652 0.057471722 -0.076726325 0.118465275 0.025873173
-0.05734048 -0.05215861 -0.07959388 -0.00889725 -0.10657044 -0.02209252 0.0019419313 -0.022414692
-0.109591275 -0.060581844 -0.075734735 0.024505224 0.05794487 0.057118442 -0.090437524 0.10307896
0.065996386 -0.10027622 0.11252142 -0.03668189 -0.102888994 0.11817645 0.10514075 0.05286453
0.056793753 -0.048141077 0.08124518 0.13391791 -0.085338905 -0.030612176 -0.016583841 -0.024812944
-0.035000492 0.06921914 -0.0059712776 -0.025257336 -0.053068966 -0.067430854 -0.1167034 -0.05276357
-0.046026807 -0.10959305 0.054723486 -0.037915953 -0.088026926 -0.11575707 0.101197995 0.07973111
-0.031904057 -0.115075015 -0.025472535 0.03773728 -0.056073844 -0.02890016 0.08739552 -0.008101808
-0.1350226 0.124770924 -0.025651392 -0.06305551 0.028338471 0.11437205 0.07980877 0.0019929209
0.003697706 0.05005724 -0.0695377 0.0003254418 -0.12042953 0.027198093 -0.047087774 -0.06634886
0.03863843 0.10940419 0.11359309 -0.10818234 -0.0082866475 0.082201 -0.04092777 0.07179784
0.10705285 -0.037352804 -0.007636459 -0.019461866 -0.031029478 -0.034945875 0.077328056 -0.07188301
-0.073509894 -0.037204538 -0.06861969 0.08865066 0.10588874 0.12073127 -0.02001956 -0.0075269705
0.060315393 0.09954907 0.035046503 0.046893463 -0.014676375 -0.12483021 0.016974727 -0.090036474
0.08805933 -0.0782651 -0.009433658 0.046111763 -0.09825609 -0.092944294 -0.03437246 0.037680183
0.007716445 0.08295617 0.08615854 -0.01650576 0.022055373 0.0012709545 -0.11313465 0.06917352
-0.11164596 0.0053935684 0.11685375 0.04250171 0.01244127 -0.06566146 -0.08201788 0.04377175
-0.013819583 0.11133433 -0.028037347 -0.0035692619 0.045915294 0.05664928 0.056433685 -0.028830482
0.059457507 0.022705527 0.0010864822 -0.10690538 0.036924712 -0.03578686 -0.076346435 0.07144725
0.071846105 0.084736876 0.02745282 0.049710456 0.03477585 -0.038316607 0.011744464 -0.024730023
-0.03796076 -0.008165611 0.029360287 -0.095005736 -0.04313278 -0.039848164 0.03740634 0.029209673
0.011217827 0.011216014 0.0030725414 0.06777337 0.01488076 0.05490916 -0.10454663 0.037342098
