output/LSTM2CNN/LSTM2CNN_adam_32_100/model/LSTM2CNN_epoch_39.pth (torch, 350126 bytes, 16 tensors)

lstm.weight_ih_l0 f4 [256, 11]
000000 54 60 d2 bd 4e 9f f3 3d 90 22 cf bc ed 14 66 3d
       -0.102722794 0.11895619 -0.025285035 0.0561723
000010 53 6c 0e 3e fb ed 23 be 1e 4c 45 3d 90 88 87 bc
       0.1390851 -0.16008751 0.048168294 -0.01654461
000020 78 82 ca 3d 63 a6 88 3c 58 d4 84 3d c1 8b fb b9
       0.09888166 0.016680902 0.06485814 -0.00047978575
000030 6c 6c 98 bd ff 67 0f 3d 82 4c 11 bc 74 46 3c be
       -0.07442555 0.035011288 -0.008868339 -0.1838625
000040 af 20 7e bd 82 a8 12 bd 00 47 fb bd ef 76 28 be
       -0.06204289 -0.035805233 -0.122694016 -0.1645162
000050 02 2b 0f 3d fb 67 a8 3d 6c dc 35 3e db ef 71 3e
       0.034953125 0.08222958 0.17759866 0.23626654
000060 f9 8b 18 3d 8e 07 91 bd d6 a6 fa bd c6 81 87 3e
       0.037242863 -0.07081519 -0.12238853 0.26466197
000070 c6 cc 0f bc c5 78 c9 bd 66 f8 5c be 30 33 8c be
       -0.008776849 -0.09837488 -0.21579131 -0.27382803
000080 44 40 9e 3c cc d9 1b bd 0f 21 36 3d dd ef bc 3c
       0.019317754 -0.038049504 0.04446512 0.023063594
000090 3f d3 e7 3d 2d 81 c7 bd 24 b5 86 3d 1e 3b 26 3e
       0.11319589 -0.09741435 0.065775186 0.16233489
0000a0 f8 dc 29 3c 06 85 f6 bb 44 9d fd bd 21 eb 86 3d
       0.010367624 -0.007523182 -0.12383512 0.06587816
0000b0 48 02 5e bd 4f e2 8e bc cc e4 e0 ba 95 b6 2f 3b
       -0.054201394 -0.017441897 -0.001715803 0.0026811708
0000c0 97 61 1d bd 54 fe c0 3c 30 af 36 3d 14 32 a9 3c
       -0.038423147 0.023558773 0.044600666 0.020653762
0000d0 29 35 83 3d ac 81 c9 3c ac c1 16 bd 2e fa f0 3d
       0.06406624 0.024597965 -0.036805794 0.11766468
0000e0 e4 b1 56 3c 67 37 50 bd 73 ab c8 3d b2 c9 e0 3d
       0.013103936 -0.050834086 0.09798326 0.1097597
0000f0 ad 2f 07 bc fb fc 21 bb 78 58 1c 3e ac 32 04 3e
       -0.008251113 -0.0024717439 0.15268123 0.12909955
000100 9a 6f 15 3e 65 9c e5 3d fc 68 bd 3d 36 0a 8e bd
       0.14593354 0.112114705 0.0924854 -0.06935541
000110 f8 a2 62 bd b4 89 e7 3d d6 2d cd bd 62 32 b7 bb
       -0.0553312 0.11305562 -0.10018508 -0.005590723
000120 85 34 be 3c f5 31 38 bd 4d 1c c0 3d f0 ee 50 3d
       0.023218403 -0.044969518 0.09380398 0.05100912
000130 9a f5 33 3e 14 d3 d3 bd 79 84 3c be 37 fd 17 be
       0.17574158 -0.10342994 -0.1840991 -0.14842688
000140 8b 30 42 3b 3e f3 e7 3a f8 fb 50 be 61 00 ed bb
       0.0029630985 0.0017696393 -0.20408618 -0.007232711
000150 1d 52 b4 3d eb e5 96 bd bb 58 16 3e b8 4d 24 be
       0.08804724 -0.07368072 0.14682285 -0.16045272
000160 cc 9c 1b bd 4b f1 e7 bd a1 b4 40 3c a9 bb e5 bd
       -0.03799133 -0.1132532 0.011761815 -0.11217434
000170 62 5e 3c 3c ed 1c 97 bd d2 83 d9 bd 28 8a 39 3b
       0.011497112 -0.07378564 -0.10620846 0.0028311107
000180 93 84 a6 bd 99 4f d8 3d 87 89 d8 3d 80 16 8e bb
       -0.08130755 0.10562057 0.10573106 -0.0043361783
000190 88 ac 39 bc 5d a5 3b be a8 48 e4 bd 94 86 5b bd
       -0.011332639 -0.183248 -0.111466706 -0.05359514
0001a0 00 af 12 bd 87 c8 be 3b 1f 89 ec 3d 7c a7 96 bd
       -0.035811424 0.0058222446 0.11549591 -0.07356164
0001b0 55 99 e1 3d bd 7e 97 3d 9a 9b ac 3d 9f 1c 26 3c
       0.11015574 0.0739722 0.08428116 0.01013866
0001c0 9e 27 f4 3d 92 95 97 3d 56 ad e4 3d 4e d7 87 3d
       0.11921619 0.07401575 0.11165874 0.06632863
0001d0 76 69 3a be 3f de 98 3c 18 40 f2 3d 72 0e d9 bc
       -0.18204293 0.018660663 0.11828631 -0.026496146
0001e0 1f 63 f4 3b 1b ea 85 3d ba 0e 44 3e ae a6 bd 3c
       0.007458105 0.06538793 0.19146243 0.023150768
0001f0 11 ed b3 3d 4c 38 e9 3d af 27 84 3c 44 2d 3b 3d
       0.08785451 0.11387691 0.016132204 0.045697466
000200 64 84 ae bd 22 88 07 bc 2c ca 04 be a4 cb de 3b
       -0.08521345 -0.008272203 -0.12967747 0.006799178
000210 6c ab 09 3e 89 7b 52 3c ca b1 8d 3d 59 64 11 3d
       0.13444299 0.012846836 0.06918676 0.03549609
000220 0e 85 95 bd 57 65 2b 3e 93 c7 ef 3d f6 f2 3b be
       -0.07300769 0.16737877 0.11707988 -0.18354401
000230 cf 0d 3f be 53 e4 34 be 56 fd 1b bc ed 9b b2 bd
       -0.18657611 -0.17665224 -0.009520849 -0.08721147
000240 10 81 89 3d 58 7a c7 3c cc 7c b7 3d 76 85 f8 bb
       0.0671407 0.02435033 0.0895935 -0.007584269
000250 9e bf 1c bd 96 10 82 bd 0b 5b 9d bd bb 89 a1 bd
       -0.038268678 -0.0635082 -0.07683381 -0.07887598
000260 4c b7 23 3d 2e 85 ee 3d 3d 2e f2 3d 3f 98 66 be
       0.039969727 0.11646496 0.118252255 -0.22519015
000270 a1 3b bc bd c8 70 39 3d d0 19 0e 3e d1 78 38 be
       -0.09191061 0.045273572 0.13877034 -0.18014838
000280 6f 1b 10 be 24 1e 73 bd c1 ed 2c 3e d2 ba 00 3e
       -0.14072965 -0.059354916 0.16887571 0.12571266
000290 a4 3c e2 3d e1 24 99 bd 0d f4 96 3d b5 02 f2 bd
       0.110467225 -0.07477737 0.07370768 -0.118169226
0002a0 cd 6a d1 bd 38 71 99 bd 38 d8 5b bd e5 5f 2a 3d
       -0.10225449 -0.07492298 -0.053673 0.04159536
0002b0 b3 9c c6 bd 2b 51 e3 bd 71 9f 7e b9 fd 0e 4c bd
       -0.09697857 -0.11099466 -0.00024282724 -0.04981898
0002c0 9e 91 84 3d c2 e1 53 3d 46 23 1f 3e 46 6b c3 3d
       0.06473087 0.05172897 0.155408 0.09541945
0002d0 ab 72 3b 3e 46 d2 28 bd 37 18 f9 bd 3b 2d 05 3e
       0.18305461 -0.041216157 -0.12162822 0.13005535
0002e0 7c 5e b7 3d ea 16 9e 3c c4 87 ef 3d a9 f7 59 bd
       0.08953568 0.019298036 0.11695817 -0.053214703
0002f0 76 a1 45 be d6 ad ee bd 0f b3 97 bc 76 b3 1a 3d
       -0.19299874 -0.1165425 -0.018517999 0.037768804
000300 b5 d9 f1 bc 40 29 7c bd e9 43 73 3d 48 ef e3 3d
       -0.029522756 -0.061562777 0.059390936 0.11129624
000310 21 74 5f 3d 16 30 ef bd 8b 3a 8f bd b9 38 19 3d
       0.05455411 -0.116790935 -0.06993588 0.03740761
000320 89 d8 4c bd 61 e8 b8 bd e6 44 19 bc d4 bc 40 3c
       -0.05001119 -0.09028698 -0.009354806 0.01176377
000330 a4 08 70 bd 20 1a 9b bb 1d 1e f6 bd 5e 41 89 3d
       -0.05860199 -0.004733339 -0.120174624 0.06701921
000340 79 11 c1 3d 16 aa d7 bd 32 40 21 bd 15 d0 37 be
       0.09427161 -0.10530488 -0.039367862 -0.17950471
000350 42 e9 9b bd c6 bc 5b 3d 99 cd 8e 3d 92 a2 88 3b
       -0.0761285 0.053646825 0.069728084 0.0041697705
000360 97 1f 0d be 9c 98 16 be 4c de 33 3d 1b 19 b8 bd
       -0.13781582 -0.14706653 0.04391317 -0.089891635
000370 84 a1 9f bd 3e 99 86 3d 89 07 38 3d 48 9d 4b bd
       -0.077944785 0.065721974 0.04492906 -0.049710542
000380 2b af 2c bb 30 e2 30 3c a1 af 74 bd a6 12 d6 bd
       -0.0026349525 0.010796115 -0.059737805 -0.10452776
000390 41 99 44 3d 1f 64 1a be 25 81 02 be d8 fc 4f be
       0.047997717 -0.15077256 -0.12744577 -0.20311296
0003a0 99 6b bf 3d d9 d1 22 be 9d 6f 2b bd ab ce bd be
       0.093466945 -0.15900363 -0.04185449 -0.37071738
0003b0 3d 59 78 bd f1 00 89 3e f6 7e a3 be 7b f7 92 be
       -0.06063198 0.2675853 -0.319328 -0.28704438
0003c0 fb 0f 5a bd 32 0d d5 be c1 5e 22 be dd 53 6f 3e
       -0.053237896 -0.4161163 -0.15856458 0.23371835
0003d0 88 9d 94 3c 42 bb 1d be e5 06 98 3d 98 22 5b 3d
       0.018141523 -0.15403464 0.0742319 0.053499788
0003e0 21 b2 aa bc f2 6c 71 3c 1f 10 1d bd b5 c8 65 bd
       -0.020836892 0.014735447 -0.038345452 -0.056099612
0003f0 e8 52 82 bd 0e a9 0c be 55 2e fa 3d 44 6b dc 3d
       -0.06363469 -0.13736364 0.122158684 0.10762647

lstm.weight_hh_l0 f4 [256, 64]
000000 3f e7 94 3d 1b 9c df 3c d4 54 21 be 32 52 98 bc
       0.07270669 0.027296117 -0.15755016 -0.018593881
000010 ee 94 87 3d 49 25 39 bc 1f 65 3e 3c f8 05 ff bd
       0.06620203 -0.011300393 0.011620789 -0.1245231
000020 ab 14 77 3d ff 8d 19 be 8b d1 45 3e 3d 59 17 be
       0.060322445 -0.14995573 0.19318216 -0.14780135
000030 66 8f 5e be b4 39 8d bd 65 9b d3 bd 35 1b 2f 3d
       -0.2173439 -0.068957716 -0.103323735 0.042750556
000040 88 98 18 3d 3e a1 2f 3e ee 59 0e be 5e 0b c8 bd
       0.03725484 0.17151353 -0.13901493 -0.09767793
000050 19 8a 19 3d d5 98 0f be 3d 47 7a 3e e9 bf 00 3e
       0.037485216 -0.14023145 0.24441238 0.12573208
000060 4f 58 ad 3d 53 f8 a0 3d 1c 93 4e bc 81 1a a0 3d
       0.08464109 0.07859864 -0.012608316 0.07817555
000070 08 b9 7f bd 10 a8 1c bb 22 ae 71 3d 2e f1 0c 3e
       -0.06243232 -0.0023903884 0.059003957 0.13763878
000080 7e 15 3c be 71 d9 d4 bd 01 78 1a bd 57 d6 98 bd
       -0.18367574 -0.10393036 -0.0377121 -0.07462757
000090 1b bb af bd a8 2d 15 be cc b8 01 be 0b c4 22 3e
       -0.085806094 -0.14568198 -0.1266815 0.15895097
0000a0 67 11 95 3d 8e d4 6f 3d 63 62 6e 3d 72 de 2e 3e
       0.0727871 0.058552317 0.058199298 0.17077044
0000b0 c4 96 8d bd 02 1f ab bd 3f 2d 60 3e d1 1e e6 bd
       -0.06913522 -0.08355524 0.2189226 -0.112363465
0000c0 fe 06 68 bd fe 3d ce bd 3a 9e 29 be 02 96 95 bd
       -0.056647293 -0.10070418 -0.16564265 -0.07304002
0000d0 14 dd 2c be 58 93 8e bc 28 79 05 bd 0d 7d 49 3d
       -0.1688121 -0.017404243 -0.032586247 0.049191523
0000e0 51 8e 0b 3e 5f 34 a8 3d 37 60 29 3e d6 9b 18 3e
       0.13628508 0.08213114 0.1654061 0.14903197
0000f0 81 40 45 3e 5d 1e 9f 3d ba 0b cb bd 42 a7 d5 bc
       0.19262888 0.07769463 -0.09914346 -0.026080731
000100 f0 1e c7 3d 51 64 be 3c 84 b0 c6 bc a7 51 90 3c
       0.09722698 0.023241194 -0.024254091 0.01761706
000110 ff 93 b8 3d 20 81 c9 3c 45 4a 0f 3e d4 2d f6 3d
       0.09012603 0.024597704 0.13993175 0.1202046
000120 e6 e4 79 3a 0d de a6 3c 66 2d 3a bd c8 b3 15 be
       0.0009532705 0.020369554 -0.04545345 -0.14619362
000130 b2 82 c7 bd df 71 01 be 3e bd 9a 3d a6 71 c6 bd
       -0.09741725 -0.12641095 0.07555626 -0.096896455
000140 66 78 54 3c 40 55 5e 3d f7 a5 bb 3c 6c 2a 57 bb
       0.012968158 0.05428052 0.022906287 -0.0032831682
000150 f6 09 02 be 08 c6 11 be 1c be c9 3d 5d 32 b0 3d
       -0.12699112 -0.14235699 0.098507136 0.08603356
000160 d8 86 c8 3c e6 fb 59 3d 3c c0 e4 bd 7b fe 39 bd
       0.024478361 0.053218745 -0.11169478 -0.045408707
000170 2e e0 39 3d 0a 5f d3 3d 01 08 5a 3c f4 ab 07 3d
       0.04537981 0.10320862 0.013307572 0.03312297
000180 8d 2f b0 bd 4e 35 96 3d 5f 08 96 bb f9 13 a1 3d
       -0.086028196 0.07334386 -0.0045786346 0.078651376
000190 fb b9 df 3c db 8c 32 3d 5b 57 a5 bd 97 b2 e1 3d
       0.027310362 0.04359136 -0.08073302 0.110203914
0001a0 75 9b 0b bd 15 da 31 3e 0b 26 37 bc 6c 07 a0 bd
       -0.034083802 0.17368348 -0.011178504 -0.078139156
0001b0 9e fc 16 3d db a2 8c 3d 07 43 d4 3d 3d dd 37 bd
       0.03686201 0.06867 0.10364347 -0.044888724
0001c0 d3 bd b4 bd c5 a5 18 be da 50 f2 bd 66 03 0b 3d
       -0.088252686 -0.14906986 -0.118318275 0.033938788
0001d0 85 85 a1 3d 0c 31 07 3d d2 1c cb 3d ed 42 73 bd
       0.07886795 0.03300576 0.099176064 -0.059389997
0001e0 6e 0a 89 bc 29 a6 22 3e 90 06 2c 3c 29 81 c3 bc
       -0.016728606 0.15883698 0.0104996115 -0.0238653
0001f0 c7 c9 01 3e 4e 1f 3e bd b0 4e d8 bc 1b 84 9b 3d
       0.12674628 -0.046416573 -0.026404709 0.075935565
000200 6a 5a ba be b2 b0 28 3e b6 1d 4c 3e 6e cf 93 3e
       -0.36397105 0.16473654 0.19933209 0.28869194
000210 6d e3 d7 bd 8e 8f a5 3d 1a 31 1b bc 6f 6a 8d 3b
       -0.10541425 0.080840215 -0.009472156 0.0043156664
000220 a8 fd 22 3d 6e a8 a1 3e 26 91 6d be a0 c6 4d 3e
       0.039792687 0.31573814 -0.23199901 0.200953
000230 55 ed 97 3e 2f 74 4d bd 15 2d b6 bc 78 0c 69 3e
       0.29673257 -0.05015963 -0.022238294 0.22758663
000240 86 02 fe bd b3 e3 d4 bd 8e 08 7a 3e d0 14 b6 bd
       -0.12402825 -0.10394993 0.24417326 -0.088906884
000250 10 77 83 bd 9e 89 35 bd 57 be 9a be cf 66 07 be
       -0.06419194 -0.044320695 -0.30223343 -0.13222812
000260 bc 09 38 bb 2b fa 3b be d7 e9 0f be 21 09 5c 3e
       -0.0028081974 -0.1835715 -0.14054047 0.21487857
000270 83 6f 99 be 2c 49 56 be 09 e6 80 be df 4a 23 3e
       -0.2996789 -0.2092635 -0.25175503 0.1594653
000280 45 12 c4 bc 9f f9 3f 3e a8 46 d6 3e e9 6e 02 be
       -0.023934493 0.18747567 0.4185078 -0.12737621
000290 23 05 88 be ec f1 f2 3e 99 f1 95 bd 2f 6c 9c be
       -0.2656642 0.47450197 -0.07321472 -0.30551288
0002a0 4f 12 b6 be 17 f0 13 be b7 d8 4a be 22 ec 73 3e
       -0.35560843 -0.14447056 -0.19809233 0.23820546
0002b0 5f 51 9b 3e b2 4d ec 3b a7 46 5c be ae 89 ae bd
       0.3033552 0.0072114104 -0.21511327 -0.08522354
0002c0 74 6d 29 3e 51 91 8f 3e 5d 32 c8 3e 34 3e b7 be
       0.1654566 0.28040555 0.39100924 -0.35789645
0002d0 df f5 73 3e d7 19 17 be d1 19 9b 3d a2 05 2f 3d
       0.23824261 -0.14755951 0.075732835 0.04272998
0002e0 af ef 46 be d6 fb cc 3d 1a f2 ce 3c a9 97 32 be
       -0.1942737 0.100089714 0.025261927 -0.17440666
0002f0 56 22 b9 be e3 a6 00 be 3e 01 c1 bd 07 0f f5 3d
       -0.3615901 -0.12563662 -0.09424065 0.11965757
000300 e1 50 6a bd 55 5e 50 bc 52 c1 eb 3d dd 9f fe 3d
       -0.05720604 -0.012717803 0.11511482 0.12432835
000310 7c a4 51 3d 7a 45 cd 3c d9 66 71 bd 96 2d 9b bd
       0.051182255 0.025057543 -0.058935974 -0.07577054
000320 bc 24 d9 3d 78 cf e2 ba ac 1e 01 3d f8 eb 32 bd
       0.1060271 -0.0017304262 0.03152339 -0.04368207
000330 a8 28 56 3e 61 c4 92 3c a8 b9 16 bd 94 eb a0 bd
       0.20913947 0.017915906 -0.03679815 -0.07857433
000340 32 c1 0d be 38 d0 e7 3a d4 e5 39 3e 32 bc a1 3c
       -0.1384323 0.0017685955 0.18154079 0.019743059
000350 92 4c 27 3d a8 66 bf 3d 49 eb e2 bd fa 3b 80 3d
       0.040844508 0.09345752 -0.11080033 0.062614396
000360 bf 9b 91 3d c6 e9 d7 bd f2 a8 8a 3d 0a 9d df 3d
       0.07109784 -0.105426356 0.06770505 0.10918625
000370 d4 33 a8 3c 90 4c 1c be 61 df 37 bc d0 f1 ba bc
       0.020532526 -0.15263581 -0.011222691 -0.022820383
000380 9e d0 a6 be d9 2e 43 3d 7a ab ee 3d bd ae c7 3c
       -0.32581037 0.0476521 0.116538 0.024375314
000390 37 ad 41 bd c2 c7 44 bb 3f 5b 4e be b7 eb 91 3d
       -0.04728433 -0.0030026291 -0.20151995 0.07125037
0003a0 a4 e1 85 bd fa 57 4d bb 7c 7c 6a bd bd 2b 74 3d
       -0.06537178 -0.0031332956 -0.057247624 0.059612025
0003b0 40 be 8c 3d 8e 03 22 3d bc c0 77 3d 1b c5 19 3e
       0.06872225 0.03955417 0.06048654 0.15016596
0003c0 6f 11 3c be cf 16 ec bb b5 c7 34 3e 2d ca a1 bd
       -0.18366025 -0.0072048674 0.17654307 -0.0789989
0003d0 db 44 9c 3e 20 d9 e3 3c c4 d1 a8 3d 77 f1 42 3e
       0.30521283 0.027813494 0.082431346 0.19037424
0003e0 18 fc cf 3d eb 5c 21 3d ff 98 f5 3d b0 e4 47 be
       0.10155505 0.039395254 0.11992072 -0.19520831
0003f0 8b af b6 bd db 40 9a bd 98 f3 fd 3d 66 e2 6b 3d
       -0.08920201 -0.075319014 0.123999774 0.057588957

lstm.bias_ih_l0 f4 [256]
000000 76 9e e2 3d 0b e4 a3 3d 1c 6c 70 3d 83 a0 00 3e
       0.1106538 0.0800248 0.05869685 0.1256123
000010 f5 89 ef 3d cf 8c 36 3e 9b fb 9f bd 0f d4 1a 3d
       0.11696235 0.17827152 -0.07811662 0.03779989
000020 fd 94 98 bd 79 1d 33 3b 94 4d 40 bd 62 b7 9b bd
       -0.07450292 0.00273308 -0.046948984 -0.07603337
000030 c9 af 44 3d 21 12 dc bd 84 92 da bd a4 6b ac bd
       0.048019204 -0.10745645 -0.10672477 -0.08418968
000040 96 78 23 3e 4a 9c ab 3d 36 21 03 3e 15 24 42 bd
       0.15963969 0.08379419 0.12805638 -0.04739769
000050 1a e1 d2 3c 47 8d 7b 3e 23 cd 0e 3e 30 c9 37 bd
       0.025742102 0.24565612 0.13945441 -0.0448696
000060 24 d1 8d 3c 63 11 e1 3d 03 47 f1 bb 47 92 e3 3d
       0.01731164 0.109896444 -0.0073632016 0.111118846
000070 db cc dd bc 16 37 9b bb 49 15 66 bd 0d 10 b1 3c
       -0.027075222 -0.0047367914 -0.056172643 0.021614099
000080 cc 87 6e bc 37 b2 be 3d 68 63 9e ba 12 3e 58 bd
       -0.014558744 0.093113355 -0.0012084069 -0.05279357
000090 9b 6c 0a 3d 37 1f 56 bd 02 2c 17 3e d6 98 28 3c
       0.03379498 -0.052275863 0.14762881 0.010290345
0000a0 70 48 cf 3d 12 2e cc bd ce 93 60 3c 0e 04 b6 3c
       0.10121238 -0.09969725 0.013707114 0.02221873
0000b0 69 09 2e bd 80 46 97 3c c2 a9 eb 3d f8 58 d3 3d
       -0.042489443 0.018466234 0.11506988 0.10319704
0000c0 e2 ce d4 3d 82 80 39 3e d1 0a 27 3e 57 44 d9 bc
       0.10391022 0.18115428 0.1631272 -0.026521845
0000d0 9d bf 8f bc f9 21 a9 bd b3 1a 11 3e cf f7 da 3d
       -0.017547423 -0.08258433 0.14170341 0.10691797
0000e0 c4 9a ad 3d f2 96 f7 3d 48 96 56 bd f2 f3 08 3e
       0.08476785 0.120893374 -0.052389413 0.13374308
0000f0 18 33 b7 bc d2 d2 b5 3d 55 3c c1 3d da 7e 87 3d
       -0.02236323 0.088781014 0.094353355 0.06615992
000100 fc bb 4f bd 07 ab 5d bb 19 b6 d6 3d ab 03 22 3e
       -0.050716385 -0.0033823864 0.10483951 0.15821712
000110 a7 80 cf 3c c1 f9 97 bd ab 3e 80 bd 65 b6 f2 bd
       0.0253299 -0.07420684 -0.06261953 -0.11851195
000120 93 10 a2 3d cc 71 38 bd c8 9b f1 3d e7 4c d3 3d
       0.079133175 -0.0450304 0.11797291 0.10317402
000130 8e 10 f3 bd 16 b9 b1 3d 58 16 c0 3d 9f 2c 8a 3b
       -0.11868392 0.086778805 0.09379262 0.004216745
000140 61 72 aa bc 7a fb 82 3c d6 fd af 3d 66 e5 91 bc
       -0.020806493 0.015989054 0.08593337 -0.017809581
000150 cc b5 12 3d c9 57 06 3c d4 63 29 bd d8 38 a4 bd
       0.035817906 0.008199641 -0.04135497 -0.080186546
000160 9d 3b c8 3c ba 15 87 3d 6c b9 fc 3d 47 8c 8b bd
       0.024442488 0.06595941 0.12340054 -0.06813865
000170 f6 f3 0d bd 6b 5a fd 3c a8 13 62 bd c1 47 48 3d
       -0.034656487 0.030926904 -0.055194527 0.048896555
000180 2b 8b 95 bc 16 d4 9a bd 4c f0 80 3d 9d a0 ab bd
       -0.018254837 -0.075599834 0.06295833 -0.08380244
000190 a1 9d cc 3c de 01 08 bd c7 8e 07 3d 53 bc d1 bd
       0.024977507 -0.033204906 0.033095147 -0.10240998
0001a0 c8 66 9c 3c 0a 72 85 3d ce fc 1f bc 53 0c e9 3d
       0.019091979 0.06515892 -0.009764863 0.11379304
0001b0 11 74 7c bd 95 27 d5 3c 9f f1 65 3d ac 8e ec bd
       -0.061634127 0.02601985 0.05613863 -0.1155065
0001c0 62 b2 de 3a e8 bd 1a 3e 7f 86 06 3c 53 30 cb bc
       0.0016990418 0.15111506 0.008210777 -0.024803316
0001d0 f3 9a cd 3d 40 17 f0 bd 8b d9 ca 3d 3d 4a da 3c
       0.1003932 -0.117231846 0.09904774 0.026646728
0001e0 e3 6d 6c bd 1a a4 91 bd 17 15 47 bd a9 37 2f bd
       -0.057721984 -0.07111378 -0.048604097 -0.04277769
0001f0 de 1c 41 bc 31 ee 09 3d 96 e7 10 be 6c 47 0c 3d
       -0.011786668 0.033674423 -0.14150843 0.0342478
000200 d1 bb 4c bd 07 72 ca 3c 30 87 49 ba 47 7d 80 bc
       -0.049983803 0.024712576 -0.0007687686 -0.015684737
000210 1b de 6f bd 85 3e 16 3c 6b 4c e0 3d 89 53 da bd
       -0.058561426 0.009170179 0.109520756 -0.10660464
000220 c9 d7 0d 3b e1 d4 08 3e 7a 5e 89 bd c3 ae 05 bc
       0.002164351 0.13362457 -0.06707473 -0.008159342
000230 d5 46 2d bc d6 30 23 3d da 62 5b bd 2a 10 00 3c
       -0.01057597 0.039841495 -0.05356107 0.007816354
000240 a4 26 1f bc e8 50 0d 3d fb 8e eb 3d ef 9d 4d 3d
       -0.0097138025 0.034500986 0.11501881 0.050199445
000250 c0 96 b7 3d 1e 39 ae bd 81 b3 bd bd 73 38 51 3d
       0.089643 -0.08506988 -0.09262753 0.051079225
000260 96 8b 9b bb 6a 99 d7 bc 01 aa 92 bd da 14 61 bd
       -0.0047468645 -0.02631827 -0.07161332 -0.054951526
000270 f7 eb 10 be e8 96 0a 3d 0e 42 8a bc 9a 16 21 3d
       -0.14152513 0.03383532 -0.0168772 0.039328195
000280 3c 43 45 3c f2 4a be 3c f7 dc 49 3c 0c c8 70 bd
       0.012039956 0.023229096 0.0123207485 -0.05878453
000290 43 77 c9 3d 0f 04 be 3d 83 ca b6 bd a3 9d c8 3d
       0.098372005 0.09278118 -0.08925345 0.09795692
0002a0 28 57 47 3d 78 4d a6 bd 52 cc da bd 2d 2c dc 3c
       0.048667103 -0.08120245 -0.10683502 0.026876533
0002b0 3a b0 bd 3d c0 9f bc bd 34 47 9d 3d 27 cb 38 bd
       0.09262128 -0.092101574 0.076795965 -0.045115616
0002c0 b9 f7 85 bd 56 13 aa 3d 1e c0 06 3d 97 71 27 bd
       -0.0654139 0.08304469 0.03289806 -0.040879812
0002d0 1e 30 16 bd e5 74 32 3d bf aa 1e 3d 77 d4 a3 bc
       -0.036666982 0.04356851 0.038737055 -0.019998772
0002e0 8b 62 8b bd 7d bc a0 3d 53 2c 08 be 22 c0 c5 3c
       -0.06805905 0.07848451 -0.13298158 0.024139468
0002f0 5f 40 07 3d fa a5 f1 bc 92 ab 05 3d 44 83 94 3d
       0.033020373 -0.02949809 0.032634325 0.072515994
000300 b5 76 19 bd c7 6e 88 3b 0f 67 1d 3e c1 4d da 3d
       -0.037466723 0.0041635963 0.15371345 0.10659362
000310 5b 19 e5 3b 79 df f6 3d 9b 91 ed 3c 15 dc 9a bc
       0.006991548 0.12054343 0.029000094 -0.018903771
000320 b4 28 c7 bb f1 8a 02 3e 2c 9f b2 bd f1 f9 ff bd
       -0.0060778502 0.12748314 -0.08721766 -0.124988444
000330 55 d6 c3 3d 27 ed b7 3d db 86 83 3d 30 8e 9e 3c
       0.09562365 0.0898078 0.06422206 0.01935491
000340 83 e0 d4 3d 20 4b d9 bc 90 de 67 3e 12 d5 54 3a
       0.10394385 -0.02652508 0.22643495 0.0008118908
000350 4f 5e 09 3b 6a a4 3b 3e 18 26 03 3e 9a d7 f4 bd
       0.0020960753 0.18324438 0.128075 -0.11955185
000360 b5 e4 e5 3c 2d 00 bc bd 5f 08 96 3d 9b 23 6b bd
       0.028063158 -0.09179721 0.073258154 -0.057407003
000370 e0 9b 3f bd 2e eb 88 3d 78 3f ea bc 70 3f 6a 3e
       -0.046779513 0.06685482 -0.028594717 0.22875762
000380 ae 7d 8b bd dd 57 43 3e 49 21 91 3d b5 6c ac bd
       -0.06811081 0.19076486 0.07086427 -0.08419172
000390 b6 5d 81 3d 88 4b 3c bc f0 b6 97 bc 9d db 14 3d
       0.06316702 -0.011492617 -0.018519849 0.036342252
0003a0 a0 5e 2e 3d 5b ba e7 3b 8f b1 d0 bd 06 d5 57 3d
       0.04257071 0.007071776 -0.101901166 0.05269339
0003b0 0a 77 69 bd 1f 46 3b bd cf 1b 98 3d 61 54 39 bc
       -0.05699829 -0.04572117 0.07427179 -0.011311621
0003c0 ea cc f2 3d e7 e8 1d 3e 08 34 cc 3d e2 01 57 bd
       0.118554905 0.15420876 0.09970862 -0.05249203
0003d0 c1 b8 94 3d 78 58 e0 3d e4 70 26 3e 46 71 21 bb
       0.072618015 0.10954374 0.16254002 -0.0024634167
0003e0 79 19 57 3d 3f 0a 08 3e c5 57 18 3e 32 fa 12 3d
       0.052514527 0.13285159 0.14877231 0.035883136
0003f0 cf 0b 27 bd a0 c8 68 bd 5f ac c6 bc c8 4f 0f 3e
       -0.040782746 -0.056831956 -0.024252115 0.13995278

lstm.bias_hh_l0 f4 [256]
000000 1c e5 60 3d cf 38 ac bd 89 84 17 3e 33 e2 26 3e
       0.054905996 -0.08409273 0.14796652 0.16297226
000010 f1 eb 1d bd c9 02 51 3e a1 f3 33 3d 3a 43 96 bd
       -0.03855509 0.20411219 0.043933515 -0.07337041
000020 b9 c7 90 bd be 9b e9 3d f8 b9 bc 3d 92 1f e6 bd
       -0.07069344 0.114066586 0.09215158 -0.1123649
000030 ad 04 2b 3e 61 d5 8d bd 95 4f bc bd 2b 37 c4 3c
       0.16701002 -0.069254644 -0.091948666 0.023952087
000040 11 55 9c 3b ef 9b f9 bd 6f 59 09 3d cb d3 51 3c
       0.004770883 -0.12187945 0.033532556 0.012806843
000050 f5 5e c3 3d 20 94 70 3e 33 ee 4c 3e d0 87 88 bd
       0.09539596 0.23494005 0.20012741 -0.06666529
000060 01 4c 57 3d 15 74 4d bb 8c 44 0b be b0 7b 00 bd
       0.052562717 -0.0031349708 -0.13600367 -0.031367958
000070 b7 e5 89 bc ee d2 94 ba b4 76 5e 3d 1a d4 22 3e
       -0.01683317 -0.0011354366 0.054312423 0.15901223
000080 77 3d 0e 3e 09 ef 3c 3d 18 2b 12 3e b4 cb a8 bd
       0.13890634 0.0461264 0.14274251 -0.08241978
000090 4f 6d 5d bd e7 16 45 3d 05 b9 a8 bc 7a 29 51 bd
       -0.054059323 0.048117545 -0.020596037 -0.051064946
0000a0 99 5b 5d bd 44 5f 00 be 83 43 9b 3d cb 7f f0 3d
       -0.054042432 -0.12536341 0.07581236 0.117431246
0000b0 ff 42 5e 3d fb 34 e5 bd 44 aa 9e 3c 1b dd 94 bd
       0.05426311 -0.11191746 0.019368298 -0.07268735
0000c0 d6 ab 82 bc 03 d2 1c bc 40 9f 36 3e a9 73 73 bd
       -0.015951078 -0.009571555 0.17834187 -0.059436474
0000d0 ff d9 f2 3d 1f 09 df 3c 97 95 da 3d 17 45 8f ba
       0.11857986 0.027226029 0.10673063 -0.0010930625
0000e0 bc b9 98 3d be 65 21 bd 7f b3 8d 3d d2 41 c4 3d
       0.07457301 -0.03940367 0.06919002 0.09582867
0000f0 c1 cd d0 3d 04 0e 32 bd 79 82 94 3d 1e 4c c2 bd
       0.101954944 -0.043470398 0.07251448 -0.094871745
000100 bd eb 6a 3d 38 29 e0 3d 1e 5b 11 3e 20 1c 3b bd
       0.057353724 0.10945362 0.14194915 -0.04568112
000110 a8 15 b5 3d e7 78 b8 3d 38 f9 37 3d 99 ad 06 3d
       0.08842021 0.09007435 0.044915408 0.0328804
000120 4a e1 84 3d a5 71 da 3c cb ae 1e bd fb 86 99 bd
       0.06488283 0.026665518 -0.038740914 -0.074964486
000130 d7 92 cd bd 26 e8 f0 3a b0 e1 4f 3c 28 f0 8b bd
       -0.10037773 0.0018379733 0.012688085 -0.068329155
000140 68 e7 7e bb 94 be 54 bd b6 7a 0f 3d f8 d4 04 bd
       -0.0038895253 -0.051939562 0.035029136 -0.032429665
000150 c5 f8 76 3d 15 b7 57 3d 95 d3 78 3c c9 5c 52 3d
       0.06029584 0.052664835 0.015187164 0.051358018
000160 91 92 85 bb aa d6 4f bb 7c 22 9e bd 0b 00 87 bd
       -0.00407631 -0.0031713643 -0.07721421 -0.06591805
000170 dc dc bf 3d 0a 3b 8a bd dd 7e 20 be 80 bf ce 3d
       0.093682975 -0.06749542 -0.15673395 0.100951195
000180 55 01 b5 bd 04 22 02 be 76 f6 9e 3d c3 93 ca bd
       -0.08838145 -0.12708288 0.077618524 -0.098914646
000190 15 e7 4c 3c 13 02 df bd f1 8e ea bc 25 ca a2 3d
       0.012506266 -0.108890675 -0.028632613 0.07948712
0001a0 68 f5 42 3d 4b 9a 04 be 1d e5 78 3d c9 10 2b 3a
       0.04759732 -0.12949483 0.060765374 0.00065256335
0001b0 82 ee 4a bd 80 97 8e 3d 9b f0 0c 3e dc 3b 0c 3d
       -0.049543865 0.0696249 0.13763659 0.034236774
0001c0 cb 3c 02 be 63 44 ab 3d 16 17 3f 3e 66 aa ab 3d
       -0.12718503 0.08362653 0.1866115 0.0838211
0001d0 aa 6a 07 3e fb ad b0 3d 04 7f 0b 3e f7 20 32 be
       0.13224283 0.08626934 0.13622671 -0.17395388
0001e0 38 5f 5b 3d f7 25 56 3d 26 78 b9 bd 37 7c e8 3d
       0.053557605 0.0522823 -0.090561196 0.11351817
0001f0 c0 b4 3d bd 59 d4 19 bd b2 59 3f 3d f8 a9 1a 3c
       -0.046314955 -0.037556026 0.0467164 0.009439938
000200 72 22 ab bd 44 ad 90 3d 24 d9 3c bc 9f be ad 3d
       -0.08356179 0.07064298 -0.01152638 0.08483624
000210 11 68 21 3d dd f8 59 3d 6b db d8 bc 49 58 cb bd
       0.039405886 0.05321585 -0.026471814 -0.099289484
000220 6a 4c cd 3d dd 4c c1 bc 2f e9 9a bd 78 18 de bc
       0.100243405 -0.023596222 -0.075640075 -0.027111277
000230 25 aa 96 3d 57 1a 93 3d a2 7b f1 bb b6 8d 01 bd
       0.07356671 0.07182758 -0.0073694745 -0.031629287
000240 1f 07 c2 bc bb 2f 68 3d a9 a1 44 bd 38 8e 31 3d
       -0.023685036 0.056686144 -0.048005734 0.04334852
000250 bc e6 e2 3d 97 5f 83 3d ee 5d a9 3d 56 9d 51 bc
       0.11079165 0.06414717 0.08269869 -0.0127938595
000260 be 62 d7 3d e9 4a d9 bd bd 34 ad bd 12 22 6e 3d
       0.105168805 -0.10609991 -0.08457325 0.05813796
000270 92 d6 a5 3d 35 68 00 bd fc 15 c4 3d 64 ff 32 bd
       0.08097567 -0.03134938 0.09574506 -0.04370059
000280 71 bf a0 bd b8 fe f6 3c 9e d1 9b 3b cd 5c b7 39
       -0.078490146 0.030150756 0.004755213 0.00034973622
000290 40 0c 89 3d 4c 3e 6c bc db 54 3e 3b 79 a7 35 3d
       0.066917896 -0.01441915 0.0029042277 0.044349167
0002a0 4d b8 ac bd d8 5c 98 3d 56 08 85 bc a0 39 fd bd
       -0.0843359 0.074395835 -0.016239326 -0.12364507
0002b0 95 04 92 3c 73 33 b1 bd 34 a2 ae bd 89 a5 30 3d
       0.01782445 -0.08652391 -0.085270315 0.043126617
0002c0 66 b1 21 3d 30 a8 be 3d 9a 2e ec 3c 58 79 92 3d
       0.03947582 0.09309423 0.028830815 0.07152051
0002d0 46 f2 15 3d 5a 10 da bd 82 27 0f 3e c4 f4 55 3d
       0.036608003 -0.1064765 0.13979915 0.05223538
0002e0 1b b8 2b 3d eb cf 0f bd 60 a8 05 bc e2 b4 42 bd
       0.041923624 -0.035110395 -0.0081578195 -0.047535785
0002f0 e8 52 00 be 67 eb ec 3d 47 51 be 3b d8 6a 06 3d
       -0.12531626 0.11568337 0.005808029 0.032816738
000300 9a e2 7e bd 18 59 c0 3d 09 e6 5d 3e 00 75 03 3d
       -0.062227823 0.09391993 0.21669783 0.032094
000310 0a 2c f5 3c 03 b5 3f 3e dd b0 50 bd 07 6b 95 3d
       0.029928226 0.18721394 -0.05094992 0.072958045
000320 17 2c e4 bc 16 ca 15 3e 4a bf b3 3d 16 ec a7 3d
       -0.027853055 0.14627871 0.0877672 0.08199327
000330 05 d7 90 3e 60 c9 f0 3d 30 ba a3 bd 18 2c 8e bd
       0.28289047 0.11757159 -0.07994497 -0.06942004
000340 98 4c 0e bc bd 8d c7 3d 83 5b df 3d b6 41 b1 bc
       -0.008685254 0.09743831 0.10906126 -0.021637779
000350 03 b6 d4 bc 6c 8b 1d 3e aa e0 3f 3e f1 35 06 be
       -0.025965696 0.15385216 0.18738046 -0.13106515
000360 c6 b0 d2 bd fe 88 c3 bc d7 9a c4 bd e2 19 45 3d
       -0.10287623 -0.023869034 -0.09599846 0.048120387
000370 8a 1f d5 3d d3 a7 ce 3d df 81 a1 3d 6d 37 8c 3d
       0.10406406 0.10090604 0.07886099 0.06846509
000380 cf 36 3e bd 8c 53 a4 3b 33 aa fd 3d 03 f9 df 3d
       -0.04643899 0.0050148424 0.123859785 0.10936167
000390 36 5b a7 3d e9 a5 5e 3c 5a ed 91 3d a6 9d e5 3d
       0.08171694 0.013589361 0.07125349 0.1121171
0003a0 9e 92 e6 3d 63 4b 0a bd d4 8a de bd 78 ed 99 3d
       0.11258434 -0.0337633 -0.10866323 0.07515997
0003b0 87 59 2c bc ef cd c8 3d a5 d0 cd 3d 15 58 29 3c
       -0.010519392 0.09804904 0.100495614 0.010335942
0003c0 e0 18 0c 3a ca cf 1f 3e 22 93 55 3e 2e f7 d5 3d
       0.0005344283 0.15606609 0.20856908 0.104475364
0003d0 92 26 16 3e a9 c3 d1 3c bb 76 06 3c cb c0 06 3c
       0.14663151 0.025605993 0.0082070185 0.008224676
0003e0 94 83 85 bd 64 21 59 bc 24 80 15 3e 0c a1 48 bb
       -0.06519237 -0.01325259 0.14599663 -0.003061357
0003f0 d5 48 4a 3d 2b d3 b8 3d f7 a6 3f 3d 6b 46 b7 3c
       0.049385864 0.09024652 0.04679009 0.022372445

lstm.weight_ih_l1 f4 [256, 64]
000000 2d 6d 39 3d 45 0c 11 be 32 f8 f6 3c b6 88 68 bd
       0.045270134 -0.14164837 0.030147646 -0.056771003
000010 03 c3 db bc df dc 60 bd 4d 7b ef 3d e1 68 6c bc
       -0.026826387 -0.05489814 0.1169344 -0.014429302
000020 07 24 a3 3c d9 dd 1c be a0 8a ad bd 67 23 6c bd
       0.01991464 -0.15319003 -0.08473706 -0.05765095
000030 df ad f4 bb e0 65 0d 3e 9b 81 53 3d 6f 82 ed bd
       -0.007467016 0.13808393 0.051637273 -0.11597144
000040 a5 82 e9 3d a8 a6 19 3d f5 e6 cf bd ac 6b 17 3d
       0.114018716 0.03751245 -0.101514734 0.03696792
000050 f4 47 aa 3c 4b 56 17 3e 24 98 47 bd c3 5e a6 bd
       0.020786263 0.14779012 -0.048729077 -0.08123543
000060 90 86 b6 bd a2 3e d5 3d 95 aa d7 bd a5 4d a4 bd
       -0.089123845 0.10412337 -0.10530583 -0.08022622
000070 40 49 dc 3d e5 8b 04 3e 4b 91 ac 3d 96 8d 23 be
       0.10756159 0.1294399 0.0842615 -0.1597198
000080 71 1a 5d bd 5d 7d 4c bd ac 66 bc 3d f6 62 bf 3d
       -0.053980295 -0.049924243 0.091992706 0.09345047
000090 21 bc 4d 3d c3 f0 fc bd cc b5 7d 3c 2b bc 87 bd
       0.05022824 -0.12350609 0.015485238 -0.06627687
0000a0 d5 13 2e bc 0a b5 a7 3c 14 93 11 3c 22 81 d8 bd
       -0.0106248455 0.020472068 0.008885164 -0.10571505
0000b0 86 83 28 3d a4 51 b4 bd 6e c2 52 bd 46 03 a0 bd
       0.041141056 -0.08804634 -0.051454954 -0.07813124
0000c0 d5 d1 41 be 40 a8 66 bd af 02 f5 3c a6 3f db 3d
       -0.18927701 -0.0563128 0.029908506 0.10705499
0000d0 8c 2f 01 be 15 60 6e 3d 91 e9 2a 3c fb 54 d2 3b
       -0.12615794 0.0581971 0.010431663 0.006418822
0000e0 47 75 5f bd e2 5b 13 bd 9d 56 5a bc 84 50 67 bd
       -0.054555204 -0.0359763 -0.013326314 -0.05647327
0000f0 c6 c5 ca 3d 51 68 0a 3c 85 76 a9 3d ae 1f 1b 3d
       0.099010035 0.0084477225 0.08274559 0.03787201
000100 2e 7d e7 bc a6 d6 0e 3e 57 1c 82 3d 9a 4f 52 bd
       -0.028257933 0.1394907 0.06353062 -0.051345445
000110 cd 77 b8 3c fd 8c ea bd 99 ff 8f 3d 46 d4 88 3d
       0.022518063 -0.11452673 0.07031173 0.06681113
000120 b5 d4 e9 3d 2e 04 89 bd 24 1d 31 bd e6 95 af 3d
       0.11417524 -0.0669025 -0.04324068 0.08573513
000130 c4 2e ce 3d 7c 87 82 bd 06 6e c1 3d e0 59 07 bd
       0.100675136 -0.06373498 0.094448134 -0.033044696
000140 34 03 29 3c fd 5e 61 bc 78 18 e9 3d bf 9e 5e 3c
       0.010315705 -0.013755557 0.1138162 0.013587653
000150 5e 0f a4 bd 25 7e 96 3d 92 b0 42 bd 75 cb ee bd
       -0.080107436 0.07348279 -0.04753167 -0.116599
000160 33 07 a5 bd 8a 39 f1 bd 03 91 99 3d 05 ae 34 bd
       -0.08058014 -0.11778553 0.07498362 -0.04411127
000170 b1 e1 01 3e 44 5b cb bc 4c 97 17 bc a7 1f 04 be
       0.1268375 -0.024823792 -0.009252381 -0.129027
000180 6d b7 00 3e 0f a8 71 bc b8 8f 45 3c 8b d6 25 3d
       0.12569971 -0.014749541 0.012058191 0.040487807
000190 11 d7 94 bd 43 b9 e2 bc 7b c2 0c 3e cf 31 1c 3d
       -0.07267583 -0.02767623 0.13746063 0.03813344
0001a0 fb a2 87 3d 6b 91 af 3d 3c 4a a8 bd b6 5b 12 3e
       0.06622883 0.08572658 -0.08217284 0.14292797
0001b0 1e 76 28 bc 3f f8 c0 3d 66 55 a9 bd 58 c9 bd bd
       -0.010282068 0.09422349 -0.082682416 -0.09266919
0001c0 e5 42 b1 bd 6f 5d 10 be 43 6c b6 3d bb cd 7e bd
       -0.08655337 -0.14098142 0.08907368 -0.06220792
0001d0 89 99 f4 3a 8a 7d a2 3d 4d 33 33 3c 8b b2 fb bc
       0.001866148 0.07934101 0.010937524 -0.030724784
0001e0 33 65 5c bc 0b 8e d4 3c 00 01 00 3d 29 2d af bd
       -0.013451862 0.025946638 0.031250954 -0.085535355
0001f0 d4 3c d2 bd 77 49 25 be 39 10 28 bd e1 59 19 3e
       -0.10265508 -0.16141306 -0.041031096 0.14975692
000200 45 28 a6 bd 89 d8 85 ba f5 c5 4a 3d 8b f5 bc 3d
       -0.081131496 -0.0010211627 0.049505193 0.09226521
000210 de e6 cf 38 47 63 f0 bd 68 e8 90 bd 6f 30 91 bd
       9.9135315e-05 -0.11737686 -0.07075578 -0.07089316
000220 a4 02 1e 3d ec c5 1b bd ca 77 49 bb 33 c3 8d 3d
       0.038576737 -0.03803055 -0.0030741566 0.06921997
000230 34 cb 4a 3d a9 6f f4 bc 24 a0 4d 3d 7e af 92 3d
       0.049510196 -0.0298384 0.05020155 0.07162379
000240 72 e9 b4 3d 24 74 a7 3c dc cb ac bc b1 c4 80 3d
       0.08833589 0.020441122 -0.021093301 0.06287516
000250 1c 82 05 be 53 96 a0 bc 5b 78 8c bd 7f a0 aa 3d
       -0.13037914 -0.01960293 -0.068588935 0.083313935
000260 e8 c4 6e 3d 52 c6 a8 bd cc 08 81 3d c6 83 ba 3d
       0.058293253 -0.082409516 0.06300506 0.09107165
000270 82 ae fd 3d 50 02 1a bd d3 18 07 3d 1b 28 93 3d
       0.123868 -0.03759986 0.03298266 0.07185384
000280 0b 81 ec bd 75 a1 3c 3e ab 8a 6d 3c a8 28 14 be
       -0.115480505 0.18420966 0.014498393 -0.14468634
000290 ca 33 d9 3d a0 a8 85 3d 92 cf a4 3d ad 55 cd 3d
       0.10605581 0.06526303 0.080474034 0.10026107
0002a0 e1 35 65 3c a1 14 97 bd 5f 5c f0 3d a3 ef d2 bd
       0.0139898965 -0.073769815 0.117363684 -0.10299613
0002b0 da bb 56 3d 3c be 9a bd 58 24 6d bd 33 98 0d bb
       0.052425243 -0.075558156 -0.05789599 -0.002160561
0002c0 f3 c6 e0 3c d7 62 46 bc 02 23 37 bd f4 7d b7 3c
       0.027438616 -0.012108526 -0.04471112 0.022398926
0002d0 72 4d 07 3e cb 8f 5c 3d a6 0e 93 bd 97 2a 29 bd
       0.13213137 0.05384807 -0.07180528 -0.041300382
0002e0 97 39 15 3e 24 00 25 bd af 0d 0b 3d b9 1f dd bd
       0.1457275 -0.040283337 0.033948597 -0.10797066
0002f0 b9 34 e4 3c 64 77 04 3d 59 50 b8 bd 23 d3 82 bd
       0.027857171 0.032340422 -0.089997 -0.063879274
000300 7b 19 05 3e c1 3e 87 3c 27 28 93 bd a6 ce e8 3d
       0.12998001 0.016509416 -0.07185393 0.1136754
000310 09 8a 92 bd 31 ad 49 3e 1c 48 81 bd b7 bb 05 3e
       -0.07155234 0.19694974 -0.06312582 0.13059889
000320 fe df a2 3d 50 da 80 bd 82 98 dd 3d af 9d 8b bc
       0.07952879 -0.0629164 0.10820104 -0.017042963
000330 5d 8c 4e 3d e3 76 c6 bd 10 be 9a bd 57 ff 90 3c
       0.05042683 -0.096906446 -0.07555783 0.01769988
000340 49 f4 fa 3d 2d 1a 81 bb ee d6 39 be 17 ef 0d 3c
       0.12253625 -0.003939888 -0.18148395 0.0086629605
000350 4b b8 c8 3d 8b 23 b7 bc dc c3 09 3b 4a 3c e1 bd
       0.09800776 -0.022355815 0.0021021282 -0.10997827
000360 6f cf 87 bd 4e 97 a0 bd 09 63 ea 3d 55 6d a8 3d
       -0.06631362 -0.07841359 0.11444671 0.082239784
000370 00 0f 90 3d 9d 37 bb 3c 93 d1 9a 3d 03 2b 89 bd
       0.07034111 0.022853667 0.07559504 -0.06697657
000380 07 dc 6f bd ef 04 2c be a2 de 01 bd 98 f3 e3 3d
       -0.058559444 -0.16798757 -0.03170646 0.11130446
000390 67 fc 82 bd 65 08 2f 3e 33 f4 05 3e a4 88 24 bd
       -0.06395798 0.17093046 0.13081436 -0.040169373
0003a0 ab 65 ae bd 8b e9 dd bd 67 e6 be bd 0a 0e 91 bb
       -0.085154854 -0.108355604 -0.093212895 -0.0044267224
0003b0 59 5a 03 3e a8 6b dd 3d 33 9d 18 be b9 b6 ef 3d
       0.12827434 0.108115494 -0.14903717 0.117047735
0003c0 23 66 93 3d 8a 9b 08 be a2 67 c5 3d 81 92 1d bd
       0.071972154 -0.13340583 0.09638907 -0.038469795
0003d0 aa 38 e0 3d fa 47 cc 3b 0c bf ac 3d ec 64 de bc
       0.10948308 0.006234166 0.08434877 -0.027147733
0003e0 6c 34 d3 bd 07 35 a9 bd 9a 77 ff bd 56 31 d5 bd
       -0.10312733 -0.08262067 -0.12473984 -0.10409801
0003f0 96 39 45 be 28 c1 78 bc 0e c3 17 be ee de d3 3d
       -0.19260249 -0.015182771 -0.14820501 0.10345255

lstm.weight_hh_l1 f4 [256, 64]
000000 e9 80 db bd de 62 48 3d 1f e7 f4 3c 6c ff bd 3b
       -0.10717947 0.048922412 0.029895363 0.005798271
000010 7f 09 4b 3d d6 e9 bc 3d 57 24 45 bd ed 42 b9 bb
       0.049569603 0.09224288 -0.04813036 -0.00565373
000020 37 61 9a bd ae 32 5b 3e be e4 c5 bd d9 73 a2 3c
       -0.075380735 0.21406052 -0.0966277 0.019830631
000030 7e 14 11 bd bb 0d ee bd e2 1e e0 ba f9 36 08 bc
       -0.035419933 -0.11623713 -0.0017099048 -0.008313888
000040 c6 49 aa bd 1a c0 a5 3d 87 cc 06 be 76 ec b5 bd
       -0.083148524 0.08093281 -0.13163958 -0.08882992
000050 11 a5 20 be 64 ff 0a 3e e7 3d c4 3c fb 46 20 3d
       -0.15687968 0.13573986 0.023955299 0.039130192
000060 0f f9 a5 bc 4b 2c b5 3c f3 a7 04 bd bd 5b a2 bd
       -0.020260362 0.022115847 -0.03238673 -0.07927654
000070 2f 41 09 bd 07 cb 20 3e 33 94 20 3d bd c6 63 bd
       -0.03350943 0.15702449 0.039203834 -0.055609453
000080 09 f6 14 3e 97 7d b5 3c 34 32 db 3d 1d 01 b4 3b
       0.1454698 0.022154612 0.10702935 0.005493297
000090 fd 13 7a 3c 9e 99 c2 3c e4 f5 dc bb b2 6d c0 bd
       0.015263555 0.023754891 -0.0067431796 -0.09395923
0000a0 da 94 29 bd 94 1f 09 be bb 8f 4f bd 42 ca 90 3d
       -0.04140172 -0.13390952 -0.05067418 0.070698276
0000b0 be ed bf bd 14 d7 37 be 77 e0 4e 3c 0e 1e f3 bc
       -0.093715176 -0.1795314 0.012626759 -0.029677417
0000c0 22 e1 d4 3b 5f de 03 3a e1 55 e8 3d 11 75 0a bc
       0.0064965645 0.00050303893 0.11344505 -0.008450762
0000d0 90 a2 5e bd 31 ad 33 3e 6c ca 41 3d f2 10 2a 3e
       -0.05435425 0.17546536 0.047312185 0.16608027
0000e0 9b 0b 60 3c aa 8d 6c 3d 9f 33 2e 3d cf 3d af bc
       0.013674642 0.05775229 0.0425297 -0.021391777
0000f0 0f 19 25 bd e3 d0 d8 3d eb 77 09 3e ac cd f9 bd
       -0.0403071 0.10586717 0.13424651 -0.12197432
000100 72 3d 75 bc 04 a5 d0 3d b0 1c c1 bd 5a 3b 8a 3d
       -0.014968263 0.10187724 -0.094293 0.06749602
000110 61 2e f0 bd 2a f3 82 3d 28 fa d6 3d fd e6 23 3d
       -0.11727596 0.06394036 0.10496932 0.04001521
000120 d9 3f 88 3d f9 ef a9 bd 73 7c 95 bc 90 27 c3 3d
       0.06652803 -0.08297724 -0.018247819 0.0952903
000130 78 6e ad 3d 2b b0 23 3e 5e 9e ed 3a 90 d0 4f bd
       0.08468336 0.15985171 0.0018128862 -0.05073601
000140 be 8c 19 3e 28 7b e1 3c 3f b4 4d 3d 20 ca 37 bd
       0.14995095 0.027524546 0.050220724 -0.044870496
000150 69 dd 9e bd 0f fa 1a 3d 81 a9 e1 3c e6 68 a4 bd
       -0.077570744 0.03783613 0.027546646 -0.0802782
000160 26 05 53 3d 0d 31 4f bd 90 da 8b bd f2 aa 0c 3d
       0.05151858 -0.050583888 -0.06828797 0.034342714
000170 47 75 85 3d 3a 37 66 bd 84 f2 9c 3d d9 f9 ae 3d
       0.065165095 -0.056205012 0.07663444 0.085437484
000180 39 db 10 3d a2 2f 40 3c 82 90 f4 bd 0d cf 97 3d
       0.035365317 0.011730107 -0.11941625 0.07412539
000190 23 d6 97 3d fe 93 d6 bc 95 8e ff bc 84 ff 3c 3d
       0.0741389 -0.026193615 -0.031195918 0.046142116
0001a0 37 ed 94 bd 1e f6 a0 bc 40 90 6f 3d 94 53 db bd
       -0.07271808 -0.019648608 0.058487177 -0.10709301
0001b0 8f 64 3f 3d 1d c4 0a 3e cc 7e 10 3c 8d 5d fc bd
       0.04672676 0.13551374 0.008819293 -0.12322531
0001c0 eb 1e 82 3d ca 73 51 bc de ab 97 3d 45 40 9f bd
       0.063535534 -0.012783954 0.07405828 -0.0777593
0001d0 5b f3 d6 3d 14 15 9d bd 2e 9e 1f 3d b2 ae 97 3d
       0.10495635 -0.07670036 0.03896921 0.07406367
0001e0 c5 67 a8 bd 80 19 47 bd c9 cf ca bd ce 87 37 bd
       -0.082229175 -0.048608303 -0.09902913 -0.044807248
0001f0 da 6d 0a bd be 21 3d 3d 2a 79 98 bb 28 1e a8 bc
       -0.03379617 0.046174757 -0.0046531158 -0.020522192
000200 cb 71 c7 3c 32 ff 73 bd e7 47 a3 bd cf 7a 0a bc
       0.024346253 -0.059569545 -0.07972699 -0.008452131
000210 30 ff b9 3c 60 92 7d 3d 99 c8 ab 3b bd 7c 0f bd
       0.02270469 0.061907172 0.005242419 -0.03503107
000220 d4 c0 14 bd 41 a3 37 bc b9 7b ae 3d a9 f8 50 bd
       -0.036316708 -0.011208356 0.08519692 -0.05101839
000230 5c cb 6f bd bb f5 00 be 8f d6 53 bd 93 3c a1 bd
       -0.058543548 -0.12593739 -0.05171829 -0.07872882
000240 d5 f6 12 3d ec 3d 96 3d 74 98 a6 3d 65 74 6a bd
       0.03587993 0.073360294 0.08134547 -0.05723991
000250 05 dc f6 bd d5 ca 06 3d a3 2c f5 3d 63 1f 52 bd
       -0.12053684 0.03290828 0.119714044 -0.051299464
000260 4a 23 01 be ae f4 aa bd a4 9d e8 bd 5e 49 76 3d
       -0.12611118 -0.0834745 -0.113581926 0.060128562
000270 c5 96 18 3e 98 97 2b 3b 8f d9 f5 bc 05 b2 d0 bd
       0.14901264 0.0026182886 -0.030010967 -0.101902045
000280 52 1e c7 3d ec 64 e7 bd ef 96 30 3d 23 d8 03 3c
       0.0972258 -0.11298546 0.04311269 0.0080471365
000290 a7 c1 1b bd ef 64 0f 3e df bf 46 bc e9 ec 53 bd
       -0.03802648 0.14003347 -0.012130707 -0.051739607
0002a0 eb 4d 70 bd e1 e3 5d 3d aa a5 8e 3d 33 c2 3a 3d
       -0.05866806 0.0541724 0.06965192 0.04559536
0002b0 85 3f ef bd 95 da 24 3d ea 49 dc bd b7 57 4d bd
       -0.11682037 0.04024752 -0.107562855 -0.05013248
0002c0 ce 0a 54 3d c7 68 9c bd a6 ee 0f 3a 53 7a ee 3c
       0.051768117 -0.07637172 0.00054905785 0.029111063
0002d0 c6 c9 da bc b9 fe b1 bc bb d6 80 bd e1 d7 fb 3d
       -0.026707541 -0.021727907 -0.062909566 0.12297035
0002e0 f1 f9 08 be 27 ba 0a 3d c7 f9 ba 3d 73 88 c9 3d
       -0.13376595 0.033868935 0.091296725 0.09840479
0002f0 a3 d0 42 3d 58 7a bc 3d bc bc e3 3d cf d4 12 3c
       0.047562253 0.09203023 0.111199826 0.00896187
000300 34 5a ec 3d 88 33 00 bd 42 92 e4 3d d4 c3 0b bc
       0.115406424 -0.031299144 0.11160709 -0.008530576
000310 95 be 57 bd 45 34 0f 3e 60 c6 aa 3d 23 e1 96 3d
       -0.052671988 0.13984783 0.08338618 0.0736716
000320 bd 12 a8 3d 63 1c d2 bd 4b 79 be 3d 0a 97 25 3d
       0.08206699 -0.102593206 0.093004785 0.040427245
000330 63 29 d6 3d 95 dd 1d bd 38 de ad 3d 87 cd 71 bc
       0.10457113 -0.038541395 0.084896505 -0.014758474
000340 95 58 cb 3d 85 ed 96 3a bc d3 aa bc 85 ef 02 be
       0.09929005 0.0011514878 -0.020852916 -0.12786682
000350 3b e1 df bc a7 df e8 bd c4 db 4c be a0 66 fa bc
       -0.027329078 -0.11370783 -0.20005709 -0.030566514
000360 c5 24 86 3c b2 17 35 bd 51 5f fb bd 8a f7 d4 3d
       0.016374955 -0.04421205 -0.122740395 0.10398777
000370 23 40 00 3e 59 db 49 be 66 fc ef 3d f9 73 c3 bd
       0.12524466 -0.1971258 0.11718063 -0.095436044
000380 9f af 94 3d 03 88 43 bd c4 8f f5 bd 1d 79 c6 bd
       0.072600596 -0.047737133 -0.11990312 -0.09691069
000390 a4 1b 3a bd a7 40 f0 3d ec 41 9a bc 21 10 e1 3d
       -0.045436516 0.117310815 -0.018830262 0.109894045
0003a0 9e 5c e2 bb 26 e6 00 3e 14 c5 1f 3e f2 24 b6 3c
       -0.0069080135 0.12587795 0.15602523 0.022234414
0003b0 8f 0c 91 3d b0 4f 4b bb 0a 5f 2a be 5c fc 8a bd
       0.070824735 -0.003102284 -0.16637817 -0.06786415
0003c0 06 7b 13 3a ab 6e d6 3c 83 f7 dd bd 4d 3f fd 3d
       0.0005625937 0.026175817 -0.10838225 0.12365589
0003d0 14 09 1f 3e d4 87 26 3d 55 14 45 bd 8b 22 30 3d
       0.15530807 0.04065688 -0.048115093 0.043001693
0003e0 1f 83 45 3e 0f aa 7f 3d 06 5a 95 bd 06 3b 8e bd
       0.192883 0.06241804 -0.07292561 -0.069448516
0003f0 85 b3 84 bd 2a 3f f4 bc 30 69 60 3d 4b 88 9b bd
       -0.06479553 -0.029815275 0.054787815 -0.07594355

lstm.bias_ih_l1 f4 [256]
000000 f6 1a 3b 3c f6 a2 6d 3d 30 48 fa bd ef f8 6e bd
       0.011420002 0.05801674 -0.122208 -0.05834287
000010 cc c6 b7 3d 2b 94 e5 ba 67 8d ec 3d 8b 22 1c 3d
       0.08973464 -0.0017515471 0.11550408 0.03811888
000020 15 e6 68 bd 77 d1 a7 3d 30 75 a4 3d a3 22 c9 3d
       -0.05686005 0.08194249 0.08030164 0.098210596
000030 f0 d2 12 bc 46 15 14 3c 6a 30 ed 3d af 08 f3 3d
       -0.008961424 0.009038275 0.115815 0.11866891
000040 05 46 5f bd 21 9b c6 bd 1d 5a 79 3d de f0 98 bd
       -0.054510135 -0.09697557 0.060876954 -0.07467817
000050 90 9b 70 bd 57 5b fc 3d ac 7e f4 bd d1 e1 d6 bd
       -0.058742106 0.12322109 -0.11938223 -0.1049229
000060 41 e9 0c be bd 64 0d bd a6 5a e9 3b 08 62 92 3d
       -0.13760854 -0.0345199 0.007121402 0.07147604
000070 05 bd ca bc 24 d7 2a 3d 48 46 47 bd 22 a7 3b 3d
       -0.024748335 0.04170908 -0.04865101 0.045813687
000080 4c 95 3c ba 95 05 96 bc c8 20 77 bd 9b 3b c2 3d
       -0.0007193878 -0.018313209 -0.060333997 0.09484025
000090 07 d6 28 3d 8a f3 09 bd 66 d0 00 3d 45 12 9d bd
       0.041219737 -0.033679523 0.031448744 -0.076695
0000a0 7e e2 e8 3d 6c 73 87 3b cd a6 bb 3d c3 3d 85 bb
       0.11371325 0.0041336324 0.09162674 -0.0040662005
0000b0 9b 78 95 bc e3 e6 d9 bd 52 03 94 3c b3 ea 4a bc
       -0.018245986 -0.10639741 0.01806799 -0.012385058
0000c0 0c 7f 33 bd df 69 7f 3d 7f fe 09 bd a6 ff 0a 3e
       -0.043822333 0.062356826 -0.033689972 0.13574085
0000d0 b9 4f b6 bd cc 09 a2 bd 9f 7a 01 bd 01 03 0f 3c
       -0.08901925 -0.07912025 -0.03161108 0.0087287435
0000e0 5d 68 f5 3d 2b d4 c1 3d 62 a7 16 3c 6b 90 a5 bd
       0.11982796 0.09464296 0.009195181 -0.08084186
0000f0 6c 6f d6 3d e7 1c db bd 14 e9 a0 3d 14 39 64 bc
       0.10470471 -0.10698872 0.07856956 -0.013929624
000100 cf 02 ac bd 4c c5 0b be 84 04 ba 3d 02 b2 88 bd
       -0.08398973 -0.13649482 0.090828925 -0.06674577
000110 8c b9 6d bd bb a9 fd bd f2 e3 0a be e3 c8 8c 3d
       -0.05803828 -0.12385889 -0.13563517 0.068742536
000120 19 fb 6b bd 7d 4d 0c be fc 72 e9 bd ff 76 b8 bc
       -0.057612512 -0.13701434 -0.11398885 -0.02251768
000130 48 55 df bd 7c b3 d8 3d 40 f1 d1 3d 99 59 9a bc
       -0.10904938 0.10581109 0.10251093 -0.018841552
000140 f4 a8 e4 3d 96 42 53 3c 2c ea 09 bd 61 eb d0 3d
       0.11165038 0.012894293 -0.03367059 0.10201145
000150 23 bf 82 bc 6b 71 f4 bd 5e 84 15 bd dd 2c c5 bd
       -0.015960282 -0.11935695 -0.03650319 -0.096276976
000160 25 ec e4 bd 6a b1 57 bd 47 7c ce bd 69 3b 57 bd
       -0.111778535 -0.05265943 -0.10082298 -0.052546892
000170 26 b1 65 3d aa 53 ac 3d ad 6f 09 3d 75 98 8a 3d
       0.056077145 0.08414395 0.033553768 0.0676736
000180 e3 f1 eb 3c f3 8c 2b bc a4 8f 7d 3d d6 19 13 bb
       0.028801864 -0.010470617 0.061904564 -0.002244582
000190 5d 1f da bc 76 80 ac bd b6 4b df 3d 1a 29 2b bd
       -0.026626283 -0.084229395 0.109031126 -0.041787244
0001a0 7d 7c 6c 3d 6d 2d 91 bd 58 94 f4 bc eb ed ef bc
       0.05773591 -0.070887424 -0.029855892 -0.029288253
0001b0 2b de 9e bc f7 5b ba 3d eb e3 02 be 80 f7 9e bd
       -0.019393047 0.09099572 -0.12782256 -0.07762051
0001c0 c4 8e 64 ba 1b 54 09 3d 2d 71 f6 bd da 95 fc 3d
       -0.00087187835 0.033527475 -0.12033305 0.123332694
0001d0 5e 0c f7 bd 5f 55 13 3c d9 6c ba bd 63 b3 86 3d
       -0.12062906 0.008992522 -0.09102792 0.06577184
0001e0 71 89 93 3d a6 90 68 bc a1 1f 8d 3d bd 6a bc bd
       0.07203949 -0.014194643 0.06890798 -0.09200046
0001f0 8e ff ed 3d 21 11 27 3d bc 37 dc bd 1f b2 f6 bd
       0.11621009 0.04078782 -0.10752818 -0.12045693
000200 ea 4e 3e 3d 30 63 be bd db 21 a0 3d 3b bf 89 bd
       0.046461977 -0.09296262 0.078189574 -0.067259274
000210 a4 eb 67 bc 26 88 a4 3b b1 99 49 3d f7 c6 80 bb
       -0.014155302 0.005021113 0.049218837 -0.0039299685
000220 36 3f ee bc f6 fe 24 bc 51 eb 70 bd fd 76 c3 3c
       -0.029082876 -0.010070553 -0.058818165 0.023860449
000230 d4 d7 75 bd 86 cf e0 bd 53 2c db 3c 24 81 3c bd
       -0.060020283 -0.10977082 0.026754534 -0.046021596
000240 4f 46 7c bd 40 56 60 bc 01 d9 26 bd b1 6d c8 3d
       -0.06159049 -0.013692439 -0.040734295 0.09786547
000250 1e c8 c0 3c fd 03 b1 bd 63 84 96 3d 94 3e a6 bd
       0.023532923 -0.08643339 0.073494695 -0.081174046
000260 f3 be c2 bd 4d 02 c8 bd 56 8c 99 3c 4a b2 18 3d
       -0.09509077 -0.09766064 0.018743675 0.037279405
000270 78 99 21 bc ae 26 4c bd 40 12 9a 3c 38 32 85 3b
       -0.00986325 -0.049841575 0.01880753 0.0040648244
000280 fa 59 cf 3d 7b ec d5 3d d6 e1 db 3c 50 b4 96 bd
       0.101245835 0.10445496 0.026841085 -0.07358611
000290 ba ad 90 bd 44 a9 49 bd 70 ac f4 bd 1b 42 31 bd
       -0.07064386 -0.04923369 -0.11946952 -0.043275934
0002a0 a0 5b 91 3d 27 39 59 3d 96 1f a2 bd 95 4d b7 3d
       0.07097554 0.05303302 -0.07916181 0.089503445
0002b0 84 10 2f 3c 9c d8 19 bd f0 cc 7b bd 44 72 c2 bd
       0.01068509 -0.03756009 -0.06147474 -0.09494451
0002c0 ce a5 3b 3d c8 aa 59 3d 56 e6 a3 3d 0b 5f d6 bc
       0.04581242 0.053141385 0.080029175 -0.026168367
0002d0 8b 30 24 bc 37 4a c4 bd 3d bb e0 bc 27 41 e8 bd
       -0.010021339 -0.09584468 -0.027433032 -0.11340552
0002e0 28 c2 eb 3d 04 28 a8 3d d9 45 de bd 25 a1 0d 3c
       0.11511642 0.082107574 -0.10853166 0.008644377
0002f0 c0 dc 14 3d 86 21 00 be 51 28 c4 bd 88 b1 e3 3d
       0.036343336 -0.12512788 -0.09578002 0.11117846
000300 8d 0e e6 3c 4f 8f c4 3a 58 b7 a2 bd 55 60 4d 3d
       0.02808311 0.0014996323 -0.07945126 0.050140698
000310 88 0e d0 bd 6f 32 09 3e 87 b5 74 3c 5b 82 28 bd
       -0.101590216 0.13398145 0.014935858 -0.04113994
000320 b2 26 00 bd d9 71 4c 3d d7 79 53 3d f6 45 b1 bd
       -0.031286903 0.04991326 0.051629867 -0.08655922
000330 75 fe a9 3d 1f 02 b6 3c 3f 5a cc 3d cb 08 c0 3d
       0.08300487 0.022217808 0.099781506 0.09376677
000340 ec 49 a7 3d 69 62 8c bd 5b d8 8b 3d f1 12 bc bd
       0.08168396 -0.06854708 0.06828376 -0.091833
000350 09 07 bb 3d 47 9c d8 bc fd d3 a1 3d 21 2d ba 3d
       0.09132201 -0.026441706 0.07901762 0.09090639
000360 af 94 13 be 71 c4 36 bc 22 be 8c 3d 2d 45 21 3c
       -0.14412187 -0.011155234 0.068722025 0.009843153
000370 c2 da 89 bd 8b a9 84 bd 70 fd c7 bd e6 c6 cd 3d
       -0.06731178 -0.0647765 -0.09765136 0.100477025
000380 dd 2a 14 3d 14 45 84 bd fa d0 9e bc a5 44 a5 bd
       0.03617369 -0.06458488 -0.019386757 -0.080697335
000390 81 bc 88 bd 61 ab 87 bb c7 c8 63 bd 15 36 c1 3d
       -0.06676579 -0.004140303 -0.055611398 0.094341435
0003a0 aa 21 9b 3d cb 54 33 bb 6a 99 ad 3c 32 d9 a1 bd
       0.0757478 -0.0027363773 0.021191318 -0.07902755
0003b0 1f a1 7d bc ac f0 98 3d a1 76 e8 bd 4e a4 c1 bd
       -0.015480309 0.074677795 -0.11350752 -0.09455167
0003c0 58 c5 31 3d d7 60 b9 bd be a5 9b 3d ad c9 12 bd
       0.043401092 -0.09051674 0.07599972 -0.035836864
0003d0 86 a4 02 3d ca 65 06 3e bd fe 30 3d 51 cb 5f 3c
       0.031895183 0.13124767 0.043211687 0.013659314
0003e0 1d 69 cc 3d f9 62 03 be af 72 13 be d8 c9 cb bd
       0.09980986 -0.12830724 -0.14399217 -0.09950608
0003f0 56 65 25 bd 76 72 7a bd 92 b1 53 3d 18 4c 60 3d
       -0.040379845 -0.061144315 0.051683016 0.05476007
