output/LSTM2CNN/LSTM2CNN_adam_32_100/model/LSTM2CNN_epoch_79.pth (torch, 350382 bytes, 16 tensors)

lstm.weight_ih_l0 f4 [256, 11]
0	0x3e34ef53	0.1766942
1	0x3e188563	0.14894633
2	0x3d22d68d	0.039755393
3	0x3dbceabd	0.0922446
4	0xbcf06d82	-0.029349092
5	0x3e5d7a85	0.21628769
6	0x3d017b69	0.031611834
7	0xbdffc0cf	-0.12487947
8	0x3d81cb40	0.06337595
9	0x3d66be9e	0.05633413
10	0x3c1f2f78	0.009715907
11	0xbdec6289	-0.115422316
12	0xbd12360e	-0.03569608
13	0x3de561dc	0.11200306
14	0xbc5392f7	-0.012913457
15	0xbde31cf5	-0.110895075
16	0x3daba562	0.08381154
17	0x3d65337a	0.055957295
18	0xbe0a1f74	-0.13488561
19	0xbcfcbbef	-0.030851332
20	0x3dee54bd	0.11637256
21	0x3b236c9f	0.002493657
22	0xbdccd521	-0.100015886
23	0xbdb1e7ed	-0.086868145
24	0xbd13775a	-0.036002494
25	0x3c95612c	0.018234812
26	0x3ddaaf31	0.10677946
27	0xbd641d53	-0.05569203
28	0xbd0f74e0	-0.03502357
29	0xbb4af0d0	-0.003096629
30	0x3b09f543	0.0021050728
31	0xbd125d14	-0.035733297
32	0xbd5a0e26	-0.05323615
33	0xbd7844b9	-0.060612414
34	0xbdb2fe48	-0.087399065
35	0x3d17e541	0.037083868
36	0x3cd6d7f6	0.026226025
37	0xbd51409f	-0.051087018
38	0xbd42ad68	-0.047528654
39	0xbd6c5935	-0.057702262
40	0xbe017232	-0.12641218
41	0x3dbbe428	0.09174377
42	0xbc700248	-0.014648981
43	0x3d195c76	0.037441693
44	0xbd80eae1	-0.062947996
45	0x3d43629b	0.04770146
46	0x3db2d1f5	0.087314524
47	0x3db6d2d2	0.089269295
48	0xbde82381	-0.11334897
49	0x3dba8f3b	0.0910935
50	0x3dcc928e	0.099888906
51	0xbc7b2085	-0.0153275775
52	0x3cc62f4f	0.02419248
53	0x3ddd6735	0.10810701
54	0xbe05515c	-0.13019317
55	0xbda6f4bf	-0.0815215
56	0x3d726d26	0.059186123
57	0xbde35ac6	-0.11101298
58	0xbd023498	-0.03178844
59	0x3df1d665	0.11808471
60	0x3c986448	0.018602505
61	0x3dbc3a5e	0.0919082
62	0x3dc46c7e	0.09591006
63	0x3dd328aa	0.103104904
64	0xbcea44e7	-0.028597308
65	0x3d3d09d5	0.046151955
66	0xbda64a0e	-0.081195936
67	0x3e01c48a	0.1267263
68	0x3d944c31	0.07241095
69	0xbd8e092e	-0.06935345
70	0x3d5b9dc9	0.053617273
71	0xbd5e1807	-0.054222133
72	0xbdcb2fb4	-0.09921208
73	0x3d74bf69	0.059752855
74	0xbd121584	-0.03566505
75	0x3d8de97e	0.06929301
76	0x3db23784	0.08701995
77	0xbdfe80e9	-0.124269314
78	0xbdd38d2b	-0.1032966
79	0x3d1caf7d	0.038253296
80	0x3dac2b1c	0.0840666
81	0x3d3ef0f8	0.046616524
82	0xbd8c25e6	-0.06843166
83	0xbe32b0ee	-0.17450306
84	0xbda00090	-0.07812607
85	0xbd08af81	-0.0333705
86	0x3ccc352b	0.024927696
87	0xbdaf0713	-0.08546271
88	0x3db92c2d	0.09041629
89	0xbd0d5122	-0.034501202
90	0xbd97d328	-0.07413322
91	0xbdb0ff7b	-0.08642479
92	0xbcefd5cd	-0.029276753
93	0xbc97cc40	-0.018530011
94	0xbe1be6ca	-0.15224758
95	0x3db7ca24	0.08974102
96	0xbd5fb6c4	-0.05461766
97	0x3d9746d1	0.07386554
98	0x3ddf37c0	0.10899305
99	0x3d02e91c	0.03196059
100	0xbdca7450	-0.09885466
101	0x3b253001	0.0025205615
102	0xbe047916	-0.12936816
103	0x3d76356f	0.060109552
104	0x3da13fb9	0.07873482
105	0x3dcc2878	0.09968656
106	0xbc1e2f70	-0.009654865
107	0xbe066111	-0.13122965
108	0x3dd5d39d	0.10440753
109	0x3a5356c2	0.0008061939
110	0xbdbbd8c2	-0.09172203
111	0xbd2dad6c	-0.042401716
112	0x3d05823c	0.032594904
113	0xbca69f3e	-0.020339604
114	0x3d2dcbd6	0.04243072
115	0xbd02d2b7	-0.031939235
116	0xbd4d1f0e	-0.050078444
117	0x3d4926ff	0.049109455
118	0xbbe33a51	-0.006934442
119	0x3d8ae507	0.06781965
120	0x3dd1e26f	0.10248267
121	0xbde21e58	-0.11040944
122	0x3dc901ac	0.09814772
123	0x3d3cdf72	0.04611153
124	0x3d5056d2	0.05086405
125	0xbd85d6ac	-0.06535086
126	0x3debb40e	0.11508952
127	0x3e0ae798	0.13564909
128	0xbc73b3b2	-0.014874386
129	0x3d5cf088	0.053940326
130	0x3d3c89f5	0.046030004
131	0x3d9e8475	0.07740108
132	0x3d986c44	0.07442525
133	0x3db0cae7	0.086324506
134	0xbd2cf8f8	-0.042229623
135	0xbd86a8e1	-0.0657518
136	0xbd219321	-0.039446954
137	0x3ca53144	0.020165093
138	0xbd8246f9	-0.06361193
139	0x3da5f066	0.08102493
140	0xbdb2366a	-0.08701785
141	0xbd53d9bc	-0.05172132
142	0xbdd165a9	-0.10224468
143	0xbd8f4d21	-0.06997133
144	0x3db450e5	0.08804492
145	0x3d1b49e5	0.03791227
146	0xbdd39827	-0.10331755
147	0xbda7c9cf	-0.08192789
148	0xbd88d866	-0.066819
149	0xbd521690	-0.05129105
150	0xbcfc81e0	-0.030823648
151	0xbcdd804a	-0.027038712
152	0x3d588e10	0.052869856
153	0xbd9006e4	-0.07032564
154	0xbd844554	-0.06458536
155	0xbde9a732	-0.11408843
156	0xbde91ce7	-0.11382466
157	0x3d28a047	0.041168477
158	0xbdb8c36b	-0.09021648
159	0x3be196e5	0.006884443
160	0x3d01938c	0.031634852
161	0x3d8045bd	0.062633015
162	0xbd88bb6f	-0.06676375
163	0xbe04df6a	-0.1297585
164	0x3cc6eb23	0.024282044
165	0x3d5b72b5	0.05357619
166	0xbdad9e51	-0.08477462
167	0x3d91613f	0.07098626
168	0xbdbbf690	-0.091778874
169	0xbd0108a0	-0.031502366
170	0xbd316f8b	-0.043319266
171	0xbbd4c62c	-0.0064933505
172	0xbccd88b3	-0.025089597
173	0xbc289317	-0.010288975
174	0x3d82c9aa	0.063861206
175	0x3da627c1	0.08113051
176	0xbde5406d	-0.11193929
177	0x3c84f093	0.016227996
178	0x3d425330	0.047442615
179	0xbccfd2d5	-0.025369087
180	0x3c2ea7a3	0.010660085
181	0xbde38791	-0.111098416
182	0xbdf13acd	-0.117787935
183	0x3d06575a	0.03279815
184	0x3c9a1109	0.018806951
185	0x3dcefab0	0.101064086
186	0xbd11c73f	-0.035590407
187	0xbd77b01c	-0.060470685
188	0xbc91f03d	-0.01781475
189	0x3c2e8d34	0.010653783
190	0x3e01d82a	0.12680116
191	0xbc63503d	-0.013874111
192	0xbdb80a2b	-0.089863144
193	0x3d2befa6	0.041976593
194	0xbcf0d49c	-0.029398255
195	0x3ccea41e	0.025224742
196	0xbd9e847d	-0.07740114
197	0xbd09c648	-0.03363636
198	0xbd203f24	-0.039122716
199	0x3ccf3174	0.025292136
200	0xbd44704d	-0.04795866
201	0xbd49c06b	-0.04925577
202	0x3d793f2a	0.060851254
203	0x3cddec04	0.02709008
204	0xbd557ab1	-0.05211896
205	0xbdd26592	-0.10273279
206	0x3d326ae0	0.043558955
207	0xbbbfd518	-0.00585426
208	0xbd3b2a9d	-0.045694936
209	0xbdcdd514	-0.10050407
210	0x3d4d7cbe	0.05016779
211	0xbd71994a	-0.05898408
212	0xbc925a51	-0.017865332
213	0xbcc35ccf	-0.023847966
214	0xbe26c253	-0.16285066
215	0xbde0186e	-0.109421596
216	0xbcbbf4e3	-0.02294392
217	0xbc9cbaa7	-0.019131972
218	0xbc2e90ad	-0.010654611
219	0x3d80b2f4	0.062841326
220	0xbca0574b	-0.019572875
221	0x3c1561a5	0.009117519
222	0x3d599348	0.053118974
223	0xbc961daf	-0.018324701
224	0xbde0a0f5	-0.109682
225	0xbd9e0398	-0.07715529
226	0x3b9f2690	0.004856892
227	0x3d074857	0.033027973
228	0x3d9ce7ad	0.07661376
229	0xbd4a0c99	-0.04932842
230	0xbd85cad6	-0.065328285
231	0xbcd76dcd	-0.026297474
232	0xbc89d27e	-0.016824003
233	0x3d035c24	0.032070294
234	0xbdfda769	-0.123854466
235	0x3de49013	0.111602925
236	0x3d78013e	0.06054806
237	0x3ce4a01e	0.027908381
238	0x3b3ab7d4	0.0028490918
239	0x3def140a	0.11673744
240	0x3d97f159	0.0741908
241	0x3d838d26	0.06423406
242	0x3d943508	0.072366774
243	0xbd579921	-0.05263627
244	0x3b6e25c3	0.0036338426
245	0xbd64577b	-0.05574749
246	0x3c665a61	0.014059634
247	0xbbc7fdad	-0.0061032386
248	0xbd9ba581	-0.07599927
249	0x3c7ca5bb	0.015420373
250	0x3dec369f	0.11533856
251	0xbe0377c5	-0.12838657
252	0xbceae0b4	-0.0286716
253	0xbe115b78	-0.14195049
254	0xbc150e7c	-0.009097692
255	0xbdafecf7	-0.08590119

lstm.weight_hh_l0 f4 [256, 64]
0	0x3ac107dd	0.0014727075
1	0xbc8cc7eb	-0.017185172
2	0x3e0fcc4a	0.14042774
3	0xbd6ab230	-0.05729884
4	0x3c673cb0	0.01411359
5	0xbe0fd4be	-0.14045998
6	0x3d9fbfa4	0.078002244
7	0x3e1fb5fd	0.15596767
8	0x3de28b1f	0.110616915
9	0xbd905cde	-0.07048963
10	0xbd1309ae	-0.035897903
11	0xbdd8fd7e	-0.10595225
12	0x3dbc5827	0.09196501
13	0x3e0a8aee	0.1352956
14	0x3d3222b1	0.043490116
15	0x3b6e175d	0.0036329844
16	0xbde007fc	-0.10939023
17	0x3d7b0aa6	0.061289452
18	0xbdeea178	-0.116518915
19	0x3da88d5a	0.08230086
20	0x3d06b510	0.03288752
21	0xbd2eadcb	-0.04264621
22	0xbd317aeb	-0.043330114
23	0xbd993d62	-0.07482411
24	0xbcff2ceb	-0.031149348
25	0xbca7eba2	-0.0204981
26	0xbccf9c2d	-0.025343025
27	0xbd2f6be2	-0.042827494
28	0x3e0c964d	0.1372921
29	0xbcaf0331	-0.021363826
30	0xbcafcd30	-0.021460146
31	0xbbaacd85	-0.005212488
32	0xbda336c2	-0.079694286
33	0xbd285610	-0.0410977
34	0x3c0beff3	0.008541095
35	0xbe099ad5	-0.1343797
36	0xbd42588a	-0.04744772
37	0x3b40874c	0.0029377518
38	0x3de799ee	0.11308657
39	0xbd581a0b	-0.05275921
40	0xbdb86635	-0.090038694
41	0xbc280c9e	-0.010256914
42	0xbe469275	-0.19391806
43	0x3db2a9a8	0.087237656
44	0x3dc508da	0.09620829
45	0x3c46daff	0.012137174
46	0xbd3a1278	-0.04542777
47	0x3b8af85b	0.004241032
48	0x3cba46fe	0.02273893
49	0xbd8dba45	-0.06920294
50	0x3dc51793	0.09623637
51	0xbe2988c8	-0.16556084
52	0xbd53a6e3	-0.051672827
53	0x3d417c58	0.047237724
54	0x3dab0623	0.0835078
55	0x3d5efd78	0.054440945
56	0x3e23818d	0.15967388
57	0xbd8470f1	-0.06466854
58	0xbd64eee1	-0.055891875
59	0xbddac3b1	-0.106818564
60	0x3d99539d	0.07486651
61	0x3dfba257	0.12286823
62	0xbd42c4b7	-0.047550883
63	0x3dd06ed5	0.101773895
64	0xbd8caa03	-0.06868365
65	0x3c9ba8ff	0.019001482
66	0xbda29e88	-0.07940394
67	0x3cca46cc	0.024691962
68	0xbc93e671	-0.018054219
69	0xbc353fd8	-0.011062585
70	0xbd9cf0e8	-0.07663137
71	0xbd4b2d92	-0.049604006
72	0xbba52e75	-0.0050409385
73	0xbdd21a10	-0.10258877
74	0x3dbfc975	0.09364597
75	0x3d575733	0.052573394
76	0xbccaac86	-0.024740469
77	0xbcbbabb9	-0.022909032
78	0xbd346e31	-0.0440504
79	0x3dc529ac	0.09627089
80	0xbd590b77	-0.05298945
81	0x3c39772f	0.0113199195
82	0x3d815754	0.06315485
83	0x3de630a5	0.11239747
84	0x3cf651cf	0.030068306
85	0x3d4ab062	0.049484618
86	0xbba443c1	-0.0050129597
87	0xbda511dd	-0.08060048
88	0x3d103233	0.035204124
89	0xbbb19b61	-0.005420134
90	0x3cc5d954	0.024151482
91	0xbd051e86	-0.032499813
92	0x3c30a866	0.010782337
93	0xbd999810	-0.07499707
94	0xbd47b25c	-0.04875408
95	0x3d1b0bb0	0.037852943
96	0x3d4e3ea7	0.05035272
97	0x3d0216a0	0.031759858
98	0x3c526a8e	0.012842787
99	0xbd95ade9	-0.07308561
100	0xbc87fff8	-0.016601548
101	0x3ce342a9	0.027741747
102	0x3d1559a3	0.036462437
103	0x3e1a2d21	0.15056278
104	0x3ddcce5c	0.107815474
105	0x3dab41d0	0.08362162
106	0x3dc0545b	0.093910895
107	0xbd62a456	-0.055332504
108	0x3c9ec680	0.019381762
109	0xbd1d873e	-0.038459055
110	0x3ca4a68a	0.020098943
111	0x3dccff06	0.10009579
112	0xbdeb15a0	-0.11478734
113	0xbc8cf8f3	-0.017208552
114	0x3dbc7afe	0.092031464
115	0xbcc669be	-0.024220344
116	0x3de30ed5	0.11086813
117	0x3caf9d2c	0.02143725
118	0xbb90a5f9	-0.0044143167
119	0xbdbe58fb	-0.092943154
120	0x3db9168a	0.09037502
121	0xbd8b00ed	-0.06787286
122	0xbd91cb8b	-0.07118901
123	0xba5341b0	-0.00080587994
124	0xbd86b111	-0.065767415
125	0x3d638f6c	0.0555567
126	0xbe057999	-0.13034667
127	0x3c14f961	0.00909266
128	0xbd0e86cb	-0.034796517
129	0xbdcb3fa7	-0.0992425
130	0xbd70fc24	-0.05883421
131	0x3cda39a7	0.026638819
132	0x3de3f0e2	0.11129929
133	0xbd344eac	-0.04402034
134	0xbd6fb810	-0.058525145
135	0xbd81cd4c	-0.063379854
136	0xbda5a4e3	-0.0808809
137	0xbda28c73	-0.07936945
138	0x3deef89f	0.116685145
139	0x3d15a2ef	0.03653234
140	0x3d0426ef	0.032263692
141	0xbd6ef17a	-0.05833576
142	0xbd5db6f9	-0.054129574
143	0x3d119f81	0.035552505
144	0xbce9d193	-0.028542316
145	0x3d23caf8	0.039988488
146	0x3c03492b	0.00801305
147	0x3bbe02d3	0.0057986765
148	0xbd85e1aa	-0.06537183
149	0x3d8e7995	0.06956784
150	0xbcf3f89e	-0.029781636
151	0xbc3f86ad	-0.011689824
152	0xbd3476de	-0.044058673
153	0xbe03d665	-0.12874754
154	0x3d85f4dd	0.065408446
155	0x3d2aa7ae	0.041663818
156	0x3d260d25	0.04053988
157	0xbdea7d09	-0.1144963
158	0xbda287a7	-0.0793603
159	0xbdd01a60	-0.10161281
160	0x3dbf8f5d	0.09353516
161	0xbcd99961	-0.026562395
162	0xbe173fa0	-0.14770365
163	0xbc6b2c1c	-0.014353778
164	0x3d63a616	0.055578314
165	0x3ca34cde	0.019934114
166	0x3dd14c5d	0.10219643
167	0x3ca96353	0.020677244
168	0x3c9992e3	0.018746799
169	0x3d115411	0.035480563
170	0x3bd1299b	0.0063831336
171	0x380e939d	3.3992914e-05
172	0xbb6bc3bc	-0.003597482
173	0xbd3510d6	-0.04420551
174	0x3d4990c4	0.049210325
175	0xbdb5cbe6	-0.08876781
176	0xbda1a967	-0.07893639
177	0x3bb0ff1d	0.0054015056
178	0x3b28fac4	0.0025784234
179	0x3da92630	0.08259237
180	0x3d804322	0.062628046
181	0xbdf10b63	-0.1176975
182	0x3dbae183	0.09125044
183	0xbd005c7c	-0.0313382
184	0x3d027b9a	0.031856157
185	0xbbc894c6	-0.006121251
186	0x3da66761	0.08125187
187	0x3d880a4a	0.066425875
188	0xbd8ab8f0	-0.06773555
189	0x3e019ee4	0.12658268
190	0xbd834600	-0.06409836
191	0x3d6dec30	0.058086574
192	0x3e073fe1	0.13207962
193	0xbdb5df29	-0.08880455
194	0x3d974cc4	0.07387689
195	0xbd97acdb	-0.074060164
196	0xbd58a7a7	-0.05289426
197	0x3da6823c	0.08130309
198	0x3d9efafa	0.07762714
199	0xbd113b1d	-0.035456765
200	0xba98ba93	-0.0011652283
201	0xbdccb0c4	-0.09994653
202	0xbd38c50b	-0.04510979
203	0xbc497d23	-0.012297901
204	0xbdfb3d31	-0.12267531
205	0x3dc22d70	0.09481323
206	0x3dfa1ab3	0.12212124
207	0xbd3c893d	-0.046029318
208	0x3c03e7e8	0.008050896
209	0xbcf0e859	-0.029407667
210	0xba1acbc4	-0.0005904997
211	0xbd3d5896	-0.04622706
212	0x3d4f533d	0.05061649
213	0xbdf46292	-0.11932863
214	0xbce9518f	-0.028481273
215	0xbdd54219	-0.10412998
216	0x3d3c53a1	0.045978192
217	0x3d9d5dd5	0.07683913
218	0xbd674bf6	-0.056468926
219	0xbdd05947	-0.10173278
220	0x3d8ccbf7	0.06874841
221	0x3dcccf07	0.10000425
222	0xbd339b99	-0.04384956
223	0xbc7ac356	-0.015305361
224	0x3d233a8a	0.03985075
225	0x3d03bcf0	0.032162607
226	0xbe190ee4	-0.14947087
227	0x3caf364a	0.021388192
228	0xbe1c5bea	-0.15269437
229	0xbddb7cf3	-0.107171915
230	0x3def2ce7	0.11678486
231	0x3d1cb42b	0.03825776
232	0x3ba84f9b	0.005136443
233	0x3dbd498e	0.09242545
234	0x3d0d492b	0.034493607
235	0x3df2a578	0.11847967
236	0xbdc8613d	-0.09784172
237	0x3da7d76f	0.081953876
238	0xbd82898d	-0.06373892
239	0xbdd35241	-0.10318423
240	0x3d956572	0.0729474
241	0x3cbfcf82	0.023414377
242	0x3c13e011	0.00902559
243	0x3dc9668b	0.09834012
244	0x3d8142e6	0.06311588
245	0x3ddcf083	0.107880615
246	0x3de41e6b	0.11138614
247	0x3db93940	0.09044123
248	0x3df08534	0.117441565
249	0xbdefbe1b	-0.117061816
250	0xbcd288f6	-0.025700074
251	0xbbee53c1	-0.007273168
252	0x3d535ff2	0.051605172
253	0x3d827485	0.063698806
254	0x3d8948f4	0.06703368
255	0x3da99d2d	0.08281932

lstm.bias_ih_l0 f4 [256]
0	0xbc93caa6	-0.018040966
1	0xbd9f793d	-0.07786796
2	0xbbfa9136	-0.007646705
3	0xbd135e00	-0.035978317
4	0x3cd0e5bc	0.02550017
5	0x3d60626e	0.05478137
6	0xbc81681a	-0.01579671
7	0xbde0e90f	-0.109819524
8	0xbdba1b26	-0.090872094
9	0x3d061bc8	0.032741338
10	0x3c8d6d65	0.017264077
11	0xbd5521c9	-0.052034173
12	0xbd809554	-0.06278482
13	0x3dbb1ead	0.0913671
14	0xbdf6a2e7	-0.1204279
15	0xbda9627e	-0.08270739
16	0xbd270938	-0.040780276
17	0xbd0576e8	-0.0325841
18	0x3d5f29bf	0.05448317
19	0xbacceef6	-0.0015635181
20	0x3d74d9a6	0.05977788
21	0xbdac6d31	-0.08419264
22	0xbdfe2e61	-0.1241119
23	0xbdacc16d	-0.084353305
24	0x3c88f362	0.016717616
25	0xbd4fefce	-0.050765805
26	0x3d97bc27	0.07408934
27	0x3dabaafe	0.083822235
28	0x3cb60c7b	0.022222748
29	0xbde7e797	-0.11323469
30	0xbdede787	-0.11616426
31	0x3db443f2	0.08802022
32	0xbe03b9e9	-0.12863888
33	0xbda70391	-0.08154977
34	0xbd5cb2a5	-0.053881306
35	0x3de2beeb	0.11071571
36	0xbd90bcc1	-0.07067252
37	0x3cee2b26	0.02907331
38	0xbce919cd	-0.028454686
39	0xbd42442e	-0.047428302
40	0xbdefb4ff	-0.11704444
41	0xbb820f74	-0.0039691273
42	0x3cadc377	0.021211369
43	0x3db3bf23	0.08776691
44	0x3d4b1500	0.049580574
45	0x3e198a09	0.14994062
46	0x3db6b1f0	0.08920658
47	0xbd91a399	-0.07111282
48	0xbd072a1b	-0.03299914
49	0xbd99fe3e	-0.07519196
50	0xbc299edf	-0.010352819
51	0x3cd4e2ff	0.025987146
52	0xbc246028	-0.010032691
53	0xbd23d9b7	-0.04000255
54	0x3db99d71	0.09063233
55	0xbd676e57	-0.056501713
56	0x3dd55bc1	0.10417891
57	0x3cef79bd	0.029232854
58	0xbd2abd52	-0.041684456
59	0xbc356c78	-0.011073224
60	0xbc8ccf50	-0.017188698
61	0x3d9e7b21	0.07738329
62	0x3db2c248	0.087284625
63	0x3da11a26	0.078663155
64	0xbdc67b2e	-0.096914634
65	0x3d710a69	0.05884782
66	0xbdcaac28	-0.098961174
67	0xbd081133	-0.033219527
68	0xbd13e4f2	-0.03610701
69	0xbc4da5f1	-0.012551771
70	0x3dedd8ca	0.11613615
71	0xbc600f54	-0.0136755295
72	0x3e0c2225	0.136849
73	0xbd3aad56	-0.045575462
74	0xbc0cd27b	-0.008595104
75	0x3c099fec	0.008399945
76	0xbd1cc924	-0.03827776
77	0x3d9b9e9f	0.07598614
78	0xbdd4ea45	-0.10396246
79	0xbd208e2d	-0.03919809
80	0xbdd06cb5	-0.10176984
81	0xbdeffb07	-0.117178015
82	0xbd5a48a4	-0.05329193
83	0x39ef0c78	0.00045594922
84	0xbd8ebe36	-0.069698736
85	0x3db939b2	0.09044208
86	0xbde0a6af	-0.10969292
87	0xbd852133	-0.06500473
88	0xbd4ba824	-0.0497209
89	0x3da657cb	0.08122214
90	0xbd26f9ab	-0.040765446
91	0xbd881e12	-0.066463605
92	0xbddafffa	-0.10693355
93	0xbd55ac23	-0.052166115
94	0x3d9d949d	0.07694361
95	0xbdcf8616	-0.10132997
96	0xbdb0d4f7	-0.0863437
97	0x3d96c438	0.073616445
98	0xbd5780c9	-0.052613053
99	0x3df1e896	0.1181194
100	0x3e0a7f60	0.13525152
101	0x3c8400c6	0.01611365
102	0xbe04e884	-0.12979323
103	0x3d9e36d5	0.07725302
104	0xbddc5d03	-0.10759928
105	0xbc27afac	-0.0102347545
106	0xbc9cee52	-0.019156609
107	0xbd1b3bc3	-0.03789879
108	0x3dc1acd6	0.09456794
109	0xbca5cd43	-0.020239478
110	0x3d479923	0.048730027
111	0x3df2b9bf	0.118518345
112	0x3d9073cb	0.07053336
113	0xbd860128	-0.06543189
114	0xbe02c845	-0.1277171
115	0xbd36c90c	-0.044625327
116	0xbd62e99a	-0.05539856
117	0xbcce2dad	-0.025168264
118	0x3c2f2735	0.0106905
119	0x3bed7462	0.00724654
120	0xbc253026	-0.01008228
121	0x3d9bb7f0	0.07603443
122	0xbdbb655f	-0.091501944
123	0x3d65880d	0.05603795
124	0x3b936bc1	0.0044989293
125	0xbc9674c4	-0.018366225
126	0xbd654806	-0.05597689
127	0xbc1e94bf	-0.0096790185
128	0xbdc6064e	-0.09669171
129	0xbbb21728	-0.0054348893
130	0xbcbd2046	-0.023086678
131	0xbd95e69a	-0.073193744
132	0x3d089250	0.03334266
133	0x3d4a9c5b	0.04946552
134	0xbd88e810	-0.066848874
135	0xbd00b08b	-0.031418364
136	0x3dacb750	0.084334016
137	0xbd3c7346	-0.04600837
138	0xbdaaafe1	-0.083343275
139	0x3dd78314	0.10523048
140	0x3d9a8505	0.07544903
141	0x3dfa91d3	0.12234845
142	0xbd24836f	-0.040164407
143	0xbc83ac93	-0.0160735
144	0x3ce4954d	0.027903223
145	0x3dc9d01f	0.09854149
146	0x3d5bb033	0.053634834
147	0xbd827bd8	-0.063712776
148	0xbc404e00	-0.011737347
149	0x3ddb52cd	0.10709152
150	0x3a935084	0.0011239205
151	0xbe01fb47	-0.12693511
152	0xbdde814e	-0.10864507
153	0xbd35a70e	-0.04434877
154	0xbc8f5520	-0.017496645
155	0x3da74550	0.08167517
156	0xbdfe7d37	-0.124262266
157	0xbddf2746	-0.10896163
158	0x3cd40313	0.025880372
159	0xbda4c17d	-0.080447175
160	0xbcdd283f	-0.02699673
161	0xbe0faa9b	-0.14029925
162	0x3daf668b	0.085644804
163	0x3c91929f	0.01777011
164	0x3c61e304	0.013787035
165	0x3c42148c	0.011845719
166	0xbd951e88	-0.07281214
167	0xbc74e41d	-0.014946965
168	0xbd97e6af	-0.07417046
169	0x3d2485c0	0.040166616
170	0x3dfc077f	0.12306117
171	0xbc70c480	-0.014695287
172	0xbd3bf9d3	-0.045892548
173	0xbdfa7731	-0.12229765
174	0xbd91f062	-0.071259275
175	0xbdd0e96b	-0.10200771
176	0xbc6ce5b7	-0.014459065
177	0x3d65b57b	0.056081276
178	0xbd83971a	-0.06425305
179	0xbbebe55a	-0.0071989717
180	0x3d579880	0.05263567
181	0xbd34f269	-0.044176493
182	0xbd7f8575	-0.062383134
183	0xbd5783f4	-0.052616075
184	0xbd8072c9	-0.062718935
185	0x3dbccdd6	0.092189476
186	0x3d15106e	0.03639262
187	0x39c17b72	0.00036903803
188	0xbc6bdbc3	-0.014395657
189	0x3d17c3f1	0.0370521
190	0xbdcc4e7e	-0.09975909
191	0x3da48d90	0.080348134
192	0x3cc2299a	0.023701478
193	0x3dd63982	0.104601875
194	0xbda6115e	-0.08108781
195	0x3d9bb1bd	0.0760226
196	0x3ddef3b9	0.1088633
197	0x39e934d2	0.00044480577
198	0xbda8529f	-0.08218884
199	0x3bda0adf	0.006654128
200	0xbd884281	-0.066533096
201	0xbdace3d2	-0.08441891
202	0xbdd00766	-0.10157661
203	0xbd9bdbf4	-0.07610312
204	0x3d787d4b	0.060666364
205	0x3d19d5d4	0.037557438
206	0xbd09c611	-0.033636156
207	0xbda07035	-0.07833902
208	0xbdeeaa3b	-0.11653563
209	0xbd842c06	-0.06453709
210	0x3d6fc618	0.058538526
211	0xbd9a04ef	-0.07520472
212	0xbdc2238c	-0.09479436
213	0xbd948198	-0.072512805
214	0x3d639bd2	0.055568524
215	0xbd98efce	-0.07467614
216	0x3dcc6aab	0.09981283
217	0x3d2304fd	0.03979968
218	0x3c7cabbb	0.015421803
219	0xbdaca798	-0.084304035
220	0x3dc68856	0.09693973
221	0xbddce4ba	-0.10785814
222	0xbd1f1f47	-0.038848188
223	0xbdd0122d	-0.10159717
224	0xbde19dd5	-0.11016432
225	0x3bb2de2a	0.005458613
226	0x3d0976b3	0.033560466
227	0xbd1b5bb5	-0.037929256
228	0xbdd37eea	-0.10326941
229	0x3dd1f087	0.10250955
230	0x3dd68fdb	0.10476657
231	0xbe139f1f	-0.14416169
232	0xbc9b5fa3	-0.018966502
233	0x3d447292	0.047960825
234	0x3cedf6ac	0.029048286
235	0xbdb43e3e	-0.08800934
236	0xbddbd855	-0.107346214
237	0x39bc27ee	0.00035887904
238	0x3de32aa9	0.11092121
239	0xbd6c37a3	-0.057670247
240	0xbdc6018c	-0.09668264
241	0x3db486bc	0.08814761
242	0x3da61735	0.08109895
243	0xbd93d58e	-0.07218467
244	0x3cfc5b2e	0.030805197
245	0xbdfbc09b	-0.12292596
246	0x3c45c4c0	0.012070835
247	0x3bd097d7	0.006365757
248	0x3d1b2609	0.03787807
249	0xbbcd86ff	-0.0062721963
250	0x3d141472	0.03615231
251	0xbd7ed228	-0.06221214
252	0xbdd516bf	-0.10404729
253	0x3ba7a762	0.005116389
254	0x3d51fee0	0.05126846
255	0xbdca3a14	-0.09874359

lstm.bias_hh_l0 f4 [256]
0	0xbc40ae4c	-0.011760306
1	0x3d5c0d64	0.053723708
2	0xbd584122	-0.05279649
3	0x3c7c535f	0.015400737
4	0x3d4e6975	0.05039354
5	0x3d21d2a8	0.039507538
6	0xbd0294e5	-0.03188028
7	0xbccbb88a	-0.024868269
8	0xbca11240	-0.019662023
9	0x3d8fd153	0.07022347
10	0x3dfc1501	0.12308694
11	0x3dfcd01d	0.12344382
12	0x3d2c9d69	0.042142306
13	0x3c21c87c	0.009874459
14	0xbdaf1f62	-0.08550908
15	0xbdaa5673	-0.0831727
16	0x3d9d6d45	0.07686857
17	0x3c4ef7fd	0.012632367
18	0xbd2c70d7	-0.0420998
19	0xbd7e0d76	-0.062024556
20	0x3df804b5	0.12110273
21	0xbe05e785	-0.13076599
22	0x3d03efe7	0.03221121
23	0x3d3ceff6	0.046127282
24	0x3c295437	0.01033502
25	0xbc88eb9c	-0.01671391
26	0xbd4e1226	-0.050310276
27	0xbd0bcd3b	-0.03413127
28	0xbde1c07c	-0.110230416
29	0x3d235121	0.039872292
30	0x3cc650c2	0.02420843
31	0x3db5fa35	0.08885614
32	0x3d147e33	0.036253165
33	0x3de66cff	0.11251258
34	0x3de0ec40	0.10982561
35	0xbd39df2d	-0.045378853
36	0xbd996579	-0.074900575
37	0xbd7f689c	-0.062355623
38	0xbe0cde74	-0.13756734
39	0x3ce0cd61	0.027441682
40	0xbdd36558	-0.10322064
41	0xbc473a05	-0.012159829
42	0xbcee08f2	-0.029057
43	0x3d5688d8	0.052376598
44	0xbdc0c909	-0.094133444
45	0x3dbb7199	0.091525264
46	0x3ce8bcce	0.028410342
47	0x3dbd7e78	0.092526376
48	0x3c1eae12	0.009685056
49	0x3db6b13e	0.08920525
50	0x3bcf1c88	0.00632054
51	0x3d8f849f	0.07007717
52	0xbbf85345	-0.007578286
53	0xbce3a43c	-0.027788274
54	0xbd8fe5af	-0.070262305
55	0x3bd0744f	0.0063615213
56	0x3c7f55a0	0.015584379
57	0xbdadaeb8	-0.084805906
58	0x3d2f08a3	0.042732846
59	0xbdfe4c12	-0.12416853
60	0xbd88edd1	-0.06685985
61	0x3bbd6d91	0.0057808836
62	0xbdb63156	-0.08896129
63	0x3d024402	0.03180314
64	0x3da37595	0.07981411
65	0x3c8acab3	0.016942358
66	0x3c717bef	0.014739021
67	0x3db9340a	0.09043129
68	0xbc998386	-0.018739473
69	0x3dcf6611	0.101268895
70	0x3d7a0306	0.06103804
71	0xbe07bc95	-0.13255532
72	0x3e208de5	0.15679128
73	0x3d411b3f	0.047145125
74	0xbdcd911f	-0.10037445
75	0x3ba59b7e	0.0050539365
76	0xbdd71a65	-0.10503081
77	0x3d48bc2f	0.04900759
78	0x3d82215e	0.063540205
79	0xbd5cde8f	-0.053923186
80	0xbc7c11e7	-0.015385128
81	0x3d429db7	0.04751369
82	0x3b876aa3	0.004132585
83	0xbc61347e	-0.013745425
84	0xbdef42ab	-0.11682638
85	0xbb2855d4	-0.0025685923
86	0xbd0d8855	-0.034553844
87	0xbd708f59	-0.058730457
88	0xbcb37c93	-0.021909988
89	0x3de3e42a	0.11127503
90	0x3d111534	0.03542061
91	0x3ddcffdb	0.10790988
92	0x3d1c741c	0.038196668
93	0x3bac68f3	0.0052615344
94	0xbe0b479d	-0.13601537
95	0xbdc566a1	-0.096387155
96	0xbd247f27	-0.040160324
97	0xbdf721d6	-0.120670006
98	0x3c6b8529	0.01437501
99	0x3d37e69d	0.044897664
100	0x3dea304c	0.11434993
101	0x3d87d872	0.066330805
102	0xbd2d31d8	-0.042283863
103	0x3dc6c1e5	0.09704951
104	0x3cd7da82	0.02634931
105	0xbb9c4e0f	-0.0047700475
106	0xbc35628c	-0.011070859
107	0x3d1d0003	0.03833009
108	0x3dc6e1eb	0.09711059
109	0x3d630b7c	0.055430874
110	0xbe0eb1ca	-0.13935009
111	0x3caa594e	0.020794537
112	0x3e00530d	0.12531681
113	0x3c7dfdca	0.015502403
114	0xbd82c9a9	-0.0638612
115	0xb966380f	-0.00021955393
116	0x395cd2a6	0.00021059308
117	0xbde942e3	-0.11389711
118	0x3dedbbbc	0.11608073
119	0x3bee2c2e	0.00726845
120	0x3d6062b9	0.05478165
121	0xbdcfd53f	-0.10148095
122	0x3d439787	0.04775193
123	0xbd910320	-0.07080674
124	0x3c92aebb	0.017905584
125	0x3c378a33	0.011202383
126	0x3df713d9	0.120643325
127	0x3e0a148e	0.13484403
128	0xbd5a1eed	-0.05325215
129	0xbde94f9d	-0.11392138
130	0xbddca98a	-0.107745245
131	0xbc56617c	-0.0130847655
132	0x3d8237d9	0.06358308
133	0xbc4d3dea	-0.0125269685
134	0xbdb14cb8	-0.08657211
135	0xbd23ee9b	-0.040022474
136	0xbd9971b5	-0.07492391
137	0x3dc034f8	0.09385103
138	0x3e081283	0.13288312
139	0x3defe291	0.11713136
140	0x3cb1fb3d	0.021726245
141	0x3d121222	0.035661824
142	0xbd27a4aa	-0.04092852
143	0x3dc9a78a	0.09846409
144	0x3cbf9886	0.023388159
145	0xbd852586	-0.06501298
146	0xb82bd5a0	-4.096853e-05
147	0xbdeca64c	-0.11555156
148	0xbda6985a	-0.081345275
149	0xbc102a0f	-0.00879909
150	0xbd365930	-0.04451865
151	0x3d3e658b	0.046483558
152	0x3c57650f	0.013146653
153	0xbcc42cdb	-0.02394717
154	0xbd7e72c7	-0.06212118
155	0x3d07a8c9	0.03311995
156	0x3d5371e3	0.051622283
157	0x3c66a34e	0.014077021
158	0x3d255276	0.040361844
159	0x3dac0dc3	0.08401062
160	0x3dfcf110	0.123506665
161	0x3cae045d	0.021242315
162	0x3da31368	0.07962686
163	0x3d18f106	0.037339233
164	0x3dd44b72	0.103659526
165	0x3c3aa4b8	0.011391811
166	0xbce26136	-0.027634244
167	0xbd75dd32	-0.0600254
168	0x3c4e4b73	0.012591231
169	0xbd59eb5c	-0.05320297
170	0xbc9329cd	-0.017964268
171	0xbd9e0cb4	-0.07717267
172	0x3d405277	0.046953645
173	0xbdde9b65	-0.10869483
174	0x3d71059a	0.058843233
175	0x3da8f563	0.08249929
176	0x3db63265	0.08896331
177	0xbd14e9cb	-0.036355775
178	0x3dd548fc	0.10414311
179	0xbdb3ee1c	-0.0878565
180	0x3d3ff301	0.046862606
181	0xbd8244a3	-0.06360748
182	0xbd36e98a	-0.044656314
183	0xbde2cdf4	-0.11074439
184	0x3c86b788	0.016444936
185	0xbdf3a0d8	-0.11895913
186	0x3d6540d7	0.05597004
187	0xbd396a47	-0.04526737
188	0xbdec4909	-0.11537368
189	0x3cf8a7bd	0.030353421
190	0xbd83072a	-0.06397851
191	0xbd0a182b	-0.033714455
192	0xbddbfc81	-0.10741521
193	0x3c90b0be	0.017662402
194	0xbd921a73	-0.07133951
195	0x3db5e5e2	0.08881737
196	0xbde888dd	-0.113542296
197	0x3d88f668	0.06687623
198	0xbd0a8873	-0.033821534
199	0xbe101625	-0.14070947
200	0x3dba52d9	0.09097833
201	0x3cc92e1b	0.024558118
202	0x3bf7fc26	0.0075679002
203	0xbd4a246c	-0.04935114
204	0xbcb40902	-0.021976952
205	0xbd37da20	-0.044885755
206	0x3d988261	0.07446743
207	0xbd77c8b7	-0.06049415
208	0xbbffe901	-0.0078097587
209	0xbd9f10bf	-0.07766866
210	0x3dd41e2c	0.10357317
211	0x3d3c150f	0.04591852
212	0xbd982561	-0.074290045
213	0x3bf1104c	0.007356679
214	0x3dbeee73	0.09322824
215	0x3c0a6047	0.008445806
216	0x3cf6a0c6	0.03010596
217	0xbd58894b	-0.052865308
218	0x3d31d010	0.043411314
219	0x3ad18f42	0.0015988129
220	0x3de0c6ea	0.1097544
221	0x3c847c4e	0.016172554
222	0x3c82f3cb	0.01598539
223	0xbceaa4f8	-0.028643116
224	0x3d800d6b	0.06252559
225	0xbbe687f9	-0.007035252
226	0x3d3478c3	0.04406048
227	0x3d597001	0.05308533
228	0x3de685ee	0.11256014
229	0xbd87b644	-0.06626561
230	0x3d79cade	0.060984485
231	0xbdc77528	-0.09739143
232	0x3c72babd	0.01481503
233	0x3c14ad3b	0.0090745045
234	0xbcf9aba4	-0.030477352
235	0xbdcf421a	-0.1012003
236	0x3d36577b	0.04451702
237	0xbd26c1c1	-0.040712122
238	0x3da6bede	0.08141874
239	0x3ad5a274	0.0016299025
240	0xbb57a9c9	-0.0032907596
241	0xbe08a3db	-0.13343756
242	0xbc68ef70	-0.014217243
243	0xbcd73d5f	-0.026274381
244	0xbdaab3dc	-0.08335087
245	0xbda9e09a	-0.082947925
246	0x3da1a755	0.07893244
247	0x3d416d28	0.04722324
248	0xbcb5c76b	-0.022189816
249	0xbce4ae45	-0.02791513
250	0xbc8b947e	-0.01703858
251	0xbd8aec24	-0.067833215
252	0xbdbcc5ee	-0.092174396
253	0x3d07b6d4	0.033133343
254	0x3ba71b52	0.0050996924
255	0x3d8867ff	0.06660461

lstm.weight_ih_l1 f4 [256, 64]
0	0x3daa3a17	0.08311861
1	0x3d40aa57	0.04703745
2	0xbdbef5ea	-0.09324248
3	0xbd9ad774	-0.07560626
4	0xbdd22027	-0.10260039
5	0xbd92ae79	-0.07162184
6	0xbcc15de0	-0.023604333
7	0x3d9efddb	0.07763263
8	0x3cde0f30	0.027106851
9	0xbdf268b3	-0.11836376
10	0xbd3891b5	-0.045060832
11	0x3d879e0d	0.06621943
12	0x3d4d94a9	0.0501906
13	0xbdcbd2d7	-0.09952324
14	0x3d93f3c0	0.07224226
15	0x3c5589a2	0.0130333025
16	0x3dd87951	0.10570014
17	0x3c0ef40a	0.008725176
18	0x3d86e16e	0.06585966
19	0xbb7044ec	-0.0036662174
20	0xbd92451d	-0.071420886
21	0xbc93662e	-0.017993059
22	0x3e00217b	0.12512772
23	0x3c18af38	0.009319119
24	0x3de9f854	0.11424318
25	0xba60e427	-0.0008578919
26	0x3cf50e40	0.029914021
27	0xbc98406a	-0.018585403
28	0xbd4d1f87	-0.050078895
29	0xbda2db1d	-0.07951949
30	0xbdaac63f	-0.08338594
31	0xbdcb7d13	-0.099359654
32	0x3cd6d127	0.026222778
33	0xbcd0069a	-0.025393773
34	0x3df4221e	0.1192057
35	0x3cb75e08	0.022383705
36	0xbd4c803f	-0.049926993
37	0xbca2770e	-0.01983216
38	0xbd9f8152	-0.07788338
39	0xbd93679f	-0.071974985
40	0xbd99cb54	-0.07509485
41	0xbdb9f228	-0.09079391
42	0xbd94237e	-0.07233332
43	0xbd98ccbb	-0.07460924
44	0x3d553133	0.052048873
45	0xbd3c74d1	-0.046009842
46	0xbd736a79	-0.059427712
47	0x3dc3d01f	0.0956118
48	0x3d2b2788	0.041785747
49	0x3d8d3cc6	0.06896357
50	0x3d9c8277	0.07642072
51	0xbdb10077	-0.08642667
52	0xbdeda3fe	-0.11603545
53	0x3d93fe60	0.072262526
54	0xbd925c22	-0.07146479
55	0xbdb2c955	-0.08729807
56	0xbd6bbeb9	-0.057554934
57	0x3d589bd0	0.05288297
58	0xbdac6feb	-0.08419784
59	0xbd1f3bb4	-0.038875297
60	0x3d53118e	0.051530413
61	0x3c46d824	0.012136493
62	0x3d9336b7	0.071881704
63	0x3d8c8034	0.0686039
64	0x3d7029f3	0.058633756
65	0x3e04df3c	0.12975782
66	0xbd3aaaae	-0.04557293
67	0xbdee673f	-0.116407864
68	0xbdb19f3d	-0.086729504
69	0x3e005791	0.12533404
70	0xbcfb4b00	-0.030675411
71	0x3db85ccf	0.09002077
72	0x3d22a630	0.03970927
73	0x3da070e5	0.07834033
74	0xbc17b73d	-0.009259996
75	0x3d768621	0.06018651
76	0xbe0e4c96	-0.13896403
77	0xbce12c57	-0.027486963
78	0xbb24881e	-0.0025105546
79	0x3cf8bae1	0.030362548
80	0x3cc0a530	0.023516268
81	0xbce81f06	-0.028335106
82	0x3d51c4b2	0.051212974
83	0x3d94c5fd	0.07264326
84	0x3d4e2989	0.05033258
85	0xbd4ca8fc	-0.049965844
86	0xbdb1ca5d	-0.08681176
87	0x3cbec0a1	0.023285212
88	0x3d4d9fa9	0.050201092
89	0xbcef5dcc	-0.02921953
90	0xbd050f1d	-0.032485116
91	0xbe04fa8e	-0.12986204
92	0x3d277e01	0.04089165
93	0x3d8a5ae0	0.06755614
94	0x3c7171a5	0.014736568
95	0x3ddc31a5	0.107516564
96	0x3cc42953	0.023945486
97	0x3dcb8b91	0.099387296
98	0x3c91a3b1	0.01777825
99	0xbcd326ff	-0.02577543
100	0xbd2139bf	-0.03936171
101	0x3d1a158c	0.037618205
102	0x3d311fe9	0.043243323
103	0xbd707cbd	-0.05871271
104	0xbd70a7ee	-0.0587539
105	0xbd4d630f	-0.050143298
106	0x3df499e3	0.11943414
107	0xbc7eba35	-0.015547325
108	0xbd8c1449	-0.068398066
109	0x3e0a5716	0.13509783
110	0xbd1eef34	-0.03880234
111	0x3c4946f4	0.012284983
112	0xbd820c9e	-0.06350063
113	0xbdc60de2	-0.09670617
114	0x3cf2af21	0.029624524
115	0x3dbc8e1b	0.09206792
116	0xbd407a19	-0.04699144
117	0xbc954cc7	-0.018225087
118	0x3dc5723d	0.0964093
119	0xbd18ea1a	-0.03733263
120	0xbddc02ce	-0.107427225
121	0x3d25a0bc	0.04043649
122	0x3de46b18	0.11153239
123	0x3df6eb1d	0.12056563
124	0x3da2619a	0.07928772
125	0x3d4834e6	0.048878573
126	0xbda740c6	-0.081666514
127	0xbe116b88	-0.14201176
128	0x3e2e2708	0.17007077
129	0x3d8653c9	0.065589495
130	0x3cf977dc	0.030452661
131	0x3b2aa4f4	0.002603826
132	0xbc9a0503	-0.018801218
133	0x3d8d4473	0.06897821
134	0x3dc26b31	0.094931014
135	0xbd844b2b	-0.0645965
136	0xbd260c72	-0.040539213
137	0x3d9f8ced	0.07790551
138	0xbd5d23b7	-0.05398914
139	0xbdb2b0c9	-0.08725125
140	0x3c9882e7	0.018617107
141	0xbdc022a4	-0.09381607
142	0x3ca3ca7b	0.019994011
143	0xbc02fd31	-0.007994936
144	0xbdc2a218	-0.09503573
145	0x3d75448a	0.059879817
146	0xbd462332	-0.04837341
147	0x3dcbd644	0.09952977
148	0xbe0d5d56	-0.13805136
149	0x3d3ee52a	0.046605267
150	0x3da988a1	0.08278013
151	0x3c78638d	0.0151604535
152	0x3d06eab6	0.03293868
153	0xbd98186f	-0.07426535
154	0xbd6dd183	-0.058061134
155	0x3e03236e	0.12806484
156	0xbda5b237	-0.080906324
157	0xbd97e8ab	-0.07417425
158	0x3c4456d3	0.011983591
159	0xbdab2eae	-0.08358513
160	0xbd91a47c	-0.07111451
161	0x3d4efd89	0.05053476
162	0xbd520f36	-0.051284038
163	0xbe03a514	-0.12855941
164	0x3d8ad966	0.06779747
165	0x3d00a046	0.03140285
166	0x3c92c50e	0.017916229
167	0xbdcda631	-0.10041464
168	0x3b1d82dc	0.0024034297
169	0xbca3409b	-0.019928267
170	0xbdeabeec	-0.11462197
171	0xbe139411	-0.14411952
172	0x3da2cb60	0.07948947
173	0xbd5aae7d	-0.05338906
174	0x3d680f23	0.05665506
175	0xbd43dc1f	-0.047817346
176	0xbd529e0c	-0.051420256
177	0x3dbdeb89	0.092734404
178	0xbd9a0b01	-0.0752163
179	0xbd17edf0	-0.03709215
180	0x3d304caf	0.04304188
181	0x3d07b721	0.03313363
182	0x3e005777	0.12533365
183	0xbd8f1e2d	-0.069881774
184	0x3d6b0c8c	0.057385013
185	0x3c3ce56c	0.011529308
186	0xbd42f389	-0.047595534
187	0xbd82079d	-0.06349108
188	0x3d162b12	0.03666217
189	0xbd2d88b1	-0.042366687
190	0x3bfa49eb	0.0076382062
191	0xbc493f7e	-0.012283204
192	0xbdc4b4d1	-0.096048005
193	0xbd9627c6	-0.07331805
194	0x3deb460d	0.114879705
195	0xbd55bb3b	-0.05218051
196	0x3d6964eb	0.05698101
197	0x3db768c1	0.08955527
198	0xbd906cc1	-0.07051993
199	0x3d8785a8	0.0661729
200	0x3d0df3da	0.034656383
201	0x3d79372e	0.06084364
202	0x3aff5263	0.0019479509
203	0x3c8238c3	0.015896207
204	0xbc74e25e	-0.014946548
205	0x3def9302	0.116979614
206	0xbd899186	-0.067172095
207	0xbd964a62	-0.07338406
208	0xbbf1d4e9	-0.007380117
209	0x3c237a39	0.009977871
210	0x3db54173	0.08850374
211	0x3dc373d0	0.09543574
212	0x3d86e003	0.065856956
213	0x3dc11e08	0.09429556
214	0x3d3a9714	0.045554236
215	0xbde620e7	-0.112367444
216	0xbdaff5e6	-0.08591823
217	0xbd813ee5	-0.06310824
218	0x3dd34319	0.10315532
219	0x3d7dad9f	0.061933156
220	0xbd0f4a57	-0.034983005
221	0xbc024711	-0.007951514
222	0xbca2f90f	-0.019894151
223	0xbdd9f26b	-0.10641941
224	0xbe075ba1	-0.13218547
225	0xbd88bde1	-0.066768415
226	0xbdba9d91	-0.09112085
227	0xbdd64103	-0.10461619
228	0x3aeafc0d	0.00179279
229	0xbc0dfc5a	-0.008666122
230	0xbbd51440	-0.006502658
231	0xbdc80600	-0.097667694
232	0xbe0c0d59	-0.13676967
233	0xbe0beff0	-0.13665748
234	0xbd5ccbbc	-0.053905234
235	0xbc4b8c67	-0.012423611
236	0x3d9a3450	0.07529509
237	0x3df9ef7a	0.1220388
238	0xbd842fa2	-0.06454398
239	0x3c249ae0	0.010046691
240	0xbcde0e35	-0.027106384
241	0x3ded9be0	0.116019964
242	0x3d621350	0.0551942
243	0xbd908aea	-0.07057746
244	0xbdf58a25	-0.119892396
245	0xbdeeff76	-0.11669819
246	0xbd36400b	-0.04449467
247	0x3ddd8878	0.10817045
248	0xbdef10c1	-0.116731174
249	0xbbc7b85b	-0.006094975
250	0x3d8ccdd5	0.06875197
251	0xbc5c7241	-0.013454975
252	0x3cb6800c	0.022277854
253	0xbd2103db	-0.039310317
254	0x3db0c00a	0.086303785
255	0xbe2866d2	-0.16445473

lstm.weight_hh_l1 f4 [256, 64]
0	0xbddcf8ae	-0.107896194
1	0x3d988a17	0.074482135
2	0xbdafd9b5	-0.08586446
3	0xbd89bcc8	-0.0672546
4	0xbdb3555f	-0.087565176
5	0x3d1da5a3	0.03848804
6	0x3dc5990b	0.09648331
7	0x3b4ddf6e	0.0031413692
8	0x3de14ccd	0.11000977
9	0x3d3f416a	0.046693243
10	0x3db9c0b9	0.09069962
11	0xbdb97d56	-0.09057109
12	0x3cbef211	0.023308786
13	0x3d0c41ad	0.03424232
14	0xbd5f7796	-0.054557405
15	0x3ccf0260	0.025269687
16	0xbc80e353	-0.015733397
17	0x3d0597e6	0.032615565
18	0xbcd27d8e	-0.025694635
19	0x3d88c2fc	0.06677815
20	0x3c5cc126	0.013473785
21	0xbc0c1d1c	-0.008551862
22	0x3d88a2a8	0.06671649
23	0x3d539214	0.051652983
24	0xbdf9b5b5	-0.12192861
25	0x3d93a735	0.072096266
26	0xbd14cbc1	-0.036327127
27	0xbda28d1c	-0.07937071
28	0x3dcfc30b	0.10144623
29	0x3dd3895f	0.10328936
30	0x3ddf79f8	0.109119356
31	0x3cce37b4	0.025173046
32	0xbd33de9d	-0.043913472
33	0xbcd1ba8f	-0.025601653
34	0xbd52d2fd	-0.051470745
35	0x3db65c83	0.08904364
36	0xbd4ee44a	-0.050510682
37	0x3cb6e747	0.022327079
38	0x3dc4a44e	0.09601651
39	0x3d3827a1	0.044959668
40	0xbdd6ce83	-0.10488608
41	0xbdd5cb18	-0.10439128
42	0x3d51530f	0.0511046
43	0x3df758f2	0.12077512
44	0xbdb5f0ee	-0.08883844
45	0x3dd13b4a	0.102163866
46	0xbc3080cd	-0.010772896
47	0x3daed8c0	0.085374355
48	0xbddf22ad	-0.10895286
49	0x3d8a80e8	0.06762868
50	0x3dc48f19	0.09597606
51	0x3de0df82	0.10980131
52	0x3b068fac	0.0020532412
53	0x3c54f7ed	0.012998563
54	0x3dfdd92d	0.123949386
55	0xbdfb3b98	-0.12267226
56	0xbd7014dc	-0.058613643
57	0xbcdf3804	-0.02724839
58	0x3d8f952b	0.070108734
59	0xbc8c7404	-0.017145164
60	0x3da5d548	0.08097321
61	0xbd699a8d	-0.057032157
62	0xbdd358aa	-0.10319646
63	0xbd18d1eb	-0.03730957
64	0xbd609704	-0.05483152
65	0xbd9c506c	-0.07632527
66	0xbd7a27da	-0.06107316
67	0x3ddf7fe4	0.10913065
68	0xbdb7c428	-0.08972961
69	0x3e0a09b3	0.13480262
70	0x3d73f897	0.059563246
71	0x3dd74490	0.10511124
72	0x3d82b4c0	0.063821316
73	0xbcfd0e45	-0.030890593
74	0xbc48894c	-0.012239765
75	0x3c88af1d	0.016685063
76	0xbdb35d74	-0.08758059
77	0xbbc383d0	-0.005966641
78	0x3c52f568	0.012875892
79	0x3c3027ec	0.010751706
80	0x3dc7ca18	0.09755343
81	0x3d216ea1	0.039412145
82	0x3d30d72f	0.043173965
83	0xbd72a55d	-0.059239734
84	0x3d9773b1	0.07395113
85	0x3d36568c	0.04451613
86	0x3dd248b8	0.10267776
87	0xbd6b2eda	-0.057417728
88	0xbc39613a	-0.0113146845
89	0xbc7913a1	-0.015202434
90	0xbc7720d1	-0.015083508
91	0xbd87087d	-0.06593416
92	0x3e05917d	0.1304378
93	0xbd7a8d2d	-0.061169792
94	0x3df47358	0.119360626
95	0x3da1c847	0.07899528
96	0xbdd40914	-0.10353294
97	0xbd9bd7bd	-0.07609508
98	0x3d90834f	0.07056295
99	0xbddf7533	-0.10911026
100	0xbda0a099	-0.078431316
101	0x3d42aeb1	0.04752988
102	0xbd119859	-0.03554568
103	0xbddd34cb	-0.10801085
104	0xbd8ee04e	-0.069763765
105	0xbddeb2db	-0.10873958
106	0x3dec0fb3	0.11526432
107	0x3df8f208	0.12155539
108	0x3db27105	0.08712963
109	0x3dba11b6	0.09085409
110	0x3c383e3d	0.0112453075
111	0xbda506fc	-0.08057973
112	0xbdcacca4	-0.09902313
113	0xbda5a85e	-0.08088754
114	0x3d2cda85	0.042200584
115	0xbddf21c6	-0.10895114
116	0xbda74694	-0.081677586
117	0xbd1fe092	-0.039032526
118	0xbd2c9a3d	-0.04213928
119	0xbd368d3b	-0.04456828
120	0xbdd760bd	-0.10516498
121	0x3ca16410	0.019701034
122	0xbcb34975	-0.021885613
123	0x3da22290	0.079167485
124	0xbb0177e9	-0.001975531
125	0x3bcdb252	0.006277361
126	0xbd4b87e3	-0.04969014
127	0x3e12612a	0.14294878
128	0xbcebc014	-0.028778113
129	0x3d8ffdb1	0.0703081
130	0xbd3ac29c	-0.04559575
131	0xbd946b77	-0.0724706
132	0xbd9141fe	-0.07092665
133	0xbda4b8be	-0.08043049
134	0x3bd43c24	0.006476896
135	0x3ccf97b3	0.02534089
136	0xbd231983	-0.03981925
137	0x3b0e77a4	0.0021738792
138	0x3df7fa71	0.12108315
139	0x3df4758f	0.11936485
140	0xbda07b7a	-0.07836051
141	0x3da49d33	0.08037796
142	0xbd584cee	-0.05280774
143	0x3e2e5c5b	0.17027418
144	0x3db39979	0.08769507
145	0xbdae8345	-0.085211314
146	0x3c951bac	0.018201672
147	0x3dd782e4	0.10523012
148	0x3d4869d7	0.04892906
149	0x3c25e4a2	0.010125311
150	0xbd415f26	-0.04720988
151	0xbe02a6b9	-0.12758912
152	0xbd527d63	-0.05138911
153	0xbadb243d	-0.0016719174
154	0xbd91824e	-0.07104932
155	0x3d4fd851	0.050743405
156	0xbd98d047	-0.07461601
157	0x3df610a9	0.120148964
158	0xbdcd7d77	-0.10033696
159	0xbdade153	-0.08490243
160	0x3d92318e	0.07138358
161	0xbdf41657	-0.119183235
162	0xbc854497	-0.016268058
163	0x3de03a76	0.109486505
164	0xbde940e1	-0.11389328
165	0xbdda538e	-0.10660468
166	0xbdd6d4c9	-0.10489804
167	0x3dbd1dc7	0.09234195
168	0xbc75e76e	-0.01500879
169	0xbe17acb4	-0.14811975
170	0xbdecf1d4	-0.115695626
171	0x3c31dae4	0.01085541
172	0xbe008568	-0.1255089
173	0xbce38f6a	-0.027778346
174	0x3dfd4077	0.12365811
175	0xbe080e64	-0.1328674
176	0x3d8ee171	0.06976593
177	0xbc78608c	-0.015159737
178	0xbd83f2fd	-0.06442831
179	0xbdceb41c	-0.10092947
180	0xbd2ce36e	-0.04220908
181	0xbdafeb28	-0.08589774
182	0x3b3f0709	0.002914848
183	0x3c2b4c49	0.0104551995
184	0x3cdfa0f3	0.027298426
185	0xbdeeb1e3	-0.11655023
186	0xbba28c4b	-0.004960572
187	0xbde8873e	-0.113539204
188	0x3db95678	0.09049696
189	0x3db6a53c	0.08918235
190	0xbd803293	-0.06259646
191	0xbc88171c	-0.016612582
192	0x3e0c66bb	0.13711064
193	0xbb1b79c4	-0.00237237
194	0x3df551a0	0.11978459
195	0x3d852861	0.06501842
196	0x3cc46f0a	0.023978729
197	0x3ccb7448	0.02483572
198	0xbdbe31cf	-0.09286844
199	0xbd82deb5	-0.06390134
200	0xbbd369d9	-0.006451827
201	0xbc070994	-0.00824203
202	0x3c4eeba7	0.012629426
203	0x3da90506	0.08252911
204	0xbd87873c	-0.06617591
205	0x3dcfeae8	0.10152227
206	0xbd8a1325	-0.06741933
207	0x3d0f1e0f	0.034940775
208	0xbd5dafba	-0.054122664
209	0xbd486fba	-0.048934676
210	0xbdc994db	-0.09842845
211	0xbd98bb66	-0.074576184
212	0x3d4fbc1a	0.050716497
213	0x3c0f20f7	0.008735887
214	0x3d154f0c	0.036452338
215	0x3d996d58	0.07491559
216	0xbb038916	-0.0020070723
217	0x3d219a0e	0.03945356
218	0xbc8b234b	-0.016984602
219	0xbd6023df	-0.05472171
220	0xbd7bd206	-0.06147959
221	0xbda9002e	-0.082519874
222	0x3be62776	0.007023747
223	0x3d4d547a	0.05012939
224	0xbd6a60ca	-0.05722121
225	0xbb073438	-0.002063049
226	0x3d7698b5	0.060204227
227	0x3c72a37b	0.014809485
228	0xbd951159	-0.072786994
229	0x3d39e3cc	0.04538326
230	0xbdbdf644	-0.09275487
231	0xbd4cb73e	-0.04997944
232	0x3dcb2709	0.09919555
233	0xbc5b7537	-0.013394645
234	0xbbd532c6	-0.006506297
235	0xbc546635	-0.012963821
236	0xbd9da0f7	-0.07696717
237	0x3db4eeeb	0.088346325
238	0xb82aeff8	-4.0754647e-05
239	0xbda36980	-0.07979107
240	0x3cd34166	0.02578802
241	0x3d8ddd92	0.06927027
242	0xbbc5abce	-0.0060324436
243	0xbddacb13	-0.106832646
244	0xbde37bb5	-0.111075796
245	0xbd6fff46	-0.058593057
246	0xbdac1619	-0.08402652
247	0x3dc626a4	0.09675339
248	0xbd8d2d0a	-0.06893356
249	0x3c2beb91	0.010493175
250	0x3dd23bee	0.10265337
251	0x3d3eaea7	0.04655328
252	0xbd8e035c	-0.069342345
253	0x3d9c3c27	0.07628661
254	0xbd635373	-0.055499505
255	0x3c7a318c	0.015270602

lstm.bias_ih_l1 f4 [256]
0	0x3d562b01	0.052287105
1	0x3dd02eec	0.101652
2	0xbdf6a530	-0.12043226
3	0xbc9debc2	-0.019277457
4	0xbe02d04c	-0.12774771
5	0xbdb0658b	-0.08613118
6	0xbd5d3962	-0.054009803
7	0xbd9345f8	-0.0719108
8	0xbd20b892	-0.03923852
9	0x3dcdeb30	0.10054624
10	0x3dbcd267	0.092198186
11	0x3d0ccb3e	0.034373514
12	0x3ce427fd	0.0278511
13	0x3aebdb56	0.0017994444
14	0xbdd4dba3	-0.10393455
15	0xbc77ffef	-0.015136703
16	0xbd1c2a74	-0.038126424
17	0x3ce22738	0.027606592
18	0x3b8553a8	0.0040688105
19	0xbdbce082	-0.09222509
20	0x3b400e19	0.0029305278
21	0xbdd2c217	-0.10290926
22	0xbd0f6ae2	-0.03501404
23	0xbdd24e25	-0.10268811
24	0xbd9b942d	-0.07596622
25	0xbdae0a1d	-0.08498023
26	0x3cc0b8e4	0.023525663
27	0xbdd427f8	-0.10359186
28	0x3c34c61c	0.011033561
29	0xbd9e54cf	-0.0773102
30	0x3d674fc3	0.05647255
31	0xbe09278c	-0.13393992
32	0xbca765ab	-0.020434221
33	0x3d55a0bc	0.05215524
34	0x3d529b52	0.051417656
35	0x3dc15c58	0.09441441
36	0xbdc48961	-0.095965154
37	0xbd8e9f5e	-0.06963991
38	0xbcfb05c5	-0.0306424
39	0x3d5748b8	0.052559584
40	0x3d9a12b9	0.07523102
41	0xbd37b334	-0.044848636
42	0x3db6ab4b	0.0891939
43	0x3d05d922	0.032677777
44	0x3d014618	0.031560987
45	0xbdbe835b	-0.09302398
46	0xbd84037b	-0.06445976
47	0xbdb54647	-0.08851295
48	0x3d576950	0.05259067
49	0xbce0f512	-0.027460609
50	0xbd7473d6	-0.059680782
51	0xbc443044	-0.011974398
52	0x3dda4514	0.10657707
53	0xbc804058	-0.015655681
54	0x3dfe9873	0.12431421
55	0xbd607b4a	-0.054805078
56	0xbdabb330	-0.08383787
57	0x3c629fdf	0.013832062
58	0xbdab4145	-0.083620586
59	0x3c3a4107	0.011368043
60	0xbd951b46	-0.072805926
61	0xbcf648c0	-0.030063987
62	0x3dde85de	0.10865377
63	0xbd6a4d4b	-0.05720262
64	0x3d8c38c3	0.06846764
65	0x3de23e38	0.110470235
66	0xbd12e657	-0.0358642
67	0xbd7a7cd4	-0.0611542
68	0x3dd6e0ce	0.10492097
69	0xbdbc866e	-0.09205328
70	0xbcce131c	-0.025155596
71	0x3cb8f9f3	0.022580123
72	0x3d4b16b5	0.049582202
73	0xbd6b3b35	-0.05742951
74	0xba2aec77	-0.00065202214
75	0x3dac0a9c	0.08400461
76	0x3cd3809d	0.025818164
77	0x3d8eeb7b	0.06978508
78	0xbd6d7523	-0.05797304
79	0x3dd471d8	0.103732765
80	0x3d260dbd	0.040540446
81	0x3db86fdd	0.09005711
82	0x3cd4d0c7	0.025978459
83	0x3d03ebe4	0.032207385
84	0x3d75bcc9	0.059994493
85	0xbd91d69b	-0.07121011
86	0x3e05e6a0	0.13076258
87	0x3d009230	0.031389415
88	0xbce2d8bc	-0.027691238
89	0xbd49e0fc	-0.049286827
90	0xbda5f99b	-0.08104249
91	0xbc3b5932	-0.01143484
92	0xbdcc6ca0	-0.09981656
93	0xbb2c1878	-0.0026259702
94	0x3bc086e2	0.0058754543
95	0xbc9a2cdc	-0.018820219
96	0xbdc37a6c	-0.095448345
97	0xbd78e551	-0.06076557
98	0xbd8e6d37	-0.06954425
99	0x3d032509	0.03201774
100	0x3d6d45c6	0.05792787
101	0x3d7e517a	0.06208942
102	0xbdb58ad9	-0.08864374
103	0x3ddea820	0.10871911
104	0x3d8df186	0.069308326
105	0xbda5e96d	-0.08101163
106	0x3dd7541e	0.10514091
107	0xbd0fc759	-0.035102222
108	0xbdc266a5	-0.09492234
109	0x3e02b21d	0.12763257
110	0x3ddab30e	0.10678683
111	0x3d5d1dc2	0.053983457
112	0x3d71ba99	0.059015844
113	0xbd64c9b1	-0.05585641
114	0x3da95200	0.082675934
115	0x3e0b6142	0.1361132
116	0xbd9c7b35	-0.076406874
117	0xbcd1b104	-0.025597103
118	0xbc688382	-0.01419151
119	0xbc9426f5	-0.018084982
120	0xbce20aca	-0.027593035
121	0x3da82b00	0.082113266
122	0xbb4d0512	-0.003128354
123	0xbcbff332	-0.023431394
124	0xbd593d66	-0.05303707
125	0xbd329539	-0.04359934
126	0xbdd76798	-0.10517806
127	0xbd2f72b3	-0.042833995
128	0xbd3eb8bc	-0.046562895
129	0xbde0cf0a	-0.109769896
130	0x3d5fa8bb	0.054604273
131	0xbd1afc84	-0.037838474
132	0xbdb46188	-0.08807665
133	0xbde748cf	-0.11293184
134	0x3dcc08ca	0.09962614
135	0x3da92080	0.08258152
136	0xbd0ddcab	-0.034634273
137	0xbdf195a7	-0.11796122
138	0xbcb43c85	-0.022001514
139	0x3d221ca1	0.039578084
140	0xbd569b4f	-0.052394208
141	0xbce23e65	-0.027617643
142	0x3db8f2e4	0.09030703
143	0xbc13586e	-0.008993251
144	0xbe0ae520	-0.13563967
145	0x3e015a74	0.12632161
146	0xbcea24ea	-0.028582055
147	0xbd8e4a69	-0.06947786
148	0x3d028dac	0.03187339
149	0x3dec49d9	0.11537523
150	0x3da59ccd	0.08086548
151	0x3b699f8a	0.0035648071
152	0x3baa5629	0.0051982594
153	0x3d561db8	0.052274436
154	0xbd84fa14	-0.06493011
155	0xbb25f356	-0.0025322041
156	0xbdfda437	-0.12384837
157	0x3cd969b1	0.026539655
158	0xbd3bd1c3	-0.04585434
159	0xbd8fa395	-0.07013623
160	0x3d1324e3	0.03592385
161	0x3ddf77a3	0.10911491
162	0x3deb988b	0.11503705
163	0xbde23e77	-0.110470705
164	0xbc08b073	-0.00834285
165	0x3dab2c54	0.08358064
166	0xbd30f491	-0.043201987
167	0x3d9373c8	0.07199818
168	0x3ddb7866	0.107163236
169	0xbd0a2878	-0.03373
170	0xbb643a95	-0.0034824957
171	0xbc9b282e	-0.018940058
172	0xbd0b0d95	-0.0339485
173	0xbd1dcbe0	-0.03852451
174	0x3d9bcc3a	0.076073125
175	0xbd90186c	-0.07035908
176	0xbd961129	-0.07327492
177	0xbd11122e	-0.035417728
178	0xbd8925fe	-0.066966996
179	0x3dba3433	0.090919875
180	0x3ddae49d	0.10688136
181	0x3e0039d9	0.12522067
182	0xbc93befe	-0.018035408
183	0xbbc1368a	-0.005896394
184	0x3d7539c9	0.05986956
185	0x3dc9e839	0.09858746
186	0x3cfc13ba	0.030771125
187	0x3d34e640	0.044164896
188	0xbc49eb5d	-0.012324181
189	0xbe02466b	-0.12722175
190	0x3c4c27e6	0.012460684
191	0xbdc19a9c	-0.094533175
192	0x3db1bfa6	0.08679132
193	0xbd9a1eaf	-0.07525384
194	0xbc56a29f	-0.013100295
195	0x3d18923c	0.037248835
196	0xbdc4ab2d	-0.09602962
197	0xbdc6cc69	-0.09706957
198	0xbd0cccf3	-0.034375142
199	0x3d2a75cf	0.041616257
200	0x3ad3b8e4	0.0016153124
201	0x3da414a8	0.08011752
202	0x3db0c63f	0.086315624
203	0xbcaeb3d2	-0.02132598
204	0x3bd929ac	0.006627282
205	0x39157886	0.00014254646
206	0xbdeb0a05	-0.114765204
207	0x3d9416b4	0.07230893
208	0xbdecaf02	-0.115568176
209	0x3b9880b7	0.004654016
210	0x3df73a4a	0.12071665
211	0x3d4b0de8	0.04957381
212	0x3ba11919	0.004916322
213	0xbd8e21ba	-0.069400266
214	0xbd9eabdb	-0.077476226
215	0x3d35f354	0.04442151
216	0xbcb46cec	-0.022024594
217	0x3de7b982	0.1131468
218	0xbd29a54b	-0.0414174
219	0xbc07cb4a	-0.008288214
220	0x3d3a9de8	0.045560747
221	0x3d7a9f16	0.061186872
222	0x3d4a1cc0	0.049343824
223	0xbd216851	-0.039406125
224	0x3d8513de	0.0649793
225	0x3c92faa0	0.017941773
226	0xbb2522bb	-0.0025197703
227	0xbdd6f36b	-0.10495647
228	0x3cfa8f80	0.030586004
229	0xbd1c3a1b	-0.03814135
230	0xbdaa5117	-0.08316248
231	0x3d82d435	0.063881315
232	0x3d8b8b6d	0.06813703
233	0x3da785c0	0.08179808
234	0x3c8f2989	0.01747586
235	0x3d3ab3fa	0.045581795
236	0x3d0fefe3	0.035140883
237	0xbd202cb0	-0.039105117
238	0x3c27465e	0.010209648
239	0xbd05b36f	-0.032641824
240	0xbd246bc0	-0.04014182
241	0xbcadda9b	-0.021222403
242	0x3cff7a5f	0.03118628
243	0xbdc2e365	-0.09516028
244	0xbd334da5	-0.04377522
245	0xbd191d7a	-0.037381627
246	0x3d0590fe	0.03260898
247	0x3cc7785a	0.02434938
248	0x3c51f472	0.012814628
249	0x3c900477	0.017580254
250	0x3b8a7c47	0.004226241
251	0x3d876400	0.0661087
252	0x3c190b0e	0.009341015
253	0x3d7ab6d0	0.0612095
254	0xbdd0a038	-0.10186809
255	0x3d2ae239	0.04171965
