output/LSTM2CNN/LSTM2CNN_adam_64_1000/model/LSTM2CNN_epoch_298.pth (torch, 353538 bytes, 16 tensors)

lstm.weight_ih_l0 f4 [256, 11]
000000 75 c4 51 bd 57 99 a0 3d ce 16 19 ba a3 01 01 bd
       -0.051212747 0.07841747 -0.0005839885 -0.0314957
000010 2c c8 d7 3d d0 48 b5 bd 41 5b a1 3d 26 76 c1 3a
       0.10536227 -0.088517785 0.078787334 0.0014759942
000020 d7 ac 6e 3d 07 d1 77 bc ba d9 16 3b 55 35 d0 bd
       0.0582703 -0.01512552 0.0023017959 -0.10166422
000030 b5 39 dd bc 9a 4e f7 3c 1b d2 0a 3d 74 d7 d7 bd
       -0.027005056 0.030188847 0.03389178 -0.10539141
000040 ce 86 8c bd dd 21 bb 3d 05 d0 87 bd dd 94 25 bc
       -0.068616495 0.09137318 -0.066314735 -0.010106293
000050 9f 58 b2 bd e6 ec b8 bc c2 a1 04 3e 6c fd b0 3d
       -0.087083094 -0.0225739 0.1295233 0.086420864
000060 39 d4 da bd d1 b9 3b 3b ad 42 ab 3d 63 66 51 3d
       -0.106850095 0.002864469 0.08362327 0.051123034
000070 2e 3b fb 3d b5 c4 11 3d 87 df 88 bb d0 38 b5 bd
       0.12267147 0.035587985 -0.004177037 -0.08848727
000080 97 41 f1 3d 0d 3a b1 bd ab 09 9d 3d 23 c2 92 3d
       0.117800884 -0.086536504 0.0766786 0.07165935
000090 f4 50 f7 3c 60 83 89 3d d1 36 b0 3d b0 20 c2 3d
       0.030189969 0.06714511 0.086042054 0.09478891
0000a0 5a 37 00 3e 17 b2 31 bd 55 af ef 3d 13 e7 e4 3c
       0.12521115 -0.04338273 0.11703364 0.027942216
0000b0 00 40 5c 3d 1b e6 4d 3d fe 5e 21 bd 76 39 04 3e
       0.053771973 0.050268274 -0.039397232 0.12912545
0000c0 39 a8 db bc f2 f2 c3 3d 5b 39 88 3d 7e 4e 45 bd
       -0.026813613 0.095678225 0.06651565 -0.04817056
0000d0 26 ab 18 3d 9f c0 c3 bc 76 60 4d 3d 16 1b fa 3d
       0.037272595 -0.02389556 0.05014082 0.122121975
0000e0 19 1c 61 bd ce 5c dd 3d 24 fc 49 bc 2b 61 06 3e
       -0.054958437 0.10808717 -0.012328181 0.13123004
0000f0 0b b7 b5 bd 46 04 7e 3d 7b 08 14 3d 5d e4 9d 3d
       -0.08872803 0.062015794 0.0361409 0.077095725
000100 7b 88 55 3d 8f 2c ed 3d 58 ab 82 bd 14 8b b3 bd
       0.05213211 0.115807645 -0.063803375 -0.087667614
000110 00 72 f2 3d b2 6a 00 be cd 5a 72 3c 44 c2 a7 bd
       0.1183815 -0.12540701 0.014792156 -0.0819135
000120 0f f2 a0 3d 65 98 3b bd a3 40 8e 3d f6 c5 bb 3d
       0.07858669 -0.04579963 0.06945922 0.091686174
000130 35 5f 60 3d cb 7e 98 3d 17 e0 b5 bd 14 10 cf bd
       0.054778297 0.07446059 -0.08880632 -0.101104885
000140 af 6f aa bd 82 82 79 3d 54 ab 84 bd cc 24 f8 3d
       -0.08322083 0.060915478 -0.06477991 0.121163934
000150 a0 13 ab 3d bc a8 75 3d 9f d8 ce bd 62 9b 9d bd
       0.083533525 0.05997537 -0.10099911 -0.076956525
000160 dd 37 bd bd 84 1e 89 3d cb 08 ce bd b7 17 41 bd
       -0.09239171 0.066952735 -0.10060271 -0.047141757
000170 bf 44 5e 3d 44 41 f0 3b 49 f8 84 bc 97 c6 86 bb
       0.05426478 0.007331999 -0.016231673 -0.004113029
000180 85 92 c2 bb 3f 34 10 be 93 06 59 3d 66 7c bd bd
       -0.0059378766 -0.1408243 0.052984785 -0.09252243
000190 e5 06 8a bc b2 13 48 3d 68 c9 b0 3d 6c 4b b0 bd
       -0.01684899 0.048846908 0.08632165 -0.086081356
0001a0 27 69 af 3d 35 87 f7 bd f9 dd 87 3c 06 44 a2 bc
       0.08564978 -0.120863356 0.016585337 -0.019807827
0001b0 a5 c0 50 3a 5e 73 9c bd 21 51 00 be 5a d6 c8 3d
       0.00079632766 -0.07639192 -0.12530948 0.09806509
0001c0 2e 48 b1 bd d5 7c e9 bc 61 94 5f 3c 04 80 e1 bd
       -0.08656345 -0.028501907 0.013646216 -0.11010745
0001d0 b0 29 95 bd 15 5e a6 3d 4c d8 b4 3b d2 4f 91 3d
       -0.07283342 0.081234135 0.0055189487 0.07095303
0001e0 1f 52 8c bd 93 15 99 bd b6 b9 b9 3c e6 5b 8e 3d
       -0.06851601 -0.07474818 0.022671562 0.06951122
0001f0 ad 16 6a 3d 0b a5 0a 3c ba b6 5c bb 16 af ae 3c
       0.05715053 0.008462201 -0.003367825 0.021323722
000200 ce 80 da bd 59 cb 8c bc 6d 23 97 3c 64 af ee bd
       -0.10669099 -0.017186807 0.01844951 -0.11654547
000210 da 3c 9e bd 28 b9 c1 3d df 81 e1 3d 7a b7 30 3d
       -0.0772645 0.09459144 0.11011099 0.043143727
000220 74 3c 16 3e ea 4f 94 3d 99 f6 ab 3d a5 b9 58 bb
       0.14671499 0.07241805 0.08396644 -0.0033069637
000230 84 32 e1 3d 5b 56 56 bd 11 c8 69 bd 5f 4c cd 3d
       0.10995963 -0.05232845 -0.057075564 0.10024332
000240 e0 6d bd bd 38 73 ce bd 0c 2d 01 3e 80 f9 d1 3d
       -0.092494726 -0.1008057 0.1261484 0.102526665
000250 14 d1 8a bd 83 eb c2 bd 0e 69 ff 3c 66 5c 91 3d
       -0.0677816 -0.095175765 0.031178024 0.07097702
000260 de 68 9b 3d 4f aa 83 bc 00 aa 00 be 39 98 15 bd
       0.07588361 -0.01607242 -0.1256485 -0.036522124
000270 24 66 c7 bd bd 9c 58 3d b7 c2 01 bd db 0a c4 3d
       -0.09736279 0.052883852 -0.031679835 0.09572383
000280 4a 6b ae bd 26 50 d1 3d f5 76 19 3d 96 f1 ad 3d
       -0.085165575 0.10220365 0.037466962 0.084933445
000290 0d 7e 9f bd ff 68 94 bd f7 7a c3 bd 3d 68 10 3e
       -0.07787714 -0.07246589 -0.09544938 0.14102264
0002a0 4b 42 d6 3d 7d 3c 27 bd 3e a9 17 3d d5 fb b7 bd
       0.10461863 -0.04082917 0.037026636 -0.0898358
0002b0 da 4a 70 bd f7 b7 e9 bc 7e 27 a7 3d 50 f2 10 bd
       -0.058665134 -0.028530104 0.081618294 -0.035387337
0002c0 79 34 4b 3d f5 46 42 3c 33 24 b6 bd e2 3c ba bd
       0.04961059 0.011857738 -0.08893623 -0.09093644
0002d0 d8 b8 89 3d 5b 43 5b bd c6 dc fb 3c 2e f4 f9 bb
       0.06724709 -0.053531032 0.030744921 -0.0076279854
0002e0 d4 3d 84 3d 6c c3 e6 3c dd 5c 3d bd c9 a4 c5 bd
       0.06457105 0.028169356 -0.04623114 -0.09650571
0002f0 37 46 a8 3d fe f5 ae bd 06 91 db bb d4 4b b3 3d
       0.082165174 -0.08543013 -0.0067006378 0.087546974
000300 fd 26 9c bd 23 cd e4 bc bc 56 40 bd 20 dc 2b bb
       -0.07624624 -0.027929848 -0.046957716 -0.0026223734
000310 b3 4f c3 bd 53 38 eb bd 37 83 3b bd 1a 71 52 3b
       -0.09536686 -0.11485352 -0.045779433 0.003211087
000320 1b 1a a5 bd 7c 84 c4 3c 5f 76 d6 bd 78 5a b6 3d
       -0.0806162 0.023988955 -0.10471796 0.08903974
000330 9c bb a3 3b 91 71 c9 bd 43 76 41 3c a6 a2 01 bd
       0.00499673 -0.09836114 0.011807981 -0.031649254
000340 be 4f f5 3c eb 4f 6f bd d7 6d 70 3d 04 b8 8e 3d
       0.02994525 -0.058425825 0.0586985 0.06968692
000350 ec 0d 39 bc bb 24 62 3d bd 12 84 bd 97 15 75 3c
       -0.011294823 0.05521081 -0.064488865 0.014958761
000360 80 77 77 bd cb 53 95 bd cb fb 94 bd 47 7d 43 bd
       -0.0604167 -0.07291373 -0.07274588 -0.047726896
000370 17 b0 6b 3d ff 6f 46 3c e5 36 39 3c df 3a 0c be
       0.05754098 0.012111663 0.011304592 -0.13694333
000380 65 18 a0 bc 53 17 d7 3b a5 b5 a9 3d 96 de e0 3c
       -0.019542882 0.0065640598 0.08286599 0.027449887
000390 8d fa 9a 3d 9e a9 9e bd f0 ba db bc be be 7d 3d
       0.0756732 -0.07747196 -0.026822537 0.061949484
0003a0 d1 f8 ee bc a4 0d 22 be 6b 27 9e 3d 34 f2 8a bc
       -0.02917138 -0.15825516 0.07722362 -0.016961195
0003b0 bf 39 90 bc 64 e0 90 3d 44 c5 0b be 5d 9f f9 bd
       -0.01760566 0.07074049 -0.1364947 -0.12188599
0003c0 fb cd d1 bc 4b 1c 3c bd 57 47 66 bd 36 16 dd bd
       -0.025610914 -0.04592542 -0.05622038 -0.10795252
0003d0 5b 1f 9e 3c 80 24 e0 3d 80 85 3d bc ea 41 58 3b
       0.01930206 0.10944462 -0.011567473 0.0032998272
0003e0 da 96 02 3d 29 4d 6c 3d d3 04 11 bd 73 a7 a3 3d
       0.031882145 0.057690773 -0.03540499 0.07990923
0003f0 31 98 d2 bc aa f5 e3 bd c2 74 a2 3d a2 6c 67 3d
       -0.025707336 -0.11130841 0.07932426 0.056500085

lstm.weight_hh_l0 f4 [256, 64]
000000 df 99 12 bc e8 6d d7 3c d3 ca 09 3d 12 1b ac 3d
       -0.008947819 0.026297525 0.033640694 0.08403601
000010 92 0e 55 bd fc b2 6c 3d bc 0b ed bc ac 83 07 3e
       -0.05201585 0.05778788 -0.02893626 0.13233823
000020 88 18 da bc 18 8a b3 3d c8 60 d0 3d 78 7e 8a 3d
       -0.026623026 0.08766574 0.101747096 0.06762403
000030 f6 ef ef 3d 74 00 7b bd 83 ce 98 bd 23 58 0b bd
       0.11715691 -0.06127973 -0.07461264 -0.0340196
000040 c6 c5 4f 3d ec ab 3f bb aa 5d 05 3b 44 9c 86 bd
       0.05072572 -0.002924676 0.0020350018 -0.06572774
000050 7c e1 b2 3d a2 e8 92 3c 70 64 d1 bd 72 b4 8e 3d
       0.08734414 0.017933194 -0.10224235 0.06968011
000060 4a 72 05 be 7e 30 65 3d 8f ca bd bd 24 4d ab bd
       -0.13031879 0.05595445 -0.092671506 -0.08364323
000070 cb da 8a 3c f8 d1 85 3c 07 ca b0 ba dc f7 d1 bc
       0.016950032 0.016335472 -0.0013487943 -0.025630884
000080 3f 73 b8 3d d3 b4 96 3c 68 e2 9b bc ee d5 6c 3d
       0.090063564 0.01839677 -0.019028857 0.057821207
000090 13 6b 04 3e 01 61 bb bd cb eb a0 bc 20 a9 01 bd
       0.1293147 -0.091493614 -0.019643685 -0.03165543
0000a0 c1 57 77 3d 29 ea 29 3d eb 5d d8 3d c2 bc db bd
       0.060386423 0.04148308 0.105647884 -0.10729362
0000b0 c2 8f 0a 3d f4 6f 9a bd f1 bf 8f 3c 2e 8d ae bd
       0.033828504 -0.075408846 0.01754758 -0.08523022
0000c0 90 99 f5 bc 1a d0 da bd af 6d d0 3d cd 1e e1 3d
       -0.02998045 -0.106842235 0.101771705 0.10992203
0000d0 38 17 a6 3d 30 95 21 3c 8e 1e a4 ba 34 ec a2 3d
       0.081098974 0.009862229 -0.0012521313 0.079552084
0000e0 1c eb 46 bc b9 3e d2 3d e3 ee e2 3c 02 09 87 3d
       -0.012141015 0.1026587 0.0277018 0.06593515
0000f0 57 10 17 bd 6c e9 84 3c 68 59 de bc 42 ba ce bd
       -0.036880817 0.016224585 -0.027142242 -0.100941196
000100 4c 0f ed bd fd 8f 95 bc 76 c3 1a be 58 79 68 3d
       -0.11575183 -0.018257136 -0.15113625 0.056756347
000110 ce c8 00 bd d0 d7 bb 3c c6 ec e0 3c 45 78 ee bc
       -0.031441502 0.022930056 0.027456652 -0.029110083
000120 3b 7a 78 3c 40 93 08 3e 3d e5 63 bd 49 3c 88 bb
       0.015165861 0.13337421 -0.05563854 -0.004157577
000130 f3 46 0f bd ee 1c 5f bc b5 93 9d bc d9 ae ad 3d
       -0.03497977 -0.013617737 -0.019235471 0.08480615
000140 f4 3e 95 3d 25 39 18 3d b8 9d b6 bd 65 cd dd bd
       0.07287398 0.037163872 -0.08916801 -0.108301915
000150 12 79 31 3d f7 c6 cf bd 8c 6a 8b 3c b0 e1 50 bd
       0.043328352 -0.101453714 0.017018579 -0.050996482
000160 6f 93 d8 bd cd 17 be 3d 16 9a cc 3c 52 91 f5 3d
       -0.10574996 0.092818834 0.024975818 0.11990608
000170 d6 80 d5 3d 07 3f f9 3c 63 da b0 3c 0a 46 22 3e
       0.10424964 0.030425562 0.02158851 0.1584703
000180 f4 e4 a7 3d a2 18 81 3d 7a 34 3d 3c f6 68 b8 bc
       0.08197966 0.063035265 0.011548156 -0.022510987
000190 92 a1 e3 bd c5 bc f9 bd 6c 26 dd bc 38 2f 03 3d
       -0.111148015 -0.12194208 -0.02699586 0.032027453
0001a0 27 59 ce 3d 37 69 f9 bd 82 48 4e 3c db e6 e9 3d
       0.10075598 -0.12178271 0.012590529 0.11420985
0001b0 9d 88 e7 bb 47 86 38 3d a5 49 9a bc 8c d9 c1 3d
       -0.007065846 0.04504993 -0.018833945 0.09465322
0001c0 cd e2 18 3d ac 56 31 3d 53 9a e5 bc 5d 86 e5 3d
       0.03732567 0.043295547 -0.02802769 0.112072684
0001d0 86 f4 54 bc 37 25 a4 3d 02 de 9e 3d eb ba d8 bd
       -0.012997752 0.08014911 0.077571884 -0.10582527
0001e0 c7 3c df 3d 7e cf 4e bd 25 53 de 3d b0 95 b7 3c
       0.10900264 -0.05049085 0.10855702 0.022410244
0001f0 03 00 fc 3c 7c 81 8a bd 51 88 81 3d 90 72 91 3d
       0.030761724 -0.067629784 0.063248284 0.07101929
000200 46 2c 6a bd 9e 91 5a bd 35 86 8a bd ae 4d 9e 3d
       -0.05717113 -0.053361528 -0.06763879 0.0772966
000210 ef da 10 bb 2d a8 b8 3d af c3 52 bd 66 5b 83 bd
       -0.002210315 0.09016452 -0.05145615 -0.06413917
000220 b4 23 50 bd 9d 4d c8 bd 17 be c1 3d d8 1a d7 3d
       -0.0508153 -0.097804286 0.09460085 0.10503167
000230 ec e6 c5 bb 04 7c e2 bd 1f af 1c 3d 2e 66 f2 bb
       -0.006039491 -0.1105881 0.038252946 -0.0073974347
000240 60 67 84 bd 6d 37 8c bd 91 45 cf bb e6 6d f1 bc
       -0.0646503 -0.06846509 -0.0063254316 -0.029471349
000250 2b 4b 54 3d 40 d2 e4 bd ff 66 d2 3d d4 02 97 3d
       0.0518295 -0.111729145 0.10273551 0.07373586
000260 b2 a5 d0 3d 27 a0 b1 3d f9 88 f9 bd 9e 65 2f bd
       0.10187854 0.08673125 -0.121843286 -0.04282152
000270 28 8c d1 bc 56 08 e1 3d 2d d9 99 3d 0f 22 a9 3b
       -0.025579527 0.10987918 0.07512126 0.005161531
000280 38 df cc 3d 52 45 b0 bd 8d 09 36 bd 4f c4 7b 3d
       0.10003513 -0.08606972 -0.044442702 0.06146651
000290 1b 5a 91 3d ea 9e 5a bd 11 33 48 bc b2 3d 14 bd
       0.070972644 -0.05337421 -0.012219206 -0.03619165
0002a0 1d ea 39 3d ed 36 c4 bd 9c 71 bb bd 6d de 4d 3b
       0.045389283 -0.09580789 -0.09152529 0.0031413094
0002b0 95 95 26 3d a8 d0 56 3d 23 da d4 bd 2e d0 24 3d
       0.040669996 0.052445084 -0.10393169 0.040237598
0002c0 38 a0 43 3c 31 8f 8d bd 81 28 bc 3d 9a c6 b7 3b
       0.011940055 -0.06912077 0.09187413 0.005608392
0002d0 de 48 e2 bd 76 d1 ce 3d d8 39 cf bd 69 0d b5 bd
       -0.110490546 0.10098545 -0.10118455 -0.088404484
0002e0 0a 20 0a 3e e1 41 f1 3c 26 be 76 3d a8 a5 bb 3c
       0.13488784 0.029450359 0.060239933 0.02290614
0002f0 02 c0 6c bc c8 d0 d0 bd bd ad c8 3d 0d 46 01 be
       -0.014450075 -0.10196072 0.09798763 -0.12624379
000300 d1 aa 85 3d 21 44 f5 3d 9e 7e 9e 3d 09 b3 0a 3e
       0.06526721 0.11975885 0.07738994 0.13544859
000310 73 be bb 3c ab da 1e 3d 7f ac b6 3d 1f 01 06 be
       0.022917962 0.038782757 0.0891962 -0.13086365
000320 27 7a 0a bd c3 d9 bf bd a7 ef ac 3d cc ba 3b bd
       -0.0338079 -0.093677066 0.084441476 -0.04583244
000330 24 7e 16 3e 14 ac cd 3d d2 0d 08 be 73 e7 36 bd
       0.14696556 0.10042587 -0.13286522 -0.04465432
000340 a2 9e b8 3b b4 d0 07 3e f6 ee c4 bd 69 7f 62 3c
       0.005634145 0.13263208 -0.09615891 0.013824322
000350 cf c3 54 bd ba a4 a8 3c 61 2f d8 3d 07 a3 70 bd
       -0.05194455 0.02058636 0.10555912 -0.058749225
000360 59 8a a0 3d 59 e6 89 3b 4b f2 dd bd 46 86 a4 3d
       0.07838888 0.004208368 -0.10837229 0.08033423
000370 92 ad b1 bd 40 7d b0 bd 5b 7e 23 bd d0 de 6d bc
       -0.08675684 -0.086176395 -0.039915424 -0.014518455
000380 60 40 0f 3d 7d 16 4c 3d 0a 95 85 3b d4 ea a3 bd
       0.034973502 0.049826134 0.0040766047 -0.08003774
000390 a5 5b 93 bd 9e a6 85 bd 3e 97 65 bd fe 41 1f bd
       -0.07195214 -0.0652592 -0.05605244 -0.038881294
0003a0 a7 89 62 3d 62 ee 19 3d b3 83 30 bd 57 eb 73 bd
       0.055307057 0.037580855 -0.04309435 -0.05955061
0003b0 79 70 c9 3c de fc e2 bd 81 c4 12 be 6c 89 57 bd
       0.024589764 -0.11083387 -0.14332773 -0.05262129
0003c0 e3 c8 0c bd a1 09 45 3d 2a 50 58 3d 4f 51 0e 3d
       -0.034371268 0.048104886 0.052810825 0.03474551
0003d0 ab 6c ad 3c 2d 75 81 bd 62 40 4e 3d 88 f2 9a bd
       0.021169981 -0.06321178 0.05035437 -0.075657904
0003e0 9b 40 ea bc 83 65 07 be 4e 8f b9 bd 00 3e 53 bd
       -0.02859526 -0.13222317 -0.09060536 -0.0515728
0003f0 b9 1d 68 3d 66 7b 01 3d 45 30 cd bd ae 20 b7 3c
       0.05666897 0.031611823 -0.10018972 0.02235445

lstm.bias_ih_l0 f4 [256]
000000 05 8f fb bd ae 3e 29 3d e3 b6 97 bd 1e 6f 73 3d
       -0.12283138 0.04131954 -0.0740793 0.05943214
000010 a5 be 97 bd 55 15 1b bd 03 65 10 bd 72 98 20 bd
       -0.074094094 -0.03786214 -0.035252582 -0.039207883
000020 2a 0c f8 bd 3e 6c d5 3d 44 6a bc bd 4e f7 b4 3d
       -0.12111695 0.10421036 -0.09199956 0.08836232
000030 b2 24 3c 3c d1 fb c8 bd 72 77 06 ba 12 dd af 3d
       0.011483358 -0.09813655 -0.0005129493 0.08587088
000040 3e 52 46 bd c6 48 b4 bc 10 80 1a 3c db 89 f2 3d
       -0.048418276 -0.022007357 0.009429947 0.118427
000050 b4 63 fd 3d 04 48 60 3c c4 d0 d3 bd 6e d6 97 bd
       0.123725325 0.013689045 -0.10342553 -0.07413946
000060 09 db f5 3c 36 ec 8e bd 15 4d bd 3c 19 0b b2 3d
       0.03001167 -0.069786474 0.023108045 0.08693523
000070 a4 ec c4 3c 0f f3 0f bd d4 3b e8 3d ff 0f f8 bc
       0.02403862 -0.035143908 0.11339536 -0.030281065
000080 0a 65 a3 3a b6 7c 07 3e ec 93 26 3c 57 4f ec 3d
       0.0012466025 0.13231167 0.010167103 0.115385704
000090 3c d0 88 3b 6a 45 9e 3b 2b 4a 76 3d 22 87 c9 bd
       0.004175214 0.004830052 0.060129326 -0.09840228
0000a0 ab ce 13 3a 47 85 e7 3c 04 d8 b4 3d 89 75 9c bd
       0.0005638401 0.028261794 0.08830264 -0.076396056
0000b0 ba e1 b4 bd cc 00 b7 3d 41 a5 14 3d 64 4e 36 bd
       -0.088321164 0.08935699 0.03629041 -0.044508353
0000c0 1d d2 80 3c 81 71 19 bd 04 31 a8 3d 3a 23 de 3d
       0.01572519 -0.03746176 0.08212474 0.10846563
0000d0 ef 58 c3 3c 9c 1b d1 bd f5 3d f5 bd 9b ca a5 3b
       0.023846118 -0.10210344 -0.11974708 0.005059553
0000e0 24 2b 1a bd 1c e3 ae 3d 08 f4 15 3d 9e 7c 13 3d
       -0.0376388 0.085394114 0.03660968 0.036007516
0000f0 26 93 c3 bc 2b 8e 23 3d dd 2b b7 3b 9b 74 a3 bc
       -0.023873877 0.039930504 0.0055899457 -0.019953063
000100 ec 61 64 3d 1e 72 ab bd a3 51 6b 3c 09 80 d7 3d
       0.055757448 -0.083713755 0.014362725 0.10522468
000110 f5 80 b0 3d fa e7 48 3d ad 09 cc bd 5c ce df 3d
       0.086183466 0.049049355 -0.09962783 0.10928032
000120 e1 c1 ad bd cb 84 00 3e e8 ed 35 3d 44 0b 8d bb
       -0.08484245 0.12550656 0.04441634 -0.0043043215
000130 dd a7 88 3d 5e f2 b9 3b 52 9a 9b bd 30 ed 5e bd
       0.066726424 0.0056746444 -0.07597794 -0.05442542
000140 b3 37 65 bd bd 9f 59 3c db 81 aa bd a6 13 96 3d
       -0.055961322 0.0132827135 -0.08325549 0.073279664
000150 e9 4d 8e 3d b3 cf 9c 3d 82 d2 bc bd 80 c9 b2 3c
       0.06948454 0.07656803 -0.09219839 0.021824598
000160 54 56 00 3e 3e 6f 8e 3d c3 0f 80 bd 5a 97 28 3d
       0.12532932 0.069548115 -0.06253006 0.041159965
000170 0b 9a da 3c cf 21 04 bd 70 b2 27 3d 91 a2 bf bc
       0.026684782 -0.032258805 0.040941656 -0.023392947
000180 43 24 1d bd 92 67 e7 3d 00 f2 d4 bd 38 71 58 3d
       -0.03836466 0.11299051 -0.1039772 0.05284235
000190 dd dd be bb 3d e0 ad bd 74 c9 bf 3d cf e3 ce 3d
       -0.005824788 -0.08490036 0.09364596 0.10102045
0001a0 4f 43 c9 3d 86 16 e2 bc 5c 54 f0 ba d5 8c 8e 3b
       0.09827291 -0.02759863 -0.0018335688 0.0043502846
0001b0 e2 eb 79 bd ea 17 78 3d f6 de 85 bd 4d fe e6 bc
       -0.06101597 0.06056968 -0.06536667 -0.028197432
0001c0 54 a9 c3 3c 13 04 a7 3d ce 8e 12 bd 8b 31 55 bb
       0.023884453 0.08155074 -0.03578072 -0.003253075
0001d0 25 45 e5 bd 45 b1 e1 bd fb 2a b9 bd d2 50 af 3d
       -0.11194829 -0.110201396 -0.09041401 0.08560337
0001e0 7e f7 27 bd 8d fe 3b 3c ed 9b f3 3b b2 13 52 3d
       -0.04100751 0.011474264 0.0074343593 0.051288314
0001f0 e2 4d 72 bc 11 11 b1 3d a7 15 3e bd 51 0c 31 3e
       -0.0147890765 0.08645833 -0.046407368 0.17289855
000200 b5 37 ce bd 90 b1 9e 3d 49 e0 3c 3d 8d 92 cb 3d
       -0.10069219 0.07748711 0.046112332 0.09940062
000210 63 9a e1 bd 21 48 0e 3d 4f a9 e8 bc a1 93 30 bd
       -0.11015775 0.034736756 -0.028401045 -0.04310954
000220 33 8b 91 3d e7 76 05 be 1c e8 87 3c 3b 4e 39 bd
       0.07106628 -0.13033639 0.01659017 -0.045240622
000230 ec f1 95 bd 2a 19 99 3d 51 34 5e bd 51 a1 d5 3c
       -0.073215336 0.07475503 -0.05424911 0.026077898
000240 c5 2e 90 bd 88 fd 89 3d 41 1d 26 bc 05 8b f5 3c
       -0.070401706 0.067378104 -0.010138811 0.029973516
000250 07 90 16 3d cb 78 02 bd 74 c4 f5 3d 31 61 01 3e
       0.03675845 -0.03185348 0.12000361 0.12634732
000260 bb 96 0f bc 44 69 89 bd b1 58 c5 bc 4f 7a a4 3d
       -0.008763964 -0.06709531 -0.024090143 0.08031141
000270 04 16 ec bd 9c c3 98 3d a6 f7 b5 3c b1 aa 3b bc
       -0.11527637 0.074591845 0.022212815 -0.01145427
000280 27 9e d0 bc a3 71 c4 3d 4d f0 d6 bb 9e 79 a8 bd
       -0.025466038 0.09591987 -0.006559408 -0.08226322
000290 51 b1 fc bd 34 81 0a bd c3 0a 5e 3d dc a7 ea bd
       -0.12338508 -0.033814624 0.054209482 -0.11457798
0002a0 6f 09 0d 3e 76 95 e6 3d f7 b8 3a 3c 38 b1 b2 bc
       0.1377313 0.11258976 0.011396638 -0.02181302
0002b0 b4 ed b0 3c 00 65 f8 bd e8 2c ac bd 0a 88 18 3d
       0.02159772 -0.12128639 -0.08407003 0.037239112
0002c0 15 7f 91 bd 3e bf 1f 3d 1a 71 d8 bd 47 c1 73 3d
       -0.07104317 0.039000742 -0.105684474 0.059510496
0002d0 72 af ce 3d 79 db 66 bd a7 1b cd bc e7 04 a4 bd
       0.10092057 -0.05636165 -0.0250376 -0.080087475
0002e0 1a aa 63 3d 57 68 b3 bd ef 1a ea 3c 6c 61 4a bd
       0.055582143 -0.087601356 0.028577296 -0.049409315
0002f0 fa bf 02 bd 10 46 f1 3d 91 11 d8 3c 25 09 d4 3d
       -0.031921364 0.117809415 0.026375564 0.10353307
000300 09 cd fe bd f8 9e d3 bd bf 91 6e 3d 85 86 14 bc
       -0.12441451 -0.10333055 0.058244463 -0.009065275
000310 34 4e c6 3d d2 b7 45 bc 66 33 87 3c 8a 11 9e 3d
       0.09682885 -0.012067752 0.016504 0.07718189
000320 54 83 99 3d ee cf 21 bd 84 46 83 bc c0 00 98 bd
       0.07495752 -0.039504938 -0.016024835 -0.07422018
000330 e0 a5 04 3e c4 4b 13 3d 52 fb b7 3d dc d6 a5 3c
       0.12953901 0.035960928 0.089834824 0.020244054
000340 af 63 4e 3d aa a7 e0 3c 22 bb 1f 3d 9b 1c fc bc
       0.050388034 0.027423698 0.038996823 -0.030775359
000350 f3 b9 a1 3d 89 41 5c 3b 78 ed 98 bd 74 d3 90 3c
       0.07896795 0.0033608398 -0.074671686 0.017678954
000360 0c 29 1f 3c b3 ba 92 3d ed 3e c9 bd 04 2d d7 3d
       0.009714376 0.07164516 -0.09826455 0.10506633
000370 25 f0 80 3d 95 47 6e 3d 54 b2 4a 3d c5 d6 d4 bc
       0.06295804 0.058173735 0.049486473 -0.025981316
000380 84 a8 5d bd 8d 3c b3 bc a1 d9 45 3c d3 ae a5 3d
       -0.054115787 -0.021879459 0.012075813 0.08089986
000390 53 ee b5 bb 99 e2 fd b9 87 8d 58 3d 0d b5 f3 bd
       -0.005552092 -0.0004842475 0.052869346 -0.11899767
0003a0 67 42 e4 3d 98 d5 93 3d c3 07 8e bb a1 34 c9 bc
       0.11145478 0.07218474 -0.0043344214 -0.024561228
0003b0 26 b8 5a 3a c8 47 03 be f8 a6 9f bd 6a 27 d4 3d
       0.00083434803 -0.12820351 -0.07795519 0.1035908
0003c0 da 65 49 bd 27 f4 2d 3d 89 ba aa bd a8 10 ed 3c
       -0.0491694 0.04246917 -0.0833636 0.028938606
0003d0 12 f3 3f 3c fb ae 81 bc f9 09 33 3d c6 b3 55 3d
       0.011715667 -0.015830508 0.043710683 0.0521734
0003e0 ca a6 19 bd ed a7 05 bd 2a 6b 77 bd f7 57 48 bc
       -0.037512578 -0.03263085 -0.060404934 -0.012228004
0003f0 e3 47 c4 bc ed f7 7f bd d5 e1 c0 bd 60 48 23 bd
       -0.02396006 -0.0624923 -0.09418074 -0.039863944

lstm.bias_hh_l0 f4 [256]
000000 8d 91 6b bd 9f 9f 8c bd e7 64 b0 3d 08 a3 05 3e
       -0.057511855 -0.06866383 0.086129956 0.13050473
000010 01 9e cb 3d 50 7d 3b 3d 65 cf 9d bd 37 f4 a6 3d
       0.09942246 0.045773804 -0.07705573 0.08152049
000020 ec 03 53 3d 3c 7e c6 bd a9 b1 ce 3c af 36 96 bc
       0.051517412 -0.09692046 0.0252312 -0.018336622
000030 88 6f ad 3c 57 59 cb 3d d9 68 b9 bd 88 51 cc bd
       0.021171346 0.099291496 -0.09053201 -0.09976488
000040 66 99 88 bd 6c bf 3c 3d 13 cc e4 bd 49 9e e2 3d
       -0.066698834 0.04608099 -0.111717366 0.11065347
000050 e9 d8 b8 bc 9e 0d e0 3d 0e 60 ff 3d 4b 4a 45 3d
       -0.022564368 0.10940097 0.12469493 0.048166554
000060 21 5e db 3c b2 c3 80 3c 5d df c5 3d e7 7f a7 bd
       0.026778283 0.015718315 0.09661744 -0.08178692
000070 5c a1 61 bd 73 cb 40 bd 39 48 03 3e 50 5c c7 3d
       -0.055085525 -0.047069024 0.1282052 0.09734404
000080 14 dd 44 3d bb af 3a 3d 97 1d e4 bd 05 da 80 3d
       0.0480624 0.045577746 -0.11138456 0.06291584
000090 73 1d 92 bd 9f a9 66 3d e0 67 a9 bd e6 dc fb bd
       -0.07134523 0.056314107 -0.08271766 -0.122979924
0000a0 38 eb 98 bd 4c 42 67 bd e9 6b 80 3d a4 10 fe bd
       -0.074667394 -0.05645971 0.06270582 -0.12405518
0000b0 c6 00 b7 3d 19 91 7a 3d 03 c4 2c bd 3e 91 90 bd
       0.089356944 0.061173532 -0.04217912 -0.07058953
0000c0 8b b4 e8 bd 9e 6c e0 3d f6 79 ff 3a ef 54 a5 bc
       -0.11362561 0.10958217 0.0019491303 -0.020182101
0000d0 38 39 cc bd 76 3e 5f bd 85 c2 8b bb d2 1f 7f 3d
       -0.09971851 -0.054502927 -0.004265132 0.062286206
0000e0 8a 62 a6 bd b2 3a 05 3d 8b 05 d1 3d 6f fc 4b bd
       -0.081242636 0.03252668 0.10206135 -0.049801286
0000f0 c7 bc 0b 3d 2a 6e ad 3d c5 19 45 3d cc 32 1a bd
       0.03411558 0.08468278 0.04812028 -0.0376461
000100 57 c1 7f 3c b8 96 ef 3d 60 f1 8b bd 71 44 ca 3d
       0.015610061 0.11698669 -0.06833148 0.098763354
000110 26 2e 7a bc e0 e6 06 3d 4f 87 d8 bc ce 15 e9 bd
       -0.015269792 0.032935023 -0.026431708 -0.11381112
000120 8a 23 c8 bc 49 2e ad bd ba e4 c2 3d 28 55 c8 bd
       -0.024431009 -0.08456094 0.095162824 -0.09781867
000130 cc 2f a7 3d 99 f3 ca bd 7e 66 14 3e 2b 9e 99 3c
       0.081634134 -0.09909744 0.14492223 0.018752178
000140 a6 cf 72 bb ff 1d f7 3d 13 74 3d bd f7 4b dc bd
       -0.0037050038 0.12066268 -0.046253275 -0.10756677
000150 ea 8b a6 3c d8 29 38 3e fc ca 16 3d f7 67 17 3d
       0.020330388 0.17984712 0.036814675 0.036964383
000160 c0 65 1c 3e ce 7e 45 3d 46 d6 8b 3d 56 b9 6a 3d
       0.1527319 0.048216633 0.06827979 0.057305656
000170 d1 e7 a0 bd 97 6e a7 bb f3 28 b3 3b d3 88 2b bd
       -0.078567155 -0.005109619 0.005467528 -0.041878533
000180 a4 e4 86 bd 41 fd 19 3d 71 16 99 bd a2 80 ea bd
       -0.065865785 0.037595037 -0.074749835 -0.11450316
000190 3f 4f 37 bd 7e 51 a3 bd 27 76 4e bd eb 21 e8 bc
       -0.04475331 -0.07974528 -0.050405648 -0.028336486
0001a0 85 1a 90 3d 39 77 07 3e 27 49 6a 3d 04 ed 29 bd
       0.07036308 0.13229074 0.05719867 -0.0414858
0001b0 a3 f9 a2 3d 03 8a d2 3d 90 26 2f 3d 77 31 4f bc
       0.07957771 0.1028023 0.042761385 -0.012646071
0001c0 aa 3a f0 bd c9 24 ca 3b 25 c5 02 3e 4c 54 91 3d
       -0.11729939 0.006168936 0.12770517 0.070961565
0001d0 df 80 59 3d ae ea 22 3d 95 50 a8 bd ab c8 fb 3d
       0.053101417 0.03977459 -0.08218495 0.12294134
0001e0 45 5a a8 bd 26 e8 95 3d 8b 5c 29 3d db a8 3f bd
       -0.082203425 0.073196694 0.04134802 -0.046791892
0001f0 e3 39 5c 3d 73 ba e7 bc 6a 31 4b 3d bf fb 28 3e
       0.053766143 -0.028287148 0.04960767 0.16502284
000200 67 74 d8 bd 70 fd d6 3a fb 07 97 3d c6 f0 b9 3d
       -0.10569077 0.0016402435 0.07374569 0.09079127
000210 0d b3 9b 3d 5e 28 96 bd 1b 22 23 3c e0 4b a7 3d
       0.076025106 -0.07331918 0.009956862 0.08168769
000220 e2 2e 09 3d 82 27 84 3d 95 94 15 3d a5 e2 af 3b
       0.033491977 0.06452848 0.036518652 0.0053675943
000230 eb 8f 9c bd 6e 77 90 bd 55 d5 b5 3c ed d0 96 3d
       -0.07644638 -0.070540294 0.022196451 0.07364068
000240 57 8f 01 bd 14 33 71 bd 69 bd 81 3d f2 15 33 bd
       -0.03163084 -0.058886603 0.06334955 -0.0437221
000250 2a 7d 64 3a b6 cd 56 3d 6e 0f a6 bc 8e 23 b3 3d
       0.00087161607 0.052442275 -0.02027103 0.08747016
000260 ee af b9 3d 0b f2 55 bc 1f 09 9c bd 52 a5 56 bd
       0.09066759 -0.013058196 -0.07618927 -0.052403755
000270 b0 39 10 3d f1 02 ac bd 0e 72 95 bd bd 54 76 bd
       0.035211265 -0.083989985 -0.07297145 -0.060139406
000280 c7 89 ea 3d b7 7a e4 3c ba 2c 8e bd f1 58 27 3d
       0.1145206 0.027890546 -0.06942125 0.040856306
000290 0c ed 9e bd 1f cb c2 bd 75 0d bd bd 6b c6 de bd
       -0.07760057 -0.095113985 -0.09231082 -0.10877689
0002a0 27 b1 a1 bd b3 b6 b9 3d e2 22 df 3d 6b 08 cf 3d
       -0.07895117 0.0906805 0.10895325 0.101090275
0002b0 e3 ef 39 3c 81 cb de bc 49 bf ad 3c 2d e3 d6 bd
       0.011348697 -0.027196648 0.021209376 -0.10492549
0002c0 a6 76 ad 3d 79 2a a4 3d 53 86 d1 3d c9 1c ef 3d
       0.08469896 0.080159135 0.102306984 0.11675412
0002d0 98 b4 d9 3d c2 d8 12 3c f4 fe dd bd 0c 5a 8a bc
       0.10630149 0.008962812 -0.10839644 -0.01688864
0002e0 4f 0d 9a bd e8 55 ad 3c 88 dd 53 3d 9d 76 9f 3d
       -0.0752207 0.021159127 0.05172494 0.077862956
0002f0 7e 39 e3 3d ad 42 e2 bd 54 c5 a7 bd ed a5 f7 bd
       0.1109495 -0.11047874 -0.08191934 -0.12092195
000300 14 ea 64 b9 7c d9 f3 bd 3b 22 a8 3d 23 bd dd 3c
       -0.00021830975 -0.11906716 0.08209654 0.027067726
000310 0f 4d 9f 3d e8 92 10 3d c1 75 5d bd ea 8a c2 bd
       0.0777837 0.03529635 -0.054067377 -0.09499152
000320 78 91 4f 3d 15 1f d0 3c 29 81 00 3e 86 d8 ed bd
       0.05067584 0.025405446 0.1254927 -0.11613564
000330 db 98 6f bd 4a 10 92 3d a6 0d e1 3c 4f b5 d4 bd
       -0.058495384 0.07132013 0.027472328 -0.10386144
000340 72 6f 64 bc 10 1d 84 3a e5 2d a8 bd d2 69 ec bd
       -0.013942586 0.0010079462 -0.08211879 -0.11543621
000350 20 f0 59 3d ae 3a 2a 3c b8 c7 56 3d 8f d4 07 3e
       0.053207517 0.010389967 0.05243656 0.13264678
000360 89 2c 97 bc ca 3f 8b 3d 14 1c 10 3d f7 14 8f bd
       -0.018453853 0.06799276 0.035183027 -0.069864206
000370 ec 6d 87 bc 88 ef d3 3c 7a 25 86 3d cb 04 d2 bc
       -0.016531907 0.025871053 0.06550117 -0.025637051
000380 74 b6 70 3b 5c 76 eb 3d a4 c3 3f 3d 18 24 7a bb
       0.0036729844 0.11497185 0.046817437 -0.0038168486
000390 7b 69 6d 3d 1b b6 9c 3d c9 3f 92 bd 1c a9 7b bc
       0.057961922 0.07651921 -0.07141072 -0.015360143
0003a0 f9 39 80 bd 93 f3 82 bd f2 b8 0a 3c a9 b3 e3 bd
       -0.062610574 -0.06394114 0.008466946 -0.11118252
0003b0 8b ae b7 bd 5e 7e cc 3d f7 be ea 3d 03 8b b9 bd
       -0.08968838 0.0998504 0.11462205 -0.090597175
0003c0 d2 2d f5 bd 68 81 81 bd 51 d8 40 3d cc 22 a4 bd
       -0.1197163 -0.063235104 0.047081295 -0.080144495
0003d0 0a bf 72 bb 80 61 1a 3d df 31 b4 3c 7c 7f c1 ba
       -0.0037040138 0.03769064 0.021996437 -0.0014762725
0003e0 58 a0 81 bc 88 9d b5 3c f9 e8 35 bb 41 45 bb 3c
       -0.015823528 0.022169843 -0.002775727 0.022860171
0003f0 1c f4 6d 3d e8 f1 fb bc d5 c9 6b 3d 68 f2 52 3d
       0.05809413 -0.030754998 0.05756553 0.051500708

lstm.weight_ih_l1 f4 [256, 64]
000000 0d 65 b2 3d 96 3c d0 3c a4 49 4f 3c e6 25 5a 3d
       0.0871068 0.025419515 0.012651835 0.0532588
000010 3b c1 d8 3c 5a 7c 6e 3d ad 14 9f 3d 99 51 e7 3d
       0.026459327 0.05822406 0.077676155 0.112948604
000020 e4 2b cd 3d a7 86 1c 3d a1 0a e1 bd ac 99 8e bb
       0.10018137 0.038214352 -0.109883554 -0.004351815
000030 1e 16 0e bd 87 f7 c2 bd bd ac 89 bc 09 b5 c6 3d
       -0.03468906 -0.09519868 -0.016806 0.097024985
000040 a3 c1 d6 3d 1a 3e 04 be 54 4a 7e bc ba 06 85 bd
       0.10486152 -0.12914315 -0.015520651 -0.064954236
000050 5f e6 da 3c 4b 27 3e bd d5 94 cc bd 9d 0f 92 bd
       0.026721178 -0.04642419 -0.09989325 -0.07131884
000060 5f ee a0 3d 39 a3 3e bc de 3c a6 bd eb 12 e1 3b
       0.07857966 -0.011635595 -0.08117078 0.0068687103
000070 31 73 c2 bd bf cb c2 bd e4 94 c8 bd fb af aa bc
       -0.09494627 -0.09511518 -0.09794024 -0.020835867
000080 ed 8e b0 bc 8f 87 4d 3c 35 7f 77 3d 01 68 a4 3d
       -0.021552527 0.012544527 0.06042405 0.0802765
000090 88 5b fc bd e5 8f 39 bd 6b 17 b6 3d dc 24 f4 3c
       -0.12322146 -0.045303244 0.088911854 0.029802732
0000a0 dd c3 04 3d 2c 1a 9f 3d d0 9c bd 3c 31 3e 12 bd
       0.032413352 0.07768664 0.023146063 -0.03570384
0000b0 77 81 98 3d 2b b2 80 3d e0 38 b2 3d d0 57 a8 bd
       0.074465685 0.06283983 0.08702254 -0.08219874
0000c0 89 5d 5d 3d fc 80 34 bd 74 15 32 bd 96 3c 65 bb
       0.05404428 -0.04406832 -0.04347749 -0.003497874
0000d0 c3 35 a9 bd d3 59 84 3c 17 7c d1 3d 1c f6 c5 3d
       -0.08262207 0.016156113 0.102287464 0.09666082
0000e0 05 c1 d1 bd 11 66 3b bd 56 cc f8 3d 65 90 ca bd
       -0.10241894 -0.045751635 0.12148349 -0.09890822
0000f0 54 b9 29 bd 5d 1d 67 bd cf 21 8c bd 25 5b 88 bc
       -0.04143651 -0.056424487 -0.06842386 -0.016645024
000100 a5 15 b1 3d e6 a1 c3 bd dc f5 9b bd 0b d3 16 3d
       0.086467065 -0.09552364 -0.07615253 0.03682236
000110 e5 cc ab bd 5a c6 6a 3d 58 49 d3 3d ca 2d 77 3d
       -0.0838869 0.05731807 0.103167236 0.060346402
000120 1d 87 0d 3e fa c6 cc bd e8 dd b3 3d a0 17 46 bc
       0.13821073 -0.09998889 0.0878256 -0.012090594
000130 fa ca cf bc 9e 8c 97 bd 40 88 5a bc 44 38 cb 3d
       -0.025365341 -0.073998675 -0.013338149 0.09922841
000140 62 18 cb bc 06 59 3f 3b 1c 48 e5 3d ad 38 09 be
       -0.0247919 0.002919735 0.111953944 -0.13400526
000150 6b 13 d2 bc 7b 72 0c 3d d7 36 a4 bd 88 a5 68 3b
       -0.025644025 0.034288865 -0.08018272 0.0035499055
000160 26 c5 3c 3c 28 89 b5 bd 59 e4 00 3d a0 47 14 3d
       0.011521613 -0.08864051 0.03146777 0.03620112
000170 76 04 6a bd 82 bd cb bd fa d1 bd 3d 4b 53 ae 3d
       -0.05713316 -0.09948255 0.092685655 0.085119806
000180 13 6a ec bd 4d e2 e6 bb b1 bb 07 3e 1a 3c fa bd
       -0.115436696 -0.00704602 0.13255192 -0.12218495
000190 93 f2 b1 3d 88 d1 f4 bd 33 d9 db bc 24 af bb bd
       0.086888455 -0.119540274 -0.026836967 -0.09164265
0001a0 38 3b 2b 3c cf cc 3e bc 76 5b f8 3b 40 cb a9 3d
       0.010451131 -0.01164551 0.0075792624 0.0829072
0001b0 b3 f2 f6 3d 12 47 ae bd 63 01 0d be 85 83 aa bd
       0.1205801 -0.08509649 -0.1377006 -0.083258666
0001c0 4f 39 ef 3c d1 59 f1 3b bf e8 a8 3d 2d ab 16 3d
       0.029202132 0.0073654433 0.08247518 0.03678434
0001d0 91 b7 44 3c 2d 60 11 3d 01 65 ff bd c4 4f 03 3e
       0.012006656 0.03549211 -0.12470437 0.12823397
0001e0 f6 22 1f ba 62 e6 a0 3d 59 0e c8 3d 90 36 d2 3d
       -0.0006070578 0.07856442 0.097683616 0.10264313
0001f0 35 78 c6 3d cf 24 04 3d 6b 78 17 bd 89 94 a6 bd
       0.096908964 0.032261666 -0.036980074 -0.081337996
000200 a8 6f 96 bd 33 70 40 3c f5 fa 6b 3d 32 43 a6 3a
       -0.073455155 0.0117455 0.05761238 0.0012684821
000210 e5 98 10 bc c1 a9 0e 3d 63 73 cd bd 77 2f 8a bc
       -0.008825515 0.03482986 -0.10031774 -0.016868336
000220 61 a7 c8 bd 14 31 00 bd cf ea 36 3d 57 73 8f 3d
       -0.0979755 -0.031296805 0.044657525 0.07004421
000230 8d d7 90 3d dd e0 20 bd 76 58 02 3c 39 4f 93 bb
       0.07072363 -0.039276946 0.007955661 -0.004495528
000240 95 b3 ba 3b e1 0b 5b 3d 09 a6 a0 bd 29 25 25 3d
       0.0056976774 0.053478125 -0.07844169 0.04031864
000250 27 bc e6 3c 03 fa ad bc 5b dd 01 3c d6 fa 98 3d
       0.02816589 -0.021237379 0.00792631 0.07469718
000260 36 2d b8 bd 2d 2b 99 3d ea 15 b8 3d 61 55 bb 3d
       -0.08992998 0.07478938 0.08988555 0.09147144
000270 01 d7 d0 bd 09 1d 31 3d 4b 3e 9d 3d f5 c5 87 bd
       -0.10197259 0.04324058 0.07677897 -0.06629554
000280 48 b6 8c bd 20 5e e9 3d 7a 28 02 ba 07 3d 9e b9
       -0.06870705 0.11394906 -0.0004965138 -0.00030181577
000290 78 97 b1 3b 32 44 a8 bc 03 54 1c 3d 2b 73 fb bd
       0.005419668 -0.02054033 0.038166057 -0.12277826
0002a0 60 70 05 bd 92 71 14 bb f1 81 98 bd cb dc 38 bd
       -0.032577872 -0.00226507 -0.07446659 -0.04513244
0002b0 db 95 c8 3d b7 21 fd bd ae 70 5f bd 8f a5 a3 bd
       0.09794208 -0.12359946 -0.05455082 -0.07990562
0002c0 d5 98 bb 3d c0 47 8f bd 0a 5a 0a 3d 53 26 57 bb
       0.0916001 -0.06996107 0.033777274 -0.003282924
0002d0 5f e8 06 be ba f4 62 ba 01 55 de bd c1 84 12 bc
       -0.1317458 -0.0008657683 -0.10856057 -0.008942784
0002e0 48 e3 13 bd 13 c5 d2 bd f5 f1 f7 bb b7 cb c0 bc
       -0.036105424 -0.10291495 -0.0075666853 -0.023534639
0002f0 83 fc d9 3c 3d 5c 58 3d 25 d8 da bc 0b 04 2e bd
       0.026609665 0.05282234 -0.026714394 -0.042484324
000300 8e f3 da 3c 92 50 6a 3c c0 98 63 3b 1f f9 fb 3c
       0.026727464 0.014301436 0.0034728497 0.030758439
000310 5a ae 0d 3d 2c 41 a9 ba 84 f6 ad bd f9 e7 bd bd
       0.034590103 -0.00129131 -0.08494285 -0.09272761
000320 10 26 e7 3d b5 a8 f9 3a df 73 a3 3d 4c f6 87 bc
       0.11286557 0.0019047471 0.07981085 -0.016596936
000330 0e 2e 93 3d d1 46 c4 bd bf 69 87 3b 63 f6 6b bd
       0.071865186 -0.0958382 0.004132479 -0.05760802
000340 d3 f5 ba bd 42 e9 a8 3d c2 e0 8f bd 06 63 a3 3c
       -0.091289185 0.082476154 -0.07025291 0.019944679
000350 51 82 ac 3d 46 21 ec bd 5c b6 ad bd 1d 96 1d bc
       0.084232934 -0.11529784 -0.08482048 -0.009618309
000360 de 54 8d 3d 4f 2e 75 3d d1 fb 32 3d 4e 4c a3 bd
       0.06900953 0.059858616 0.043697182 -0.07973538
000370 35 eb 1f 3d 3d af 7c 3d 42 fd b9 bd 05 6d c7 3c
       0.03904267 0.061690558 -0.09081508 0.024343977
000380 0a 82 84 3d 43 1f e0 3d d5 4e 21 3d 7b 22 e0 3b
       0.064701155 0.10943463 0.03938182 0.006840048
000390 98 2a 36 bd 8e dc 9f 3d 3a ec f0 bc 1c ab e4 bd
       -0.044474214 0.07805739 -0.029409517 -0.11165449
0003a0 21 08 8b 3c a5 be 43 bd 2e 87 8b bc d7 0a 2a 3d
       0.01697165 -0.047789235 -0.017032232 0.041514244
0003b0 43 36 9d 3d 24 e1 62 3b f8 0b e7 3d 89 34 e3 3d
       0.07676365 0.0034619058 0.1128158 0.11094005
0003c0 47 dc 3a bd f1 25 c3 bd cc 13 83 bd 42 44 68 bd
       -0.04562023 -0.09528721 -0.0640026 -0.05670572
0003d0 a6 ac 88 bb 0f 5f 33 bb ca ae d9 bd c0 19 d9 3d
       -0.004170972 -0.0027369892 -0.106290415 0.106006145
0003e0 c1 05 26 3d e7 35 72 3d e0 ee 8a 3d 0a 12 02 bc
       0.04053283 0.059133437 0.06783843 -0.007938871
0003f0 db c8 e7 3d 28 ac 07 3c 37 56 94 bd b7 f4 a1 3d
       0.11317607 0.008280791 -0.07243007 0.07908004

lstm.weight_hh_l1 f4 [256, 64]
000000 45 79 93 bd fd f6 e0 bc 39 51 c1 3b 1b 7e f2 bd
       -0.07200865 -0.027461523 0.005899575 -0.11840459
000010 0d 87 29 3d df 22 d9 3d ee ce db bc e7 2a 87 3d
       0.04138856 0.10602354 -0.02683207 0.0659998
000020 f3 65 ce 3d 0a fc 84 bd 25 69 83 3c b2 bf d7 bd
       0.10078039 -0.06493385 0.016041348 -0.1053461
000030 5e 76 a4 bc ae 8a bf bd aa 36 52 bc cf 02 42 bd
       -0.020075973 -0.09352623 -0.012830416 -0.04736596
000040 12 dd 60 bd 06 29 73 bc c3 c3 48 bd 7a c6 67 3d
       -0.05489833 -0.014841324 -0.049014818 0.056585766
000050 bb 94 08 bd 0a fa 88 bd 3e 7b c9 bd 0e b6 2a 3c
       -0.033344965 -0.06688316 -0.0983796 0.010419382
000060 3a 96 d4 bd e0 4b 0a 3c d5 b5 52 3d 7b ed 8a 3d
       -0.10380216 0.008440942 0.05144294 0.06783577
000070 be 22 55 3d 35 f6 c0 bd 0e e5 3d bc 29 12 91 3d
       0.052035086 -0.0942196 -0.011590255 0.07083542
000080 ba 80 ac 3d cd e7 96 3d af a7 00 be 4f 4c 6e bd
       0.0842299 0.07368431 -0.12563966 -0.058178242
000090 b6 06 4c bc b5 49 ce bd 7d ba 0f 3e 33 a6 d4 3d
       -0.012452772 -0.10072652 0.14035983 0.103832625
0000a0 45 50 50 bd c8 53 d1 3c 31 10 12 be 8b df 2b 3c
       -0.0508578 0.025552645 -0.14263989 0.0104903085
0000b0 2a 53 30 bd 76 ba 24 3d f9 6d 0d bd 4c fa 34 3d
       -0.04304806 0.040216886 -0.034528706 0.044184014
0000c0 71 8f 38 bd 08 66 b3 bd 23 5f b0 3d 30 b2 79 3d
       -0.04505867 -0.08759695 0.08611896 0.06096095
0000d0 17 a9 ac 3d 58 cd c6 bd 74 9c ea 3b 4e 28 94 bc
       0.08430689 -0.09707135 0.007159764 -0.018085625
0000e0 d2 2b 23 3d 3b 76 d9 bb b2 e8 c4 3d 42 e7 93 3d
       0.039836712 -0.0066364086 0.096146956 0.07221843
0000f0 55 27 31 bd d1 48 ba bc bf 15 ee bd cd c1 a3 bd
       -0.0432504 -0.0227398 -0.116252415 -0.07995949
000100 9a 02 8f bb 2d 89 0a be ab 45 a0 bc c1 5b f8 3b
       -0.004364324 -0.13528891 -0.01956447 0.0075792973
000110 a2 2e 14 3e d1 04 b2 3d 7b 1a a1 bd 0f 81 ab bd
       0.14470914 0.08692325 -0.07866379 -0.08374225
000120 30 bb 2a bd 23 bb 8b bd 51 ac 8b 3b 6c b0 aa bd
       -0.041682422 -0.06822803 0.004262485 -0.08334431
000130 41 e1 50 bd 2b da ca bd c6 ea 09 3e be 5d ee 3b
       -0.05099607 -0.099048935 0.13468465 0.0072743585
000140 fe d0 b8 bd a3 e0 c9 3a be 0b 8c bd d5 ab 8e bd
       -0.09024237 0.001540203 -0.06838177 -0.06966368
000150 98 7e 26 be 70 61 06 be 17 d9 c3 bb ba 9a 96 bd
       -0.16259229 -0.13123107 -0.005976807 -0.073537305
000160 73 3f ec 3d e7 4b 4f 3d 1d 59 e8 3d 9a d2 19 3e
       0.115355395 0.050609495 0.11345122 0.15021744
000170 25 1d af 3d eb 43 60 3c 2f bc 4a bc 9f e7 c6 bd
       0.08550481 0.013688068 -0.012373968 -0.09712147
000180 e9 08 1d 3e 45 60 81 3c cd 2e 0a 3d df c9 d6 3b
       0.1533543 0.015792975 0.03373604 0.0065548266
000190 e9 af 52 bd c4 b3 6b 3d 3a ea e8 bd 54 59 82 bd
       -0.051437292 0.057544485 -0.113728 -0.06364694
0001a0 c5 94 b5 bc f0 33 ae bc a9 9d 84 3d 93 00 81 bd
       -0.022165665 -0.021265 0.06475384 -0.06298938
0001b0 e8 cc 4f bd 9a a9 81 3d e7 90 33 3d 04 19 10 bd
       -0.050732523 0.06331177 0.04383936 -0.035180107
0001c0 25 7a df 3c 5c 81 17 3e 23 fb 57 3c 04 22 b1 bd
       0.027279923 0.1479544 0.013182434 -0.08649066
0001d0 a8 60 ba 3c 85 32 da bd 24 0a 25 3e 3e f8 2b 3d
       0.022751167 -0.10654167 0.1611715 0.04198479
0001e0 9d 83 8c 3d 57 ed 85 bd 77 4c 0e bd f9 f9 ea bd
       0.06861041 -0.065394096 -0.03474089 -0.1147346
0001f0 b6 36 be bd 2d 76 b8 3d 58 1e 87 bd fb 0e e5 bd
       -0.09287779 0.09006915 -0.065975845 -0.11184498
000200 72 38 c8 3d ac 1c ba 3c 3b 77 be 3d 2b ff b6 bc
       0.09776391 0.02271875 0.09300085 -0.02233847
000210 21 d6 31 bd 7e 9d f1 3d 55 a7 34 bd 6c bb 46 bd
       -0.0434171 0.117976174 -0.044104893 -0.048518583
000220 87 c6 c2 3d dc d7 e0 bb 7a 2f 24 bc ca 34 08 3d
       0.09510522 -0.00686167 -0.010021085 0.03325347
000230 9f 22 dd 3d 98 e3 a7 bd 2a f4 a0 bd b6 10 0c bd
       0.10797619 -0.08197707 -0.078590706 -0.034195624
000240 f2 c7 ef bb 21 b4 f6 3d 1b df 73 bd e6 e6 a4 bd
       -0.0073175365 0.120460756 -0.05953894 -0.08051853
000250 79 d0 a8 3d 65 c8 9b bd 0e 5b 9a bd 8b 96 62 3c
       0.08242888 -0.076065816 -0.075368986 0.013829838
000260 4b 6b 46 3d 02 0e a8 bc 21 33 e0 3d 63 b6 61 3c
       0.048442166 -0.020514492 0.10947252 0.013776395
000270 62 65 f5 bd 8d 8c e0 bd 3d 61 6e 3c a3 2e 00 be
       -0.11982228 -0.10964308 0.014549551 -0.1251779
000280 b0 53 f1 3d 60 33 6c 3d 3d dd 1c 3d 4b c3 f9 bd
       0.1178354 0.057666183 0.038296927 -0.12195452
000290 09 69 9b 3c 88 d6 f0 bd 6b 42 db 3d 48 54 f6 bd
       0.018970983 -0.117596686 0.107060276 -0.12027794
0002a0 00 2d 39 bd 02 f8 cd bd 7e 0a 9c 3c 7f d4 e9 3c
       -0.04520893 -0.10057069 0.019047972 0.028543709
0002b0 35 87 b1 3c 4d a8 ac 3a 51 e6 32 bd 7c 05 63 3c
       0.021670917 0.0013172716 -0.043676678 0.013856288
0002c0 c5 77 a5 bd 48 dd c7 3d 63 cc de 3d a2 ac 9e bd
       -0.08079485 0.09759003 0.108788274 -0.07747771
0002d0 9c a0 ce bd 73 71 91 bd 7c 4b 9e 3d f6 a0 0e 3c
       -0.100892276 -0.07101717 0.07729241 0.008705368
0002e0 66 02 7d bc 59 65 c2 bc 47 56 6a 3d f4 5d df 3d
       -0.015442466 -0.023729967 0.057211187 0.10906592
0002f0 6a f6 b9 3c ab dd 56 3d c3 2a 78 bb 2b 80 b7 bd
       0.022700507 0.052457493 -0.0037867285 -0.08959993
000300 61 ee d7 bc 7a bc fc 3d c8 18 26 3d 85 86 a9 bd
       -0.026358785 0.123406366 0.040550977 -0.08277611
000310 d2 5e aa bd 97 a2 98 3c f1 ee ac bb 95 2b 44 3d
       -0.08318867 0.018632216 -0.0052775075 0.047893126
000320 40 e1 df 3d e5 b0 8d 3d 40 2a 87 bd 20 88 bd 3d
       0.10931635 0.069185056 -0.065998554 0.092544794
000330 19 5f c3 3d 4a 3e 14 be c3 d9 a7 bd 99 aa ec 3d
       0.09539623 -0.14476886 -0.081958316 0.115559764
000340 4f 63 ff 3d 60 26 10 3e 32 91 a5 3d ec 32 90 3d
       0.124701135 0.14077139 0.080843344 0.070409626
000350 a8 c2 9f 3d 4a 9b c2 3d f5 82 ad bc 12 ae 8b 3d
       0.078007996 0.09502275 -0.02118061 0.06820311
000360 89 b8 2b 3d cc 27 da bd ae a5 05 3e 28 0d 65 bd
       0.041924033 -0.10652122 0.13051483 -0.05592075
000370 7e 90 8e bd b1 8c a7 bd 2c 0d df 3d 11 99 53 bd
       -0.069611534 -0.08181132 0.10891184 -0.051659647
000380 c3 52 a0 bd e2 e0 c1 bd d1 fc d9 3b 8f 05 5e 3d
       -0.078282855 -0.09466721 0.0066524525 0.05420452
000390 23 52 95 3d d4 b2 49 bd dc 40 db bd 6d 47 d8 bd
       0.07291057 -0.04924281 -0.1070573 -0.105604984
0003a0 b7 65 0b be 99 81 b0 bd c8 c3 33 3d b4 1c 04 3d
       -0.1361302 -0.08618469 0.043887883 0.032253936
0003b0 5d 88 09 bd 4a 2a 5b bc c2 5f 03 3d a6 ff cd 3d
       -0.03357731 -0.013376782 0.032073744 0.10058527
0003c0 44 44 23 3d d0 d0 60 3d e8 26 95 3d 01 01 79 3d
       0.039860025 0.05488664 0.072828114 0.060791973
0003d0 63 c5 50 bd f3 82 80 bd 20 93 02 3e d7 62 f4 bd
       -0.050969493 -0.062749766 0.12751436 -0.11932915
0003e0 67 41 85 bc 21 52 0f be 2c e1 ca bc 98 08 25 bd
       -0.016266538 -0.13996173 -0.024765573 -0.0402914
0003f0 a5 e9 82 bd 5b d5 e0 bd 73 51 90 3d 96 24 cb bc
       -0.063922204 -0.10978194 0.07046785 -0.024797719

lstm.bias_ih_l1 f4 [256]
000000 a6 f2 ea 3d 84 da 19 3e f7 9e 02 3e bc f4 a2 bd
       0.11472063 0.15024763 0.12755953 -0.07956836
000010 37 58 6c 3c 29 50 d3 bd 5d 3a e7 3d 28 9e 12 bd
       0.014425329 -0.10318024 0.11290429 -0.03579536
000020 d9 60 ed 3d 4b e4 e1 3c fc 79 a9 bc 3f 83 71 bd
       0.11590738 0.027574679 -0.02068805 -0.058963057
000030 e2 10 83 3d 73 02 bc 3d c2 66 d8 bc 63 b7 b4 3d
       0.063997045 0.09180155 -0.026416186 0.08824041
000040 1b e2 c8 3d 09 83 53 bc 36 75 e3 bc 72 2d b9 3c
       0.09808751 -0.012909659 -0.027765851 0.022604678
000050 51 df 01 3e f0 33 1a bd b6 a9 90 bd cc 1b ad 3d
       0.12682845 -0.037647188 -0.0706362 0.084525675
000060 a5 a5 eb bc be 61 60 3d de c3 4e 3d df 83 1f 3c
       -0.028765509 0.054780714 0.050479762 0.00973603
000070 58 a3 55 3d e8 6e 97 bd 8d 29 cd bd bb f7 37 bd
       0.05215773 -0.073942006 -0.10017691 -0.04491399
000080 4f d8 86 3d 88 ba bf 3d 67 da 7a 3d 1b 85 f4 bd
       0.06584226 0.0936175 0.06124344 -0.1193945
000090 be 8b a1 bc e7 41 d5 bd 21 0c 6e 3d b3 5e 02 3d
       -0.019719955 -0.104129605 0.058117036 0.031828593
0000a0 20 53 c6 3d 7b ea f7 3c f8 24 c5 3d 7c eb be bd
       0.096838236 0.030263176 0.09626192 -0.09322259
0000b0 4f ef 29 3d 6d da a7 3d 0c 08 d7 bd 15 92 c2 3d
       0.041487988 0.08195958 -0.10499582 0.09500519
0000c0 85 ca 16 bc 51 f1 9a 3c f8 ff ad 3c 66 5e 02 3d
       -0.009203558 0.018913897 0.02124022 0.031828307
0000d0 65 b7 f2 bc 45 c0 7d 3b 0f d9 35 3d a3 0b 8a bd
       -0.029628465 0.0038719338 0.044396456 -0.06740501
0000e0 64 fd 63 bd a6 e9 90 bd c8 b2 30 bd 07 84 fa bc
       -0.055661574 -0.07075815 -0.04313925 -0.030580534
0000f0 36 8f a3 bd 52 fa ec bd 5a 4c a2 3d ee 83 a0 3d
       -0.079863 -0.11571182 0.07924719 0.078376636
000100 de be 82 bc 14 6d c0 bc a4 08 eb bc d6 59 a0 3d
       -0.015960153 -0.023489513 -0.028690644 0.07829635
000110 7c 17 f8 3c ef 01 60 3c 72 34 a9 3d 8b f6 e6 3d
       0.030284636 0.013672336 0.08261956 0.11277493
000120 53 6e 02 bd 75 81 03 bd 00 50 7c bc 07 97 69 3d
       -0.031843495 -0.03210588 -0.015399933 0.057028797
000130 fa 7e 05 bd 9a 4e 9d 3d 50 88 d3 3d d8 e8 08 3e
       -0.032591797 0.07681008 0.10328734 0.13370073
000140 3c 9e 3a bc 52 7b 8c 3d 06 b6 1f bc d7 a6 aa bd
       -0.011390265 0.06859459 -0.009747988 -0.083326034
000150 8a bc 02 bd 30 bf 99 bd c3 35 fe 3c 70 7d a4 bd
       -0.031918086 -0.07507169 0.031031495 -0.08031738
000160 56 f5 db 3d e8 db 91 bd 0e fe e5 3d ac 14 28 3e
       0.107401535 -0.07122022 0.11230098 0.16414136
000170 42 51 0f bd 52 53 c2 3d 9a 7e 8a 3c 32 17 06 bd
       -0.034989603 0.09488548 0.016906071 -0.032736965
000180 9f 5b a8 3d a8 2f 83 bd 2b c6 d1 3d 2f c7 08 3d
       0.082206 -0.06405574 0.10242876 0.03339308
000190 ce 91 73 3d 9b a4 a1 bd 03 3c 9d bd 3c f8 d1 bd
       0.059465222 -0.07892724 -0.07677462 -0.10252425
0001a0 6f f6 2e 3d e8 6f 01 3e 52 ba 21 3d 0d 84 dd bb
       0.042715486 0.12640345 0.03948433 -0.0067601264
0001b0 a5 4f a0 3a 13 d1 42 bc 0c a3 38 3d 92 b6 d9 bd
       0.0012230767 -0.0118906675 0.04507737 -0.10630526
0001c0 e5 a1 12 3d 52 0c a2 bd a3 15 8f 3c e9 3e b0 3c
       0.035798926 -0.07912506 0.017466372 0.021514373
0001d0 ef 8f a4 bd 9a 88 0b 3e 31 c3 d2 b8 25 7c 59 3c
       -0.08035266 0.13626328 -0.000100499376 0.013274227
0001e0 5a 3a 17 3e 47 be 00 3e 49 ce 2e 3d 18 58 5e 3d
       0.14768353 0.12572585 0.042677198 0.05428323
0001f0 67 35 82 bd c4 38 b7 3d 02 62 91 bd d3 22 7d bd
       -0.06357842 0.08946374 -0.07098772 -0.06180079
000200 52 33 87 3c 5d d3 5f 3d 89 6a b8 3c 25 59 8b bd
       0.016503964 0.05464493 0.022511737 -0.06804112
000210 9c 6f 7b 3c 3a 0a b8 3d 3b 34 5a 3d b8 70 2c 3d
       0.015346434 0.089863256 0.053272467 0.042099684
000220 3d ec 77 bd cd 8b 12 bc 41 df 77 3d 64 a9 8d 3d
       -0.06052803 -0.008944464 0.060515646 0.06917074
000230 d9 67 7a bd 62 fa 76 bd 6c 00 a8 3d 3a ff 55 bd
       -0.061134193 -0.060297377 0.082032055 -0.052245356
000240 e9 31 97 3c 00 8a 22 bd 5b 1b 8b bb 1e f6 5b 3c
       0.018456416 -0.03968239 -0.0042452044 0.013425378
000250 db a0 d8 bd cd f2 a3 bc 5b fb 97 3c bf d7 4d 3d
       -0.10577556 -0.020013237 0.018552473 0.05025458
000260 1a 93 29 bd 60 cb 03 bd 8d 66 dd 3d f8 91 c2 bd
       -0.041400053 -0.032176375 0.10810576 -0.095004976
000270 29 73 ec bd 14 6d 7f bb 2b e3 af 3a 08 38 10 bd
       -0.115454026 -0.0038974928 0.0013419142 -0.035209686
000280 d7 4c 01 3d a9 d4 01 be e6 d8 53 bd 9d 59 86 3d
       0.03156742 -0.1267878 -0.051720522 0.06560061
000290 ba eb e8 ba 24 00 cb bd 88 fc 09 bd 55 b9 20 bd
       -0.0017770447 -0.09912136 -0.0336881 -0.039239246
0002a0 c2 75 34 3d fc 99 e4 3d 05 c4 29 3d 49 e4 14 3c
       0.044057615 0.11162183 0.041446704 0.009087631
0002b0 8d 90 84 3c 8b 2a 7d bd ed 42 b4 3c 1f 80 6f bd
       0.016182208 -0.06180815 0.022004569 -0.058471795
0002c0 ae 76 bb 3d 70 5b 88 3b fd f0 98 bd f9 79 85 bc
       0.09153496 0.004161291 -0.0746784 -0.016293513
0002d0 97 45 8f bd eb dc e8 3d a6 2f 70 3d e8 c3 bb bd
       -0.06995695 0.11370262 0.05863919 -0.091682255
0002e0 73 3b 85 3d fd cc fb 3a 1d ed ed bd 01 bc 0c be
       0.0650548 0.0019210872 -0.116174914 -0.13743593
0002f0 f2 ce 5d bd 73 b4 40 bc cd a6 02 bd 7e c6 b6 3d
       -0.054152437 -0.011761772 -0.031897355 0.08924578
000300 a0 6b c6 bc 56 f5 6c 3d 3a 79 ac ba 4d c2 9d bd
       -0.024221241 0.057851158 -0.0013158687 -0.077030756
000310 aa e6 95 3d a6 a3 f3 3d 55 e0 ed 3d 5f 5f 6f bd
       0.07319386 0.11896448 0.116150536 -0.058440562
000320 c0 bc 87 bd 51 2f d9 3d ac 50 45 3b 55 6d 8a 3d
       -0.06627798 0.10604728 0.0030107899 0.06759135
000330 e2 4e 26 bd fb c0 c5 3d e2 fd d7 3d 07 64 fb 3b
       -0.040602572 0.09655949 0.10546471 0.0076718363
000340 95 61 14 bd 9f 71 8f bd 8e 37 ea bd d8 0d f2 3d
       -0.036225874 -0.070040934 -0.114363775 0.11819047
000350 8f 99 6a 3d e1 72 59 3b f2 ad 1c 3c 4e 22 41 3d
       0.05727535 0.0033180045 0.009562956 0.047151856
000360 7d eb e2 bd 2b e5 17 3d 03 1c 19 bd 5d f7 b5 3d
       -0.11080072 0.037083786 -0.03738023 0.088850714
000370 b8 76 8a bc 54 55 df 3c 1e c2 c6 3d 1b c4 c0 ba
       -0.016902313 0.027262367 0.09704994 -0.0014706881
000380 0b 21 2e 3d 32 2a a0 bc 6f da df 3d b3 0e 16 bd
       0.04251198 -0.01955137 0.10930335 -0.036635112
000390 27 11 3c bd fa e6 fb 3d 32 2e b0 bd 90 c6 8b bd
       -0.045914795 0.12299915 -0.08602561 -0.06824982
0003a0 2b 81 a1 3d 2a 94 bc 3d 38 a8 ab 3d 82 19 86 3d
       0.07885965 0.092079476 0.083816946 0.06547834
0003b0 18 06 0e 3d c8 57 27 3b 13 dd df bc 7e da d3 bc
       0.03467378 0.00255345 -0.027327096 -0.025861021
0003c0 ef 20 c7 bd 52 f7 3c bd d0 b7 51 bc f5 c6 bd 3c
       -0.097230785 -0.0461343 -0.012800172 0.02316616
0003d0 8f 09 6e bd 9f a4 f4 3d 57 c5 58 bc 4a da 0a bc
       -0.058114585 0.119454615 -0.013230643 -0.008474896
0003e0 a9 7b 16 bc b5 b1 8b bd 9f de 2e bd 39 ad d7 3d
       -0.009184756 -0.06821004 -0.042692777 0.105310865
0003f0 1d 09 7f bc 58 9b 01 be 87 ef 9c bd 07 c8 05 3d
       -0.015566138 -0.12656915 -0.07662874 0.032661464
