output/LSTM2CNN/LSTM2CNN_adam_64_1000/model/LSTM2CNN_epoch_771.pth (torch, 353538 bytes, 16 tensors)

lstm.weight_ih_l0 f4 [256, 11]
000000 ad 12 5e bd 73 37 91 3d 57 3b 54 bb 77 31 00 bd
       -0.05421703 0.07090654 -0.0032384002 -0.031297173
000010 a5 d0 d6 3d 56 a0 c2 bd 8d 23 9a 3d 54 ad 85 3b
       0.104890145 -0.09503238 0.07526312 0.0040795
000020 ae 1a 72 3d fc 3a 74 bc 85 6d 26 bb 76 65 d0 bd
       0.059107475 -0.014906641 -0.0025394869 -0.10175602
000030 c4 7b 01 bd 24 8d f8 3c 1e 44 35 3d b4 5b de bd
       -0.031612173 0.030340739 0.044254415 -0.10857335
000040 cc be 8b bd 66 9a cc 3d 24 6c 8b bd d6 f5 59 bc
       -0.06823501 0.09990387 -0.068077356 -0.013303241
000050 ca f6 a7 bd 97 4e 98 bc d8 86 fe 3d 38 7b a3 3d
       -0.08201368 -0.018592162 0.12428063 0.079824865
000060 d7 1c e5 bd 55 9e f4 3b 81 52 9b 3d 53 82 3d 3d
       -0.111871414 0.0074651637 0.07584096 0.046266865
000070 6e 90 02 3e 9c 8e 0c 3d 96 4c 29 bc 8e 72 c2 bd
       0.12750408 0.03431569 -0.010333201 -0.09494506
000080 28 5e f1 3d ce 16 b1 bd 28 c4 9b 3d 77 06 93 3d
       0.11785537 -0.08646928 0.07605773 0.071789674
000090 66 8a 04 3d 21 d2 8c 3d 1e 9a ae 3d e2 a6 bc 3d
       0.03235855 0.068760164 0.08525489 0.09211518
0000a0 6c 32 01 3e ad 64 2a bd d6 ed f6 3d 22 46 fa 3c
       0.1261689 -0.04159992 0.12057082 0.03055102
0000b0 d5 a2 50 3d 66 3d 87 3d 91 81 31 bd 6a 3a f4 3d
       0.05093654 0.06603508 -0.043336455 0.11925204
0000c0 e4 e1 54 bc c8 61 b6 3d 1f e0 23 3d 79 7c 10 bd
       -0.01299331 0.08905369 0.04000866 -0.035274956
0000d0 3b 88 4a 3d 71 bb f2 bc 13 4f 5b 3d a0 e1 04 3e
       0.049446326 -0.029630395 0.053542208 0.12976694
0000e0 2b 75 6a bd 5d 99 ec 3d b6 5f 09 bc f2 7a 0d 3e
       -0.057240646 0.11552689 -0.008384636 0.13816431
0000f0 03 8b ab bd 14 39 64 3d 14 34 24 3d d3 10 ab 3d
       -0.08376124 0.055718496 0.040088728 0.08352818
000100 18 3d 7a 3d eb 32 dd 3d b3 a4 8c bd a8 f5 8c bd
       0.06109342 0.108007275 -0.068673514 -0.06882793
000110 d1 d1 e6 3d 2e f7 0c be 27 5d 27 3c a3 11 a7 bd
       0.11270488 -0.13766167 0.01021508 -0.08157661
000120 6b 25 ab 3d 6c b5 4e bd f6 f7 80 3d 26 13 a6 3d
       0.08356746 -0.050465986 0.06297295 0.08109121
000130 b0 7e 47 3d ac 5b 95 3d c9 de 57 bd 24 07 d4 bd
       0.048704803 0.07292876 -0.0527027 -0.103529245
000140 24 e7 b8 bd 4c 6f 76 3d a4 7f 81 bd 25 54 fd 3d
       -0.090284616 0.060164735 -0.06323174 0.12369565
000150 75 12 a5 3d bf 68 60 3d b7 25 fb bd a6 1d a3 bd
       0.08060161 0.054787394 -0.12263053 -0.07964639
000160 da b1 d1 bd 4a b5 88 3d a7 d4 e1 bd 07 f0 71 bd
       -0.102390006 0.06675203 -0.11026888 -0.0590668
000170 66 a2 45 3d 2f 9d 99 bb e6 07 69 bc 8f a0 14 bc
       0.04825058 -0.004687927 -0.014223075 -0.009071483
000180 ea fd 2f bc 09 cc 09 be 49 a5 28 3d c6 8b c9 bd
       -0.01074169 -0.1345674 0.041173253 -0.09841113
000190 ad 41 fe bc 3e fe 34 3d 5d 10 c4 3d 38 e4 c7 bd
       -0.031037176 0.044187777 0.095734335 -0.09760326
0001a0 d1 54 a4 3d 58 65 dc bd c7 4e 27 3c 52 8d f4 bc
       0.0802399 -0.10761517 0.010211653 -0.029852543
0001b0 41 18 99 3b 47 7a b0 bd 0a 2f 08 be 1f 06 cc 3d
       0.0046720807 -0.086170726 -0.13299194 0.09962105
0001c0 ec 5c c0 bd e7 95 1a bd 2a ae c1 3c 59 2e 0b be
       -0.093927234 -0.037740614 0.023642618 -0.13591899
0001d0 f5 eb c6 bd 6a f1 c4 3d 3a e4 80 3c 5c 58 a0 3d
       -0.09712974 0.096163586 0.015733827 0.07829353
0001e0 fa 7c bc bd 71 5b 99 bd 7c 9d 0b 3d e6 5c 8c 3d
       -0.09203525 -0.07488144 0.034085736 0.068536565
0001f0 78 9e 4c 3d bc 30 46 3c 84 fa a1 ba 32 59 6c 3c
       0.049955815 0.01209658 -0.0012357985 0.014425563
000200 ad 82 d1 bd f1 9f 84 bc b4 9b 61 3c f3 cb ec bd
       -0.102300026 -0.016189547 0.013770033 -0.11562338
000210 7e 55 8a bd da e2 c6 3d c0 c1 f4 3d 25 57 49 3d
       -0.067545876 0.09711237 0.119510174 0.049155373
000220 26 ca 24 3e 54 e4 a0 3d a6 20 97 3d 16 79 e1 3b
       0.16092739 0.0785605 0.07379274 0.0068808896
000230 76 48 f6 3d d5 e6 32 bd a3 bc 4b bd 03 90 c9 3d
       0.120255396 -0.04367717 -0.049740445 0.09841921
000240 8d c6 b2 bd b9 73 d2 bd 5d f6 01 3e 2c 2c ca 3d
       -0.08729277 -0.102759786 0.12691636 0.09871706
000250 cf 34 8b bd ef 49 b3 bd d4 f4 eb 3c fd 42 88 3d
       -0.06797182 -0.08754336 0.028803267 0.06653402
000260 da 24 89 3d 4a db 9d bc 48 8d fb bd b6 70 06 bd
       0.06696482 -0.019269604 -0.12282807 -0.032822333
000270 89 5a c2 bd 35 b9 52 3d 35 9c 0e bd 01 85 d5 3d
       -0.094899245 0.05144616 -0.03481694 0.10425759
000280 53 da 96 bd 30 47 cd 3d 2e e9 07 3d 85 53 a8 3d
       -0.07365861 0.100233436 0.03318136 0.08219055
000290 48 cd 99 bd 75 99 8e bd 18 ee c6 bd 81 65 13 3e
       -0.075098574 -0.06962863 -0.097133815 0.1439419
0002a0 9a c8 d7 3d a9 2a 18 bd 6b ff 20 3d 13 fa c4 bd
       0.105363086 -0.03715006 0.039306086 -0.0961801
0002b0 db 29 70 bd 6c a0 c8 bc 98 3d b9 3d 33 fd 12 bd
       -0.058633666 -0.024490558 0.09044951 -0.035886
0002c0 c0 7e 4a 3d 9f 9a c6 3c 1f 54 b7 bd 9d cc c4 bd
       0.049437284 0.024243651 -0.08951592 -0.096093394
0002d0 bf 8d 81 3d 05 7a 4c bd 2b 2d 32 3d 43 c5 53 bc
       0.06325864 -0.049921054 0.043500107 -0.012925449
0002e0 97 40 70 3d e9 3d ca 3c 79 30 44 bd ea ee b4 bd
       0.058655348 0.024687724 -0.04789779 -0.08834632
0002f0 e9 df c2 3d 0d 3f a0 bd 04 16 a3 3b 87 c8 c3 3d
       0.09515364 -0.07824526 0.0049769897 0.09559732
000300 30 0c 84 bd 4e 48 00 bd 4a a1 2e bd c1 ba 16 3b
       -0.06447637 -0.031318955 -0.042634286 0.0022999498
000310 7d ca c2 bd c2 4e df bd db 63 3a bd 91 43 93 3c
       -0.09511278 -0.10903694 -0.045505386 0.017976554
000320 10 ff a5 bd fb bb aa 3c 8e 95 d1 bd 6e 62 ba 3d
       -0.0810529 0.02084159 -0.102336034 0.09100805
000330 10 1f 0c 3b 4e cf b9 bd 55 77 3d 3c 16 20 33 bd
       0.002138082 -0.09072743 0.0115640955 -0.04373177
000340 6a a8 1a 3d 10 59 59 bd 85 f5 95 3d f7 b0 95 3d
       0.03775827 -0.053063452 0.0732222 0.07309144
000350 54 0c 13 bc 59 f3 59 3d 9f 3f 49 bd 98 fc ba 3c
       -0.008975107 0.05321059 -0.04913294 0.022825524
000360 8c 71 77 bd 22 ee 9f bd 26 8a ab bd 76 0f 0a bd
       -0.06041102 -0.07809092 -0.08375959 -0.03370615
000370 99 34 78 3d d8 4f c5 3c 78 a5 61 3c a7 23 08 be
       0.060597036 0.024085924 0.013772361 -0.1329485
000380 28 b4 a0 bc 88 c0 55 3c 84 21 c0 3d 93 1f e8 3c
       -0.019617155 0.013046391 0.093813926 0.028335368
000390 70 71 93 3d ac 3b a6 bd bd 29 cb bc 62 1d 8a 3d
       0.07199371 -0.0811685 -0.024800176 0.067438856
0003a0 2d 6d 60 bd ad e0 19 be 79 10 4c 3d ba 10 78 bd
       -0.05479162 -0.15027113 0.049820397 -0.060562827
0003b0 8d 90 b6 bb 4f 62 01 3e a9 cc 1b be e6 1c 21 be
       -0.005571431 0.12635158 -0.1521479 -0.1573368
0003c0 90 84 81 bc f0 bf 94 bd 33 24 6a bd fa b1 fa bd
       -0.015810281 -0.07263172 -0.05716343 -0.122409776
0003d0 0b 52 9b 3c 14 b5 df 3d ab b0 6a bc fb 2f 52 3a
       0.01896002 0.1092321 -0.0143243475 0.0008018014
0003e0 3e 34 0f 3d e8 ef 5e 3d ca 81 14 bd d1 d1 ab 3d
       0.03496193 0.05442801 -0.03625659 0.08389629
0003f0 84 83 e6 bc 0d 11 f0 bd 59 63 98 3d d5 34 50 3d
       -0.028138883 -0.11722002 0.07440824 0.050831635

lstm.weight_hh_l0 f4 [256, 64]
000000 2c 66 ff bb 6f 70 11 3d fc de 02 3d cb d9 ad 3d
       -0.0077941623 0.035507616 0.031950936 0.08488806
000010 c5 1e 65 bd fb 19 7f 3d 2e 7a fc bc 4e ad 00 3e
       -0.055937547 0.062280636 -0.030819979 0.1256611
000020 03 98 ee bc 16 40 b8 3d 24 8d 01 3e 02 88 90 3d
       -0.02912522 0.089965984 0.12651497 0.070571914
000030 76 79 0c 3e d3 57 70 bd 62 37 a0 bd 88 c4 09 bd
       0.13718209 -0.058677506 -0.078230634 -0.033634692
000040 15 42 54 3d de 05 fd b9 ad 80 d5 3b f5 d7 84 bd
       0.051820833 -0.00048260292 0.0065155835 -0.06486503
000050 0f 0c a4 3d af 7f d6 3b 35 d6 d6 bd 65 36 87 3d
       0.080101125 0.006545983 -0.104900755 0.06602172
000060 2d 36 0e be 43 db 63 3d fb 36 c8 bd 75 8e a0 bd
       -0.13887854 0.055629026 -0.09776112 -0.078396715
000070 b6 f5 97 3c 16 20 a7 3c 64 a5 04 3b 0e 21 ba bc
       0.018549781 0.020401042 0.0020240182 -0.02272084
000080 e1 3d af 3d ce bc 8c 3c f9 cf 96 bc b6 8b 68 3d
       0.08556724 0.017179873 -0.018409716 0.056773864
000090 82 25 0a 3e 0c 36 af bd 3a 15 7e bc 56 5f fc bc
       0.1349087 -0.085552305 -0.0155079905 -0.030807178
0000a0 70 bf 8a 3d b4 76 1b 3d 9e 4d d7 3d 7a b3 d1 bd
       0.06774795 0.037955 0.10512851 -0.102393106
0000b0 c3 c0 0c 3d e4 eb 9a bd 22 59 d7 3c de 69 b1 bd
       0.03436352 -0.07564524 0.026287619 -0.08662771
0000c0 f5 f5 c7 bc f6 2c e8 bd 46 b7 cb 3d 6c 2c d9 3d
       -0.024409274 -0.113367006 0.09947066 0.10604176
0000d0 9a a9 9c 3d bd 6d 99 bb 79 d3 9b bb dc 48 b0 3d
       0.076495364 -0.0046822713 -0.004755434 0.08607647
0000e0 34 b9 18 bc 3c 2b da 3d b0 62 bc 3c 7d b8 8c 3d
       -0.0093215 0.106527776 0.022996277 0.06871126
0000f0 c3 0a 12 bd 4f 01 e5 3b ae ad cc bc c3 01 c8 bd
       -0.035654794 0.0069886814 -0.02498516 -0.09765961
000100 77 0a ea bd 66 8c 90 bc d9 32 12 be dd 4b 83 3d
       -0.11427777 -0.017645072 -0.1427721 0.06410954
000110 b2 79 36 bd 6d 51 08 3d 40 c8 d9 3c f3 45 05 bd
       -0.04454965 0.03328078 0.026584744 -0.032537412
000120 ad 3b 2c 3c c7 9c 07 3e db b7 49 bd 36 48 4d bb
       0.010512275 0.132434 -0.049247604 -0.0031323559
000130 a9 90 be bc 76 2d 6e bc e2 3b a7 bc 68 8b c5 3d
       -0.023262339 -0.014537206 -0.020414297 0.0964573
000140 57 97 8c 3d 9f 7a 21 3d a6 40 b5 bd 37 30 e2 bd
       0.06864803 0.03942358 -0.08850221 -0.110443525
000150 46 00 39 3d 7e 98 ed bd b4 1e 92 3c 29 09 83 bd
       0.045166276 -0.11601351 0.017836906 -0.063982315
000160 c7 43 dd bd ae 9a b6 3d 33 10 b2 3c 45 de f2 3d
       -0.10803943 0.089162216 0.02173624 0.11858801
000170 5c 45 ca 3d 37 a9 e8 3c 2a a1 bd 3c 98 af 2f 3e
       0.098765105 0.028401 0.023148138 0.17156827
000180 78 90 a5 3d b6 d5 83 3d f0 8b 73 3c 79 35 c8 bc
       0.08084196 0.064372465 0.014864907 -0.02443956
000190 68 74 d4 bd fb 6e ea bd d4 d5 c3 bc 20 b7 fc 3c
       -0.10373765 -0.11446949 -0.023905672 0.03084904
0001a0 75 2d c9 3d 3d ff fc bd b8 0f e6 3c fd 5e 08 3e
       0.09823123 -0.1235337 0.028083667 0.13317485
0001b0 3f 0f 87 b9 19 e5 44 3d 18 31 4d bc ad 7a c1 3d
       -0.00025760566 0.048070047 -0.012523912 0.09447227
0001c0 db d7 28 3d 7a 32 20 3d de 54 12 bd 84 52 ea 3d
       0.04122148 0.03911064 -0.035725467 0.1144152
0001d0 d8 5e 38 bc c2 a9 90 3d 18 66 9e 3d 7e bc b5 bd
       -0.011253081 0.07063629 0.077343166 -0.08873843
0001e0 00 af e7 3d 6c eb 51 bd 6e 1c dc 3d fb 5e 2a 3d
       0.113126755 -0.051249906 0.1074761 0.041594487
0001f0 11 a4 9a 3c d7 1a 97 bd 8a b9 85 3d 0a a2 8f 3d
       0.018877061 -0.07378166 0.065295294 0.070133284
000200 0c 51 3c bd c8 f1 18 bd 03 b4 8d bd 49 fb 9f 3d
       -0.04597573 -0.037339956 -0.069191 0.07811601
000210 99 eb c0 bb f7 3c 89 3d b9 60 61 bd e4 d5 a2 bd
       -0.0058874604 0.06701081 -0.055023883 -0.07950953
000220 61 14 8b bd cd 72 b7 bd 67 7e f8 3d b4 c5 ea 3d
       -0.06790996 -0.089574434 0.12133484 0.1146349
000230 b8 04 cf 3b f7 b8 e4 bd 29 dd d7 3c da 9b 35 bc
       0.006317701 -0.11168092 0.026350575 -0.011084521
000240 39 61 7b bd f8 d2 96 bd 67 20 ae bb f1 9d 20 bd
       -0.061372016 -0.07364458 -0.0053139213 -0.039213125
000250 67 3f 1a 3d 3e 7f 1f be 3b 21 d4 3d 02 9b 50 3d
       0.03765812 -0.15575883 0.10357901 0.050929077
000260 12 ca c6 3d d0 d2 ab 3d ad 85 10 be 5e eb 1d bd
       0.097065106 0.08389819 -0.14113493 -0.03855454
000270 5b d8 8b bc 28 0e ea 3d 77 c1 a3 3d d0 a6 93 3c
       -0.01707094 0.11428481 0.07995885 0.018023878
000280 b8 27 bb 3d 7f dd ad bd 33 df 1c bd 52 85 76 3d
       0.09138435 -0.08489513 -0.038298797 0.060185738
000290 2f 21 a8 3d fe 20 14 bd 49 a5 28 bc e1 78 f0 bc
       0.08209454 -0.036164276 -0.010293313 -0.029354515
0002a0 7a f8 27 3d f7 ec d7 bd dd 36 c0 bd be 4f 9a 3c
       0.04100845 -0.10543244 -0.09385464 0.018836852
0002b0 e5 4e 43 3d 97 31 61 3d cc 9c 9f bd 37 df 19 3d
       0.04768266 0.054978933 -0.077935785 0.03756639
0002c0 e9 34 ce 3c 77 e1 b1 bd bf 01 b7 3d 22 02 c0 bb
       0.025171714 -0.08685582 0.0893588 -0.0058596293
0002d0 36 27 fb bd fd e8 93 3d e5 f2 c9 bd 6b a1 94 bd
       -0.12263338 0.07222173 -0.098607816 -0.072573505
0002e0 ac e8 0d 3e 08 3c 40 3d 56 75 65 3d 0c 63 24 3d
       0.13858289 0.04693225 0.056020103 0.04013352
0002f0 ae 7d 07 bc be e0 e5 bd 91 b2 d7 3d 58 9a cc bd
       -0.0082697105 -0.11224507 0.10532106 -0.09990376
000300 56 34 7f 3d d8 39 f4 3d 5e ce a2 3d c4 26 14 3e
       0.06230577 0.11925095 0.07949518 0.14467913
000310 46 4a a9 3c 17 46 5c 3d 46 22 b5 3d 0c c7 06 be
       0.0206653 0.05377778 0.08844428 -0.13161868
000320 ca 6e d9 bc fb a4 cd bd ea e5 b1 3d d0 4b 37 bd
       -0.026542086 -0.10041233 0.08686431 -0.044750035
000330 12 38 29 3e f3 50 da 3d a0 0d 11 be 22 62 28 bd
       0.16525295 0.10659971 -0.14165354 -0.04110921
000340 73 1d 05 3b a6 04 18 3e 93 2c c8 bd ce 57 b9 3c
       0.0020311743 0.14845523 -0.09774127 0.022624876
000350 f0 4b 2a bd 47 6c a6 3c 1e d3 e0 3d 66 ea 6d bd
       -0.041576326 0.020315303 0.109777674 -0.058084868
000360 bf 12 9b 3d f7 38 fb 3b 00 f1 e2 bd 2a ed a0 3d
       0.07571935 0.007666703 -0.11081123 0.078577355
000370 65 bd c5 bd a5 c3 b2 bd 6d e6 06 bd 56 6a 1f bc
       -0.09655265 -0.087287225 -0.032934595 -0.009729942
000380 3a ae 1e 3d 5b a2 0b 3d c4 d7 73 b9 8b 35 9d bd
       0.038740374 0.03409038 -0.00023254665 -0.07676228
000390 88 8d 8d bd 4c 8e 91 bd c6 61 6c bd 17 b5 18 bd
       -0.069117606 -0.07107219 -0.05771043 -0.037282076
0003a0 a0 d7 78 3d 76 88 1e 3d 39 e7 14 bd f3 37 85 bd
       0.06075251 0.038704358 -0.036353324 -0.06504812
0003b0 0f d6 a6 3c 47 99 e2 bd b5 90 0e be cb 4c 68 bd
       0.020365743 -0.110643916 -0.13922389 -0.05671386
0003c0 2e c4 e7 bc 94 f8 25 3d 2b 3e 31 3d 16 47 14 3d
       -0.028291788 0.040520266 0.04327218 0.036200605
0003d0 5b de 00 3d a4 5f 9e bd 85 f9 57 3d ca cf 8d bd
       0.031462055 -0.07733086 0.052728195 -0.06924398
0003e0 8e b2 e4 bc c3 a3 10 be 84 4d b6 bd 94 4a 69 bd
       -0.027917173 -0.1412497 -0.08901504 -0.05695589
0003f0 f7 25 14 3d 63 ee 01 3d c8 96 c0 bd 05 f7 da 3c
       0.03616902 0.031721484 -0.09403759 0.026729116

lstm.bias_ih_l0 f4 [256]
000000 0d 5e fc bd e3 3f 26 3d 84 7b a2 bd 88 55 7c 3d
       -0.12322626 0.04058827 -0.07933715 0.061605006
000010 d7 bd 95 bd 07 c1 f1 bc e3 d1 24 bd 71 1e 33 bd
       -0.073116 -0.029510988 -0.040239226 -0.043730203
000020 a6 24 02 be e5 4b c9 3d 3f e1 c2 bd bd be b3 3d
       -0.12709293 0.09828929 -0.095156185 0.08776615
000030 1f f5 77 3c a6 3e c8 bd 0b f7 c1 39 e1 b9 a9 3d
       0.015134125 -0.09777574 0.0003699589 0.08287407
000040 36 cb 3f bd 8b ac 72 bc 58 e4 40 3c a4 b0 ee 3d
       -0.046824656 -0.014811645 0.011773191 0.11654785
000050 43 6d 00 3e 67 58 38 3c bd 4c ce bd 69 ca 97 bd
       0.1254168 0.0112515455 -0.100732304 -0.074116535
000060 90 5e 50 3d b9 13 91 bd 95 f5 d9 3c d5 e1 a5 3d
       0.05087143 -0.0708384 0.02660636 0.08099715
000070 25 24 c2 3c d1 62 1a bd 23 f3 e9 3d ae 1a 09 bd
       0.023698876 -0.037691895 0.11423328 -0.03347271
000080 e3 62 70 3b 18 3a 0c 3e b1 94 1e 3c 1e f4 e2 3d
       0.0036680035 0.13694036 0.0096790055 0.11081718
000090 59 75 29 3b 16 e2 23 3b 4c 4c 67 3d f8 fb ca bd
       0.0025857298 0.0025006584 0.056469247 -0.099113405
0000a0 6c 14 4e bb bd b0 df 3c 2d ce ac 3d f3 bb be bd
       -0.0031445278 0.027305955 0.084377624 -0.09313192
0000b0 97 74 b1 bd 17 61 bc 3d 0c 7c 14 3d ff 6f 43 bd
       -0.08664816 0.09198206 0.036251113 -0.04771423
0000c0 28 72 1b 3c 1c c6 9d bc 81 f7 a9 3d c6 5c dd 3d
       0.009487666 -0.019259505 0.08299161 0.10808711
0000d0 3c de c3 3c 40 8a bc bd 6c d7 f3 bd 7a f9 0b 3a
       0.02390968 -0.092060566 -0.11906323 0.0005339604
0000e0 ab d5 29 bd 8f 9a b1 3d 86 8a 26 3d 4c bc fc 3c
       -0.041463535 0.08672058 0.04065945 0.030851506
0000f0 f2 20 be bc 93 68 1b 3d 48 4d c3 3b b0 60 b2 bc
       -0.023209069 0.037941527 0.0059601404 -0.02177462
000100 e3 5d 6b 3d 12 a8 ab bd cb 62 01 3c af 5e de 3d
       0.057462584 -0.08381666 0.007897089 0.10857903
000110 fb 37 c5 3d c4 21 4c 3d be 7e ce bd 2b e4 d9 3d
       0.09629818 0.04983689 -0.10082768 0.10639223
000120 45 dc a0 bd 4f c7 07 3e 84 9a 4f 3d 7d 1c ba bb
       -0.07854513 0.13259624 0.050684467 -0.0056796656
000130 7e f1 81 3d 21 09 e9 3b 98 96 97 bd 3e 70 5f bd
       0.06344889 0.007111684 -0.0740177 -0.054550402
000140 4f d3 60 bd 19 0b b4 3c 03 ee 9b bd 32 50 9e 3d
       -0.05488902 0.021977948 -0.076137565 0.0773014
000150 b7 64 89 3d da be 9a 3d ce 93 bd bd b9 08 c6 3c
       0.06708663 0.07555933 -0.09256707 0.024174081
000160 0f 08 05 3e 28 5f 8a 3d 3b 8e 6b bd 8e bd 29 3d
       0.12991355 0.06756431 -0.05750869 0.04144054
000170 d1 ed fd 3c c3 b5 0f bd c3 a7 2f 3d 07 ef af bc
       0.030997189 -0.03508545 0.0428846 -0.021476282
000180 d4 c2 0e bd 8e 78 f4 3d ec 20 ca bd 46 18 60 3d
       -0.03485377 0.119370565 -0.098695606 0.05471065
000190 9d 32 ae bb b1 84 af bd b4 2d b9 3d 2e 05 cd 3d
       -0.005316092 -0.08570231 0.0904192 0.100107536
0001a0 37 ca d8 3d f2 40 00 bd 93 6e 44 3a 36 ef ab bb
       0.105854444 -0.031311937 0.00074932835 -0.005247022
0001b0 24 12 6d bd 08 b9 79 3d 3d 30 91 bd 37 ed 03 bd
       -0.05787863 0.060967475 -0.07089279 -0.032208648
0001c0 c2 c2 9f 3c d5 cb d5 3d d6 3c f9 bc 89 87 65 bb
       0.019502047 0.104392685 -0.030424517 -0.0035023412
0001d0 a5 79 e4 bd cb 78 a8 bd 5e dd b9 bd 95 6d b8 3d
       -0.11156014 -0.082261644 -0.090754256 0.09005276
0001e0 9c 8d 1e bd 38 5f 0f 3c df 86 03 3c dd f3 61 3d
       -0.038709268 0.008750729 0.008027761 0.055164207
0001f0 67 08 0f bc 32 5e bc 3d ff d2 30 bd a8 8c 29 3e
       -0.008730031 0.09197654 -0.04316997 0.16557562
000200 08 8b cc bd e5 8c 94 3d c8 c4 2a 3d 22 8f c6 3d
       -0.099874556 0.07253436 0.04169157 0.09695269
000210 ae 18 da bd d9 99 13 3d 7b 3a df bc 96 92 17 bd
       -0.106492385 0.036035392 -0.027249565 -0.03700503
000220 a0 af 97 3d 17 ba 0b be b0 f6 08 3c c1 76 3c bd
       0.07406545 -0.13645206 0.008359596 -0.04601169
000230 59 a8 93 bd a8 a8 97 3d 0d b9 75 bd 6e 3a 8f 3c
       -0.07209844 0.074052155 -0.05999093 0.017483916
000240 f1 ec 90 bd ad 13 8e 3d d7 3c 89 bc 06 21 07 3d
       -0.07076443 0.069373466 -0.016752644 0.032990478
000250 a4 31 29 3d 55 58 d3 bc 48 0f f4 3d 52 41 04 3e
       0.041307107 -0.025798956 0.11916977 0.12915543
000260 f6 6b ec bb da 63 88 bd 29 f2 bf bc 30 9a a3 3d
       -0.0072150184 -0.0665967 -0.0234309 0.07988393
000270 c3 b1 e1 bd 16 e4 8d 3d cf 4d c6 3c 1a 5f 7a bc
       -0.110202335 0.069282696 0.024207024 -0.015281463
000280 ac 7f b0 bc 23 d8 c2 3d 1f d8 40 bc 59 99 aa bd
       -0.021545254 0.09513881 -0.011770277 -0.0833003
000290 e5 cd 00 be 3d e1 0d bd 63 d1 4e 3d a4 2e e9 bd
       -0.12578543 -0.034638632 0.050492655 -0.11385849
0002a0 b5 36 0f 3e 39 55 ea 3d 22 74 07 3c 50 ea ed bc
       0.13985713 0.11442036 0.008267434 -0.029042393
0002b0 03 dc 40 3c 24 ce f9 bd b4 7c b1 bd 35 eb 15 3d
       0.011771205 -0.12197521 -0.08666363 0.036601264
0002c0 28 d8 a1 bd c1 46 2b 3d 66 41 d7 bd dc 89 58 3d
       -0.07902557 0.041815523 -0.10510521 0.052865848
0002d0 d1 76 cd 3d 56 38 69 bd 4b 58 98 bc 5c 7e aa bd
       0.10032428 -0.05693849 -0.018596789 -0.083248824
0002e0 79 c2 42 3d ac 14 b9 bd b4 f2 02 3d 10 3c 67 bd
       0.047548745 -0.09037146 0.03196974 -0.056453764
0002f0 a3 51 10 bd e8 9c ed 3d 04 a1 08 3d 9e 80 c9 3d
       -0.035234105 0.11602193 0.03335668 0.09838985
000300 24 47 00 be 50 60 d0 bd ec 3f 5d 3d ba 77 c6 bb
       -0.12527138 -0.1017462 0.05401604 -0.006056753
000310 fb 94 d2 3d 9f 7c e4 bb 3c 09 42 3c bc 40 96 3d
       0.10282322 -0.006972864 0.011843022 0.07336566
000320 99 6e 92 3d bf b6 31 bd 9b 05 40 bc be 82 9a bd
       0.07150001 -0.04338717 -0.011720086 -0.07544468
000330 22 4e 09 3e f0 d9 14 3d d2 2c b5 3d 7b ff 96 3c
       0.13408712 0.036340654 0.088464394 0.01843237
000340 29 64 5d 3d 68 a4 ef 3c e0 01 2a 3d e6 ef ef bc
       0.0540506 0.0292532 0.041505694 -0.029289197
000350 8b 59 a9 3d 9c 0b 69 3b 1d ab 92 bd bd 37 94 3c
       0.08269032 0.0035559898 -0.071615435 0.018092984
000360 42 c0 fc 3c a0 f8 90 3d b4 51 c2 bd 2e 7b d2 3d
       0.030853394 0.070786715 -0.0948824 0.10277401
000370 38 c8 82 3d 3f f8 65 3d 76 a8 4c 3d 0a 7c d2 bc
       0.06385845 0.05614495 0.049965344 -0.025693912
000380 9e 05 64 bd 25 86 a7 bc de ad 47 3c 16 71 a0 3d
       -0.05566942 -0.020449707 0.012187449 0.078340694
000390 b7 a2 cd bb b4 b5 08 ba 31 eb 4a 3d 79 fa f4 bd
       -0.0062755006 -0.0005215064 0.049540702 -0.11961836
0003a0 3e d9 e5 3d 67 ab 90 3d fb 55 26 bb 1f 46 0d bd
       0.11223076 0.070639424 -0.0025380838 -0.0344907
0003b0 f0 9b b1 3b c6 8d 02 be 5f f3 a0 bd 91 6b cd 3d
       0.0054202005 -0.12749395 -0.07858919 0.10030282
0003c0 d0 9e 61 bd 27 70 5a 3d 9f 69 a5 bd 3d 42 e0 3c
       -0.055083096 0.053329613 -0.08076786 0.027375335
0003d0 1f 39 41 3c 4c 46 74 bb f4 8c 35 3d 69 10 4c 3d
       0.011793404 -0.0037273346 0.044323877 0.049820337
0003e0 6c 15 24 bd 1f b0 01 bd 91 84 65 bd 72 76 3b bc
       -0.040059492 -0.031662103 -0.05603463 -0.011441814
0003f0 e9 bc b5 bc 4b 57 68 bd 26 97 c3 bd 9a d8 19 bd
       -0.022184806 -0.056723874 -0.09550314 -0.037560083

lstm.bias_hh_l0 f4 [256]
000000 c6 2f 6d bd f2 1e 8e bd 46 a0 a5 3d bb dc 07 3e
       -0.05790689 -0.06939496 0.0808721 0.13267796
000010 ce 9e cd 3d 14 b2 5d 3d cb 05 a8 bd 36 b1 9d 3d
       0.10040055 0.054124907 -0.0820423 0.07699816
000020 58 89 3a 3d 95 9e d2 bd 04 d5 b4 3c 0f 19 9b bc
       0.045541137 -0.10284153 0.02207423 -0.018932847
000030 bc 57 cb 3c 82 16 cc 3d e8 99 b7 bd bb 74 d2 bd
       0.024822108 0.099652305 -0.08964902 -0.10276171
000040 af 55 85 bd a7 38 5a 3d 90 ff df bd 12 c5 de 3d
       -0.065104835 0.053276684 -0.109374166 0.10877432
000050 0b fe aa bc a7 0f db 3d 0f 72 02 3e 29 62 45 3d
       -0.02087309 0.10696345 0.12738822 0.048189316
000060 16 20 43 3d c4 4b 70 3c 85 09 cd 3d 2b a9 b3 bd
       0.04763802 0.014666501 0.10011581 -0.087725006
000070 8a 05 63 bd 35 3b 4b bd c9 23 04 3e 26 d3 c0 3d
       -0.055425204 -0.04961701 0.12904276 0.09415273
000080 fb c7 4e 3d 52 a5 4d 3d 7d 1d e5 bd ec fd 6e 3d
       0.050483685 0.05020649 -0.11187265 0.058347628
000090 a7 5e 95 bd 06 1f 5d 3d c6 e6 b0 bd bb 51 fd bd
       -0.07293444 0.053984664 -0.086377665 -0.123691045
0000a0 65 83 a0 bd 8b 2c 6b bd 25 c4 70 3d 86 2b 10 be
       -0.078375615 -0.057415526 0.058780808 -0.14079103
0000b0 e9 6d ba 3d d2 a8 82 3d 36 ed 2c bd 12 22 97 bd
       0.09102995 0.06379856 -0.04221841 -0.07379545
0000c0 c3 7a f5 bd ed d9 02 3e 63 88 38 3b 92 6e a8 bc
       -0.119863056 0.12778445 0.0028157465 -0.020560537
0000d0 ce 17 cc bd ee 1b 36 bd a4 b7 6a bb 6a 96 6c 3d
       -0.09965478 -0.04446023 -0.0035815025 0.057760634
0000e0 cc 37 ae bd ab a9 0a 3d fc 50 d9 3d ed 1a 61 bd
       -0.08506736 0.033853214 0.1061115 -0.05495732
0000f0 00 76 0e 3d 4d 5b a9 3d 08 9e 46 3d c1 a8 21 bd
       0.034780502 0.08269367 0.048490554 -0.039467577
000100 bd d8 8d 3c c1 60 ef 3d 25 2f 99 bd 17 23 d1 3d
       0.017315263 0.11688376 -0.07479695 0.10211771
000110 50 eb a8 bb ab 20 0a 3d e9 5b e2 bc ff ff ee bd
       -0.0051550046 0.03372256 -0.027631717 -0.11669921
000120 50 8d 94 bc da a8 9e bd 20 bb cf 3d 32 26 cb bd
       -0.01813379 -0.0774705 0.10143113 -0.099193946
000130 6b 79 a0 3d 10 02 c8 bd 57 68 16 3e cd 97 98 3c
       0.07835659 -0.097660184 0.1468824 0.018627072
000140 73 8a 2c bb 40 76 04 3e 24 4c 20 bd 6e 0f d4 bd
       -0.002632764 0.12935734 -0.039135113 -0.103545055
000150 da e6 92 3c 87 21 37 3e 06 48 15 3d a7 07 21 3d
       0.017932344 0.17883883 0.03644564 0.03931394
000160 7b 17 21 3e e1 5e 3d 3d 04 1f 96 3d 8b df 6b 3d
       0.15731613 0.04623306 0.073301345 0.057586234
000170 ed 12 98 bd b8 06 02 bc f3 d3 f2 3b 2b af 23 bd
       -0.07425485 -0.007936172 0.00741052 -0.039961975
000180 d2 67 7f bd 50 1f 34 3d 5d 45 8e bd 23 ad e6 bd
       -0.06235487 0.043975174 -0.06946824 -0.11263492
000190 cf 39 35 bd f2 f5 a4 bd 44 ad 5b bd 14 9c ef bc
       -0.044244584 -0.08054723 -0.053632036 -0.029249229
0001a0 6d a1 9f 3d bf a9 03 3e 84 dd 74 3d 5e 3c 51 bd
       0.077944614 0.12857722 0.059781566 -0.05108296
0001b0 a3 66 a9 3d 9f 5a d3 3d d3 83 18 3d d1 74 88 bc
       0.082715295 0.10320019 0.037235092 -0.016657265
0001c0 43 34 f9 bd 09 a9 ed 3c 1d 41 08 3e af d1 90 3d
       -0.12168171 0.029011266 0.13306089 0.07071244
0001d0 c3 17 5b 3d da ad 8a 3d f7 02 a9 bd c3 72 02 3e
       0.053489458 0.06771441 -0.082525186 0.1273909
0001e0 46 a5 a3 bd 54 54 90 3d d1 ca 2b 3d ad c8 2f bd
       -0.07990508 0.07047334 0.041941468 -0.04291599
0001f0 49 0b 75 3d a6 85 ba bc 14 74 58 3d 16 7c 21 3e
       0.059825215 -0.022768807 0.052845076 0.15769991
000200 bc c7 d6 bd 19 19 59 bb 42 fa 8d 3d 58 ed b4 3d
       -0.10487315 -0.0033126532 0.069324985 0.08834332
000210 c1 34 a3 3d 88 7f 93 bd 8b ff 35 3c 72 cc b3 3d
       0.079690464 -0.07202059 0.0111082895 0.08779229
000220 d9 77 15 3d 4a 42 6f 3d 7a bc e7 3c ec a0 96 3b
       0.03649125 0.058412828 0.028288115 0.00459682
000230 59 46 9a bd ee e7 91 bd e2 cb 86 3c 35 37 85 3d
       -0.07532949 -0.07124315 0.01645464 0.065046705
000240 ce 0b 03 bd c9 06 69 bd f4 63 68 3d 78 ba 26 bd
       -0.03199368 -0.056891236 0.056735948 -0.040705174
000250 14 9c b1 3b 6d 9a 6f 3d 3b e4 ac bc d9 e3 b8 3d
       0.0054202173 0.05849688 -0.021104923 0.090278335
000260 14 dc bc 3d fe c5 4d bc 81 af 9a bd 64 65 58 bd
       0.09221664 -0.012559412 -0.07553006 -0.05283107
000270 eb 01 25 3d 79 e2 b6 bd 63 5c 91 bd fd 00 83 bd
       0.040285032 -0.08929915 -0.070976995 -0.06396673
000280 51 91 f2 3d 93 14 de 3c cc d8 98 bd 96 19 23 3d
       0.11844123 0.02710942 -0.07463226 0.039819323
000290 8f d7 a3 bd 31 7b c4 bd 42 aa c4 bd 34 4d dd bd
       -0.08000099 -0.095938094 -0.096027866 -0.10805741
0002a0 5c 56 9d bd 7a 76 bd 3d 37 ba d8 3d 3f 3a c0 3d
       -0.07682487 0.09251113 0.10582393 0.093861096
0002b0 5d 85 c7 3a fa 6f e4 bc 5a 80 98 3c cd 31 d8 bd
       0.001522224 -0.027885426 0.01861589 -0.10556374
0002c0 93 1d 9d 3d 1f ee a9 3d 08 b6 d2 3d 18 81 e1 3d
       0.076716565 0.08297371 0.10288626 0.11010951
0002d0 f8 7b d8 3d 8c 65 09 3c 21 ce d0 bd 0e 40 a4 bc
       0.1057052 0.008386027 -0.10195566 -0.020050075
0002e0 1d 81 aa bd 98 a4 96 3c c8 c2 61 3d 5d 09 91 3d
       -0.08325408 0.018389031 0.0551174 0.07081864
0002f0 be 70 dc 3d d6 eb e5 bd 28 79 99 bd 21 17 01 be
       0.10763691 -0.11226623 -0.07493812 -0.12606479
000300 e6 ee 8c ba d4 9a f0 bd 30 79 9f 3d 99 62 f6 3c
       -0.001075235 -0.11748281 0.077867866 0.030076312
000310 d5 93 ab 3d 43 71 25 3d 2a 8d 70 bd b8 5b ca bd
       0.08377806 0.040391218 -0.058728375 -0.09880775
000320 f0 67 41 3d 2d 51 b0 3c 90 e9 04 3e 83 5a f0 bd
       0.047218263 0.021523083 0.12979722 -0.11736014
000330 04 f8 5c bd 7b d7 92 3d bc d3 d5 3c 01 6b d8 bd
       -0.053947464 0.07170006 0.02610194 -0.105672844
000340 a0 6d 28 bc 5a f5 39 3b 8e 0a a3 bd 8b 5e e9 bd
       -0.010280043 0.0028375 -0.079609975 -0.11394986
000350 2a 2f 69 3d 2f 6d 2d 3c 8f 4c 63 3d fb 40 08 3e
       0.056929745 0.010585113 0.055492934 0.13306038
000360 50 fa 2f 3b b8 7d 89 3d 53 f6 1d 3d ce c6 93 bd
       0.0026852079 0.06713432 0.03856499 -0.07215653
000370 43 0d 80 bc 2e 51 c3 3c 9c 20 87 3d 10 aa cf bc
       -0.015631324 0.02384242 0.065980166 -0.025349647
000380 59 e5 0a 3b 09 64 ee 3d b8 38 40 3d 90 eb d0 bb
       0.002119383 0.11640174 0.04692909 -0.0063757375
000390 df 72 6a 3d a2 a2 9c 3d 1a 11 99 bd 1b ea 82 bc
       0.057238456 0.07648207 -0.07473965 -0.01598077
0003a0 5c 46 7d bd c4 1d 86 bd 3c 27 28 3c 94 09 f8 bd
       -0.061834678 -0.06548646 0.01026326 -0.12111202
0003b0 43 4a ae bd 77 f2 cd 3d 8f 72 e9 3d db 46 c0 bd
       -0.08510258 0.10056012 0.113988034 -0.093885146
0003c0 30 a5 00 be cc 86 56 bd 3a 7a 4b 3d 71 56 a7 bd
       -0.12563014 -0.052374646 0.04967711 -0.08170784
0003d0 43 a7 6d bb 80 f4 4b 3d 42 38 b9 3c f4 f5 7a bb
       -0.0036263026 0.04979372 0.022609834 -0.0038293572
0003e0 a4 7d 96 bc 49 8d bd 3c 85 fd d0 3a 15 b6 c1 3c
       -0.018370457 0.02313866 0.0015944695 0.023646394
0003f0 80 39 75 3d 7c b0 cc bc 3a 5f 66 3d 2d 62 5c 3d
       0.05986929 -0.024986498 0.05624316 0.053804565

lstm.weight_ih_l1 f4 [256, 64]
000000 b3 27 a5 3d b5 66 a2 3c 6b f4 e8 ba df f1 08 3d
       0.08064213 0.019824365 -0.0017773038 0.03343379
000010 d5 b6 61 3d 10 8d 3a 3d 38 20 a6 3d f6 ae e9 3d
       0.055106003 0.045544684 0.08111614 0.11410324
000020 4e 42 cc 3d be bd 40 3d 91 4a f6 bd b4 22 db 3b
       0.09973584 0.047055952 -0.12025941 0.0066874865
000030 e9 1d f9 bc 88 37 a8 bd be e7 81 bc 8a c9 b6 3d
       -0.03040977 -0.08213717 -0.015857574 0.08925159
000040 f5 92 ec 3d 1e 2f 06 be 2c 04 35 bc 89 7f 84 bd
       0.11551467 -0.13103911 -0.011048358 -0.06469638
000050 d4 64 d2 3c f8 a2 28 bd 05 80 c3 bd 60 74 95 bd
       0.025682844 -0.041171044 -0.09545902 -0.072975874
000060 b8 51 8e 3d 83 59 f0 bb 26 fb a6 bd 41 3e 83 3c
       0.0694918 -0.0073348894 -0.081533715 0.016020896
000070 ce 61 93 bd 74 78 bd bd 14 f6 ae bd c0 5f dd bc
       -0.07196389 -0.0925149 -0.085430294 -0.027023196
000080 7a 16 a3 bc 73 b8 2b 3c 10 cd 51 3d 5a b9 aa 3d
       -0.019908179 0.010480988 0.051220953 0.08336134
000090 ec 1d f9 bd 9b 4c 32 bd 38 96 a9 3d 86 df 1c 3d
       -0.1216391 -0.043530088 0.08280605 0.038299106
0000a0 15 c2 1b 3d c4 22 8b 3d df 2a 05 bb d6 38 8d bd
       0.038026888 0.067937404 -0.0020319743 -0.06895606
0000b0 20 42 85 3d 31 aa 86 3d c4 0a af 3d 69 a1 a1 bd
       0.06506753 0.0657543 0.08546975 -0.07892115
0000c0 0a ed 4a 3d 83 cc 2d bd 9a eb 27 bd d8 ce 41 bc
       0.049542464 -0.042431366 -0.04099617 -0.011829101
0000d0 21 a3 af bd dd c3 be 3c 8f e7 d7 3d 53 b0 ce 3d
       -0.08576036 0.023286754 0.10542213 0.10092225
0000e0 04 d4 d8 bd 65 c7 37 bd a1 f0 f0 3d 01 b5 0b be
       -0.10587314 -0.04486789 0.11764646 -0.13643266
0000f0 58 81 28 bd 85 25 bb bd de 10 80 bd 06 5c 95 bc
       -0.041138977 -0.09138016 -0.06253217 -0.018232357
000100 a3 02 a2 3d e1 71 cb bd ad 2a 9c bd bd 11 02 3d
       0.07910659 -0.0993383 -0.07625327 0.031755198
000110 40 7c a5 bd d5 cc 86 3d 33 2d d8 3d 02 15 8b 3d
       -0.080803394 0.06582037 0.10555496 0.06791116
000120 bf 5b 13 3e d7 f6 c4 bd 21 f6 a3 3d eb 4c 9f bc
       0.14390467 -0.096173935 0.0800593 -0.019445857
000130 d6 69 19 bd de ac a1 bd 9f cf 4b bc a5 d9 c7 3d
       -0.03745445 -0.078943 -0.012439637 0.09758309
000140 44 b8 b6 bc b8 42 ac 3b c2 c5 d3 3d 51 6b 0e be
       -0.022304662 0.005256977 0.10340454 -0.13908125
000150 70 d1 f4 bc c5 c2 05 3d 3d 90 af bd 05 ba 41 3c
       -0.029885024 0.03265645 -0.08572433 0.011824136
000160 13 08 21 3c df ea b0 bd 60 bc 15 3d e0 42 10 3d
       0.009828585 -0.08638548 0.0365566 0.035220027
000170 0d 25 5c bd 56 3b ca bd b6 17 aa 3d 25 0a b5 3d
       -0.053746272 -0.09874599 0.08305304 0.088398255
000180 75 66 f5 bd ff 44 1f 3a c8 b1 0e 3e 60 6a f8 bd
       -0.11982433 0.000607565 0.13935006 -0.121296644
000190 18 ca bb 3d 81 29 f0 bd c6 d4 cd bc bc 1d ba bd
       0.09169406 -0.11726666 -0.025125872 -0.09087703
0001a0 53 b7 a6 3b 7e de 1c bc 6d 68 67 3a b9 11 a5 3d
       0.005087772 -0.009574531 0.00088275113 0.08060021
0001b0 44 00 fb 3d 75 3c ac bd 97 34 0e be 49 b1 a8 bd
       0.1225591 -0.08409969 -0.13887249 -0.082369395
0001c0 f2 40 b3 3c a0 fb bc 3b d1 7d b4 3d 83 06 18 3d
       0.021881554 0.0057673007 0.0881306 0.037115585
0001d0 55 e6 be 3c 72 e1 82 3d 00 48 f8 bd ba 35 fe 3d
       0.02330319 0.063906565 -0.12123108 0.12412591
0001e0 c0 26 fc ba f1 6e aa 3d 1e d3 c0 3d fc 6e de 3d
       -0.0019237623 0.08321942 0.094152674 0.10861012
0001f0 d1 dc d3 3d 80 a6 f7 3c 46 1e 37 bd 76 87 ad bd
       0.10344852 0.03023076 -0.044706605 -0.08473103
000200 37 42 96 bd 60 99 5e 3c 2b eb 52 3d 05 42 05 3c
       -0.07336848 0.013586372 0.051493805 0.008133416
000210 c5 02 f0 bb be cc 02 bc 59 1c db bd 43 e8 da bc
       -0.007324549 -0.007983385 -0.10698766 -0.02672208
000220 97 69 c7 bd 0e 07 05 bd df 97 49 3d ff 41 9b 3d
       -0.097369365 -0.03247743 0.0492171 0.07580947
000230 5c 5d 5b 3d 0a 4b 0f bd 36 fa 77 3b 1b 48 c5 bb
       0.05355583 -0.034983672 0.0037838346 -0.0060205585
000240 5a a3 10 3c 70 6a 83 3d 05 9d a8 bd 1d c0 0f 3d
       0.008828009 0.06416786 -0.08233074 0.035095323
000250 ea a3 e8 3c a4 16 c4 bc 7d fb 6b 3c b7 00 96 3d
       0.028398473 -0.023936577 0.014403221 0.07324355
000260 b9 4a a3 bd 5b 67 9f 3d 44 7e b0 3d d0 84 d6 3d
       -0.079732366 0.07783385 0.08617833 0.10474551
000270 c0 29 c8 bd 6c d4 58 3d 54 17 93 3d 79 8d 57 bd
       -0.09773588 0.052936956 0.07182184 -0.052625153
000280 13 1d 9e bd 52 de dc 3d e2 de 0c bb e2 26 d1 3b
       -0.07720389 0.10784592 -0.0021495153 0.006382809
000290 e6 c1 4a 3b 19 b0 0f bd f8 fd 10 3d 1e 42 07 be
       0.0030938326 -0.03508005 0.035398453 -0.13208815
0002a0 41 57 99 bc 86 4a 91 bb e3 d2 95 bd 31 0a 44 bd
       -0.018718364 -0.0044339327 -0.07315614 -0.04786128
0002b0 b4 01 bf 3d 55 00 01 be f9 1f 43 bd 98 e1 a7 bd
       0.09326497 -0.12597783 -0.047637913 -0.081973255
0002c0 58 8f c9 3d 1a 3f 9b bd 40 1f 37 3d 05 61 55 ba
       0.09841794 -0.07580395 0.044707537 -0.0008139762
0002d0 e5 7e 03 be 02 3b 0f bc 17 0e dc bd ba b4 51 bc
       -0.12841375 -0.008742096 -0.10744875 -0.012799436
0002e0 d5 7c 2b bd 75 a8 d0 bd bb 7a af bb 37 b3 cb bc
       -0.041867096 -0.10188381 -0.005355207 -0.02486573
0002f0 a3 81 f1 3c 84 24 53 3d 3f bd b6 bc 58 30 27 bd
       0.02948076 0.051548496 -0.022307036 -0.04081759
000300 80 3d d0 3c 24 59 d6 3b 6e a2 2e 3b ef 3d 0c 3d
       0.02541995 0.006541388 0.0026647109 0.034238752
000310 79 70 ed 3c 9f 8f 50 39 20 4a a6 bd 27 73 bf bd
       0.028984295 0.00019889929 -0.08119607 -0.093481354
000320 a9 f9 de 3d 11 55 f7 ba 45 8c a9 3d 03 b2 92 bc
       0.10887463 -0.0018869956 0.082787074 -0.017907148
000330 62 52 92 3d ff 6a ca bd 6f 41 5a 3b a3 d3 68 bd
       0.071446195 -0.09883689 0.0033303162 -0.056842458
000340 63 52 b8 bd 30 e5 b1 3d fa 56 98 bd 9f e3 e9 3b
       -0.09000089 0.08686292 -0.074384645 0.0071377303
000350 6a 20 b0 3d fe 70 ff bd 4e 1c a0 bd 19 9b 6c bc
       0.085999325 -0.124727234 -0.07817899 -0.014441275
000360 d0 d6 a1 3d 2c 02 6d 3d ab 3f 3a 3d 20 73 9c bd
       0.079023 0.0578634 0.045470875 -0.07639146
000370 62 79 1e 3d 00 bf 76 3d 00 e9 b8 bd 46 b1 da 3c
       0.03868998 0.060240746 -0.09028816 0.026695859
000380 96 b2 84 3d 3c 15 d7 3d 46 e2 34 3d eb bb eb 3b
       0.06479375 0.10502097 0.044161104 0.0071940324
000390 6d 1d 35 bd 2d 76 99 3d 19 42 d6 bc 66 8a eb bd
       -0.044217516 0.07493243 -0.026154565 -0.11501007
0003a0 cd 34 81 3c 8d 0c 38 bd a9 ec 78 bc 1b d7 32 3d
       0.015772248 -0.044933844 -0.015193143 0.04366217
0003b0 da f9 af 3d ca b8 6d 3b 66 81 ed 3d c2 79 f3 3d
       0.08592577 0.0036273473 0.115969464 0.11888458
0003c0 f4 b2 39 bd 3c 30 bf bd 84 08 78 bd 54 a0 56 bd
       -0.04533668 -0.09335372 -0.060554996 -0.052398995
0003d0 7f d3 91 ba 99 4c b9 bb 88 63 e1 bd ae d1 d9 3d
       -0.0011125653 -0.005654883 -0.11005312 0.10635696
0003e0 c7 59 36 3d f0 65 60 3d 02 bc 83 3d 74 05 23 bc
       0.044519212 0.054784715 0.06432344 -0.009950031
0003f0 ac 2a ec 3d ac e1 85 ba fd f7 8e bd c3 7e aa 3d
       0.115315765 -0.001021435 -0.06980894 0.08324959

lstm.weight_hh_l1 f4 [256, 64]
000000 59 c2 87 bd 0b 9b d5 bc 7b 98 15 bb 74 83 ce bd
       -0.06628866 -0.026074907 -0.002282648 -0.100836664
000010 f0 6d 2b 3d eb 1a d6 3d 41 39 d4 bc f9 ab 93 3d
       0.04185289 0.10454353 -0.025906207 0.072105356
000020 e0 84 d1 3d 6d 74 81 bd f1 7d 63 3c ea 8f d0 bd
       0.10230422 -0.063210346 0.013885007 -0.101836994
000030 1c 67 e6 bc ff 22 95 bd 92 dc b3 bc 2d 22 4b bd
       -0.028125338 -0.072820656 -0.021955762 -0.04959314
000040 fa c6 7f bd 3d 23 59 bc d0 39 37 bd f7 d8 24 3d
       -0.06244562 -0.01325303 -0.04473287 0.040245976
000050 3d 91 fc bc ab 44 45 bd 05 aa c2 bd e0 39 25 3c
       -0.030830974 -0.04816119 -0.09505085 0.010084599
000060 c2 f8 01 be 37 1f 0d 3d b6 56 1a 3d e0 0a 74 3d
       -0.1269255 0.034453597 0.03768035 0.059580684
000070 ec 90 5d 3d fa 47 b3 bd 37 d6 d2 bc eb 84 b7 3d
       0.054093286 -0.08753963 -0.025736911 0.08960899
000080 4e 86 a6 3d 30 cd 9e 3d 87 1f ff bd 97 34 62 bd
       0.08131085 0.0775398 -0.12457185 -0.055225935
000090 ff 51 23 bc 6c 14 cc bd 61 1d 0e 3e 12 64 ee 3d
       -0.00996828 -0.09964833 0.13878395 0.11640181
0000a0 27 89 49 bd ca 1f 14 3d a0 39 1b be 35 6b 10 3c
       -0.049203064 0.03616313 -0.15158701 0.008814623
0000b0 fe 6e 3b bd 58 c2 42 3d 14 c5 00 bd 7a 74 47 3d
       -0.045760147 0.047548622 -0.03143795 0.048695065
0000c0 52 51 34 bd e3 40 ba bd d4 53 a2 3d d9 2d 7b 3d
       -0.044022866 -0.090944074 0.07926145 0.06132302
0000d0 d0 d7 ac 3d 7c 16 dd bd f3 c9 ee 3b 5c 78 d2 bb
       0.084396005 -0.10795304 0.007287258 -0.0064230394
0000e0 49 f7 29 3d 6e 4c 53 3a ef 1d b5 3d 21 db 9d 3d
       0.041495595 0.00080604 0.088436 0.07707811
0000f0 33 c1 0b bd b4 3f e2 bc 4f 0a ef bd 3e c2 a7 bd
       -0.034119796 -0.027618267 -0.11671888 -0.08191346
000100 1a a3 2d bc 87 0b 0d be c7 f0 8c bc f7 66 5a 3b
       -0.0105979685 -0.13773929 -0.017204655 0.0033325532
000110 e1 bd 10 3e 0c 0a b7 3d e3 74 a8 bd a5 0a c5 bd
       0.14134933 0.08937463 -0.08225419 -0.09621171
000120 e1 0f 3f bd 72 09 77 bd 71 a8 ba bb bd 57 9e bd
       -0.046646003 -0.060311742 -0.0056963493 -0.077315785
000130 a9 7f 3d bd 14 e1 ce bd e1 f4 0f 3e 77 a0 5c 3c
       -0.046264324 -0.10101524 0.14058258 0.013465992
000140 24 7b ae bd 75 77 b8 ba f4 26 8c bd 7c 4e 83 bd
       -0.08519581 -0.0014073687 -0.06843367 -0.06411454
000150 21 46 28 be 31 c7 0c be b6 a5 87 bc 72 19 8d bd
       -0.16433002 -0.1374786 -0.01655851 -0.06889619
000160 1b 17 f1 3d 24 f7 40 3d 4d db f2 3d 0c 06 22 3e
       0.11771985 0.04711069 0.118582346 0.15822619
000170 ed 33 b5 3d 95 77 6c 3c 1d f7 b8 bb 25 f1 c7 bd
       0.08847795 0.014432807 -0.0056446926 -0.097627915
000180 71 e2 21 3e 66 a4 6e 3c 3e 44 de 3c 80 0d 30 ba
       0.15809037 0.014565563 0.02713215 -0.0006715879
000190 d0 e4 63 bd 47 f4 67 3d 83 13 ff bd 27 24 92 bd
       -0.055638134 0.056629445 -0.124548934 -0.07135802
0001a0 8e a4 ad bc d8 b7 eb bc e3 40 8c 3d f5 07 84 bd
       -0.02119663 -0.028774187 0.06848314 -0.0644683
0001b0 8a a3 31 bd 65 59 73 3d 3a e1 19 3d 2b 05 05 bd
       -0.043368854 0.059411425 0.03756831 -0.03247563
0001c0 c4 9a ea 3c 13 80 23 3e 41 be d6 3c ba d4 a0 bd
       0.028638251 0.15966825 0.026213767 -0.07853074
0001d0 49 93 d7 3c 85 e9 d5 bd de c3 2b 3e 70 2f 1d 3d
       0.026315348 -0.10444931 0.16773936 0.038375318
0001e0 87 55 87 3d c5 05 92 bd 5a ba 02 bd b7 40 f3 bd
       0.0660811 -0.07130007 -0.031916 -0.11877578
0001f0 29 32 d8 bd 38 34 a4 3d 89 2a 75 bd 03 1b fb bd
       -0.10556442 0.080177724 -0.059855018 -0.122610115
000200 ea c2 c0 3d 36 08 ba 3c 8a e7 c3 3d 35 43 bb bc
       0.09412177 0.022708993 0.09565647 -0.022859195
000210 d7 24 28 bd 7d 64 f8 3d 7b f3 3d bd 47 24 46 bd
       -0.04105076 0.121285416 -0.04637478 -0.04837444
000220 71 2b c1 3d f8 54 1e bc 55 67 4e bb df 52 ee 3c
       0.09432114 -0.009663813 -0.0031494696 0.02909225
000230 02 77 e1 3d 74 1c a6 bd 98 93 99 bd bc 7b 13 bd
       0.11009027 -0.08110896 -0.074988544 -0.036006674
000240 d8 6a e6 bb 05 ac ed 3d 87 4a 4e bd 12 c8 9e bd
       -0.0070317797 0.11605076 -0.050364044 -0.07753004
000250 e7 0a a4 3d 57 44 9a bd 00 78 98 bd b2 7f 11 3c
       0.08009892 -0.07532566 -0.07444763 0.008880543
000260 8c 5e 46 3d 9f 74 c6 bc 7e a5 dd 3d 95 22 74 3c
       0.04843001 -0.024225531 0.10822581 0.014900823
000270 d1 4e fb bd 7e 5f df bd bb d6 50 3c f0 91 f6 bd
       -0.122708924 -0.109068856 0.012746508 -0.12039554
000280 df 38 ef 3d ef 54 58 3d 22 5d 13 3d cd 5d f0 bd
       0.11680769 0.052815374 0.03597749 -0.11736641
000290 d7 7d a8 3c 56 4a f5 bd 84 dc df 3d 7f 75 f9 bd
       0.020567818 -0.11977069 0.10930732 -0.12180614
0002a0 de 87 2b bd da d7 cc bd 2d e1 b5 3c aa 32 f2 3c
       -0.04187762 -0.10002108 0.022202099 0.029565174
0002b0 88 10 b9 3c be 53 00 3a be 65 31 bd 47 92 07 3c
       0.02259089 0.0004895291 -0.04330992 0.008274621
0002c0 48 c6 a4 bd 8d e0 ce 3d d5 12 ea 3d f8 fb a7 bd
       -0.08045632 0.101014234 0.11429373 -0.08202356
0002d0 ce 34 d0 bd 11 b7 80 bd 23 8c 96 3d 7d cb f8 3b
       -0.10166322 -0.06284917 0.07350948 0.007592617
0002e0 3a 0f 36 bc 49 82 97 bc 79 2a 7e 3d 28 46 da 3d
       -0.011112029 -0.018494742 0.062052224 0.106579125
0002f0 88 43 cd 3c 2f 42 65 3d e4 0d b5 bb 4a 15 b4 bd
       0.025056615 0.05597132 -0.0055253375 -0.08793123
000300 45 13 f2 bc 0a 2b fd 3d 9c 82 3a 3d 55 aa b3 bd
       -0.029550204 0.12361725 0.045534715 -0.08772723
000310 23 0f b3 bd 76 11 af 3c e9 c5 fb bb 82 0c 40 3d
       -0.087431215 0.02137063 -0.007683505 0.04688693
000320 de 4f d8 3d 2b 0a 95 3d 85 5d 87 bd 94 cd c0 3d
       0.105621085 0.0727733 -0.06609634 0.09414211
000330 1c a0 ca 3d 6d 1e 1a be 50 7c a5 bd e8 a5 f1 3d
       0.0989382 -0.15050669 -0.08080351 0.11799222
000340 4e 5f 02 3e 1f 06 13 3e 34 19 9a 3d d5 00 9d 3d
       0.12731668 0.14357804 0.07524338 0.07666174
000350 64 b1 9a 3d fc ca b5 3d 79 00 c7 bc d0 7b 89 3d
       0.07553366 0.08876607 -0.024292218 0.067130685
000360 e4 0b 52 3d f6 bd e7 bd 5a 07 0d 3e df d7 53 bd
       0.05128087 -0.11315529 0.13772336 -0.051719543
000370 d2 53 90 bd 7a 74 b0 bd d3 ea e9 3d 4b 85 6a bd
       -0.070472375 -0.08615966 0.11421742 -0.057256024
000380 02 c8 9b bd 20 6c c2 bd 52 6c 96 3b 72 7f 50 3d
       -0.07606508 -0.094932795 0.0045905495 0.05090279
000390 fa 58 88 3d d3 0e 50 bd 0b 59 d8 bd 88 be df bd
       0.06657596 -0.050795387 -0.105638586 -0.10925013
0003a0 04 4c 0e be eb a9 ba bd 09 99 29 3d 87 33 0f 3d
       -0.13896185 -0.091144405 0.04140571 0.03496125
0003b0 12 98 ea bc 70 40 8e bc 5b 49 fa 3c e8 d8 cf 3d
       -0.028636966 -0.01736471 0.030552557 0.101487935
0003c0 0d 13 1d 3d f4 da 65 3d 07 bd 8e 3d d6 b0 82 3d
       0.038348246 0.056117013 0.06969648 0.06381385
0003d0 93 10 50 bd 07 71 63 bd 65 a2 03 3e be 08 fc bd
       -0.050797056 -0.055527713 0.12854917 -0.12306355
0003e0 b4 e0 c0 bc 11 bd 18 be 8d 29 90 bc a3 bd 2f bd
       -0.023544647 -0.14915873 -0.017597938 -0.04290546
0003f0 44 aa 89 bd 95 e3 e1 bd 1d 1c 9a 3d 63 cc c9 bc
       -0.06721929 -0.11029736 0.075248934 -0.024633592

lstm.bias_ih_l1 f4 [256]
000000 27 04 e1 3d cd 59 18 3e ca c3 03 3e fe 59 9f bd
       0.1098712 0.14878006 0.12867656 -0.077808365
000010 a2 36 46 3c a2 dc d9 bd 43 8c f3 3d 0a c0 fe bc
       0.012097986 -0.106377855 0.11891987 -0.03109743
000020 67 57 ea 3d e5 25 f6 3c 81 2c a1 bc db 6b 70 bd
       0.11442452 0.030047366 -0.019674541 -0.05869661
000030 19 08 8a 3d 96 29 bd 3d ea 04 b0 bc 63 11 b8 3d
       0.06739826 0.092364475 -0.021486718 0.08987691
000040 4c 61 d0 3d 3d 9f a3 bb a5 39 de bc 69 51 c5 3c
       0.10174808 -0.004993348 -0.027127096 0.024086671
000050 cb 6a 0a 3e ec b8 10 bd 03 87 92 bd 37 2b ae 3d
       0.13517301 -0.035332605 -0.07154658 0.08504336
000060 d3 e2 db bc cc 98 6a 3d 91 cc 4e 3d f2 ae 3d 3c
       -0.026841557 0.057274625 0.05048806 0.011577355
000070 3e 12 69 3d 7c 20 94 bd ac 46 cb bd b5 ff 54 bd
       0.056902163 -0.072327584 -0.09925589 -0.052001674
000080 e8 94 8d 3d 15 d2 ce 3d a6 72 8c 3d 2c dc ec bd
       0.06913167 0.10098664 0.06857805 -0.11565432
000090 95 de 8b bc 00 0e d2 bd 4a f0 5e 3d 6a 5d 0c 3d
       -0.017073909 -0.102565765 0.054428376 0.034268774
0000a0 09 8f cc 3d 77 c7 05 3d fe 5c d1 3d b2 51 b4 bd
       0.09988219 0.032660928 0.10222815 -0.08804645
0000b0 54 6b 31 3d 98 48 a8 3d 4f a1 d5 bd c8 20 cf 3d
       0.043315247 0.08216971 -0.10431158 0.101136744
0000c0 29 d0 df bb 67 ab ce 3c 12 a7 9a 3c d7 ea 06 3d
       -0.0068302345 0.025228215 0.018878493 0.032938804
0000d0 bd 09 f7 bc b2 0d b9 3b 69 d7 39 3d 33 c9 80 bd
       -0.03015601 0.0056473846 0.045371447 -0.06288376
0000e0 9c cf 63 bd 18 fe 87 bd be ff 3d bd 84 1e c1 bc
       -0.055617914 -0.066402614 -0.046386473 -0.023574121
0000f0 cb a4 9b bd 0c f7 e0 bd 99 4f a9 3d 67 4d 9f 3d
       -0.07599791 -0.109846205 0.08267135 0.07778435
000100 58 49 6c bc 60 f0 b3 bc 0a 64 df bc a1 a9 ab 3d
       -0.014421783 -0.021965206 -0.027269382 0.083819635
000110 38 0c e8 3c 4f c2 66 3c 5c 20 ba 3d b7 9b fa 3d
       0.028326139 0.014084413 0.09088203 0.122367315
000120 0f cb fb bc 81 90 ce bc cc e3 dc bb 2f 5f 84 3d
       -0.030736474 -0.02521539 -0.0067410227 0.06463467
000130 e2 fe dd bc 8c 0b a7 3d 43 6b e0 3d 92 54 0e 3e
       -0.027099077 0.08156499 0.109579585 0.13899449
000140 c9 28 95 bb 25 3f a7 3d 39 7c 26 bb 51 d0 a2 bd
       -0.004551981 0.08166341 -0.0025403632 -0.079498895
000150 bd c7 a8 bc 63 4c 89 bd 79 79 11 3d d0 ef 9c bd
       -0.020603055 -0.06704023 0.035516236 -0.07662928
000160 7b b9 e5 3d b1 7e 8a bd 19 f3 ea 3d d8 0b 32 3e
       0.11217018 -0.06762446 0.114721484 0.1738733
000170 36 79 eb bc 06 65 cb 3d 19 ce d2 3c a5 f2 09 bd
       -0.028744321 0.09931378 0.02573304 -0.03367867
000180 80 f9 ba 3d 61 43 5c bd ae 7f ec 3d fc b3 2e 3d
       0.091296196 -0.053775195 0.115477905 0.042652115
000190 1e bf 86 3d 24 49 9b bd 15 e1 9a bd c1 99 c6 bd
       0.065794215 -0.0758231 -0.07562462 -0.09697295
0001a0 df 7c 4f 3d 4c 9b 08 3e df 97 6b 3d 5f 2f 81 3b
       0.050656196 0.13340491 0.057517882 0.0039424147
0001b0 c6 13 85 3b 3e b9 ba bb af a5 49 3d e6 6a b6 bd
       0.004061195 -0.005698352 0.049230274 -0.08907108
0001c0 c4 5b 24 3d 67 db 89 bd 34 1f 57 3c 03 f7 da 3c
       0.040126577 -0.06731301 0.013129998 0.026729112
0001d0 00 9a 9e bd 09 78 18 3e 55 a7 08 3c bd b5 be 3c
       -0.07744217 0.1488954 0.008340676 0.023280019
0001e0 80 28 1d 3e 08 65 0a 3e 2d b1 28 3d 5a 67 85 3d
       0.15347481 0.13515103 0.041184593 0.06513853
0001f0 53 b1 4e bd 4c 2c cd 3d be e3 86 bd 04 b1 6c bd
       -0.05046208 0.100182146 -0.06586407 -0.057786003
000200 7a 0d a0 3c 09 92 59 3d 96 a4 b2 3c bc ff 8b bd
       0.019537676 0.053117786 0.021806996 -0.06835887
000210 7a 33 8b 3c a4 29 be 3d 98 23 50 3d 8e ce 25 3d
       0.01699232 0.09285286 0.050815195 0.04048019
000220 db ea 80 bd 40 9b fd bb 04 40 80 3d b5 97 8a 3d
       -0.06294795 -0.0077394545 0.0626221 0.06767217
000230 a2 3c 75 bd 3d a1 78 bd 44 3d af 3d 8a 12 5e bd
       -0.059872277 -0.060700644 0.08556607 -0.0542169
000240 9a eb a3 3c 4e da 32 bd bc c6 be ba 4e e6 54 3c
       0.020009805 -0.043665223 -0.0014555077 0.012994362
000250 c2 0b e7 bd f9 7d a8 bc 21 2b 95 3c a9 bf 40 3d
       -0.112815395 -0.020567881 0.018209042 0.04705778
000260 6e 27 28 bd a2 62 03 bd 3c cb de 3d d7 cc c0 bd
       -0.041053228 -0.032076485 0.10878608 -0.0941407
000270 01 42 f7 bd 7a cf d7 bb cd b7 06 3b 7d 94 08 bd
       -0.12073136 -0.0065860124 0.002055633 -0.033344734
000280 0a 7a 0b 3d ae 20 07 be a5 c2 62 bd 28 2d 8a 3d
       0.034051932 -0.1319606 -0.05536141 0.06746894
000290 38 e5 61 3a bd 58 cf bd 9f e7 08 bd b9 7f 20 bd
       0.0008617225 -0.10124347 -0.033424016 -0.039184306
0002a0 d5 7b 44 3d 02 50 e4 3d 70 4c 2a 3d a1 c6 59 3c
       0.047969658 0.11148073 0.041576803 0.013291986
0002b0 b8 e3 79 3c 25 56 7e bd e7 80 b7 3c 20 a1 79 bd
       0.015252046 -0.062093873 0.022400333 -0.060944676
0002c0 54 90 c2 3d 68 64 e7 3b d2 07 98 bd e4 08 80 bc
       0.09500185 0.00706153 -0.074233666 -0.01562924
0002d0 95 40 9b bd 04 64 ef 3d 31 f6 5c 3d fa 6b c4 bd
       -0.075806774 0.11688998 0.053945724 -0.095909074
0002e0 04 60 89 3d 80 0f 14 3b 4c 22 f1 bd e6 d6 12 be
       0.06707767 0.0022592247 -0.1177412 -0.1433979
0002f0 bc 77 5e bd 34 da 17 bc 07 2b 12 bd 04 f5 b9 3d
       -0.054313406 -0.009268332 -0.035685565 0.09079936
000300 22 f5 f0 bc 3a 3e 77 3d dc 40 3e b9 67 24 96 bd
       -0.029413763 0.06036208 -0.00018143974 -0.07331162
000310 46 f8 91 3d 4a 4f ee 3d 37 f8 f8 3d 83 a3 5d bd
       0.071274325 0.11636217 0.12156718 -0.054111015
000320 bd 66 88 bd c9 d3 df 3d eb b1 95 3b d8 47 8b 3d
       -0.06660221 0.10929067 0.0045683286 0.068008125
000330 64 13 1a bd ab e3 c7 3d 36 82 e0 3d 33 2e 26 3c
       -0.03761615 0.09760221 0.10962336 0.010142851
000340 c1 21 07 bd c3 4f 77 bd 22 94 e8 bd 30 6b f7 3d
       -0.032991175 -0.0603788 -0.11356379 0.12080991
000350 38 9f 89 3d ed 94 fe 3b 91 11 0c 3c 46 61 44 3d
       0.06719822 0.007769218 0.00854911 0.04794433
000360 bf 8d df bd d1 ed 22 3d 4a be 1f bd 0a 8a c3 3d
       -0.10915708 0.03977758 -0.038999833 0.09547813
000370 e4 7f 38 bc e1 64 ee 3c e6 b6 d0 3d 64 d6 ca bb
       -0.01126096 0.029100837 0.10191135 -0.006190108
000380 16 69 45 3d fc 97 3b bc d9 5a f1 3d f4 f5 05 bd
       0.04819592 -0.01144981 0.11784906 -0.032705262
000390 1e 05 31 bd db 6c fe 3d 82 c5 ae bd c8 45 83 bd
       -0.04321777 0.12423106 -0.085337654 -0.06409794
0003a0 7f d5 b1 3d 0f 23 c3 3d ea 1d ba 3d 93 e5 90 3d
       0.08683299 0.09528171 0.09087737 0.07075038
0003b0 53 c2 18 3d d6 89 c3 3b 0f 94 ce bc 71 67 97 bc
       0.037294697 0.005967359 -0.025217084 -0.018481942
0003c0 28 1a c2 bd 29 e1 19 bd 59 fc 08 bc 11 84 ce 3c
       -0.09477645 -0.037568245 -0.008360946 0.025209459
0003d0 7b 3f 75 bd d2 24 00 3e b3 8c fe bb 9f 72 49 bb
       -0.059874993 0.12514046 -0.0077682375 -0.0030738486
0003e0 14 0e 45 bb e1 60 84 bd 73 1d 33 bd 08 46 eb 3d
       -0.0030068206 -0.06463791 -0.043729257 0.11487967
0003f0 80 70 2f bc e3 d8 f0 bd 75 c7 92 bd 1c 06 02 3d
       -0.010707974 -0.11760118 -0.0716695 0.031744108
