output/LSTM2CNN/LSTM2CNN_adam_64_1000/model/LSTM2CNN_epoch_933.pth (torch, 353538 bytes, 16 tensors)

lstm.weight_ih_l0 f4 [256, 11]
-0.054840174 0.06841897 -0.0037475799 -0.030950855 0.10535752 -0.09698507 0.07325432 0.0049199113
0.05999144 -0.013753854 -0.003164224 -0.10214334 -0.03305533 0.030035103 0.046122868 -0.10947528
-0.06869705 0.10166299 -0.06882628 -0.014039344 -0.080484964 -0.017608792 0.1227817 0.08064026
-0.113435015 0.0065335785 0.07312902 0.045392368 0.1299675 0.034434903 -0.013394012 -0.100390255
0.11655135 -0.08767421 0.07613801 0.070628196 0.03275813 0.0682435 0.08385641 0.091906175
0.12532134 -0.04189248 0.121047124 0.030390866 0.04950465 0.065421216 -0.04475915 0.11713993
-0.012770167 0.08697219 0.035254326 -0.03492916 0.050193068 -0.031601716 0.053460564 0.13009092
-0.057003014 0.1158333 -0.010652401 0.13838232 -0.083202235 0.05542817 0.040124368 0.08370311
0.061770078 0.106144145 -0.069501534 -0.06456403 0.1116857 -0.13995549 0.0095657585 -0.08131076
0.08430256 -0.051338475 0.061877623 0.07907241 0.046802916 0.07201628 -0.047750417 -0.1045608
-0.09152191 0.059893884 -0.0638974 0.12235977 0.07956287 0.054049578 -0.12584563 -0.08065783
-0.10425257 0.06327634 -0.11188381 -0.061030153 0.047544003 -0.008197048 -0.015232315 -0.009501507
-0.010659795 -0.13061413 0.039438773 -0.0987445 -0.036593195 0.044384096 0.097545676 -0.10027664
0.07993207 -0.104464136 0.008015573 -0.031866632 0.0067700413 -0.08695841 -0.13499 0.09909906
-0.09583054 -0.039868888 0.024448724 -0.13993591 -0.1014165 0.096854195 0.017003043 0.0801988
-0.097098485 -0.074929565 0.036390353 0.068346836 0.049280576 0.013358983 -0.0012651683 0.0112593435
-0.10043581 -0.01541694 0.012853314 -0.115710594 -0.06536659 0.097014315 0.12179982 0.052298184
0.16488416 0.07934149 0.070947126 0.0103452755 0.12333048 -0.041203316 -0.051264685 0.0984053
-0.08620833 -0.102811255 0.12688857 0.09835127 -0.06766929 -0.08649758 0.028605493 0.06599236
0.065613605 -0.019503001 -0.122690424 -0.03251985 -0.09478464 0.051096443 -0.035622176 0.10516841
-0.07160278 0.10048617 0.032295972 0.08183172 -0.074852504 -0.069010556 -0.09688099 0.14455865
0.105133004 -0.03566051 0.03958034 -0.1000658 -0.057873398 -0.022827007 0.09279308 -0.036425028
0.049265258 0.025893906 -0.089736514 -0.096550524 0.06228555 -0.049490284 0.04662871 -0.014069526
0.05739692 0.02405079 -0.048703395 -0.08792308 0.09566438 -0.077861845 0.00650138 0.09615618
-0.06403258 -0.03170433 -0.04186904 0.002704176 -0.09469302 -0.1078457 -0.045712817 0.018930517
-0.08131606 0.020796346 -0.10260617 0.091050334 0.0026341965 -0.089915544 0.011043999 -0.046159238
0.03868536 -0.052810326 0.07241998 0.07337468 -0.0075200936 0.0537016 -0.049250923 0.02223234
-0.059255455 -0.077462025 -0.08401238 -0.03021031 0.060935 0.025653696 0.014029876 -0.13173015
-0.020544766 0.01424941 0.0985727 0.026904002 0.07027844 -0.081043325 -0.02392982 0.07045922
-0.05227267 -0.1474772 0.0399134 -0.06771353 0.00032697397 0.13543569 -0.15451983 -0.16588178
-0.0202096 -0.08139716 -0.05903347 -0.12439538 0.017221011 0.10826176 -0.015559023 -0.001849498
0.034602247 0.053372893 -0.036916196 0.084304124 -0.031464096 -0.11801185 0.07346789 0.05007359
00000000: 17a0 60bd 3f1f 8c3d f599 75bb a68c fdbc
00000010: afc5 d73d 1ca0 c6bd 5c06 963d 3537 a13b
00000020: 96b9 753d d857 61bc df5e 4fbb 8730 d1bd
00000030: 0765 07bd 2d0c f63c 55eb 3c3d 9334 e0bd
00000040: 0ab1 8cbd b034 d03d cbf4 8cbd 4705 66bc
00000050: 4dd5 a4bd 5040 90bc f974 fb3d b826 a53d
00000060: 9e50 e8bd a117 d63b abc4 953d 59ed 393d
00000070: 3316 053e 9d0b 0d3d 8f72 5bbc 6899 cdbd
00000080: 79b2 ee3d 898e b3bd 3fee 9b3d 84a5 903d
00000090: 642d 063d 40c3 8b3d e9bc ab3d 4e39 bc3d
000000a0: 3d54 003e 7397 2bbd 8ee7 f73d 44f6 f83c
000000b0: 63c5 4a3d 8ffb 853d 5f55 37bd 0fe7 ef3d
000000c0: f639 51bc 7a1e b23d d766 103d e111 0fbd
000000d0: 3f97 4d3d cd70 01bd 77f9 5a3d 8e36 053e
000000e0: fe7b 69bd 023a ed3d 6887 2ebc 18b4 0d3e
000000f0: ef65 aabd a608 633d 7359 243d 896c ab3d
00000100: 9f02 7d3d 1a62 d93d d256 8ebd 253a 84bd
00000110: 79bb e43d 7e50 0fbe b3b9 1c3c 4186 a6bd
00000120: d2a6 ac3d 4b48 52bd 6473 7d3d b7f0 a13d
00000130: 6ab4 3f3d 457d 933d f195 43bd f923 d6bd
00000140: d76f bbbd 4a53 753d a4dc 82bd c297 fa3d
00000150: dcf1 a23d 1763 5d3d addd 00be ef2f a5bd
00000160: 5f82 d5bd 0797 813d 5723 e5bd c1fa 79bd
00000170: 80bd 423d e94c 06bc f690 79bc 35ac 1bbc
00000180: 6ca6 2ebc b6bf 05be 8d8a 213d 8e3a cabd
00000190: bfe2 15bd 19cc 353d 07c6 c73d d75d cdbd
000001a0: 6db3 a33d 4bf1 d5bd c053 033c 9686 02bd
000001b0: 39d7 dd3b 4017 b2bd d23a 0abe 73f4 ca3d
000001c0: cd42 c4bd 8f4d 23bd b148 c83c 5c4b 0fbe
000001d0: 74b3 cfbd 7e5b c63d f749 8b3c 453f a43d
000001e0: 92db c6bd ac74 99bd 0d0e 153d 6df9 8b3d
000001f0: 6eda 493d a3df 5a3c 01d4 a5ba 1c79 383c
00000200: 4ab1 cdbd 5597 7cbc b596 523c adf9 ecbd
00000210: ebde 85bd 71af c63d 2f72 f93d 9f36 563d
00000220: 65d7 283e cb7d a23d ba4c 913d 3b7f 293c
00000230: b194 fc3d cfc4 28bd ebfa 51bd b888 c93d
00000240: fe8d b0bd b58e d2bd 14ef 013e 646c c93d
00000250: 3296 8abd a525 b1bd 1156 ea3c 0127 873d
00000260: 6d60 863d c2c4 9fbc 1e45 fbbd 8933 05bd
00000270: 731e c2bd 814a 513d 8fe8 11bd 8962 d73d
00000280: 7aa4 92bd b1cb cd3d c848 043d 6497 a73d
00000290: 454c 99bd 6855 8dbd 8a69 c6bd 2f07 143e
000002a0: f94f d73d c110 12bd ff1e 223d 4cef ccbd
000002b0: a80c 6dbd b4ff babc 4c0a be3d 6932 15bd
000002c0: 5eca 493d 751f d43c c7c7 b7bd 48bc c5bd
000002d0: 221f 7f3d 53b6 4abd bffd 3e3d df83 66bc
000002e0: 0819 6b3d 2a06 c53c 367d 47bd 0411 b4bd
000002f0: b0eb c33d 0876 9fbd 8709 d53b 88ed c43d
00000300: 8323 83bd 66dc 01bd df7e 2bbd 8b38 313b
00000310: 6aee c1bd 35de dcbd 5d3d 3bbd 2c14 9b3c
00000320: 0989 a6bd 195d aa3c 2f23 d2bd 9978 ba3d
00000330: 7ca2 2c3b a425 b8bd e4f1 343c 7811 3dbd
00000340: 8a74 1e3d a44f 58bd ed50 943d 7745 963d
00000350: 1e6b f6bb 35f6 5b3d 56bb 49bd 9920 b63c
00000360: d9b5 72bd 69a4 9ebd af0e acbd 9d7b f7bc
00000370: fb96 793d b327 d23c 91dd 653c 45e4 06be
00000380: 7f4d a8bc 5b76 693c 7ce0 c93d c865 dc3c
00000390: 25ee 8f3d 0bfa a5bd 7808 c4bc ec4c 903d
000003a0: de1b 56bd 4304 17be 3c7c 233d 64ad 8abd
000003b0: b46d ab39 a7af 0a3e 723a 1ebe eadc 29be
000003c0: 9a8e a5bc 8eb3 a6bd 14cd 71bd 01c3 febd
000003d0: 1413 8d3c 57b8 dd3d 46eb 7ebc db6a f2ba
000003e0: 16bb 0d3d 899d 5a3d 7035 17bd a4a7 ac3d
000003f0: 7fe0 00bd 32b0 f1bd 5576 963d f719 4d3d

lstm.weight_hh_l0 f4 [256, 64]
-0.0076803733 0.038145974 0.031780783 0.08432104 -0.056554165 0.06440122 -0.030694574 0.12318398
-0.030602502 0.09116903 0.13541918 0.070925534 0.14037782 -0.05878172 -0.07837014 -0.03341062
0.051919803 -0.0006616101 0.0072460347 -0.06511428 0.077444844 -0.0021628677 -0.10624565 0.064326555
-0.14002374 0.05551988 -0.09974142 -0.077466644 0.019082176 0.02118801 0.0023612352 -0.021655453
0.08429101 0.017282913 -0.017884245 0.056309693 0.13578454 -0.08285388 -0.014764608 -0.0309639
0.06776364 0.03708876 0.10457893 -0.10085654 0.034918968 -0.07400952 0.02662371 -0.08664714
-0.022064067 -0.114623606 0.09828495 0.10455794 0.074550636 -0.00995085 -0.007892869 0.08746603
-0.008616316 0.10812195 0.022575097 0.0694956 -0.036692306 0.0033125358 -0.025044942 -0.09696119
-0.11336058 -0.016383871 -0.14122888 0.064317614 -0.04653861 0.03912868 0.025449669 -0.034510277
0.008073013 0.13446692 -0.04649496 -0.0032950093 -0.01986041 -0.014593442 -0.02101652 0.098899476
0.067760035 0.03919853 -0.08760356 -0.11123494 0.044019416 -0.1209938 0.016397277 -0.06963951
-0.10749129 0.087805755 0.01976538 0.11882956 0.09840629 0.028283251 0.023201963 0.17603852
0.07771498 0.06555078 0.015960628 -0.025014525 -0.10147853 -0.11068432 -0.023260267 0.029399792
0.09641701 -0.12670434 0.031771913 0.14030372 0.0028420626 0.049146246 -0.012028304 0.094431974
0.04380175 0.03834542 -0.037729293 0.1135937 -0.012568309 0.06679776 0.07629164 -0.08363509
0.114300616 -0.04987081 0.10731956 0.04824072 0.016689753 -0.074147284 0.06540489 0.07064291
-0.04318131 -0.03352822 -0.06951028 0.07893952 -0.006689923 0.069529116 -0.057161715 -0.08392686
-0.07341591 -0.08644118 0.12750924 0.11819502 0.009209272 -0.11125095 0.023324085 -0.0102004
-0.06026521 -0.07390099 -0.003926791 -0.041066058 0.032902103 -0.1664461 0.10181733 0.04440393
0.096931994 0.083673775 -0.14504349 -0.03653735 -0.016638963 0.11570072 0.08168359 0.022755483
0.08779082 -0.085420206 -0.03717396 0.05938797 0.08489185 -0.03157272 -0.008763166 -0.028355114
0.038422346 -0.10908354 -0.094560266 0.020583922 0.04988279 0.0568293 -0.07332375 0.036773287
0.02858678 -0.09294117 0.088778414 -0.007927145 -0.12715329 0.068261005 -0.098338015 -0.069617145
0.14056516 0.05045294 0.054876838 0.04174263 -0.007714546 -0.12331062 0.10716533 -0.09323589
0.06260232 0.12170939 0.07966315 0.14618623 0.021014998 0.05499587 0.08675803 -0.1337066
-0.026904853 -0.099844866 0.08987634 -0.042803355 0.16953275 0.108730294 -0.1440268 -0.041257348
0.002182471 0.15172043 -0.09676357 0.025313007 -0.041583933 0.021716816 0.10925709 -0.058757905
0.07191448 0.008844442 -0.11264737 0.07998184 -0.09798154 -0.08631066 -0.031487163 -0.0066427975
0.0377375 0.031190855 -0.00085639086 -0.07577409 -0.06800783 -0.07287057 -0.059011575 -0.03617408
0.06311525 0.037335202 -0.03497431 -0.065724865 0.019939521 -0.111227736 -0.13137564 -0.05905036
-0.024247384 0.04040836 0.042160995 0.035816513 0.03373659 -0.081924535 0.049402934 -0.068107046
-0.028099712 -0.14003426 -0.08740405 -0.05673271 0.032722335 0.029482776 -0.09224955 0.027365737
00000000: a4ab fbbb f43e 1c3d 912c 023d 82b0 ac3d
00000010: 57a5 67bd c9e4 833d 3073 fbbc e247 fc3d
00000020: 19b2 fabc d4b6 ba3d 53ab 0a3e 6841 913d
00000030: 34bf 0f3e 1ac5 70bd 8680 a0bd 93d9 08bd
00000040: dca9 543d e76f 2dba 2570 ed3b a35a 85bd
00000050: 679b 9e3d e6be 0dbb 5297 d9bd a4bd 833d
00000060: 6262 0fbe d068 633d 3b45 ccbd d5a6 9ebd
00000070: 3952 9c3c 7a92 ad3c f4be 1a3b c766 b1bc
00000080: c4a0 ac3d e594 8d3c fb81 92bc fea4 663d
00000090: 1a0b 0b3e 4caf a9bd 41e7 71bc 01a8 fdbc
000000a0: aac7 8a3d 62ea 173d 7a2d d63d e08d cebd
000000b0: 3107 0f3d 4e92 97bd f719 da3c 0e74 b1bd
000000c0: b4bf b4bc c8bf eabd 9f49 c93d 7922 d63d
000000d0: 01ae 983d e408 23bc 1851 01bc 6421 b33d
000000e0: 732b 0dbc 0a6f dd3d 69ef b83c b653 8e3d
000000f0: ac4a 16bd 2117 593b 0d2b cdbc 9793 c6bd
00000100: 9729 e8bd 7837 86bc 4e9e 10be f4b8 833d
00000110: 459f 3ebd 6545 203d d37b d03c a65a 0dbd
00000120: ac44 043c b2b1 093e 8071 3ebd 15f1 57bb
00000130: 4cb2 a2bc 5519 6fbc d62a acbc cf8b ca3d
00000140: c6c5 8a3d a38e 203d 7f69 b3bd 25cf e3bd
00000150: b44d 343d 99cb f7bd 9553 863c 299f 8ebd
00000160: 6524 dcbd 81d3 b33d 02eb a13c ea5c f33d
00000170: 3d89 c93d 47b2 e73c 0b12 be3c 7143 343e
00000180: 0829 9f3d 7d3f 863d ddbf 823c 43eb ccbc
00000190: fad3 cfbd 76ae e2bd 518c bebc d5d7 f03c
000001a0: 4876 c53d c8be 01be 4423 023d c7ab 0f3e
000001b0: e641 3a3b 934d 493d 5d12 45bc 8d65 c13d
000001c0: 7769 333d 1610 1d3d 088a 1abd d0a3 e83d
000001d0: 4feb 4dbc 44cd 883d cb3e 9c3d e048 abbd
000001e0: 7116 ea3d 5645 4cbd 5cca db3d 1098 453d
000001f0: f3b8 883c 88da 97bd 00f3 853d 3bad 903d
00000200: e3de 30bd e354 09bd 685b 8ebd 0bab a13d
00000210: 2437 dbbb 4865 8e3d 6722 6abd d8e1 abbd
00000220: 155b 96bd 1308 b1bd c891 023e 3b10 f23d
00000230: 7de2 163c 8ad7 e3bd 2712 bf3c 941f 27bc
00000240: a7d8 76bd 6759 97bd 4fac 80bb e234 28bd
00000250: 5bc4 063d d970 2abe 9b85 d03d e5e0 353d
00000260: 4884 c63d 285d ab3d 4886 14be 30a8 15bd
00000270: 6f4e 88bc 80f4 ec3d ba49 a73d b569 ba3c
00000280: accb b33d caf0 aebd b943 18bd cd40 733d
00000290: c7db ad3d 6552 01bd 6293 0fbc fc48 e8bc
000002a0: c060 1d3d 3167 dfbd d0a8 c1bd 9d9f a83c
000002b0: e551 4c3d d7c5 683d c32a 96bd 969f 163d
000002c0: d32e ea3c f157 bebd 75d1 b53d dbe0 01bc
000002d0: 7934 02be 6dcc 8b3d 7165 c9bd 6f93 8ebd
000002e0: 50f0 0f3e bea7 4e3d 89c6 603d 52fa 2a3d
000002f0: 4dca fcbb 478a fcbd 7f79 db3d 75f2 bebd
00000300: a535 803d c642 f93d 6f26 a33d d8b1 153e
00000310: a527 ac3c 5943 613d 32ae b13d 62ea 08be
00000320: 9167 dcbc 777b ccbd 1611 b83d 9252 2fbd
00000330: fe99 2d3e fdad de3d c37b 13be 77fd 28bd
00000340: ca07 0f3b 9a5c 1b3e fb2b c6bd 395d cf3c
00000350: ea53 2abd 77e7 b13c 2ec2 df3d 21ac 70bd
00000360: e647 933d 47e8 103c aab3 e6bd 85cd a33d
00000370: 8caa c8bd a5c3 b0bd aff8 00bd d3ab d9bb
00000380: a392 1a3d f783 ff3c 6b7f 60ba 722f 9bbd
00000390: b047 8bbd 2a3d 95bd 1fb6 71bd 462b 14bd
000003a0: 9142 813d ccec 183d 3941 0fbd c29a 86bd
000003b0: 3558 a33c 5ecb e3bd 5687 06be cade 71bd
000003c0: 73a2 c6bc 3d83 253d 02b1 2c3d 56b4 123d
000003d0: 612f 0a3d 0dc8 a7bd bb5a 4a3d b57b 8bbd
000003e0: 5e31 e6bc 2465 0fbe e500 b3bd 8f60 68bd
000003f0: db07 063d dd85 f13c 55ed bcbd 1c2e e03c

lstm.bias_ih_l0 f4 [256]
-0.12347681 0.04033293 -0.080439985 0.062277153 -0.07473982 -0.029622499 -0.042221677 -0.044831906
-0.12831427 0.09620355 -0.09493647 0.08753296 0.014242666 -0.09769662 0.00035604657 0.08142094
-0.04692617 -0.014070924 0.011177157 0.11578622 0.12577018 0.009503708 -0.09939858 -0.07436821
0.054126326 -0.071430854 0.027258322 0.078364424 0.023231251 -0.037931614 0.11442202 -0.03432468
0.003546561 0.13752346 0.007882285 0.1090675 0.0015506847 0.0022669954 0.05484176 -0.09986042
-0.005121523 0.027326612 0.081623 -0.097562425 -0.086750954 0.091735914 0.035651904 -0.048459396
0.008105245 -0.015446118 0.08259253 0.10862976 0.024445582 -0.09008141 -0.12016732 -0.0020926474
-0.042438455 0.086044356 0.040555585 0.028621007 -0.024124578 0.036889415 0.0056153275 -0.021863073
0.057748348 -0.08386364 0.0066631697 0.10925387 0.09763752 0.048413508 -0.10118513 0.106014244
-0.07762709 0.13496734 0.052144874 -0.0054946826 0.0629152 0.00762494 -0.074047975 -0.054940186
-0.0549577 0.022465402 -0.075107254 0.07697997 0.066034265 0.07665813 -0.09208728 0.024641233
0.13005033 0.06699899 -0.056336723 0.041207626 0.03162931 -0.035226814 0.043308605 -0.020871283
-0.033571158 0.12011191 -0.09996449 0.054716237 -0.0059052906 -0.08579451 0.08895383 0.09952049
0.10636485 -0.032010037 0.0008591651 -0.008564515 -0.058062177 0.06011969 -0.072300084 -0.03316754
0.019400699 0.10755176 -0.028756283 -0.0030724413 -0.111302525 -0.068003215 -0.09195299 0.08956785
-0.037932493 0.006806553 0.0070346417 0.054217603 -0.00854268 0.09457959 -0.043248057 0.16345902
-0.10035233 0.07156974 0.041272186 0.09687545 -0.105263285 0.035972144 -0.026533695 -0.034846827
0.07471638 -0.13741875 0.006151291 -0.046288356 -0.071980976 0.07404075 -0.060729824 0.015545476
-0.070374586 0.07064822 -0.017240316 0.03333913 0.04219611 -0.024802754 0.11875301 0.1289118
-0.0058953674 -0.06599138 -0.023876857 0.0796569 -0.109567374 0.068390794 0.025008276 -0.016155664
-0.02017563 0.09471175 -0.012204137 -0.083265886 -0.12636961 -0.035432182 0.049947824 -0.11338557
0.13970938 0.11536844 0.0072358428 -0.03138239 0.010227462 -0.12218073 -0.08748955 0.0369541
-0.08108229 0.042349685 -0.10539848 0.05133014 0.100034095 -0.05495595 -0.016079301 -0.08368974
0.046313286 -0.09144559 0.032874085 -0.057815336 -0.035946086 0.11585281 0.036096074 0.09804454
-0.12566645 -0.10096667 0.053641696 -0.005557228 0.102699734 -0.0071975025 0.010181542 0.07266404
0.07118838 -0.044418387 -0.009342584 -0.075720705 0.13367155 0.036466714 0.08818786 0.017425075
0.054372434 0.029255157 0.04108901 -0.029374184 0.08369818 0.0027419962 -0.070188284 0.018106379
0.033739295 0.07040321 -0.09396351 0.10086633 0.06389864 0.05602054 0.05020315 -0.025635688
-0.056802034 -0.020420546 0.010685724 0.07694751 -0.006813456 3.740815e-05 0.04801085 -0.12007152
0.11108381 0.070549704 -0.003961241 -0.0374209 0.0059267934 -0.12828203 -0.07931985 0.09950837
-0.056064006 0.05606617 -0.08051945 0.027589267 0.0123557625 -0.0018615604 0.04319015 0.04730469
-0.04061797 -0.03210292 -0.05584247 -0.012868769 -0.022713924 -0.05573723 -0.09655901 -0.037232406
00000000: 69e1 fcbd 2434 253d b8bd a4bd 5416 7f3d
00000010: 3111 99bd e2aa f2bc a3f0 2cbd a9a1 37bd
00000020: d164 03be 5e06 c53d 0d6e c2bd 7b44 b33d
00000030: 125a 693c 2a15 c8bd c3ab ba39 06c0 a63d
00000040: a835 40bd bc89 66bc 6520 373c 5321 ed3d
00000050: e6c9 003e 71b5 1b3c 7c91 cbbd 5c4e 98bd
00000060: 91b3 5d3d 574a 92bd d84c df3c 877d a03d
00000070: 774f be3c 2e5e 1bbd 1856 ea3d 0998 0cbd
00000080: 6c6d 683b f3d2 0c3e b324 013c c85e df3d
00000090: 5840 cb3a df91 143b c1a1 603d 9f83 ccbd
000000a0: 73d2 a7bb 0fdc df3c f629 a73d cfce c7bd
000000b0: 7caa b1bd 0ae0 bb3d bb07 123d 5c7d 46bd
000000c0: ddcb 043c b711 7dbc 4626 a93d 4879 de3d
000000d0: 1a42 c83c 9a7c b8bd 491a f6bd cc24 09bb
000000e0: f2d3 2dbd 0638 b03d 9d1d 263d 9a76 ea3c
000000f0: e8a0 c5bc 5b19 173d c800 b83b 301a b3bc
00000100: 8889 6c3d b3c0 abbd b856 da3b 7ec0 df3d
00000110: 2ef6 c73d 3e4d 463d 263a cfbd ff1d d93d
00000120: f4fa 9ebd e134 0a3e dd95 553d bd0c b4bb
00000130: afd9 803d a2da f93b 77a6 97bd f608 61bd
00000140: 531b 61bd 5d09 b83c d5d1 99bd ada7 9d3d
00000150: f93c 873d f0fe 9c3d 4198 bcbd 69dc c93c
00000160: ea2b 053e c436 893d 56c1 66bd 54c9 283d
00000170: bc8d 013d fe49 10bd 5d64 313d 41fa aabc
00000180: e981 09bd 3cfd f53d 2fba ccbd 221e 603d
00000190: 2b81 c1bb 08b5 afbd 6d2d b63d 66d1 cb3d
000001a0: d1d5 d93d f51c 03bd 9839 613a 2e52 0cbc
000001b0: 9bd2 6dbd 1040 763d 1112 94bd b0da 07bd
000001c0: 37ee 9e3c 1944 dc3d 4c92 ebbc 035b 49bb
000001d0: 94f2 e3bd 4545 8bbd d951 bcbd 596f b73d
000001e0: 1a5f 1bbd 8109 df3b da82 e63b 4713 5e3d
000001f0: 99f6 0bbc f2b2 c13d e024 31bd cd61 273e
00000200: 8685 cdbd 2893 923d 060d 293d a366 c63d
00000210: 4794 d7bd 8757 133d 315d d9bc 8cbb 0ebd
00000220: e704 993d 80b7 0cbe c590 c93b dc98 3dbd
00000230: c36a 93bd ada2 973d d6bf 78bd 74b2 7e3c
00000240: 8d20 90bd 04b0 903d 903b 8dbc 9d8e 083d
00000250: d4d5 2c3d 252f cbbc c734 f33d 7401 043e
00000260: ed2d c1bb 7d26 87bd 6699 c3bc 2823 a33d
00000270: dc64 e0bd 7910 8c3d 28de cc3c e258 84bc
00000280: 5d47 a5bc 3cf8 c13d dcf3 47bc 4e87 aabd
00000290: 0967 01be 5621 11bd 1796 4c3d b236 e8bd
000002a0: fa0f 0f3e 4a46 ec3d a61a ed3b d28a 00bd
000002b0: 1691 273c e439 fabd b92d b3bd 2f5d 173d
000002c0: 790e a6bd dd76 2d3d 29db d7bd 8e3f 523d
000002d0: adde cc3d 7d19 61bd bdb8 83bc 8765 abbd
000002e0: 00b3 3d3d d347 bbbd faa6 063d c6cf 6cbd
000002f0: 343c 13bd 3d44 ed3d 7ad9 133d 93cb c83d
00000300: b5ae 00be 9dc7 cebd 65b7 5b3d 6819 b6bb
00000310: 3d54 d23d 07d9 ebbb 7bd0 263c e2d0 943d
00000320: 37cb 913d 0ef0 35bd a311 19bc 7513 9bbd
00000330: 32e1 083e 1f5e 153d d69b b43d 08bf 8e3c
00000340: a1b5 5e3d 83a8 ef3c f34c 283d 21a2 f0bc
00000350: f469 ab3d 10b3 333b e0be 8fbd d453 943c
00000360: 3732 0a3d 8f2f 903d f16f c0bd 0293 ce3d
00000370: 4add 823d cb75 653d d1a1 4d3d ef01 d2bc
00000380: 40a9 68bd fd48 a7bc 2d13 2f3c a896 9d3d
00000390: 6943 dfbb b2e6 1c38 06a7 443d 0fe8 f5bd
000003a0: e97f e33d 5d7c 903d 4ccd 81bb a846 19bd
000003b0: 8c35 c23b 5d5c 03be 7272 a2bd 0bcb cb3d
000003c0: 5fa3 65bd a4a5 653d 62e7 a4bd e302 e23c
000003d0: d36f 4a3c 9aff f3ba 28e8 303d 90c2 413d
000003e0: 075f 26bd 5a7e 03bd 13bb 64bd 87d7 52bc
000003f0: 8d12 babc b94c 64bd bbc0 c5bd 0281 18bd

lstm.bias_hh_l0 f4 [256]
-0.058157578 -0.069650255 0.07976927 0.13334985 0.09877673 0.05401342 -0.08402474 0.07589648
0.044319734 -0.104927264 0.022293916 -0.019166132 0.023930617 0.09973143 -0.089662954 -0.10421484
-0.06520615 0.054017384 -0.10997028 0.108012676 -0.020519353 0.105215505 0.12872173 0.04793758
0.05089291 0.014074089 0.10076754 -0.09035773 -0.055892866 -0.049856734 0.12923165 0.09330099
0.050362196 0.050789878 -0.11366942 0.056598004 -0.073969394 0.053751025 -0.08800516 -0.12443806
-0.08035267 -0.057394795 0.056026272 -0.14522135 0.09092716 0.06355241 -0.04281762 -0.07454066
-0.12124533 0.13159764 0.0024166778 -0.020017881 -0.0991188 -0.042480975 -0.0046854415 0.05513404
-0.08604232 0.033177063 0.106007546 -0.057187874 0.033864986 0.08164181 0.048145786 -0.039556056
0.017601017 0.11683679 -0.076030925 0.102792546 -0.0038157355 0.032299176 -0.027989067 -0.117077194
-0.017215775 -0.075099394 0.10289138 -0.09900899 0.0778229 -0.097146906 0.14685197 0.018237328
-0.0027014492 0.12984446 -0.038104746 -0.10386648 0.016879959 0.17993729 0.03692537 0.039781082
0.15745293 0.045667727 0.07447327 0.057353325 -0.07362278 -0.008077484 0.007834511 -0.039356984
-0.061072282 0.044716537 -0.07073712 -0.11262921 -0.044833716 -0.08063942 -0.055097442 -0.029836351
0.078455016 0.12787904 0.059891425 -0.054400507 0.08253172 0.10235226 0.03582776 -0.017616136
-0.12178296 0.032170285 0.13472937 0.071142346 0.053747084 0.08197284 -0.08372391 0.12690614
-0.079128176 0.06852916 0.04094836 -0.043862592 0.06001247 -0.020165764 0.052766994 0.1555833
-0.10535093 -0.0042771725 0.06890579 0.08826609 0.08091956 -0.072083846 0.011824165 0.08995048
0.037142333 0.057446223 0.026079817 0.004320035 -0.07521202 -0.07125456 0.015715733 0.063108325
-0.031603888 -0.055616584 0.056248344 -0.04035652 0.0063093584 0.05949305 -0.021521803 0.09003462
0.09353638 -0.011954347 -0.07597603 -0.05305811 0.04091979 -0.09019105 -0.07017576 -0.06484093
0.119810976 0.026682403 -0.07506607 0.039853655 -0.08058538 -0.096731655 -0.096572764 -0.1075845
-0.076972604 0.0934592 0.10479245 0.0915211 -2.1499316e-05 -0.028090753 0.017789876 -0.105210766
0.07465984 0.08350801 0.10259298 0.10857402 0.105415024 0.010368616 -0.09943824 -0.02049113
-0.08448947 0.017314937 0.056021743 0.06945706 0.10692485 -0.11243535 -0.07219868 -0.12641032
-0.0014705671 -0.11670328 0.07749355 0.030575834 0.083654575 0.04016666 -0.060389973 -0.09950937
0.04690687 0.020491902 0.13217446 -0.11763616 -0.054362766 0.07182585 0.02582546 -0.10668018
-0.009958147 0.0028394498 -0.08002662 -0.11403497 0.057937704 0.0097711 0.056919992 0.1330738
0.0055711265 0.06675082 0.039483834 -0.07406421 -0.01559114 0.023718022 0.06621799 -0.025291413
0.0009867817 0.11643079 0.045427382 -0.007768924 0.05670047 0.07704107 -0.07626944 -0.016433896
-0.06298185 -0.06557618 0.008840104 -0.12404219 -0.08459602 0.09977236 0.11325738 -0.0946796
-0.12661098 -0.049638085 0.049925655 -0.08149399 -0.003063947 0.05165949 0.021476053 -0.0063450187
-0.018928898 0.022697788 0.0017866535 0.022219451 0.059340145 -0.023999821 0.05518711 0.05413224
00000000: a436 6ebd cba4 8ebd 125e a33d dd8c 083e
00000010: 744b ca3d 2d3d 5d3d 2a15 acbd 9d6f 9b3d
00000020: 9c88 353d 1be4 d6bd bba1 b63c 4b02 9dbc
00000030: 240a c43c fe3f cc3d 36a1 b7bd 976e d5bd
00000040: cd8a 85bd 5541 5d3d 1938 e1bd c035 dd3d
00000050: 3418 a8bc 3a7b d73d a1cf 033e 325a 443d
00000060: 1675 503d 0297 663c 365f ce3d 790d b9bd
00000070: ebef 64bd 9336 4cbd 4d55 043e 9714 bf3d
00000080: 9748 4e3d 0c09 503d 83cb e8bd 4fd3 673d
00000090: 447d 97bd 092a 5c3d 0d3c b4bd 62d9 febd
000000a0: f18f a4bd ce16 6bbd ce7b 653d e8b4 14be
000000b0: 0538 ba3d c427 823d 8761 2fbd c6a8 98bd
000000c0: 794f f8bd 88c1 063e 2061 1e3b 8afc a3bc
000000d0: ccfe cabd 8800 2ebd 5588 99bb 3bd4 613d
000000e0: f536 b0bd ace4 073d 7c1a d93d d53d 6abd
000000f0: 03b6 0a3d d233 a73d 8434 453d 8805 22bd
00000100: 0230 903c 2148 ef3d 1ab6 9bbd e684 d23d
00000110: 6b11 7abb 244c 043d 5449 e5bc 2bc6 efbd
00000120: 1908 8dbc b6cd 99bd b7b8 d23d 3ac5 cabd
00000130: 9d61 9f3d f5f4 c6bd 5d60 163e 7366 953c
00000140: cc0a 31bb f2f5 043e b913 1cbd f3b7 d4bd
00000150: d747 8a3c 7b41 383e 0f3f 173d 7df1 223d
00000160: 573b 213e 150e 3b3d 7185 983d 52eb 6a3d
00000170: 8ac7 96bd 6c57 04bc 525c 003c ca34 21bd
00000180: ee26 7abd b028 373d a0de 90bd 25aa e6bd
00000190: 8fa3 37bd 4826 a5bd dbad 61bd 5d6b f4bc
000001a0: 06ad a03d b9f2 023e b650 753d 11d3 5ebd
000001b0: 6406 a93d 109e d13d 21c0 123d b74f 90bc
000001c0: 5869 f9bd fdc4 033d 7ff6 093e 14b3 913d
000001d0: e725 5c3d 60e1 a73d 7177 abbd aff3 013e
000001e0: f40d a2bd 0459 8c3d 78b9 273d 43a9 33bd
000001f0: a3cf 753d ac32 a5bc 3422 583d 3b51 1f3e
00000200: 3ac2 d7bd 8627 8cbb 7b1e 8d3d dac4 b43d
00000210: 27b9 a53d b2a0 93bd 24ba 413c f537 b83d
00000220: 8f22 183d bb4c 6b3d 57a5 d53c 158f 8d3b
00000230: c208 9abd e9ed 91bd 48be 803c f03e 813d
00000240: 1473 01bd 37ce 63bd aa64 663d e14c 25bd
00000250: bcbe ce3b fcae 733d 7e4e b0bc 1264 b83d
00000260: 0090 bf3d 2adc 43bc 5299 9bbd 7653 59bd
00000270: 829b 273d 16b6 b8bd 4fb8 8fbd 52cb 84bd
00000280: 755f f53d 0e95 da3c 3dbc 99bd 963d 233d
00000290: f309 a5bd 3f1b c6bd f1c7 c5bd 4355 dcbd
000002a0: d0a3 9dbd 8967 bf3d 6d9d d63d 6a6f bb3d
000002b0: 6e59 b4b7 941e e6bc 13bc 913c be78 d7bd
000002c0: 42e7 983d 3f06 ab3d 451c d23d 0e5c de3d
000002d0: d5e3 d73d 21e1 293c 47a6 cbbd 04dd a7bc
000002e0: d108 adbd 0ed8 8d3c 0e77 653d 813f 8e3d
000002f0: 6afb da3d 8144 e6bd e7dc 93bd b571 01be
00000300: 0bc0 c0ba 2102 efbd f0b4 9e3d 2c7a fa3c
00000310: 1753 ab3d cc85 243d 7a5b 77bd 92cb cbbd
00000320: 6b21 403d a2de a73c be58 073e 3aeb f0bd
00000330: 7eab 5ebd 6e19 933d ea8f d33c 237b dabd
00000340: 7f27 23bc 1016 3a3b ffe4 a3bd 2b8b e9bd
00000350: 1650 6d3d f716 203c f024 693d 8044 083e
00000360: ff8d b63b a7b4 883d cdb9 213d faae 97bd
00000370: fb71 7fbc 4c4c c23c 4c9d 873d f02f cfbc
00000380: e656 813a 4473 ee3d 1012 3a3d 7592 febb
00000390: c13e 683d b5c7 9d3d 2733 9cbd 61a0 86bc
000003a0: a1fc 80bd ce4c 86bd 15d6 103c d509 febd
000003b0: ae40 adbd 7355 cc3d 7cf3 e73d 61e7 c1bd
000003c0: 4fa6 01be 4e51 4bbd d87e 4c3d 52e6 a6bd
000003d0: 80cc 48bb e798 533d 8cee af3c e0e9 cfbb
000003e0: c710 9bbc b6f0 b93c 252e ea3a 9105 b63c
000003f0: a70e 733d 469b c4bc e10b 623d c5b9 5d3d

lstm.weight_ih_l1 f4 [256, 64]
0.07947724 0.02066793 -0.006579327 0.027605819 0.06096053 0.043429267 0.08192497 0.11363564
0.09901504 0.05145635 -0.12126475 0.009464671 -0.029680414 -0.07912963 -0.01675268 0.088572726
0.11919337 -0.1294041 -0.009936852 -0.063349016 0.025304921 -0.042329818 -0.09587077 -0.07581517
0.066879764 -0.006841249 -0.08053073 0.017512972 -0.067949444 -0.090394504 -0.080532454 -0.028446505
-0.021189176 0.007813153 0.048487242 0.08606842 -0.12018816 -0.04102194 0.08193502 0.042470448
0.038241405 0.0667573 -0.00726601 -0.075731836 0.06509709 0.06673983 0.084703155 -0.07788686
0.04748456 -0.043241818 -0.040740095 -0.018005656 -0.087358646 0.02231198 0.10613353 0.102812305
-0.10640418 -0.045510773 0.11678994 -0.1449805 -0.03920898 -0.10065979 -0.059339784 -0.018070586
0.07821265 -0.10137932 -0.07853685 0.029547637 -0.078577265 0.066941254 0.107491374 0.07038637
0.14391811 -0.09633632 0.074796595 -0.019895736 -0.042695828 -0.07850917 -0.0133763505 0.095917664
-0.020231027 0.008526457 0.10036237 -0.14032158 -0.02833212 0.031623628 -0.08441764 0.011945201
0.01060846 -0.08418781 0.036924046 0.036015164 -0.05206759 -0.09999037 0.0829142 0.08990887
-0.12107086 0.00207555 0.13878074 -0.12067458 0.09144406 -0.118755035 -0.023762539 -0.088334225
0.0051155915 -0.009710185 -0.0042286147 0.07617678 0.12156793 -0.084783755 -0.1375613 -0.08183429
0.019744117 0.0038617982 0.091985896 0.038116727 0.030478723 0.07645098 -0.120686695 0.12302306
-0.0018227467 0.08334931 0.09226291 0.10819179 0.103481226 0.028618362 -0.045755453 -0.08416959
-0.07426088 0.013461206 0.05065254 0.008825437 -0.0064299735 -0.014020759 -0.10799068 -0.028462602
-0.09808557 -0.03498454 0.048305247 0.077845715 0.047150645 -0.036609836 0.003918249 -0.006582733
0.008755835 0.06532813 -0.08361623 0.0319532 0.030710783 -0.022807863 0.014053802 0.07262896
-0.078136705 0.078551844 0.084580235 0.108042255 -0.09647709 0.054512102 0.07006398 -0.05046022
-0.07723883 0.106337816 9.3082504e-05 0.0067417077 0.0028760086 -0.03796435 0.03526802 -0.13543566
-0.016005162 -0.003485698 -0.07272221 -0.047771513 0.09315749 -0.12559804 -0.04620327 -0.08070444
0.10091051 -0.07390913 0.047327448 0.00015976794 -0.12697087 -0.008651948 -0.10753623 -0.013618349
-0.039900757 -0.10194169 -0.0057099536 -0.024935726 0.029869735 0.047886062 -0.022892537 -0.040512066
0.025816705 0.006130873 0.0021236169 0.035198823 0.027598377 0.00044514934 -0.080264926 -0.09420301
0.10688142 -0.0021407506 0.084589936 -0.018419014 0.07308912 -0.1003429 0.003142209 -0.05716009
-0.08886024 0.087834835 -0.075162135 0.0040846677 0.08727945 -0.12583306 -0.076808326 -0.01589804
0.082388654 0.057580978 0.045938756 -0.07529919 0.038757954 0.060512997 -0.089590415 0.026556874
0.06417935 0.103752516 0.04532642 0.00796469 -0.044359785 0.073662706 -0.025894508 -0.116071045
0.016061952 -0.044111244 -0.0133371875 0.045837972 0.08921999 0.002695626 0.115237 0.121725716
-0.044823274 -0.09450816 -0.059069127 -0.05142594 -0.0009403195 -0.006520922 -0.11092715 0.10736369
0.046766985 0.05366138 0.061728694 -0.008157834 0.1143057 0.002384435 -0.06938161 0.08339926
00000000: f7c4 a23d ca4f a93c 6597 d7bb 9925 e23c
00000010: c0b1 793d e3e2 313d 47c8 a73d cdb9 e83d
00000020: 66c8 ca3d e5c3 523d a759 f8bd b511 1b3c
00000030: 5724 f3bc b70e a2bd eb3c 89bc 9e65 b53d
00000040: a71b f43d 8282 04be 2ece 22bc 21bd 81bd
00000050: 444c cf3c 0862 2dbd e557 c4bd fc44 9bbd
00000060: 42f8 883d 8e2c e0bb 4ced a4bd 5d77 8f3c
00000070: 1429 8bbd c120 b9bd 33ee a4bd a508 e9bc
00000080: ec94 adbc bd02 003c 8f9a 463d a444 b03d
00000090: 3625 f6bd 9f06 28bd 8ccd a73d 7ef5 2d3d
000000a0: 05a3 1c3d 0db8 883d b617 eebb 4b19 9bbd
000000b0: a051 853d e4ae 883d d978 ad3d 2583 9fbd
000000c0: 2c7f 423d 551e 31bd 16df 26bd 9980 93bc
000000d0: 17e9 b2bd 9dc7 b63c 895c d93d 428f d23d
000000e0: 6fea d9bd 8169 3abd 902f ef3d c575 14be
000000f0: 9899 20bd b826 cebd 460e 73bd c408 94bc
00000100: f42d a03d f69f cfbd eed7 a0bd e30d f23c
00000110: 1eed a0bd 7f18 893d 7024 dc3d bb26 903d
00000120: 455f 133e fa4b c5bd f52e 993d 62fc a2bc
00000130: d2e1 2ebd 6ac9 a0bd 7b28 5bbc 7b70 c43d
00000140: 8abb a5bc 8db2 0b3c c98a cd3d 76b0 0fbe
00000150: c318 e8bc c787 013d 28e3 acbd ceb5 433c
00000160: 1bcf 2d3c a96a acbd ab3d 173d a384 133d
00000170: d344 55bd c0c7 ccbd ecce a93d 2422 b83d
00000180: 00f4 f7bd f305 083b 8a1c 0e3e 3c24 f7bd
00000190: 0647 bb3d d735 f3bd a8a9 c2bc 93e8 b4bd
000001a0: b1a0 a73b 7817 1fbc 3190 8abb 9202 9c3d
000001b0: 9bf8 f83d 1ba3 adbd dfdc 0cbe bc98 a7bd
000001c0: 6abe a13c 3916 7d3b 1a63 bc3d 4920 1c3d
000001d0: 84ae f93c 5592 9c3d 962a f7bd 84f3 fb3d
000001e0: 3be9 eeba 0bb3 aa3d 56f4 bc3d a893 dd3d
000001f0: f7ed d33d 0e71 ea3c 126a 3bbd 1b61 acbd
00000200: 1716 98bd 648c 5c3c 0a79 4f3d 9198 103c
00000210: 87b2 d2bb 53b7 65bc 382a ddbd 672a e9bc
00000220: 16e1 c8bd f34b 0fbd b9db 453d 936d 9f3d
00000230: 0921 413d 32f4 15bd a864 803b f7b3 d7bb
00000240: a274 0f3c c1ca 853d fc3e abbd 5ce1 023d
00000250: 2e95 fb3c 8ed7 babc eb41 663c 7ebe 943d
00000260: 2306 a0bd cadf a03d 6738 ad3d 4245 dd3d
00000270: c895 c5bd 1548 5f3d b47d 8f3d 60af 4ebd
00000280: 642f 9ebd a4c7 d93d 4a35 c338 8be9 dc3b
00000290: 6b7b 3c3b 8280 1bbd 3375 103d a5af 0abe
000002a0: 421d 83bc 4f70 64bb 62ef 94bd 10ac 43bd
000002b0: 5bc9 be3d c69c 00be a43f 3dbd 5f48 a5bd
000002c0: 2baa ce3d ac5d 97bd 6dda 413d 6187 2739
000002d0: a704 02be e6c0 0dbc f43b dcbd 7f1f 5fbc
000002e0: fa6e 23bd cec6 d0bd 901a bbbb 0246 ccbc
000002f0: 60b1 f43c 2d24 443d 2189 bbbc fbef 25bd
00000300: 8e7d d33c 7ee5 c83b 612c 0b3b a42c 103d
00000310: fe15 e23c ef62 e939 f061 a4bd 82ed c0bd
00000320: a5e4 da3d d64b 0cbb 7d3d ad3d 79e3 96bc
00000330: c0af 953d 9480 cdbd 85ed 4d3b b320 6abd
00000340: 5cfc b5bd c0e2 b33d 9bee 99bd add8 853b
00000350: 91bf b23d 62da 00be af4d 9dbd 9b3c 82bc
00000360: 62bb a83d 08da 6b3d 472a 3c3d 7636 9abd
00000370: a9c0 1e3d 7adc 773d 2e7b b7bd cd8d d93c
00000380: 7770 833d 337c d43d 32a8 393d 557e 023c
00000390: 9bb2 35bd 79dc 963d b820 d4bc a8b6 edbd
000003a0: 5b94 833c fead 34bd 3884 5abc 99c0 3b3d
000003b0: f8b8 b63d 1aa9 303b 6001 ec3d 554b f93d
000003c0: 9c98 37bd 7f8d c1bd 78f2 71bd 02a4 52bd
000003d0: c67f 76ba 75ad d5bb c62d e3bd 7fe1 db3d
000003e0: bd8e 3f3d 09cc 5b3d 3ad7 7c3d 70a8 05bc
000003f0: 1b19 ea3d 2e44 1c3b f217 8ebd 3bcd aa3d

lstm.weight_hh_l1 f4 [256, 64]
-0.06656929 -0.024938438 -0.0041741915 -0.0972481 0.041455805 0.103481494 -0.024574496 0.075266086
0.103867225 -0.06429068 0.014628062 -0.100812815 -0.03062924 -0.068818405 -0.024002025 -0.04945129
-0.06442252 -0.012122739 -0.045342725 0.03684196 -0.02941742 -0.04411209 -0.093937635 0.010671342
-0.12937051 0.039861497 0.035827562 0.05679664 0.055021033 -0.08615318 -0.02894214 0.093946025
0.08018921 0.07888496 -0.12347695 -0.055481482 -0.010104792 -0.09865958 0.13857 0.11924694
-0.04996536 0.03903412 -0.15239832 0.007593277 -0.045983836 0.04960204 -0.030928668 0.050047938
-0.04502295 -0.09269903 0.07731644 0.060478732 0.08533326 -0.10937598 0.006439146 -0.0047466946
0.04107244 0.0012023755 0.08856882 0.078671336 -0.031403158 -0.0281464 -0.116305195 -0.081053264
-0.012291005 -0.1377767 -0.017830994 0.003309429 0.13985723 0.08834955 -0.082079686 -0.09892977
-0.046949793 -0.05941839 -0.007239906 -0.076543696 -0.04579579 -0.10021484 0.14147563 0.01514844
-0.08523497 -0.002965053 -0.0664693 -0.06435992 -0.16425629 -0.13818564 -0.018219542 -0.06759913
0.11701605 0.047555856 0.11891438 0.1594039 0.08960089 0.015686579 -0.0051766606 -0.09566266
0.15809661 0.013839173 0.026223669 -0.0020019764 -0.056396574 0.057037905 -0.12716006 -0.07214287
-0.020325575 -0.03025487 0.07013759 -0.06598149 -0.041608468 0.059707556 0.03614391 -0.032646146
0.02692028 0.16147222 0.029290823 -0.07737821 0.027574101 -0.10431725 0.16823468 0.037111256
0.06533654 -0.071534984 -0.030978873 -0.118899256 -0.10820307 0.077984825 -0.058270518 -0.12514536
0.09280738 0.023450838 0.09705993 -0.023747705 -0.041485135 0.12180606 -0.047313683 -0.04964627
0.093654476 -0.009031435 -0.0018622659 0.028616542 0.11128855 -0.0817049 -0.07412582 -0.03595031
-0.006565571 0.11563452 -0.048982095 -0.07599795 0.079298 -0.076551475 -0.07498153 0.008268352
0.049549744 -0.025702786 0.109382756 0.016360816 -0.12308074 -0.10920627 0.013587512 -0.12009381
0.11725732 0.052041426 0.035221186 -0.11681838 0.020187877 -0.12025173 0.1091667 -0.12294483
-0.04139179 -0.100580886 0.023431784 0.030091483 0.02314392 -0.0003785844 -0.043907393 0.007668506
-0.08030657 0.10207495 0.11545285 -0.082114585 -0.101490624 -0.060739413 0.07229803 0.0068238666
-0.01100419 -0.018746193 0.064020656 0.10570394 0.02464108 0.056378867 -0.005293801 -0.08864392
-0.029953435 0.12394017 0.046628937 -0.0886559 -0.088120565 0.021895716 -0.008196069 0.046887916
0.10527116 0.07363781 -0.06571851 0.09452105 0.09922676 -0.15128133 -0.08042697 0.118485756
0.1276502 0.14421679 0.07390227 0.07814448 0.07534164 0.08784814 -0.024129897 0.06705003
0.053524256 -0.11446664 0.13920929 -0.051244494 -0.070592105 -0.08711688 0.114823565 -0.05902267
-0.0758831 -0.09479435 0.0043828776 0.05061627 0.06590313 -0.051147196 -0.105054714 -0.10975285
-0.13981213 -0.0917144 0.04174312 0.035392012 -0.028062249 -0.017905567 0.030171003 0.10144748
0.038430996 0.056184325 0.06872683 0.064256735 -0.05093629 -0.054394055 0.1279492 -0.12360776
-0.02424444 -0.15122396 -0.01662817 -0.043313 -0.06737129 -0.10951442 0.07602975 -0.024613872
00000000: 7b55 88bd b24b ccbc a8c7 88bb 032a c7bd
00000010: 90cd 293d 1bee d33d 7450 c9bc 1b25 9a3d
00000020: 57b8 d43d d5aa 83bd 8aaa 6f3c f376 cebd
00000030: 2cea fabc aaf0 8cbd e59f c4bc 708d 4abd
00000040: f4ef 83bd 749e 46bc 4bb9 39bd 98e7 163d
00000050: cdfc f0bc e1ae 34bd 6062 c0bd dad6 2e3c
00000060: b479 04be cf45 233d ecbf 123d 98a3 683d
00000070: bc5d 613d 1471 b0bd 1118 edbc c666 c03d
00000080: 3e3a a43d 708e a13d 7ce1 fcbd 8d40 63bd
00000090: 928e 25bc 090e cabd 4be5 0d3e bd37 f43d
000000a0: 7aa8 4cbd 3ee2 1f3d 4e0e 1cbe 06d1 f83b
000000b0: 8c59 3cbd 822b 4b3d 1e5e fdbc 11ff 4c3d
000000c0: fc69 38bd fdd8 bdbd 1558 9e3d 8cb8 773d
000000d0: 34c3 ae3d 8400 e0bd 79ff d23b 298a 9bbb
000000e0: 933b 283d 0799 9d3a 9263 b53d 701e a13d
000000f0: 99a0 00bd 4793 e6bc 6b31 eebd 41ff a5bd
00000100: 3660 49bc 5615 0dbe 4e12 92bc 01e3 583b
00000110: bc36 0f3e 9cf0 b43d 6519 a8bd b19b cabd
00000120: 6d4e 40bd b360 73bd bc3c edbb f1c2 9cbd
00000130: 5e94 3bbd 703d cdbd fdde 103e 2a31 783c
00000140: ac8f aebd 5651 42bb 0e21 88bd 22cf 83bd
00000150: cd32 28be 8980 0dbe 2641 95bc 6a71 8abd
00000160: 1ca6 ef3d eec9 423d 6289 f33d c73a 233e
00000170: ac80 b73d 2481 803c faa0 a9bb c9ea c3bd
00000180: 14e4 213e b3bd 623c 05d3 d63c 9733 03bb
00000190: 1800 67bd 94a0 693d 3f36 02be a4bf 93bd
000001a0: d281 a6bc 10d9 f7bc 4ca4 8f3d 4e21 87bd
000001b0: a46d 2abd e98f 743d a30b 143d f7b7 05bd
000001c0: eb87 dc3c f958 253e 4ff3 ef3c 7878 9ebd
000001d0: 15e3 e13c 48a4 d5bd b645 2c3e f901 183d
000001e0: 2acf 853d ef80 92bd 68c7 fdbc 7481 f3bd
000001f0: 9299 ddbd 82b6 9f3d 11ad 6ebd 1b26 00be
00000200: cc11 be3d f91b c03c 5bc7 c63d 8c8a c2bc
00000210: 51ec 29bd 7575 f93d fecb 41bd e359 4bbd
00000220: ebcd bf3d 95f8 13bc 4617 f4ba 3d6d ea3c
00000230: 40eb e33d e654 a7bd 47cf 97bd a240 13bd
00000240: 0024 d7bb cbd1 ec3d 73a1 48bd d0a4 9bbd
00000250: fd66 a23d 05c7 9cbd eb8f 99bd fb77 073c
00000260: acf4 4a3d a68e d2bc 1104 e03d 1e07 863c
00000270: c111 fcbd 89a7 dfbd 289e 5e3c bef3 f5bd
00000280: 9b24 f03d 6429 553d 1744 103d 7a3e efbd
00000290: 0c61 a53c 8a46 f6bd ca92 df3d 80ca fbbd
000002a0: 708a 29bd 5afd cdbd 03f4 bf3c 6a82 f63c
000002b0: 5198 bd3c bd7c c6b9 3dd8 33bd 1748 fb3b
000002c0: c577 a4bd ac0c d13d 8b72 ec3d b12b a8bd
000002d0: 51da cfbd e4c9 78bd fd10 943d be9a df3b
000002e0: eb4a 34bc 9e91 99bc 431d 833d 4f7b d83d
000002f0: 17dc c93c 87ed 663d 9f77 adbb f28a b5bd
00000300: e860 f5bc 58d4 fd3d fcfd 3e3d 3991 b5bd
00000310: 8e78 b4bd a55e b33c ce48 06bc 8b0d 403d
00000320: 6898 d73d 6ccf 963d 6d97 86bd 4194 c13d
00000330: 6637 cb3d 7ee9 1abe e5b6 a4bd a9a8 f23d
00000340: bcb6 023e 91ad 133e 135a 973d 370a a03d
00000350: b84c 9a3d bae9 b33d 10ac c5bc 8751 893d
00000360: 403c 5b3d 7c6d eabd e18c 0e3e bfe5 51bd
00000370: 9892 90bd 566a b2bd 9e28 eb3d c1c1 71bd
00000380: 9968 9bbd 8a23 c2bd 3e9e 8f3b 0253 4f3d
00000390: 38f8 863d b97f 51bd ed26 d7bd 1ac6 e0bd
000003a0: e92a 0fbe c2d4 bbbd d5fa 2a3d 37f7 103d
000003b0: cde2 e5bc b2ae 92bc 2e29 f73c b2c3 cf3d
000003c0: d269 1d3d 8921 663d a7c0 8c3d 0999 833d
000003d0: 92a2 50bd 4dcc 5ebd 1d05 033e 1126 fdbd
000003e0: 479c c6bc 74da 1abe cd37 88bc f968 31bd
000003f0: f5f9 89bd 1949 e0bd 7cb5 9b3d 08a3 c9bc

lstm.bias_ih_l1 f4 [256]
0.10825576 0.14695515 0.12906215 -0.077383384 0.010128945 -0.107787155 0.119659975 -0.03012184
0.11385597 0.029551145 -0.020052858 -0.05835171 0.068524785 0.091922544 -0.020478228 0.09015417
0.102091506 -0.0032519682 -0.027767122 0.0244865 0.13663645 -0.034672495 -0.07166782 0.085020766
-0.026622415 0.05736334 0.05073984 0.01125606 0.05729703 -0.07281906 -0.09914764 -0.0540409
0.069587335 0.10256337 0.06952556 -0.11455153 -0.01723601 -0.10236313 0.053478666 0.03461598
0.099417895 0.032468103 0.102011144 -0.08812607 0.043942153 0.08159679 -0.104406096 0.10149472
-0.0072127366 0.026102154 0.016823875 0.03348684 -0.030642604 0.004977114 0.04370276 -0.06289198
-0.05621102 -0.064835034 -0.047444746 -0.022812169 -0.07551125 -0.10938009 0.08342715 0.078495085
-0.014574187 -0.022213727 -0.026497547 0.08484575 0.026472583 0.0145430695 0.09247679 0.124393426
-0.030479016 -0.024593385 -0.004980248 0.066149645 -0.025508476 0.08216 0.110783175 0.13999392
-0.0036179433 0.0846948 -0.0016985306 -0.078524634 -0.018104186 -0.0657735 0.03619629 -0.076245494
0.11322923 -0.0670171 0.115181744 0.17472032 -0.027804276 0.099593475 0.026921963 -0.033927105
0.09295613 -0.05094802 0.11819612 0.04508233 0.0663446 -0.075106725 -0.076267555 -0.09593108
0.051550955 0.13417575 0.060503937 0.005400404 0.00495997 -0.004880477 0.04988282 -0.08610665
0.040539913 -0.06524743 0.011678761 0.028502187 -0.07714445 0.14966705 0.009560816 0.024243368
0.15400918 0.13765527 0.040785093 0.06690554 -0.048715092 0.10148889 -0.06487664 -0.056151003
0.02006037 0.05342156 0.021548444 -0.068200566 0.016819512 0.09401968 0.05052608 0.04033192
-0.06347431 -0.007883077 0.062831596 0.06728394 -0.059686992 -0.061013773 0.08631266 -0.054528676
0.020147247 -0.04468336 -0.001094568 0.012630558 -0.11387676 -0.020413872 0.0181197 0.046536863
-0.04092114 -0.032155793 0.1087049 -0.094083 -0.12158176 -0.0063513354 0.0019989128 -0.032664772
0.03430474 -0.13265605 -0.055028066 0.06763655 0.0010964337 -0.10126993 -0.033441827 -0.038633946
0.04842289 0.11171021 0.0420976 0.0136393355 0.015024235 -0.06227357 0.022354865 -0.061534677
0.09581643 0.007561337 -0.073604524 -0.016010985 -0.07659392 0.1168188 0.052580785 -0.09651561
0.067230634 0.0022713188 -0.11810386 -0.14419504 -0.054441728 -0.008917607 -0.03644398 0.091473855
-0.031013424 0.06031153 0.00031665436 -0.07240039 0.06980405 0.115121305 0.12264656 -0.053036258
-0.0670136 0.10907147 0.00445715 0.068252824 -0.03638962 0.097420745 0.11065402 0.010502659
-0.03246378 -0.058344305 -0.11437752 0.12171389 0.06891968 0.008827282 0.008427837 0.047909625
-0.10863061 0.040073387 -0.038813904 0.0963791 -0.01046541 0.02872558 0.10285482 -0.007339511
0.048975702 -0.00942667 0.119742796 -0.031680394 -0.04286236 0.124545455 -0.0852463 -0.06342503
0.08798744 0.09516209 0.09254277 0.07065677 0.03804565 0.0063572656 -0.025135154 -0.017595915
-0.094924234 -0.03626924 -0.008135882 0.025996141 -0.060702886 0.12615371 -0.007415776 -0.0023822847
-0.00206959 -0.06348059 -0.043965038 0.11624086 -0.009994698 -0.116352394 -0.07068462 0.03268809
00000000: 32b5 dd3d 697b 163e de28 043e 2e7b 9ebd
00000010: e0f3 253c 83bf dcbd 4a10 f53d 14c2 f6bc
00000020: 522d e93d 3e15 f23c e445 a4bc 3402 6fbd
00000030: b956 8c3d e341 bc3d f5c1 a7bc c0a2 b83d
00000040: 5a15 d13d f91e 55bb e077 e3bc ea97 c83c
00000050: 6dea 0b3e bf04 0ebd 94c6 92bd 5e1f ae3d
00000060: 4017 dabc d2f5 6a3d 94d4 4f3d 566b 383c
00000070: 4ab0 6a3d 2922 95bd eb0d cbbd fe59 5dbd
00000080: ce83 8e3d be0c d23d 6b63 8e3d fe99 eabd
00000090: 8832 8dbc c3a3 d1bd 720c 5b3d 7cc9 0d3d
000000a0: 9c9b cb3d 46fd 043d 38eb d03d 717b b4bd
000000b0: b0fc 333d 381c a73d ddd2 d5bd 77dc cf3d
000000c0: d258 ecbb 2fd4 d53c 39d2 893c 7f29 093d
000000d0: 3306 fbbc 0f17 a33b aa01 333d 83cd 80bd
000000e0: 873d 66bd 3bc8 84bd 6c55 42bd 96e0 babc
000000f0: a4a5 9abd ab02 e0bd dbdb aa3d 08c2 a03d
00000100: 92c8 6ebc 90f9 b5bc 6211 d9bc 9cc3 ad3d
00000110: 08dd d83c 0e46 6e3c 7964 bd3d fbc1 fe3d
00000120: 21af f9bc 1178 c9bc 5931 a3bb 7779 873d
00000130: 27f7 d0bc 8143 a83d 4ae2 e23d 915a 0f3e
00000140: 041b 6dbb 7874 ad3d 3ba1 deba 86d1 a0bd
00000150: 3b4f 94bc 42b4 86bd 9042 143d 9926 9cbd
00000160: bae4 e73d 4340 89bd 68e4 eb3d e2e9 323e
00000170: cbc5 e3bc aaf7 cb3d 738b dc3c 26f7 0abd
00000180: c95f be3d dfae 50bd cf10 f23d 40a8 383d
00000190: addf 873d 8ed1 99bd 2a32 9cbd 8477 c4bd
000001a0: 1827 533d 5e65 093e fad2 773d dff5 b03b
000001b0: 3e87 a23b 69ec 9fbb ee51 4c3d af58 b0bd
000001c0: 2e0d 263d 72a0 85bd 4658 3f3c 6b7d e93c
000001d0: e9fd 9dbd 5242 193e f8a4 1c3c 079a c63c
000001e0: 95b4 1d3e 81f5 0c3e 450e 273d c605 893d
000001f0: 7a89 47bd 68d9 cf3d 0bde 84bd 98fe 65bd
00000200: a555 a43c 91d0 5a3d 5d86 b03c bdac 8bbd
00000210: 13c9 893c 648d c03d 6ff4 4e3d 1533 253d
00000220: d2fe 81bd 0528 01bc daad 803d 2acc 893d
00000230: 597a 74bd 94e9 79bd b1c4 b03d 7659 5fbd
00000240: d70b a53c e605 37bd 9c77 8fba 66f0 4e3c
00000250: 3838 e9bd fe3a a7bc c46f 943c 709d 3e3d
00000260: ed9c 27bd cbb5 03bd ada0 de3d 97ae c0bd
00000270: dcff f8bd dd1e d0bb 3100 033b 7fcb 05bd
00000280: 2183 0c3d fdd6 07be 1c65 61bd 0885 8a3d
00000290: 36b6 8f3a 9c66 cfbd 4cfa 08bd a13e 1ebd
000002a0: 1557 463d 53c8 e43d 886e 2c3d 8577 5f3c
000002b0: 3528 763c 9212 7fbd 8d21 b73c c90b 7cbd
000002c0: 683b c43d 18c5 f73b f8bd 96bd 7829 83bc
000002d0: 46dd 9cbd b23e ef3d f35e 573d faa9 c5bd
000002e0: 37b0 893d 68da 143b 70e0 f1bd dda7 13be
000002f0: 4afe 5ebd 281b 12bc 4846 15bd a556 bb3d
00000300: dd0f febc 3909 773d a104 a639 a846 94bd
00000310: 6df5 8e3d b8c4 eb3d 1f2e fb3d 8c3c 59bd
00000320: 6d3e 89bd dd60 df3d 490d 923b 23c8 8b3d
00000330: 480d 15bd 8784 c73d 939e e23d 5813 2c3c
00000340: bef8 04bd 70fa 6ebd c33e eabd 2245 f93d
00000350: c325 8d3d 4ea0 103c e914 0a3c e23c 443d
00000360: ba79 debd fe23 243d 54fb 1ebd 6862 c53d
00000370: 1c77 2bbc e851 eb3c 8ca5 d23d 4880 f0bb
00000380: bf9a 483d 5272 1abc b63b f53d 4dc3 01bd
00000390: 7190 2fbd b011 ff3d 9d95 aebd fbe4 81bd
000003a0: c232 b43d 58e4 c23d 1087 bd3d 7fb4 903d
000003b0: c1d5 1b3d 9c50 d03b 3de8 cdbc 4f25 90bc
000003c0: a367 c2bd 0e8f 14bd 5d4c 05bc dcf5 d43c
000003d0: 97a3 78bd 702e 013e 0a00 f3bb 1b20 1cbb
000003e0: f5a1 07bb 1d02 82bd af14 34bd b00f ee3d
000003f0: cdc0 23bc 2a4a eebd 19c3 90bd f2e3 053d
