output/LSTM2CNN/LSTM2CNN_adam_64_1000/model/LSTM2CNN_epoch_456.pth (torch, 353538 bytes, 16 tensors)

lstm.weight_ih_l0 f4 [256, 11]
000000 da 67 55 bd bb 7c 9d 3d 2e fe b6 ba 0e 2d 01 bd
       -0.052100994 0.07689806 -0.001396125 -0.031537108
000010 da 3b d7 3d ca dd b8 bd 9a ea 9f 3d e3 8b 43 3b
       0.10509463 -0.09026678 0.078084186 0.0029838018
000020 fc e4 6e 3d 42 4c 82 bc d6 06 0c 3a 0c 02 d0 bd
       0.058323845 -0.015905503 0.0005341595 -0.101566404
000030 a9 6a ee bc 9f ff f8 3c b3 30 1c 3d ae c4 d9 bd
       -0.029103594 0.030395327 0.03813238 -0.10633217
000040 29 2d 8c bd bb 29 c0 3d 22 83 88 bd ca 47 33 bc
       -0.06844551 0.093829595 -0.066656366 -0.010942409
000050 6e 7e ae bd ea 1d aa bc f6 29 03 3e da 9c a6 3d
       -0.08520208 -0.020766217 0.12808976 0.08135386
000060 4b 4a dd bd 5e dd fe 3b b8 2b a9 3d ae b8 48 3d
       -0.10805186 0.007777854 0.08260292 0.04900425
000070 bc fd f8 3d e6 a1 13 3d 2d 7c 61 bb 0a 82 b0 bd
       0.12157771 0.03604307 -0.003440629 -0.08618553
000080 aa 4c f2 3d 48 75 af bd 8f d4 9b 3d 1f 92 94 3d
       0.11831029 -0.085672915 0.07608902 0.07254433
000090 f6 8c fa 3c 8a 96 8a 3d 8e 06 b2 3d c7 f2 c1 3d
       0.030584794 0.06766994 0.086926565 0.09470134
0000a0 ce 5e 00 3e d1 9e 2f bd 29 89 f2 3d 37 18 f0 3c
       0.12536165 -0.04287607 0.118425675 0.029308422
0000b0 0a eb 5e 3d 03 91 72 3d c2 ca 21 bd ae 7a 01 3e
       0.05442337 0.059220325 -0.039500006 0.12644455
0000c0 df a8 94 bc cc b4 c1 3d a4 cd 66 3d 0b bc 24 bd
       -0.01814693 0.094583124 0.056348458 -0.040218394
0000d0 bc de 33 3d 56 cd cf bc 61 58 58 3d 40 5d 02 3e
       0.043913588 -0.025366466 0.05281866 0.12730885
0000e0 68 6a 64 bd cf 8d e7 3d 10 ff e8 bb 58 8d 0a 3e
       -0.05576554 0.11306345 -0.007110484 0.13530481
0000f0 10 80 ad bd 8a cc 70 3d 81 ba 1c 3d 87 5f a5 3d
       -0.084716916 0.058788814 0.0382638 0.08074861
000100 13 57 69 3d d3 62 e6 3d f8 bf 84 bd 32 72 a7 bd
       0.056967806 0.11249318 -0.06481928 -0.08176078
000110 cc c0 ef 3d 5e ce 04 be 97 50 57 3c d0 7d a4 bd
       0.11706695 -0.12969348 0.013141773 -0.08031809
000120 ae a7 a5 3d 97 58 43 bd c7 65 89 3d 84 1b b4 3d
       0.08088623 -0.047691908 0.067088656 0.08794311
000130 f1 32 5c 3d 69 45 98 3d c1 38 9b bd 80 fc cf bd
       0.05375952 0.07435114 -0.07579184 -0.101555824
000140 66 15 b0 bd 61 2e 78 3d 2d 1c 82 bd 24 3a fd 3d
       -0.085978314 0.060591105 -0.0635303 0.12364605
000150 7e a8 a9 3d fc 01 6d 3d 97 76 e0 bd 2e c7 9e bd
       0.082840905 0.05786322 -0.10960119 -0.07752834
000160 9f c3 c7 bd 0f 24 8d 3d 8b 7b d8 bd 33 09 57 bd
       -0.09754109 0.06891643 -0.10570439 -0.052499007
000170 5f 61 4f 3d e6 57 2a 3b 54 ed 64 bc e9 c9 00 bc
       0.05062997 0.0025992333 -0.013972599 -0.007860639
000180 26 ba 17 bc e1 0b 10 be 15 ac 47 3d c0 45 c2 bd
       -0.00926069 -0.14067031 0.048748095 -0.0948596
000190 63 b0 a7 bc 01 5f 3f 3d a2 1f b6 3d ef 92 b7 bd
       -0.02046985 0.046721462 0.08892752 -0.08963572
0001a0 db 07 ab 3d 48 fc ee bd cf bf 79 3c a3 0c bd bc
       0.08351108 -0.116692126 0.015243485 -0.023077315
0001b0 2c ec 54 3a 73 fa a1 bd d8 5e 02 be 20 f6 cb 3d
       0.00081223506 -0.079090975 -0.12731493 0.09959054
0001c0 e4 65 b5 bd 8e 23 03 bd 98 7a 95 3c 0d 91 f3 bd
       -0.08857325 -0.03201633 0.018246934 -0.118929006
0001d0 e5 bd a8 bd d6 3d b4 3d dd 3e 21 3c 0d 2b 96 3d
       -0.082393445 0.08800857 0.009841648 0.0733243
0001e0 86 eb 98 bd 72 ad 99 bd f8 04 df 3c a8 0f 8d 3d
       -0.074667975 -0.07503785 0.027224049 0.06887752
0001f0 29 9f 5b 3d f2 ce 18 3c ac 9d 20 bb fb e5 a1 3c
       0.053618584 0.009326683 -0.0024508042 0.019762984
000200 7e c4 d8 bd a4 06 8e bc 27 cc 86 3c 19 5a ee bd
       -0.10584353 -0.01733715 0.01645477 -0.116382785
000210 ed 1e 95 bd 3d 3a c4 3d 96 2a ea 3d fd 0e 35 3d
       -0.07281289 0.095814206 0.11433904 0.044203747
000220 13 a9 1b 3e 3e 23 9b 3d 5d f3 a4 3d 16 48 00 ba
       0.15201215 0.07575081 0.0805423 -0.0004893554
000230 d6 ac e8 3d 43 69 48 bd be 81 4c bd 12 d6 cb 3d
       0.11361091 -0.04892851 -0.04992842 0.0995294
000240 fe 2b b9 bd d9 04 d0 bd d6 5d 02 3e f6 22 cf 3d
       -0.09041594 -0.101571746 0.12731108 0.1011409
000250 2c 0a 8b bd 44 37 bd bd fb 1a fb 3c 60 1a 8e 3d
       -0.067890495 -0.09239057 0.030652514 0.069386244
000260 39 1b 93 3d 50 21 8d bc ae b1 fd bd 39 9d 11 bd
       0.07182927 -0.017227799 -0.12387405 -0.03555033
000270 b1 11 c4 bd 33 62 57 3d bb 85 06 bd 45 3b cd 3d
       -0.09573687 0.052583884 -0.03284238 0.100210704
000280 58 e6 a3 bd 0e d0 cd 3d 1e a1 12 3d 61 29 ac 3d
       -0.08002919 0.10049449 0.035798185 0.0840633
000290 38 37 9c bd 8d e7 91 bd fe 95 c6 bd b3 b9 11 3e
       -0.0762772 -0.07124243 -0.096965775 0.14230995
0002a0 13 1c d7 3d 68 3f 24 bd 32 d9 1c 3d 10 07 b8 bd
       0.105034016 -0.04009953 0.03829307 -0.08985722
0002b0 71 0f 75 bd c8 41 e3 bc d0 0b ae 3d 47 50 11 bd
       -0.05982918 -0.027741328 0.08498347 -0.03547695
0002c0 b4 45 4b 3d 1a 39 87 3c 59 71 b6 bd 59 8f bf bd
       0.04962702 0.01650672 -0.08908338 -0.09353513
0002d0 3e 4c 86 3d 04 57 54 bd 1a 37 12 3d f9 bd 28 bc
       0.06557511 -0.051840797 0.03569708 -0.010299199
0002e0 50 79 7e 3d d0 87 dc 3c c5 36 3e bd 77 a6 bc bd
       0.06212741 0.02692023 -0.04643895 -0.09211438
0002f0 82 b3 b4 3d 57 05 a7 bd 11 18 98 ba 7c 55 ba 3d
       0.08823301 -0.08155315 -0.0011603852 0.09098336
000300 3d f7 8d bd 55 e0 e6 bc b0 05 3d bd e0 6f 4f ba
       -0.069319226 -0.028183142 -0.046148002 -0.0007913094
000310 52 a0 c4 bd a4 ea e6 bd 7e e0 36 bd 8b b7 20 3c
       -0.09600891 -0.11275223 -0.044647686 0.009809385
000320 5e 4e a3 bd bd f6 bf 3c 4e c9 d1 bd 7d 89 b9 3d
       -0.07973932 0.023433084 -0.10243474 0.09059427
000330 15 32 12 3b 67 57 c1 bd 3b cd 57 3c ee be 0c bd
       0.0022307683 -0.09440499 0.013171489 -0.034361772
000340 29 31 0a 3d b6 1a 5c bd 24 7f 8d 3d 31 1e 95 3d
       0.03373829 -0.05373641 0.06909016 0.07281149
000350 1d ae 31 bc 70 30 5d 3d 9d b8 53 bd af b8 a7 3c
       -0.0108447345 0.05400127 -0.051689733 0.020473806
000360 1d fa 7a bd 07 c8 9c bd 95 c1 a3 bd 80 b0 2b bd
       -0.061273683 -0.0765534 -0.07995907 -0.04191637
000370 20 79 70 3d f9 eb 8d 3c 32 fc 47 3c 31 d6 0b be
       0.058709264 0.017324435 0.012206124 -0.13655926
000380 03 4f a1 bc 69 f7 16 3c 8c 38 b2 3d 87 d2 e1 3c
       -0.019690996 0.009214261 0.08702192 0.027566208
000390 7f 78 97 3d 3d 87 a3 bd 31 db d6 bc 6a 35 79 3d
       0.0739603 -0.07984779 -0.026227565 0.060841955
0003a0 82 22 26 bd ec d9 21 be 9f 2b 8d 3d 94 a5 08 bd
       -0.040560253 -0.15805787 0.06893086 -0.033361033
0003b0 76 5c 8e bc 5b 04 bb 3d 03 f4 11 be 93 ac 08 be
       -0.017378073 0.0913169 -0.1425324 -0.13347082
0003c0 c7 ee a7 bc 9f 8b 62 bd 50 9e 61 bd 98 9a ea bd
       -0.0204996 -0.055308934 -0.05508262 -0.11455268
0003d0 fc 4c a9 3c 97 de e1 3d 04 9b 48 bc 43 85 8f 3b
       0.020666592 0.11028784 -0.01224399 0.0043798997
0003e0 5a 4f 0d 3d a0 b5 68 3d d5 91 11 bd 75 b9 a7 3d
       0.034499504 0.056813836 -0.035539467 0.0818967
0003f0 1a 6f c7 bc 12 7c ea bd ee 0c 9d 3d 9c f8 5a 3d
       -0.02434497 -0.11449446 0.07668482 0.05345975

lstm.weight_hh_l0 f4 [256, 64]
000000 ea 7d 10 bc 9c aa e9 3c 12 c3 07 3d a2 2b ae 3d
       -0.008819083 0.028523736 0.033145018 0.08504416
000010 6a fb 5d bd 85 ac 71 3d 87 2f f4 bc 7d 27 06 3e
       -0.054194845 0.059002418 -0.029807819 0.13101001
000020 3d e5 d8 bc 47 ac b3 3d 67 1c db 3d a4 88 8c 3d
       -0.026476497 0.08773094 0.10698777 0.06862
000030 ef 48 01 3e 0e e9 76 bd 94 29 9c bd 74 51 0a bd
       0.12625478 -0.060280852 -0.07625118 -0.033769086
000040 ec 0d 51 3d 6d 85 e8 ba 89 68 59 3b 9e 26 85 bd
       0.051038668 -0.0017739959 0.003317388 -0.06501506
000050 8d 75 af 3d 32 08 98 3c 1d 0d d2 bd a2 f9 8d 3d
       0.08567343 0.018558595 -0.102564074 0.06932379
000060 bd 62 09 be 64 3f 64 3d a0 50 bf bd 29 8b a7 bd
       -0.13416572 0.055724517 -0.0934155 -0.081808396
000070 1f 24 8d 3c b0 9f 90 3c 38 d9 87 b8 9b dc ce bc
       0.017229138 0.01765427 -6.477762e-05 -0.025251677
000080 06 9b b5 3d fc 4f 94 3c 63 3f 97 bc 50 33 6a 3d
       0.08867459 0.018104546 -0.018462842 0.05717784
000090 44 18 07 3e a9 da b8 bd 4f 32 8f bc b0 6f fd bc
       0.1319285 -0.09026081 -0.017480044 -0.030937046
0000a0 e5 f8 82 3d 83 73 25 3d a1 58 d8 3d da 0c d9 bd
       0.06395129 0.040393364 0.105637796 -0.10598154
0000b0 8f 97 0a 3d 3d a7 9b bd 6a 1c b2 3c b2 2c af bd
       0.033835944 -0.076002575 0.021742065 -0.08553447
0000c0 3c 78 ed bc f7 6f df bd c3 ab ce 3d 82 76 df 3d
       -0.028987996 -0.109100275 0.10091355 0.109112754
0000d0 c1 85 a4 3d aa 42 b3 3b 80 24 9d ba 31 f5 a8 3d
       0.08033324 0.0054705935 -0.0011989027 0.082498915
0000e0 4a a6 2c bc 20 52 d3 3d 20 d6 cd 3c f3 b4 88 3d
       -0.010537693 0.103183985 0.025126517 0.06675138
0000f0 93 bc 10 bd 06 c8 37 3c 8f 96 d7 bc 70 48 ce bd
       -0.03533609 0.011217123 -0.02631691 -0.1007241
000100 aa b5 ec bd df e1 94 bc 14 6c 17 be 7d 3f 72 3d
       -0.11558087 -0.01817411 -0.14787322 0.05914258
000110 37 5a 17 bd 79 49 c5 3c 10 9e e4 3c 62 4b f6 bc
       -0.03695127 0.024082886 0.027907401 -0.030065242
000120 23 a1 61 3c 02 a0 07 3e 31 14 5b bd b6 4f 69 bb
       0.013771328 0.13244632 -0.053486053 -0.003560049
000130 e4 dc 01 bd c5 46 6c bc 8a 12 9d bc 62 f8 b5 3d
       -0.0317048 -0.01442117 -0.01917388 0.08885266
000140 e7 8d 92 3d 0f 82 19 3d 4a 59 b6 bd 03 73 df bd
       0.07155972 0.03747755 -0.08903749 -0.109106086
000150 bd bb 32 3d 20 fc d9 bd 5d 78 93 3c 21 31 61 bd
       0.043636072 -0.10643792 0.01800173 -0.054978494
000160 75 43 dc bd dc 46 bb 3d 2d d1 c6 3c c5 ee f3 3d
       -0.10755054 0.09144375 0.024269665 0.11910776
000170 33 36 d2 3d 7b e7 f2 3c 00 02 b8 3c c5 7a 26 3e
       0.10264244 0.029651394 0.022461891 0.1625777
000180 f6 4a a9 3d 30 61 82 3d bd 22 51 3c a4 41 bd bc
       0.08266251 0.06366193 0.01276463 -0.023102589
000190 69 49 de bd 98 e4 f5 bd 2e e0 d4 bc 2a 01 03 3d
       -0.108538456 -0.120064914 -0.025985803 0.031983532
0001a0 1b 79 cd 3d d6 e3 f8 bd b1 e4 8f 3c be 5b f6 3d
       0.10032865 -0.12152831 0.017565103 0.12029217
0001b0 c8 b1 a5 bb c5 27 3c 3d 27 f3 83 bc 2e ee c1 3d
       -0.0050565936 0.045936365 -0.016107155 0.09469257
0001c0 f8 2b 1d 3d 8f 3e 2e 3d b6 c9 f9 bc 36 06 e7 3d
       0.03837201 0.04254013 -0.030491691 0.112804815
0001d0 9e de 47 bc 2e 96 a0 3d 54 12 9f 3d cd 6d cd bd
       -0.012199072 0.078411445 0.07767168 -0.100307085
0001e0 ba b9 e1 3d bb c1 4f bd c4 bd dd 3d 07 e4 ea 3c
       0.11021753 -0.050721865 0.108272105 0.028673185
0001f0 9e cd e0 3c 21 a0 90 bd 22 a5 82 3d e3 32 8f 3d
       0.027441796 -0.07061792 0.06379153 0.06992128
000200 87 a5 5a bd 51 81 3f bd 7d e0 8b bd df c2 9d 3d
       -0.053380515 -0.046754185 -0.06829927 0.07703184
000210 b9 31 86 bb c2 cd 91 3d 4e 14 53 bd 98 5c 8d bd
       -0.004095283 0.07119323 -0.051533036 -0.069024265
000220 7e c6 66 bd 55 af c3 bd 40 bc d5 3d 30 06 dc 3d
       -0.05634164 -0.09554926 0.104362965 0.10743368
000230 6c 60 1f bb 47 56 e6 bd 73 3d 0f 3d e9 7f 26 bc
       -0.0024318947 -0.11246925 0.034970712 -0.010162332
000240 eb 2c 82 bd 5c f1 96 bd 4e d4 dd bb 0c 4d 0d bd
       -0.06356224 -0.073702544 -0.0067696935 -0.034497306
000250 49 6c 42 3d 9c 06 03 be 1a c9 d5 3d b6 2c 89 3d
       0.04746655 -0.1279549 0.10438748 0.06697981
000260 93 ca c8 3d ea e1 ad 3d 51 bc 04 be c2 d7 2d bd
       0.09804263 0.08490355 -0.12962462 -0.04244209
000270 af 15 a9 bc 45 e7 e3 3d d1 b8 99 3d 04 a2 01 3c
       -0.020640222 0.111280955 0.07505954 0.007912163
000280 39 fa c8 3d 8d 21 aa bd 28 34 28 bd d3 54 78 3d
       0.09813351 -0.083071806 -0.041065365 0.06062777
000290 32 11 9a 3d d6 c8 45 bd 68 8b 47 bc 58 e3 06 bd
       0.07522811 -0.048287235 -0.012179233 -0.032931656
0002a0 dc 79 36 3d 15 64 c9 bd 92 64 bd bd eb 05 2f 3c
       0.044549808 -0.09833542 -0.09247698 0.010682563
0002b0 f3 9f 31 3d 96 3b 56 3d a9 72 ba bd e9 e4 22 3d
       0.04336543 0.05230292 -0.09103901 0.039769087
0002c0 e0 be 83 3c d0 e4 94 bd 9e 2f bc 3d c9 0b a3 3a
       0.016082227 -0.07270205 0.0918877 0.0012439425
0002d0 1c 58 e8 bd 10 9c b8 3d 80 6b cf bd 65 9e a7 bd
       -0.113449305 0.090141416 -0.10127926 -0.08184508
0002e0 b8 67 0b 3e 13 eb 15 3d 87 71 70 3d a5 90 03 3d
       0.13613784 0.036601137 0.058702018 0.032120366
0002f0 04 c9 0f bc 99 01 ce bd 33 d3 cb 3d 00 c1 ef bd
       -0.008775953 -0.100588985 0.099523924 -0.11706734
000300 8b b4 82 3d 0a 70 f2 3d b6 50 a1 3d 2a b0 0e 3e
       0.06382092 0.11837776 0.078767225 0.13934389
000310 84 be b2 3c 3f 93 43 3d 73 14 b7 3d c1 16 05 be
       0.02181936 0.047747847 0.08939447 -0.12996961
000320 8d 01 f5 bc 48 9f c6 bd f4 18 ac 3d e5 c9 3d bd
       -0.029907966 -0.09698349 0.08403197 -0.04633512
000330 52 4e 1d 3e 38 35 d2 3d c5 8c 0b be ab 9d 2e bd
       0.15361908 0.10264057 -0.13627918 -0.042630833
000340 bd a6 75 3b 90 b1 0e 3e 40 55 c7 bd 1e b8 8c 3c
       0.0037483417 0.13934922 -0.09733057 0.017177638
000350 16 30 3d bd c9 da a4 3c a2 32 dd 3d 2c 6e 6e bd
       -0.046188436 0.020123856 0.10800673 -0.058210537
000360 d7 05 a4 3d 45 ea b1 3b e4 72 de bd db 74 a1 3d
       0.08008926 0.0054295384 -0.108617574 0.078836165
000370 25 53 ba bd 05 d3 b2 bd 32 85 15 bd 30 98 64 bc
       -0.0909789 -0.08731655 -0.036503978 -0.0139523
000380 a0 6b 17 3d c5 0c 2e 3d 2f 6d ce 3a ea 50 a0 bd
       0.036967874 0.042492647 0.0015749092 -0.07827933
000390 1e 2d 93 bd 96 7f 89 bd ee 9b 67 bd 88 11 21 bd
       -0.0718634 -0.06713788 -0.05654519 -0.03932336
0003a0 da 23 68 3d a8 06 1f 3d 43 85 24 bd 69 2f 7f bd
       0.056674816 0.038824707 -0.04016615 -0.062301073
0003b0 cc 3a b6 3c 3c 12 e2 bd d4 c7 15 be 1e 7d 5b bd
       0.022244833 -0.11038634 -0.1462701 -0.053586118
0003c0 dc c8 07 bd 12 e5 33 3d 16 eb 45 3d 50 b6 12 3d
       -0.03315054 0.04391963 0.0483199 0.035818398
0003d0 51 88 cb 3c 64 fa 89 bd 7a e0 5b 3d 80 ed 95 bd
       0.024845274 -0.06737211 0.053680874 -0.0732069
0003e0 3f f2 e6 bc e4 38 0d be 5a db b9 bd c3 90 62 bd
       -0.028191684 -0.13791233 -0.09075041 -0.055313837
0003f0 11 09 41 3d aa d3 09 3d 48 ab c8 bd 36 0b c9 3c
       0.047127787 0.033649124 -0.09798294 0.024541479

lstm.bias_ih_l0 f4 [256]
000000 3a 2a fb bd 66 14 28 3d b2 c9 9a bd 08 f1 76 3d
       -0.122639135 0.04103508 -0.075580016 0.06028846
000010 e7 09 94 bd 19 34 04 bd 95 e8 15 bd 7e 2b 26 bd
       -0.07228451 -0.032276247 -0.03659876 -0.04056882
000020 c2 0b fc bd 79 92 d2 3d a1 7d bf bd 34 4f b5 3d
       -0.1230693 0.10281844 -0.09350134 0.088529974
000030 19 88 69 3c 49 b1 c8 bd 72 27 15 3a de da ad 3d
       0.01425364 -0.097994395 0.0005689777 0.08489011
000040 e3 73 42 bd 5a 92 8f bc 73 ea 3a 3c 37 fe f1 3d
       -0.0474738 -0.01752584 0.011408436 0.11816066
000050 76 27 00 3e 74 a7 74 3c 85 30 d2 bd e8 e9 96 bd
       0.12515053 0.014932502 -0.102631606 -0.07368833
000060 04 85 1e 3d 3f 7e 8f bd d8 a4 c3 3c b4 26 ae 3d
       0.038701072 -0.070065014 0.023882315 0.08503476
000070 43 6e c6 3c f7 67 12 bd 87 81 e9 3d ca b5 00 bd
       0.024222499 -0.03574368 0.114016585 -0.031423368
000080 20 e8 fd 3a df 9a 0a 3e ae 1f 48 3c 8b 0f ea 3d
       0.0019371547 0.13535641 0.012214584 0.11428746
000090 2e 99 8f 3b 32 21 76 3b e6 71 70 3d 2d e2 c8 bd
       0.004382274 0.0037556407 0.058702372 -0.098087646
0000a0 0b d6 b5 37 8d ea dc 3c 76 b1 b2 3d ab d4 aa bd
       2.1676553e-05 0.026967311 0.08725254 -0.083413444
0000b0 77 0e b4 bd ae d0 ba 3d 9c 33 15 3d 2f d3 3a bd
       -0.087918214 0.09121834 0.03642617 -0.045611557
0000c0 ba b9 66 3c 93 40 fb bc 11 34 a9 3d 94 1c dd 3d
       0.014082367 -0.03067044 0.08261884 0.107964665
0000d0 ba 95 c2 3c 18 48 ca bd 23 c1 f3 bd b0 79 a3 3b
       0.023753036 -0.09877032 -0.11902072 0.0049888715
0000e0 df d9 1f bd c5 23 b1 3d e9 99 26 3d 48 43 10 3d
       -0.039026137 0.086494006 0.040674124 0.035220414
0000f0 26 68 b7 bc 32 2d 25 3d 2d 2d de 3b eb 04 a7 bc
       -0.022388529 0.040326305 0.0067802877 -0.020388087
000100 d3 1f 68 3d d8 6d ab bd ec ea 47 3c 2b a6 da 3d
       0.056670975 -0.083705604 0.012202006 0.10676225
000110 72 7d b9 3d 2e 93 52 3d 18 2d cd bd 48 ab dd 3d
       0.0905713 0.051409893 -0.100183666 0.10823685
000120 6a bb a7 bd 2d f5 01 3e ae 89 3c 3d 7b 57 98 bb
       -0.08190043 0.12691183 0.04602974 -0.0046491004
000130 5f 92 85 3d bb 79 d0 3b 07 0f 98 bd 39 e3 5d bd
       0.06522059 0.0063621677 -0.07424741 -0.054171775
000140 4c a3 62 bd c7 2f 9b 3c e3 8b a4 bd 44 96 9c 3d
       -0.055331513 0.01894368 -0.08034494 0.076458484
000150 1d fc 8e 3d ec 97 a0 3d f7 6e bd bd 4c 89 bd 3c
       0.069816805 0.07841477 -0.092496805 0.023136757
000160 75 b0 02 3e 13 a7 8c 3d e5 47 7b bd c6 d4 28 3d
       0.12762626 0.068678044 -0.06134786 0.04121854
000170 91 e3 eb 3c 01 21 07 bd ee e9 2d 3d 8e e0 bc bc
       0.028795036 -0.03299046 0.04245942 -0.023056295
000180 2f 8b 1b bd 3c 61 f0 3d 0c 05 c9 bd f5 96 5d 3d
       -0.037974533 0.11737296 -0.09815416 0.054099042
000190 5b 15 9e bb 51 17 b0 bd a7 92 bd 3d f9 e7 ce 3d
       -0.004824323 -0.08598197 0.09256487 0.10102839
0001a0 99 67 d0 3d de 06 f4 bc 69 5b ff ba f9 90 59 3a
       0.1017601 -0.02978843 -0.0019482198 0.00082994957
0001b0 65 23 73 bd a2 57 7c 3d f7 35 8b bd f4 bc f2 bc
       -0.059359927 0.06160701 -0.06797402 -0.029631115
0001c0 d1 fa b5 3c ed 02 bb 3d e1 9e 0b bd 46 6f 71 bb
       0.022214325 0.091314174 -0.034087066 -0.0036840006
0001d0 d3 3c e4 bd fa 37 d3 bd 28 49 b8 bd fb 68 b5 3d
       -0.11144414 -0.10313411 -0.089983284 0.08857914
0001e0 2b f8 23 bd 7c 04 39 3c 88 a4 1c 3c 79 73 61 3d
       -0.040031593 0.011292573 0.009560712 0.055041764
0001f0 ce 65 30 bc 21 4b b6 3d 75 7a 31 bd 6d cd 2f 3e
       -0.01076646 0.089010485 -0.043329675 0.17168207
000200 15 05 cf bd e6 62 9a 3d 83 6e 36 3d d1 2d c9 3d
       -0.10108391 0.07538395 0.044538986 0.09823192
000210 da cf e0 bd 5b f9 10 3d ac f6 e0 bc b4 a8 28 bd
       -0.109771445 0.035394054 -0.027461372 -0.041176513
000220 0c c2 92 3d 36 b2 08 be d2 01 5f 3c 9f 3f 38 bd
       0.07165918 -0.13349232 0.013611274 -0.04498255
000230 ff 04 95 bd a8 c5 97 3d ea 3f 68 bd 99 96 bd 3c
       -0.072763436 0.07410747 -0.05670158 0.0231431
000240 5f 4b 91 bd 1e 4a 8b 3d 2a 88 5d bc 10 59 03 3d
       -0.07094454 0.06801246 -0.013521234 0.03206736
000250 bb f6 1d 3d 62 6d ed bc df 67 f6 3d e1 55 03 3e
       0.03856538 -0.028982822 0.120315306 0.12825729
000260 58 e7 0f bc ec 3c 89 bd 27 cf b9 bc 38 f9 a4 3d
       -0.008783184 -0.06701073 -0.022681786 0.08055347
000270 c3 40 e7 bd c8 a3 94 3d ea 58 b5 3c ff 3e 4f bc
       -0.11291649 0.07257801 0.022137124 -0.012649297
000280 d9 fe c3 bc 96 43 c4 3d 4f 91 19 bc 43 6b aa bd
       -0.023925232 0.095832035 -0.009373023 -0.0832124
000290 5f 29 ff bd a6 7a 0a bd ac 6b 58 3d 25 a1 ea bd
       -0.12459063 -0.033808373 0.05283706 -0.11456517
0002a0 10 d3 0e 3e 3a 7f e7 3d 94 f2 2b 3c 94 f5 c6 bc
       0.13947701 0.113035634 0.010494847 -0.024287023
0002b0 c3 38 8d 3c f6 b7 f9 bd ee d7 ad bd 58 2c 15 3d
       0.01723898 -0.12193291 -0.08488451 0.036419243
0002c0 07 d2 97 bd 6a cc 24 3d 3f 04 d7 bd 7e 75 6b 3d
       -0.074131064 0.040234007 -0.10498857 0.057485096
0002d0 ae 5c ce 3d 30 63 65 bd e2 3d bf bc 02 fe a6 bd
       0.10076271 -0.056002796 -0.023344938 -0.08153917
0002e0 e8 bc 53 3d 82 4f b5 bd fd a5 f8 3c 20 b3 57 bd
       0.051693827 -0.088530555 0.030352587 -0.05266106
0002f0 2f 39 07 bd 62 09 f0 3d 1e 2f e4 3c d4 c4 ce 3d
       -0.03301352 0.1172054 0.027854498 0.10096136
000300 59 b4 fe bd f1 e0 d2 bd d0 0e 67 3d 13 23 ff bb
       -0.12436742 -0.102968104 0.05641061 -0.0077861636
000310 11 c5 cd 3d 16 da 08 bc 2f a8 77 3c 0b 8f 9b 3d
       0.10047353 -0.008352777 0.015115782 0.07595643
000320 c9 82 96 3d e8 b7 26 bd d3 5a 7c bc 89 19 98 bd
       0.07349164 -0.04070273 -0.015402514 -0.074267454
000330 5f 5b 07 3e 5f df 14 3d e0 b4 b7 3d 50 12 a1 3c
       0.13218449 0.036345836 0.08970046 0.019662052
000340 8e c2 55 3d c6 8c ef 3c bf c6 26 3d 62 ec f2 bc
       0.052187495 0.02924193 0.040716883 -0.029653732
000350 ea df a5 3d 20 1b 94 3b 04 f1 96 bd ce aa 93 3c
       0.08099349 0.004519835 -0.07370189 0.018025782
000360 9e fa 99 3c cd 2b 92 3d 9f 3a c8 bd 10 82 d6 3d
       0.018796261 0.071372606 -0.09776806 0.10474026
000370 0b 3e 82 3d 08 96 6c 3d e4 5b 4c 3d 89 94 d5 bc
       0.0635949 0.05776027 0.04989232 -0.026071804
000380 65 3d 5f bd 43 60 a6 bc 2c 71 67 3c b7 5d a5 3d
       -0.05450191 -0.020309573 0.014126103 0.08074515
000390 08 56 b1 bb 29 91 74 ba dc 4e 53 3d 91 3b f3 bd
       -0.005411867 -0.0009329492 0.051588878 -0.11876596
0003a0 d2 a8 e5 3d e9 f5 90 3d ee 67 6a bb fd 14 ec bc
       0.112138405 0.07078154 -0.0035767513 -0.028818602
0003b0 b2 ff 20 3b 2f f1 01 be 4e 0a a0 bd 5d a2 d1 3d
       0.0024566469 -0.1268966 -0.078144655 0.102360465
0003c0 aa 57 50 bd 7d 49 3f 3d 88 93 a8 bd b6 38 e4 3c
       -0.050864853 0.046700943 -0.08231264 0.027859073
0003d0 74 f8 3e 3c 27 4a 3c bc 84 ce 35 3d fc da 58 3d
       0.0116559155 -0.011492289 0.0443864 0.052943215
0003e0 96 43 1e bd ac 9a 02 bd e2 d2 67 bd 60 6d 22 bc
       -0.038638674 -0.031885788 -0.056597598 -0.009913772
0003f0 86 e4 b5 bc 10 23 75 bd 04 b8 be bd 90 47 1d bd
       -0.022203695 -0.05984789 -0.09312442 -0.038398325

lstm.bias_hh_l0 f4 [256]
000000 00 c8 6a bd bf 34 8d bd 18 52 ad 3d 7b 83 06 3e
       -0.05731964 -0.06894826 0.08462924 0.13136093
000010 bf 52 cf 3d 8e 5e 52 3d 22 91 a0 bd ac 2a a4 3d
       0.101232044 0.051359706 -0.07840182 0.080159515
000020 a4 04 4b 3d 01 58 c9 bd 30 64 c2 3c 2c d7 94 bc
       0.049564973 -0.098312385 0.023729414 -0.018169008
000030 2d 21 c4 3c df a3 cb 3d 9c 31 b7 bd bc 53 ce bd
       0.0239416 0.09943365 -0.08945009 -0.10074565
000040 2a aa 86 bd 92 1a 4f 3d be be e0 bd a5 12 e2 3d
       -0.06575425 0.05056245 -0.10973881 0.110387124
000050 21 2c ad bc 9a 99 e2 3d 2b 80 00 3e 4d 23 47 3d
       -0.021139206 0.110644534 0.12548892 0.04861765
000060 8c 46 11 3d 62 f7 7c 3c 51 75 c7 3d 4b 64 ab bd
       0.03546767 0.01543984 0.09739173 -0.08368739
000070 8a e0 60 bd 5b 40 43 bd 07 eb 03 3e 62 05 c5 3d
       -0.054901637 -0.047668796 0.12882625 0.09620167
000080 15 b1 47 3d 66 28 47 3d 10 ec df bd 9f 34 7d 3d
       0.048752863 0.04862251 -0.10933697 0.06181776
000090 e3 b0 91 bd f9 42 62 3d f9 53 ac bd f1 37 fb bd
       -0.071138166 0.05523965 -0.08414454 -0.12266529
0000a0 7a 07 9a bd 93 8f 6c bd bd 8a 7c 3d ec 37 06 be
       -0.07520957 -0.05775411 0.06165575 -0.1310727
0000b0 09 d4 b7 3d 67 18 81 3d a8 35 2c bd a6 d3 92 bd
       0.08975989 0.063034825 -0.042043358 -0.07169275
0000c0 ef 11 ec bd 2f 55 ee 3d 7b 1d 20 3b 74 6f a9 bc
       -0.11526858 0.11637341 0.0024431634 -0.020683028
0000d0 07 6a cc bd 8a 97 51 bd b0 eb 67 bb b8 d5 7e 3d
       -0.099811606 -0.05116991 -0.0035388283 0.062215537
0000e0 f5 39 a9 bd e6 bb 09 3d 96 58 d9 3d c6 35 4f bd
       -0.082630076 0.03362646 0.106125996 -0.05058839
0000f0 44 d2 11 3d b1 3d ae 3d ef f9 49 3d dd fa 1b bd
       0.035600916 0.085078605 0.04931062 -0.03808104
000100 9b 5c 87 3c fd 9a ef 3d 23 5e 90 bd 92 6a cd 3d
       0.01652365 0.116994835 -0.07049205 0.10030092
000110 20 4a 32 bc 18 92 10 3d cd 14 dd bc e2 38 eb bd
       -0.010881931 0.035295576 -0.026987458 -0.11485459
000120 b3 09 b0 bc 7b 4d aa bd a9 32 c6 3d ef 09 c9 bd
       -0.021489 -0.083155595 0.096776314 -0.09816348
000130 4e 1a a4 3d 1c 8b c9 bd 30 2c 16 3e 03 b2 9b 3c
       0.0801283 -0.09840986 0.14665294 0.019005781
000140 34 89 49 bb f5 5a 01 3e ea 87 31 bd 59 c9 d5 bd
       -0.0030751945 0.12632354 -0.04334251 -0.10438795
000150 8e 44 a9 3c 03 0e 3a 3e e0 91 15 3d e6 c7 1c 3d
       0.020662572 0.18169408 0.03651607 0.038276576
000160 e1 bf 1e 3e 87 ee 41 3d 1d 42 8e 3d c2 f6 6a 3d
       0.15502883 0.047346618 0.06946204 0.057364233
000170 72 95 9c bd 11 68 bf bb 17 e5 e4 3b ea 27 2a bd
       -0.07645692 -0.005841263 0.0069853175 -0.04154197
000180 0f 18 86 bd 90 f0 2b 3d 7d 29 8d bd bf ed e7 bd
       -0.065475576 0.041977465 -0.06892679 -0.11324643
000190 3d 36 33 bd 92 88 a5 bd b3 e3 52 bd 09 11 e8 bc
       -0.043752898 -0.08082689 -0.051486682 -0.028328435
0001a0 cf 3e 97 3d 27 39 05 3e f4 d0 69 3d 4d 58 38 bd
       0.07385027 0.13010083 0.05708404 -0.045006085
0001b0 fc 5d a6 3d dc a9 d4 3d 83 78 24 3d d2 ae 66 bc
       0.08123395 0.103839606 0.04015399 -0.014079766
0001c0 5e a6 f3 bd d7 84 82 3c 25 81 04 3e 67 72 90 3d
       -0.118969664 0.015932484 0.1293989 0.070530705
0001d0 7d 91 5b 3d 40 dd 3f 3d c2 6e a7 bd 70 f0 00 3e
       0.053605545 0.04684186 -0.08175422 0.1259172
0001e0 92 5a a6 bd db 88 95 3d 29 12 32 3d 11 49 30 bd
       -0.08122744 0.07301494 0.04347435 -0.04303843
0001f0 f2 b3 6c 3d 08 d2 d2 bc 9d cc 57 3d dc bc 27 3e
       0.057788797 -0.025734916 0.05268537 0.16380638
000200 c8 41 d9 bd 07 b2 f2 b9 28 cf 93 3d 09 8c b7 3d
       -0.1060825 -0.00046290478 0.07217246 0.089622565
000210 94 7d 9c 3d c9 cf 94 bd 1d 87 32 3c 5f 41 ab 3d
       0.076411396 -0.072661944 0.010896471 0.08362078
000220 97 9c 0b 3d ce 61 7b 3d f0 60 09 3d 1b 58 b8 3b
       0.034084883 0.06137257 0.033539712 0.0056257374
000230 ff a2 9b bd f0 ca 91 bd 42 be a1 3c 32 ce 90 3d
       -0.075994484 -0.071187854 0.019744042 0.07070579
000240 a2 c8 03 bd cd 99 6e bd 40 a0 75 3d 6e 82 2a bd
       -0.03217376 -0.058252145 0.05996728 -0.041628294
000250 92 8a 2f 3b cc 8f 62 3d a7 81 a3 bc ab 0c b7 3d
       0.0026785475 0.055312917 -0.019959284 0.08937963
000260 df a5 b9 3d 20 8f 54 bc bc 26 99 bd 64 a7 55 bd
       0.090648405 -0.012973577 -0.07478091 -0.05216159
000270 32 e4 19 3d c5 22 b0 bd ba 99 95 bd da 39 7b bd
       0.03757114 -0.08600382 -0.07304712 -0.06133447
000280 8e b1 ed 3d 59 c2 e3 3c e1 ef 93 bd a7 75 23 3d
       0.116061315 0.027802633 -0.07223488 0.039907124
000290 1a 65 a1 bd d7 c7 c2 bd f5 dc bf bd b5 bf de bd
       -0.07880612 -0.09510773 -0.09368316 -0.10876409
0002a0 f5 1d 9e bd 78 a0 ba 3d fd 49 dd 3d 5e f7 c9 3d
       -0.077205576 0.09112638 0.10805128 0.09861635
0002b0 37 0c e5 3b 87 17 e4 bc 49 13 a7 3c 1c 91 d8 bd
       0.0069899815 -0.02784325 0.020394938 -0.105745524
0002c0 b4 23 a7 3d 19 b1 a6 3d 2e f3 d2 3d ce f6 ea 3d
       0.08161107 0.081392474 0.10300289 0.114728555
0002d0 d4 61 d9 3d 09 ba 18 3c 82 87 da bd c1 3e 96 bc
       0.10614362 0.009321698 -0.10670377 -0.01834047
0002e0 eb 03 a2 bd 46 b9 a5 3c 20 23 5b 3d c1 cd 98 3d
       -0.079109035 0.020229947 0.053500295 0.074611194
0002f0 fe fc e0 3d 5c 7f e3 bd f9 bd a4 bd 3f ea fc bd
       0.109857544 -0.11108276 -0.08044047 -0.123493664
000300 e1 91 33 b9 75 1b f3 bd b7 60 a4 3d a3 37 e8 3c
       -0.00017125114 -0.118704714 0.080262594 0.028346842
000310 ec c3 a6 3d 4f ca 1f 3d 61 25 63 bd 68 0d c5 bd
       0.08142838 0.039011296 -0.05545557 -0.09621698
000320 59 90 49 3d 23 4f c6 3c 40 24 01 3e 4f f1 ed bd
       0.049209926 0.024207657 0.12611485 -0.116182916
000330 18 c3 64 bd 1a da 92 3d a9 f3 df 3c 64 e6 d5 bd
       -0.05585012 0.07170506 0.027337866 -0.10444334
000340 fe f3 46 bc 0c 38 39 3b 14 a8 a4 bd b9 1d ea bd
       -0.012143133 0.0028262166 -0.08039871 -0.114314504
000350 ff 3b 62 3d de 37 3d 3c 96 c0 5a 3d 6e 2f 08 3e
       0.055232998 0.011548964 0.05340632 0.13299343
000360 eb 8c 19 bc e4 b0 8a 3d 80 24 12 3d eb bf 8f bd
       -0.009371976 0.067720205 0.03567934 -0.07019027
000370 e9 35 82 bc 5d 8c d0 3c 35 fa 86 3d 8e c2 d2 bc
       -0.015894847 0.025457555 0.06590692 -0.025727537
000380 25 68 57 3b 63 ad ee 3d 7d 29 48 3d 34 23 82 bb
       0.0032868471 0.11654165 0.04886769 -0.0039714817
000390 76 fc 6d 3d e5 ca 9b 3d 29 df 94 bd 88 dd 77 bc
       0.058102094 0.076070584 -0.07269127 -0.015128501
0003a0 31 a7 7d bd 42 d3 85 bd bc 22 17 3c b6 6b ec bd
       -0.061927024 -0.06534435 0.00922459 -0.11543982
0003b0 0a 5c b4 bd 9b 2b cf 3d a0 5b ea 3d 0f 10 bc bd
       -0.088066176 0.10115739 0.11443257 -0.091827504
0003c0 b3 a6 f8 bd 76 ad 71 bd 4d 26 45 3d d0 58 a6 bd
       -0.1214117 -0.059003316 0.04813223 -0.081224084
0003d0 90 a9 76 bb 68 26 2c 3d 0f bb b9 3c 5a 2e 39 ba
       -0.0037637688 0.042028815 0.022672204 -0.0007064097
0003e0 d2 d9 8a bc 3d b8 bb 3c 2e 36 87 3a 91 3a ce 3c
       -0.016949568 0.022915 0.001031583 0.025174411
0003f0 be 25 75 3d 20 48 e6 bc 6d 1d 70 3d 37 f3 58 3d
       0.059850447 -0.028110564 0.058621813 0.052966323

lstm.weight_ih_l1 f4 [256, 64]
000000 25 0c aa 3d 25 19 af 3c d2 f5 12 3c 46 9c 3e 3d
       0.08303098 0.021374295 0.008969741 0.046535753
000010 69 e9 0a 3d cf 6e 5b 3d 19 78 9f 3d 35 cd e9 3d
       0.033914004 0.053572472 0.07786579 0.11416093
000020 4c 78 d1 3d c7 cb 1f 3d 64 93 e8 bd 9f 34 43 b8
       0.10228023 0.039012697 -0.113562375 -4.654063e-05
000030 9f 15 03 bd 7a b8 ba bd 2f 5a 82 bc 89 5d c5 3d
       -0.03200304 -0.09117217 -0.015912144 0.09636981
000040 e0 7a db 3d 80 f5 05 be cc 72 6e bc 70 0d 89 bd
       0.10716796 -0.13081932 -0.014553737 -0.06692016
000050 d6 71 cd 3c ea 73 2e bd 4a 80 c6 bd c2 f6 89 bd
       0.025078695 -0.042591013 -0.09692438 -0.067365184
000060 cf 9b 96 3d 40 ad 2a bc ab d9 a4 bd a6 ce 25 3c
       0.07353937 -0.010417283 -0.08049329 0.01012007
000070 57 22 b4 bd fc 69 c1 bd 2e b7 c4 bd c5 cb ba bc
       -0.08795612 -0.09444043 -0.09605251 -0.022802243
000080 75 59 a3 bc c6 9a 59 3c 33 da 6b 3d 09 d8 a3 3d
       -0.019940117 0.01328153 0.057581138 0.0800019
000090 ed 6d fe bd 4b 15 3a bd 31 e1 b1 3d 5a f7 fe 3c
       -0.124233104 -0.045430463 0.0868553 0.031123806
0000a0 7a c2 11 3d 6a 27 9a 3d 15 52 73 3c c1 98 45 bd
       0.035585858 0.07527049 0.014851113 -0.04824138
0000b0 04 6b 93 3d ad 74 83 3d 8d 97 b3 3d f5 de a5 bd
       0.07198146 0.064187385 0.087691404 -0.08099166
0000c0 68 3b 51 3d 59 63 2e bd b9 d1 30 bd ed 82 50 bb
       0.051082045 -0.042575214 -0.043168757 -0.003181632
0000d0 be 2f aa bd 44 92 9a 3c 5a f9 d3 3d 38 a3 c9 3d
       -0.08309887 0.018868573 0.103502944 0.09845585
0000e0 57 fc d4 bd 41 42 41 bd f7 95 f3 3d 1a 5d e2 bd
       -0.103996925 -0.047182325 0.11893838 -0.11052914
0000f0 ad 8f 2b bd e5 dd 8f bd 10 fd 8b bd 4d 6a 9c bc
       -0.041885067 -0.07024745 -0.06835377 -0.019093657
000100 e8 fd aa 3d ba be c3 bd d0 bf 99 bd 4a 11 14 3d
       0.0834921 -0.095578626 -0.075072885 0.0361493
000110 a3 97 ac bd 1a 8c 79 3d d8 35 d5 3d e5 97 80 3d
       -0.0842736 0.060924627 0.104106605 0.062789716
000120 e5 7a 10 3e 1a b6 c7 bd 36 e9 b1 3d d3 93 8e bc
       0.1410938 -0.0975153 0.086870596 -0.017404472
000130 3c 03 e6 bc fe 61 9d bd ab 13 32 bc d2 aa cb 3d
       -0.028077714 -0.07684706 -0.010868947 0.09944691
000140 e0 33 cf bc d2 26 e0 3a c1 82 de 3d a9 05 0b be
       -0.02529329 0.0017101413 0.10864783 -0.13576378
000150 53 1e f4 bc 18 76 0a 3d e5 81 aa bd 60 bb ec 3b
       -0.029799616 0.03380403 -0.08325557 0.0072244853
000160 5c 44 33 3c ab dc b5 bd 17 0a 09 3d 65 65 0f 3d
       0.010941591 -0.0887998 0.033456888 0.035008807
000170 29 65 66 bd a2 2a ca bd 22 ae b3 3d 16 5b af 3d
       -0.056248818 -0.09871413 0.087734476 0.08562295
000180 6b 04 f0 bd c1 85 43 bb a0 e3 0b 3e 22 02 f8 bd
       -0.11719593 -0.0029834362 0.13661051 -0.12109782
000190 b5 f7 b7 3d 61 ca f1 bd 10 a9 e2 bc 57 79 bd bd
       0.08982793 -0.11806179 -0.027668506 -0.09251659
0001a0 95 02 eb 3b 8a 75 28 bc 3e b6 c8 3b 3f d5 ad 3d
       0.0071719387 -0.01028193 0.0061252406 0.08487939
0001b0 a3 2a fb 3d 98 73 ac bd 82 44 0f be 8e 9d aa bd
       0.12263992 -0.08420485 -0.13990977 -0.083308324
0001c0 2c 67 e3 3c 3e 4b f7 3b ae 58 aa 3d 68 22 14 3d
       0.027759157 0.0075468114 0.083176956 0.036165625
0001d0 1a cd 66 3c 44 35 37 3d ae e7 fc bd ff d7 01 3e
       0.014086986 0.044728532 -0.12348877 0.12680052
0001e0 31 19 53 ba f3 3e a9 3d 04 86 c8 3d 92 be d9 3d
       -0.0008052765 0.0826396 0.097911865 0.106320515
0001f0 ba 9d cc 3d 4e a9 10 3d f1 8f 29 bd 33 59 ab bd
       0.099910215 0.03531771 -0.04139704 -0.08366623
000200 9f 9f 95 bd 88 c4 71 3c b8 e3 5f 3d 0b 42 b3 3b
       -0.07305836 0.014756329 0.05466053 0.0054705194
000210 db 9b e3 bb f8 5f 8c 3c 65 30 d2 bd a3 5f ac bc
       -0.0069460697 0.017135605 -0.10263137 -0.021041697
000220 ce eb c9 bd 5e 11 f8 bc 1b e2 46 3d 75 9d 93 3d
       -0.09859429 -0.030281719 0.048555475 0.07207767
000230 bc c3 86 3d a2 17 11 bd 4b df 97 3b e7 36 ac bb
       0.06580302 -0.03542293 0.004634773 -0.0052555683
000240 52 d4 fb 3b 89 65 72 3d f4 18 a1 bd 32 bd 26 3d
       0.0076852227 0.059178863 -0.078660876 0.040707774
000250 ac de dc 3c ca 89 c7 bc f1 12 44 3c e8 4f 95 3d
       0.026961647 -0.024357695 0.011967407 0.072906315
000260 7c 68 ae bd 75 80 9c 3d ed 0b b2 3d 50 0b c9 3d
       -0.085160226 0.07641689 0.08693681 0.09816611
000270 48 ae cd bd 0d f4 3e 3d 31 ad 9e 3d 08 4b 75 bd
       -0.10043007 0.046619464 0.077478774 -0.05988601
000280 c4 57 93 bd af 17 e3 3d 46 47 8a bb 57 8d 3e 3b
       -0.07194474 0.11088502 -0.0042199222 0.0029075944
000290 4b f0 6d 3b b7 c9 df bc 26 19 0f 3d 19 0c 00 be
       0.0036306556 -0.027317865 0.034936093 -0.12504615
0002a0 76 c3 d8 bc 64 7c 7f bb 03 bf 98 bd 24 7c 44 bd
       -0.02646039 -0.0038984055 -0.074583076 -0.047969952
0002b0 da ef c1 3d 54 6e 00 be 98 3e 53 bd b2 09 a8 bd
       0.09469576 -0.12542087 -0.051573366 -0.08204974
0002c0 31 38 c1 3d 51 47 98 bd 73 23 20 3d 47 58 d0 ba
       0.09434546 -0.074354775 0.039096307 -0.0015895449
0002d0 c1 fb 04 be 02 92 6e bb a1 e0 de bd d5 b3 39 bc
       -0.12986661 -0.0036402945 -0.10882688 -0.011334379
0002e0 d8 ff 24 bd 71 7a cf bd bc fb 96 bb 29 3f d0 bc
       -0.040283054 -0.10130776 -0.004607646 -0.025420742
0002f0 7f a3 e6 3c 97 0e 5b 3d 39 8b b3 bc 8d 3b 27 bd
       0.028154133 0.05348071 -0.021916972 -0.040828276
000300 eb 91 ca 3c 82 c2 1c 3c 98 44 6f 3b 8e 3c 06 3d
       0.024727782 0.009567859 0.003650939 0.032772593
000310 60 bf 04 3d f1 9a 24 ba 9f 41 a9 bd f8 c9 bc bd
       0.032409072 -0.00062791916 -0.08264469 -0.0921821
000320 96 67 e7 3d 9a 2c cd b9 52 9e a6 3d 20 f5 8c bc
       0.11299054 -0.00039133878 0.08135666 -0.017206728
000330 ac 5f 91 3d 7e 41 c7 bd cb eb 8a 3b 1f 0c 67 bd
       0.07098326 -0.097292885 0.0042395345 -0.056408044
000340 00 73 bc bd e5 f8 aa 3d ca a5 94 bd 9e f5 74 3c
       -0.09201622 0.08348254 -0.07258184 0.014951138
000350 a4 94 ac 3d c4 68 f3 bd 16 c5 a8 bd 78 3e 2e bc
       0.084267884 -0.11885217 -0.08240716 -0.010635011
000360 d8 6d 92 3d bd cb 6f 3d 9b f7 38 3d 29 27 a1 bd
       0.07149857 0.05854391 0.04515801 -0.07868797
000370 9f fc 1a 3d ae 67 78 3d 47 76 ba bd 6e ca ce 3c
       0.037838574 0.06064575 -0.09104591 0.02524301
000380 30 78 86 3d 56 09 de 3d b0 2b 2a 3d be 7e c1 3b
       0.06565893 0.108416244 0.04154557 0.0059050014
000390 17 ee 32 bd 0b d5 9c 3d b2 f1 dc bc 21 9b e7 bd
       -0.04368409 0.07657822 -0.026970718 -0.11308885
0003a0 76 c7 8b 3c a5 50 3d bd 54 d5 88 bc b2 2b 29 3d
       0.017062884 -0.046219487 -0.016703285 0.041301437
0003b0 9c 84 a3 3d 9b a6 92 3b 9c cd eb 3d b6 3b e9 3d
       0.079842776 0.0044754273 0.11513826 0.11388342
0003c0 ed af 3e bd f1 a7 bc bd 20 1a 82 bd b9 ae 5d bd
       -0.046554495 -0.0921172 -0.06352639 -0.054121707
0003d0 ab 60 f0 ba 84 bc f0 ba 78 7f de bd 71 1d d8 3d
       -0.0018339356 -0.0018366729 -0.108641565 0.105524905
0003e0 55 c4 27 3d e7 45 69 3d ff 49 85 3d 31 2e 12 bc
       0.04095872 0.05695143 0.06508254 -0.008922146
0003f0 ab 07 ec 3d 54 d9 7a 38 36 54 92 bd 5b cf a2 3d
       0.115249 5.9807047e-05 -0.07144968 0.07949706

lstm.weight_hh_l1 f4 [256, 64]
000000 61 fa 8b bd 95 f4 e1 bc 4c 8d 3e 3b 82 c2 e6 bd
       -0.06834865 -0.027582446 0.0029075919 -0.11267568
000010 5c ed 2b 3d ec 84 da 3d bf 7d e4 bc af 77 88 3d
       0.04197441 0.10669884 -0.027891992 0.06663453
000020 47 9d cd 3d e0 05 80 bd cc d4 64 3c 56 58 d5 bd
       0.10039764 -0.062511206 0.01396675 -0.10417239
000030 72 f2 b3 bc 6f 8c b1 bd 0e ba 87 bc 74 1b 48 bd
       -0.021966193 -0.08669364 -0.01656821 -0.048854306
000040 3b 9d 69 bd 07 7f 74 bc cc 6b 3d bd d8 32 54 3d
       -0.057034712 -0.014922864 -0.04624538 0.0518063
000050 bb 56 08 bd 00 4b 77 bd 55 77 c7 bd af d0 1a 3c
       -0.033285838 -0.06037426 -0.09739558 0.009449168
000060 b8 32 e9 bd b6 b9 90 3c 30 9f 3c 3d e6 87 86 3d
       -0.11386627 0.017666679 0.04605025 0.06568889
000070 20 7d 57 3d 62 9a bb bd 51 4b 8f bc 2c 85 9f 3d
       0.052609563 -0.091603056 -0.017491968 0.077890724
000080 1b 37 ab 3d 34 1b 99 3d 7a 42 01 be f9 c3 65 bd
       0.0836012 0.07475892 -0.12623015 -0.056095097
000090 e5 5f 35 bc bc c9 ce bd f1 08 0f 3e 26 55 dd 3d
       -0.011070226 -0.100970715 0.13968255 0.108072564
0000a0 43 2e 49 bd c1 75 ee 3c 5d c0 16 be 31 c6 35 3c
       -0.049116384 0.029108884 -0.14721818 0.011094616
0000b0 60 41 36 bd 67 1b 2d 3d 7d 1c 0a bd 4d 24 3b 3d
       -0.04449594 0.04226246 -0.033718575 0.045688916
0000c0 7b 91 2f bd 5b 4c b3 bd 45 32 ab 3d 43 72 7e 3d
       -0.04286335 -0.08754798 0.083591975 0.062120687
0000d0 dc d0 aa 3d 35 8f cf bd db 94 0b 3c 2e 8d 54 bc
       0.08340618 -0.101347364 0.008519377 -0.012973113
0000e0 53 70 28 3d 3a 49 27 bb 47 13 bc 3d a9 c9 96 3d
       0.041122746 -0.0025525824 0.09183364 0.07362682
0000f0 f2 18 22 bd a3 13 d4 bc 28 d5 ee bd 64 e6 a7 bd
       -0.03957457 -0.02588827 -0.1166175 -0.081982404
000100 57 4b ce bb f9 62 0c be f6 bd 94 bc c6 fc b3 3b
       -0.0062956023 -0.1370963 -0.018156987 0.0054927794
000110 60 c9 13 3e d5 34 b5 3d 9a b3 a5 bd a7 b2 b5 bd
       0.14432287 0.088479675 -0.08090897 -0.08871966
000120 af af 36 bd 54 38 84 bd b2 df ca ba 02 59 a3 bd
       -0.04460114 -0.06456056 -0.0015478043 -0.07975961
000130 da d7 46 bd 3c b8 cd bd 93 e2 0b 3e 17 18 20 3c
       -0.048545696 -0.100449055 0.1366065 0.0097713685
000140 cc 84 b2 bd 65 03 c3 3a a9 22 91 bd ea 75 87 bd
       -0.08716735 0.0014878331 -0.07086689 -0.06614287
000150 c8 7c 27 be 0f 40 09 be 1c b7 36 bc 66 69 92 bd
       -0.16356194 -0.13403343 -0.011152055 -0.071490094
000160 14 31 ee 3d bb 13 48 3d c3 4c ed 3d 22 73 1d 3e
       0.11630455 0.04884694 0.11586907 0.15375951
000170 a2 fd b0 3d 2a 58 57 3c b4 3f 11 bc 05 b0 c9 bd
       0.086421266 0.013143579 -0.008865286 -0.09848026
000180 02 0c 20 3e e8 a3 84 3c 96 2f f7 3c 3a 75 53 3b
       0.1562958 0.016191438 0.030174058 0.0032265917
000190 62 c3 5a bd 7e 91 68 3d 61 a9 f1 bd 6f 4a 8a bd
       -0.053408988 0.056779377 -0.117998846 -0.06752478
0001a0 3d 20 ba bc 69 bf c7 bc 4d 91 82 3d 4a 30 80 bd
       -0.02272045 -0.024383264 0.0637537 -0.062592104
0001b0 61 ff 42 bd fd d2 78 3d 65 c3 29 3d be 6a 02 bd
       -0.04760683 0.06074809 0.04144611 -0.03184008
0001c0 4f b7 ee 3c 32 f0 1c 3e b5 55 91 3c 42 d8 a8 bd
       0.029140143 0.15326002 0.017741064 -0.08244373
0001d0 85 69 c0 3c c0 16 da bd 85 71 29 3e 6c 74 2e 3d
       0.023487816 -0.106488705 0.1654721 0.042591497
0001e0 6b 42 8a 3d a7 48 8c bd 76 4c 0c bd df 2a ef bd
       0.067509495 -0.06849795 -0.034252606 -0.11678099
0001f0 54 c0 ca bd 02 fe ad 3d b9 f7 81 bd 81 f0 ed bd
       -0.09899965 0.08495714 -0.063460775 -0.11618138
000200 f2 b3 c8 3d 46 54 ac 3c 47 c3 bf 3d 3e d7 b0 bc
       0.09799947 0.021036278 0.09363418 -0.02158701
000210 3c 92 22 bd 0f be f5 3d 82 4f 38 bd a2 05 41 bd
       -0.03969024 0.119991414 -0.0449977 -0.047124512
000220 2e 05 c1 3d a3 03 25 bc 09 7d f5 bb 53 7d f7 3c
       0.09424816 -0.010071668 -0.007491712 0.030211126
000230 13 96 dd 3d c8 7a a4 bd 44 45 9d bd 0d 1a 16 bd
       0.1081964 -0.08031231 -0.07679227 -0.036645938
000240 d9 ca fb bb c2 29 f0 3d 66 72 5f bd 30 56 a5 bd
       -0.0076840934 0.11726715 -0.05455246 -0.080730796
000250 80 29 a6 3d 7c 9c 97 bd a4 3c 97 bd d4 2a 28 3c
       0.08113384 -0.07402894 -0.07384613 0.010264117
000260 5e 71 3f 3d 76 3b ad bc d2 be da 3d fc 85 55 3c
       0.046738975 -0.021146517 0.10680927 0.013032433
000270 72 8b fa bd b4 3f e0 bd a7 0c 4e 3c b8 3a fa bd
       -0.12233628 -0.109496504 0.012576259 -0.12218231
000280 c6 41 f0 3d 4b 1c 5f 3d 70 1d 18 3d c0 e6 f2 bd
       0.11731295 0.05447034 0.03713745 -0.11860418
000290 1c 59 b3 3c 78 aa f4 bd ca 85 e1 3d 28 09 f6 bd
       0.021893077 -0.11946577 0.11011846 -0.12013465
0002a0 94 a7 2e bd b8 47 cb bd 69 41 9b 3c 77 bf f1 3c
       -0.042640284 -0.09925789 0.018952088 0.029510243
0002b0 d7 8e a5 3c df a7 af 3a 37 19 29 bd da 85 25 3c
       0.020209713 0.001340147 -0.041283812 0.0101027135
0002c0 6e cd a3 bd 70 ef ca 3d 87 0b e1 3d dd 55 a6 bd
       -0.07998167 0.0990895 0.10988527 -0.08121846
0002d0 6d 59 d2 bd a0 63 8b bd 0e b8 9c 3d a4 31 16 3c
       -0.10270963 -0.06806111 0.07652293 0.009167109
0002e0 33 0c 40 bc f0 56 9c bc 3b 73 6b 3d 94 91 dc 3d
       -0.0117216585 -0.019084424 0.05748294 0.10769954
0002f0 1a 75 c9 3c 88 46 63 3d 57 58 cc bb f9 e7 b1 bd
       0.024591971 0.055487186 -0.006236117 -0.086868234
000300 4f 01 e1 bc 37 f8 fa 3d 4d 7c 31 3d 84 f2 ae bd
       -0.027466444 0.122543745 0.043331433 -0.0854235
000310 21 2d ad bd 8a 24 a7 3c a9 0d dd bb 41 6e 3f 3d
       -0.08455873 0.020403165 -0.006746013 0.046736006
000320 51 7b da 3d 25 47 91 3d 80 9c 89 bd a8 2a c0 3d
       0.10668052 0.07093648 -0.06719303 0.09383136
000330 a7 d6 c8 3d b0 54 17 be 5b a5 a6 bd dd 70 ee 3d
       0.09806567 -0.147784 -0.08137008 0.11642621
000340 64 88 01 3e 9a c4 10 3e 27 14 a0 3d 61 15 96 3d
       0.12649685 0.14137498 0.07816344 0.073282965
000350 35 8e 9b 3d 8e 72 bb 3d 04 1d c6 bc 5e f5 88 3d
       0.07595483 0.09152709 -0.024183758 0.06687425
000360 0c 39 3b 3d d8 f9 e0 bd 23 cf 08 3e b3 c7 58 bd
       0.0457087 -0.10985154 0.13360266 -0.052924823
000370 0f 98 90 bd c0 1e ac bd ef 8d e6 3d b4 30 5e bd
       -0.07060253 -0.084043026 0.112575404 -0.054245666
000380 4c 6d 9c bd b7 33 c3 bd 33 43 a4 3b fd 6f 55 3d
       -0.07638034 -0.09531348 0.0050128936 0.052108753
000390 42 60 8e 3d 72 2c 4e bd ec cb da bd b5 04 dd bd
       0.069519535 -0.050335355 -0.10683426 -0.107919134
0003a0 1a 16 0c be 48 88 b6 bd 4c 0c 2a 3d 60 35 0c 3d
       -0.13680306 -0.08912712 0.041515633 0.03423059
0003b0 f9 e5 ff bc 05 a3 82 bc de f6 00 3d 5c 83 ce 3d
       -0.03123759 -0.015946874 0.03148543 0.100836486
0003c0 de a5 23 3d 0d cb 65 3d e3 3b 92 3d 9b 62 80 3d
       0.039953105 0.056101847 0.07140329 0.062688075
0003d0 ac 04 53 bd e5 dc 71 bd 98 a9 04 3e a7 fc f7 bd
       -0.051518127 -0.059048552 0.1295532 -0.121087365
0003e0 6a 02 a5 bc fa bb 13 be 3c 3b ad bc fb 32 2c bd
       -0.020142753 -0.14427176 -0.02114641 -0.042040806
0003f0 bf cf 88 bd 95 5c e4 bd 5b b2 94 3d b9 bf cd bc
       -0.066802494 -0.11150471 0.07260581 -0.025115835

lstm.bias_ih_l1 f4 [256]
000000 d1 bf e8 3d b7 ed 19 3e 15 87 03 3e d2 cb a0 bd
       0.11364711 0.15032087 0.12844498 -0.07851376
000010 f8 04 6f 3c 12 a5 d2 bd d5 46 ec 3d fc 8d 09 bd
       0.014588587 -0.10285391 0.11536948 -0.033582672
000020 19 8b ed 3d 51 43 ed 3c 16 8a 9a bc 66 8d 71 bd
       0.115987964 0.028962763 -0.018864673 -0.05897274
000030 89 bc 85 3d 9d 73 bd 3d ef 6c c3 bc 24 1d b6 3d
       0.06530101 0.09250567 -0.023855655 0.08892277
000040 5f 63 cd 3d eb 1a 26 bc 11 f5 d7 bc a3 02 bd 3c
       0.10028719 -0.010138254 -0.026361974 0.023072546
000050 c7 b8 06 3e b7 46 18 bd f5 8a 90 bd 6c 75 ad 3d
       0.13156424 -0.037176814 -0.07057754 0.08469662
000060 4f 46 e3 bc 3d d1 65 3d 24 cd 4e 3d 4b 90 2e 3c
       -0.027743487 0.05610775 0.050488606 0.010654519
000070 16 a0 5f 3d 62 9e 92 bd 6f 57 ca bd 24 e6 41 bd
       0.05459603 -0.071591154 -0.09879958 -0.04733862
000080 7c b0 8a 3d 08 4f c5 3d c9 8b 85 3d 96 d0 f1 bd
       0.06771943 0.09634215 0.065208025 -0.11807363
000090 53 ad 90 bc bd 71 d3 bd f0 f5 6a 3d 62 28 08 3d
       -0.017660772 -0.10324428 0.05736345 0.033241637
0000a0 b2 64 ca 3d 4a f0 02 3d 77 fe cb 3d b7 ca b8 bd
       0.09882487 0.03196744 0.09960645 -0.0902304
0000b0 fa b1 2e 3d f6 ab a8 3d 67 00 d5 bd 0b 7d c7 3d
       0.0426502 0.08235924 -0.10400467 0.09740647
0000c0 c4 39 fb bb ac d2 bc 3c 95 e6 b1 3c 4b 74 02 3d
       -0.0076667983 0.023049675 0.021716395 0.031849187
0000d0 fe 91 ec bc 21 3c db 3b 26 e2 3c 3d 87 20 84 bd
       -0.028878208 0.0066905175 0.04611411 -0.064515166
0000e0 7e f9 5f bd 20 56 8d bd b4 ee 31 bd 1f 53 dc bc
       -0.054681294 -0.06901193 -0.043440536 -0.026895104
0000f0 a4 77 9f bd 70 f4 e5 bd 02 27 a5 3d 69 78 a0 3d
       -0.077864915 -0.112282634 0.08064081 0.078354664
000100 9c f8 69 bc 90 28 ba bc ee 02 e6 bc 94 f4 a5 3d
       -0.0142804645 -0.02272442 -0.028077569 0.0810329
000110 7d e0 fb 3c df fb 72 3c b6 8e b0 3d 2f b3 f0 3d
       0.030746693 0.014830559 0.0862097 0.117529266
000120 5d 87 fb bc 7a 08 ec bc ee 54 31 bc 5e 6b 79 3d
       -0.030704195 -0.028812636 -0.0108234715 0.06089341
000130 b3 ab f7 bc c7 6e a2 3d 48 a2 da 3d 80 63 0b 3e
       -0.03023324 0.07931285 0.10675484 0.13612175
000140 b7 35 f9 bb 07 1d 96 3d 14 d3 a0 bb b8 9f a7 bd
       -0.0076052803 0.07329755 -0.004907975 -0.08184761
000150 54 60 d4 bc 71 6e 94 bd c0 f7 0b 3d 96 75 a0 bd
       -0.02592484 -0.072476275 0.03417182 -0.07834928
000160 1c 4b e0 3d c7 8c 8e bd 41 60 e9 3d ca 3b 2d 3e
       0.10951826 -0.06960445 0.11395312 0.16917339
000170 13 0b 03 bd 76 82 c8 3d 09 11 ba 3c 45 8c 06 bd
       -0.031992983 0.097905084 0.022713201 -0.032848615
000180 69 4f b1 3d 41 ab 78 bd 79 b4 dd 3d 30 40 16 3d
       0.086577244 -0.060710195 0.10825438 0.036682308
000190 24 da 81 3d 0f c7 9e bd 19 33 98 bd cf 43 cc bd
       0.06340435 -0.07752811 -0.07431621 -0.09973871
0001a0 f8 03 40 3d 6f 40 05 3e 29 22 40 3d 27 60 d0 ba
       0.046878785 0.1301286 0.046907578 -0.0015897796
0001b0 c1 0d 3a 3b ac d7 15 bc 1e 03 43 3d a1 1f cd bd
       0.0028389546 -0.009145658 0.047610395 -0.10015798
0001c0 e8 52 1b 3d f3 5e 94 bd 06 87 88 3c 44 f9 bc 3c
       0.037920862 -0.072446726 0.016665947 0.023068078
0001d0 3a 9e 9f bd 47 12 14 3e 69 f7 93 3b be a1 97 3c
       -0.07793851 0.14460097 0.0045155776 0.018509742
0001e0 d2 fc 1a 3e 8b 26 05 3e 2b eb 2f 3d f6 29 74 3d
       0.15135506 0.13002984 0.042948883 0.05961033
0001f0 38 af 68 bd a8 02 c3 3d 83 6a 8c bd 71 a9 73 bd
       -0.056807727 0.09521991 -0.06856253 -0.059487764
000200 c9 43 90 3c 47 ca 5d 3d e1 5c ba 3c 4f 5f 8c bd
       0.017610447 0.054147985 0.022749366 -0.06854116
000210 97 64 86 3c 92 9e b9 3d 2b 51 56 3d b1 09 29 3d
       0.016405387 0.09063448 0.0523235 0.041269008
000220 f9 0f 7c bd 12 ad 05 bc 97 d3 7b 3d 68 65 8c 3d
       -0.06153867 -0.008158939 0.061481085 0.06855279
000230 50 27 78 bd d5 5e 79 bd 6e 2f ab 3d 3b 72 59 bd
       -0.060584366 -0.060881454 0.08358656 -0.053087454
000240 a5 81 9e 3c 5b 62 28 bd 7c 7b 44 bb da 52 5b 3c
       0.019348929 -0.041109424 -0.002998083 0.013386453
000250 0d 96 e0 bd c5 a8 a3 bc 3f f4 94 3c 30 f8 47 3d
       -0.1096612 -0.019977937 0.018182872 0.048820674
000260 cf b4 27 bd 6e da 03 bd 4d 89 de 3d 9f c3 c1 bd
       -0.040943917 -0.032190733 0.10866032 -0.0946114
000270 cd 04 f1 bd c0 03 c4 bb 27 95 eb 3a a5 49 0f bd
       -0.11768494 -0.0059818923 0.0017973528 -0.034982342
000280 58 0d 06 3d fd eb 03 be c6 d9 5a bd 44 49 88 3d
       0.03272757 -0.12882991 -0.05343034 0.06654599
000290 80 82 9f b9 04 f0 cc bd 8f 15 0a bd f4 3e 22 bd
       -0.00030424073 -0.10006717 -0.033711966 -0.039610818
0002a0 b8 84 3b 3d aa d1 e3 3d 92 4a 2a 3d 9a 97 35 3c
       0.045780867 0.111239746 0.041575022 0.011083508
0002b0 3b 9b 80 3c 14 e8 7c bd 0a 7b b6 3c 79 bb 73 bd
       0.01569902 -0.061744764 0.022275466 -0.05950496
0002c0 33 e8 bd 3d ed ba bb 3b 8c 35 99 bd 81 bd 7e bc
       0.09272804 0.0057290704 -0.074809164 -0.015548111
0002d0 52 4b 95 bd 41 f9 ed 3d 21 c5 6a 3d 2d 5f bf bd
       -0.07289757 0.11619807 0.057316903 -0.09344325
0002e0 e2 73 87 3d 2e 4a 0b 3b 04 5c ef bd 86 bd 0f be
       0.066139 0.0021253931 -0.116874725 -0.14037141
0002f0 fb b5 5d bd 6d 2c 2d bc e0 91 08 bd 3f d8 b7 3d
       -0.05412863 -0.010569674 -0.033342242 0.089767925
000300 cc e8 d0 bc fe 98 72 3d 1f 0f 17 ba 74 34 9a bd
       -0.025501631 0.059227936 -0.0005762446 -0.07529536
000310 55 87 96 3d 93 95 f4 3d 6e 5d f2 3d 96 3f 67 bd
       0.07350031 0.119425915 0.118342265 -0.056457125
000320 2d c9 86 bd a6 28 dc 3d aa aa 9c 3b 44 cf 8a 3d
       -0.0658134 0.107499406 0.004781087 0.06777814
000330 2a 68 21 bd 75 62 c7 3d c4 90 dc 3d 09 70 0f 3c
       -0.03940598 0.09735576 0.10769799 0.008754739
000340 ad 6d 0c bd ad 7c 88 bd b1 dd e7 bd 06 74 f3 3d
       -0.034284282 -0.06664405 -0.11321581 0.11887364
000350 39 94 80 3d ea cf 8c 3b f2 e0 1c 3c 64 4d 42 3d
       0.06278271 0.004297246 0.0095751155 0.047437087
000360 0f bb e1 bd ed e8 1c 3d 09 39 1c bd ee cd bc 3d
       -0.11022007 0.038308073 -0.03814033 0.092189655
000370 bf f4 67 bc e2 73 f2 3c 4a bd cc 3d c1 7f 5a bb
       -0.014157473 0.029596273 0.099970415 -0.0033340307
000380 22 34 3b 3d 3b 02 88 bc b2 b7 e7 3d 0b 76 10 bd
       0.045704015 -0.016602626 0.11314334 -0.035268825
000390 79 36 36 bd dd df fd 3d c5 7a ae bd f6 d4 87 bd
       -0.044485543 0.12396214 -0.0851951 -0.06632416
0003a0 5e c2 a8 3d 41 96 c0 3d cf d8 b2 3d e5 5b 8c 3d
       0.082401976 0.09403659 0.08732759 0.06853465
0003b0 cf 5f 14 3d 05 5b 80 3b 34 e5 d2 bc a5 ff c0 bc
       0.036224183 0.0039171004 -0.025744058 -0.0235594
0003c0 b1 0b c4 bd db 3b 29 bd 9c 09 21 bc 90 61 c0 3c
       -0.095725425 -0.04131685 -0.009828951 0.023484021
0003d0 03 98 6c bd 42 4a fc 3d 35 87 2f bc e1 dd b9 bb
       -0.057762157 0.12318851 -0.010713388 -0.005672202
0003e0 b4 55 c4 bb 2f 46 88 bd 19 14 2f bd 46 08 e1 3d
       -0.005991662 -0.066540115 -0.042743776 0.10987906
0003f0 d5 90 59 bc e7 71 f9 bd 29 64 98 bd 26 99 03 3d
       -0.01327916 -0.12179928 -0.07440979 0.032128476
