output/LSTM2CNN/LSTM2CNN_adam_64_1000/model/LSTM2CNN_epoch_721.pth (torch, 353538 bytes, 16 tensors)

lstm.weight_ih_l0 f4 [256, 11]
00000000: 1fed 5cbd f220 933d 4cc1 44bb d64e 00bd
00000010: d30e d73d 7961 c1bd 6086 9a3d 692b 863b
00000020: 4605 723d 1326 77bc e710 11bb 280c d0bd
00000030: 9fff fbbc 7d8f f93c f6a2 313d c6f1 ddbd
00000040: 7418 8bbd 5d4f cc3d 7448 8bbd b16b 59bc
00000050: 05d2 a9bd 06b6 9abc e667 ff3d fc8b a13d
00000060: b01f e4bd 9cfe 033c 0445 9d3d 38eb 3d3d
00000070: 306c 013e 3ce8 0c3d d4a6 14bc c9d0 bdbd
00000080: d204 f23d f3c9 b0bd b3ec 9b3d 564b 933d
00000090: 04f1 023d 2c9f 8c3d 742e af3d 533b bd3d
000000a0: f61f 013e 3dfe 2abd 4b48 f63d 93fd f73c
000000b0: 2a7d 543d 8497 893d f5ce 2dbd 2485 f63d
000000c0: a65b 4fbc 7bf8 b83d 5af2 293d 56ba 0ebd
000000d0: 696f 4a3d d1c1 efbc 61f3 5b3d 8dc6 043e
000000e0: d331 6cbd a16f ec3d 2e71 fcbb 185a 0d3e
000000f0: 52ff abbd 57d1 643d f605 243d f8e6 aa3d
00000100: 6bad 793d 1274 de3d aed3 8bbd 3781 8fbd
00000110: c9bb e73d 7c06 0cbe 0b12 2c3c 7db7 a6bd
00000120: fdae aa3d 175f 4dbd 57c7 813d 7b61 a73d
00000130: 6187 493d 53ad 953d 9d1f 5fbd a39f d3bd
00000140: 927d b8bd d13f 763d 4d5e 81bd ce24 fe3d
00000150: dab7 a53d 0ef4 603d f30d f9bd 71fb a2bd
00000160: f149 d0bd b76e 8a3d 058f e0bd 8d43 6dbd
00000170: 7cb4 473d 6821 71bb ee5d 6abc 6fd2 0fbc
00000180: a832 2bbc 54ce 0abe 22d3 2b3d a742 c9bd
00000190: 9ebe e7bc 4261 343d 5039 c13d 1659 c6bd
000001a0: e0d5 a53d 28e6 ddbd ee97 2f3c 3b24 f2bc
000001b0: 9028 403b 1e58 b0bd 3b80 07be cadf cc3d
000001c0: 5f1d bfbd 70c8 17bd 3ce8 bd3c f377 09be
000001d0: 4777 c3bd b6c6 c33d f03c 773c a06c 9e3d
000001e0: a3cd b8bd 7d5b 99bd 9b39 083d 6279 8c3d
000001f0: f751 4e3d e794 403c faa5 adba 9115 793c
00000200: da6b d2bd a4ec 85bc af00 673c 88cb ecbd
00000210: d9c1 8bbd a4a5 c63d 1553 f33d 30b8 453d
00000220: 6c58 233e 2a5a a03d 566e 993d b504 b33b
00000230: c015 f43d c34c 36bd 2b8f 49bd 40b1 c93d
00000240: 6519 b3bd ab4f d2bd 3a08 023e a07b ca3d
00000250: ee33 8bbd fde0 b3bd 5a09 ed3c 85a2 883d
00000260: 9ceb 893d b32f 9dbc 93b4 fbbd 1b18 08bd
00000270: 2674 c2bd d9ab 533d 1a7f 0dbd bd9d d43d
00000280: 3f6e 98bd 4427 cd3d b558 093d daf0 a83d
00000290: 9fa8 99bd a3fe 8ebd ca53 c6bd da2f 133e
000002a0: 468e d73d 0ecb 19bd 20b9 203d f8fd c2bd
000002b0: 97fa 70bd 0c95 ccbc 5f5f b73d bde9 12bd
000002c0: be7f 4a3d d03a c33c b14c b7bd d677 c4bd
000002d0: a1fc 813d 6a20 4dbd 6621 2f3d d205 50bc
000002e0: a36b 713d f437 ca3c 6b77 43bd 2afc b5bd
000002f0: a583 c23d b642 a1bd 3d98 843b b9e3 c13d
00000300: ecb2 84bd 31e5 f6bc d28b 32bd b4cf bb3a
00000310: ea33 c4bd 69b5 e0bd 408e 39bd 5524 8e3c
00000320: e17e a5bd 88ab ac3c 8018 d1bd ff76 ba3d
00000330: b9f1 f23a 6979 babd 50e2 433c 85d6 2ebd
00000340: b931 193d 3a30 59bd c2bf 963d 51bb 953d
00000350: 00ac 19bc 479c 593d df68 48bd e091 bc3c
00000360: d35c 78bd eb46 a0bd 205c abbd fc99 0ebd
00000370: 7a40 773d 80ee c13c d318 5e3c 5dd4 08be
00000380: 7f6c 9fbc 0521 4e3c 2060 bd3d 02ba e93c
00000390: 8134 943d d488 a6bd a120 cebc 4b8d 873d
000003a0: 4a14 5dbd 6035 1bbe 480b 573d c0c5 6abd
000003b0: f0cc fcbb 155d fa3d 5375 1abe e9b3 1dbe
000003c0: 820a 80bc 820e 8fbd 7758 68bd 2254 f9bd
000003d0: 8996 9e3c 9c43 e03d db53 66bc 342e c13a
000003e0: 90f5 0f3d 07e4 5f3d 7d1c 14bd 4987 ab3d
000003f0: 1bf5 debc 435c efbd b32e 993d 498e 513d
-0.053937074 0.07184018 -0.003002244 -0.031325184 0.10500874 -0.094424196 0.07545161 0.0040945304
0.05908706 -0.015084761 -0.0022135319 -0.101585686 -0.030761538 0.030463928 0.043368302 -0.1083713
-0.067917734 0.09976075 -0.06800929 -0.013270305 -0.08292011 -0.018885624 0.12470989 0.07888028
-0.111388564 0.008056309 0.07679179 0.0463669 0.12638927 0.034401163 -0.009072978 -0.09268338
0.11817326 -0.08632269 0.07613506 0.071921036 0.03196813 0.06866297 0.08553782 0.09239831
0.12609848 -0.041746367 0.120255075 0.03027228 0.05187718 0.067183524 -0.042433698 0.12037113
-0.012656128 0.09031769 0.04149089 -0.034845673 0.049422655 -0.029267224 0.0536989 0.12966366
-0.057664704 0.11544729 -0.0077039218 0.138039 -0.08398308 0.055863705 0.040044747 0.08344835
0.0609564 0.108619824 -0.06827484 -0.07007068 0.11315114 -0.13674349 0.010502349 -0.08140466
0.083341576 -0.050139513 0.06336849 0.0817289 0.049201373 0.073084496 -0.05447351 -0.10333183
-0.09008326 0.060119454 -0.063168146 0.12409364 0.080917075 0.05492025 -0.12160864 -0.07958115
-0.10170353 0.067593984 -0.10964779 -0.05792575 0.048756108 -0.0036793593 -0.014304621 -0.008778199
-0.010449089 -0.1355527 0.0419494 -0.09827166 -0.028289136 0.044038065 0.094347596 -0.096849605
0.08097434 -0.108349144 0.010717375 -0.029558292 0.0029321052 -0.08610557 -0.1323251 0.10003622
-0.09331774 -0.037056386 0.023182027 -0.13424663 -0.09544235 0.095593855 0.015090212 0.07735562
-0.09023597 -0.07488153 0.03325806 0.068590894 0.050371137 0.011754251 -0.0013248317 0.015202896
-0.10274477 -0.01634819 0.014099284 -0.11562258 -0.06824083 0.09699562 0.11881081 0.048271358
0.15951699 0.078296974 0.07491748 0.0054632076 0.11918211 -0.0445068 -0.0492088 0.09848261
-0.08745078 -0.10269102 0.1269845 0.09886861 -0.06797014 -0.087831475 0.028935123 0.06671623
0.06734392 -0.019187784 -0.12290301 -0.033226114 -0.0949481 0.05167756 -0.03454504 0.10381649
-0.07442903 0.10017255 0.033531863 0.08249064 -0.07502865 -0.06982162 -0.0968395 0.14373723
0.105251834 -0.037547164 0.03923905 -0.09521097 -0.05883273 -0.024973415 0.089537375 -0.03586744
0.04943823 0.023831755 -0.089501746 -0.095931694 0.06347013 -0.05007974 0.04275646 -0.0126967
0.05894054 0.024684884 -0.047721308 -0.08885987 0.094977655 -0.07874052 0.0040464685 0.09467263
-0.06479439 -0.030138584 -0.043590374 0.0014328868 -0.09580214 -0.10972101 -0.045301676 0.017351309
-0.08080841 0.021077886 -0.10209751 0.09104728 0.0018535174 -0.091051884 0.011955813 -0.04268505
0.037400935 -0.053024508 0.07360794 0.073111184 -0.009379387 0.053127553 -0.048928138 0.023018777
-0.0606354 -0.078260265 -0.08367181 -0.03481482 0.060364224 0.023673296 0.013555723 -0.1336226
-0.019460915 0.012581115 0.0924685 0.028531078 0.07236577 -0.08131567 -0.025162043 0.06618746
-0.053974427 -0.1515708 0.052500993 -0.057317495 -0.00771486 0.12224785 -0.15083818 -0.15400662
-0.01563001 -0.06985189 -0.05672499 -0.1217425 0.01935889 0.109503955 -0.014058079 0.0014738501
0.035146296 0.054660823 -0.03615998 0.08375413 -0.027216485 -0.116875194 0.0747961 0.051161084

lstm.weight_hh_l0 f4 [256, 64]
00000000: 928c 01bc d12d 0d3d e246 033d 1726 ae3d
00000010: c3bf 64bd d4f0 7b3d 247a fbbc 3794 013e
00000020: 9eb5 eabc 3d68 b73d f538 fd3d bc1e 903d
00000030: 466e 0b3e 45c7 70bd a1b9 9fbd 01f5 09bd
00000040: 4efa 533d 9a60 19ba 85b9 c73b df34 85bd
00000050: 32ba a53d c4f7 123c 7e1c d6bd a565 883d
00000060: c2f7 0dbe 07b2 633d 9b7c c6bd 846d a1bd
00000070: 2cd6 953c e5a0 a43c 30c1 ea3a cb20 bdbc
00000080: 1522 b03d c456 8d3c 76be 95bc a47b 683d
00000090: cc1d 0a3e 839c b0bd 1651 80bc 3e15 fcbc
000000a0: 8a5d 8a3d 75c2 1c3d 56d1 d73d 935d d2bd
000000b0: 12c7 0c3d c476 9bbd 2632 d63c 2a11 b1bd
000000c0: 2716 cfbc 60f5 e6bd db46 cc3d 1e1a da3d
000000d0: a9c7 9d3d 964b 52bb 1afe 7dbb 51b3 af3d
000000e0: c977 1abc f317 d93d 1bb6 bb3c 3594 8c3d
000000f0: 085f 10bd 1b4a f93b 1773 cdbc b632 c9bd
00000100: 3295 eabd d7a2 92bc 54b9 12be 361c 833d
00000110: 5af4 33bd c42d 023d e524 dd3c 9ed4 02bd
00000120: d36e 353c 780d 073e 11de 4cbd 3b03 47bb
00000130: b5c4 c7bc d355 6fbc c586 a5bc d338 c43d
00000140: 6a47 8d3d b2ed 213d ebca b5bd c1d5 e1bd
00000150: 7b1e 3a3d 91e0 eabd dd15 953c d8f5 7ebd
00000160: f683 dcbd 2345 b73d 965c b73c a4d0 f23d
00000170: e411 ca3d 7df4 e83c fa50 bd3c cd1d 2e3e
00000180: be57 a73d c3f9 823d ae51 6d3c 1739 c8bc
00000190: 34dc d5bd 17c3 ecbd 932d c4bc 7f7a ff3c
000001a0: b3fe c93d 5fff fabd c4fd dc3c dfce 053e
000001b0: 0ea3 96ba a2b9 433d 6849 51bc 2ba4 c13d
000001c0: 319f 253d 56fa 1f3d 5baa 0ebd 5e06 eb3d
000001d0: 6acd 34bc 6477 933d f22e 9f3d e653 b9bd
000001e0: b108 e73d 158e 53bd 9740 dc3d eaad 203d
000001f0: 6356 a13c 9f87 96bd 8977 853d 12a2 8f3d
00000200: 050f 40bd 8fff 1cbd b0a5 8dbd b6bd 9e3d
00000210: 4ef1 b8bb 5893 883d 42c4 5ebd 6d4e a0bd
00000220: d406 88bd 9f05 b9bd 7af7 f33d efdb e83d
00000230: ca46 a93b 1524 e5bd d925 e13c 24eb 3abc
00000240: f538 7cbd bea6 97bd e1e3 b7bb b8d8 1ebd
00000250: b38f 1e3d 1384 1bbe fd60 d43d 327b 593d
00000260: ac5b c63d e0d5 ab3d dc25 0fbe d614 20bd
00000270: 9c94 8bbc ae99 e93d be66 a23d 6b83 873c
00000280: 9ce1 bc3d 6bf5 acbd fe0e 1ebd 2105 773d
00000290: 0f55 a63d 4b87 19bd d411 31bc 55c3 f3bc
000002a0: 8c9a 2a3d ca1c d6bd 2d0d c0bd d397 963c
000002b0: dc29 413d 1a80 5e3d c813 a2bd 10ca 1a3d
000002c0: 6543 c53c fdf6 acbd cd4b b83d 2662 aebb
000002d0: 2c2a f9bd 0793 973d ced6 cabd bbe0 96bd
000002e0: aa4e 0d3e e4e0 3c3d b92b 673d a038 223d
000002f0: 5c5c 01bc 4fc0 dfbd cd28 d63d 0d6c d1bd
00000300: ab6b 7f3d f65d f33d 9294 a23d 7b90 133e
00000310: 5d52 aa3c 4a21 5a3d f4a8 b53d 6a63 06be
00000320: 1c17 dbbc 7653 cdbd a851 b03d 8caa 38bd
00000330: 9351 273e eb34 d93d f86e 10be a3a2 28bd
00000340: 5c94 103b ebf4 163e 2e33 c8bd 7219 b43c
00000350: 9a16 2bbd 921e a43c a208 e13d ae95 6dbd
00000360: 71a9 9d3d 751a f33b c538 e2bd d3ac a03d
00000370: 4969 c4bd 40f2 b2bd 898e 08bd 352d 2cbc
00000380: 279e 1e3d 4f9b 0f3d 215b 5bb9 4ea4 9dbd
00000390: aeda 8ebd aac6 90bd eb5f 6bbd fb38 1abd
000003a0: e346 763d 789e 1f3d da44 17bd 0a08 85bd
000003b0: 746b a73c 8b97 e2bd 3aa4 10be 112b 66bd
000003c0: c835 f0bc 652c 263d 350f 343d 250c 153d
000003d0: c9c4 fb3c 01b2 9abd 85bf 5a3d 7c2d 8fbd
000003e0: 801d e5bc edc2 10be f4e7 b6bd ded4 69bd
000003f0: 7e3d 193d e303 043d 2e84 c1bd 3087 da3c
-0.00790705 0.034467522 0.03205002 0.08503359 -0.05584694 0.06150897 -0.03069789 0.12654196
-0.028651055 0.08955429 0.12364379 0.07037112 0.13616285 -0.05878379 -0.07799078 -0.03368092
0.05175238 -0.00058508816 0.0060951137 -0.06504225 0.080921546 0.008970205 -0.10454653 0.06660012
-0.13864043 0.055589702 -0.09691735 -0.078822166 0.018290602 0.020096252 0.0017910358 -0.023086926
0.08600251 0.017253287 -0.018279295 0.056758538 0.13487929 -0.08623602 -0.015663665 -0.030771848
0.067561224 0.038271386 0.105379745 -0.10271754 0.034369536 -0.07591012 0.02614696 -0.08645852
-0.025279118 -0.1127727 0.09974452 0.10649513 0.07704098 -0.003208851 -0.0038756193 0.08579124
-0.009427973 0.10600271 0.022913983 0.06864206 -0.03524688 0.007607711 -0.025079293 -0.098241255
-0.11454238 -0.017899914 -0.1432851 0.06401865 -0.043934204 0.031781927 0.026995132 -0.03194105
0.011073786 0.13188732 -0.050016467 -0.0030366916 -0.02438579 -0.014607864 -0.020205865 0.09581151
0.06898387 0.039533325 -0.08876594 -0.110270984 0.045439225 -0.11468614 0.018198902 -0.062246174
-0.10767357 0.08948734 0.022383016 0.11856201 0.098666936 0.028436894 0.023109902 0.17003556
0.08171032 0.063952945 0.014484806 -0.024441285 -0.10442391 -0.11560648 -0.023947513 0.03118634
0.09863033 -0.122557394 0.026976474 0.13067196 -0.0011492686 0.047784455 -0.012773849 0.09455141
0.04043502 0.0390571 -0.034830432 0.11475824 -0.011035303 0.07200506 0.07772626 -0.090492055
0.11280955 -0.05164917 0.10754507 0.039228357 0.019694513 -0.073500864 0.0651694 0.07013334
-0.046889324 -0.038329657 -0.06916368 0.07751028 -0.005644 0.066687286 -0.054386385 -0.078274585
-0.06641927 -0.09034275 0.11912437 0.11370074 0.0051659094 -0.11188523 0.027483867 -0.011408601
-0.061577756 -0.074048504 -0.005611882 -0.038780898 0.03871126 -0.15187101 0.103700615 0.053096004
0.09685454 0.08390403 -0.13979286 -0.03908237 -0.017038636 0.11406265 0.07929753 0.016542157
0.09222719 -0.08445247 -0.038588516 0.060307626 0.081216924 -0.03748254 -0.010807473 -0.029756228
0.041651294 -0.1045471 -0.09377513 0.018382942 0.04715906 0.054321386 -0.07913929 0.037790358
0.024079988 -0.08445547 0.08998833 -0.005321759 -0.12166247 0.0740109 -0.09904252 -0.07367083
0.13799539 0.04611291 0.05643818 0.039604783 -0.007895555 -0.10925352 0.10457001 -0.10225687
0.06235854 0.11883156 0.07938494 0.14410584 0.020791227 0.053254403 0.08870116 -0.13123861
-0.026744418 -0.100256845 0.08609325 -0.04508452 0.16339712 0.106057964 -0.14104831 -0.041170727
0.0022061085 0.14741866 -0.09775387 0.02198479 -0.0417696 0.020034108 0.10987975 -0.058004074
0.07698334 0.0074189254 -0.11045984 0.078454636 -0.09590394 -0.08737612 -0.033339057 -0.010508825
0.038725045 0.035060223 -0.00020919416 -0.07697354 -0.069753036 -0.07069142 -0.05746452 -0.037651997
0.060126197 0.038969487 -0.036930896 -0.06495674 0.02043698 -0.11064061 -0.14125147 -0.056193415
-0.02932252 0.04056968 0.043959815 0.036388535 0.030733483 -0.07553483 0.053405304 -0.06991097
-0.027968168 -0.14136858 -0.0893096 -0.05708777 0.03741216 0.03223027 -0.094490394 0.02667579

lstm.bias_ih_l0 f4 [256]
00000000: 5b47 fcbd a68a 263d 4792 a1bd 8fc9 7b3d
00000010: c1cb 94bd e82f f1bc 11e3 22bd c6c4 30bd
00000020: 46e4 01be 48c7 cb3d 2946 c2bd 5a90 b43d
00000030: 0cf0 7b3c 4b10 c8bd ba5a 103a 965c aa3d
00000040: b270 40bd 779e 76bc e06c 413c 315b ef3d
00000050: da82 003e 6129 433c d5c2 cebd dccb 97bd
00000060: 8f4b 4a3d 0b9f 90bd cb9a d73c d96b a73d
00000070: be0e c33c 22e1 18bd 2c3e ea3d 873d 08bd
00000080: 079e 523b b7fc 0b3e afb1 263c 1921 e43d
00000090: c7be 453b 3448 353b 2513 693d ddb0 cabd
000000a0: 56ff 1cbb 6cb9 dd3c 6974 ad3d 2e7a bbbd
000000b0: ea51 b1bd e200 bc3d 88a9 153d 2887 42bd
000000c0: 58f6 263c b204 a9bc 0a92 a93d b73d dc3d
000000d0: 7a41 c43c b86b bfbd 8967 f3bd 236f 9a3a
000000e0: f89f 27bd 781d b23d 3f6e 263d 5e78 013d
000000f0: 0fb6 bbbc f6eb 1b3d 575f d83b 41f3 b0bc
00000100: 15f2 6a3d 6171 abbd 893a 083c 9406 de3d
00000110: 2a5b c43d d7cc 4e3d 6a9d cebd 6091 da3d
00000120: 09d1 a1bd 4158 073e 2ab1 4d3d f52f aebb
00000130: c00c 823d efa1 e53b 1e54 97bd 5a65 5fbd
00000140: 2f54 61bd fe85 b23c 43de 9cbd fc62 9e3d
00000150: d284 8a3d 8dc7 9a3d 5671 bdbd fbed c33c
00000160: 4281 043e 02a6 8a3d 9a5c 6dbd d202 2a3d
00000170: 2194 fb3c 5510 0ebd 4e07 303d f9a3 b3bc
00000180: 9c11 11bd e6c9 f33d 4948 c9bd 5e40 603d
00000190: 3ce4 a9bb ef40 afbd 2d57 ba3d 0430 cd3d
000001a0: a16f d83d 7030 00bd 31ea 4939 3ea6 8ebb
000001b0: 9703 6dbd 9826 7a3d b128 90bd 8ecc 02bd
000001c0: def1 a13c da11 d33d 93fa febc 0903 81bb
000001d0: 422e e4bd 3966 b1bd 9c1b b9bd a205 b83d
000001e0: 99ee 1dbd ae26 1a3c bb90 063c e30e 633d
000001f0: 0305 11bc 8b69 ba3d 807d 2ebd 5362 2a3e
00000200: a3d7 ccbd fb03 953d 2d52 2b3d 0be1 c63d
00000210: 1290 dcbd dba3 133d d864 dfbc 6d98 1abd
00000220: fc2f 973d 8c69 0bbe 4540 163c 74a1 3bbd
00000230: 6fc7 93bd 506d 973d 2a12 74bd ad34 963c
00000240: 9c0e 91bd edb8 8d3d ab26 87bc 7f0a 063d
00000250: dd72 283d 9123 d7bc 8fac f43d ab36 043e
00000260: 4198 f8bb 6673 88bd 3255 bdbc 28ce a33d
00000270: a03a e2bd c2cf 8e3d 963e c63c d268 75bc
00000280: 44e8 b3bc aa62 c33d 8440 40bc a95f aabd
00000290: 1f86 00be 9cf8 0cbd 6278 503d 3f4e e9bd
000002a0: c22d 0f3e 792d ea3d 4208 073c 3adc e8bc
000002b0: d5da 483c 1ab0 f9bd 16c0 b0bd 0694 153d
000002c0: 889d a0bd b322 2a3d 392f d7bd c8b1 5a3d
000002d0: b094 cd3d 6fc0 69bd c32e 9fbc dc0f aabd
000002e0: 0565 463d 31db b8bd b126 023d 9afa 64bd
000002f0: f30e 0fbd 98f0 ed3d 3760 053d 78ca c93d
00000300: b82d 00be acc8 d0bd 21f8 5d3d b0b3 cabb
00000310: a49b d23d 8068 e1bb a1da 473c 962d 973d
00000320: a75d 923d 7f2a 2ebd 0283 46bc 0698 99bd
00000330: 4d4e 093e 2d2a 153d 7fa6 b53d a934 983c
00000340: 761f 5c3d 5e18 f13c a0e3 293d b530 efbc
00000350: 9e0b a93d 2dc5 723b fd2a 93bd 7795 933c
00000360: c4fe f03c d035 913d 6a10 c3bd 676e d33d
00000370: 3ac0 823d 294d 673d 7150 4d3d 58ba d3bc
00000380: 88df 63bd f078 a7bc 35f3 4d3c 1562 a13d
00000390: d7e6 c6bb f8d0 19ba 2fbc 4c3d 22c9 f4bd
000003a0: 5642 e63d 0d4e 903d cb43 2abb 6a38 09bd
000003b0: 1c23 ac3b 0784 02be 1a43 a0bd 77e5 cd3d
000003c0: e920 5fbd c18e 563d 3421 a6bd 16ac dc3c
000003d0: e6de 413c 10da a8bb 7974 363d b639 4e3d
000003e0: cfc4 22bd f0d8 00bd d036 66bd 91e3 33bc
000003f0: 89eb b4bc 540c 6cbd 09dd c1bd b3ed 19bd
-0.123182975 0.04065957 -0.07889228 0.061471518 -0.072654255 -0.029441789 -0.03976733 -0.043156408
-0.12684736 0.09950119 -0.09486038 0.088165954 0.015377056 -0.09768733 0.00055066834 0.083184406
-0.046982475 -0.015052429 0.011805743 0.11687315 0.12549916 0.011911721 -0.10095755 -0.0741193
0.049388465 -0.07061585 0.026318928 0.08174867 0.02381074 -0.03732408 0.114376396 -0.033261802
0.0032137649 0.13670622 0.010174199 0.111391254 0.0030173527 0.0027661445 0.056903023 -0.09897015
-0.0023955903 0.027065955 0.08469469 -0.09154163 -0.08658202 0.09179856 0.03653863 -0.047492176
0.010190569 -0.020632122 0.08279808 0.10753959 0.023957003 -0.093467176 -0.11884982 0.0011782389
-0.040924042 0.08697027 0.040632483 0.03160893 -0.02291396 0.038066827 0.0066031623 -0.021600368
0.057359774 -0.08371235 0.008314737 0.108410984 0.09587701 0.05048832 -0.10088618 0.10672259
-0.079011984 0.1321726 0.050217785 -0.0053157755 0.06350088 0.0070078294 -0.07389091 -0.054540016
-0.055011924 0.021792408 -0.076595806 0.077337235 0.06763615 0.075575925 -0.09250133 0.023917189
0.12939933 0.06769945 -0.05794964 0.041506596 0.030710282 -0.034683544 0.042975716 -0.021928774
-0.035417184 0.119037434 -0.098282404 0.054748885 -0.0051846784 -0.08557307 0.09098659 0.10018924
0.105681665 -0.031296194 0.00019256097 -0.0043533137 -0.05786475 0.061071962 -0.07039011 -0.03193336
0.019768652 0.10306139 -0.031125342 -0.0039371294 -0.111416355 -0.086620755 -0.09038469 0.089854494
-0.038557623 0.009408636 0.008213217 0.05543412 -0.008851293 0.09102162 -0.042600155 0.1663907
-0.10002067 0.0727615 0.041826416 0.09710892 -0.10769667 0.036044937 -0.027269766 -0.03774302
0.07382199 -0.13614482 0.0091705965 -0.04580827 -0.07215773 0.073938966 -0.059587635 0.018335665
-0.07082865 0.069200374 -0.01649793 0.032724854 0.041125167 -0.026262077 0.119469754 0.12911479
-0.0075865095 -0.066626355 -0.023111913 0.079983056 -0.11046338 0.069732204 0.024199765 -0.014978604
-0.021961339 0.09540303 -0.011734132 -0.08319027 -0.12551163 -0.03441678 0.050896056 -0.113918774
0.13982299 0.114344545 0.008241715 -0.028425325 0.012259205 -0.12191792 -0.086303875 0.03651812
-0.07842547 0.041536998 -0.10507054 0.0533922 0.100381255 -0.057068285 -0.019431477 -0.08303806
0.048436183 -0.090261824 0.03177518 -0.055903055 -0.034926366 0.11618155 0.03256246 0.09853071
-0.1251744 -0.10194525 0.054191712 -0.006185971 0.10283592 -0.0068789124 0.012198121 0.07381742
0.07146769 -0.042520996 -0.012116196 -0.07499699 0.13408776 0.036417175 0.08869647 0.018579798
0.05374094 0.029430564 0.041476846 -0.02919803 0.08254169 0.0037043795 -0.07185934 0.018015606
0.029418357 0.07090342 -0.09524615 0.10323792 0.063843206 0.05647007 0.050125543 -0.025845692
-0.055633098 -0.02044341 0.012570192 0.07880036 -0.0060699987 -0.00058676256 0.049984153 -0.119524255
0.11243121 0.07046137 -0.002598035 -0.033501066 0.005253209 -0.12745677 -0.078252986 0.100535326
-0.054474745 0.052382234 -0.08111802 0.026937526 0.011832928 -0.005152948 0.04454467 0.050348006
-0.039738473 -0.031456888 -0.056204617 -0.010979549 -0.022084968 -0.057628945 -0.09465987 -0.037580203

lstm.bias_hh_l0 f4 [256]
00000000: 7302 6dbd 8ff9 8dbd 8389 a63d b9b9 073e
00000010: e490 ce3d a9fa 5d3d 600e a7bd 09de 9e3d
00000020: c18a 3b3d 3223 d0bd 9041 b73c aad2 97bc
00000030: 2955 cd3c dd44 cc3d 2d3b b7bd 06d2 d1bd
00000040: 61a8 85bd 273c 593d 81ee dfbd 9f6f df3d
00000050: ae50 aabc cb69 dc3d 0937 023e 4b5f 453d
00000060: 150d 3d3d 19f1 733c d272 cc3d 261f b2bd
00000070: 4290 62bd 86b9 49bd 4d49 043e a141 c13d
00000080: b5eb 4c3d ceaf 4c3d d319 e4bd d257 713d
00000090: 597c 94bd 6435 5e3d 4d03 b0bd a006 fdbd
000000a0: c4fa 9ebd 2528 6cbd 9310 723d 9b8a 0ebe
000000b0: 9690 ba3d 9d48 823d babf 2bbd abad 96bd
000000c0: 4c0a f4bd 1372 013e c9d9 2b3b dbea acbc
000000d0: 0aff cbbd e9de 3bbd d5ba 5cbb fe39 6f3d
000000e0: f61c adbd 73af 0b3d db42 d93d b100 5ebd
000000f0: 69ab 0f3d 019d a93d 4840 493d 08f2 20bd
00000100: fb00 8d3c 7297 ef3d 2354 98bd fcca d03d
00000110: 8db8 b6bb c0cb 0c3d 6dd6 e2bc ca52 eebd
00000120: 7e60 98bc fb86 9fbd 77c6 ce3d 5867 cabd
00000130: ad94 a03d 8b38 c8bd 9189 163e b0ad 983c
00000140: a397 34bb a245 043e a32c 22bd a4fc d3bd
00000150: 3067 973c e825 373e 1b8d 153d 42fa 1f3d
00000160: ae90 203e 84ec 3d3d df37 953d ce24 6c3d
00000170: 55a9 98bd 0ae2 f6bb 5bd0 f53b 9b89 25bd
00000180: 47db 80bd fec1 323d ba6c 8dbd 1c99 e6bd
00000190: 14b0 34bd 30b2 a4bd 665a 59bd c6f0 eebc
000001a0: d746 9f3d ddad 033e ad95 723d 3993 4dbd
000001b0: e76d a93d 6791 d33d e892 1a3d 8833 86bc
000001c0: 7da8 f8bd fac0 e23c 7489 073e c4ed 8f3d
000001d0: 76ae 5b3d 6cc0 813d 3541 a8bd c83e 023e
000001e0: d155 a3bd 42ad 913d 418d 2c3d a7ad 2ebd
000001f0: 248c 743d 2a58 c2bc 93c9 5a3d c151 223e
00000200: 5614 d7bd 6634 4abb f140 8e3d 423f b53d
00000210: 5dbd a03d 8e7a 93bd cfaa 353c 7449 b23d
00000220: 7778 143d 5c84 703d 4261 ee3c e44a 9d3b
00000230: 6f65 9abd 4623 92bd b619 8a3c caf5 863d
00000240: 1b4f 03bd 45bc 69bd 086f 693d ffd0 27bd
00000250: 24a6 ab3b c8b4 6d3d da6e aabc 73ce b83d
00000260: 5119 bc3d 8042 4ebc 4208 9abd 92fd 57bd
00000270: 2df0 233d cdf6 b5bd 3460 91bd 2b62 82bd
00000280: 31b7 f13d a83e e03c d7c5 98bd e68c 233d
00000290: 0b48 a3bd df06 c4bd bbd6 c3bd cf6c ddbd
000002a0: 5468 9dbd ba4e bd3d c1ac d83d c77d c13d
000002b0: 14be 033b 04f8 e3bc a172 9b3c 6a5d d8bd
000002c0: 3358 9e3d 1e5c a93d 35c8 d23d 0695 e23d
000002d0: d699 d83d 4945 073c c283 d2bd e685 a2bc
000002e0: ddaf a8bd 7e8a 973c c6f6 603d 192a 923d
000002f0: 1712 dd3d 2698 e5bd 9b19 9bbd 45f2 00be
00000300: f638 80ba 3003 f1bd 4dd5 9f3d 9353 f53c
00000310: 7f9a ab3d cbd3 253d c618 6fbd de6e c9bd
00000320: 0e46 413d d769 b73c b981 043e cb6f efbd
00000330: 6cf7 5cbd a7ff 923d 84ba d73c c11d d8bd
00000340: 7780 2dbc 4a95 453b aa19 a3bd bc2e e9bd
00000350: 6093 683d 95db 2f3c e64c 623d b42c 083e
00000360: 96dc a33a e8ba 893d e678 1c3d 95d3 92bd
00000370: 522d 80bc f7fa c53c 9074 873d 5ee8 d0bc
00000380: c346 0d3b 4d67 ee3d 0dca 413d 9bdc c1bb
00000390: 654a 6b3d 7480 9c3d 9b28 98bd ba24 82bc
000003a0: 4e74 7cbd 1e7b 86bd ce2b 273c c402 f6bd
000003b0: caa1 aebd ea05 ce3d d422 ea3d f5cc bfbd
000003c0: b605 00be 3368 5abd 250b 4a3d f93b a8bd
000003d0: 0710 6bbb b41d 463d 3607 bb3c 4661 58bb
000003e0: 6adc 93bc 993b bf3c f9b5 ba3a 7e7f c53c
000003f0: 35a2 753d 751a d4bc 6ed3 693d 144d 5c3d
-0.057863664 -0.06932365 0.08131697 0.13254441 0.100862294 0.054194126 -0.08157039 0.077571936
0.045786623 -0.10162963 0.02237013 -0.01853307 0.025065022 0.09974072 -0.08946834 -0.10245137
-0.06526256 0.05303588 -0.10934163 0.10909962 -0.020790424 0.10762366 0.12716307 0.04818658
0.046155054 0.014889025 0.09982838 -0.08697347 -0.055313356 -0.049249195 0.12918587 0.09436346
0.050029475 0.049972348 -0.11137738 0.058921643 -0.0725028 0.054250136 -0.085943796 -0.12354779
-0.077626735 -0.057655472 0.059097838 -0.13920061 0.09109609 0.06361506 -0.04193089 -0.07357343
-0.119160265 0.12641172 0.002622234 -0.021108082 -0.09960754 -0.04586688 -0.0033680697 0.058404915
-0.084527895 0.03410287 0.10608455 -0.054199878 0.03507558 0.08281899 0.04913357 -0.03929332
0.017212382 0.11698808 -0.07437923 0.10194966 -0.0055761994 0.034374 -0.027690137 -0.116368845
-0.018600699 -0.07789417 0.10096448 -0.098829925 0.07840858 -0.0977641 0.14700915 0.018637508
-0.0027556203 0.12917188 -0.03959335 -0.10350922 0.01848182 0.17885554 0.03651152 0.039057024
0.15680191 0.046368137 0.07286047 0.057652287 -0.074541725 -0.00753427 0.0075016445 -0.040414434
-0.06291824 0.043642037 -0.069055036 -0.11259672 -0.044113234 -0.08041799 -0.053064726 -0.029167544
0.077771835 0.12859292 0.059224773 -0.05018923 0.08272915 0.10330468 0.037737757 -0.016381994
-0.121415116 0.027679909 0.13236028 0.07027772 0.053633176 0.0633553 -0.08215562 0.12719262
-0.079753526 0.071131244 0.042126898 -0.042646077 0.05970396 -0.02372368 0.053414892 0.15851499
-0.10501926 -0.0030853986 0.0694598 0.08849956 0.07848618 -0.0720111 0.011088087 0.08705416
0.036247697 0.058719978 0.02909911 0.0048001874 -0.07538878 -0.07135634 0.016857963 0.06589849
-0.032057863 -0.057064313 0.056990653 -0.0409708 0.0052383114 0.058033735 -0.020804811 0.09023752
0.09184516 -0.012589097 -0.07521106 -0.052732058 0.04002397 -0.08884964 -0.070984274 -0.0636638
0.11802519 0.027373627 -0.0745961 0.039929293 -0.079727255 -0.09571623 -0.09562441 -0.10811769
-0.07685915 0.092435315 0.10579825 0.09447818 0.002010231 -0.027828224 0.018975558 -0.10564692
0.077316664 0.08269523 0.10292093 0.1106358 0.10576217 0.008256265 -0.10279037 -0.019839238
-0.08236668 0.018498655 0.05492284 0.07136936 0.10794466 -0.11210661 -0.07573243 -0.12592418
-0.0009782601 -0.11768186 0.07804356 0.029947078 0.08379077 0.040485185 -0.058373235 -0.09835599
0.04718595 0.022389336 0.1294011 -0.11691245 -0.053946897 0.07177668 0.026334055 -0.1055255
-0.01058971 0.0030148798 -0.079638794 -0.11385867 0.056781173 0.010733505 0.055249117 0.13298303
0.0012501653 0.06725103 0.038201235 -0.07169262 -0.01564661 0.02416752 0.066140294 -0.025501426
0.002155707 0.11640797 0.04731183 -0.005916191 0.057443995 0.07641688 -0.0742962 -0.015886653
-0.061634354 -0.065664515 0.010203315 -0.12012246 -0.085269526 0.10059722 0.11432424 -0.09365264
-0.12502179 -0.05332203 0.049327035 -0.08214564 -0.0035867707 0.04836817 0.022830587 -0.0033016964
-0.018049438 0.023343848 0.0014244906 0.024108645 0.059969146 -0.025891522 0.0570864 0.053784445

lstm.weight_ih_l1 f4 [256, 64]
00000000: 4970 a63d 9223 9b3c 6433 8aba 6766 113d
00000010: 61d6 553d 952d 433d d66a a53d 4acc e93d
00000020: ff3d ce3d 788a 3a3d ae19 f4bd 773b d23b
00000030: 0bfb fbbc 35f8 aabd 6379 84bc bade b83d
00000040: 8589 e93d b00e 06be 6abc 42bc 36d6 85bd
00000050: a287 cc3c a81c 2abd b2ed c3bd 3b47 93bd
00000060: a392 8d3d ce5a eebb 7cea a5bd a2ce 743c
00000070: 42d7 97bd 860b bebd 49cf b1bd f93f d6bc
00000080: 73bf 9fbc 4562 373c b7f7 543d 9436 a83d
00000090: a1b7 fabd faa1 33bd f432 ab3d 0f53 173d
000000a0: 3f92 193d af1e 8d3d eb11 1cba 875e 87bd
000000b0: 6b0f 873d 5d03 873d 3a5e b13d 2235 a2bd
000000c0: a1f3 493d 9174 2fbd 7010 2abd 9b5c 1fbc
000000d0: 7026 aebd 87e3 b93c 065b d73d 0759 ce3d
000000e0: ba58 d7bd c85f 38bd 4f6c f13d 5906 08be
000000f0: 6f53 29bd 543a babd 2c50 83bd 0c79 95bc
00000100: bb20 a53d d1d0 c7bd 0036 9bbd 9f32 033d
00000110: 6c69 a6bd ef98 833d 4e9e d63d 66f3 893d
00000120: 5c53 123e 727c c4bd f821 a83d cb5d 9ebc
00000130: bf07 14bd 92c0 a0bd b418 4bbc 19e8 c73d
00000140: 58ad bcbc f2d0 9c3b d7da d53d bcd3 0dbe
00000150: db38 f7bc c834 033d 7184 adbd c5ae 323c
00000160: f724 2b3c 25d7 b1bd 7556 113d ef1d 113d
00000170: fa9e 5cbd 3161 c9bd 7aec aa3d 022e b43d
00000180: b852 f5bd 34e2 70b8 704c 0e3e da70 f7bd
00000190: 767c ba3d 206c f0bd d1cf d5bc 7a5f babd
000001a0: 3a93 bd3b 8061 1dbc ba31 0d3b dc76 a73d
000001b0: f362 fb3d 195e acbd b11c 0fbe dfdf a9bd
000001c0: 4a36 bf3c 6a19 bc3b 03dd b23d 5484 163d
000001d0: 1f28 b33c 9f5e 743d 9402 f9bd bbb3 fe3d
000001e0: ca6c 1ebb 44b4 aa3d 2d35 c23d 9bbb de3d
000001f0: 8e73 d23d 3e9c 093d 7abc 34bd 103c adbd
00000200: d111 96bd 40e4 693c f12f 533d fe7b f53b
00000210: d06d f5bb 69e2 a8bb a4e0 d9bd d3e5 d2bc
00000220: e29d c8bd 97f2 03bd 08fa 483d 1dc5 983d
00000230: 8cb0 633d 4744 0fbd 6651 8e3b f235 c0bb
00000240: 2d0b 113c d7cb 813d 7f1d a7bd e4bb 133d
00000250: 359a e93c 0a52 c3bc 7c04 633c 568a 953d
00000260: cc32 a4bd 9575 9f3d 2247 b03d 7ce1 d53d
00000270: 9736 c8bd 5ffe 543d f015 953d 4fe6 5bbd
00000280: 97de 9bbd b8e7 dd3d ab97 1bbb 74f9 ce3b
00000290: 3446 813b 0d12 0cbd 485d 0f3d 9635 06be
000002a0: 3f44 a2bc 2052 98bb 6b19 96bd 8f76 43bd
000002b0: 122d bf3d 4817 01be ba51 48bd 33de a7bd
000002c0: eb1a c83d d61f 9abd 7a56 363d a909 c3ba
000002d0: 9745 04be a076 05bc 8e64 dcbd 9e60 4dbc
000002e0: c092 2bbd 58d8 cfbd a584 b1bb 65f0 cdbc
000002f0: 847b ed3c 7226 5b3d e24c b2bc bb4f 2bbd
00000300: 963c cc3c db24 bf3b df49 2e3b bc73 093d
00000310: 0938 f03c 73da ce39 4e94 a6bd 2c56 bfbd
00000320: 37a1 e03d c13c feba a7e2 a73d 3e32 92bc
00000330: 5270 913d 29c3 cabd b063 713b fbdd 67bd
00000340: 60a2 b8bd f5cf b03d b5bb 97bd 11cb 093c
00000350: c4d0 af3d a505 fdbd dd08 a2bd ac1c 67bc
00000360: 77bf 9e3d 1dfe 6d3d a1e7 3a3d 7c2f 9dbd
00000370: d20a 1e3d 9981 763d 2bb3 b8bd c630 db3c
00000380: 9fbc 853d a388 d83d 22cf 333d 8a4a e53b
00000390: cb71 32bd 5787 993d c294 d6bc dee1 eabd
000003a0: 3cd4 803c 8f02 39bd 9a13 7bbc b4a6 2f3d
000003b0: 50c0 ad3d 6d18 673b f90f ee3d b987 f13d
000003c0: e83c 3cbd 0090 bdbd ddf1 78bd dada 58bd
000003d0: 52bb 87ba 51c4 9bbb 97c8 e1bd 3968 d93d
000003e0: 907f 343d 0171 623d 96ec 853d 73e4 30bc
000003f0: db67 ec3d 7076 edba c957 8fbd 2cc1 a83d
0.081268854 0.01893786 -0.001054388 0.03549805 0.0522064 0.047650892 0.08077018 0.11415918
0.100704186 0.04554221 -0.119189605 0.00641578 -0.030759355 -0.08348123 -0.016171163 0.09026857
0.11403183 -0.1309154 -0.011885742 -0.06534998 0.024967019 -0.041531235 -0.09566821 -0.071913205
0.06912734 -0.0072740084 -0.08101365 0.014941843 -0.07414104 -0.09279542 -0.08682115 -0.026153551
-0.01950047 0.011192863 0.05199405 0.08213535 -0.12242056 -0.043855645 0.08359328 0.036944445
0.037492987 0.06890618 -0.0005953598 -0.066098265 0.065947376 0.06592438 0.086605504 -0.079202905
0.04930461 -0.042835776 -0.041519582 -0.009726669 -0.08503425 0.022691501 0.10515408 0.10075574
-0.1051497 -0.04501322 0.11788236 -0.13283671 -0.041339334 -0.090931565 -0.06411776 -0.018246196
0.080628835 -0.097566254 -0.07578659 0.032030698 -0.081255764 0.06425654 0.10479413 0.06735878
0.14289612 -0.095940486 0.08209604 -0.019331833 -0.0361402 -0.0784923 -0.012396026 0.09761066
-0.023031875 0.0047856504 0.10442131 -0.13850302 -0.030178478 0.032032758 -0.08472527 0.010905926
0.010445825 -0.08683614 0.035482842 0.035428938 -0.05386255 -0.09832991 0.083458856 0.08797838
-0.11978668 -5.7431127e-05 0.13896346 -0.120820716 0.0910577 -0.11739373 -0.026100071 -0.09100242
0.005785373 -0.009605765 0.0021544532 0.081769675 0.122747324 -0.08416385 -0.13975789 -0.08294653
0.023341317 0.0057403343 0.08733561 0.03674729 0.021869717 0.05966055 -0.12158695 0.124366246
-0.002417373 0.08335164 0.09482799 0.10875627 0.102759466 0.03359627 -0.044125058 -0.08458722
-0.07327617 0.01427561 0.051559392 0.0074915877 -0.0074898973 -0.0051539433 -0.1063855 -0.025744354
-0.09795739 -0.032213774 0.049066573 0.074594714 0.05558829 -0.034977224 0.0043431995 -0.005865806
0.008852762 0.063377075 -0.08159923 0.03606786 0.028515914 -0.02384283 0.01385605 0.07301776
-0.08017501 0.07786099 0.086073175 0.10443398 -0.09776037 0.0520004 0.07279575 -0.053686436
-0.07610815 0.108352125 -0.0023741524 0.006316358 0.0039451364 -0.034196902 0.03500107 -0.13106379
-0.019807933 -0.004648462 -0.07329067 -0.04772049 0.09334768 -0.12606537 -0.048906066 -0.08196678
0.09770759 -0.075256035 0.044516064 -0.0014880198 -0.12917171 -0.008145958 -0.10761367 -0.012535242
-0.041888 -0.10148686 -0.005417424 -0.025139043 0.02898956 0.05350346 -0.021765176 -0.041824084
0.024931233 0.005833251 0.0026594324 0.03355764 0.029323595 0.0003945414 -0.081337556 -0.09342608
0.10968249 -0.0019396768 0.081975274 -0.017846223 0.071015015 -0.09900505 0.00368331 -0.05660818
-0.090153456 0.08633415 -0.07408849 0.008410231 0.08584741 -0.12354592 -0.07911847 -0.014105957
0.07751363 0.05810367 0.045631055 -0.076750726 0.038584538 0.060182188 -0.090185486 0.026756655
0.06530117 0.105729364 0.04389871 0.006997411 -0.043565553 0.07496517 -0.02619398 -0.11468862
0.015726201 -0.045168456 -0.015324498 0.04288359 0.08483946 0.0035262362 0.1162414 0.11793465
-0.045956522 -0.092559814 -0.060777534 -0.052943088 -0.0010355508 -0.0047536273 -0.110245876 0.10615582
0.044066966 0.05528355 0.06539266 -0.010796654 0.11543246 -0.0018116962 -0.069991656 0.082399696

lstm.weight_hh_l1 f4 [256, 64]
00000000: 200d 88bd 94bf d7bc 61ba c8ba bc7c d1bd
00000010: 0e7d 2b3d 0ffd d63d 72cc d6bc 3dd7 913d
00000020: c1aa d03d 220f 81bd 6e98 603c 7dcd d0bd
00000030: 9821 e0bc 8d38 99bd 9c6a afbc 7194 4abd
00000040: 69d8 7cbd 0486 5cbc 7fc3 37bd 5876 2b3d
00000050: 3f69 ffbc f067 4cbd 7665 c3bd b256 243c
00000060: 3d1f 00be 3839 033d 4efa 1e3d c2e9 773d
00000070: 61d3 5c3d ea44 b4bd 07f4 c8bc 6186 b33d
00000080: 843d a73d 1a00 9e3d 7dac ffbd 1ba5 63bd
00000090: dd24 26bc e07b ccbd 0023 0e3e b723 ec3d
000000a0: 4a7f 49bd 9fab 0f3d 1ccb 1abe 4aed 143c
000000b0: f9f3 3abd 5ee0 3f3d 5fc1 01bd e583 463d
000000c0: f1fc 33bd 2640 b9bd 2a9e a33d bba6 7c3d
000000d0: be91 ac3d 24ad dbbd 37b3 fa3b 95da e4bb
000000e0: 58b3 293d 1639 bb39 6796 b53d e0e9 9c3d
000000f0: 6d83 0fbd 481e e1bc ccff eebd ac17 a8bd
00000100: ebf2 24bc 83e9 0cbe 8735 8ebc 58e1 763b
00000110: 3c51 113e 722c b73d c1fb a7bd 73a2 c2bd
00000120: a17e 3dbd 7091 7abd b274 a0bb e190 9fbd
00000130: 0444 3fbd 5b98 cebd e27f 0f3e b01d 533c
00000140: ed0d afbd f861 86ba 4b78 8dbd 95f9 83bd
00000150: 9815 28be 7927 0cbe b5a8 80bc ba10 8ebd
00000160: c08f f03d 37c4 413d 3ad5 f13d b13d 213e
00000170: 9367 b43d 0e0e 6a3c 282f ccbb b0f0 c7bd
00000180: 7786 213e 0af3 723c 586a e23c 1ad2 8c38
00000190: 4d51 62bd cde8 673d e1de fcbd 8af1 90bd
000001a0: 9d27 afbc b504 e6bc 1f51 8b3d 9788 83bd
000001b0: 6b59 34bd 8133 743d 639d 1c3d 8683 05bd
000001c0: 482a ed3c af96 223e bd71 cd3c 4651 a2bd
000001d0: 6850 d43c 74b3 d6bd 4152 2b3e 2197 203d
000001e0: 210d 883d 40fb 90bd d8c0 04bd febb f2bd
000001f0: ce46 d6bd 1be5 a53d b5a0 77bd 32fe f8bd
00000200: d570 c13d a1e6 b83c 9c85 c23d 4d7e b8bc
00000210: 8f36 28bd d0c8 f73d 0a48 3cbd 89ef 44bd
00000220: 4aa4 c13d 8c44 1dbc b407 78bb 0155 f23c
00000230: ac94 e03d 1c81 a5bd 0b7d 9abd 5616 12bd
00000240: 9566 ecbb 3e6b ee3d ee99 51bd 75fa 9fbd
00000250: 8bd0 a43d d884 99bd 2071 98bd 7910 193c
00000260: 0dd5 443d 48d8 c1bc d71b dd3d 023d 6d3c
00000270: a571 fabd 2839 dfbd 4ee4 4c3c 2cf3 f6bd
00000280: 91e4 ee3d fd52 5a3d 9fb7 143d 241d f1bd
00000290: ee80 a73c 98a5 f4bd 2f6e df3d 109b f8bd
000002a0: 105a 2dbd 07b4 ccbd 8742 b23c 3dce ef3c
000002b0: 76da b93c 2ae6 583a a22b 31bd c84e 103c
000002c0: 67ce a4bd af03 ce3d 774b e93d be78 a7bd
000002d0: 00ac cfbd 558e 82bd e482 973d 79e4 013c
000002e0: e92d 3dbc 1130 99bc 67fc 7a3d 820d db3d
000002f0: b699 cc3c 983c 633d fd07 acbb e6c6 b3bd
00000300: d3f3 edbc a5a9 fc3d a8fa 383d 9007 b3bd
00000310: 661a b2bd 7f5d ae3c fe56 f6bb 2de2 3f3d
00000320: 6488 d83d 247d 943d 3407 88bd 91f4 c03d
00000330: 7e62 ca3d 7eaa 19be 32b7 a5bd 9955 f13d
00000340: 1445 023e dc9f 123e d645 9b3d 16d3 9b3d
00000350: 78c1 9a3d 0e8c b63d c5ac c7bc f252 893d
00000360: 5f52 4e3d 44ac e6bd 1458 0c3e e273 54bd
00000370: 246b 90bd 13f3 afbd 87a1 e93d 3077 68bd
00000380: 08af 9bbd f7a0 c2bd 5393 973b a8d5 503d
00000390: c034 893d 52d5 4fbd 0bac d8bd 5765 dfbd
000003a0: 7bf6 0dbe c123 babd bef0 283d 3bd0 0e3d
000003b0: 6dc7 edbc eeae 8cbc d179 fc3c f6f4 cf3d
000003c0: f0d2 1d3d beea 653d 5ee3 8e3d 2b57 823d
000003d0: 5e59 50bd 2572 65bd 2801 043e 1f77 fbbd
000003e0: e137 bebc 1c09 18be 5f4d 95bc 504b 2fbd
000003f0: 9d99 89bd ff25 e2bd 5244 993d edbe c9bc
-0.066431284 -0.026336469 -0.0015314334 -0.10228869 0.04186731 0.10497486 -0.026220534 0.071211316
0.10188819 -0.063017145 0.013708217 -0.10195444 -0.027359769 -0.07481489 -0.02141314 -0.04945797
-0.061729822 -0.013459686 -0.044864174 0.04186091 -0.031178115 -0.04990381 -0.095408365 0.010030435
-0.12511916 0.03203699 0.038812928 0.060525663 0.053912524 -0.08802207 -0.024530424 0.08765865
0.0816603 0.07714863 -0.124840714 -0.05557738 -0.010140625 -0.09984565 0.13880539 0.115302496
-0.049193658 0.03507578 -0.15116543 0.009089777 -0.045642827 0.046844833 -0.031678554 0.04846563
-0.043942396 -0.090454385 0.07989152 0.061682444 0.084262356 -0.10726383 0.0076507586 -0.006984065
0.0414308 0.00035709952 0.088665776 0.076617956 -0.035037447 -0.02748026 -0.11669883 -0.0820764
-0.010067682 -0.13760953 -0.017359508 0.0037670936 0.14191145 0.08944024 -0.08202315 -0.09503641
-0.04626334 -0.061173856 -0.0048967237 -0.07791305 -0.046695724 -0.10087653 0.14013627 0.012885496
-0.08547578 -0.0010252586 -0.0690771 -0.06444088 -0.16414487 -0.13686933 -0.015705446 -0.06936784
0.11746168 0.047306266 0.11808248 0.1574619 0.08808818 0.014285577 -0.0062312074 -0.09762704
0.1577395 0.014828453 0.0276386 6.714855e-05 -0.055253316 0.0566185 -0.12347198 -0.0707732
-0.021381194 -0.028078416 0.06802582 -0.06422537 -0.044030588 0.05961943 0.038236033 -0.032596134
0.028950825 0.15877794 0.025078649 -0.07925658 0.025917247 -0.10483447 0.16730596 0.039206628
0.06643129 -0.07079172 -0.032410473 -0.11852263 -0.10462724 0.08100339 -0.060455997 -0.12157859
0.09445349 0.02257091 0.0949814 -0.022521162 -0.041067656 0.12098849 -0.04596714 -0.04808
0.09455164 -0.009598862 -0.0037846388 0.029581549 0.10965857 -0.08081266 -0.07543381 -0.035665832
-0.007214377 0.116415486 -0.05117219 -0.07811443 0.08047589 -0.07496041 -0.07443452 0.009342306
0.048054744 -0.023662701 0.10796326 0.014479877 -0.12228707 -0.108995736 0.012505604 -0.120581
0.11664689 0.0533018 0.036307927 -0.11773136 0.02044722 -0.11945647 0.10909688 -0.12138951
-0.04232222 -0.09995275 0.021760238 0.029273147 0.022687178 0.0008274043 -0.043254502 0.008807845
-0.080471806 0.10059296 0.11391347 -0.081773266 -0.10140228 -0.06374804 0.07398012 0.007928007
-0.01154659 -0.018699678 0.061275866 0.10695936 0.024975639 0.05547771 -0.0052499757 -0.08778171
-0.029046929 0.123370446 0.04516092 -0.08741677 -0.08696441 0.021284817 -0.0075176945 0.046846557
0.105728894 0.07250431 -0.06641999 0.09421647 0.09882067 -0.15006444 -0.08091582 0.117839046
0.12721664 0.14318794 0.075816795 0.07608621 0.075564325 0.08913432 -0.024374375 0.06705274
0.050371524 -0.11263326 0.13705474 -0.051868327 -0.070516855 -0.085912846 0.11407762 -0.05675429
-0.07601744 -0.09503358 0.0046257167 0.05098501 0.066995144 -0.050740547 -0.105796896 -0.10908001
-0.13863556 -0.09088851 0.041245215 0.034866553 -0.029025758 -0.017173257 0.030819805 0.101541445
0.038531244 0.05613207 0.069769606 0.06364282 -0.050866477 -0.05601706 0.12891066 -0.1227858
-0.023220005 -0.14847225 -0.01822537 -0.042796433 -0.067187525 -0.110424034 0.07483734 -0.024627173

lstm.bias_ih_l1 f4 [256]
00000000: 3106 e23d 08b5 183e 0b7a 033e 8d94 9fbd
00000010: f54e 4e3c f4d3 d8bd cee0 f23d 09ba ffbc
00000020: 4739 eb3d 16b8 f93c f3ac 9fbc 9999 70bd
00000030: 4564 893d 2854 bd3d e90a b2bc 52c1 b73d
00000040: 3e3d d03d 8f5b bfbb c20a debc bd10 c53c
00000050: cab4 093e 4954 12bd aff0 91bd 1555 ae3d
00000060: 0dbf debc a6ea 693d 2823 4e3d 4e11 3d3c
00000070: 91e8 673d ff84 93bd 9f43 cbbd 79f9 51bd
00000080: e712 8d3d 6600 cd3d e806 8c3d 9d95 edbd
00000090: a0ab 8bbc f62f d2bd ddc5 603d 600f 0c3d
000000a0: 0f82 cc3d 2ed1 053d dff6 d03d d6f0 b3bd
000000b0: 29ce 303d f086 a83d 3668 d5bd 3d99 cd3d
000000c0: 61e4 debb f74e cd3c 5e9b 9e3c 8f6f 063d
000000d0: f878 f5bc bf5d c03b 65ed 3a3d 3b8f 80bd
000000e0: f9b2 62bd c0ff 88bd f009 3dbd 5200 c4bc
000000f0: e925 9cbd db76 e1bd b8c4 a83d a365 9f3d
00000100: 8418 6dbc bee6 b5bc 0901 e3bc 83dd aa3d
00000110: d44a eb3c 719f 693c 7805 b93d 7a79 f93d
00000120: 8e72 fabc d513 cebc b1d3 efbb 5065 833d
00000130: a738 e2bc ae9a a63d b1e3 df3d 4106 0e3e
00000140: 5014 9fbb 8790 a43d e5a5 31bb 9374 a3bd
00000150: 3aef b0bc c70e 8bbd 5406 123d 1cf5 9cbd
00000160: 00a4 e43d 5439 8bbd e96d ea3d f991 313e
00000170: 4ea7 efbc 2e39 cb3d 0653 d03c de1b 09bd
00000180: 579d b93d 7acc 61bd f9f4 ea3d bfca 2b3d
00000190: 7130 863d 84b0 9bbd 0c3e 9abd 3245 c7bd
000001a0: 18b8 4d3d ec47 083e 0e9f 663d 3154 723b
000001b0: b86b 7b3b 2338 c5bb 2ae0 483d c0cb b9bd
000001c0: 4299 233d 98e3 8abd eb1e 5d3c 836e d73c
000001d0: b1b1 9ebd 563d 183e 582b ff3b 9f29 bc3c
000001e0: 87ff 1c3e 9190 093e d2b5 283d 3cf3 833d
000001f0: 58ed 51bd bd1f cc3d 42aa 87bd 3667 6dbd
00000200: ca3c 9e3c a2df 593d f8c8 b23c b406 8cbd
00000210: bbc0 8a3c 4b5c bd3d 27e7 503d b636 263d
00000220: 7694 80bd 7f6a febb 631f 803d 891a 8b3d
00000230: fea1 75bd a708 79bd 7fd0 ae3d b594 5dbd
00000240: c94d a33c 0622 31bd 6ae3 deba e541 573c
00000250: e0ee e5bd e900 a8bc fe9f 943c ca84 413d
00000260: 5b46 28bd 546c 03bd 02e0 de3d 11c2 c0bd
00000270: 896c f6bd d071 debb 9ac6 063b 8486 09bd
00000280: 05f6 0a3d b78b 06be 6f41 62bd 63ef 893d
00000290: 63c0 423a 1647 cfbd 37ff 08bd f12e 21bd
000002a0: de77 433d 8c34 e43d 8217 2a3d 4fd1 593c
000002b0: a65d 7b3c 9f3b 7ebd e169 b73c d505 77bd
000002c0: b61e c23d 36bb e03b 0f51 98bd 644a 7dbc
000002d0: f199 9abd 089b ef3d 7c9a 5e3d 4ba5 c3bd
000002e0: 7e49 893d 3910 143b e5e7 f0bd 7c8c 12be
000002f0: 71ad 5ebd e36f 1abc 8bd1 10bd b88e b93d
00000300: 05d5 ecbc 17d6 763d 9ada 00ba 12be 96bd
00000310: 8ebc 923d df32 ef3d ab36 f83d 4022 5ebd
00000320: dad0 87bd ba88 e03d 0dfc 9d3b ab52 8b3d
00000330: 675e 1bbd 0fbd c73d ae0c e03d e3d7 223c
00000340: f053 07bd 739f 7bbd 8ca3 e8bd 3df4 f63d
00000350: 51fa 873d 0d76 eb3b eb6f 103c a6c2 443d
00000360: 914c e0bd 09e5 213d 8a19 20bd 2ee1 c23d
00000370: b79c 3fbc c2f1 ef3c 7a32 d03d 3a64 bcbb
00000380: 7120 443d caff 4abc eb67 f03d 2c72 07bd
00000390: 8cfd 31bd be89 fe3d b2a0 aebd acc5 83bd
000003a0: 3399 b03d 21f4 c23d 1635 b93d 722b 913d
000003b0: f2ed 173d 50b0 ba3b f3d1 cdbc f8d4 9ebc
000003c0: 8611 c2bd 37c5 1bbd c890 0abc ab59 cd3c
000003d0: 8c0d 74bd 5bc3 ff3d 4946 05bc df88 56bb
000003e0: 7289 5bbb 3837 85bd 235f 33bd eae3 e93d
000003f0: 58ef 34bc 4bdd f1bd 615e 93bd a608 023d
0.11036337 0.14912808 0.12839524 -0.07792006 0.012592067 -0.10587302 0.11859284 -0.031216638
0.11485534 0.030483287 -0.019491648 -0.058740232 0.06708578 0.09244567 -0.021733718 0.0897242
0.10167931 -0.005839772 -0.02710474 0.024055833 0.13447872 -0.03572491 -0.07125985 0.08512322
-0.02719071 0.057108544 0.050326496 0.01153977 0.056618277 -0.07203101 -0.09925007 -0.051263306
0.06888371 0.100098416 0.06837255 -0.11600802 -0.01704961 -0.10263054 0.054876197 0.03419435
0.09985744 0.032670192 0.10203337 -0.0878617 0.04316536 0.08228862 -0.10420267 0.100389935
-0.006802127 0.025062067 0.019361194 0.032821234 -0.029964909 0.0058705504 0.045636553 -0.06277319
-0.055346463 -0.066894054 -0.046152055 -0.023925934 -0.07624418 -0.11008998 0.08240646 0.077830575
-0.014471177 -0.022204753 -0.027710455 0.08343031 0.028722204 0.014259205 0.09034246 0.12181373
-0.030572202 -0.025155941 -0.0073189368 0.06415808 -0.027614905 0.081349716 0.109321006 0.13869573
-0.0048547164 0.08035379 -0.0027106937 -0.07981219 -0.021598447 -0.06789928 0.035650566 -0.076639384
0.11164093 -0.06798044 0.11446745 0.1734084 -0.029254582 0.099230155 0.025430214 -0.03347384
0.09063213 -0.055126645 0.11472506 0.0419414 0.06552208 -0.07602027 -0.07531366 -0.09729995
0.050224394 0.13308686 0.05630403 0.0036976452 0.0038363766 -0.006018655 0.049041905 -0.09072065
0.03994108 -0.06781691 0.013496141 0.026297813 -0.07748736 0.14867148 0.0077871494 0.022969065
0.15331851 0.13434054 0.041189022 0.06442878 -0.05125174 0.09966991 -0.06624271 -0.057959758
0.019316096 0.05319179 0.021824345 -0.06837216 0.016937604 0.09246119 0.051001694 0.04057952
-0.06278317 -0.00776416 0.062559865 0.067921706 -0.05996894 -0.060799267 0.08535861 -0.054096896
0.019934552 -0.043245338 -0.001700503 0.013138269 -0.112272024 -0.020508246 0.018142696 0.04724578
-0.04108272 -0.03208573 0.1088257 -0.09412015 -0.1203242 -0.00678847 0.0020565153 -0.03357555
0.03392603 -0.13139234 -0.055238184 0.067351125 0.00074291806 -0.101209804 -0.033446517 -0.039351407
0.047721736 0.11142835 0.041526325 0.013294532 0.015342152 -0.062068578 0.022389354 -0.060308296
0.09478514 0.006858255 -0.07437336 -0.015459631 -0.07548893 0.11699492 0.054346547 -0.095530115
0.06703471 0.0022592677 -0.1176298 -0.14311403 -0.054364625 -0.00942609 -0.035356086 0.090604246
-0.02891017 0.060262766 -0.00049153867 -0.07360472 0.0716487 0.11679625 0.12119802 -0.054231882
-0.06631632 0.109635785 0.0048213066 0.06802877 -0.037931826 0.09752857 0.109399185 0.009939167
-0.033039033 -0.06143136 -0.11359319 0.120583035 0.06639541 0.0071857036 0.008815746 0.048037194
-0.10952104 0.039525066 -0.039086856 0.09515606 -0.011695079 0.029290084 0.10165878 -0.0057492526
0.0478825 -0.012390086 0.11738571 -0.033067867 -0.04345469 0.12428616 -0.08526744 -0.06434187
0.086229704 0.0951922 0.090433285 0.07088365 0.037092157 0.0056972876 -0.025124526 -0.01938866
-0.094759986 -0.038029876 -0.00845737 0.025067171 -0.05958323 0.12488433 -0.008134433 -0.003273539
-0.0033498672 -0.06504673 -0.0437919 0.11420424 -0.011043392 -0.118097864 -0.07195736 0.03174653
