output/LSTM2CNN/LSTM2CNN_adam_64_1000/model/LSTM2CNN_epoch_700.pth (torch, 353538 bytes, 16 tensors)

lstm.weight_ih_l0 f4 [256, 11]
00000000: 4732 5cbd ce2d 933d 2662 39bb babb ffbc
00000010: 7826 d73d 66c7 c0bd f1ca 9a3d 6503 853b
00000020: 2716 723d e4d8 75bc 91a6 02bb 94de cfbd
00000030: ae7d fabc db33 fa3c 792b 303d b75d ddbd
00000040: 8906 8bbd f0f1 ca3d 90b2 8abd fe6f 54bc
00000050: bb31 aabd 16bb 9abc 3b14 003e 395f a33d
00000060: 8871 e3bd abcd 003c 882d 9e3d 23ab 3f3d
00000070: a75a 013e d220 0d3d fce8 10bc 19cc bdbd
00000080: 947e f23d fa5a b0bd c289 9b3d 32bf 933d
00000090: a7f4 023d 2fc9 8c3d 7a94 af3d 764a bd3d
000000a0: 0c3f 013e d3a3 2abd 3567 f63d 723a f83c
000000b0: f511 563d 0ed4 873d eb13 2cbd 1bc2 f73d
000000c0: 9ed7 4fbc 10cd b93d 7436 2d3d 9c22 0fbd
000000d0: b26e 4a3d bbc3 e9bc a63f 5d3d a2ec 043e
000000e0: c71f 6abd 29aa ec3d 1eb3 f3bb b145 0d3e
000000f0: 10ca aabd c8d2 653d 5edc 233d 3c9c aa3d
00000100: ad55 783d c046 df3d 73fb 8abd fd0a 91bd
00000110: 0e9f e83d 1183 0bbe c5e6 2f3c d1dd a5bd
00000120: 7676 aa3d 4051 4cbd 1258 823d 1936 a83d
00000130: df7a 4b3d 7d0d 963d b568 65bd 652c d3bd
00000140: 5eba b7bd 450a 773d 1047 81bd 3782 fd3d
00000150: 0767 a63d 3387 623d b13d f7bd 2a7a a2bd
00000160: db73 cfbd 6969 8a3d 36bc dfbd 32d8 6abd
00000170: 5533 493d 5967 57bb 982d 6ebc a0f0 0abc
00000180: fcfe 25bc 1909 0bbe 7bd7 2d3d 5793 c8bd
00000190: 497b e2bc be7e 353d c953 c03d 6845 c5bd
000001a0: 9684 a63d 8400 dfbd 8d5b 353c 0e86 eebc
000001b0: ba20 2f3b 000f b0bd 9b2f 07be 25d4 cc3d
000001c0: 6081 bebd 865e 16bd 01f1 ba3c 849f 08be
000001d0: ad77 c1bd 23bd c23d 03cf 703c 38ab 9d3d
000001e0: 698f b6bd 765d 99bd 18be 063d 2384 8c3d
000001f0: ff49 4f3d 1457 3d3c dd33 b0ba cb5a 803c
00000200: 77dd d2bd 8adf 86bc 7e01 693c 76d5 ecbd
00000210: d954 8cbd c77b c63d a0c2 f23d 213f 443d
00000220: 6704 233e 4def 9f3d 9daf 993d 9ba5 ac3b
00000230: d5a7 f33d cf1d 37bd f24b 48bd fade c93d
00000240: 7226 b3bd 0622 d2bd 3418 023e eac0 ca3d
00000250: b210 8bbd 6047 b4bd a0b1 ed3c 47ea 883d
00000260: fd48 8a3d fbf2 9bbc b9e4 fbbd 56cb 08bd
00000270: 159d c2bd c9c4 533d 1c52 0dbd 631b d43d
00000280: 4df4 98bd 79f6 cc3d b3b1 093d d223 a93d
00000290: d9f0 99bd 7911 8fbd 4e07 c7bd ff28 133e
000002a0: 8bc2 d73d 3b0f 1abd 1674 203d 65c7 c2bd
000002b0: 31a0 70bd a4d6 ccbc 484f b73d 5f11 12bd
000002c0: ae90 4a3d 9fbc c13c 4d41 b7bd d349 c4bd
000002d0: 0f6f 823d 5d90 4dbd 483e 2c3d 169d 4bbc
000002e0: 8683 723d 77e2 ca3c 653a 43bd 8236 b6bd
000002f0: 0fca c13d 6971 a1bd 2b41 793b 36cc c13d
00000300: 0627 85bd a41b f8bc b1a0 32bd 26fc c03a
00000310: aee7 c3bd 8f7b e1bd d3cc 38bd 3772 8b3c
00000320: a512 a5bd f63e af3c 20d7 d0bd 34b3 ba3d
00000330: e2de f53a 9aa4 babd 71de 463c 45a4 2cbd
00000340: 6089 193d f599 59bd 4e5a 953d b79e 953d
00000350: 76e1 18bc ab3b 593d 946f 49bd f159 bc3c
00000360: df13 79bd ca38 a0bd 5c8e aabd 9ff5 0fbd
00000370: d103 773d eaf2 bd3c 4e99 5d3c aeff 08be
00000380: bf31 9ebc c01f 4a3c 36a5 bb3d 5019 eb3c
00000390: a0e2 943d 610b a6bd ed16 cfbc d57b 863d
000003a0: febb 5abd cac8 1bbe d5e9 5c3d 459e 63bd
000003b0: be19 0ebc 3600 f63d f9a2 19be cff3 1bbe
000003c0: c338 7fbc 5551 8cbd 74f1 66bd da18 f9bd
000003d0: ff4c a13c 2bc9 e03d c2ce 62bc 5829 fb3a
000003e0: 9c2f 103d 39cb 603d 787f 13bd 16ce ab3d
000003f0: 9c5e dbbc 53fe eebd 3c02 993d 3a4b 523d
-0.053758886 0.07186471 -0.002828726 -0.031217445 0.10505384 -0.09413032 0.07558239 0.0040592426
0.059103157 -0.015005324 -0.0019935707 -0.10149875 -0.030577507 0.030542305 0.04301021 -0.1080889
-0.06788356 0.09909427 -0.06772339 -0.012966154 -0.083102666 -0.018888038 0.12507717 0.07977147
-0.11105639 0.007861535 0.07723528 0.046794068 0.12632237 0.034455128 -0.00884461 -0.09267444
0.11840549 -0.086111024 0.075946346 0.07214202 0.0319716 0.0687431 0.085732415 0.09242718
0.12621707 -0.04166014 0.12031404 0.030301306 0.05226322 0.06632243 -0.042011183 0.120975696
-0.0126856845 0.09072316 0.04228826 -0.034945115 0.049421974 -0.028535714 0.054015778 0.12980893
-0.05715921 0.11555893 -0.007437124 0.13796116 -0.083393216 0.05610922 0.04000508 0.083305806
0.06062858 0.10902166 -0.067862414 -0.07082174 0.11358462 -0.13624217 0.010736172 -0.08098949
0.08323376 -0.049882174 0.06364454 0.08213443 0.049677726 0.073267914 -0.05600806 -0.10311202
-0.089710936 0.06031253 -0.06312382 0.12378352 0.0812512 0.055304717 -0.120723136 -0.07933457
-0.101295196 0.06758387 -0.1092457 -0.057335086 0.04912122 -0.0032867996 -0.014537238 -0.008480221
-0.010131594 -0.13577689 0.042441826 -0.09793728 -0.027646678 0.044310324 0.09390981 -0.09632379
0.081307575 -0.1088877 0.011069191 -0.029116657 0.0026722387 -0.08596611 -0.13201754 0.10001401
-0.0930202 -0.03671124 0.022819998 -0.133421 -0.094466545 0.09508731 0.014697793 0.07698673
-0.08914072 -0.074885294 0.03289613 0.068611406 0.050607678 0.011556406 -0.0013443191 0.015668293
-0.10296147 -0.016464014 0.014221547 -0.11564152 -0.06852121 0.096915774 0.11853528 0.047911767
0.15919648 0.07809315 0.07504199 0.005268765 0.11897246 -0.044706162 -0.048900552 0.098569825
-0.08747567 -0.10260396 0.12704545 0.09900077 -0.06790294 -0.08802676 0.029015362 0.0668531
0.06752203 -0.01903676 -0.12299485 -0.03339704 -0.09502617 0.05170134 -0.034502134 0.10356786
-0.07468472 0.100079484 0.033616733 0.08258785 -0.07516641 -0.069857545 -0.0971819 0.14371108
0.10535153 -0.03761218 0.03917321 -0.09510688 -0.05874652 -0.025004692 0.089506686 -0.035661098
0.049454384 0.023649512 -0.08948002 -0.09584393 0.06368839 -0.050186504 0.042051584 -0.012427589
0.05920746 0.02476619 -0.04766311 -0.08897115 0.09462368 -0.078829594 0.0038033228 0.09462778
-0.06501584 -0.030286618 -0.04361028 0.0014723584 -0.09565674 -0.11009895 -0.04511721 0.017022235
-0.08060197 0.021392327 -0.10197282 0.091162115 0.0018758441 -0.091134265 0.012137995 -0.042148847
0.037484527 -0.05312534 0.07292615 0.07305663 -0.009331098 0.05303542 -0.049178675 0.022992106
-0.060809966 -0.07823332 -0.08327934 -0.035146352 0.060306374 0.02318712 0.01352532 -0.13378784
-0.01931083 0.012336671 0.09162371 0.028698593 0.07269788 -0.08107639 -0.025279487 0.06566588
-0.05340194 -0.15213314 0.053933937 -0.05557086 -0.00867313 0.12011759 -0.15003575 -0.15229724
-0.015577498 -0.0685145 -0.05638261 -0.12162943 0.019690035 0.1097587 -0.01384324 0.0019162102
0.035201654 0.05488131 -0.036010236 0.08388917 -0.026778512 -0.11669602 0.07471129 0.051341273

lstm.weight_hh_l0 f4 [256, 64]
00000000: f964 02bc 9ffe 0a3d e4af 033d 7e12 ae3d
00000010: 9878 64bd 0c79 7a3d 1c11 fbbc 5e06 023e
00000020: c5d6 e8bc cc15 b73d 3a58 fa3d 34d4 8f3d
00000030: 6dce 0a3e 363b 71bd e049 9fbd e302 0abd
00000040: c5bd 533d 2f60 3dba f3e7 bf3b 2b2e 85bd
00000050: e369 a63d 4e07 2b3c 90f6 d5bd 77ff 883d
00000060: 47cc 0dbe 449a 633d 7b97 c5bd c2d5 a1bd
00000070: ab05 963c f626 a33c 917f d23a e10d bfbc
00000080: 4a84 b03d e242 8e3c 18ba 95bc 14dd 683d
00000090: e3df 093e 5f3e b1bd 0b9c 81bc ee69 fcbc
000000a0: 3112 8a3d 8a4b 1d3d d9e4 d73d 9fb3 d2bd
000000b0: aaaa 0c3d 9394 9bbd 9e97 d43c 41ea b0bd
000000c0: c484 d1bc ee27 e6bd 7a7f cc3d 568f da3d
000000d0: 0a1b 9e3d e72d 29bb 4fd6 6dbb 5b61 af3d
000000e0: bf0a 1bbc 3abf d83d 53f6 ba3c bd8b 8c3d
000000f0: 838c 0fbd 628b 063c 59af cebc 2932 cabd
00000100: 4bfc eabd cca1 93bc 44f3 12be 537d 823d
00000110: beb4 32bd bfca 003d 34c2 de3c 3ef8 01bd
00000120: b6fa 3a3c a0dc 063e a53a 4ebd 06cb 4abb
00000130: 0257 cbbc be87 71bc 11f0 a3bc 7565 c33d
00000140: 2961 8d3d b008 213d 240a b6bd efbc e1bd
00000150: c7f2 393d 6889 e9bd a620 953c e348 7cbd
00000160: bec6 dcbd 686f b73d 145a b93c b2a4 f23d
00000170: 6278 ca3d 89d3 e83c 2aa2 bc3c a47a 2d3e
00000180: c1f1 a73d ca16 833d 538f 6c3c d1da c7bc
00000190: 174a d6bd 5765 edbd 72bb c4bc 5e50 003d
000001a0: ce17 ca3d 8d81 fabd a776 d73c 3605 053e
000001b0: d072 bdba 3c66 433d dfaf 54bc abce c13d
000001c0: 8aa8 243d 6865 213d e9e9 0dbd 399c ea3d
000001d0: 8c78 34bc dbc1 943d 9048 9f3d a99b babd
000001e0: 51b9 e63d 94d7 53bd 6d46 dc3d fd0d 1d3d
000001f0: 986e a43c b371 96bd 721d 853d 8958 8f3d
00000200: 3882 42bd cded 1fbd 3f60 8dbd 7d95 9f3d
00000210: b851 bcbb 27b9 873d 06e5 5cbd 5fa7 9ebd
00000220: 9711 86bd 258e babd dfd6 f13d baad e73d
00000230: 6735 a23b 1842 e5bd 7fec e43c c0c2 36bc
00000240: 07a6 7dbd 3119 97bd f91a c2bb 3777 1ebd
00000250: 1ab7 223d c624 1abe 8951 d53d 3319 5e3d
00000260: 81e1 c63d 61ac ab3d 6e57 0ebe e5fe 21bd
00000270: abb1 90bc 8fda e83d 2cc7 a13d 0aac 813c
00000280: 6c37 be3d 66f2 acbd 7133 1ebd 0e58 763d
00000290: 57fe a53d 24cb 1cbd 0ba8 2fbc a096 f5bc
000002a0: ae13 2c3d a4ba d4bd de2e bfbd 2afc 933c
000002b0: b151 403d 8002 5e3d ed6d a3bd 10e8 1b3d
000002c0: e32f bf3c c519 acbd 921b b83d 60ca 99bb
000002d0: d514 f7bd 2eda 983d c0be cabd bd65 97bd
000002e0: 734c 0d3e d1b8 383d 5bfa 663d 5228 213d
000002f0: de8e 02bc 5cbd ddbd 6f7e d53d 0302 d3bd
00000300: 1f2a 7f3d 59f7 f23d 8dbc a23d 403e 133e
00000310: dbff a93c cc44 5a3d b90e b63d fd19 06be
00000320: 3ba2 dbbc b41c cdbd 3295 af3d 3aba 39bd
00000330: e3ad 263e b673 d83d 1af6 0fbe fc81 28bd
00000340: 93e4 0d3b 203f 163e 4275 c8bd 8d88 b03c
00000350: 58b7 2bbd d6af a43c 1fdc e03d c805 6dbd
00000360: 6faf 9e3d 4d24 eb3b 86a2 e1bd e757 a03d
00000370: 79e6 c3bd ed4a b3bd ebd0 09bd a974 34bc
00000380: efc0 1e3d 641b 123d 0798 0db8 81f9 9dbd
00000390: ea18 8fbd 6b23 90bd 3985 6abd b54a 1bbd
000003a0: 7f84 743d ed22 203d 50ff 17bd b8b2 84bd
000003b0: 04bd a83c 9e5e e2bd 5799 11be 36bd 64bd
000003c0: c33c f4bc 1322 273d 13e2 343d 894d 153d
000003d0: 1e20 f83c ccf4 98bd 26a0 5b3d ea95 8fbd
000003e0: a390 e4bc e8c6 10be 1867 b7bd 6b87 69bd
000003f0: 9cf0 1b3d 32cb 043d f955 c2bd 48d3 d83c
-0.007958644 0.03393423 0.032150164 0.08499621 -0.05577907 0.061150596 -0.030647807 0.12697741
-0.028422723 0.08939704 0.12223859 0.070228964 0.13555308 -0.05889436 -0.077777624 -0.03369416
0.05169465 -0.00072241103 0.005856508 -0.065029465 0.08125665 0.010438753 -0.10447419 0.06689351
-0.13847457 0.05556704 -0.09648033 -0.07902099 0.01831325 0.019916039 0.0016059746 -0.023322048
0.08618982 0.017365877 -0.018277213 0.05685146 0.13464312 -0.086544745 -0.015821477 -0.03081223
0.06741751 0.038402118 0.10541696 -0.10288166 0.034342445 -0.07596698 0.025951203 -0.086384304
-0.025576003 -0.11238085 0.09985252 0.106718704 0.07720001 -0.0025814713 -0.0036291068 0.08563491
-0.009463011 0.105833486 0.022822535 0.068625905 -0.03504611 0.008211942 -0.025230097 -0.098728485
-0.11473902 -0.018021487 -0.14350611 0.0637156 -0.0436294 0.031443354 0.027192213 -0.031730883
0.011412313 0.131701 -0.050348897 -0.0030943765 -0.024821762 -0.014741836 -0.020011934 0.09540836
0.069032975 0.039314926 -0.08888653 -0.11022364 0.045397546 -0.11403161 0.018204045 -0.061592948
-0.107800946 0.08956796 0.02262596 0.118478194 0.098862424 0.02842118 0.023026545 0.16941315
0.08200408 0.06400831 0.014438468 -0.024396332 -0.1046335 -0.11591595 -0.024015162 0.031326644
0.09867822 -0.12231741 0.026301695 0.12990269 -0.0014453772 0.04770492 -0.012981384 0.09463247
0.040199794 0.03940335 -0.034646902 0.11455578 -0.011015069 0.072635375 0.07777512 -0.09111721
0.11265815 -0.051719263 0.1075562 0.03834342 0.020072266 -0.07345905 0.06499757 0.069993086
-0.047487468 -0.039045144 -0.06903123 0.077921845 -0.0057470463 0.06627112 -0.05392935 -0.07746767
-0.06546324 -0.09109143 0.118085615 0.113124326 0.0049502137 -0.11194247 0.027944801 -0.01115483
-0.061925914 -0.07377852 -0.0059236255 -0.03868791 0.0397254 -0.1505309 0.10415942 0.05422325
0.0971098 0.08382488 -0.1390054 -0.039549727 -0.017662844 0.11369812 0.07899317 0.015829105
0.09287915 -0.08444671 -0.038623277 0.06014257 0.08105152 -0.038279667 -0.010721217 -0.02997905
0.042010956 -0.103871614 -0.09335111 0.018064577 0.046952907 0.054201603 -0.07979951 0.03806311
0.023338264 -0.08403353 0.089896336 -0.0046933144 -0.1206452 0.074634895 -0.09899664 -0.07392452
0.13798694 0.04509813 0.0563911 0.039345093 -0.0079686325 -0.10827133 0.10424506 -0.10303118
0.06229603 0.11863584 0.079461195 0.14379215 0.020751884 0.053288266 0.08889527 -0.13095851
-0.026810756 -0.1001524 0.085733786 -0.045343615 0.1627727 0.10568945 -0.14058724 -0.041139588
0.0021651133 0.14672518 -0.0978799 0.021549487 -0.041922897 0.020103376 0.10979485 -0.05786684
0.07748305 0.0071759582 -0.11017327 0.07829266 -0.095654435 -0.08754525 -0.033646505 -0.011014142
0.038758215 0.035670653 -3.3758606e-05 -0.07713605 -0.06987174 -0.070380054 -0.057255957 -0.037913043
0.05969667 0.039095808 -0.03710872 -0.064794004 0.020597942 -0.11053203 -0.14218651 -0.055844508
-0.02981413 0.04080398 0.044160914 0.036450896 0.030288752 -0.07468566 0.053619526 -0.07011016
-0.027901 -0.14138377 -0.089552104 -0.05701391 0.03807126 0.032420345 -0.09489054 0.026467934

lstm.bias_ih_l0 f4 [256]
00000000: 9936 fcbd 187f 263d e5ff a0bd 537f 7b3d
00000010: 1462 94bd f13a f0bc 008b 21bd 5659 30bd
00000020: 9cc2 01be ae16 cc3d aee0 c1bd 27ae b43d
00000030: b555 7e3c a71c c8bd 0e8f 0c3a dab6 aa3d
00000040: cd13 40bd 0626 7abc 6c7b 433c dcc1 ef3d
00000050: 1e52 003e cf0a 493c 3b74 cfbd f890 97bd
00000060: 106e 473d cf62 90bd 256c d73c 49cb a73d
00000070: 9e21 c43c e450 18bd 0854 ea3d 5888 07bd
00000080: dcbe 523b 4dea 0b3e 21af 2b3c 39eb e43d
00000090: d47c 643b 4dda 393b 1eaa 6a3d b390 cabd
000000a0: 4dc9 0ebb fb96 dd3c e247 ae3d fc23 babd
000000b0: 0fa3 b1bd bfe9 bb3d 1f18 163d 9bd1 41bd
000000c0: f20b 2d3c d67a b0bc d0a5 a93d 4817 dc3d
000000d0: d795 c23c f905 c0bd f425 f3bd c770 ca3a
000000e0: 7442 27bd 1aca b13d c0db 273d 1828 023d
000000f0: cac8 babc 2312 1e3d 70b4 d63b 98c8 b0bc
00000100: a7e2 6a3d cd83 abbd 20eb 0e3c 24d6 dd3d
00000110: 05c8 c33d 33b2 4f3d d556 cebd 729c da3d
00000120: a681 a2bd 47ae 063e 97d0 4c3d b125 adbb
00000130: c064 823d 4fc8 e33b 4a67 97bd 761e 5fbd
00000140: d2de 60bd 38fc b03c 492f 9dbd 0cba 9e3d
00000150: f47e 8a3d cc30 9b3d 5bd7 bdbd d312 c43c
00000160: 7b56 043e 0be4 8a3d feaf 6dbd ddbf 293d
00000170: 0184 fb3c d292 0dbd fd37 303d 8cca b4bc
00000180: c952 12bd d0ae f33d acb0 c8bd 1e07 613d
00000190: 3ffc 9bbb 067b afbd 1635 bb3d 5b47 cd3d
000001a0: dec0 d73d 80c0 ffbc a7a7 5939 d20b 80bb
000001b0: 4936 6dbd 8e5e 7a3d 1bb4 8fbd 46f2 01bd
000001c0: f498 a33c 762d d13d c731 00bd 1223 84bb
000001d0: a1a2 e4bd e0f2 b4bd 46e5 b8bd 1806 b83d
000001e0: 1c2c 1ebd 6201 1b3c 3b11 0d3c 30e5 623d
000001f0: c826 11bc f4ca ba3d 75f7 2ebd a3bf 2a3e
00000200: f9dc ccbd a27a 953d 10ed 2c3d ba00 c73d
00000210: 87cf dcbd 4c34 133d 3e53 dfbc d9f8 1bbd
00000220: 90a6 963d 5304 0bbe 52a3 1d3c 9a62 3bbd
00000230: 3dd5 93bd e085 973d e662 73bd 917a 983c
00000240: ec00 91bd 903a 8d3d 2317 86bc a2d4 053d
00000250: d0eb 273d 68fb d8bc 60c9 f43d 4426 043e
00000260: 10ab fdbb 7280 88bd 1dbe bbbc fe35 a43d
00000270: 587a e2bd 586a 8f3d 1262 c43c 5871 72bc
00000280: 57ec b4bc c87d c33d e39f 3ebc f181 aabd
00000290: c468 00be e5ba 0cbd 5fc8 503d 0366 e9bd
000002a0: 5f45 0f3e bc3c ea3d ad21 093c a9ea e5bc
000002b0: 4921 4d3c db75 f9bd 8f63 b0bd 5271 153d
000002c0: ddd4 9fbd 20a6 293d 83d2 d6bd 400b 5c3d
000002d0: c389 cd3d 47d7 68bd 79f2 a2bc 8fe0 a9bd
000002e0: 030d 473d 9493 b8bd edc0 013d 40d7 63bd
000002f0: e762 0ebd dd33 ee3d b9a3 023d 4520 ca3d
00000300: d725 00be d511 d1bd 41f6 5e3d 2852 cdbb
00000310: 728a d23d c4ff dcbb a9f5 4c3c e549 973d
00000320: e55b 923d eb0e 2ebd 2853 4abc 736c 99bd
00000330: 6c5c 093e 781d 153d 26c1 b53d 9457 993c
00000340: cd49 5c3d 9c6a f03c b12d 2a3d 0fc2 eebc
00000350: ae76 a83d b6fa 7b3b 19e4 93bd 0626 943c
00000360: 7483 eb3c 4f66 913d 3121 c3bd b28f d33d
00000370: b6c7 823d 43c3 673d 5197 4d3d f674 d3bc
00000380: 088f 63bd 7838 a7bc ed6f 523c 110c a23d
00000390: 6078 bbbb d90f 19ba 2c41 4e3d 4faa f4bd
000003a0: aa40 e63d 8856 903d c87d 1ebb 8b2c 07bd
000003b0: 8730 a43b f377 02be 3f12 a0bd a63b ce3d
000003c0: 22c1 5dbd b3eb 533d 373f a6bd 7076 dc3c
000003d0: 4456 3e3c 7be3 b3bb 7c04 373d cf93 4f3d
000003e0: a49a 22bd 1c62 01bd 1ca9 64bd cda2 33bc
000003f0: 804a b4bc 20be 6abd 93cd c1bd e821 1abd
-0.12315101 0.04064855 -0.07861308 0.061400723 -0.072452694 -0.02932498 -0.0394392 -0.043053947
-0.12671894 0.09965263 -0.094666824 0.088222794 0.015523364 -0.0977109 0.0005361893 0.083356574
-0.046893883 -0.015267855 0.011931282 0.117068976 0.12531325 0.012270643 -0.10129591 -0.074006975
0.04868895 -0.07050096 0.026296685 0.081930704 0.023941811 -0.03718652 0.11441809 -0.033089012
0.0032157218 0.13663597 0.010478766 0.11177678 0.0034864442 0.0028358877 0.057291143 -0.098908804
-0.0021787465 0.027049532 0.08509804 -0.09088895 -0.08673679 0.09175443 0.036644097 -0.047319036
0.01056193 -0.021542948 0.08283579 0.10746628 0.02375309 -0.09376139 -0.11872473 0.0015444987
-0.04083486 0.08681126 0.040981054 0.031776518 -0.022800822 0.038591515 0.0065522715 -0.021580026
0.05734506 -0.083747484 0.00872305 0.1083186 0.09559635 0.050707053 -0.10075156 0.10674371
-0.07934885 0.13152419 0.050003614 -0.005284034 0.06366873 0.006951369 -0.07392748 -0.05447241
-0.054899998 0.021604642 -0.076750346 0.077503294 0.06762496 0.07577667 -0.092695914 0.023934757
0.12923615 0.06781777 -0.058029167 0.04144274 0.030702593 -0.034563847 0.043022145 -0.022069238
-0.03572348 0.11898577 -0.097993225 0.054938428 -0.0047602947 -0.08568387 0.09140985 0.100233756
0.10534833 -0.03121972 0.00020757188 -0.003907659 -0.0579131 0.06112533 -0.07016774 -0.03172519
0.019970395 0.10213749 -0.03129747 -0.004032501 -0.111638315 -0.08835387 -0.090281054 0.08985537
-0.038616285 0.009460779 0.008610065 0.05539435 -0.008859344 0.091207415 -0.042716462 0.16674666
-0.10003085 0.07298781 0.042218268 0.097169355 -0.1078177 0.035938546 -0.027261373 -0.038079116
0.07355988 -0.13575868 0.009621458 -0.04574833 -0.07218406 0.073985815 -0.05942049 0.018613132
-0.07080254 0.068959355 -0.016368454 0.032673486 0.040996373 -0.026487067 0.11952472 0.12905222
-0.0077413395 -0.06665124 -0.022917802 0.08018111 -0.110584915 0.07002705 0.023972545 -0.014797531
-0.022085352 0.09545475 -0.0116348 -0.083255656 -0.12539965 -0.034357924 0.05097234 -0.1139641
0.13991307 0.114373654 0.008369845 -0.028065996 0.012520143 -0.12180682 -0.08612739 0.036485024
-0.07804272 0.041418195 -0.10489371 0.053721666 0.100360416 -0.05684593 -0.01989101 -0.08294784
0.048596393 -0.09012523 0.03167813 -0.0556252 -0.03476229 0.11630986 0.03189442 0.09869436
-0.12514435 -0.10208479 0.054434065 -0.0062658973 0.102803126 -0.006744357 0.012509742 0.07387141
0.07146434 -0.042494696 -0.012348928 -0.07491388 0.13414162 0.036405057 0.08874731 0.018718518
0.05378132 0.02934771 0.04154748 -0.029145269 0.08225761 0.0038448996 -0.072212406 0.018084537
0.028749205 0.07099592 -0.09527815 0.10330142 0.06385748 0.0565827 0.050193135 -0.025812607
-0.055556327 -0.020412669 0.012844068 0.07912458 -0.005721137 -0.00058388483 0.05035512 -0.11946546
0.112428024 0.070477545 -0.0024183858 -0.033001464 0.0050106677 -0.1274107 -0.0781598 0.10069971
-0.054139264 0.051738452 -0.08117526 0.026911944 0.011617247 -0.0054897643 0.04468201 0.05067807
-0.039698258 -0.031587705 -0.055825338 -0.010964108 -0.02200818 -0.057310224 -0.09463038 -0.03762999

lstm.bias_hh_l0 f4 [256]
00000000: f2e0 6cbd 60ff 8dbd e51b a73d 28a7 073e
00000010: 91fa ce3d 2875 5e3d 5262 a6bd c013 9f3d
00000020: 7611 3c3d ccd3 cfbd 90d7 b83c 5f5b 97bc
00000030: fa87 ce3c 8138 cc3d c642 b7bd c177 d1bd
00000040: e979 85bd 475a 583d abac dfbd 4ad6 df3d
00000050: 8bd6 abbc f825 dd3d 4dde 013e 15d5 453d
00000060: 962f 3a3d dad2 753c 2567 cc3d b6bf b1bd
00000070: d406 62bd 4829 49bd 4054 043e 2d9c c13d
00000080: c2ed 4c3d 1366 4c3d 257a e3bd 09ec 723d
00000090: 7186 93bd 867e 5e3d cb37 afbd 76e6 fcbd
000000a0: 1589 9ebd 5c39 6cbd 95b7 733d 77df 0dbe
000000b0: 713f ba3d 7931 823d 2351 2bbd e152 96bd
000000c0: 9347 f3bd 4b83 003e 1453 2e3b 7d84 adbc
000000d0: fc69 ccbd 7313 3dbd e387 54bb 0eba 703d
000000e0: 33ee acbd be08 0b3d 9bf9 d93d f650 5dbd
000000f0: 0c22 103d 1ab0 aa3d e20a 493d b8dc 20bd
00000100: 21e2 8c3c 0685 ef3d 147e 97bd 8c9a d03d
00000110: c0ea bfbb 1cb1 0d3d 2dbc e1bc b847 eebd
00000120: e422 9bbc f7da a0bd 3856 ce3d b456 cabd
00000130: afec a03d 2956 c8bd f97f 163e 853b 993c
00000140: 2d42 2dbb 6b14 043e a7ce 22bd 94a5 d3bd
00000150: b14f 973c 855a 373e 12c1 143d ae0c 203d
00000160: e765 203e 9468 3e3d 2e0e 953d d9e1 6b3d
00000170: 59ad 98bd 26f6 f2bb cf55 f73b ea1c 26bd
00000180: e07b 81bd d38b 323d 1dd5 8cbd bc35 e6bd
00000190: 15f3 32bd 47ec a4bd a79e 57bd 7893 eebc
000001a0: 1498 9e3d edc1 033e 6ca5 723d eebf 4bbd
000001b0: 8754 a93d 61ad d33d 157c 1b3d f77e 84bc
000001c0: b63e f8bd 642f db3c 575c 073e c5bb 8f3d
000001d0: b5c5 5a3d 8c67 7c3d e00a a8bd fe3e 023e
000001e0: 8e74 a3bd 9bc8 913d 602d 2e3d 5ad7 2ebd
000001f0: b383 743d 72d2 c0bc 9e4f 5a3d 11af 223e
00000200: ac19 d7bd 475f 3bbb 670e 8f3d f15e b53d
00000210: e87d a03d 5eb2 93bd 03ce 353c 4199 b13d
00000220: a065 133d 4619 723d cd12 f23c 8341 9f3b
00000230: 3d73 9abd b60a 92bd 3778 8b3c 4887 873d
00000240: aa33 03bd f5b8 6abd cbf6 693d dc06 28bd
00000250: da6d a73b dcc8 6c3d 8cfb a9bc 98ad b83d
00000260: 21c8 bb3d bbaa 4ebc 7ea2 99bd f02d 57bd
00000270: bf70 233d 365c b5bd 56d7 91bd 3503 82bd
00000280: 2476 f13d 1bab e03c c191 98bd 4a48 233d
00000290: 570d a3bd 04e8 c3bd c4ae c3bd 9384 ddbd
000002a0: 1c39 9dbd fc5d bd3d e8ef d83d 313a c23d
000002b0: dfd7 143b 200f e3bc c4e4 9c3c bc6e d8bd
000002c0: de20 9f3d d31d a93d eb24 d33d b841 e33d
000002d0: e98e d83d e5e9 0a3c ab74 d3bd acc8 a1bc
000002e0: d85b a8bd dda8 983c 0291 603d c4bb 923d
000002f0: 1568 dd3d e154 e5bd d677 9cbd 5bc7 00be
00000300: 478d 78ba 594c f1bd 5854 a03d f5ab f43c
00000310: 4d89 ab3d df60 263d 07d2 6dbd 8f52 c9bd
00000320: 8c42 413d 00a1 b73c bb44 043e 3844 efbd
00000330: febe 5cbd 48f9 923d 1925 d83c 08d5 d7bd
00000340: 26d7 2cbc 1627 403b acf4 a2bd 1613 e9bd
00000350: 7869 673d f628 323c 9bda 603d c63e 083e
00000360: 2d4f 183a 67eb 893d 5c57 1c3d 4ab2 92bd
00000370: 540f 80bc 21e7 c63c 0398 873d fca2 d0bc
00000380: 3e4e 123b 7877 ee3d 3ae9 423d 9e3d b7bb
00000390: 31b8 6c3d f581 9c3d 1a66 97bd 67a9 81bc
000003a0: a477 7cbd a372 86bd 4a1d 2a3c d5fc f4bd
000003b0: f220 afbd 101e ce3d af53 ea3d c676 bfbd
000003c0: 8b5b ffbd 410b 5dbd 08cf 493d 6449 a8bd
000003d0: 8a32 79bb 86bc 443d 3f27 bc3c 75bf 42bb
000003e0: 1188 93bc 3929 be3c c76c ec3a d49f c53c
000003f0: bef2 753d 187e d1bc 5df2 693d df18 5c3d
-0.057831712 -0.069334745 0.08159617 0.13247359 0.101063855 0.054310948 -0.08124222 0.07767439
0.04591509 -0.10147819 0.022563726 -0.018476186 0.025211323 0.09971715 -0.08948283 -0.10227919
-0.06517393 0.05282047 -0.10921606 0.10929544 -0.020976325 0.107982576 0.12682457 0.048298914
0.045455538 0.015003884 0.09980611 -0.08679144 -0.055182293 -0.049111634 0.12922764 0.09453616
0.05003143 0.049902033 -0.111072816 0.059307132 -0.07203377 0.05431988 -0.085555635 -0.123486444
-0.0774099 -0.05767189 0.05950125 -0.13854776 0.09094132 0.063570924 -0.041825425 -0.07340027
-0.11878886 0.12550084 0.0026599811 -0.02118134 -0.099811524 -0.046161126 -0.0032429628 0.058771186
-0.084438704 0.033943884 0.106433116 -0.05403229 0.03518872 0.0833437 0.049082644 -0.039272994
0.01719767 0.11695294 -0.07397094 0.101857275 -0.005856842 0.034592733 -0.02755555 -0.11634773
-0.018937536 -0.07854264 0.10075039 -0.098798186 0.07857644 -0.09782059 0.14697255 0.018705139
-0.002643715 0.12898414 -0.03974786 -0.10334316 0.018470617 0.17905624 0.03631694 0.039074592
0.15663873 0.046486452 0.07278095 0.057588432 -0.074549384 -0.007414597 0.007548071 -0.04055492
-0.063224554 0.043590378 -0.06876586 -0.11240718 -0.043688852 -0.08052879 -0.052641537 -0.029123053
0.0774385 0.12866946 0.05923979 -0.049743585 0.082680754 0.10335804 0.03796013 -0.016173823
-0.12121336 0.026755996 0.13218819 0.07018236 0.053411204 0.061622187 -0.08205199 0.12719342
-0.079812154 0.071183406 0.04252374 -0.042685844 0.05969591 -0.023537848 0.053298585 0.15887095
-0.105029434 -0.0028590725 0.06985169 0.08855999 0.07836515 -0.07211755 0.01109648 0.08671809
0.03598559 0.059106134 0.02954998 0.0048601045 -0.07541511 -0.07130949 0.017025096 0.066176
-0.032031693 -0.057305295 0.057120126 -0.041022167 0.005109531 0.057808742 -0.02074983 0.090174854
0.09169031 -0.0126139475 -0.07501696 -0.052534044 0.039902445 -0.088554785 -0.0712115 -0.06348268
0.11790112 0.02742534 -0.07449675 0.039863862 -0.07961529 -0.09565738 -0.09554818 -0.10816302
-0.076769084 0.09246442 0.105926335 0.094837554 0.0022711677 -0.027717173 0.019152053 -0.10567996
0.07769941 0.08257642 0.10309776 0.11096519 0.10574133 0.008478616 -0.10324987 -0.019749008
-0.08220643 0.018635208 0.05482579 0.0716472 0.10810868 -0.1119783 -0.076400444 -0.12576048
-0.0009481501 -0.1178214 0.07828587 0.029867152 0.083757974 0.040619727 -0.058061626 -0.098302
0.047182605 0.022415638 0.12916844 -0.116829336 -0.05389308 0.07176453 0.026384877 -0.10538679
-0.010549342 0.0029320172 -0.07956824 -0.113805935 0.056497067 0.010874024 0.05489598 0.13305196
0.0005810138 0.067343526 0.03816925 -0.07162912 -0.015632309 0.024280133 0.06620791 -0.025468342
0.0022324468 0.116438806 0.047585703 -0.005592062 0.057792846 0.07641975 -0.07392521 -0.015827848
-0.061637536 -0.06564834 0.01038296 -0.119622864 -0.08551206 0.10064328 0.11441743 -0.09348826
-0.12468632 -0.05396581 0.049269706 -0.08217123 -0.0038024508 0.048031352 0.022967933 -0.0029716168
-0.018009217 0.023213016 0.0018037789 0.024124064 0.06004595 -0.025572821 0.0571159 0.053734656

lstm.weight_ih_l1 f4 [256, 64]
00000000: 4ec5 a73d 9a06 9b3c 8ca3 7539 0f36 173d
00000010: fb57 4f3d 0f4f 433d ebc2 a43d 62d1 e93d
00000020: 5786 ce3d 304c 393d 6c20 f3bd c144 ca3b
00000030: 4e45 fdbc abc6 abbd 31bf 84bc d68e b93d
00000040: d358 e83d c320 06be 3631 43bc 380e 86bd
00000050: 0850 cd3c cfea 2abd 1620 c3bd ec2a 93bd
00000060: ee22 8e3d 4c90 f3bb f76d a6bd 0256 713c
00000070: 7a69 99bd 55aa bdbd 75d9 b2bd 8666 d6bc
00000080: b166 a0bc 3e24 3c3c e0b0 563d d7c7 a73d
00000090: 6923 fbbd 8bb5 33bd 8f83 ab3d beb8 143d
000000a0: 79f2 1a3d 8a98 8d3d f017 973a 8122 84bd
000000b0: 3768 883d 5450 873d e940 b23d 234b a2bd
000000c0: a890 4a3d c29a 2fbd 2e41 2bbd 282c 14bc
000000d0: 1e19 aebd 822f b63c 66f4 d63d 6cf2 cd3d
000000e0: db95 d7bd 69a2 38bd 3a4d f13d 63b0 06be
000000f0: b8f1 29bd 7c0a b5bd ab85 83bd 4899 96bc
00000100: bc76 a53d 5e14 c7bd 653c 9bbd 01e5 043d
00000110: ac33 a6bd 9400 833d cbf1 d53d e3c7 883d
00000120: e626 123e f93c c5bd 1810 aa3d 375e 9ebc
00000130: 07fb 11bd f1a6 a0bd 7e6d 48bc fc43 c83d
00000140: aeb2 bebc 0e0b 953b 983b d63d a17d 0dbe
00000150: 35a2 f8bc de8b 033d 488c adbd 3ed3 313c
00000160: 5d93 363c a4ce b1bd abcc 0f3d f0a0 113d
00000170: b412 5dbd e6b0 c9bd 5a89 ab3d cdb1 b33d
00000180: f333 f5bd 1190 feb9 69fe 0d3e 2a31 f7bd
00000190: 4e8e b93d 8fcc f0bd 72fb d8bc d771 babd
000001a0: acef c13b 542f 1bbc 7bd6 133b 99d5 a73d
000001b0: edd6 fa3d 3ba2 acbd e26c 0fbe c594 aabd
000001c0: 8a02 c23c a96c b63b 1b4c b23d c440 173d
000001d0: 3ea5 ad3c d65e 6f3d 5898 f8bd de3f ff3d
000001e0: 0758 19bb 1e03 ab3d ffe8 c33d 132f df3d
000001f0: 14bc d13d 5ff1 0a3d 775e 34bd e936 acbd
00000200: efcf 95bd c83b 6a3c eefc 543d 9e8d f53b
00000210: 7a37 f6bb 1ffb 6cbb c7e9 d9bd cff8 d1bc
00000220: fbe8 c8bd 414f 03bd 6bac 4a3d 04e6 973d
00000230: f844 683d e13b 0ebd 9589 973b ee2e c2bb
00000240: 1533 0c3c 4063 813d 995a a7bd cfb3 153d
00000250: 90ee e93c d1a7 c4bc d75d 603c 53c7 943d
00000260: de10 a4bd ee70 9e3d a13f b13d 3f33 d53d
00000270: 0e85 c8bd ef9a 523d c7ec 953d 45dc 5cbd
00000280: 5fd8 9abd 2cb3 de3d 94e9 32bb 3e6c cc3b
00000290: 2cd2 683b a67e 09bd 0bc3 0f3d 63d0 05be
000002a0: 74f0 a6bc c49e 9bbb 12ae 95bd fe64 42bd
000002b0: 5b3e bf3d 992d 01be dd73 4abd 8634 a8bd
000002c0: c64d c73d b2e8 9abd 9f11 343d 50b3 d5ba
000002d0: dc7c 04be 92ab 0abc eedf dbbd 9b29 4dbc
000002e0: d650 2cbd 99c4 cfbd 15df b1bb 9683 cbbc
000002f0: 8a98 ec3c 0a65 5a3d 44d3 b3bc 50d0 29bd
00000300: f454 cc3c e6a8 c13b 21a3 393b 4fe6 093d
00000310: b997 f23c 55f6 9d39 24b4 a6bd 14f8 bebd
00000320: ec8e e13d a8ed ebba c563 a73d 8468 91bc
00000330: d489 913d d33a cabd 2fae 773b b3e7 67bd
00000340: 3743 b9bd b7dd b03d a966 97bd 2941 123c
00000350: 04fb af3d ad85 fcbd 75f0 a1bd bd5f 68bc
00000360: f0cc 9d3d 2e7b 6d3d 761e 3b3d f585 9dbd
00000370: ee04 1e3d 5559 773d f6c7 b8bd e397 db3c
00000380: 7aeb 853d a911 d93d a0a4 323d b6f0 e23b
00000390: a230 32bd c6c0 993d 8dee d6bc 5ce1 eabd
000003a0: 863a 813c ccc2 39bd 15d9 7abc d8e0 2e3d
000003b0: 20e3 ac3d 42de 5c3b 81b3 ed3d 93d8 f03d
000003c0: 3002 3cbd 94c5 bdbd 7bd7 79bd adf6 59bd
000003d0: 0d0e 7cba 7fd2 9ebb 6f2a e2bd e403 d93d
000003e0: 3774 313d 1aa8 623d 67f0 853d 657b 36bc
000003f0: 78e4 eb3d c04b 08bb 9b7c 8fbd 47a1 a73d
0.0819193 0.018924046 0.00023425947 0.03691679 0.050621014 0.047682818 0.0804499 0.1141689
0.10084217 0.045238674 -0.11871418 0.006172747 -0.030916836 -0.08387502 -0.016204448 0.09060447
0.11345067 -0.13098435 -0.011913588 -0.06545681 0.025062576 -0.041727837 -0.09527604 -0.07185921
0.06940256 -0.007432973 -0.08126443 0.0147299785 -0.07490821 -0.09261004 -0.08732883 -0.026171934
-0.019580217 0.01148325 0.052414775 0.08192413 -0.12262613 -0.043874305 0.08374702 0.036308996
0.037828896 0.0691386 0.001152752 -0.064518936 0.066605024 0.06607118 0.08703787 -0.079244874
0.04945436 -0.042872198 -0.041810207 -0.009043731 -0.085008845 0.02223945 0.10495834 0.10056004
-0.105266295 -0.04507676 0.11782308 -0.13153224 -0.041490287 -0.0883989 -0.064219795 -0.018383637
0.080792874 -0.097206816 -0.07579879 0.032444958 -0.081153244 0.06396595 0.10446509 0.0667875
0.14272651 -0.0963077 0.08303851 -0.019332035 -0.03563979 -0.078443415 -0.012233136 0.09778592
-0.02327856 0.004548437 0.10460585 -0.13817455 -0.030350784 0.03211581 -0.08474022 0.010853587
0.011143533 -0.08681992 0.035107296 0.035553873 -0.053972915 -0.09848194 0.08375807 0.08774147
-0.11972799 -0.00048553993 0.13866581 -0.12069924 0.090603456 -0.117577665 -0.026487086 -0.091037445
0.0059184637 -0.009471733 0.002255826 0.081950374 0.12248025 -0.084293805 -0.14006379 -0.08329157
0.023682851 0.0055671525 0.08705922 0.036927 0.021196958 0.058440052 -0.12138432 0.124633536
-0.0023398416 0.08350204 0.09565925 0.108976506 0.10240951 0.033921596 -0.0440354 -0.08408911
-0.07315051 0.0142964795 0.051999025 0.0074936887 -0.0075139375 -0.0036160422 -0.106402926 -0.025631336
-0.098100625 -0.032058004 0.049480837 0.07416919 0.0567064 -0.034725074 0.0046245554 -0.0059260046
0.008557101 0.063177586 -0.08171577 0.036548432 0.028556138 -0.024005802 0.013694248 0.072645806
-0.0801103 0.077363834 0.086547144 0.10410165 -0.09791003 0.051417287 0.07320552 -0.053921003
-0.07560801 0.10874018 -0.0027299868 0.0062384894 0.0035525663 -0.033568047 0.035098117 -0.13067774
-0.020378329 -0.004749151 -0.07308592 -0.047459595 0.09338065 -0.1261505 -0.049426902 -0.08213143
0.09731631 -0.07563914 0.043962117 -0.001630405 -0.12938255 -0.008463757 -0.107360706 -0.012522127
-0.04206928 -0.1014492 -0.005428205 -0.024843019 0.02888133 0.053319015 -0.021951325 -0.041458428
0.024942853 0.005910027 0.0028325992 0.033666905 0.029613363 0.00030128905 -0.08139828 -0.09324661
0.11013588 -0.0017999904 0.081733264 -0.017750032 0.07106367 -0.09874501 0.003779303 -0.05661745
-0.09046023 0.08636039 -0.07392628 0.008926668 0.08592799 -0.12330184 -0.07907192 -0.014182982
0.07705104 0.0579788 0.045683347 -0.07691566 0.03857892 0.060387928 -0.090225145 0.026805824
0.06539054 0.105990715 0.04361403 0.0069256676 -0.04350341 0.07507472 -0.026236797 -0.11468765
0.015774976 -0.04535179 -0.015310545 0.042694896 0.08441758 0.0033701812 0.11606503 0.11760058
-0.045900524 -0.09266201 -0.060996514 -0.053213764 -0.0009615131 -0.0048468704 -0.1104325 0.10596445
0.04332372 0.055336095 0.06539994 -0.011137818 0.11518186 -0.0020797104 -0.070061885 0.08185058

lstm.weight_hh_l1 f4 [256, 64]
00000000: 7925 88bd 7c55 d8bc 2ccd 92ba cade d2bd
00000010: 4a87 2b3d 965a d73d 95dd d7bc 9c05 913d
00000020: 4571 d03d 5902 81bd bc1a 613c ea40 d1bd
00000030: 17be ddbc 9e31 9bbd c6d9 acbc 76a8 4abd
00000040: 7290 7bbd 1f16 5fbc 9601 38bd 42f3 2d3d
00000050: d351 00bd 77a3 4fbd 384f c3bd 50e1 223c
00000060: 723f febd 261d fe3c f740 213d 8239 793d
00000070: 8d77 5c3d b3c1 b4bd 816c c5bc 31b2 b13d
00000080: 7f7b a73d 28a3 9d3d a6d6 ffbd 3e82 63bd
00000090: 54e5 26bc aeb0 ccbd d345 0e3e 4c31 eb3d
000000a0: 195d 49bd c7e9 0d3d a866 1abe 91a2 163c
000000b0: 040f 3bbd 8ba1 3e3d a70f 02bd 70ca 453d
000000c0: d399 33bd 3ab9 b8bd 2623 a43d 6bd4 7c3d
000000d0: 2558 ac3d cbb3 dabd 7177 fc3b c9b7 f7bb
000000e0: 8cc0 293d a3ad 1a39 3ee0 b53d ce73 9c3d
000000f0: d586 10bd 61cb dfbc 3a19 efbd 9e05 a8bd
00000100: e329 20bc 0dfd 0cbe d4b5 8ebc d741 823b
00000110: 80a6 113e d66f b73d 5cfd a7bd 6eb1 c1bd
00000120: a788 3dbd 89a5 7bbd 63a1 99bb f41b a0bd
00000130: 490a 40bd b757 cebd 8660 0f3e fc7f 4d3c
00000140: c256 afbd 7a4e 83ba 619d 8dbd 2452 84bd
00000150: 3b1e 28be 1ad8 0bbe 461d 7bbc dd98 8ebd
00000160: 853f f03d 3844 423d 143d f13d 89dd 203e
00000170: 63da b33d e501 683c 091b d3bb b50b c8bd
00000180: 517b 213e dd20 713c c470 e33c 500e fc39
00000190: 9b0c 61bd 6259 673d 90f1 fbbd 7866 90bd
000001a0: 49e4 aebc 4d9d e3bc f2ab 8a3d 4803 83bd
000001b0: fede 35bd 5359 743d df07 1e3d 9a72 06bd
000001c0: 5fd8 ee3c 7c41 223e c586 c93c ab03 a3bd
000001d0: e36b d13c 494d d7bd e139 2b3e 78c1 213d
000001e0: d2a9 883d a142 90bd 47f0 05bd 6ac3 f2bd
000001f0: 7675 d5bd d9c9 a63d 8617 79bd 4a05 f8bd
00000200: f3ca c13d 4b7b b73c 8f27 c23d dfa3 b8bc
00000210: 15a1 27bd f086 f73d 8901 3cbd 7673 44bd
00000220: 4787 c13d ea1d 1dbc f9b4 86bb 92a9 f33c
00000230: 8f62 e03d ea8e a5bd 78b6 9abd a1d6 11bd
00000240: 83b1 ecbb 29ba ee3d 0871 53bd 413a a0bd
00000250: 3606 a53d 536a 99bd 1f85 98bd 6aa1 1b3c
00000260: f045 443d 5bc7 c0bc ebf4 dc3d 0bc0 6a3c
00000270: d25e fabd e655 dfbd 5e39 4e3c 77b2 f7bd
00000280: f614 ef3d 17d6 5a3d 59eb 143d a872 f1bd
00000290: ec84 a73c 3b9e f4bd 6173 df3d aa71 f8bd
000002a0: 5bc4 2dbd 0fa6 ccbd 9720 af3c aa69 ef3c
000002b0: 5891 b93c 1287 573a 57b0 30bd 25d1 133c
000002c0: 53ca a4bd edb6 cd3d 75c2 e83d 4640 a7bd
000002d0: a7aa cfbd 3632 83bd 584c 983d 01eb 043c
000002e0: afe7 3ebc 3ef6 99bc d203 7a3d 3730 db3d
000002f0: 47bb cb3c 5dde 623d c43f adbb 84ab b3bd
00000300: 12c3 ebbc 6f8a fc3d c4a4 383d 8ad2 b2bd
00000310: 92ce b1bd 05ef ad3c 0d19 f6bb d1bf 3f3d
00000320: 71ad d83d 185e 943d 4e1c 88bd 15c3 c03d
00000330: 3359 ca3d 7487 19be faaf a5bd 2b00 f13d
00000340: e542 023e fc69 123e 62c1 9b3d ab7c 9b3d
00000350: 73bf 9a3d 48e4 b63d e6d1 c7bc f033 893d
00000360: 91b7 4c3d dc4d e6bd 2715 0c3e d8b5 54bd
00000370: 5989 90bd b0cd afbd f06e e93d 28ec 67bd
00000380: a1ae 9bbd 28be c2bd 3a39 973b e6e0 513d
00000390: 37a0 893d 6fd9 4fbd b6af d8bd a946 dfbd
000003a0: d4c2 0dbe 1fee b9bd afec 283d fda2 0e3d
000003b0: eb53 eebc 5634 8cbc e791 fc3c 68ea cf3d
000003c0: 443c 1e3d 6e19 663d b7ef 8e3d 4f36 823d
000003d0: d6c2 50bd 61da 65bd 3115 043e b05c fbbd
000003e0: 23ef bbbc 5ca2 17be af99 96bc e034 2fbd
000003f0: 0998 89bd da2d e2bd f6a2 983d c361 cabc
-0.06647772 -0.02640795 -0.0011200062 -0.102964 0.04187707 0.10515325 -0.026350776 0.07081148
0.101778544 -0.06299276 0.013739284 -0.102174595 -0.027068181 -0.07577823 -0.021099936 -0.049477063
-0.06141705 -0.013616114 -0.044923387 0.042468317 -0.031328034 -0.050693 -0.09536594 0.009941414
-0.12414445 0.031019758 0.039368596 0.06084586 0.05382495 -0.08826008 -0.02409959 0.086765654
0.08177852 0.07697135 -0.12492113 -0.05554413 -0.010186512 -0.099946365 0.13893823 0.11484012
-0.04916105 0.034646776 -0.15078223 0.009194032 -0.045668617 0.046540778 -0.03175321 0.048288763
-0.04384787 -0.09019704 0.080145165 0.061726015 0.0841525 -0.10678824 0.007704668 -0.0075597507
0.041443393 0.00014751269 0.088806614 0.076392755 -0.035284836 -0.027318658 -0.116747335 -0.082041964
-0.009775612 -0.13768406 -0.017420687 0.003975134 0.14223671 0.08956878 -0.08202621 -0.0945767
-0.0462729 -0.061437164 -0.0046884282 -0.07817832 -0.04688481 -0.10075324 0.14001665 0.012542721
-0.085614696 -0.0010017895 -0.06914783 -0.064609796 -0.16417782 -0.13656655 -0.015326804 -0.0696275
0.117308654 0.04742834 0.11779228 0.15709509 0.08781888 0.014160608 -0.006442432 -0.09767858
0.15769698 0.014717308 0.027763732 0.0004807585 -0.054943662 0.056481726 -0.12301934 -0.07050794
-0.02134909 -0.027784968 0.06771077 -0.0639711 -0.044402115 0.0596555 0.038581725 -0.032824136
0.029155908 0.15845293 0.024600396 -0.07959684 0.02556414 -0.10512788 0.16721298 0.039491147
0.06673016 -0.070439585 -0.03269985 -0.118536785 -0.104227945 0.08143968 -0.06081345 -0.12110384
0.094625376 0.022397658 0.094802015 -0.022539077 -0.040925104 0.12086284 -0.0458999 -0.047961675
0.0944963 -0.009589652 -0.004110929 0.029743943 0.109562986 -0.08083899 -0.075543344 -0.035605077
-0.0072233095 0.11656601 -0.051621467 -0.07823611 0.08057825 -0.07490983 -0.07447266 0.009498933
0.04791826 -0.02353256 0.10788902 0.014328013 -0.12225117 -0.10905056 0.01258692 -0.12094586
0.1167392 0.05342683 0.036357258 -0.11789447 0.020449124 -0.119442426 0.10910679 -0.12131055
-0.042423587 -0.09992611 0.021377845 0.02922519 0.022652313 0.0008221726 -0.04313692 0.009022032
-0.08046403 0.10044656 0.11365215 -0.08166556 -0.10139971 -0.06406061 0.074364364 0.00811267
-0.011651917 -0.018794175 0.0610388 0.107025556 0.024869574 0.055387843 -0.0052871425 -0.087729484
-0.02877954 0.123310916 0.045079008 -0.087315634 -0.08681978 0.021232137 -0.0075103105 0.04681379
0.10579956 0.072445095 -0.06646024 0.09412209 0.09880295 -0.14993078 -0.080902055 0.1176761
0.1272083 0.14298242 0.07605244 0.07592138 0.07556047 0.0893026 -0.02439208 0.066993594
0.04997975 -0.11245319 0.13679944 -0.051931232 -0.07057447 -0.08584154 0.11398113 -0.0566217
-0.07601667 -0.09508926 0.0046149762 0.05123987 0.06720012 -0.05074447 -0.10580389 -0.10902149
-0.13843852 -0.09078621 0.041241344 0.034823406 -0.02909275 -0.0171148 0.03083129 0.10152131
0.038631693 0.056176595 0.06979316 0.06358015 -0.05096706 -0.056116465 0.12898709 -0.12273538
-0.022941178 -0.14808029 -0.018383829 -0.042775035 -0.067184515 -0.11043902 0.07452957 -0.02470482

lstm.bias_ih_l1 f4 [256]
00000000: 4ea5 e23d e9ed 183e 1674 033e 8597 9fbd
00000010: ca7e 553c a0e4 d7bd 4c52 f23d 4de3 00bd
00000020: cc3e eb3d 5495 f83c ca26 a1bc 68a7 70bd
00000030: 49e7 883d 2761 bd3d ccbe b2bc 40d3 b73d
00000040: fbe9 cf3d 50ae cabb 893b ddbc 4535 c53c
00000050: 049a 093e 4139 12bd 7fd4 91bd e247 ae3d
00000060: 8718 dfbc 1213 6a3d 1916 4e3d 8518 3d3c
00000070: edd0 673d e751 93bd 9c03 cbbd ed14 50bd
00000080: a401 8d3d 0abe cc3d 6a81 8b3d 20fe edbd
00000090: a389 8abc 7c53 d2bd ce7d 613d 68c9 0b3d
000000a0: 1d87 cc3d e383 053d 245a d03d 99ca b3bd
000000b0: 79ef 303d 0be6 a83d 0a53 d5bd fe9e cd3d
000000c0: 00e8 dcbb ea99 cb3c 933f a13c 24a6 063d
000000d0: 857f f4bc 4c7b bc3b 91f8 3a3d 836c 80bd
000000e0: 9a49 62bd a849 89bd 04a7 3bbd 1953 c4bc
000000f0: 8a61 9cbd 138c e1bd 61a7 a83d 1c30 9f3d
00000100: 1775 6cbc 8a5e b5bc a8ac e3bc 5ba9 aa3d
00000110: 51e9 ee3c 4932 6d3c c250 b83d 3ab2 f83d
00000120: e94e fbbc 71d4 d0bc 5741 ffbb 6f15 833d
00000130: 57a6 e4bc 3a54 a63d 14a1 df3d b4ef 0d3e
00000140: b5a9 a6bb 1657 a33d 56f8 3bbb 4b91 a3bd
00000150: c4f0 b2bc 9b5c 8bbd fac9 113d 4827 9dbd
00000160: 6f64 e43d 0248 8bbd e851 ea3d 7862 313e
00000170: d541 f0bc 822c cb3d 0f7a cf3c 483c 08bd
00000180: 861b b93d b8b1 62bd d8ed e93d 0c35 2a3d
00000190: d32c 863d 36ef 9bbd 2b08 9abd 499e c7bd
000001a0: 7b16 4d3d ad03 083e 13a5 633d 23af 693b
000001b0: d9bf 7a3b 1139 c9bb 6b8c 483d c3ac babd
000001c0: 1174 233d 1eb1 8bbd ae48 613c 88fd d63c
000001d0: 09a6 9ebd c2ca 173e b4d9 f73b 7e8f bb3c
000001e0: 87e2 1c3e 234b 093e f9d4 293d 6785 833d
000001f0: 9c87 53bd 36d4 cb3d eae1 87bd 0c73 6ebd
00000200: f10d 9e3c b464 593d 1191 b33c 0706 8cbd
00000210: 71b2 8b3c cb5c bd3d a072 513d ba7d 263d
00000220: 5f47 80bd 6c00 ffbb 793a 803d 593c 8b3d
00000230: 7916 76bd 25f8 78bd 5986 ae3d 8e49 5dbd
00000240: 07e5 a23c 0930 30bd bab5 eaba f10b 583c
00000250: b8b9 e5bd 1ccf a7bc fa4a 953c a5f6 413d
00000260: f03a 28bd 3575 03bd 60d6 de3d 79fa c0bd
00000270: 9a2e f6bd 721b e2bb 32c0 023b 433d 0abd
00000280: a3d3 0a3d 4386 06be 720a 62bd 7df8 893d
00000290: 5715 2b3a cf1c cfbd 3817 09bd 1658 21bd
000002a0: ee09 433d 5825 e43d 4f98 293d 8cd8 593c
000002b0: f1b5 7a3c aa48 7ebd 5945 b83c 6f13 77bd
000002c0: 9f24 c23d d367 df3b 1580 98bd 6446 7ebc
000002d0: 6261 9abd 994c ef3d 0eca 5f3d a84e c3bd
000002e0: c038 893d 3f63 123b fcd9 f0bd c96d 12be
000002f0: 0956 5ebd 669c 1abc dcb4 10bd 2c85 b93d
00000300: 4550 eabc d3e2 763d 86f8 09ba 25f0 96bd
00000310: 047c 933d ad0d f03d 82b1 f73d fb11 5fbd
00000320: cdf4 87bd 744b e03d 4e1b 963b b23b 8b3d
00000330: f951 1cbd 2fc4 c73d 30e8 df3d 8228 233c
00000340: 62f3 07bd 416e 7dbd af6c e8bd a2d0 f63d
00000350: 9fab 873d 0b79 ea3b ec60 113c 7ea1 443d
00000360: 1171 e0bd 9e0d 223d c9f9 1fbd c27a c23d
00000370: 80ba 40bc f688 f03c 6d12 d03d 22cc b2bb
00000380: 30ae 433d 0a1f 4ebc 02a1 ef3d 3e36 08bd
00000390: b6c7 31bd 5f85 fe3d 9a74 aebd 220e 84bd
000003a0: 5d1b b03d 2ab1 c23d 047d b83d 1b5e 913d
000003b0: 90fe 173d 5dbc ba3b 4a01 cebc e475 9fbc
000003c0: e9fc c1bd 6328 1dbd 978d 0abc 56c8 cd3c
000003d0: 3a73 73bd 7511 ff3d 9567 09bc 40fd 56bb
000003e0: 2548 65bb c95d 85bd 249c 32bd 7f92 e93d
000003f0: 9aa8 37bc 022d f2bd 9994 93bd 1897 013d
0.110666856 0.14934506 0.12837252 -0.07792572 0.013030717 -0.10541654 0.11832103 -0.03146677
0.11486587 0.030344643 -0.019671816 -0.0587534 0.06684739 0.09247046 -0.021819495 0.089758396
0.1015205 -0.0061853305 -0.027005928 0.024073252 0.13437659 -0.035699133 -0.071206085 0.08509804
-0.027233375 0.057147093 0.050314043 0.01154149 0.05659573 -0.07193356 -0.09912798 -0.050801206
0.068850785 0.099971846 0.06811793 -0.11620736 -0.016911333 -0.1026983 0.055051617 0.034127623
0.09986708 0.03259648 0.10173443 -0.08778877 0.04319713 0.08247002 -0.10416229 0.10040091
-0.0067415237 0.024853665 0.019683635 0.032873288 -0.029845962 0.005752003 0.045647208 -0.06270697
-0.055245973 -0.06703502 -0.045813575 -0.023965405 -0.076357916 -0.11013045 0.0823505 0.07772848
-0.014432213 -0.022139806 -0.02779229 0.08333083 0.029163988 0.014477321 0.08999778 0.12143369
-0.030677276 -0.025491925 -0.0077897715 0.064005725 -0.027911348 0.08121534 0.10919395 0.1386097
-0.0050861486 0.07975595 -0.0028681955 -0.07986697 -0.021843322 -0.068047725 0.03559301 -0.07673508
0.11151969 -0.06800844 0.114414036 0.17322719 -0.029328266 0.099205986 0.025326757 -0.033260614
0.09038453 -0.055345267 0.11422318 0.041554496 0.06551518 -0.07613985 -0.07521089 -0.097469874
0.050070267 0.13282652 0.05557735 0.0035657368 0.0038261323 -0.006140836 0.048962038 -0.09114983
0.03990561 -0.06820892 0.013750238 0.02624394 -0.077465124 0.1482344 0.007563794 0.02289557
0.15320788 0.13407569 0.041462872 0.06421929 -0.051643 0.099525854 -0.066348866 -0.058215186
0.019293757 0.053074554 0.021919759 -0.06837087 0.01705286 0.092462145 0.051134706 0.040647246
-0.06263613 -0.0077820327 0.06261153 0.0679862 -0.060080025 -0.060783524 0.085217185 -0.054025225
0.0198846 -0.04301456 -0.0017906942 0.013186441 -0.11217064 -0.0204845 0.018224228 0.04735436
-0.041071832 -0.0320942 0.108807325 -0.09422774 -0.12020607 -0.0069002444 0.0019950983 -0.03374983
0.03389324 -0.13137154 -0.055185743 0.067368485 0.0006526312 -0.10112917 -0.03346941 -0.039390646
0.04761689 0.11139935 0.04140502 0.013296258 0.015302167 -0.062081017 0.022494005 -0.060321268
0.09479641 0.0068177967 -0.07446305 -0.015519712 -0.075381055 0.11684532 0.054636054 -0.09536487
0.06700277 0.0022336987 -0.11760327 -0.14299692 -0.05428127 -0.009436702 -0.03532873 0.09058604
-0.028602729 0.06027491 -0.0005263168 -0.07370023 0.072013885 0.117213584 0.12094404 -0.054460507
-0.06638489 0.109518915 0.0045808917 0.06798495 -0.038164113 0.09754216 0.10932958 0.009958388
-0.033191092 -0.061872724 -0.11348855 0.12051512 0.06624531 0.0071555427 0.008873206 0.048005573
-0.10959066 0.039563768 -0.039056573 0.094960704 -0.011763215 0.029362183 0.101597644 -0.0054564634
0.04777354 -0.0125806425 0.11700632 -0.033254854 -0.04340335 0.12427782 -0.08518334 -0.06448008
0.08598969 0.095064476 0.0900822 0.07098027 0.037108004 0.005698724 -0.025147099 -0.019465394
-0.09472067 -0.038368594 -0.008456609 0.025119942 -0.05943606 0.124545015 -0.008386512 -0.0032804757
-0.0034985628 -0.06512029 -0.04360594 0.11404895 -0.011209631 -0.11824991 -0.07206077 0.031638235
