output/LSTM2CNN/LSTM2CNN_adam_64_1000/model/LSTM2CNN_epoch_909.pth (torch, 353538 bytes, 16 tensors)

lstm.weight_ih_l0 f4 [256, 11]
000000 5f 13 60 bd 1e f0 8c 3d 07 1d 6e bb 20 01 fe bc
       -0.054705974 0.06881736 -0.003633322 -0.031006396
000010 20 d1 d7 3d 4f fe c5 bd af 57 96 3d 99 b3 a0 3b
       0.10537934 -0.09667646 0.07340943 0.004904222
000020 45 8b 75 3d e6 51 63 bc 83 61 41 bb 25 26 d1 bd
       0.05994727 -0.013874507 -0.0029507584 -0.102123536
000030 29 37 06 bd 02 10 f6 3c c6 ac 3b 3d b3 d8 df bd
       -0.03276745 0.03003693 0.045819066 -0.10930004
000040 bb a5 8c bd 3f 48 cf 3d 17 8c 8c bd 40 84 63 bc
       -0.06867548 0.10121202 -0.068626575 -0.013886511
000050 10 52 a5 bd 6a d6 91 bc ff e1 fb 3d 72 e7 a5 3d
       -0.08072293 -0.017802436 0.12298965 0.08100785
000060 44 ea e7 bd 5b c5 d9 3b 5b bd 95 3d dd 1e 3b 3d
       -0.113239795 0.006645841 0.07311507 0.04568373
000070 c9 8b 05 3e a5 18 0b 3d ee 33 5e bc a9 6f cd bd
       0.13041605 0.03395905 -0.013562186 -0.10031063
000080 cb 40 ef 3d 0f 5c b3 bd 61 e5 9b 3d 55 d6 90 3d
       0.1168228 -0.08757793 0.0761211 0.070721306
000090 60 af 05 3d 58 d8 8b 3d 65 f4 ab 3d a5 39 bc 3d
       0.032637954 0.06828374 0.08396224 0.09190682
0000a0 5b 70 00 3e 8a 7e 2b bd 64 c8 f7 3d 01 55 f9 3c
       0.1254286 -0.041868724 0.12098768 0.03043604
0000b0 26 1c 4b 3d 5e 1c 86 3d d1 ff 36 bd 5e 30 f0 3d
       0.04958739 0.06548379 -0.04467756 0.11727975
0000c0 50 1a 52 bc 5f 68 b2 3d ec 40 12 3d 53 7a 0f bd
       -0.012823656 0.087113135 0.035706446 -0.035028767
0000d0 46 2f 4d 3d 2d 7b 00 bd 58 1d 5b 3d 08 27 05 3e
       0.05009391 -0.03136747 0.05349478 0.1300317
0000e0 22 bd 69 bd 6e 1d ed 3d aa 13 29 bc f9 b7 0d 3e
       -0.057065137 0.11577879 -0.01031963 0.13839711
0000f0 bd c3 aa bd 9f e1 62 3d 08 87 24 3d 71 7a ab 3d
       -0.08338115 0.05539095 0.04016784 0.08372963
000100 49 cb 7c 3d 3e c5 d9 3d ba 09 8e bd 2a 4f 85 bd
       0.061717305 0.10633324 -0.06935449 -0.0650924
000110 10 14 e5 3d e0 f8 0e be 2f 22 1f 3c 90 89 a6 bd
       0.11185467 -0.13962126 0.00971274 -0.08131707
000120 3d 4f ac 3d 77 87 51 bd 56 43 7e 3d 94 92 a2 3d
       0.08413551 -0.05115458 0.062075935 0.07938114
000130 a5 c4 40 3d 21 96 93 3d ad 68 46 bd 5c 02 d6 bd
       0.047062535 0.07206369 -0.04843967 -0.10449669
000140 b9 45 bb bd 7b 46 75 3d 26 da 82 bd 74 c7 fa 3d
       -0.09144158 0.05988167 -0.06389265 0.12245074
000150 14 18 a3 3d 9d a7 5d 3d 4b 85 00 be c6 14 a5 bd
       0.07963577 0.054114927 -0.12550847 -0.08060603
000160 a8 3a d5 bd 80 7b 83 3d fe f9 e4 bd bc c3 79 bd
       -0.104115784 0.0642004 -0.11180495 -0.060977682
000170 f8 4e 43 3d 88 26 00 bc a6 50 79 bc 22 f0 19 bc
       0.047682732 -0.007821687 -0.015216982 -0.009395631
000180 d8 f9 2e bc 0c 84 06 be 52 06 22 3d 20 44 ca bd
       -0.010679685 -0.1313631 0.03955681 -0.09876275
000190 e1 1e 13 bd a8 76 35 3d ae 21 c7 3d c3 3e cc bd
       -0.03591812 0.044302613 0.09723221 -0.09972908
0001a0 29 24 a3 3d 10 77 d7 bd 57 46 0c 3c aa 71 00 bd
       0.079658814 -0.10520756 0.008561692 -0.0313584
0001b0 d7 30 dd 3b 0d d8 b1 bd 08 f5 09 be c6 a0 ca 3d
       0.006750207 -0.086837865 -0.13472378 0.09893946
0001c0 ad b3 c3 bd 7c 70 21 bd ca 6e c8 3c 61 eb 0e be
       -0.09555755 -0.039413914 0.02446689 -0.13956977
0001d0 c0 0a cf bd 7d 99 c6 3d 55 51 8b 3c 51 17 a4 3d
       -0.10109472 0.09697244 0.017006556 0.0801226
0001e0 43 83 c5 bd ea 98 99 bd ef 25 14 3d 33 de 8b 3d
       -0.09644177 -0.07499869 0.03616899 0.068294905
0001f0 27 1b 4a 3d c5 eb 56 3c 2a fa ad ba b7 09 41 3c
       0.0493423 0.013117735 -0.0013273407 0.011782101
000200 2a 75 ce bd 17 8f 7f bc 7e 4d 53 3c cc fd ec bd
       -0.10080941 -0.01559808 0.012896894 -0.115718454
000210 e1 d7 86 bd cd 91 c6 3d d1 73 f8 3d 95 7a 54 3d
       -0.065841444 0.09695778 0.12131465 0.051874716
000220 b6 fa 27 3e 6a 12 a2 3d f6 79 92 3d ee ea 1d 3c
       0.16404232 0.079136685 0.071521685 0.009638531
000230 2b 58 fb 3d 0f 1a 2a bd be 2c 52 bd 29 93 c9 3d
       0.12272676 -0.041528758 -0.0513122 0.09842522
000240 64 2c b0 bd e2 86 d2 bd 10 e4 01 3e 9b a5 c9 3d
       -0.08602217 -0.10279633 0.12684655 0.0984604
000250 38 97 8a bd 18 a4 b1 bd c6 1e eb 3c 29 5e 87 3d
       -0.06767124 -0.086738765 0.028701197 0.066097565
000260 ff b3 86 3d 70 16 9f bc d5 13 fb bd 8d 30 05 bd
       0.065773 -0.019419879 -0.12259642 -0.032517005
000270 5b ef c1 bd 61 e8 51 3d a5 ca 10 bd 4e 5b d7 3d
       -0.094694816 0.051247004 -0.035349507 0.10515462
000280 9e 9d 93 bd 5f 0c ce 3d 3d 5c 05 3d 5b de a7 3d
       -0.072077975 0.10060953 0.03255867 0.08196708
000290 61 46 99 bd ae 89 8d bd d8 9a c6 bd 91 ed 13 3e
       -0.07484127 -0.06911026 -0.09697503 0.14446093
0002a0 e9 70 d7 3d 76 f1 12 bd 3c de 21 3d ce d5 cb bd
       0.10519583 -0.035874806 0.03951858 -0.099528894
0002b0 64 5d 6d bd 14 e2 bc bc 0c 70 bd 3d 76 28 15 bd
       -0.057950392 -0.023057021 0.09249887 -0.03641554
0002c0 f4 9c 49 3d 73 ec d3 3c c7 dd b7 bd 12 bd c5 bd
       0.049221948 0.025869584 -0.089778475 -0.09655203
0002d0 a8 45 7f 3d bf 12 4b bd b0 06 3e 3d d9 59 65 bc
       0.06232229 -0.049578425 0.046393096 -0.013998472
0002e0 1b 50 6b 3d 5a 3e c4 3c 5c 87 47 bd 1e 02 b4 bd
       0.05744944 0.023955513 -0.048713073 -0.08789466
0002f0 4d ac c3 3d c9 62 9f bd 67 7b d2 3b 94 22 c5 3d
       0.09554348 -0.07782514 0.006423402 0.09625736
000300 45 37 83 bd 1e b5 02 bd 07 2e 2b bd 63 ee 39 3b
       -0.06407026 -0.031911008 -0.041791942 0.002837085
000310 df b9 c1 bd e4 fc dc bd 76 45 3b bd 77 f7 9a 3c
       -0.0945928 -0.107904226 -0.04572054 0.018916829
000320 24 8d a6 bd 0b 75 aa 3c 40 a6 d2 bd f8 98 ba 3d
       -0.08132389 0.020807764 -0.10285616 0.09111208
000330 9b dd 4f 3b 51 0b b9 bd 57 35 30 3c 8d ff 3c bd
       0.003171778 -0.090353616 0.010754905 -0.04614215
000340 e1 cf 1d 3d aa 5c 58 bd 5a c8 94 3d b7 38 96 3d
       0.038528327 -0.052822746 0.072647765 0.07335036
000350 68 bf fc bb ed d8 5b 3d ac 81 49 bd 50 94 b6 3c
       -0.007713247 0.053673673 -0.04919593 0.022287518
000360 26 5f 73 bd b0 c8 9e bd 97 13 ac bd 44 0e fc bc
       -0.059416912 -0.07753122 -0.08402174 -0.030768521
000370 1e 8a 79 3d 62 73 d0 3c f0 de 65 3c cf 15 07 be
       0.060922734 0.025445644 0.014030203 -0.13191913
000380 78 77 a6 bc 75 cd 66 3c 82 03 c8 3d 9c 25 df 3c
       -0.020320639 0.014087071 0.09766294 0.027239613
000390 cb a8 90 3d b4 e1 a5 bd bf fc c4 bc 71 4d 8f 3d
       0.07063445 -0.0809969 -0.0240463 0.06997193
0003a0 b6 31 5a bd af 6e 17 be 38 1d 2a 3d 04 ef 88 bd
       -0.053270064 -0.14788316 0.04153177 -0.066862136
0003b0 4e 4a 2e ba 2f 73 09 3e 8f ea 1d be 56 a0 28 be
       -0.00066486455 0.13422845 -0.15421508 -0.16467413
0003c0 fb 32 9c bc fc 40 a4 bd 26 8b 70 bd 1a 3b fe bd
       -0.019067278 -0.08020207 -0.058726452 -0.124136165
0003d0 18 71 8f 3c 3a fb dd 3d d2 26 7b bc 2e 7d bd ba
       0.017509982 0.10838933 -0.01532908 -0.0014456862
0003e0 3c 9e 0d 3d 15 80 5b 3d 88 97 16 bd d4 a7 ac 3d
       0.034574732 0.053588945 -0.036765605 0.08430448
0003f0 d5 1e fc bc 6f 82 f1 bd a8 a7 96 3d 32 72 4d 3d
       -0.03077642 -0.11792456 0.07356197 0.050157733

lstm.weight_hh_l0 f4 [256, 64]
000000 b5 e8 fc bb 98 fa 19 3d ce 52 02 3d ae c1 ac 3d
       -0.0077181705 0.0375925 0.03181725 0.08435379
000010 fa 3c 67 bd 45 7d 83 3d a5 3f fb bc 43 14 fd 3d
       -0.056454636 0.06420378 -0.030669997 0.1235738
000020 e0 50 f8 bc 66 3c ba 3d 17 39 09 3e 25 0f 91 3d
       -0.030312002 0.09093551 0.13400684 0.07082967
000030 5f 67 0f 3e 83 ea 70 bd 6f 5c a0 bd cd 02 09 bd
       0.14004277 -0.058817398 -0.0783013 -0.033449937
000040 56 6f 54 3d 94 07 2e ba 50 e5 e7 3b 33 37 85 bd
       0.05186399 -0.00066387025 0.0070768967 -0.06504669
000050 57 72 9f 3d dc 14 6a ba 22 4d d9 bd 9b 3e 84 3d
       0.077854805 -0.00089295 -0.10610415 0.064572535
000060 8c 69 0f be cb 7a 63 3d 82 92 cb bd 80 08 9f bd
       -0.14005107 0.055537026 -0.099400535 -0.07765293
000070 1e 94 9b 3c 60 fb ab 3c 49 2f 17 3b 59 98 b2 bc
       0.018991526 0.020993888 0.0023068956 -0.02180116
000080 d0 19 ad 3d 63 6c 8d 3c 8c 8f 92 bc b7 ea 66 3d
       0.08452189 0.017263597 -0.017890714 0.056376185
000090 5a f0 0a 3e c1 76 aa bd 2f 96 73 bc 91 4f fd bc
       0.1356825 -0.08323432 -0.0148673495 -0.03092173
0000a0 a9 ac 8a 3d b8 7c 18 3d b4 42 d6 3d 3b 21 cf bd
       0.067712136 0.037228316 0.10461941 -0.1011376
0000b0 5d 89 0e 3d 87 bf 97 bd 5a 55 d9 3c f9 57 b1 bd
       0.03479897 -0.07409578 0.026529957 -0.086593576
0000c0 10 0a b8 bc 6d 0c ea bd 19 6d c9 3d 74 75 d6 3d
       -0.022465736 -0.11428151 0.09835262 0.10471621
0000d0 09 5c 99 3d 5f 12 15 bc a5 75 f1 bb cf b0 b2 3d
       0.074882574 -0.009098618 -0.0073687606 0.0872513
0000e0 7a a8 0e bc 8f df dc 3d 91 84 b9 3c 6c ea 8d 3d
       -0.00870716 0.10784828 0.02264622 0.06929478
0000f0 77 3d 16 bd c5 41 6e 3b 1f 46 cd bc df 1a c7 bd
       -0.03667971 0.003635512 -0.02505785 -0.09721922
000100 36 7f e8 bd 8f 23 88 bc ce eb 10 be 57 ec 83 3d
       -0.113523886 -0.016618518 -0.14152452 0.064415626
000110 77 76 3d bd 5b a4 1c 3d df f5 d1 3c 70 50 0c bd
       -0.046255555 0.03824268 0.025629936 -0.0342564
000120 55 b7 0a 3c e0 4c 09 3e 2d 38 40 bd 26 7b 53 bb
       0.008466561 0.13408232 -0.046928573 -0.0032269447
000130 47 1c a6 bc 00 04 6e bc 4c b3 ac bc 12 ca c9 3d
       -0.020277156 -0.014527321 -0.02108159 0.09852995
000140 fd 0d 8b 3d f9 cf 21 3d 8e ad b3 bd e1 82 e3 bd
       0.067897774 0.03950498 -0.08773337 -0.111089475
000150 de 9b 35 3d 64 80 f6 bd ff c1 89 3c 80 00 8d bd
       0.0443381 -0.12036207 0.016816137 -0.06884861
000160 7b 5a dc bd ac 7d b4 3d 9a f8 a3 3c 24 3f f3 3d
       -0.10759445 0.088130325 0.020016003 0.118772775
000170 79 87 c9 3d 6b f9 e7 3c 36 09 bf 3c 42 a9 33 3e
       0.098402925 0.028317174 0.023319822 0.17545035
000180 09 4c a0 3d 04 43 85 3d f4 09 81 3c 62 e5 cb bc
       0.078270026 0.06506923 0.015751816 -0.024889652
000190 d8 8a d0 bd b6 ee e3 bd 8f 93 bf bc 93 cd f3 3c
       -0.10182732 -0.11129515 -0.023385791 0.029761111
0001a0 69 2c c6 3d b3 3d 01 be a9 d2 ff 3c 28 6d 0e 3e
       0.09676439 -0.12621193 0.03122838 0.13908827
0001b0 1b 87 14 3b 3b 94 48 3d a1 2a 46 bc ab 5a c1 3d
       0.0022663537 0.04896949 -0.012095124 0.09441122
0001c0 af e3 31 3d 78 42 1d 3d b6 5b 19 bd 4f e3 e8 3d
       0.043430027 0.038393468 -0.037440978 0.11371481
0001d0 d2 4e 48 bc 37 51 89 3d 4c 97 9c 3d 94 e2 ac bd
       -0.0122258235 0.067049436 0.07646045 -0.08441654
0001e0 24 aa e9 3d 9d 8d 4d bd 79 de db 3d dd d5 40 3d
       0.11409405 -0.05018388 0.10735793 0.047078956
0001f0 bf 80 89 3c 1a d9 97 bd ec 38 86 3d 93 ae 90 3d
       0.016785024 -0.07414456 0.06553826 0.070645474
000200 58 11 32 bd 97 72 0b bd 2f 16 8e bd f1 ee a1 3d
       -0.04347357 -0.03404483 -0.06937825 0.079069026
000210 c0 46 da bb 38 f9 8c 3d 7a 14 69 bd 9b 90 aa bd
       -0.006661266 0.06883472 -0.056904294 -0.083283626
000220 b0 f8 94 bd 7c f4 b1 bd 17 c4 01 3e 58 11 f1 3d
       -0.07273996 -0.0868921 0.12672459 0.11770886
000230 11 6f 12 3c 61 ef e3 bd 7c 80 c1 3c a0 9d 28 bc
       0.008937613 -0.11129642 0.023620836 -0.010291487
000240 c4 a8 77 bd ed 5a 96 bd 51 19 8a bb e6 c3 26 bd
       -0.06046368 -0.073415615 -0.0042144437 -0.040714167
000250 a6 0d 0a 3d a4 34 29 be 55 c4 d1 3d af 79 39 3d
       0.033704422 -0.16523987 0.102425255 0.045282062
000260 06 3a c7 3d bb 59 ab 3d 92 f8 13 be 41 fe 16 bd
       0.09727864 0.08366724 -0.14450291 -0.03686357
000270 2e 62 89 bc 1a 93 ec 3d 6b a3 a6 3d 3a b1 b4 3c
       -0.016770449 0.11551495 0.08136638 0.022057164
000280 66 e6 b4 3d 29 24 af bd 00 64 19 bd 98 1a 74 3d
       0.088330075 -0.08551819 -0.037448883 0.059595674
000290 ba 02 ad 3d 66 b4 03 bd 64 a1 13 bc 64 63 e9 bc
       0.08447786 -0.032154463 -0.0090106465 -0.028489776
0002a0 fd 73 1f 3d af 48 de bd af fc c0 bd 13 b3 a7 3c
       0.038928974 -0.10853707 -0.094231956 0.020471131
0002b0 55 04 4b 3d fd c5 67 3d 0b 10 97 bd b8 e4 16 3d
       0.04956468 0.0565853 -0.07376107 0.036839217
0002c0 dd a1 e6 3c 25 45 bd bd 84 e5 b5 3d 21 39 f5 bb
       0.028153354 -0.09241704 0.08881667 -0.007483617
0002d0 61 6a 01 be 78 0c 8c 3d ef 0e c9 bd 74 2f 8f bd
       -0.12638237 0.06838316 -0.098173015 -0.06991473
0002e0 41 b5 0f 3e e7 89 4c 3d 68 34 61 3d 7c 94 2a 3d
       0.14033987 0.0499362 0.05498162 0.041645512
0002f0 c4 47 01 bc 9b bd f7 bd 2b 0c db 3d 17 4d c0 bd
       -0.007890645 -0.12096711 0.1069568 -0.09389704
000300 2d 62 80 3d fc 85 f8 3d 55 e4 a2 3d 12 74 15 3e
       0.062687255 0.121349305 0.07953707 0.14595059
000310 f2 6d ac 3c 8c 64 60 3d b0 1f b2 3d 42 b2 08 be
       0.02104852 0.05478339 0.0869745 -0.1334925
000320 90 c1 dc bc 8d 8b cc bd 3a 9e b7 3d e4 59 30 bd
       -0.026947767 -0.09987555 0.08965726 -0.043054476
000330 32 f6 2c 3e bb 30 de 3d bf 35 13 be 8b 2d 29 bd
       0.16890791 0.10849138 -0.14375971 -0.0413032
000340 1a d6 14 3b 21 f9 1a 3e 7f 56 c6 bd 9d 82 cc 3c
       0.0022710622 0.15134098 -0.096844666 0.024964625
000350 c0 a7 2a bd 6f 27 ad 3c 1b f4 df 3d b8 37 71 bd
       -0.041663885 0.021136967 0.10935231 -0.05889103
000360 04 4f 94 3d 23 95 0f 3c 9f 5b e6 bd 93 7b a3 3d
       0.072416335 0.008763584 -0.11247944 0.07982554
000370 37 22 c8 bd 62 fb b0 bd 13 35 01 bd f7 36 e1 bb
       -0.09772151 -0.086416975 -0.031544756 -0.0068730074
000380 b0 14 1b 3d c6 ee 00 3d 7e 88 5d ba e3 4f 9b bd
       0.037861526 0.031477712 -0.000845082 -0.075835966
000390 b3 ad 8b bd ea ad 94 bd 35 21 71 bd 08 49 14 bd
       -0.0682024 -0.07259734 -0.05886956 -0.03620246
0003a0 d6 94 80 3d ba 79 19 3d ad 6e 10 bd 0e 87 86 bd
       0.06278388 0.037469603 -0.0352618 -0.065687284
0003b0 6e 3a a3 3c 81 90 e3 bd f6 a5 07 be 19 b2 70 bd
       0.019925322 -0.11111546 -0.13246903 -0.058763597
0003c0 08 e0 ca bc df b0 24 3d de 92 2d 3d 55 93 12 3d
       -0.02476503 0.04020774 0.04237639 0.035785038
0003d0 c4 ab 08 3d 30 af a6 bd cb 0d 4d 3d 38 d6 8b bd
       0.033366933 -0.08138883 0.050061982 -0.06827968
0003e0 d3 b5 e6 bc b3 6d 0f be cb 5c b3 bd 26 b5 68 bd
       -0.028162872 -0.1400669 -0.08757933 -0.05681338
0003f0 74 59 07 3d 0b 14 f4 3c f2 3b bd bd 0b 3a e0 3c
       0.033044294 0.029794713 -0.09239949 0.027371427

lstm.bias_ih_l0 f4 [256]
000000 65 de fc bd a7 56 25 3d aa 5d a4 bd d2 48 7e 3d
       -0.12347106 0.04036584 -0.080256775 0.062081166
000010 e6 38 99 bd 39 55 f2 bc b8 1b 2c bd ec ef 36 bd
       -0.07481556 -0.029581653 -0.042018622 -0.0446624
000020 d0 06 03 be e2 4e c5 3d 1d 1d c2 bd 52 45 b3 3d
       -0.12795568 0.09634186 -0.09478209 0.08753456
000030 7a 97 68 3c d7 10 c8 bd 82 ff 96 39 dc 1d a7 3d
       0.014196271 -0.09768837 0.00028800598 0.08159992
000040 1b 53 40 bd 7d af 68 bc a5 a8 33 3c 79 79 ed 3d
       -0.046954256 -0.014201996 0.010965501 0.11595435
000050 9e 78 00 3e 4c ce 22 3c df 4c cc bd 47 2a 98 bd
       0.12546012 0.00993688 -0.099755995 -0.07429939
000060 41 7b 5a 3d df 09 92 bd 76 20 df 3c 07 8e a1 3d
       0.0533402 -0.07130789 0.027237158 0.07888418
000070 da 5e be 3c 0c 41 1b bd 9f 72 ea 3d 5c e1 0b bd
       0.023238588 -0.03790383 0.114476435 -0.034150466
000080 6d a7 4b 3b a4 ad 0c 3e 69 95 04 3c 50 20 e0 3d
       0.0031075135 0.13738114 0.008092263 0.10943663
000090 50 a9 d1 3a cc 2f 11 3b 08 e2 61 3d 1d 28 cc bd
       0.0015995894 0.0022153733 0.0551472 -0.099685885
0000a0 6f e2 9d bb 72 6a df 3c 13 a8 a7 3d 40 e8 c6 bd
       -0.0048182528 0.027272437 0.081863545 -0.09712267
0000b0 ef 28 b1 bd 12 a3 bb 3d ed 66 12 3d 25 63 45 bd
       -0.086503856 0.091619626 0.03574269 -0.048190255
0000c0 e0 c1 09 3c f2 90 83 bc e1 29 a9 3d d8 3b de 3d
       0.00840804 -0.016060326 0.08259941 0.10851258
0000d0 bc 0b c6 3c b7 87 b9 bd 34 ce f5 bd 5d b7 ea ba
       0.024175517 -0.09059089 -0.12002221 -0.001790743
0000e0 d4 3a 2c bd df fe af 3d e9 d9 25 3d be a0 ec 3c
       -0.04204829 0.08593535 0.04049102 0.028885242
0000f0 ee e4 c4 bc 24 a8 16 3d 6a 27 b9 3b e9 e1 b3 bc
       -0.024034943 0.036781445 0.0056504505 -0.021958308
000100 bc 34 6c 3d 76 ae ab bd 74 69 e2 3b 24 79 df 3d
       0.05766748 -0.08382885 0.0069095436 0.109117776
000110 c2 11 c7 3d 2b 16 47 3d 0f 72 cf bd 9d 55 d9 3d
       0.09720184 0.048605125 -0.10129177 0.106120326
000120 81 c1 9e bd 35 d6 09 3e b9 aa 55 3d ff 9e b4 bb
       -0.07751752 0.1346062 0.052164767 -0.005512118
000130 a9 f0 80 3d 07 28 f8 3b 88 cd 97 bd 71 01 61 bd
       0.06295902 0.007573131 -0.07412249 -0.054933015
000140 7a 1b 61 bd e6 67 b7 3c b5 6d 9a bd 93 d1 9d 3d
       -0.054957844 0.02238841 -0.07540456 0.07705989
000150 ff 34 87 3d 15 e4 9c 3d 44 32 bd bd 4f d8 c9 3c
       0.06601905 0.07660691 -0.09238103 0.024639277
000160 9a a1 04 3e b4 7d 89 3d 4b 17 67 bd 5c 5b 29 3d
       0.12952271 0.06713429 -0.0564187 0.041346893
000170 87 11 01 3d a0 3a 10 bd c5 95 31 3d 2a 93 ab bc
       0.031510856 -0.03521216 0.043355722 -0.020944197
000180 d0 5b 0b bd 41 bb f5 3d 80 99 cc bd 36 58 60 3d
       -0.034023106 0.119986065 -0.09990215 0.054771625
000190 bd 01 c3 bb c0 a1 af bd 7f 86 b6 3d 38 13 cc 3d
       -0.005951135 -0.08575773 0.08912372 0.09964603
0001a0 ac f9 d9 3d 5d df 02 bd f3 0f 3b 3a c3 bb 03 bc
       0.10643324 -0.031951297 0.00071358605 -0.008040371
0001b0 b6 f8 6c bd e7 21 76 3d 6e d8 93 bd 1a b8 06 bd
       -0.057854377 0.060090926 -0.07219015 -0.032890417
0001c0 6f 3e a0 3c 08 59 db 3d 90 4d ee bc f7 6b 4f bb
       0.01956102 0.10710341 -0.029089719 -0.0031650045
0001d0 7b 60 e4 bd ab 90 90 bd 0d c1 bb bd 54 95 b7 3d
       -0.11151215 -0.07058843 -0.09167681 0.08964029
0001e0 cb 5d 1b bd 9a cc e3 3b f1 a1 ea 3b f4 ee 5e 3d
       -0.037931245 0.0069518806 0.007160418 0.054427102
0001f0 fc 96 0c bc 57 b4 bf 3d 81 19 31 bd d5 7f 27 3e
       -0.008580919 0.09360569 -0.043237213 0.16357358
000200 f1 37 cd bd 6e 04 93 3d 94 f6 29 3d 20 3d c6 3d
       -0.100204356 0.07178579 0.04149492 0.096796274
000210 e9 12 d7 bd bb 7a 13 3d 75 3c da bc 91 85 10 bd
       -0.10501654 0.036005717 -0.026640156 -0.03528363
000220 9c c7 98 3d db 71 0c be 16 bf d3 3b ac 5e 3d bd
       0.074599475 -0.13715307 0.006461988 -0.046232864
000230 15 81 93 bd e2 9a 97 3d 86 a4 77 bd a9 b7 81 3c
       -0.07202355 0.074025884 -0.060459636 0.015834646
000240 1e 27 90 bd 86 e9 8f 3d 5d 16 8d bc d5 4b 08 3d
       -0.07038711 0.07026963 -0.017222578 0.033275444
000250 9e 18 2c 3d d9 04 cc bc b7 4f f3 3d 92 19 04 3e
       0.042015664 -0.024904655 0.11880439 0.1290038
000260 36 d9 c7 bb 5d 2f 87 bd 18 38 c4 bc 03 35 a3 3d
       -0.0060988916 -0.06600831 -0.023952529 0.079690956
000270 ce 65 e0 bd 76 4e 8c 3d 6f 1a ca 3c 84 6b 83 bc
       -0.10956918 0.06850903 0.024670808 -0.016042478
000280 9e c8 a5 bc a3 4e c2 3d 2c 47 44 bc 20 a3 aa bd
       -0.020237263 0.09487655 -0.011979859 -0.08331895
000290 70 52 01 be d8 9f 10 bd 9f ec 4c 3d 1a 6a e8 bd
       -0.12629104 -0.03530869 0.050030347 -0.11348362
0002a0 78 08 0f 3e d4 f5 eb 3d 36 e4 ec 3b d4 c2 fe bc
       0.13968074 0.11521497 0.0072293533 -0.03109876
0002b0 82 fc 2d 3c 24 18 fa bd 2f df b2 bd a5 14 17 3d
       0.010619285 -0.12211636 -0.08733975 0.036884923
0002c0 de 38 a5 bd 4e 6d 2d 3d 85 c2 d7 bd 52 fe 52 3d
       -0.08067487 0.04234057 -0.105351485 0.05151207
0002d0 26 91 cc 3d 63 4c 63 bd 15 2f 86 bc 65 70 ab bd
       0.09988622 -0.05549277 -0.016379872 -0.08371047
0002e0 ce dc 3e 3d 23 dc ba bd 54 24 06 3d 58 ae 6b bd
       0.046597295 -0.09124019 0.03274949 -0.057539314
0002f0 e3 c5 12 bd 10 4d ed 3d 7c 2c 11 3d 58 a6 c8 3d
       -0.03583325 0.11586964 0.035442814 0.097973526
000300 ba a7 00 be c5 0a cf bd 4d 3a 5c 3d 6a ef ba bb
       -0.12563983 -0.10109476 0.053766537 -0.00570481
000310 b6 b5 d1 3d 73 80 e9 bb b5 65 29 3c f0 05 95 3d
       0.10239737 -0.007125908 0.01033919 0.07276523
000320 0b 55 92 3d 5d e5 35 bd d6 46 1a bc e3 0f 9b bd
       0.07145127 -0.04440819 -0.009416303 -0.075713895
000330 48 c7 08 3e 40 57 15 3d ff 83 b4 3d 27 ce 8f 3c
       0.1335727 0.03646016 0.08814239 0.017554356
000340 8a 6e 5e 3d aa 3a ef 3c 31 5f 27 3d 62 4a f0 bc
       0.054304637 0.029202778 0.040862266 -0.029332343
000350 b6 93 aa 3d 5c 90 4c 3b 4c 87 90 bd f4 6b 94 3c
       0.08328955 0.0031213975 -0.07057056 0.018117882
000360 0f 71 07 3d 56 68 90 3d aa 92 c0 bd fa 61 cf 3d
       0.033066805 0.070511505 -0.09402974 0.101261094
000370 f2 d5 82 3d d6 82 65 3d b9 d7 4d 3d 02 bf d1 bc
       0.06388463 0.056032978 0.050254557 -0.025603775
000380 e0 cd 69 bd 45 b5 a7 bc 34 16 31 3c 2d 14 9e 3d
       -0.057081103 -0.020472178 0.010808516 0.07718692
000390 47 b7 df bb b2 c3 c2 b8 00 c3 45 3d 0c aa f5 bd
       -0.0068272683 -9.287092e-05 0.04828167 -0.119953245
0003a0 9a 28 e4 3d 58 6a 90 3d 0e 65 80 bb 4e 24 18 bd
       0.11140557 0.070515335 -0.0039182967 -0.037143998
0003b0 fd 83 c7 3b d7 59 03 be e5 32 a2 bd bd 55 cc 3d
       0.0060887323 -0.1282724 -0.079198636 0.09977291
0003c0 2b d7 64 bd 9b d5 63 3d 4a 17 a5 bd c1 4f e1 3c
       -0.055869263 0.055623632 -0.08061083 0.02750385
0003d0 ae 9d 45 3c d7 df 1f bb a5 85 31 3d bc f2 42 3d
       0.01206152 -0.0024394894 0.043340344 0.04759477
0003e0 85 30 25 bd b2 0f 04 bd c0 18 65 bd 8a bf 51 bc
       -0.040329475 -0.03224153 -0.055931807 -0.012802014
0003f0 e3 e8 b9 bc a1 8f 66 bd 4a 8d c5 bd 00 b9 18 bd
       -0.022694057 -0.05628932 -0.096460894 -0.037285805

lstm.bias_hh_l0 f4 [256]
000000 8e 30 6e bd 8a 93 8e bd 20 be a3 3d 7f 59 08 3e
       -0.058151774 -0.069617346 0.07995248 0.1331539
000010 bf 23 ca 3d 00 68 5d 3d b3 aa ab bd 7e c8 9b 3d
       0.09870099 0.05405426 -0.08382168 0.076066
000020 a0 00 37 3d 97 9b d6 bd 6b e5 b7 3c d8 fe 9c bc
       0.04467833 -0.10478895 0.022448262 -0.019164488
000030 df a8 c3 3c 51 44 cc 3d ea c4 b7 bd c1 10 d5 bd
       0.023884235 0.09973968 -0.08973105 -0.10403586
000040 8e 99 85 bd e2 b7 5c 3d 13 a7 e1 bd e7 8d dd 3d
       -0.06523429 0.0538863 -0.11018195 0.10818081
000050 e1 a2 aa bc 56 5e d8 3d f1 71 03 3e 62 a2 44 3d
       -0.02082962 0.10564868 0.12836434 0.048006423
000060 c6 3c 4d 3d 21 9b 68 3c 20 54 ce 3d f9 fc b7 bd
       0.050106786 0.014197142 0.10074639 -0.089837976
000070 3d e8 64 bd 71 19 4c bd 8d 63 04 3e de 6f bf 3d
       -0.055885542 -0.04982895 0.129286 0.09347509
000080 30 7c 4c 3d cb 73 4f 3d 6d 5d e8 bd 5b 56 69 3d
       0.049923122 0.05064754 -0.113459446 0.05696712
000090 99 63 97 bd e9 f3 5b 3d e9 9b b3 bd e0 7d fe bd
       -0.073920436 0.053699408 -0.08769972 -0.124263525
0000a0 f3 f0 a3 bd 9b 4f 6b bd 01 78 66 3d 9e 41 14 be
       -0.08004942 -0.057448965 0.05626679 -0.14478156
0000b0 92 b9 ba 3d cd ea 81 3d 55 02 2f bd a1 1b 98 bd
       0.09117426 0.06343613 -0.042726833 -0.07427145
0000c0 b2 b0 f7 bd 85 20 06 3e 05 d4 1e 3b 4a f2 a4 bc
       -0.12094249 0.13098343 0.002423526 -0.020135064
0000d0 61 8c cb bd c5 16 30 bd 18 c7 94 bb cc 10 63 3d
       -0.099388845 -0.042990465 -0.0045403354 0.05543594
0000e0 6a 6a af bd 55 72 07 3d a3 f8 d8 3d c7 28 69 bd
       -0.08565219 0.03306802 0.10594299 -0.056923654
0000f0 ff 13 0b 3d 30 fb a6 3d 5b 59 45 3d 5f 69 22 bd
       0.033954617 0.08153379 0.04818092 -0.03965127
000100 62 86 8f 3c 5e 5a ef 3d ea 34 9b bd 8c 3d d2 3d
       0.017520133 0.11687158 -0.07578452 0.102656454
000110 88 4f 8b bb 12 15 05 3d de 28 e6 bc 8d 8e ef bd
       -0.004251424 0.032490797 -0.028095659 -0.11697111
000120 33 22 8c bc 13 8b 9a bd 24 c3 d2 3d 63 ce ca bd
       -0.017106151 -0.075460576 0.10291126 -0.099026464
000130 97 78 9f 3d 1b 10 c7 bd d5 4c 16 3e 7c 75 95 3c
       0.077866726 -0.09719869 0.14677747 0.018244497
000140 2c 0d 31 bb c7 e1 04 3e 81 4b 1d bd 0d 8e d4 bd
       -0.0027015908 0.12976752 -0.038402084 -0.103786565
000150 f3 27 8a 3c 15 34 38 3e 08 0b 16 3d 69 ef 22 3d
       0.016864752 0.17988618 0.036631614 0.0397791
000160 07 b1 20 3e fc 9b 3b 3d 7a 5a 98 3d 5a 7d 6b 3d
       0.1569253 0.045803055 0.07439132 0.05749259
000170 a0 05 97 bd 02 1a 04 bc eb 21 01 3c 36 81 21 bd
       -0.0737412 -0.008062841 0.007881622 -0.039429866
000180 d5 00 7c bd bc a4 36 3d f1 bd 90 bd 16 8d e6 bd
       -0.06152423 0.044590697 -0.070674784 -0.11257379
000190 9f d3 37 bd 00 13 a5 bd c0 fb 60 bd e7 63 f3 bc
       -0.044879552 -0.080602646 -0.054927588 -0.029710723
0001a0 e1 d0 a0 3d 1e 02 03 3e 14 b8 74 3d 74 ad 5c bd
       0.078523405 0.12793776 0.059745863 -0.053876355
0001b0 52 73 a9 3d 00 8f d1 3d 70 33 13 3d 83 0a 8e bc
       0.08273949 0.10232353 0.035937726 -0.017338997
0001c0 4f 15 f9 bd d9 ee 01 3d 14 9f 09 3e 93 82 91 3d
       -0.121622674 0.031721924 0.1343959 0.07104983
0001d0 09 4a 5b 3d fa 95 a2 3d a5 e6 aa bd a8 06 02 3e
       0.053537402 0.07938762 -0.08344773 0.12697852
0001e0 54 0d a2 bd 3c a5 8c 3d 5b 3d 28 3d 96 cd 32 bd
       -0.079126984 0.068674535 0.041074138 -0.043653093
0001f0 88 a7 75 3d 01 2d ad bc 93 2d 58 3d 43 6f 1f 3e
       0.059974223 -0.021139624 0.052777838 0.15569787
000200 a5 74 d7 bd 8d 13 85 bb 3f 93 8d 3d 57 9b b4 3d
       -0.10520295 -0.0040611685 0.069128506 0.08818691
000210 85 3a a6 3d 11 8f 93 bd a4 fb 3f 3c f2 52 b7 3d
       0.081166305 -0.07205022 0.011717711 0.089513674
000220 e9 a7 17 3d 46 63 6c 3d e5 30 d8 3c fb 60 8f 3b
       0.037025366 0.057711862 0.026390502 0.0043755746
000230 14 1f 9a bd b4 f5 91 bd e6 f4 82 3c 8f d6 81 3d
       -0.07525459 -0.07126942 0.015985917 0.06339752
000240 26 80 01 bd 21 5b 65 bd 44 77 66 3d a9 8f 25 bd
       -0.031616352 -0.05599511 0.056266084 -0.040420208
000250 b2 d4 c8 3b 22 44 73 3d aa e2 af bc 4f 94 b8 3d
       0.006128871 0.05939115 -0.021470387 0.090126626
000260 4e 25 bf 3d 3e 23 44 bc 01 c1 9b bd c4 2f 59 bd
       0.09333287 -0.011971293 -0.07605172 -0.05302407
000270 ae 99 27 3d 19 78 b8 bd 3d 69 90 bd f6 8f 84 bd
       0.040918045 -0.09007282 -0.070513226 -0.06472771
000280 1e 3f f5 3d c8 ee db 3c a3 46 99 bd f2 05 23 3d
       0.11974929 0.026847258 -0.07484176 0.03980059
000290 c5 e0 a4 bd 83 da c5 bd b1 9c c5 bd ab 88 dc bd
       -0.08050684 -0.096608184 -0.09649027 -0.10768255
0002a0 d6 b2 9d bd 14 17 bf 3d 01 9a d6 3d 1d 04 bc 3d
       -0.07700126 0.09330574 0.10478593 0.09180472
0002b0 d3 27 c2 39 ab 97 e5 bc 57 f6 92 3c 07 9d d7 bd
       0.00037032235 -0.028026422 0.01793973 -0.105279975
0002c0 dd bc 99 3d 7a 01 ab 3d e9 34 d2 3d 6a bb de 3d
       0.07506726 0.08349891 0.10263998 0.1087559
0002d0 4e 96 d7 3d 6b 15 21 3c da 43 cc bd 8a 08 a8 bc
       0.10526715 0.009831767 -0.09973879 -0.020511884
0002e0 ea 73 ac bd ca 86 8f 3c 68 f4 64 3d 40 d0 8e 3d
       -0.08420546 0.017520327 0.055897146 0.06973314
0002f0 9c 36 db 3d ae 3b e6 bd 61 33 95 bd 4b 84 01 be
       0.10703775 -0.11241852 -0.072851904 -0.12648122
000300 fe 46 bd ba 49 45 ef bd 5a f6 9e 3d a6 44 f9 3c
       -0.0014440713 -0.11683137 0.077618316 0.030428242
000310 90 b4 aa 3d da d0 24 3d 26 b6 76 bd 84 96 cb bd
       0.08335221 0.04023824 -0.060232304 -0.09940818
000320 06 35 41 3d fc f3 a7 3c 70 45 07 3e a8 e7 f0 bd
       0.047169708 0.020502083 0.13210082 -0.11762935
000330 41 13 5f bd fa 15 93 3d ac 30 d3 3c 56 37 da bd
       -0.05446172 0.07181926 0.025780044 -0.10655086
000340 cb 43 24 bc 38 a7 36 3b dd 5b a4 bd 38 75 e9 bd
       -0.010025929 0.0027870666 -0.08025334 -0.11399311
000350 98 a3 6b 3d 4a 4e 26 3c 15 94 67 3d 89 47 08 3e
       0.057529062 0.0101505015 0.056537706 0.13308538
000360 88 84 a0 3b 6e ed 88 3d 5b 74 21 3d 02 e0 96 bd
       0.0048986115 0.06685911 0.039417606 -0.07366945
000370 ed ac 7f bc 63 66 c2 3c 49 b8 87 3d 03 ed ce bc
       -0.015605194 0.023730462 0.066269465 -0.0252595
000380 ce 85 39 3a 2f 58 ee 3d ce 92 3a 3d ac b9 f6 bb
       0.00070771284 0.116379134 0.04555016 -0.007529458
000390 4a 30 68 3d 69 83 9d 3d 26 a5 9b bd 7e a8 85 bc
       0.056686677 0.0769108 -0.07599859 -0.016315695
0003a0 f0 53 80 bd d3 5e 86 bd 3f 8a 11 3c a4 78 fd bd
       -0.0626601 -0.06561055 0.008883058 -0.12376526
0003b0 cc eb ac bd 81 5a cc 3d 09 33 e8 3d af 5c c1 bd
       -0.08443412 0.099782 0.11337859 -0.09441506
0003c0 43 73 01 be 57 21 4d bd 12 1f 4c 3d 17 13 a7 bd
       -0.12641625 -0.050080623 0.04983432 -0.08157938
0003d0 0f 15 5c bb e3 3a 51 3d 98 29 b1 3c 88 68 c6 bb
       -0.0033581888 0.05108155 0.021626279 -0.0060549416
0003e0 bf b3 98 bc 0f ce b8 3c 96 77 de 3a 8f 91 b6 3c
       -0.018640397 0.022559194 0.0016972895 0.022286205
0003f0 7a 23 73 3d 24 21 c9 bc c3 72 62 3d c7 81 5d 3d
       0.059360005 -0.024551935 0.055285227 0.054078843

lstm.weight_ih_l1 f4 [256, 64]
000000 e0 47 a2 3d ca 70 a7 3c f6 80 a9 bb 88 dd ec 3c
       0.07923865 0.020439524 -0.005172844 0.028914228
000010 f5 1d 74 3d 9c 8a 33 3d f1 a9 a6 3d 2c 93 e8 3d
       0.05959888 0.04383336 0.081378825 0.11356196
000020 7e ea ca 3d fd dd 4e 3d bf 86 f8 bd 11 03 10 3c
       0.09908007 0.050504673 -0.12135076 0.008789794
000030 7d cb f3 bc 05 62 a3 bd 92 d6 84 bc 84 a4 b5 3d
       -0.029760117 -0.0797768 -0.016215596 0.088692695
000040 21 ee f1 3d f0 03 05 be 0e 65 2b bc ec 9d 82 bd
       0.118129976 -0.12989783 -0.010461105 -0.063777775
000050 23 1a d3 3c 3e 7e 2b bd 78 6d c3 bd e9 8c 9a bd
       0.025769299 -0.04186844 -0.09542364 -0.07546408
000060 cb e9 8a 3d 7f 75 09 bc b7 16 a5 bd 8a 1d 8d 3c
       0.06782874 -0.00838983 -0.08060973 0.017226
000070 82 d6 8c bd 82 75 ba bd 87 c5 a7 bd 3c 5a e6 bc
       -0.068768516 -0.09104444 -0.08191972 -0.028119199
000080 57 db a5 bc e2 2f 08 3c 5f 22 48 3d 7d bc af 3d
       -0.020246191 0.008312197 0.048860904 0.08580873
000090 70 74 f6 bd 2f 12 28 bd 14 d6 a8 3d fb 68 2a 3d
       -0.120339274 -0.041032966 0.08243957 0.041604023
0000a0 00 3e 1e 3d 42 e9 89 3d 88 1f b5 bb 73 ac 96 bd
       0.038633347 0.067339435 -0.0055274405 -0.07357111
0000b0 95 d5 84 3d f0 a2 88 3d 45 f6 ad 3d 30 fb 9f bd
       0.0648605 0.06671703 0.08494238 -0.07811582
0000c0 bb 33 45 3d af 89 2f bd da 31 28 bd 59 a1 88 bc
       0.048145037 -0.042855915 -0.041063167 -0.016678499
0000d0 f2 b8 b1 bd 9a d5 b6 3c 49 e9 d9 3d c8 83 d1 3d
       -0.08677854 0.02231865 0.10640199 0.102302134
0000e0 fe 9b d9 bd ac 4d 3b bd aa 28 ef 3d ca d3 12 be
       -0.10625456 -0.04572837 0.11677678 -0.14338604
0000f0 f9 aa 21 bd 34 3b c9 bd 71 54 75 bd bf 1e 96 bc
       -0.039469693 -0.09825745 -0.059894983 -0.018325208
000100 d8 a0 a0 3d 39 94 ce bd cf 01 a0 bd e2 46 f6 3c
       0.078431785 -0.10086865 -0.07812845 0.030063096
000110 93 9c a1 bd c8 23 88 3d 19 db db 3d 14 a3 8f 3d
       -0.07891192 0.0664745 0.10735149 0.070135266
000120 62 14 13 3e c4 94 c4 bd c8 41 9b 3d 46 19 a2 bc
       0.14363244 -0.09598687 0.07580906 -0.019787442
000130 8f 2e 2d bd 4c b9 a0 bd 46 79 5d bc 1d e1 c4 3d
       -0.04228073 -0.078478426 -0.013517683 0.096132495
000140 5f 6f a7 bc eb 3c 07 3c d7 4d cf 3d 1e 52 0f be
       -0.020438848 0.00825427 0.10122269 -0.13996169
000150 71 60 ea bc c7 f1 03 3d 7a c0 ac bd 5a 5c 45 3c
       -0.02861044 0.032213 -0.084351495 0.012045944
000160 69 9f 2f 3c 10 f3 ac bd e2 86 16 3d e2 64 14 3d
       0.010719159 -0.08444798 0.036749728 0.03622902
000170 ab 2d 56 bd ab 63 cc bd 8a 92 a9 3d 6e e4 b6 3d
       -0.052289646 -0.09979948 0.08279903 0.08930288
000180 8f e5 f7 bd fb 31 06 3b 56 16 0e 3e a7 66 f7 bd
       -0.12104332 0.0020476568 0.13875708 -0.12080126
000190 8d 04 bc 3d 5f b1 f2 bd 99 5c c5 bc bf f7 b5 bd
       0.091805555 -0.11850237 -0.024092006 -0.088851444
0001a0 66 4e aa 3b 33 64 1e bc 10 74 52 bb c5 44 9e 3d
       0.005197334 -0.009667444 -0.0032112636 0.077279605
0001b0 f3 4c f9 3d ce bc ad bd 67 fa 0c be f3 1d a8 bd
       0.1217288 -0.08483277 -0.13767396 -0.08208837
0001c0 b1 2c a6 3c bd d9 8d 3b 78 99 bb 3d 36 0f 1c 3d
       0.020284982 0.004328935 0.09160131 0.038100444
0001d0 de c0 f1 3c 98 5d 99 3d 17 0d f8 bd c5 35 fc 3d
       0.029510912 0.07488555 -0.12111872 0.12314943
0001e0 56 cf 0d bb 94 40 ab 3d 79 57 be 3d 19 31 de 3d
       -0.0021638474 0.08361927 0.09294028 0.108492084
0001f0 1d 57 d4 3d 50 a4 ee 3c 79 7a 3a bd 04 3c ac bd
       0.10368178 0.029131085 -0.045526955 -0.084098846
000200 6c 45 98 bd 16 03 5f 3c eb 3b 51 3d 02 5d 0e 3c
       -0.07435116 0.013611576 0.051082533 0.008689167
000210 78 84 dd bb 64 cc 52 bc e5 83 dc bd 33 e1 e4 bc
       -0.0067601763 -0.012866113 -0.107673444 -0.027939415
000220 6d 9b c8 bd 0b 06 0e bd 0c 50 47 3d a5 3b 9f 3d
       -0.0979527 -0.03467373 0.048660323 0.07775048
000230 53 ff 43 3d 05 07 17 bd 5e fb 64 3b 77 96 d7 bb
       0.047850918 -0.03687193 0.0034939866 -0.006579216
000240 d5 f3 0d 3c 9d 36 85 3d 20 ef a9 bd 74 a7 03 3d
       0.008664091 0.06504557 -0.082975626 0.032142118
000250 26 c5 fa 3c 2f 20 c0 bc 83 59 6b 3c bd f0 94 3d
       0.030611586 -0.023452846 0.014364603 0.0727248
000260 c7 f2 a0 bd 18 6a a0 3d 33 be ad 3d 88 ca db 3d
       -0.07858806 0.07832736 0.08483543 0.10731989
000270 33 df c5 bd 75 e3 5e 3d 1f 29 90 3d 5c ea 51 bd
       -0.096617125 0.05441614 0.07039093 -0.051248893
000280 c6 dc 9e bd 53 ed d9 3d 7a 35 a9 37 cc b0 cc 3b
       -0.07756953 0.10640969 2.0171272e-05 0.006246662
000290 71 14 22 3b 03 1a 18 bd cd 43 11 3d 6b 73 0a be
       0.0024731422 -0.03713418 0.03546505 -0.13520591
0002a0 c1 e9 8a bc 68 b9 6a bb 12 8d 94 bd 06 63 45 bd
       -0.016957166 -0.0035816077 -0.072534695 -0.04819014
0002b0 e0 78 bf 3d 26 b5 00 be 55 f8 3e bd 23 4c a5 bd
       0.09349227 -0.12569103 -0.046623547 -0.080711626
0002c0 35 c1 cd 3d 53 e8 97 bd fd e6 3f 3d 96 a8 64 39
       0.10046617 -0.07417359 0.046851147 0.00021806578
0002d0 a4 1f 02 be 41 b1 0b bc 90 97 dd bd 64 cb 57 bc
       -0.12707382 -0.008526147 -0.10819924 -0.013171051
0002e0 9f 0d 23 bd b7 78 d0 bd e0 86 b0 bb 5a 28 cb bc
       -0.039807912 -0.101792745 -0.005387172 -0.024799515
0002f0 f8 43 f6 3c 73 a4 44 3d d3 de bd bc 0f b3 24 bd
       0.030061707 0.048008393 -0.02317754 -0.040209826
000300 28 c1 d1 3c f3 82 c4 3b 7b af 1b 3b 0d cd 0f 3d
       0.0256048 0.0059970557 0.0023755718 0.03510766
000310 7e ac e3 3c 4a 93 20 3a c7 b2 a4 bd 87 d9 c0 bd
       0.027792212 0.00061254634 -0.080419116 -0.0941649
000320 a7 92 db 3d fe 31 19 bb fe 16 ac 3d 67 32 95 bc
       0.10721331 -0.0023375745 0.08402823 -0.01821251
000330 f1 92 94 3d f5 48 cd bd 35 12 5c 3b 14 4a 6a bd
       0.07254589 -0.10023681 0.0033580188 -0.057199553
000340 74 5e b6 bd 35 3d b3 3d a7 41 9a bd 6b 3b 8e 3b
       -0.08904734 0.08751909 -0.075320534 0.0043405793
000350 57 20 b3 3d 7e c3 00 be 01 c3 9d bd 14 5d 7f bc
       0.08746403 -0.12574574 -0.0770321 -0.015586156
000360 1e cd a6 3d 5b 05 6c 3d de 57 3c 3d 00 b7 9a bd
       0.08144592 0.057622295 0.045982234 -0.07554436
000370 5e f7 1e 3d 68 b4 77 3d 29 ab b7 bd 1e ff da 3c
       0.038810126 0.060474783 -0.08968193 0.026732977
000380 5f 5b 83 3d b3 b6 d4 3d fc b1 39 3d f9 95 f7 3b
       0.06413912 0.103864096 0.045335755 0.00755572
000390 aa e0 35 bd 0c 85 97 3d 3f bc d3 bc b4 5b ed bd
       -0.04440371 0.073984236 -0.025846599 -0.115897566
0003a0 09 0a 82 3c 26 69 35 bd 4c c7 5c bc a7 60 38 3d
       0.015873926 -0.04428973 -0.01347525 0.04501405
0003b0 b6 f3 b5 3d 5d 94 3b 3b 1a 4e ec 3d 56 74 f8 3d
       0.08884375 0.0028622367 0.11538334 0.12131564
0003c0 f5 f4 37 bd 4e 26 c1 bd ab e9 72 bd 3c 78 52 bd
       -0.044911344 -0.09431134 -0.059304874 -0.051384196
0003d0 86 5b 83 ba b4 fb ca bb 80 1c e3 bd de aa db 3d
       -0.0010021783 -0.006194556 -0.1108942 0.1072595
0003e0 a9 c8 3f 3d b6 79 5c 3d 18 c7 7d 3d 35 db 10 bc
       0.046822224 0.05382701 0.06195745 -0.0088413255
0003f0 7b c6 ea 3d 27 2d d5 3a 64 34 8e bd 2e 56 aa 3d
       0.114636384 0.0016264067 -0.069435865 0.08317219

lstm.weight_hh_l1 f4 [256, 64]
000000 b1 51 88 bd 4a ab ce bc e2 4b 69 bb 4b 63 c9 bd
       -0.066562064 -0.025228161 -0.0035598208 -0.09833392
000010 14 18 2a 3d e0 90 d4 3d 78 b4 cc bc f6 85 98 3d
       0.04152687 0.10379195 -0.024988398 0.07447426
000020 91 da d3 3d b5 c7 82 bd 3e 91 6c 3c 17 e2 ce bd
       0.103444226 -0.06385747 0.014438925 -0.10101717
000030 b7 ff f4 bc cb 6e 8f bd e4 55 c0 bc 1d ad 4a bd
       -0.02990709 -0.07003554 -0.023478456 -0.0494815
000040 27 b0 82 bd cd 1c 4b bc a0 68 39 bd d8 2c 1b 3d
       -0.06381255 -0.012397003 -0.045265794 0.037884563
000050 8d 12 f4 bc d5 50 39 bd 69 6a c1 bd 82 89 2c 3c
       -0.029794002 -0.045243103 -0.09444124 0.010530831
000060 1e b7 03 be 13 11 1d 3d 39 ba 14 3d 2c 5e 6b 3d
       -0.12862822 0.03834636 0.03631041 0.057462856
000070 59 8b 60 3d 47 44 b1 bd 45 d9 e5 bc 28 55 bd 3d
       0.054820392 -0.08655601 -0.028057704 0.09244758
000080 24 fd a4 3d 30 ce a0 3d 9d a2 fd bd 4d ec 62 bd
       0.08056095 0.07851827 -0.12384532 -0.055401135
000090 d5 08 25 bc 3d a4 ca bd a7 e4 0d 3e e1 a8 f2 3d
       -0.0100729065 -0.09894607 0.13856755 0.11848617
0000a0 12 dd 4b bd 44 d7 1c 3d 1e ef 1b be 37 05 02 3c
       -0.049771376 0.03829123 -0.15227935 0.007935814
0000b0 04 b3 3b bd 5c b5 48 3d 2f e0 fe bc e1 10 4c 3d
       -0.04582502 0.049001083 -0.031112758 0.049820784
0000c0 8b 3a 37 bd 6a f6 bc bd ce 75 9f 3d f5 cc 78 3d
       -0.044733565 -0.09226687 0.07786141 0.060742337
0000d0 1c 5f ae 3d 12 60 de bd a6 4e db 3b ae 1d b7 bb
       0.085142344 -0.10858168 0.0066927252 -0.005588255
0000e0 ef a7 28 3d d5 3f 97 3a 92 d0 b5 3d 90 43 a0 3d
       0.04117578 0.0011539409 0.08877672 0.078253865
0000f0 b3 3b 03 bd 5e 2d e6 bc 11 63 ee bd 0f 9d a6 bd
       -0.032039355 -0.028097805 -0.11639989 -0.08135425
000100 33 50 43 bc 4c 51 0d be 94 9d 8f bc 2a 41 55 3b
       -0.011920976 -0.13800544 -0.017531194 0.0032540062
000110 fa a2 0f 3e a1 79 b5 3d eb 89 a8 bd b0 d4 c9 bd
       0.14027014 0.088610895 -0.08229431 -0.0985502
000120 32 8f 40 bd 51 ff 73 bd 94 dd e9 bb 16 66 9d bd
       -0.04701156 -0.05956966 -0.00713701 -0.07685487
000130 b1 88 3b bd 71 95 cd bd d7 fc 10 3e ca 61 71 3c
       -0.045784656 -0.10038269 0.14158951 0.014732787
000140 97 76 ae bd 76 21 49 bb 74 65 88 bd 8e b4 83 bd
       -0.08518713 -0.003069011 -0.06659976 -0.064309224
000150 75 6d 28 be 6b 65 0d be 38 ca 92 bc 40 63 8b bd
       -0.16448005 -0.13808219 -0.017918691 -0.0680604
000160 1c e7 ef 3d a9 28 42 3d 69 54 f3 3d 82 20 23 3e
       0.117140025 0.047402058 0.11881334 0.1593037
000170 a6 8d b6 3d 78 7b 7c 3c a7 b3 aa bb 5d ca c4 bd
       0.08913736 0.015410297 -0.0052094045 -0.0960891
000180 41 0c 22 3e 20 2f 60 3c bd 42 d7 3c 7a be d8 ba
       0.15824987 0.0136831105 0.02627694 -0.0016536259
000190 5a a8 65 bd ba 61 68 3d c5 a4 01 be 53 89 93 bd
       -0.056068756 0.056733824 -0.12660511 -0.07203927
0001a0 f7 3b a5 bc 17 b6 f5 bc b2 3c 8f 3d fd 49 86 bd
       -0.020170195 -0.029994054 0.069939986 -0.06557081
0001b0 aa 4d 2c bd 59 e4 73 3d 76 5a 15 3d c8 ba 07 bd
       -0.042066254 0.05954394 0.036463223 -0.033137113
0001c0 02 ff df 3c 30 3d 25 3e 47 53 ec 3c 6d 07 9f bd
       0.027343277 0.16136622 0.028848303 -0.07765088
0001d0 07 c7 de 3c c4 7b d5 bd 7d 55 2c 3e fd 6d 18 3d
       0.027194513 -0.10423997 0.16829486 0.037214268
0001e0 71 91 86 3d 63 2d 92 bd 3f 3f ff bc 21 f5 f3 bd
       0.065707095 -0.07137563 -0.031158088 -0.11911989
0001f0 ed 91 dc bd 29 f0 a0 3d 73 8e 70 bd 42 53 ff bd
       -0.10770021 0.07858307 -0.0587296 -0.12467052
000200 af 6a be 3d a7 8f be 3c 83 88 c6 3d 8c 5e c2 bc
       0.09297692 0.023261858 0.09694006 -0.023726724
000210 d9 a7 29 bd 69 8a f9 3d 15 76 41 bd 9b f3 4a bd
       -0.041419838 0.12184603 -0.047231752 -0.049548727
000220 18 b9 bf 3d 57 af 15 bc 74 6f 09 bb 8a 32 ea 3c
       0.09361476 -0.009136043 -0.0020970972 0.028588552
000230 cd c9 e3 3d e0 73 a7 bd 94 e5 97 bd 4a 9c 13 bd
       0.11122475 -0.08176398 -0.074168354 -0.03603772
000240 60 9f d6 bb f8 d7 ec 3d 10 6e 49 bd af f0 9b bd
       -0.0065497607 0.1156463 -0.04917723 -0.07614266
000250 e8 77 a2 3d ed b5 9c bd 96 85 99 bd d0 fd 07 3c
       0.079330266 -0.07651887 -0.074961826 0.00830026
000260 e1 00 4b 3d 51 a4 d1 bc 04 cd df 3d ef d8 85 3c
       0.049561385 -0.025591047 0.109277755 0.016338794
000270 48 37 fc bd 13 f7 df bd f2 9f 5e 3c 0b 5f f6 bd
       -0.123152316 -0.109357975 0.013587939 -0.12029847
000280 cb 47 f0 3d f7 6e 55 3d 5c 73 10 3d 0d 61 ef bd
       0.117324434 0.052107777 0.035266265 -0.11688433
000290 35 ed a5 3c 82 4b f6 bd 6c b8 df 3d be b5 fb bd
       0.02025471 -0.12026121 0.109238476 -0.12290524
0002a0 0e 9d 29 bd 45 2c ce bd 48 98 be 3c ea a0 f6 3c
       -0.041409545 -0.100670375 0.023265973 0.030106027
0002b0 44 34 bc 3c 70 a2 b6 b9 37 43 33 bd 1f f0 fa 3b
       0.022974141 -0.0003483477 -0.043765273 0.007658019
0002c0 22 6d a4 bd ba e3 d0 3d 96 28 ec 3d 98 1d a8 bd
       -0.08028628 0.101996854 0.11531179 -0.082087696
0002d0 62 13 d0 bd 5c c2 79 bd d6 b3 94 3d 69 70 e2 3b
       -0.10159947 -0.06097637 0.072608635 0.006910373
0002e0 da c3 33 bc 91 20 99 bc ff 92 82 3d 89 88 d8 3d
       -0.010971988 -0.018692287 0.063756935 0.10572917
0002f0 4e 97 c9 3c dd ed 66 3d 37 20 b0 bb 70 6a b5 bd
       0.02460828 0.056379188 -0.005374934 -0.08858192
000300 be d3 f4 bc e2 b5 fd 3d 4e 49 3e 3d df 5a b5 bd
       -0.029886123 0.12388207 0.046456628 -0.08855223
000310 8e 41 b4 bd 6b e6 b2 3c 49 97 05 bc f2 07 40 3d
       -0.08801566 0.021838387 -0.008153745 0.046882577
000320 e1 a4 d7 3d 55 ba 96 3d a6 b8 86 bd 0f 61 c1 3d
       0.10529495 0.07359759 -0.06578188 0.094423406
000330 bc 2f cb 3d 5f d3 1a be d4 ca a4 bd 93 91 f2 3d
       0.09921214 -0.15119694 -0.08046499 0.11844172
000340 d2 b1 02 3e a5 93 13 3e 70 e3 97 3d 56 90 9f 3d
       0.12763146 0.1441179 0.07416427 0.07791202
000350 18 50 9a 3d 47 22 b4 3d e0 e2 c5 bc f0 6d 89 3d
       0.07534808 0.087956004 -0.024156034 0.06710422
000360 0a 07 5a 3d 9d 09 ea bd c5 66 0e 3e f6 0a 52 bd
       0.05322937 -0.11427615 0.13906391 -0.051279984
000370 82 8b 90 bd 44 37 b2 bd 1d f9 ea 3d f2 8d 70 bd
       -0.07057859 -0.08701947 0.11473296 -0.05872912
000380 5c 69 9b bd 68 22 c2 bd 11 73 8f 3b 52 76 4f 3d
       -0.07588455 -0.09479219 0.0043777307 0.05064995
000390 24 07 87 3d 09 52 51 bd d6 6e d7 bd 24 b5 e0 bd
       0.06593159 -0.051103625 -0.10519187 -0.1097205
0003a0 d7 0f 0f be 68 af bb bd 84 6b 2a 3d e4 d2 10 3d
       -0.13970886 -0.091643155 0.04160644 0.03535737
0003b0 3b ff e5 bc 3a 1c 92 bc 1c 65 f7 3c d8 e4 cf 3d
       -0.028075805 -0.017835725 0.03019958 0.1015107
0003c0 f7 8b 1d 3d cf 1d 66 3d 62 dd 8c 3d 04 73 83 3d
       0.03846356 0.05618077 0.06878163 0.06418422
0003d0 11 bd 50 bd 5f 7c 5f bd 01 1a 03 3e 45 eb fc bd
       -0.050961558 -0.05456197 0.12802888 -0.123495616
0003e0 e6 0f c6 bc 4b 8b 1a be 3c 5a 89 bc f0 36 31 bd
       -0.024177503 -0.15092199 -0.01676666 -0.043265283
0003f0 64 00 8a bd 87 c1 e0 bd e8 86 9b 3d 4e db c9 bc
       -0.06738356 -0.109744124 0.07594091 -0.024640705

lstm.bias_ih_l1 f4 [256]
000000 f2 85 de 3d ff fe 16 3e 75 2c 04 3e 67 9d 9e bd
       0.10865392 0.14745711 0.12907584 -0.07744866
000010 dd 1f 2d 3c fa 6c dc bd 1a e5 f4 3d 6d 78 f7 bc
       0.010566679 -0.10762973 0.1195776 -0.03020879
000020 3e 7c e9 3d 2c 1f f1 3c 6f 68 a2 bc 4a 30 6f bd
       0.114006504 0.02943381 -0.019825188 -0.05839566
000030 6e 06 8c 3d 0f 56 bc 3d 5c c4 a8 bc 0b 8c b8 3d
       0.06837164 0.09196102 -0.020601444 0.09011086
000040 8c f6 d0 3d ca 06 64 bb ec 9d e3 bc 3c 1f c7 3c
       0.10203275 -0.0034794086 -0.027785264 0.024306886
000050 c7 e8 0b 3e 88 85 0e bd 8e e7 92 bd 75 1c ae 3d
       0.13663016 -0.034795314 -0.07173072 0.085015215
000060 7f 16 da bc 05 7b 6a 3d 8c a1 4f 3d 1d 5e 3a 3c
       -0.026622055 0.057246227 0.050691172 0.011374977
000070 db dd 6a 3d 66 11 95 bd 70 57 cb bd 6e f4 5b bd
       0.057340484 -0.07278709 -0.09928787 -0.053699903
000080 ff 81 8e 3d fb 8f d1 3d 8e 53 8e 3d cf 2a eb bd
       0.069583885 0.1023254 0.069495305 -0.114827745
000090 9b 0b 8d bc 10 8f d1 bd b5 82 5b 3d d1 85 0d 3d
       -0.017217448 -0.10232365 0.05359145 0.034551445
0000a0 b6 c8 cb 3d 8d a1 04 3d 0f e0 d0 3d e2 5b b4 bd
       0.09950392 0.03238063 0.10198986 -0.08806588
0000b0 a9 95 33 3d f6 7a a7 3d eb fc d5 bd 2e 03 d0 3d
       0.0438439 0.0817775 -0.10448631 0.101568565
0000c0 cf 96 e2 bb 42 15 d5 3c f8 9e 8b 3c 13 2e 09 3d
       -0.0069149504 0.026011113 0.017043576 0.033491205
0000d0 24 8c fa bc 32 1c a7 3b 33 ba 34 3d e3 15 81 bd
       -0.030584402 0.0050997967 0.044122886 -0.06303003
0000e0 c1 e9 65 bd e4 39 85 bd a5 e8 41 bd a2 e0 bb bc
       -0.05613113 -0.065051824 -0.047341008 -0.022934262
0000f0 53 c0 9a bd d6 e1 df bd d4 c4 aa 3d 47 31 a0 3d
       -0.07556214 -0.10931747 0.08338323 0.07821899
000100 af 84 6d bc 89 1b b4 bc 99 5c d9 bc 25 77 ad 3d
       -0.014496966 -0.021985786 -0.026533412 0.08469991
000110 cb aa dc 3c b7 99 6c 3c 30 fb bc 3d b6 3b fe 3d
       0.02693691 0.014440945 0.09227598 0.12413733
000120 8a 9a f9 bc 25 18 cc bc de b4 a3 bb d4 fb 86 3d
       -0.030469198 -0.024913857 -0.0049959263 0.06591001
000130 6b bb d2 bc 64 19 a8 3d cd 79 e2 3d 92 35 0f 3e
       -0.025724133 0.08207968 0.11058388 0.13985279
000140 87 8b 76 bb 5c b0 ac 3d 17 6c e9 ba 2c 3a a1 bd
       -0.0037619786 0.084320754 -0.0017808703 -0.078724235
000150 c8 65 95 bc 30 2f 87 bd c9 b0 13 3d a3 4e 9c bd
       -0.01823701 -0.06600797 0.036057267 -0.07632186
000160 51 86 e7 3d a9 9c 89 bd fa c6 eb 3d 8e e3 32 3e
       0.11304916 -0.06719334 0.11512561 0.17469618
000170 aa b3 e3 bc c7 cc cb 3d 86 66 da 3c c6 53 0a bd
       -0.027795631 0.099511676 0.026660215 -0.0337713
000180 05 17 be 3d 68 57 52 bd 01 76 f1 3d 9c ae 36 3d
       0.092817344 -0.05135289 0.117900856 0.044600114
000190 a5 a5 87 3d 02 d0 99 bd f1 fa 9b bd 6a cb c4 bd
       0.06623391 -0.075103775 -0.07616223 -0.09609111
0001a0 3e ad 52 3d 6b 34 09 3e 0a 80 75 3d 25 f0 ac 3b
       0.051434748 0.13398902 0.05993656 0.005277651
0001b0 53 65 9e 3b 9a d7 a1 bb 73 aa 4b 3d 10 b2 b0 bd
       0.004833856 -0.004939032 0.0497231 -0.08627713
0001c0 07 b3 26 3d ac 20 86 bd 53 8e 42 3c a1 14 e8 3c
       0.040698078 -0.065492004 0.011874753 0.02833015
0001d0 26 21 9e bd d7 32 19 3e 91 b0 1d 3c 53 70 c4 3c
       -0.07721166 0.149608 0.009624616 0.023979342
0001e0 8e a0 1d 3e d3 8c 0c 3e 19 2b 27 3d ef 7c 88 3d
       0.15393278 0.13725595 0.040812586 0.06664454
0001f0 72 8e 48 bd 9e c4 cf 3d 87 0b 85 bd f9 db 67 bd
       -0.04896397 0.101449236 -0.06496339 -0.056606267
000200 a5 59 a4 3c 99 e5 59 3d 82 8f b1 3c aa b0 8b bd
       0.020062277 0.053197477 0.021674875 -0.06820805
000210 64 16 8b 3c f6 40 c0 3d 1d fc 4e 3d 3d 00 25 3d
       0.01697845 0.0938739 0.050533403 0.04028343
000220 67 0a 82 bd 9d 08 01 bc 60 70 80 3d 08 fd 89 3d
       -0.0634964 -0.007875589 0.06271434 0.06737715
000230 70 a5 74 bd 33 9f 79 bd 76 9d b0 3d 68 36 5f bd
       -0.059728086 -0.06094284 0.08623783 -0.054495245
000240 41 31 a5 3c 68 36 36 bd d3 0f 9c ba 19 2f 50 3c
       0.020165088 -0.04448548 -0.0011906571 0.012706541
000250 f9 31 e9 bd 79 33 a7 bc 48 8a 94 3c 45 17 3f 3d
       -0.11386485 -0.020410286 0.018132344 0.04665305
000260 9e ff 27 bd a5 8b 03 bd 4f a3 de 3d 0d 99 c0 bd
       -0.04101526 -0.032115597 0.108709924 -0.09404192
000270 46 fb f8 bd e0 cd d2 bb d9 75 06 3b a4 a0 06 bd
       -0.121573016 -0.0064332336 0.002051702 -0.032868043
000280 3a bf 0c 3d f5 d7 07 be 03 c9 61 bd d3 6d 8a 3d
       0.034362055 -0.13265975 -0.05512334 0.067592286
000290 43 2d 8e 3a b7 c9 cf bd a5 e7 08 bd e4 7b 1e bd
       0.0010847229 -0.10145896 -0.03342404 -0.03869237
0002a0 47 1c 46 3d 3e c5 e4 3d a7 2d 2c 3d 2e 28 5f 3c
       0.04836681 0.111704335 0.042035725 0.013620419
0002b0 97 28 76 3c 33 e4 7e bd 9b fd b7 3c e9 82 7c bd
       0.015024326 -0.062229346 0.022459796 -0.061648283
0002c0 a7 99 c4 3d c9 fe f4 3b 2f 15 97 bd 45 9f 82 bc
       0.09599619 0.007476662 -0.07377087 -0.015945086
0002d0 22 cf 9c bd bf 66 ef 3d cc 71 59 3d 73 6b c5 bd
       -0.07656695 0.11689519 0.05308704 -0.09639635
0002e0 77 b8 89 3d 1f 00 16 3b 61 cf f1 bd be 92 13 be
       0.06724637 0.0022888256 -0.118071325 -0.14411446
0002f0 ec 3d 5f bd 3a 06 12 bc 42 1c 15 bd b1 18 bb 3d
       -0.054502413 -0.008912617 -0.036403902 0.09135569
000300 bd dc fa bc 38 dc 77 3d c4 72 a4 39 b1 80 94 bd
       -0.030622834 0.06051275 0.00031366025 -0.072511084
000310 01 af 8f 3d ff 11 ec 3d a3 f5 fa 3d 47 b9 59 bd
       0.07015801 0.1152687 0.12253883 -0.05315521
000320 89 06 89 bd 03 26 df 3d bc 93 99 3b 13 ac 8b 3d
       -0.066906996 0.10895922 0.0046868008 0.0681993
000330 84 c4 15 bd b5 81 c7 3d 89 51 e2 3d 18 2a 2b 3c
       -0.036564365 0.097415365 0.11050708 0.010447048
000340 da 5d 05 bd d2 04 70 bd 00 3a ea bd 69 cb f8 3d
       -0.032560207 -0.058598347 -0.11436844 0.121481724
000350 75 da 8c 3d f0 2f 0e 3c 98 c7 08 3c 7c 28 44 3d
       0.06877605 0.008678421 0.008348368 0.04789017
000360 a3 87 de bd a9 94 23 3d 29 45 1f bd 2c 4f c5 3d
       -0.108657144 0.039936695 -0.038884316 0.096342415
000370 d9 5b 2b bc a2 50 eb 3c 5b 33 d2 3d 7b 96 ea bb
       -0.01045891 0.028724972 0.102637015 -0.007159052
000380 9f 59 48 3d 81 77 1f bc e5 02 f5 3d c8 cd 02 bd
       0.048913594 -0.009733082 0.11963443 -0.03193453
000390 bf 8d 2f bd ad 3c ff 3d 0b 9a ae bd 60 02 82 bd
       -0.04285979 0.12462745 -0.08525475 -0.06348109
0003a0 87 de b3 3d a9 b2 c2 3d 9e 12 bd 3d 59 e2 90 3d
       0.08782678 0.09506733 0.092320666 0.070744224
0003b0 83 19 1b 3d e3 03 d2 3b db d4 ce bc 6d 1b 90 bc
       0.037866127 0.0064091547 -0.025247982 -0.017591203
0003c0 9d dc c1 bd b7 14 15 bd d3 9a 08 bc 8c d7 d4 3c
       -0.09465907 -0.03639671 -0.008337694 0.025981687
0003d0 be 2c 78 bd 06 0c 01 3e f9 b5 f4 bb c2 9f 29 bb
       -0.060589544 0.12602243 -0.007467982 -0.0025882577
0003e0 c1 b6 0f bb 4d 42 82 bd 91 2b 34 bd b0 9d ed 3d
       -0.0021928998 -0.06360302 -0.04398686 0.11602342
0003f0 11 61 25 bc 09 63 ee bd 29 fa 90 bd ba 99 04 3d
       -0.010093943 -0.11639983 -0.07078964 0.032373168
