output/LSTM2CNN/LSTM2CNN_adam_64_1000/model/LSTM2CNN_epoch_747.pth (torch, 353538 bytes, 16 tensors)

lstm.weight_ih_l0 f4 [256, 11]
0	0xbd5d6951	-0.054055516
1	0x3d92491b	0.0714285
2	0xbb4b4625	-0.0031017151
3	0xbd0036d9	-0.031302307
4	0x3dd70ca2	0.105004564
5	0xbdc1fb8d	-0.09471808
6	0x3d9a28af	0.07527291
7	0x3b87d441	0.0041451757
8	0x3d7243d4	0.059146717
9	0xbc75918a	-0.0149883125
10	0xbb1b783e	-0.0023722793
11	0xbdd02967	-0.10164147
12	0xbd0044a9	-0.03131548
13	0x3cf95d86	0.030440103
14	0x3d345343	0.044024717
15	0xbdde1838	-0.10844463
16	0xbd8b6b05	-0.06807522
17	0x3dcc66fb	0.099805795
18	0xbd8b4c28	-0.06801635
19	0xbc58c87e	-0.013231395
20	0xbda8a393	-0.08234324
21	0xbc994480	-0.018709421
22	0x3dff13b2	0.124549285
23	0x3da25ae0	0.07927489
24	0xbde47f5a	-0.11157103
25	0x3c035010	0.008014694
26	0x3d9c44ae	0.07630287
27	0x3d3df0de	0.046372287
28	0x3e022160	0.12708044
29	0x3d0c67a7	0.034278538
30	0xbc1f46da	-0.009721482
31	0xbdbfef9d	-0.093718745
32	0x3df1eb2d	0.11812434
33	0xbdb0e683	-0.086377166
34	0x3d9bbdbd	0.07604549
35	0x3d9334d8	0.071878135
36	0x3d03daf7	0.032191243
37	0x3d8ce2e2	0.06879212
38	0x3daed23d	0.085361935
39	0x3dbcaa1f	0.092121355
40	0x3e014094	0.12622291
41	0xbd2a549c	-0.041584596
42	0x3df6c51d	0.12049315
43	0x3cf9a865	0.030475805
44	0x3d530a8d	0.051523734
45	0x3d88e715	0.066847004
46	0xbd2f3674	-0.04277654
47	0x3df5a0c7	0.119935565
48	0xbc4ecbe3	-0.012621853
49	0x3db7e5f9	0.08979411
50	0x3d25e9fe	0.040506355
51	0xbd0eb639	-0.03484175
52	0x3d4b393e	0.049615137
53	0xbcf169fe	-0.029469486
54	0x3d5c4564	0.053777114
55	0x3e04cb40	0.12968159
56	0xbd6b4b9e	-0.05744516
57	0x3dec7373	0.11545458
58	0xbc05a167	-0.008156157
59	0x3e0d605c	0.1380629
60	0xbdabd10c	-0.08389482
61	0x3d64a809	0.055824313
62	0x3d240644	0.040045038
63	0x3daae8ff	0.08345222
64	0x3d79d05b	0.06098972
65	0x3dddab5b	0.10823699
66	0xbd8c7437	-0.06858104
67	0xbd8dbf71	-0.0692128
68	0x3de70ae4	0.11281374
69	0xbe0cab62	-0.13737252
70	0x3c27396a	0.01020656
71	0xbda6e6ec	-0.081495136
72	0x3dab4f0d	0.08364687
73	0xbd4ea2f4	-0.050448373
74	0x3d810680	0.06300068
75	0x3da65098	0.08120841
76	0x3d47e270	0.048799932
77	0x3d9594f0	0.07303798
78	0xbd5a9657	-0.05336603
79	0xbdd3c5b4	-0.10340443
80	0xbdb89493	-0.09012713
81	0x3d767131	0.06016654
82	0xbd8153ff	-0.06314849
83	0x3dfdde32	0.12395896
84	0x3da57416	0.08078782
85	0x3d60a8b1	0.054848377
86	0xbdfa61e6	-0.12225704
87	0xbda31325	-0.07962636
88	0xbdd0e7f9	-0.10200495
89	0x3d8a6215	0.06756989
90	0xbde12a1c	-0.1099436
91	0xbd6f9f58	-0.05850157
92	0x3d46f2e7	0.048571493
93	0xbb849c39	-0.0040469435
94	0xbc6a073a	-0.0142839495
95	0xbc11736a	-0.0088776145
96	0xbc2d8b64	-0.010592315
97	0xbe0a7160	-0.13519812
98	0x3d29aa9a	0.041422464
99	0xbdc86721	-0.09785295
100	0xbcf220c6	-0.029556643
101	0x3d36adfb	0.044599514
102	0x3dc38f49	0.09548814
103	0xbdc65916	-0.096849605
104	0x3da605cf	0.08106577
105	0xbdddae5a	-0.108242705
106	0x3c320852	0.0108662415
107	0xbcf05c42	-0.029340867
108	0x3b855a71	0.0040696193
109	0xbdb01687	-0.08598047
110	0xbe07914e	-0.13239023
111	0x3dcc6e85	0.099820174
112	0xbdbf36d3	-0.09336629
113	0xbd188f00	-0.03724575
114	0x3cc22848	0.023700848
115	0xbe0a1066	-0.13482818
116	0xbdc5ae12	-0.09652342
117	0x3dc50b78	0.09621328
118	0x3c803b3f	0.01565325
119	0x3d9faa60	0.07796168
120	0xbdba101d	-0.090851046
121	0xbd993d5b	-0.07482406
122	0x3d0aada8	0.033857018
123	0x3d8c8111	0.06860555
124	0x3d4d49c0	0.05011916
125	0x3c42d165	0.011890744
126	0xba8f554a	-0.0010935452
127	0x3c76cf17	0.0150640225
128	0xbdd20e39	-0.10256619
129	0xbc85fd19	-0.016356038
130	0x3c6276d1	0.013822273
131	0xbdecb92e	-0.11558758
132	0xbd8b1963	-0.067919515
133	0x3dc6c91b	0.097063266
134	0x3df3fb13	0.11913123
135	0x3d476449	0.048679624
136	0x3e2411be	0.16022393
137	0x3da093e6	0.078407094
138	0x3d98357a	0.07432075
139	0x3bca09db	0.0061657256
140	0x3df532d8	0.11972588
141	0xbd348cef	-0.044079717
142	0xbd4a2ea1	-0.049360875
143	0x3dc9d7cf	0.09855615
144	0xbdb325dd	-0.08747456
145	0xbdd22a0b	-0.10261925
146	0x3e022114	0.12707931
147	0x3dca9582	0.098917976
148	0xbd8b0660	-0.06788325
149	0xbdb3e458	-0.087837875
150	0x3ced898d	0.028996253
151	0x3d88b669	0.06675417
152	0x3d89c050	0.06726134
153	0xbc9c93db	-0.019113472
154	0xbdfba87d	-0.12287996
155	0xbd075e88	-0.033049136
156	0xbdc26de6	-0.09493618
157	0x3d532a2f	0.0515539
158	0xbd0e3ce7	-0.03472605
159	0x3dd50f62	0.10403325
160	0xbd977adc	-0.073964804
161	0x3dcd1d25	0.100153245
162	0x3d087702	0.03331662
163	0x3da8a00f	0.08233654
164	0xbd99cdd6	-0.07509963
165	0xbd8f00d5	-0.069825806
166	0xbdc671d2	-0.09689678
167	0x3e132f9f	0.14373635
168	0x3dd75f7a	0.105162576
169	0xbd191dbb	-0.03738187
170	0x3d205f11	0.039153162
171	0xbdc4433b	-0.09583136
172	0xbd70b6ec	-0.058768198
173	0xbccad316	-0.024758857
174	0x3db82deb	0.08993133
175	0xbd13151a	-0.035908796
176	0x3d4a214b	0.049348157
177	0x3cc5f99c	0.024166875
178	0xbdb78081	-0.08960057
179	0xbdc4ce23	-0.0960963
180	0x3d818cab	0.063256584
181	0xbd4d1630	-0.050069988
182	0x3d314df1	0.04328722
183	0xbc534fbb	-0.012897427
184	0x3d705a20	0.0586797
185	0x3cc93d58	0.024565384
186	0xbd441acb	-0.047877114
187	0xbdb554cd	-0.08854065
188	0x3dc27271	0.09494484
189	0xbda09d07	-0.078424506
190	0x3b984a28	0.004647512
191	0x3dc30696	0.095227405
192	0xbd84568f	-0.06461822
193	0xbcfcb848	-0.03084959
194	0xbd30533f	-0.04304814
195	0x3b017aa7	0.0019756944
196	0xbdc33efe	-0.09533499
197	0xbddfd91b	-0.109300815
198	0xbd39ebdb	-0.045390945
199	0x3c9022c4	0.017594703
200	0xbda5b5da	-0.08091326
201	0x3cacc76f	0.021091191
202	0xbdd15871	-0.10221947
203	0x3dba6e72	0.09103097
204	0x3b0502e8	0.0020295922
205	0xbdba045f	-0.09082865
206	0x3c40e0ef	0.011772378
207	0xbd30995d	-0.04311501
208	0x3d19ed15	0.037579615
209	0xbd595a4e	-0.053064637
210	0x3d95fd3f	0.073236935
211	0x3d95b135	0.0730919
212	0xbc160a7b	-0.009157772
213	0x3d593278	0.053026646
214	0xbd48cb67	-0.049022105
215	0x3cbd6b39	0.023122417
216	0xbd787cec	-0.06066601
217	0xbda0582a	-0.07829316
218	0xbdab7876	-0.083725855
219	0xbd0c2f04	-0.034224525
220	0x3d7829d9	0.060586784
221	0x3cc3345c	0.023828678
222	0x3c61b4c9	0.013776013
223	0xbe08547a	-0.13313475
224	0xbc9ecb25	-0.019383976
225	0x3c52fa05	0.012876992
226	0x3dbe2d99	0.09286041
227	0x3cea5e4d	0.02860942
228	0x3d943626	0.072368905
229	0xbda607f9	-0.081069894
230	0xbccc5b16	-0.024945777
231	0x3d892a3f	0.06697511
232	0xbd5e2d8b	-0.054242652
233	0xbe1a643e	-0.15077302
234	0x3d5170df	0.051133033
235	0xbd70eff9	-0.058822606
236	0xbbd3acec	-0.006459823
237	0x3dfea879	0.12434477
238	0xbe1af319	-0.15131797
239	0xbe1f5e5c	-0.15563339
240	0xbc80eac3	-0.015736943
241	0xbd9260a5	-0.0714734
242	0xbd69b619	-0.057058427
243	0xbdfa0c3a	-0.12209363
244	0x3c9c0a31	0.019047828
245	0x3ddfb094	0.109223515
246	0xbc6a996e	-0.014318807
247	0x3a8650df	0.001024749
248	0x3d101104	0.035172477
249	0x3d5ed5d4	0.05440314
250	0xbd14c95c	-0.036324844
251	0x3dab859c	0.08375093
252	0xbce37cf0	-0.027769536
253	0xbdef93f1	-0.116981395
254	0x3d990844	0.0747228
255	0x3d512179	0.051057313

lstm.weight_hh_l0 f4 [256, 64]
0	0xbc0134de	-0.00788614
1	0x3d0fab81	0.03507567
2	0x3d0349c8	0.032052785
3	0x3dae43d5	0.08509032
4	0xbd657d29	-0.056027565
5	0x3d7e0f0e	0.062026076
6	0xbcfbc17d	-0.03073191
7	0x3e0117a5	0.12606676
8	0xbcecb4b4	-0.02889476
9	0x3db7beb9	0.08971924
10	0x3e0057ad	0.12533446
11	0x3d904911	0.07045186
12	0x3e0c424c	0.13697165
13	0xbd70a4b1	-0.058750812
14	0xbda00bf8	-0.07814783
15	0xbd0989d0	-0.033578694
16	0x3d53d337	0.051715102
17	0xb9f3204a	-0.0004637263
18	0x3bccaf00	0.0062464476
19	0xbd85401d	-0.06506369
20	0x3da4faa3	0.08055618
21	0x3bf52d05	0.0074821734
22	0xbdd6539b	-0.10465165
23	0x3d87c2b2	0.06628932
24	0xbe0df36d	-0.13862391
25	0x3d6369bf	0.05552077
26	0xbdc76f6a	-0.097380474
27	0xbda106e1	-0.0786264
28	0x3c96014f	0.01831117
29	0x3ca5cacd	0.020238305
30	0x3af593d0	0.0018736068
31	0xbcbb8223	-0.022889202
32	0x3daface4	0.08577898
33	0x3c8d0c93	0.01721791
34	0xbc9595eb	-0.018259963
35	0x3d6816a7	0.056662228
36	0x3e0a5e46	0.13512525
37	0xbdaf6380	-0.085639
38	0xbc7d3527	-0.015454567
39	0xbcfccbce	-0.0308589
40	0x3d8a8367	0.06763344
41	0x3d1c319f	0.03813326
42	0x3dd7db98	0.10539931
43	0xbdd19e5d	-0.102352835
44	0x3d0d4608	0.034490615
45	0xbd9b0720	-0.07569718
46	0x3cd70b29	0.026250439
47	0xbdb12c52	-0.086510316
48	0xbccb4904	-0.02481509
49	0xbde8062e	-0.11329304
50	0x3dcbb8d7	0.09947365
51	0x3dd9ae87	0.106289916
52	0x3d9d42d4	0.07678762
53	0xbb8fab20	-0.0043844134
54	0xbb8a7987	-0.004225913
55	0x3db0760d	0.086162664
56	0xbc176c26	-0.009242093
57	0x3dd98737	0.10621493
58	0x3cbac714	0.022800006
59	0x3d8cfef1	0.06884564
60	0xbd11145b	-0.035419803
61	0x3bf3c16d	0.0074388296
62	0xbccd09a6	-0.025029015
63	0xbdc8244d	-0.09772549
64	0xbdea8628	-0.114513695
65	0xbc923740	-0.01784861
66	0xbe128aea	-0.14310804
67	0x3d83240c	0.0640336
68	0xbd352762	-0.04422701
69	0x3d056c8b	0.032574218
70	0x3cdc5ce4	0.026899762
71	0xbd03f9a2	-0.03222049
72	0x3c326820	0.010889083
73	0x3e0737cf	0.13204883
74	0xbd4b9513	-0.049702715
75	0xbb4d62ce	-0.003133941
76	0xbcc2f169	-0.023796754
77	0xbc70080d	-0.014650357
78	0xbca63cb3	-0.020292616
79	0x3dc4cacf	0.09608995
80	0x3d8ce48c	0.06879529
81	0x3d218535	0.039433677
82	0xbdb5980d	-0.08866892
83	0xbde2163b	-0.110393964
84	0x3d3a1bec	0.045436785
85	0xbdec6adc	-0.11543819
86	0x3c93fd4c	0.018065117
87	0xbd813b74	-0.06310168
88	0xbddcfe8a	-0.10790737
89	0x3db71086	0.089386985
90	0x3cb4d975	0.022076348
91	0x3df2a5f7	0.118480615
92	0x3dca3ba5	0.098746575
93	0x3ce899d7	0.028393669
94	0x3cbde081	0.02317834
95	0x3e2ef1eb	0.17084472
96	0x3da696db	0.08134242
97	0x3d8361fa	0.06415172
98	0x3c711568	0.014714576
99	0xbcc863c3	-0.024461633
100	0xbdd52697	-0.10407751
101	0xbdeba1b5	-0.115054525
102	0xbcc43cc0	-0.02395475
103	0x3cff34f2	0.031153176
104	0x3dc971e9	0.0983618
105	0xbdfc0a88	-0.12306696
106	0x3ce04ae3	0.027379459
107	0x3e06d475	0.13166983
108	0xba54946f	-0.00081092765
109	0x3d447203	0.047960293
110	0xbc513553	-0.012769061
111	0x3dc1a54f	0.09455358
112	0x3d273279	0.04081962
113	0x3d2061ca	0.03915576
114	0xbd10984f	-0.035301503
115	0x3dea6a71	0.11446083
116	0xbc35b8e4	-0.011091445
117	0x3d926754	0.071486145
118	0x3d9eba12	0.07750334
119	0xbdb79595	-0.089640774
120	0x3de7486b	0.112931095
121	0xbd533e27	-0.051572945
122	0x3ddc2843	0.10749867
123	0x3d24961c	0.040182218
124	0x3c9c77d6	0.019100111
125	0xbd96fa02	-0.07371904
126	0x3d85973b	0.065229855
127	0x3d8f87cc	0.07008323
128	0xbd3ee1dd	-0.04660212
129	0xbd1a53cf	-0.037677582
130	0xbd8d44b8	-0.06897873
131	0x3d9fc409	0.078010626
132	0xbbc41cba	-0.00598487
133	0x3d896357	0.06708401
134	0xbd5fd9ae	-0.054650955
135	0xbda1ecd5	-0.079065
136	0xbd89ad24	-0.06722477
137	0xbdb84ed2	-0.08999409
138	0x3df6f964	0.12059286
139	0x3de9ccd7	0.11416023
140	0x3bbfaf51	0.0058497568
141	0xbde54e9e	-0.11196636
142	0x3cdc9632	0.026927087
143	0xbc35639c	-0.011071112
144	0xbd7c8363	-0.061648738
145	0xbd977b0a	-0.07396515
146	0xbbb2bf21	-0.0054549132
147	0xbd204e41	-0.03913713
148	0x3d1c3640	0.038137674
149	0xbe1e0484	-0.1543141
150	0x3dd4e1e5	0.103946485
151	0x3d54d328	0.051959187
152	0x3dc6452c	0.09681162
153	0x3dab6a62	0.083699
154	0xbe100588	-0.1406461
155	0xbd1f5cb2	-0.03890676
156	0xbc8ca1a3	-0.017166918
157	0x3de9c025	0.11413602
158	0x3da2bb7e	0.079459175
159	0x3c8e105c	0.017341785
160	0x3dbc0f65	0.09182624
161	0xbdad0f90	-0.08450234
162	0xbd1d00da	-0.03833089
163	0x3d763077	0.060104813
164	0x3da77eda	0.08178492
165	0xbd15b062	-0.036545165
166	0xbc2b8427	-0.010468519
167	0xbcf43d5d	-0.029814417
168	0x3d28b96a	0.04119245
169	0xbdd6d5f5	-0.10490028
170	0xbdbfabdc	-0.093589514
171	0x3c9b6559	0.018969225
172	0x3d430e5c	0.047621116
173	0x3d5fea3b	0.05466674
174	0xbda080b7	-0.078370504
175	0x3d1a3ed1	0.037657563
176	0x3ccb29be	0.024800178
177	0xbdaf5e7d	-0.08562944
178	0x3db7464a	0.089489534
179	0xbbb4547c	-0.0055032354
180	0xbdf9b4c2	-0.1219268
181	0x3d952ffe	0.072845444
182	0xbdcacf7e	-0.09902857
183	0xbd955603	-0.07291796
184	0x3e0db424	0.1383825
185	0x3d3eaf98	0.046554178
186	0x3d667fd5	0.056274254
187	0x3d244688	0.040106326
188	0xbc0226ba	-0.007943803
189	0xbde29c51	-0.11064971
190	0x3dd6ae82	0.104825035
191	0xbdcea6f7	-0.1009044
192	0x3d7f79b2	0.062371917
193	0x3df3c0b4	0.119019896
194	0x3da2a4e3	0.07941606
195	0x3e13ca59	0.14432658
196	0x3caa2a2b	0.02077206
197	0x3d5b1e46	0.053495668
198	0x3db56c43	0.0885854
199	0xbe06980f	-0.13143943
200	0xbcda45ef	-0.026644675
201	0xbdcd7991	-0.100329526
202	0x3db12510	0.08649647
203	0xbd37ebb4	-0.04490252
204	0x3e2857e6	0.1643978
205	0x3dd9c84f	0.10633909
206	0xbe10b67a	-0.1413211
207	0xbd289b41	-0.041163687
208	0x3b0c1ad6	0.00213783
209	0x3e176e10	0.1478808
210	0xbdc83ed7	-0.09777611
211	0x3cb6b86c	0.022304736
212	0xbd2b3a28	-0.04180351
213	0x3ca59a8e	0.020215299
214	0x3de0b490	0.109719396
215	0xbd6df1fb	-0.0580921
216	0x3d9bd7fe	0.076095566
217	0x3bf82e81	0.007573903
218	0xbde287d2	-0.11061062
219	0x3da0c12f	0.07849347
220	0xbdc50081	-0.09619237
221	0xbdb2ed6f	-0.08736693
222	0xbd079549	-0.033101354
223	0xbc244f00	-0.010028601
224	0x3d1e9844	0.03871943
225	0x3d0da33c	0.0345795
226	0xb9370669	-0.00017454628
227	0xbd9d5cc0	-0.07683706
228	0xbd8e172b	-0.06938013
229	0xbd913224	-0.07089642
230	0xbd6be348	-0.0575898
231	0xbd190dbf	-0.037366625
232	0x3d777406	0.060413383
233	0x3d1eae04	0.038740173
234	0xbd166e9d	-0.036726583
235	0xbd854ac5	-0.06508402
236	0x3ca71725	0.020396778
237	0xbde2669e	-0.11054729
238	0xbe0f5a20	-0.13999224
239	0xbd67283b	-0.05643485
240	0xbcec0338	-0.028810129
241	0x3d263295	0.040575583
242	0x3d3288d8	0.043587536
243	0x3d144596	0.036199175
244	0x3cfe3f25	0.031035969
245	0xbd9c7bbc	-0.07640788
246	0x3d597d42	0.05309797
247	0xbd8e6f50	-0.06954825
248	0xbce4a6cf	-0.027911572
249	0xbe1094cb	-0.1411926
250	0xbdb6b81a	-0.08921833
251	0xbd697b8c	-0.05700259
252	0x3d168d34	0.036755756
253	0x3d0228c3	0.031777155
254	0xbdc11932	-0.09428634
255	0x3cda36c9	0.026637452

lstm.bias_ih_l0 f4 [256]
0	0xbdfc3698	-0.123151004
1	0x3d261ef1	0.04055685
2	0xbda1776e	-0.078841075
3	0x3d7ba8e0	0.06144035
4	0xbd94b624	-0.07261303
5	0xbcf0e246	-0.02940477
6	0xbd24509b	-0.040115934
7	0xbd323ec1	-0.043516878
8	0xbe01f93b	-0.1269273
9	0x3dca33be	0.0987315
10	0xbdc316b0	-0.09525812
11	0x3db421d8	0.08795518
12	0x3c794808	0.0152149275
13	0xbdc83333	-0.097753905
14	0x39d02722	0.00039702008
15	0x3da9e139	0.08294911
16	0xbd406a33	-0.04697628
17	0xbc737c09	-0.014861115
18	0x3c3f61ba	0.011681015
19	0x3def1f3a	0.11675878
20	0x3e004388	0.12525761
21	0x3c3c6e14	0.011500854
22	0xbdce8420	-0.100837946
23	0xbd97f146	-0.07419066
24	0x3d4c6fdf	0.049911376
25	0xbd90d484	-0.07071784
26	0x3cd90a1f	0.026494084
27	0x3da68b4f	0.0813204
28	0x3cc2d14c	0.023781441
29	0xbd1a3253	-0.03764565
30	0x3dea40c8	0.11438137
31	0xbd0901df	-0.03344905
32	0x3b6a9946	0.0035796924
33	0x3e0c28b6	0.13687405
34	0x3c24487a	0.010027045
35	0x3de3ac85	0.1111689
36	0x3b3fd653	0.0029272034
37	0x3b2c53db	0.00262951
38	0x3d694eec	0.05696003
39	0xbdcae504	-0.099069625
40	0xbb3ade67	-0.002851391
41	0x3cdf920b	0.027291318
42	0x3dace12b	0.08441385
43	0xbdbd3c74	-0.09240046
44	0xbdb12cd6	-0.0865113
45	0x3dbc14a2	0.09183623
46	0x3d1498d5	0.036278564
47	0xbd42e2f6	-0.047579728
48	0x3c1c156c	0.009526592
49	0xbca1d79f	-0.019756136
50	0x3da9f7a9	0.082991906
51	0x3ddc98a1	0.10771299
52	0x3cc35f20	0.02384907
53	0xbdbdb37b	-0.09262749
54	0xbdf40410	-0.11914837
55	0x3a3be41f	0.00071674766
56	0xbd28a98a	-0.04117731
57	0x3db18f90	0.086699605
58	0x3d263328	0.04057613
59	0x3cff90da	0.031197
60	0xbcbca610	-0.023028404
61	0x3d1be88b	0.038063567
62	0x3bcff0d2	0.0063458467
63	0xbcb236ca	-0.021754641
64	0x3d6b5d8a	0.057462253
65	0xbdabb9eb	-0.083850704
66	0x3c093a49	0.008375713
67	0x3dddfa39	0.10838742
68	0x3dc5688f	0.096390836
69	0x3d4d3f58	0.050109237
70	0xbdcee06b	-0.10101398
71	0x3dda283a	0.10652204
72	0xbda16e57	-0.07882374
73	0x3e0758eb	0.13217513
74	0x3d4dae70	0.050215185
75	0xbbb639e9	-0.0055611026
76	0x3d81cfed	0.06338487
77	0x3be7a36c	0.007069042
78	0xbd97a172	-0.0740384
79	0xbd5fe860	-0.05466497
80	0xbd61664e	-0.055029206
81	0x3cb3568a	0.021891851
82	0xbd9cca27	-0.07655745
83	0x3d9e7ad8	0.07738274
84	0x3d8960cd	0.067079164
85	0x3d9ae130	0.07562482
86	0xbdbd7b35	-0.092520155
87	0x3cc42f42	0.023948316
88	0x3e047858	0.12936532
89	0x3d8a829c	0.06763193
90	0xbd6c451b	-0.05768309
91	0x3d295d76	0.041348897
92	0x3cfd1cf6	0.030897599
93	0xbd0f7d85	-0.035031814
94	0x3d302649	0.04300526
95	0xbcb2d41a	-0.021829654
96	0xbd0f7ee8	-0.035033137
97	0x3df422d9	0.11920709
98	0xbdc98bbd	-0.09841106
99	0x3d60b45a	0.054859497
100	0xbbaaebf6	-0.005216117
101	0xbdaf7c2d	-0.085686065
102	0x3dba5973	0.09099092
103	0x3dcd0957	0.10011547
104	0x3dd8b176	0.10580723
105	0xbcffd7d2	-0.03123084
106	0x39f92d88	0.00047526904
107	0xbb9df8a8	-0.004820902
108	0xbd6cd076	-0.05781599
109	0x3d799f83	0.060943138
110	0xbd9122fb	-0.0708675
111	0xbd034edb	-0.032057624
112	0x3c9dd993	0.019268787
113	0x3dd4c2a5	0.10388688
114	0xbcfb8116	-0.030701201
115	0xbb7ba0ef	-0.0038395484
116	0xbde48737	-0.11158603
117	0xbdac91bd	-0.08426235
118	0xbdb9c9bb	-0.0907168
119	0x3db7f456	0.0898215
120	0xbd1dfaa4	-0.038569108
121	0x3c11566d	0.008870703
122	0x3c042c68	0.008067228
123	0x3d62862e	0.055303745
124	0xbc0ef847	-0.008726186
125	0x3dbb80fe	0.09155463
126	0xbd2fb708	-0.04289916
127	0x3e29cb32	0.16581419
128	0xbdccc123	-0.099977754
129	0x3d94b03c	0.072601765
130	0x3d2aa738	0.04166338
131	0x3dc6a467	0.09699326
132	0xbddb61c2	-0.10712005
133	0x3d1368c9	0.035988603
134	0xbce12cc6	-0.02748717
135	0xbd18fde0	-0.03735149
136	0x3d9765ad	0.0739244
137	0xbe0bbdee	-0.13646671
138	0x3c0de3fb	0.008660312
139	0xbd3c3f80	-0.045958996
140	0xbd93d6e2	-0.0721872
141	0x3d976f74	0.07394305
142	0xbd7489e0	-0.0597018
143	0x3c91a0fb	0.017776957
144	0xbd90f03b	-0.0707707
145	0x3d8d9f19	0.06915111
146	0xbc896a50	-0.016774327
147	0x3d06ecde	0.032940738
148	0x3d28ea9a	0.04123936
149	0xbcd3ff47	-0.025878562
150	0x3df474cf	0.11936342
151	0x3e045e08	0.12926495
152	0xbbf060be	-0.0073357513
153	0xbd887506	-0.066629454
154	0xbcbf809c	-0.023376755
155	0x3da35d39	0.07976765
156	0xbde20643	-0.110363506
157	0x3d8e20f0	0.06939876
158	0x3cc46e2d	0.023978317
159	0xbc79b5d1	-0.015241102
160	0xbcb21ece	-0.021743204
161	0x3dc361d2	0.09540142
162	0xbc3c5afb	-0.011496301
163	0xbdaa8add	-0.08327267
164	0xbe00a279	-0.12561978
165	0xbd0cf099	-0.03440914
166	0x3d4fde4f	0.05074912
167	0xbde94681	-0.11390401
168	0x3e0f22bc	0.13978094
169	0x3dea7206	0.114475295
170	0x3c06f83d	0.008237896
171	0xbceb0111	-0.028687032
172	0x3c435c51	0.011923865
173	0xbdf9b415	-0.12192551
174	0xbdb1698f	-0.08662712
175	0x3d1605b4	0.036626533
176	0xbda1d8a1	-0.07902647
177	0x3d2b049f	0.041752454
178	0xbdd79001	-0.105255134
179	0x3d592b4a	0.0530198
180	0x3dcd8b86	0.100363776
181	0xbd690181	-0.0568862
182	0xbc9a9b74	-0.018872954
183	0xbdaa4703	-0.08314326
184	0x3d44dc87	0.048061874
185	0xbdb93d33	-0.09044876
186	0x3d029a94	0.0318857
187	0xbd65b924	-0.056084767
188	0xbd0f5864	-0.034996405
189	0x3ded6672	0.115918055
190	0x3d0845f6	0.033269845
191	0x3dc98ab1	0.098409064
192	0xbe002c17	-0.12516819
193	0xbdd0aa1f	-0.10188698
194	0x3d5ec5ef	0.054387983
195	0xbbcc3cb5	-0.006232823
196	0x3dd3353c	0.10312888
197	0xbbe26c61	-0.0069098924
198	0x3c42e861	0.011896224
199	0x3d96949a	0.07352562
200	0x3d928040	0.07153368
201	0xbd30878f	-0.04309803
202	0xbc46fe36	-0.01214557
203	0xbd9a176e	-0.07524
204	0x3e094731	0.13406064
205	0x3d151de1	0.036405448
206	0x3db551b3	0.088534735
207	0x3c96ed68	0.018423751
208	0x3d5c7c41	0.053829435
209	0x3cf09adb	0.029370716
210	0x3d296580	0.041356564
211	0xbcef0d46	-0.029181134
212	0x3da8c3c8	0.08240467
213	0x3b67a602	0.003534675
214	0xbd92eabf	-0.071736805
215	0x3c93611a	0.017990638
216	0x3cf54cc0	0.029943824
217	0x3d910f67	0.07083016
218	0xbdc29b5d	-0.095022894
219	0x3dd2bc64	0.10289839
220	0x3d82bbf0	0.063835025
221	0x3d66217d	0.05618428
222	0x3d4d31a9	0.050096188
223	0xbcd3d028	-0.025856093
224	0xbd639679	-0.055563424
225	0xbca72113	-0.020401513
226	0x3c4ba34f	0.0124290725
227	0x3da0fe81	0.07861043
228	0xbbc603a3	-0.006042914
229	0xba0faf54	-0.0005481143
230	0x3d4d1878	0.050072163
231	0xbdf4f01a	-0.11959858
232	0x3de5e500	0.11225319
233	0x3d90ade4	0.07064417
234	0xbb2df334	-0.0026542665
235	0xbd0b67a3	-0.034034383
236	0x3bb1c424	0.005424993
237	0xbe0297fc	-0.1275329
238	0xbda0d8ee	-0.07853876
239	0x3dcda578	0.10041326
240	0xbd61b388	-0.055102855
241	0x3d593ccd	0.0530365
242	0xbda59f19	-0.08086986
243	0x3cdd95e4	0.027049012
244	0x3c3fd87b	0.011709328
245	0xbb8b6093	-0.004253456
246	0x3d353e05	0.0442486
247	0x3d4cccf7	0.050000157
248	0xbd2383b3	-0.03992052
249	0xbd01c2c8	-0.0316799
250	0xbd6613b3	-0.05617113
251	0xbc37fbe1	-0.011229486
252	0xbcb4fbf5	-0.022092799
253	0xbd699720	-0.05702889
254	0xbdc29d66	-0.095026776
255	0xbd1a01ce	-0.037599377

lstm.bias_hh_l0 f4 [256]
0	0xbd6ce0de	-0.057831638
1	0xbd8e2f73	-0.06942644
2	0x3da6a45c	0.08136818
3	0x3e07b193	0.13251333
4	0x3dcea681	0.10090352
5	0x3d5e217d	0.054231156
6	0xbda7c52a	-0.08191903
7	0x3d9e210f	0.07721149
8	0x3d3b36e6	0.045706652
9	0xbdd1b6bc	-0.10239932
10	0x3cb3ff55	0.021972338
11	0xbc998cae	-0.01874384
12	0x3ccc0131	0.024902912
13	0x3dcc21f5	0.09967414
14	0xbdb78bba	-0.089621976
15	0xbdd24d63	-0.102686666
16	0xbd85a52a	-0.06525643
17	0x3d5a04c7	0.053227212
18	0xbde02fe0	-0.109466314
19	0x3ddf33a8	0.108985245
20	0xbcac4ba7	-0.021032168
21	0x3ddb9257	0.107212715
22	0x3e025666	0.12728271
23	0x3d451471	0.048115198
24	0x3d3f3165	0.046677966
25	0x3c72455a	0.0147870425
26	0x3dcccea9	0.10000355
27	0xbdb2ffb0	-0.08740175
28	0xbd62aef5	-0.055342633
29	0xbd4b0ab7	-0.049570765
30	0x3e044a99	0.12919082
31	0x3dc0df83	0.094176315
32	0x3d4e6b64	0.050395384
33	0x3d4d5fc4	0.050140157
34	0xbde466f9	-0.11152453
35	0x3d706eb6	0.058699332
36	0xbd94ab99	-0.07259292
37	0x3d5da626	0.05411353
38	0xbdafe56c	-0.085886806
39	0xbdfd3ac7	-0.123647265
40	0xbd9fe9bc	-0.07808253
41	0xbd6b3bd6	-0.05743011
42	0x3d70ea1d	0.058817018
43	0xbe0f6bc4	-0.14005953
44	0x3dbab5aa	0.09116681
45	0x3d825c5d	0.06365273
46	0xbd2cd06d	-0.042190958
47	0xbd96db8b	-0.07366093
48	0xbdf56662	-0.119824186
49	0x3e0257af	0.12728761
50	0x3b388d8b	0.0028160538
51	0xbcab7f38	-0.020934686
52	0xbdcc3799	-0.09971542
53	0xbd386e63	-0.045027148
54	0xbb704b3b	-0.0036665935
55	0x3d6d5614	0.05794342
56	0xbdada1ba	-0.084781125
57	0x3d0a93b4	0.033832267
58	0x3dd9254b	0.10602816
59	0xbd5fb0a2	-0.05461181
60	0x3d0f336d	0.034961153
61	0x3da99b4d	0.082815744
62	0x3d48327e	0.048876278
63	0xbd2193cd	-0.039447594
64	0x3c8dd7f5	0.01731489
65	0x3def4ee8	0.11684972
66	0xbd983430	-0.07431829
67	0x3dd0bea1	0.101926096
68	0xbba5e243	-0.005062373
69	0x3d0b3e40	0.033994913
70	0xbce3e287	-0.027817978
71	0xbdeebbf0	-0.1165694
72	0xbc96d5a5	-0.01841242
73	0xbd9f859c	-0.07789156
74	0x3dcec516	0.10096185
75	0xbdcae800	-0.09907532
76	0x3da057da	0.07829256
77	0xbdc81871	-0.09770287
78	0x3e1662e8	0.14686167
79	0x3c97a7a3	0.018512553
80	0xbb35ba0d	-0.0027729303
81	0x3e045fb6	0.12927136
82	0xbd22046a	-0.03955499
83	0xbdd3e4c8	-0.10346371
84	0x3c92d722	0.017924849
85	0x3e3732b6	0.17890438
86	0x3d157950	0.036492646
87	0x3d201aec	0.039088175
88	0x3e2087c4	0.1567679
89	0x3d3da5b5	0.04630061
90	0x3d95c397	0.073126964
91	0x3d6b7f73	0.057494592
92	0xbd984720	-0.07435441
93	0xbc0125d2	-0.007882552
94	0x3bf6c81c	0.007531179
95	0xbd2521ab	-0.04031531
96	0xbd8011ef	-0.062534206
97	0x3d3373e2	0.043811686
98	0xbd8db02e	-0.06918369
99	0xbde65f1b	-0.11248609
100	0xbd34d105	-0.04414465
101	0xbda4ed6e	-0.080530986
102	0xbd5955d0	-0.053060353
103	0xbcef8b91	-0.029241355
104	0x3d9f88ac	0.0778974
105	0x3e03bf00	0.1286583
106	0x3d73be1c	0.059507474
107	0xbd4f7d89	-0.05065683
108	0x3da98778	0.08277792
109	0x3dd34de1	0.103175886
110	0x3d189e4e	0.037260346
111	0xbc873827	-0.016506268
112	0xbdf9ae8e	-0.12191497
113	0x3ce9842d	0.02850541
114	0x3e07f894	0.13278419
115	0x3d9020e4	0.070375234
116	0x3d5afc8f	0.053463515
117	0x3d8694e8	0.0657137
118	0xbda8ef54	-0.08248773
119	0x3e023626	0.12715968
120	0xbda35bd0	-0.07976496
121	0x3d90933c	0.07059333
122	0x3d2bf436	0.041980945
123	0xbd2f365c	-0.04277645
124	0x3d750f56	0.05982908
125	0xbcbdfa5a	-0.023190666
126	0x3d59900b	0.053115886
127	0x3e21baa0	0.15793848
128	0xbdd6fdd7	-0.10497635
129	0xbb54ad73	-0.0032452017
130	0x3d8deb7c	0.06929681
131	0x3db5029e	0.0883839
132	0x3da1ebad	0.0790628
133	0xbd939810	-0.07206738
134	0x3c321aff	0.010870694
135	0x3db316c5	0.08744577
136	0x3d14e3fa	0.036350228
137	0x3d6f32cf	0.058398064
138	0x3cea3317	0.028588815
139	0x3b985ac0	0.00464949
140	0xbd9a74e2	-0.07541825
141	0xbd922122	-0.07135226
142	0x3c892a4b	0.0167438
143	0x3d85d0dd	0.06533978
144	0xbd031263	-0.031999957
145	0xbd69eff0	-0.057113588
146	0x3d684d37	0.056714263
147	0xbd26eea0	-0.040754914
148	0x3baf63f9	0.005352494
149	0x3d6f46ec	0.058417246
150	0xbcab4e06	-0.020911228
151	0x3db91d32	0.09038772
152	0x3dbc9cc6	0.0920959
153	0xbc4e4f40	-0.012592137
154	0xbd9a9319	-0.07547588
155	0xbd58df59	-0.052947376
156	0x3d2458f4	0.040123895
157	0xbdb6a59f	-0.089183085
158	0xbd91d44c	-0.071205705
159	0xbd82ebd1	-0.06392635
160	0x3df22989	0.118243285
161	0x3ce03b42	0.027372006
162	0xbd984922	-0.07435824
163	0x3d233683	0.03984691
164	0xbda380be	-0.0798354
165	0xbdc402dc	-0.09570858
166	0xbdc423c5	-0.09577135
167	0xbddd6511	-0.108102925
168	0xbd9d7e56	-0.07690112
169	0x3dbd9347	0.092566065
170	0x3dd8aabc	0.1057944
171	0x3dc0f48f	0.09421646
172	0x3adb87e5	0.0016748874
173	0xbce407cd	-0.027835751
174	0x3c98ccda	0.018652368
175	0xbdd82491	-0.105538495
176	0x3d9d1d1a	0.07671566
177	0x3da9cd0b	0.08291062
178	0x3dd2676d	0.10273633
179	0x3de1d1c6	0.11026339
180	0x3dd890ac	0.10574469
181	0x3c0a4104	0.0084383525
182	0xbdd15eea	-0.102231815
183	0xbca36288	-0.019944444
184	0xbda9741a	-0.08274098
185	0x3c96026e	0.018311705
186	0x3d616aa8	0.055033356
187	0x3d91cacd	0.07118759
188	0x3ddced5a	0.10787459
189	0xbde6224c	-0.1123701
190	0xbd99a6b3	-0.075024985
191	0xbe01121b	-0.12604563
192	0xba7ed0b4	-0.000972043
193	0xbdf0e4a3	-0.11762359
194	0x3da03c30	0.0782398
195	0x3cf4f154	0.02990023
196	0x3dac3416	0.08408372
197	0x3d25b349	0.040454183
198	0xbd70555e	-0.058675162
199	0xbdca07da	-0.09864779
200	0x3d418b2f	0.047251876
201	0x3cb2af9f	0.021812258
202	0x3e047a05	0.12937172
203	0xbdefef33	-0.117155455
204	0xbd5d13e4	-0.053974047
205	0x3d92f978	0.07176489
206	0x3cd6674f	0.026172308
207	0xbdd86f92	-0.10568155
208	0xbc2c0d39	-0.010501199
209	0x3b41a937	0.0029550323
210	0xbda358be	-0.079759106
211	0xbde925e1	-0.11384178
212	0x3d6803ab	0.056644123
213	0x3c2d13c7	0.010563797
214	0x3d62cd54	0.055371597
215	0x3e082629	0.13295807
216	0x3ae8bc23	0.0017756264
217	0x3d89947f	0.067177765
218	0x3d1d62f8	0.038424462
219	0xbd938598	-0.07203215
220	0xbc803e72	-0.015654776
221	0x3cc3a3a5	0.023881743
222	0x3d876535	0.066111006
223	0xbcd0fe2e	-0.025511827
224	0x3b11d7bf	0.0022253839
225	0x3dee7d4e	0.11644994
226	0x3d41361a	0.047170736
227	0xbbc81548	-0.0061060525
228	0x3d6b66c1	0.05747104
229	0x3d9c94b0	0.076455474
230	0xbd97fa77	-0.07420819
231	0xbc82c094	-0.015960969
232	0xbd7d2ef5	-0.06181236
233	0xbd861b47	-0.065481715
234	0x3c263fed	0.010147077
235	0xbdf71a5c	-0.120655745
236	0xbdae47bd	-0.08509777
237	0x3dcdddf7	0.10052102
238	0x3de98d00	0.11403847
239	0xbdc00cf4	-0.093774706
240	0xbe00aa5f	-0.12564991
241	0xbd57ba26	-0.05266776
242	0x3d4b0f58	0.04957518
243	0xbda8018a	-0.082034186
244	0xbb7329bf	-0.003710374
245	0x3d49ccd7	0.049267616
246	0x3cb89a55	0.022534529
247	0xbb6f2d58	-0.0036495533
248	0xbc955a3b	-0.018231502
249	0x3cbd67fa	0.023120869
250	0x3abf19c7	0.0014579826
251	0x3cc37357	0.02385871
252	0x3d759a0a	0.059961356
253	0xbccf3017	-0.025291486
254	0x3d6852be	0.056719534
255	0x3d5c38f9	0.05376527

lstm.weight_ih_l1 f4 [256, 64]
0	0x3da579b4	0.08079854
1	0x3c9f526f	0.019448487
2	0xbabbfe36	-0.0014342729
3	0x3d0e3dc1	0.034726862
4	0x3d5ca74c	0.053870484
5	0x3d3b468a	0.04572157
6	0x3da552f6	0.08072464
7	0x3dea6250	0.11444533
8	0x3dcce208	0.100040495
9	0x3d3e7cd1	0.046505753
10	0xbdf54b45	-0.11977247
11	0x3bd64d66	0.0065399883
12	0xbcf8c78f	-0.030368594
13	0xbda8f3ac	-0.08249602
14	0xbc80cdfc	-0.015723221
15	0x3db8788b	0.09007367
16	0x3dec1b20	0.11528611
17	0xbe06246a	-0.13099828
18	0xbc3f48f0	-0.0116751045
19	0xbd8570a4	-0.06515625
20	0x3cd05eb8	0.02543579
21	0xbd27d1c8	-0.040971547
22	0xbdc3f38f	-0.095679395
23	0xbd94a3b1	-0.07257784
24	0x3d8e1bc5	0.0693889
25	0xbbf09f35	-0.0073431977
26	0xbda63082	-0.08114721
27	0x3c81a775	0.01582692
28	0xbd95ab35	-0.07308046
29	0xbdbddd42	-0.09270717
30	0xbdafda3b	-0.08586546
31	0xbcd83d82	-0.026396517
32	0xbca316ac	-0.019908272
33	0x3c3322c6	0.010933584
34	0x3d52c0ae	0.051453285
35	0x3da9e1c5	0.08295015
36	0xbdf97426	-0.12180357
37	0xbd32c22b	-0.043642204
38	0x3daa8b79	0.083273835
39	0x3d19b133	0.037522506
40	0x3d1a717c	0.037705883
41	0x3d8bcf6b	0.06826671
42	0xba8abfb4	-0.0010585696
43	0xbd8918bb	-0.0669417
44	0x3d86525a	0.06558676
45	0x3d86cbf3	0.06581869
46	0x3db04b85	0.08608154
47	0xbda2b7f9	-0.07945246
48	0x3d49f572	0.04930634
49	0xbd2db3b2	-0.0424077
50	0xbd29ad08	-0.04142478
51	0xbc33b3c0	-0.010968149
52	0xbdaf0d13	-0.085474156
53	0x3cb9947e	0.022653814
54	0x3dd795c3	0.10526612
55	0x3dcea5f4	0.10090247
56	0xbdd7eb42	-0.10542919
57	0xbd378dfd	-0.044813145
58	0x3df12c57	0.11776035
59	0xbe0972a9	-0.13422646
60	0xbd28ac83	-0.041180145
61	0xbdb8dfe6	-0.0902708
62	0xbd820c14	-0.0634996
63	0xbc94be50	-0.018157154
64	0x3da3849b	0.07984277
65	0xbdc96145	-0.09833006
66	0xbd9b9f17	-0.07598703
67	0x3d0088c3	0.031380426
68	0xbda5dff6	-0.08099358
69	0x3d859e3f	0.06524324
70	0x3dd79c81	0.105278976
71	0x3d89f7b6	0.067367
72	0x3e130407	0.14357005
73	0xbdc452c7	-0.09586101
74	0x3da5c2b7	0.080937795
75	0xbc9ccd41	-0.019140841
76	0xbd170b9b	-0.036876302
77	0xbda1c53f	-0.0789895
78	0xbc540064	-0.012939546
79	0x3dc774fc	0.0973911
80	0xbcbba97d	-0.022907967
81	0x3ba6ab4d	0.0050863386
82	0x3dd51054	0.10403505
83	0xbe0e2d8d	-0.13884564
84	0xbcf76240	-0.030198216
85	0x3d038f34	0.03211899
86	0xbdae5f83	-0.08514311
87	0x3c3bbdcf	0.011458828
88	0x3c25b968	0.010115005
89	0xbdb137cf	-0.08653223
90	0x3d1372b7	0.035998072
91	0x3d10a745	0.03531577
92	0xbd5acd06	-0.05341818
93	0xbdc9af9f	-0.0984795
94	0x3daa98cb	0.08329924
95	0x3db4a55e	0.08820604
96	0xbdf55101	-0.11978341
97	0x38d14c45	9.980103e-05
98	0x3e0ea3c1	0.13929655
99	0xbdf7c475	-0.12098018
100	0x3dba32a7	0.090916924
101	0xbdf051c9	-0.11734349
102	0xbcd48dbe	-0.025946494
103	0xbdba38ab	-0.0909284
104	0x3bb11bb3	0.0054049133
105	0xbc1d1717	-0.009588025
106	0x3a9fc1a9	0.0012188453
107	0x3da6096b	0.08107265
108	0x3dfaacdb	0.12240001
109	0xbdacc0b5	-0.084351934
110	0xbe0eb8bd	-0.1393766
111	0xbda92928	-0.08259803
112	0x3cba76c6	0.022761714
113	0x3bbc97cc	0.0057554003
114	0x3db48e62	0.0881622
115	0x3d16c60d	0.03680997
116	0x3cbb7e39	0.022887336
117	0x3d7eb184	0.06218101
118	0xbdf86f04	-0.121305496
119	0x3dfeca57	0.12440937
120	0xbb1e3f18	-0.0024146494
121	0x3dab3f2d	0.08361659
122	0x3dc1d6b9	0.09464783
123	0x3dde49ac	0.108538955
124	0x3dd2fc2c	0.10302004
125	0x3d02fe6a	0.03198091
126	0xbd365101	-0.044510845
127	0xbdace929	-0.08442909
128	0xbd9669ce	-0.073443994
129	0x3c635d81	0.013877274
130	0x3d5370d0	0.05162126
131	0x3bf2f4cd	0.0074144364
132	0xbbf1960b	-0.007372623
133	0xbbd2488b	-0.006417339
134	0xbdda33fc	-0.106544465
135	0xbcd75484	-0.026285417
136	0xbdc70175	-0.09717075
137	0xbd059e53	-0.032621693
138	0x3d489cbe	0.048977606
139	0x3d99d5ac	0.07511458
140	0x3d5ec6dd	0.05438887
141	0xbd0f4bda	-0.034984447
142	0x3b782f80	0.003787011
143	0xbbc658db	-0.006053073
144	0x3c0fc1f5	0.00877427
145	0x3d827eb0	0.0637182
146	0xbda7b43b	-0.08188673
147	0x3d1306cf	0.035895165
148	0x3cec1037	0.028816326
149	0xbcc5c360	-0.024141014
150	0x3c66f353	0.014096099
151	0x3d966b98	0.07344741
152	0xbda36f48	-0.079802096
153	0x3d9fcd03	0.07802775
154	0x3db0847d	0.0861902
155	0x3dd570c6	0.104219005
156	0xbdc7f4f7	-0.0976352
157	0x3d570931	0.052499
158	0x3d93e2cb	0.07220992
159	0xbd5986fe	-0.053107254
160	0xbd9cc111	-0.07654012
161	0x3ddd78ca	0.10814054
162	0xbb09d580	-0.0021031797
163	0x3bd4d68c	0.0064953025
164	0x3b56aeee	0.0032758075
165	0xbd0f2f8c	-0.034957454
166	0x3d1066e5	0.035254378
167	0xbe068eea	-0.13140455
168	0xbc9b8174	-0.018982626
169	0xbb8efe6a	-0.0043638246
170	0xbd95f1f3	-0.07321539
171	0xbd44da21	-0.048059586
172	0x3dbedace	0.093190774
173	0xbe012aab	-0.12613933
174	0xbd45f5aa	-0.048329987
175	0xbda750a4	-0.08169678
176	0x3dc8fee3	0.09814241
177	0xbd9a3eaf	-0.07531487
178	0x3d356e58	0.044294685
179	0xba8830f3	-0.0010390565
180	0xbe03c370	-0.12867522
181	0xbc0afcdf	-0.008483141
182	0xbddbff74	-0.10742083
183	0xbc532148	-0.012886353
184	0xbd2bdc03	-0.041957866
185	0xbdd05bbc	-0.10173747
186	0xbba92472	-0.0051618153
187	0xbcd124ec	-0.025530301
188	0x3cea810e	0.028625991
189	0x3d5590fb	0.052140217
190	0xbcb3a545	-0.021929393
191	0xbd2a29c2	-0.04154373
192	0x3cce1292	0.02515534
193	0x3bc8e674	0.006130988
194	0x3b2f34af	0.0026734283
195	0x3d0a38e2	0.033745654
196	0x3cee2977	0.029072506
197	0x3a10b177	0.00055196084
198	0xbda67df9	-0.08129496
199	0xbdbf13f3	-0.09329977
200	0x3ddff639	0.10935635
201	0xbb084eab	-0.0020798843
202	0x3da8d46d	0.08243642
203	0xbc936a6b	-0.01799508
204	0x3d9154b9	0.07096238
205	0xbdcab853	-0.09898438
206	0x3b7a2680	0.003816992
207	0xbd688660	-0.056768775
208	0xbdb82894	-0.08992115
209	0x3db0d25b	0.08633872
210	0xbd986427	-0.074409775
211	0x3bfd2e16	0.007726441
212	0x3db0614b	0.08612307
213	0xbdfdf6ea	-0.12400611
214	0xbda11685	-0.078656234
215	0xbc66c604	-0.014085297
216	0x3da081f2	0.07837285
217	0x3d6d5390	0.05794102
218	0x3d3b3b39	0.045710776
219	0xbd9d286c	-0.076737255
220	0x3d1e1dd8	0.03860268
221	0x3d762dd4	0.0601023
222	0xbdb9243d	-0.09040115
223	0x3cdaeba3	0.026723688
224	0x3d855898	0.065110385
225	0x3dd7f07e	0.10543917
226	0x3d35026d	0.044191767
227	0x3be70d18	0.0070511214
228	0xbd327253	-0.04356606
229	0x3d9971ce	0.0749241
230	0xbcd3b58d	-0.025843406
231	0xbdeaec80	-0.1147089
232	0x3c80c7f8	0.015720353
233	0xbd385a29	-0.04500786
234	0xbc77de52	-0.015128689
235	0x3d3153c0	0.04329276
236	0x3daf393d	0.08555839
237	0x3b797d05	0.0038068902
238	0x3ded9ff9	0.11602778
239	0x3df2cb77	0.11855214
240	0xbd3bcc8c	-0.045849368
241	0xbdbe0760	-0.092787504
242	0xbd7a419e	-0.061097734
243	0xbd573fe6	-0.052551173
244	0xba8de2cb	-0.0010825036
245	0xbbaac025	-0.0052108937
246	0xbde1f765	-0.11033515
247	0x3dd97b5b	0.10619231
248	0x3d364413	0.044498514
249	0x3d60d20b	0.054887813
250	0x3d846292	0.06464113
251	0xbc2b4bcf	-0.010455086
252	0x3debfde8	0.11523038
253	0xbadd0544	-0.0016862531
254	0xbd8f0ce6	-0.06984882
255	0x3da939a0	0.08262944

lstm.weight_hh_l1 f4 [256, 64]
0	0xbd87d2a0	-0.066319704
1	0xbcd6a78b	-0.026202938
2	0xbaef999a	-0.001828003
3	0xbdd011d0	-0.101596475
4	0x3d2ba509	0.041905437
5	0x3dd678d4	0.10472265
6	0xbcd5f05e	-0.026115593
7	0x3d92c409	0.07166297
8	0x3dd1110a	0.10208328
9	0xbd8113fd	-0.063026406
10	0x3c62208d	0.013801706
11	0xbdd0cb0f	-0.1019498
12	0xbce307d8	-0.027713701
13	0xbd973402	-0.073829666
14	0xbcb13b87	-0.02163483
15	0xbd4af4dd	-0.049549926
16	0xbd7e3e3f	-0.06207108
17	0xbc5afd65	-0.013366078
18	0xbd371870	-0.04470104
19	0x3d287ceb	0.041134756
20	0xbcfe5068	-0.0310442
21	0xbd4905ac	-0.049077675
22	0xbdc30cd7	-0.095239334
23	0x3c2432dd	0.010021892
24	0xbe0113f1	-0.12605263
25	0x3d088707	0.033331897
26	0x3d1cbef5	0.03826805
27	0x3d761f2f	0.060088333
28	0x3d5d0f04	0.0539694
29	0xbdb3c961	-0.08778644
30	0xbcce601e	-0.025192317
31	0x3db556c2	0.08854438
32	0x3da6e10e	0.081483945
33	0x3d9e568a	0.0773135
34	0xbdff85bb	-0.12476679
35	0xbd62950f	-0.055317935
36	0xbc242332	-0.010018157
37	0xbdcc5c5c	-0.09978554
38	0x3e0e1f7c	0.13879198
39	0x3ded3031	0.115814574
40	0xbd495e4b	-0.04916219
41	0x3d123aad	0.03570049
42	0xbe1b1731	-0.15145566
43	0x3c133c7b	0.008986588
44	0xbd3b47d7	-0.04572281
45	0x3d4161d0	0.047212422
46	0xbd015ae3	-0.031580817
47	0x3d46bee8	0.048521906
48	0xbd340535	-0.04395028
49	0xbdb99e61	-0.090634115
50	0x3da2f792	0.079573765
51	0x3d7bc6d4	0.061468914
52	0x3dacad0a	0.08431442
53	0xbddc085a	-0.107437804
54	0x3bf4e968	0.0074741133
55	0xbbdaf2cc	-0.0066817757
56	0x3d29fef5	0.04150291
57	0x3a2853b1	0.00064211624
58	0x3db573bf	0.088599674
59	0x3d9d5b2f	0.076834075
60	0xbd0d5e5c	-0.034513816
61	0xbce1d124	-0.027565546
62	0xbdef141b	-0.11673757
63	0xbda80e2b	-0.08205827
64	0xbc288fe0	-0.010288209
65	0xbe0d0470	-0.13771224
66	0xbc8ecdc4	-0.017432101
67	0x3b70d0fc	0.0036745658
68	0x3e1111e0	0.14166975
69	0x3db71422	0.08939387
70	0xbda80e72	-0.0820588
71	0xbdc3989b	-0.095505916
72	0xbd3e0aa1	-0.046396855
73	0xbd7963a0	-0.060886025
74	0xbbae3934	-0.0053168777
75	0xbd9f00aa	-0.077637985
76	0xbd3ef63f	-0.046621557
77	0xbdce7c8f	-0.100823514
78	0x3e0fa46b	0.14027564
79	0x3c573e39	0.013137394
80	0xbdaf153a	-0.085489705
81	0xba9d0118	-0.0011978475
82	0xbd8c88ad	-0.06862006
83	0xbd83ed0f	-0.064417
84	0xbe2814d0	-0.1641419
85	0xbe0c5647	-0.13704787
86	0xbc834b41	-0.016027095
87	0xbd8da443	-0.06916096
88	0x3df09c63	0.117485784
89	0x3d41c8fc	0.047310814
90	0x3df20ec4	0.118192226
91	0x3e21841a	0.15773049
92	0x3db4be0d	0.08825312
93	0x3c6c4641	0.014421047
94	0xbbc54be3	-0.0060210093
95	0xbdc7d086	-0.097565696
96	0x3e21a540	0.15785694
97	0x3c7139a2	0.014723213
98	0x3ce10b0e	0.027471092
99	0xb9889879	-0.00026053542
100	0xbd62c098	-0.055359453
101	0x3d6821e8	0.05667296
102	0xbdfde96a	-0.12398036
103	0xbd913f99	-0.070922084
104	0xbcae31f2	-0.02126405
105	0xbce87f04	-0.028380878
106	0x3d8bd12a	0.06827004
107	0xbd83efea	-0.06442244
108	0xbd335e84	-0.04379131
109	0x3d742179	0.059602235
110	0x3d1bbc36	0.03802129
111	0xbd05cbe3	-0.032665145
112	0x3cebc2a1	0.02877933
113	0x3e22f470	0.15913558
114	0x3cd1ebcd	0.025625134
115	0xbda1b6ab	-0.07896169
116	0x3cd5cbce	0.026098158
117	0xbdd6b45d	-0.1048362
118	0x3e2b8c2f	0.16752695
119	0x3d1f5a91	0.03890473
120	0x3d87d693	0.06632724
121	0xbd916583	-0.0709944
122	0xbd044ddc	-0.032300815
123	0xbdf2e5a6	-0.11860208
124	0xbdd701e7	-0.1049841
125	0x3da52c97	0.080651455
126	0xbd76ab8d	-0.060222197
127	0xbdf9c432	-0.121956244
128	0x3dc0feae	0.09423576
129	0x3cb8939d	0.022531325
130	0x3dc31480	0.095253944
131	0xbcba31a3	-0.022728747
132	0xbd27d508	-0.040974647
133	0x3df84a0e	0.121235
134	0xbd3d611f	-0.0462352
135	0xbd45ef47	-0.048323896
136	0x3dc13cff	0.09435462
137	0xbc1c1cd7	-0.00952836
138	0xbb6e77d4	-0.003638734
139	0x3cf08018	0.029357955
140	0x3de1305e	0.109955534
141	0xbda5b707	-0.0809155
142	0xbd99e305	-0.07514004
143	0xbd127c40	-0.035763025
144	0xbbe659c2	-0.007029743
145	0x3dedcd81	0.116114624
146	0xbd4f9200	-0.050676346
147	0xbd9f61e0	-0.0778234
148	0x3da4499b	0.08021852
149	0xbd99dfbb	-0.07513376
150	0xbd98b89f	-0.07457089
151	0x3c1505b7	0.009095601
152	0x3d45683c	0.04819511
153	0xbcc43c7b	-0.02395462
154	0x3ddd288f	0.107987516
155	0x3c71a81d	0.014749554
156	0xbdfae663	-0.12250974
157	0xbddf6edb	-0.10909816
158	0x3c4fe72a	0.012689391
159	0xbdf687b0	-0.12037599
160	0x3def3cf7	0.1168155
161	0x3d590c5c	0.052990302
162	0x3d139d55	0.036038715
163	0xbdf0dbce	-0.117606744
164	0x3ca83b7c	0.020536177
165	0xbdf514b8	-0.119668424
166	0x3ddf84b1	0.10913981
167	0xbdf92b13	-0.12166419
168	0xbd2c22dc	-0.042025432
169	0xbdcd0f4e	-0.10012685
170	0x3cb3589c	0.021892838
171	0x3cf1b8c1	0.029507043
172	0x3cba3d1c	0.022734217
173	0x3a1d7447	0.00060064014
174	0xbd3180dd	-0.043335784
175	0x3c0bc7d6	0.008531531
176	0xbda4c84e	-0.080460176
177	0x3dce9248	0.10086495
178	0x3de9cc0f	0.11415874
179	0xbda79230	-0.0818218
180	0xbdd01829	-0.10160858
181	0xbd818974	-0.06325045
182	0x3d97400f	0.07385265
183	0x3bfdce5c	0.007745547
184	0xbc396c37	-0.011317304
185	0xbc97bae0	-0.018521726
186	0x3d7c6aa1	0.061625127
187	0x3dda81ac	0.10669264
188	0x3ccb4679	0.024813877
189	0x3d63ef25	0.055647988
190	0xbbb031a2	-0.0053770104
191	0xbdb42920	-0.087969065
192	0xbcf03bbc	-0.029325359
193	0x3dfcb69e	0.12339519
194	0x3d39f9f1	0.04540438
195	0xbdb395c6	-0.087688014
196	0xbdb26e89	-0.08712489
197	0x3caf7bb2	0.021421287
198	0xbbfbc003	-0.0076828017
199	0x3d3f9a62	0.04677809
200	0x3dd834f1	0.10556973
201	0x3d950b9c	0.07277605
202	0xbd87f5b1	-0.06638659
203	0x3dc11650	0.09428084
204	0x3dcab414	0.098976284
205	0xbe19f84d	-0.15036125
206	0xbda57c78	-0.08080381
207	0x3df1a6e9	0.11799414
208	0x3e026c84	0.12736708
209	0x3e12cc58	0.14335763
210	0x3d9a7e9d	0.07543681
211	0x3d9c9acf	0.07646715
212	0x3d9a9076	0.07547085
213	0x3db5f50a	0.08884628
214	0xbcc83ebe	-0.02444398
215	0x3d896eb5	0.06710569
216	0x3d509629	0.050924454
217	0xbde76b85	-0.112998046
218	0x3e0cc8ef	0.13748525
219	0xbd539fa7	-0.05166593
220	0xbd906263	-0.07050016
221	0xbdb0664f	-0.08613264
222	0x3dea0465	0.114266194
223	0xbd69cefe	-0.05708217
224	0xbd9b87ae	-0.07594238
225	0xbdc28ae0	-0.094991446
226	0x3b93e7c0	0.0045137107
227	0x3d50024b	0.050783437
228	0x3d889d83	0.06670668
229	0xbd502eac	-0.05082576
230	0xbdd8b61c	-0.105816096
231	0xbddfd03d	-0.1092839
232	0xbe0e27a7	-0.13882314
233	0xbdba9729	-0.09110863
234	0x3d28df35	0.04122849
235	0x3d0f6c34	0.0350153
236	0xbceb1104	-0.028694637
237	0xbc8e34a1	-0.01735908
238	0x3cfa98eb	0.030590495
239	0x3dd01cfd	0.10161779
240	0x3d1db743	0.03850485
241	0x3d662ed8	0.056197017
242	0x3d8eb0b7	0.069672994
243	0x3d82d4db	0.06388255
244	0xbd50655c	-0.050877914
245	0xbd643e3a	-0.055723406
246	0x3e03eb5d	0.12882753
247	0xbdfbc059	-0.12292547
248	0xbcbfdcf3	-0.023420786
249	0xbe1882fc	-0.14893717
250	0xbc92cb73	-0.017919278
251	0xbd2fc874	-0.042915776
252	0xbd89f610	-0.06736386
253	0xbde25bb7	-0.110526495
254	0x3d99e6dd	0.07514737
255	0xbccab8c8	-0.024746314

lstm.bias_ih_l1 f4 [256]
0	0x3de18b1f	0.11012863
1	0x3e1874f6	0.14888367
2	0x3e03a3a9	0.128554
3	0xbd9f5bc1	-0.077811725
4	0x3c464dd5	0.012103518
5	0xbdd9831c	-0.1062071
6	0x3df3516d	0.11880765
7	0xbd004c63	-0.031322848
8	0x3dead9c0	0.11467314
9	0x3cf8372f	0.030299751
10	0xbc9fd97a	-0.01951288
11	0xbd706c3c	-0.05869697
12	0x3d89d833	0.0673069
13	0x3dbd26f1	0.09235943
14	0xbcb1db4d	-0.021711016
15	0x3db7ea21	0.089802034
16	0x3dd054a2	0.101723924
17	0xbbb289c7	-0.0054485532
18	0xbcddf5cb	-0.027094742
19	0x3cc50e01	0.02405453
20	0x3e0a1120	0.13483095
21	0xbd11306b	-0.035446566
22	0xbd921f73	-0.07134905
23	0x3dae2f26	0.085050866
24	0xbcdd35e1	-0.02700323
25	0x3d6aa144	0.0572827
26	0x3d4e478c	0.0503612
27	0x3c3d6899	0.011560583
28	0x3d684cd7	0.056713905
29	0xbd93ef12	-0.072233334
30	0xbdcb3b38	-0.099234045
31	0xbd53a74b	-0.051673215
32	0x3d8d83d3	0.06909909
33	0x3dcdfd3f	0.100580685
34	0x3d8c3726	0.06846456
35	0xbdecfc50	-0.11571562
36	0xbc8c59ac	-0.017132603
37	0xbdd251d3	-0.10269513
38	0x3d5fe7e0	0.054664493
39	0x3d0c38a1	0.034233693
40	0x3dcc6fc9	0.09982259
41	0x3d05e1c7	0.03268602
42	0x3dd0c6dc	0.101941794
43	0xbdb3fd75	-0.087885775
44	0x3d319213	0.043352198
45	0x3da87fe5	0.08227519
46	0xbdd58206	-0.10425191
47	0x3dcd9176	0.1003751
48	0xbbdd39d0	-0.0067512766
49	0x3ccdd198	0.025124356
50	0x3c9cc63d	0.019137496
51	0x3d0689a9	0.032846127
52	0xbcf6b95c	-0.030117683
53	0x3bbb2f08	0.0057123937
54	0x3d3a3e71	0.045469705
55	0xbd809291	-0.06277955
56	0xbd63e995	-0.055642683
57	0xbd885d84	-0.06658462
58	0xbd3df239	-0.04637358
59	0xbcc22715	-0.023700276
60	0xbd9bb867	-0.07603531
61	0xbde113d8	-0.10990113
62	0x3da8f7e4	0.082504064
63	0x3d9f0913	0.07765403
64	0xbc6c64e9	-0.014428356
65	0xbcb4f48a	-0.022089262
66	0xbce168bc	-0.027515762
67	0x3dab75f4	0.08372107
68	0x3ce7c4d5	0.028292099
69	0x3c668cad	0.014071626
70	0x3db998e7	0.09062367
71	0x3df9c48d	0.12195692
72	0xbcfabd3d	-0.030607814
73	0xbccdf3e9	-0.02514072
74	0xbbe2e0da	-0.006923777
75	0x3d83e737	0.06440585
76	0xbcdf85f5	-0.027285555
77	0x3da6d961	0.081469305
78	0x3ddfe799	0.109328456
79	0x3e0e2679	0.13881864
80	0xbb997b89	-0.004683916
81	0x3da5df31	0.08099211
82	0xbb292034	-0.0025806548
83	0xbda30cdb	-0.07961436
84	0xbcacf849	-0.021114485
85	0xbd8a0f11	-0.06741155
86	0x3d1203b1	0.03564805
87	0xbd9cf741	-0.076643474
88	0x3de546e2	0.111951604
89	0xbd8aaeb2	-0.06771602
90	0x3deaba8a	0.11461361
91	0x3e31e599	0.17372741
92	0xbcee0c41	-0.029058577
93	0x3dcb3414	0.099220425
94	0x3cd24c9d	0.025671298
95	0xbd094420	-0.033512235
96	0x3dba74b4	0.091042906
97	0xbd5ed54b	-0.05440263
98	0x3debb231	0.11508597
99	0x3d2dc948	0.042428285
100	0x3d866481	0.06562138
101	0xbd9bc85b	-0.07606574
102	0xbd9a8dea	-0.07546599
103	0xbdc6e9eb	-0.09712585
104	0x3d4e83f7	0.05041882
105	0x3e086994	0.13321525
106	0x3d687ad9	0.05675778
107	0x3b7dd85e	0.0038733701
108	0x3b849dcc	0.004047131
109	0xbbbea804	-0.005818369
110	0x3d494528	0.04913822
111	0xbdb8dbf6	-0.09026329
112	0x3d242f0d	0.040083934
113	0xbd8a84c4	-0.06763604
114	0x3c58db1a	0.013235832
115	0x3cd8fcfa	0.026487816
116	0xbd9eb079	-0.07748503
117	0x3e183c5f	0.1486678
118	0x3c03c0c5	0.008041565
119	0x3cbd9761	0.023143472
120	0x3e1cecf9	0.15324773
121	0x3e0a17b9	0.13485612
122	0x3d282c04	0.0410576
123	0x3d84b780	0.06480312
124	0xbd4fddfb	-0.050748806
125	0x3dcccd2a	0.100000694
126	0xbd874c25	-0.0660632
127	0xbd6e04a9	-0.058109913
128	0x3c9ed898	0.01939039
129	0x3d59f2d9	0.053210113
130	0x3cb33a25	0.021878311
131	0xbd8c0882	-0.0683756
132	0x3c8a25e3	0.016863769
133	0x3dbda8d7	0.09260719
134	0x3d5036a8	0.050833374
135	0x3d25d6d7	0.04048809
136	0xbd80d4b9	-0.062905736
137	0xbbfc9fec	-0.007709494
138	0x3d8026d7	0.06257408
139	0x3d8aef3d	0.06783912
140	0xbd7560ab	-0.059906643
141	0xbd78e781	-0.060767654
142	0x3daef8d0	0.08543551
143	0xbd5d9fbe	-0.05410742
144	0x3ca3c0b3	0.019989347
145	0xbd31ecdc	-0.043438777
146	0xbad80e8b	-0.0016483826
147	0x3c56f288	0.013119347
148	0xbde67753	-0.11253228
149	0xbca88c88	-0.020574823
150	0x3c94c31d	0.018159444
151	0x3d414d41	0.047192816
152	0xbd280c6e	-0.04102748
153	0xbd03b2f0	-0.03215307
154	0x3ddefab6	0.10887663
155	0xbdc0da8b	-0.09416684
156	0xbdf6b02c	-0.12045321
157	0xbbdaca2c	-0.006676933
158	0x3b09d221	0.0021029788
159	0xbd094e9c	-0.033522233
160	0x3d0bd3e9	0.03413764
161	0xbe06d0ca	-0.13165584
162	0xbd62cc58	-0.05537066
163	0x3d89f032	0.06735267
164	0x3a3c8530	0.00071914773
165	0xbdcf116d	-0.101107456
166	0xbd08e741	-0.033423666
167	0xbd20c765	-0.039252657
168	0x3d43c730	0.047797382
169	0x3de42f90	0.11141884
170	0x3d2a022f	0.04150599
171	0x3c5b2e08	0.013377674
172	0x3c7a0944	0.015260998
173	0xbd7e5ed5	-0.062102158
174	0x3cb79b7d	0.02241301
175	0xbd774e71	-0.060377542
176	0x3dc27429	0.09494812
177	0x3be5e7bc	0.0070161503
178	0xbd982262	-0.07428433
179	0xbc7dff0e	-0.015502704
180	0xbd9aef4f	-0.07565176
181	0x3def6813	0.116897725
182	0x3d5dec08	0.054180175
183	0xbdc43745	-0.09580854
184	0x3d892f8b	0.06698521
185	0x3b0f2a68	0.0021845344
186	0xbdf0f770	-0.11765945
187	0xbe12c036	-0.14331135
188	0xbd5e9f3a	-0.05435107
189	0xbc193e11	-0.009353177
190	0xbd11320b	-0.035448115
191	0x3db9bbe7	0.09069043
192	0xbceeca72	-0.029149268
193	0x3d76dcfc	0.06026934
194	0xb9b1be9f	-0.00033902095
195	0xbd964ca7	-0.07338839
196	0x3d91e991	0.071246274
197	0x3dee9177	0.11648839
198	0x3df88a3f	0.12135743
199	0xbd5ea2d1	-0.054354493
200	0xbd880734	-0.06641999
201	0x3de04200	0.109500885
202	0x3b9b185f	0.00473313
203	0x3d8b5d1a	0.06804867
204	0xbd1a5cd6	-0.03768619
205	0x3dc7cbd4	0.09755674
206	0x3de010e5	0.109407224
207	0x3c24b32e	0.010052485
208	0xbd072592	-0.032994814
209	0xbd7991e0	-0.060930133
210	0xbde87004	-0.1134949
211	0x3df7367c	0.12070939
212	0x3d88a924	0.06672886
213	0x3bf6ff09	0.007537727
214	0x3c0f1c26	0.008734738
215	0x3d44724c	0.047960564
216	0xbddfe34d	-0.10932026
217	0x3d22ad5a	0.039716102
218	0xbd204da5	-0.039136548
219	0x3dc35a1b	0.09538671
220	0xbc3c8b89	-0.011507877
221	0x3ceeb62c	0.0291396
222	0x3dd09970	0.10185516
223	0xbbc46489	-0.00599343
224	0x3d44f274	0.048082784
225	0xbc42c218	-0.011887096
226	0x3df0caa1	0.117573984
227	0xbd064473	-0.032780122
228	0xbd316bd5	-0.043315727
229	0x3dfe4158	0.12414807
230	0xbdaea222	-0.08527018
231	0xbd837198	-0.06418151
232	0x3db12750	0.086500764
233	0x3dc31a7a	0.095265344
234	0x3db95c09	0.090507574
235	0x3d913141	0.070894726
236	0x3d18b9f7	0.037286725
237	0x3bc1e5cc	0.0059172865
238	0xbcce4a94	-0.025182046
239	0xbc9e01ea	-0.019288022
240	0xbdc1ef8b	-0.09469517
241	0xbd1b1504	-0.03786184
242	0xbc0a07a8	-0.008424677
243	0x3ccdb4e8	0.025110677
244	0xbd74d8a0	-0.059776902
245	0x3dffec10	0.12496197
246	0xbc038493	-0.008027214
247	0xbb4e804f	-0.0031509583
248	0xbb554108	-0.0032539982
249	0xbd84aed6	-0.0647866
250	0xbd339b7e	-0.04384946
251	0x3dea876e	0.114516124
252	0xbc307db8	-0.010772161
253	0xbdf13ef0	-0.117795825
254	0xbd9313d7	-0.071815185
255	0x3d015d10	0.031582892
