output/LSTM2CNN/LSTM2CNN_adam_64_1000/model/LSTM2CNN_epoch_257.pth (torch, 353538 bytes, 16 tensors)

lstm.weight_ih_l0 f4 [256, 11]
00000000: 71a6 51bd e5c6 9f3d 9287 0bba e9b0 01bd
00000010: d0b6 d73d d93d b5bd 5c7b a13d d4b3 463a
00000020: 53a8 6e3d daee 6ebc 390b 203b 9a87 cfbd
00000030: 1fba d5bc 8ea8 f93c 9814 073d b51f d7bd
00000040: 5e96 8bbd 7b99 ba3d 0770 87bd 0b62 22bc
00000050: a559 b3bd 9904 b9bc 7fdc 043e 65fa b23d
00000060: 3678 dabd faff 803a db9e ab3d 4dde 523d
00000070: a68b fb3d 7ef5 133d 50c2 90bb 2e5c b6bd
00000080: c8cd f13d 7ceb b2bd cf7c 9d3d 7e19 913d
00000090: 0531 f73c 331c 893d d2de ad3d 2547 c13d
000000a0: 421e 003e 501f 32bd dade ee3d 24cd dd3c
000000b0: 3fe7 593d d130 423d bc41 22bd 26d9 043e
000000c0: f81b efbc 7f7e c33d e89b 8c3d 68f0 4cbd
000000d0: a466 123d 0b30 bebc 11cb 4a3d 26b9 f43d
000000e0: 9446 62bd a05c d83d 84ca 73bc a7df 043e
000000f0: d7e1 bbbd b1c0 803d 8ef9 103d b86e 9b3d
00000100: e325 503d 435c ee3d e80c 82bd a5a7 b3bd
00000110: 2c08 f33d 891b ffbd b7d4 753c f20b a7bd
00000120: b9cf a03d 7941 3abd 5da4 8e3d 8a47 bc3d
00000130: 7d93 603d b4ef 983d 3fa4 bbbd 4976 cebd
00000140: ef6a a8bd 1bba 7b3d 6718 85bd ed03 f53d
00000150: 3572 ac3d e2b9 793d 0eab c9bd 92ad 9cbd
00000160: 0282 b9bd 28c9 873d 6f57 cabd 9697 3abd
00000170: 86c7 613d ffc5 173c 91ab 86bc 1bdd 4abb
00000180: 0cd4 a9bb 1631 10be 86bd 5e3d 3fde bbbd
00000190: 946b 7fbc b90d 4b3d a3c9 b03d 3b4d aebd
000001a0: af2e b13d 307b f9bd eae5 8a3c 865a 9bbc
000001b0: d617 603a c273 9bbd 5f7a 00be a78d c93d
000001c0: 22a1 b1bd 2800 e9bc 1c05 393c 8045 ddbd
000001d0: c9f3 8cbd b544 a03d 5d92 523b a1d0 8d3d
000001e0: c783 8bbd a701 99bd a98b b63c f47e 8e3d
000001f0: 03b0 6c3d 98cc 023c c422 4ebb 1e98 b63c
00000200: eb3b dbbd 45d2 8fbc 273e 963c 0079 efbd
00000210: 615a a1bd 7b72 c13d 9678 de3d 0814 303d
00000220: 0238 143e 2e56 923d 1c37 af3d 268e 96bb
00000230: a917 de3d 53ac 5cbd 1724 79bd 843d ce3d
00000240: fa12 bfbd 7878 cdbd 8da5 003e 6ef2 d23d
00000250: 880c 8abd bc36 c4bd 9a96 003d 5a63 923d
00000260: 8fc5 9e3d c5fa 7fbc d55f 01be 38a0 17bd
00000270: 84ae c8bd 6f92 593d 68bb febc 6005 c03d
00000280: d3e8 b2bd e974 d33d 76c1 1c3d 3631 af3d
00000290: 32e6 a0bd 898f 95bd 5317 c2bd 41cc 0f3e
000002a0: abd3 d63d 7a19 28bd eb19 153d 8074 b8bd
000002b0: ec8e 6dbd c680 ebbc 66b9 a43d cd4d 10bd
000002c0: ae73 4b3d e17e 3d3c 4f00 b6bd 3980 b8bd
000002d0: 5986 8a3d 410e 5cbd d922 f53c 7ec2 dfbb
000002e0: 1032 853d fb4a e53c 2aa7 3dbd 3fea c8bd
000002f0: ae51 a63d 16f1 b1bd d12f 11bc 7a6a b03d
00000300: 3fc6 a0bd 1193 dfbc 691c 42bd 29c5 6dbb
00000310: 5e85 c3bd 5b02 edbd cd62 3cbd 5861 b83a
00000320: 5a6b a5bd b7e9 c43c 2bb7 d7bd 21d0 b53d
00000330: a718 c83b 619a cbbd 1123 3a3c fe47 00bd
00000340: 48b3 ee3c 6a7a 7cbd 7a94 613d 0db7 893d
00000350: f343 48bc 34e9 603d 7b1d 92bd 4361 5a3c
00000360: ce51 77bd 16ca 93bd 9e94 90bd f2b0 4cbd
00000370: afab 6a3d ad86 373c fedf 353c bb92 0bbe
00000380: f6e0 9cbc f3ca c03b 0178 a63d 4f3a e53c
00000390: a299 9c3d 312f 9dbd 876c ddbc f6a3 843d
000003a0: 4af9 d5bc 1bb7 1fbe 2125 a13d 3a45 4abc
000003b0: a604 6bbc 499a 893d 276a 09be d903 f4bd
000003c0: 838f ddbc b2f8 29bd 4e83 69bd 0d53 d8bd
000003d0: 4a13 973c 324c de3d d0a4 3cbc 2dfc 1c3b
000003e0: 6fbc fb3c 36e4 6b3d 3751 11bd 93f8 a13d
000003f0: fa86 debc 0d02 e1bd 3589 a43d 0011 6d3d
-0.05118412 0.07801608 -0.0005322631 -0.031662855 0.105329156 -0.08849687 0.07884857 0.0007579897
0.058265995 -0.014583314 0.0024420752 -0.10133286 -0.026089726 0.030475881 0.032978624 -0.105040945
-0.0681579 0.09111305 -0.066131644 -0.009911071 -0.08757333 -0.0225852 0.12974738 0.08739165
-0.1066746 0.0009841912 0.08379909 0.051481534 0.12282495 0.03612279 -0.004417695 -0.08904301
0.11806828 -0.08736321 0.07689821 0.070849404 0.030174742 0.06694832 0.08489765 0.09437398
0.12511542 -0.043486893 0.11663599 0.027075358 0.05319905 0.047409836 -0.03961347 0.1297346
-0.029188141 0.095456116 0.06865674 -0.050033957 0.035742417 -0.023216268 0.049510065 0.11949377
-0.05524309 0.10564542 -0.014879826 0.12975942 -0.09173935 0.06286753 0.035394244 0.07589477
0.05081738 0.11638691 -0.06350118 -0.0877221 0.11866793 -0.12456424 0.015004328 -0.08156575
0.0785212 -0.045472596 0.069649436 0.091933325 0.054828156 0.07467595 -0.09162187 -0.10081155
-0.08223521 0.06145678 -0.06498795 0.119636394 0.08420221 0.060968287 -0.09847079 -0.076502934
-0.09058 0.066301644 -0.09879958 -0.04555472 0.05512192 0.009263515 -0.016439231 -0.0030954543
-0.0051827487 -0.14081225 0.054379962 -0.091732495 -0.0155896135 0.049573634 0.08632209 -0.08510824
0.08651482 -0.12181699 0.016955335 -0.018964063 0.00085484737 -0.075904384 -0.12546681 0.09841471
-0.08673312 -0.028442457 0.011292722 -0.10804272 -0.06882436 0.07825605 0.0032130696 0.069245584
-0.06812244 -0.07471018 0.022283392 0.06957808 0.057785045 0.007983349 -0.0031453827 0.022289332
-0.10704788 -0.017556319 0.018340183 -0.11693001 -0.078785665 0.094456635 0.10862844 0.042987853
0.1447449 0.07145344 0.08555433 -0.004594582 0.108443566 -0.05387528 -0.060825434 0.10070327
-0.09329791 -0.10032743 0.12563153 0.10300146 -0.067406714 -0.09580752 0.031393625 0.07147856
0.07752525 -0.015623753 -0.12634213 -0.03701803 -0.09798911 0.053118166 -0.031095222 0.09376025
-0.08735814 0.10325033 0.038270436 0.08554308 -0.07856406 -0.07302768 -0.09477105 0.1404276
0.10489591 -0.04103992 0.03640167 -0.090065956 -0.05799763 -0.028747927 0.080431744 -0.035230447
0.049670868 0.011565895 -0.088867776 -0.090088315 0.06763906 -0.05372453 0.029923843 -0.006828605
0.06503689 0.027989855 -0.046302 -0.09810304 0.08121048 -0.086885616 -0.008861498 0.08614059
-0.078503124 -0.027291806 -0.047390375 -0.0036280847 -0.09546922 -0.11572715 -0.04599266 0.0014067097
-0.08077116 0.024037225 -0.105329834 0.08877588 0.0061064544 -0.09941555 0.0113609 -0.031318657
0.029138222 -0.06164018 0.05507324 0.06724367 -0.012223232 0.0549099 -0.07134529 0.013328853
-0.06038075 -0.07216279 -0.070595965 -0.049973436 0.057292636 0.011201543 0.011100767 -0.13630192
-0.019150238 0.0058835684 0.08128358 0.027981905 0.07646491 -0.07675017 -0.027029289 0.064765856
-0.026119847 -0.15597193 0.0786841 -0.012345606 -0.01434437 0.06718881 -0.134194 -0.119147964
-0.02704597 -0.04149694 -0.057009988 -0.10562716 0.018441815 0.10854377 -0.011513904 0.002395402
0.0307295 0.057590686 -0.035477843 0.0790874 -0.027163971 -0.10986719 0.08033983 0.05787754

lstm.weight_hh_l0 f4 [256, 64]
00000000: 08b1 10bc 2f75 dc3c 2fad 093d af4b ab3d
00000010: 00fc 51bd de06 6d3d 27c3 eabc e983 073e
00000020: 23aa debc 9d96 b43d 8da0 cf3d 6251 8a3d
00000030: 4851 ea3d 23d3 7abd 23b3 97bd 0260 0bbd
00000040: 8308 503d f64f 5dbb 9f83 2e3b e1e9 87bd
00000050: c8c2 b23d ef6f 883c 145e d1bd e03c 8e3d
00000060: f675 03be 0929 653d e743 bebd d7e7 abbd
00000070: 6f17 8c3c bd9e 853c 5d2c d0ba d6d8 d1bc
00000080: b3c0 b83d 2757 973c 91c9 a1bc 6113 6e3d
00000090: 1280 033e febf bbbd 6d58 a7bc 3878 04bd
000000a0: 42b5 733d 8db3 2a3d e57d d83d 8a41 dbbd
000000b0: e957 0b3d 714e 9bbd d6a4 883c e2e2 aebd
000000c0: 8fe8 f4bc 7fc8 d9bd 8018 d23d 0166 e13d
000000d0: 615a a53d 4225 343c 5e48 00bb 8a19 a13d
000000e0: 9068 56bc 4df0 d23d fc31 ec3c 291e 883d
000000f0: 531f 18bd d6e9 9e3c 61da dfbc 0211 cdbd
00000100: d10b edbd f3c1 98bc d8bf 1abe 28ef 673d
00000110: 4485 fcbc 0e62 c13c 8050 e23c f6a0 e8bc
00000120: 1dd9 813c a452 083e a030 67bd 6dd1 93bb
00000130: d25b 10bd a406 61bc 23d8 9cbc 3142 ad3d
00000140: 4fda 943d 0341 193d 5297 b7bd 8fbc ddbd
00000150: cb76 343d 1c83 cdbd 1bc2 883c 7242 4cbd
00000160: 43eb d5bd 2210 be3d 7214 d13c bb68 f53d
00000170: c7f7 d33d 93d9 f73c 6e82 ae3c 7af6 203e
00000180: 5b27 a83d f16e 803d a60e 3d3c ee61 b9bc
00000190: 9c55 e4bd eefb f9bd ace2 dabc 6ae7 033d
000001a0: 36b9 cd3d f54b f8bd a0ef 463c 1502 e73d
000001b0: 7dc7 eebb 8c1c 393d d932 a3bc 3167 c23d
000001c0: e75d 163d d3b7 2f3d d1ff e2bc 22a4 e53d
000001d0: 5150 57bc 1e85 a43d 1ebb 9f3d d96c dabd
000001e0: c482 df3d 96bb 51bd 4cb3 dd3d 8014 ac3c
000001f0: 6a70 fd3c dfd9 88bd b61c 813d d45c 923d
00000200: f26c 6cbd 1c47 63bd 3371 8abd d89a 9e3d
00000210: 193e b7ba e0f4 cb3d 96bc 53bd f27a 81bd
00000220: a888 4abd 2275 c9bd 3869 bd3d 1d91 d63d
00000230: 6a87 b4bb c1be dfbd fe55 1c3d 2ebb d0bb
00000240: 2b16 85bd f940 86bd 9a81 cdbb 54a7 e6bc
00000250: 2bef 573d 8cd3 ddbd 5055 d03d 3f35 983d
00000260: 38d8 d23d f811 b33d c394 f4bd 11a4 2ebd
00000270: 126d e2bc 942d e03d 96c2 9d3d 0260 b83b
00000280: cf47 cd3d 5b27 b5bd 99f7 39bd a274 7d3d
00000290: 4c46 903d 4189 5dbd cd86 3fbc c679 15bd
000002a0: 4f6b 3a3d 7de2 c3bd f805 bbbd 0f4b b039
000002b0: 7c27 223d ceef 583d 382c dcbd 40d9 243d
000002c0: 83f8 343c 9fd6 8ebd 0fc6 ba3d 8c45 c43b
000002d0: 1b3b e2bd 6e23 d23d 30ec ccbd 86ce b7bd
000002e0: 689a 093e e9f5 e13c a942 753d 2b71 a03c
000002f0: 9306 90bc 3a9c d4bd 686c c93d b73d 03be
00000300: 1987 863d 4a00 f73d e974 9c3d 6a84 093e
00000310: e96c c13c eebb 0a3d c617 b63d 3b16 07be
00000320: 369d 11bd c579 bdbd 9f41 ae3d e5de 39bd
00000330: 50c5 133e fcf2 cc3d 3992 07be 2414 3bbd
00000340: c14c da3b d02d 063e 0326 c3bd 7a15 593c
00000350: 2fe5 5dbd 7a01 a33c ebcc d73d 0a93 72bd
00000360: e014 9f3d 48e5 8c3b 056d dfbd 71f0 a53d
00000370: d761 aebd 0ccf aebd caa1 27bd dd29 66bc
00000380: 9d36 0c3d def2 543d 3b09 943b a0cf a4bd
00000390: 3ced 93bd a5f2 85bd 3ab7 66bd 9fde 1cbd
000003a0: eefe 623d b1ba 173d 3371 35bd cd2c 72bd
000003b0: 62a2 cd3c a146 e4bd 486c 11be b40f 58bd
000003c0: 422e 0cbd 4497 493d 8323 613d 6f0f 0d3d
000003d0: 1d0c a83c c59b 7ebd d9ec 463d b199 9dbd
000003e0: 7613 efbc 112a 05be 52f8 b7bd 7cb7 4fbd
000003f0: 68cf 743d 3bfd fd3c d786 cdbd 660d b53c
-0.00883127 0.026911346 0.033612426 0.08364045 -0.051265717 0.057867877 -0.028657509 0.13233913
-0.027180737 0.0881779 0.101380445 0.06753804 0.114412844 -0.061236512 -0.074072145 -0.034027107
0.050789367 -0.0033769584 0.0026628745 -0.06636406 0.08728558 0.016654937 -0.10223022 0.06945205
-0.12837967 0.055947337 -0.09290295 -0.08393829 0.017101018 0.016311044 -0.0015882362 -0.02561609
0.090211295 0.018474175 -0.019749435 0.05812395 0.12841824 -0.09167479 -0.020427907 -0.032341212
0.059499033 0.04167514 0.105708875 -0.1070586 0.034019385 -0.07583321 0.016680162 -0.08539368
-0.029896049 -0.10633945 0.10258579 0.11005784 0.08073879 0.010995211 -0.0019574384 0.07866199
-0.013086453 0.1029974 0.028832428 0.066463776 -0.037139248 0.019398611 -0.02732581 -0.100130096
-0.115745194 -0.01864717 -0.15112245 0.05662456 -0.030825265 0.023606326 0.027626276 -0.028397065
0.015850598 0.13312775 -0.056442857 -0.0045110495 -0.035243817 -0.013734493 -0.01914603 0.08459891
0.072682016 0.037415516 -0.08964409 -0.1082698 0.044058602 -0.10034773 0.01669412 -0.049868055
-0.10445263 0.09280421 0.025522444 0.119828664 0.10349994 0.030255115 0.021302428 0.15719023
0.082106315 0.062711604 0.011539137 -0.022629704 -0.11149141 -0.12206255 -0.026719414 0.032203116
0.10045092 -0.12123863 0.012142092 0.11279694 -0.0072869645 0.04519324 -0.019921707 0.094923384
0.036710646 0.042899918 -0.027709873 0.112129465 -0.0131417075 0.080332026 0.07799362 -0.10665292
0.109136134 -0.051204287 0.10825214 0.021005869 0.030937392 -0.066821806 0.06304304 0.07146612
-0.057721086 -0.055487737 -0.06759872 0.07744378 -0.0013980299 0.099588156 -0.05169352 -0.06322278
-0.04944673 -0.098367944 0.092485845 0.10476897 -0.0055093067 -0.10925055 0.038167946 -0.00636997
-0.06498369 -0.06555361 -0.006271553 -0.02815596 0.052718323 -0.10831365 0.10172522 0.07432031
0.10295147 0.08743662 -0.119424365 -0.042636935 -0.0276399 0.10946193 0.0770313 0.0056266794
0.10023462 -0.08845397 -0.045402143 0.061878808 0.07044658 -0.054085974 -0.011689854 -0.036493085
0.045512494 -0.095646836 -0.09131998 0.0003362526 0.039588436 0.05296307 -0.107506216 0.04024625
0.011045578 -0.069745295 0.09119808 0.005989736 -0.1104643 0.10260664 -0.10005987 -0.08974938
0.13437808 0.02758308 0.059878025 0.019585213 -0.01758126 -0.1038136 0.0983513 -0.12816511
0.065687366 0.12060602 0.07639486 0.13429418 0.023611503 0.03387063 0.08891253 -0.13192074
-0.03555032 -0.09251741 0.0850861 -0.045378584 0.14430737 0.10007283 -0.13239373 -0.045673504
0.006661982 0.13103414 -0.095287345 0.013249749 -0.054173645 0.019898165 0.10537132 -0.05922226
0.077676535 0.0042997934 -0.10909466 0.08102501 -0.08514755 -0.08535585 -0.04092578 -0.014048067
0.03423177 0.05198943 0.004517702 -0.08047414 -0.07222983 -0.065404214 -0.056327082 -0.038298246
0.0554189 0.037043277 -0.04429741 -0.059124757 0.025101844 -0.11146284 -0.14201462 -0.05274935
-0.034223802 0.049216524 0.054965507 0.034438547 0.020513589 -0.062160272 0.04856572 -0.0769533
-0.029184084 -0.13004328 -0.0898291 -0.050712094 0.05976811 0.031004539 -0.10035484 0.022101115

lstm.bias_ih_l0 f4 [256]
00000000: 8590 fbbd c2a8 283d 5f6b 98bd dff1 723d
00000010: a2bf 98bd 1df6 26bd 387a 0fbd 40ff 1fbd
00000020: 6043 f8bd 4207 d63d 4bf1 babd 29e2 b43d
00000030: a690 2d3c b350 c9bd 60b2 73ba d7d6 af3d
00000040: 78ac 48bd 9b9a c2bc 22ef 0e3c 3315 f33d
00000050: ea2f fc3d fbd7 3a3c fb48 d4bd 047a 98bd
00000060: 60d8 df3c 9fa2 8ebd 175e bd3c b6f3 b23d
00000070: b6ab c03c c895 0fbd 4792 e73d ebaa eebc
00000080: 31bb 933a 1e15 063e ac0d 003c fde6 ec3d
00000090: 704c 8f3b db6a ad3b e162 773d 2fcd c9bd
000000a0: 4d24 3c3a 6a21 eb3c 3d5e b63d 7595 97bd
000000b0: 3b4c b6bd ac7c b53d d51e 123d 1c54 36bd
000000c0: c69e 843c 8062 23bd 5dcf a73d d33a df3d
000000d0: c9f9 c23c 3d9e d3bd c0e6 f5bd 5970 963b
000000e0: 6894 19bd 5600 ad3d 655d 0c3d fa13 103d
000000f0: 70ce c9bc 5ba7 223d 2977 a73b 1ef7 afbc
00000100: 8961 633d 77e9 abbd e299 653c d392 d63d
00000110: 27c0 ae3d 37d4 413d 7eb9 cbbd e1c5 df3d
00000120: f194 b0bd 102e 003e 89f7 343d ce96 86bb
00000130: a83f 893d e146 ab3b db31 9dbd 696a 61bd
00000140: e0c6 66bd 1a5f 333c 3028 acbd b99d 933d
00000150: 2240 8d3d 29f8 933d 96bb bcbd 2253 ad3c
00000160: 6582 ff3d 6df1 8e3d 6a6a 80bd 163f 293d
00000170: 4861 cf3c fba3 03bd b890 233d 89d7 babc
00000180: 9bdf 1cbd b7d1 e23d ee24 dcbd c7f3 563d
00000190: ac6b c5bb 98ae acbd abd5 bf3d 69b6 ce3d
000001a0: 6c00 c83d ad3a ddbc ab28 6dba 4187 a53b
000001b0: 5950 7fbd e1b3 753d 1569 84bd f362 e6bc
000001c0: 2404 c63c c434 9f3d bce8 13bd f3d2 34bb
000001d0: a609 e6bd 2bc6 e5bd cf9a b9bd 8833 ad3d
000001e0: 9d82 2abd f8f0 313c 5f47 b63b d69a 453d
000001f0: ae43 88bc f3aa b03d 2907 43bd ea97 2e3e
00000200: 9d2e cebd b091 9f3d 7c31 3d3d ef1b cc3d
00000210: 23a2 e1bd 96e3 0d3d e012 eebc 05f5 31bd
00000220: a348 913d ba4a 04be b14f 8e3c 5eb3 39bd
00000230: 3212 96bd a10c 993d d905 58bd 7ad8 db3c
00000240: 79f2 8fbd 6e70 893d 6bb8 18bc d6e1 f13c
00000250: b2e5 143d 185f 08bd 0548 f53d 84b5 003e
00000260: 38e6 10bc b685 89bd 3357 c9bc 5a35 a43d
00000270: 1a98 edbd 464b 993d de5e b83c 443c 3bbc
00000280: 493c d5bc 70c2 c43d da83 bfbb f194 a7bd
00000290: 0a4e fcbd 22ae 0bbd 8e4a 603d 24c2 eabd
000002a0: 2afd 0b3e e3e3 e63d 7cfa 423c 9312 aebc
000002b0: fc8e bb3c 0346 f7bd 053d acbd 6b95 1a3d
000002c0: 2033 90bd f935 1e3d 92c7 d9bd 778b 763d
000002d0: b771 ce3d 5d39 67bd 6355 d0bc a3fd a2bd
000002e0: 9251 693d 6894 b3bd 5f34 e83c aa50 47bd
000002f0: 2d4b 02bd 3923 f23d ced3 d53c 736f d63d
00000300: b4b8 febd 5339 d4bd af34 6e3d f116 19bc
00000310: 1b30 c43d 153b 67bc b800 893c b84b 9e3d
00000320: 0216 993d 27ac 20bd 134a 82bc b60e 98bd
00000330: 41ee 033e 72cc 113d d4f7 b73d 3e92 a43c
00000340: d9d9 4a3d 3dbe da3c aa67 1d3d 3a94 fabc
00000350: 042a a03d e880 f63a 8b86 99bd cea9 8f3c
00000360: e56c e23b 6cd9 923d 5bb8 c8bd bf93 d73d
00000370: 45aa 7f3d 957c 6e3d 5fec 493d 5ebe cdbc
00000380: 54a3 5dbd a719 bbbc 5500 243c 23c4 a53d
00000390: 67e3 acbb 7558 36b9 c9e2 593d 1ae5 f3bd
000003a0: cf23 e43d d7ac 943d 46a6 7ebb 07e6 bcbc
000003b0: aaa7 43b9 2f11 04be b27a a0bd 934a d43d
000003c0: 7a93 47bd fcb3 253d 3153 abbd 5114 f43c
000003d0: 2c2f 3e3c 139a 8dbc f504 323d 7c93 533d
000003e0: 8737 19bd d9e9 08bd d043 80bd 0b2b 63bc
000003f0: e6f1 cbbc e79d 80bd 8c15 c2bd 8e98 28bd
-0.12283424 0.041176565 -0.074423544 0.059312697 -0.07458426 -0.040762056 -0.035028666 -0.039061785
-0.12122226 0.10450603 -0.09128054 0.08832199 0.010593569 -0.09829845 -0.00092962943 0.08585899
-0.048992604 -0.023755362 0.008724006 0.11869278 0.123138264 0.011404033 -0.103654824 -0.07445148
0.027324855 -0.06964611 0.023116155 0.087378904 0.023519378 -0.035054952 0.11307197 -0.029134234
0.0011270997 0.13093993 0.00781576 0.11567495 0.0043731257 0.005292279 0.060397033 -0.09853589
0.000717704 0.028702457 0.08904693 -0.074015535 -0.089012586 0.0886167 0.035673935 -0.044513807
0.01618899 -0.03988886 0.08193848 0.10899892 0.023800747 -0.10332916 -0.12006903 0.0045910296
-0.037495047 0.0844733 0.034268755 0.0351753 -0.02463457 0.039710384 0.0051106405 -0.02148014
0.05551294 -0.08394139 0.014013739 0.10477223 0.08532744 0.047321524 -0.09947489 0.10926414
-0.08622158 0.12517571 0.04418138 -0.004107333 0.067015946 0.0052269553 -0.07675525 -0.05503312
-0.056342006 0.010947967 -0.08406103 0.072078176 0.06896998 0.07225067 -0.09215467 0.021157805
0.12476043 0.06979642 -0.06270297 0.04131993 0.025314942 -0.032138806 0.039932936 -0.022807853
-0.038299184 0.11075156 -0.10749231 0.052478578 -0.0060247984 -0.084317386 0.09366926 0.10093386
0.097657055 -0.027005518 -0.00090468925 0.005051524 -0.062332485 0.059986 -0.06465355 -0.028123355
0.024171896 0.07773736 -0.036110625 -0.0027591556 -0.11232309 -0.11219438 -0.090627305 0.084570944
-0.04162847 0.010860674 0.0055627073 0.048243366 -0.016633835 0.08626356 -0.04761425 0.17050138
-0.100674845 0.077914596 0.04618977 0.099662654 -0.11017253 0.03464087 -0.029061735 -0.04344656
0.070939325 -0.12919131 0.017371984 -0.045337074 -0.07327689 0.07473112 -0.05273995 0.026836623
-0.0702867 0.067108974 -0.009321312 0.029526632 0.036351867 -0.033293813 0.11976627 0.12569243
-0.008843951 -0.067149565 -0.024577713 0.080179885 -0.11601277 0.074850604 0.022506174 -0.011427943
-0.026029723 0.096073985 -0.0058445754 -0.08182705 -0.12319572 -0.034101613 0.0547586 -0.11462811
0.13670793 0.11273935 0.01190054 -0.021249091 0.022895329 -0.120739006 -0.08410076 0.037740152
-0.07041001 0.03862569 -0.10633768 0.060191598 0.10080283 -0.05645119 -0.02543134 -0.079585336
0.056962557 -0.087685406 0.028345285 -0.04866091 -0.031809974 0.118231244 0.026101973 0.10470476
-0.12437573 -0.10362496 0.05815571 -0.009343849 0.09579488 -0.014113207 0.016723976 0.07729286
0.07474901 -0.039226677 -0.015904462 -0.07424681 0.12883855 0.035595365 0.08982816 0.020089265
0.049524162 0.02670204 0.03842894 -0.030588258 0.07820514 0.0018806728 -0.07496365 0.017537024
0.006909954 0.07170376 -0.09800788 0.10526227 0.06241824 0.05822428 0.049297687 -0.025115188
-0.05411084 -0.02283938 0.010009845 0.08094051 -0.005276132 -0.00017389825 0.053194795 -0.11908932
0.111396424 0.07259529 -0.003885643 -0.023058904 -0.00018659109 -0.1289718 -0.07835902 0.103657864
-0.04872463 0.04045485 -0.08365477 0.029794844 0.011607926 -0.017285382 0.04346176 0.051654324
-0.03740647 -0.03342614 -0.06262934 -0.013865243 -0.02489562 -0.062801175 -0.09476766 -0.041161112

lstm.bias_hh_l0 f4 [256]
00000000: 7894 6bbd 99ea 8cbd 6bb0 af3d b083 053e
00000010: 049d ca3d 889c 2f3d 035a 9dbd c940 a73d
00000020: 8d95 523d 38e3 c5bd c395 d43c 0b8b 96bc
00000030: 8225 a63c 7504 cb3d 4e43 babd c357 ccbd
00000040: 85c6 89bd 8b96 353d 313e e6bd a129 e33d
00000050: 0aa8 bdbc 985f db3d d7e7 fe3d 2d03 443d
00000060: 785b c53c 2fea 813c 9ae3 c53d 4a97 a6bd
00000070: d3c1 63bd 2c6e 40bd 68f3 023e 95b5 c93d
00000080: ca5f 443d 5d11 353d 61ee e8bd ab71 813d
00000090: a8b5 91bd 438e 683d 7cdb a8bd f422 fcbd
000000a0: 869a 98bd 4474 65bd 22f2 813d 9030 f9bd
000000b0: 4596 b53d ff88 773d 6f4a 2fbd 2c94 90bd
000000c0: 6ec1 e7bd 2574 db3d e810 e73a 97f6 a0bc
000000d0: 0151 ccbd b243 64bd 6e4f 96bb 8834 7d3d
000000e0: 2a17 a6bd 3675 013d 393a cc3d 1465 4fbd
000000f0: 0e9f 083d c4fa ac3d 3423 433d 0674 20bd
00000100: d4bf 7b3c 5f1f ef3d 61a8 8cbd 3b57 c93d
00000110: 621a 84bc 39a6 ff3c 7246 d7bc 491e e9bd
00000120: b46f d3bc c8db adbd 8369 c23d daed c7bd
00000130: 97c7 a73d 53de cbbd bb9a 133e a9a3 943c
00000140: 91e1 85bb e655 f23d c8c0 40bd e5c1 debd
00000150: ba54 a23c 19be 333e d2f8 163d c9ac 143d
00000160: 9bd0 1b3e 1483 463d 9f7b 8b3d 1261 6b3d
00000170: 09b6 a3bd e77f a3bb 141b 923b 4823 29bd
00000180: 59c2 86bd 94d1 103d 5f49 a0bd 593f ebbd
00000190: f920 38bd d91f a2bd c85d 4ebd 95d7 e8bc
000001a0: a2d7 8e3d b012 083e 2417 6e3d a50d 27bd
000001b0: 6847 a03d f557 d13d 5f12 323d cdfa 4dbc
000001c0: f4a3 efbd b65f 1a3b b26e 023e 4757 923d
000001d0: eaf7 573d e6c0 1a3d 69c0 a8bd 61ab f93d
000001e0: dc9f a9bd 71a6 943d f1b1 213d b721 4cbd
000001f0: 7fab 543d bc52 e9bc e83f 463d 5887 263e
00000200: 4f6b d8bd e982 073b 9a30 973d 287a ba3d
00000210: 4dab 9b3d a05a 96bd ee4e 183c 319b a63d
00000220: b6a9 083d e27f 863d 53c8 183d a6b9 ac3b
00000230: 30b0 9cbd f883 90bd 3e32 c23c b35e 983d
00000240: c016 01bd 584d 72bd 0b6a 833d 89ea 34bd
00000250: 24d0 f339 69e7 503d 2c01 a8bc 3acc b13d
00000260: f885 b93d 73d5 56bc c408 9dbd 292f 57bd
00000270: 8935 0d3d 477b abbd 3ed8 94bd 1539 76bd
00000280: 4662 e93d edbd e53c f4b5 8cbd 5e22 293d
00000290: c589 9ebd 8861 c3bd 93ed bbbd b3e0 debd
000002a0: c2c9 a3bd 2005 ba3d 152b e03d 1730 d03d
000002b0: 7832 4f3c a14f dabc b07e ad3c 7edc d5bd
000002c0: 9bc2 ae3d dc65 a33d db2f d03d e181 f03d
000002d0: dd76 d93d 2861 113c 69cd debd dd3c 86bc
000002e0: 9339 97bd d1a5 ac3c 39ea 523d fdfe a03d
000002f0: d673 e33d 8465 e1bd c854 a8bd 9f3f f5bd
00000300: d83e 3cb9 d773 f4bd c0f3 a73d f074 db3c
00000310: f62e 9d3d 1e32 083d 0d8f 5cbd bc50 c2bd
00000320: ddb6 4e3d 9366 d23c b8a0 003e 7ce6 edbd
00000330: 3877 72bd 9850 913d afff e03c 6d06 d5bd
00000340: cc96 72bc 661c 9639 9c57 a9bd bb07 ecbd
00000350: 3bd0 563d 6ffa 113c 9a95 553d 61af 073e
00000360: cc25 aebc 835e 8b3d 5029 113d 3cae 8ebd
00000370: f9d9 8bbc 6759 d43c 8fc2 853d 64ec cabc
00000380: 2109 713b 117f e93d 504d 373d 8e7a 77bb
00000390: d68a 6e3d d458 9d3d 2995 91bd b229 7dbc
000003a0: 9158 80bd 541c 82bd 4813 123c 01a0 e0bd
000003b0: d6c5 b9bd 95eb ca3d 3deb e93d da67 b9bd
000003c0: a744 f4bd 75a1 85bd f2a6 3f3d db61 a2bd
000003d0: 69ce 79bb ec6b 143d d827 b23c f0c3 02bb
000003e0: ecc1 80bc c719 af3c 89d8 a3bb bbdb ad3c
000003f0: 311f 6a3d a879 febc 6462 693d 3aa2 4d3d
-0.057514638 -0.068806835 0.08578571 0.13038516 0.098932296 0.04287389 -0.07683184 0.08166654
0.051412154 -0.09662479 0.025950318 -0.018376848 0.020281557 0.099129595 -0.090948686 -0.09977677
-0.06727318 0.044333022 -0.11242331 0.110919245 -0.023151416 0.107115924 0.12446564 0.04785459
0.024091467 0.015858738 0.09662552 -0.08134325 -0.055604767 -0.046980068 0.12788165 0.09849087
0.047942914 0.044206012 -0.11373592 0.063205086 -0.07114726 0.056776296 -0.08244988 -0.12311354
-0.07451348 -0.056019083 0.06345011 -0.12167466 0.08866552 0.060433384 -0.042795595 -0.070595115
-0.11316191 0.10715512 0.001762894 -0.019648833 -0.09976388 -0.05572862 -0.0045871055 0.061817676
-0.08109887 0.03160592 0.099720426 -0.050633505 0.03335481 0.08446267 0.047640994 -0.03917315
0.01536556 0.116759054 -0.06868053 0.09831091 -0.016125862 0.03120719 -0.026278708 -0.113827296
-0.0258101 -0.084891856 0.09492781 -0.097621635 0.081923656 -0.09954514 0.14414494 0.018144445
-0.0040857275 0.1183279 -0.04705885 -0.10876826 0.019815791 0.17552985 0.036858387 0.036297593
0.15216295 0.04846485 0.06810688 0.05746562 -0.07993705 -0.0049896124 0.0044587944 -0.041293412
-0.065800376 0.03535612 -0.078264944 -0.11486692 -0.04495332 -0.07916231 -0.050382406 -0.02842311
0.069747224 0.13288379 0.058127537 -0.040784497 0.0782612 0.102218546 0.04347455 -0.012572003
-0.117011935 0.0023555583 0.1273754 0.07145553 0.052726664 0.03778162 -0.08239824 0.12190891
-0.08282444 0.07258309 0.03947634 -0.04983684 0.051921364 -0.028481834 0.04840079 0.16262567
-0.105673425 0.0020677394 0.07382317 0.09105331 0.076010324 -0.07341504 0.009296162 0.08135069
0.033364974 0.065673605 0.03730042 0.0052711545 -0.076507926 -0.07056421 0.023705598 0.074399374
-0.031515837 -0.059155792 0.064167105 -0.044168983 0.0004650365 0.05100194 -0.020508371 0.08681531
0.09058756 -0.013112414 -0.076676875 -0.05253521 0.034474883 -0.08373123 -0.072678074 -0.06011303
0.11395697 0.028044665 -0.06870642 0.04129254 -0.07741121 -0.09540087 -0.09176173 -0.10882702
-0.079974666 0.09083009 0.10945717 0.101654224 0.01264631 -0.026649298 0.021178573 -0.10442446
0.08533212 0.079784125 0.10165378 0.117435224 0.106183745 0.0088732615 -0.10879023 -0.016386444
-0.07384028 0.021075161 0.051492903 0.07861135 0.11106078 -0.11005691 -0.08219296 -0.119750254
-0.00017952488 -0.11936157 0.082007885 0.026789159 0.07674973 0.03325092 -0.05384736 -0.09488055
0.05046736 0.025683677 0.1256131 -0.11616227 -0.059195727 0.0709545 0.02746567 -0.10401616
-0.014806461 0.00028631388 -0.08268663 -0.11524912 0.052444678 0.008909806 0.052144624 0.13250495
-0.021258257 0.06805136 0.03543979 -0.06966826 -0.01707171 0.025921537 0.0653125 -0.024770923
0.0036779123 0.11401189 0.044751465 -0.0037762257 0.058237873 0.07682958 -0.07108528 -0.0154518355
-0.06266893 -0.063530594 0.00891573 -0.10968018 -0.09070937 0.09908215 0.11421821 -0.09053011
-0.11927157 -0.06524936 0.04679007 -0.07928821 -0.0038117415 0.036235735 0.021747515 -0.0019953214
-0.01571747 0.021374596 -0.0050001782 0.02122294 0.057158653 -0.03106387 0.0569786 0.05020354

lstm.weight_ih_l1 f4 [256, 64]
00000000: 05ba b53d cb60 dc3c 633d 523c 1e69 5b3d
00000010: 3cf2 db3c 5f8f 713d 6f7a 9f3d 9dea e33d
00000020: bcbe c83d 90cd 1f3d 0741 ddbd 6611 a2bb
00000030: 48c8 12bd faba c6bd acca 91bc 6e3a c43d
00000040: ab8c d63d ae3b 03be fa22 81bc 6f45 84bd
00000050: 71f8 d73c 7841 4abd bc98 cebd d2d5 98bd
00000060: c982 a33d a017 29bc e839 a8bd 04f9 e23b
00000070: f3f5 c4bd e938 c3bd 070e c8bd de13 9abc
00000080: 23e8 b3bc a6f9 453c a05e 7c3d 6176 a53d
00000090: 0e52 fabd 63c7 35bd ec05 b73d 20c8 013d
000000a0: ddf4 fd3c d43e 9e3d 0a51 bf3c 5fda 07bd
000000b0: 0d75 973d 316f 7e3d 5224 b13d e3bf a8bd
000000c0: ee63 623d 6a32 36bd 0dab 2fbd d678 abbb
000000d0: bb37 a9bd 80f5 813c 6e3e cf3d 7b8b c43d
000000e0: 74ad d1bd 2333 34bd 38f2 fa3d 3719 cabd
000000f0: a12a 2abd fa36 5ebd a9e2 8cbd 4c32 68bc
00000100: 1f70 b33d bb5a c3bd 46d2 9dbd b779 133d
00000110: 9ddb a9bd b7ed 633d 9e18 d13d 12cc 743d
00000120: cbb3 0c3e 2a71 cfbd 9e58 b33d 53c4 2dbc
00000130: 211f d5bc 3331 94bd 7572 6abc ce20 ca3d
00000140: d60f c9bc 9db2 5b3b 5ef5 e63d 86ee 07be
00000150: 8d2a cbbc 765c 0c3d ca62 a2bd 5f57 343b
00000160: 418d 223c 754c b5bd d2ac f43c 7115 123d
00000170: d460 66bd 7a23 ccbd 6957 c13d e1dc ae3d
00000180: 5ce8 ebbd e2e3 09bc 7fd7 053e f8b9 fabd
00000190: c145 ad3d 5ca4 f5bd c682 e1bc 0c7e bcbd
000001a0: 148f 413c 5c84 47bc 071a e33b 244c a73d
000001b0: 9077 f53d 5a6e adbd 3cda 0abe d290 aabd
000001c0: 8af7 f43c 112c f83b 6748 a83d ac9a 173d
000001d0: e211 293c 3716 053d dc0f ffbd 9289 043e
000001e0: 6f00 88ba 40e8 9f3d 83e4 c73d b774 d13d
000001f0: 82aa c33d d237 053d 1199 10bd 0e84 a5bd
00000200: 17ce 95bd 52e8 2b3c 62d4 6e3d 35a1 a339
00000210: 55a8 1ebc a578 1d3d 2bdf ccbd abb3 7dbc
00000220: 6a47 c8bd 8c0b 04bd 4b2d 353d 37fd 8d3d
00000230: 1f86 933d c208 25bd 7238 0a3c c7c0 9abb
00000240: 5664 b23b 5364 573d 9c85 a1bd eb82 273d
00000250: 3505 ed3c 0b88 b0bc f1d4 e33b 7178 993d
00000260: d597 b9bd 997d 973d 256a b93d 99d9 b73d
00000270: 9ad6 d2bd 1e67 2c3d a140 9d3d d06a 8dbd
00000280: c818 8bbd bd1d ea3d 33b6 76ba 5f2f 5dba
00000290: feda ae3b 87e6 98bc 153b 203d ad53 fabd
000002a0: 1394 0abd a854 dbba 17aa 97bd 4a1e 34bd
000002b0: 0187 c93d 7dbd fabd d589 62bd dce0 a2bd
000002c0: b98e ba3d eaf9 8dbd 8a9f 023d ba35 82bb
000002d0: 32b8 07be 9935 54ba 95ef dbbd 198a 0fbc
000002e0: 987d 10bd a06b d4bd b423 03bc 9452 c4bc
000002f0: 2b25 ce3c a516 5f3d 649b ddbc 46f4 2abd
00000300: 8e07 e23c 4f3b 803c 6172 593b c3c2 f83c
00000310: 5237 0e3d 71f7 81ba 48ac aebd 40a4 bebd
00000320: 0793 e63d 1503 153b f171 a33d 43f1 85bc
00000330: cc1a 963d 5f45 c4bd c3bb 8a3b 23d2 6ebd
00000340: 1048 babd 20fd a83d b698 8ebd f03a af3c
00000350: d5ae ac3d 3ea5 e7bd 28f5 aebd 3033 1fbc
00000360: bf6b 8d3d bbb1 763d 58c8 313d ca24 a3bd
00000370: 6710 213d ad37 7d3d 7aa6 b9bd 84eb bf3c
00000380: 3b0f 843d 4c3b e03d 1f83 1c3d bbfe f63b
00000390: 18ff 36bd 3a0e a13d 6992 f9bc 3d23 e3bd
000003a0: cdb6 893c 2a0b 46bd da2a 8dbc 2a58 2d3d
000003b0: 1bf1 9a3d dc79 403b ed9e e43d 9244 e13d
000003c0: 300e 39bd 8638 c4bd 6548 83bd 7cf0 6bbd
000003d0: 0ec9 a2bb 433d 35bb 336e d8bd faaf d83d
000003e0: 6aca 253d 2bbc 743d 2654 8e3d 3a6b 15bc
000003f0: e5a9 e53d ccc1 343c 515c 94bd c0b4 a33d
0.08873371 0.026901623 0.012832019 0.053567044 0.026848905 0.05897462 0.07787024 0.11128733
0.09802005 0.0390144 -0.108034186 -0.0049459217 -0.035835534 -0.09703632 -0.017796837 0.09581457
0.10476049 -0.12815735 -0.015763748 -0.06458556 0.026363583 -0.049378842 -0.100877255 -0.07462658
0.0798393 -0.010320574 -0.0821417 0.0069266576 -0.096172236 -0.09532339 -0.097683005 -0.018808302
-0.021961277 0.012083447 0.06161368 0.080792196 -0.12222682 -0.044379603 0.089366764 0.031684995
0.031000549 0.07726827 0.023354072 -0.03316724 0.073953725 0.06211776 0.08649506 -0.082397245
0.05527108 -0.044481672 -0.042887736 -0.0052329106 -0.08262583 0.015864134 0.101193294 0.09596916
-0.10238162 -0.04399408 0.12253231 -0.098680906 -0.04154456 -0.05425165 -0.068791695 -0.014172148
0.0876162 -0.0953879 -0.07706122 0.03600475 -0.08293841 0.055646624 0.102097735 0.05976493
0.1374046 -0.10129006 0.08757137 -0.010605889 -0.02601582 -0.072359465 -0.014309515 0.09869538
-0.024543684 0.003352321 0.11277269 -0.13274583 -0.024800563 0.034267865 -0.07928999 0.0027517898
0.009921373 -0.08852474 0.029867563 0.03566498 -0.056244686 -0.09967704 0.094405 0.08538223
-0.115189284 -0.008416148 0.13070486 -0.12242502 0.0846057 -0.1199424 -0.027528178 -0.09203729
0.011813898 -0.012177553 0.006930593 0.081688195 0.11985695 -0.084683135 -0.13559812 -0.083284035
0.029903192 0.0075736125 0.08216935 0.03701274 0.010319205 0.03249189 -0.12454197 0.12943104
-0.0010376106 0.0780797 0.09760382 0.1022734 0.09554006 0.032523938 -0.035302226 -0.08081828
-0.07314699 0.010492401 0.058308013 0.0003120989 -0.009683688 0.038445134 -0.100035034 -0.015484731
-0.09779246 -0.032237574 0.044232648 0.069330625 0.07203316 -0.040291555 0.008436309 -0.004722688
0.00544409 0.05258591 -0.07886812 0.040896337 0.028933147 -0.021549245 0.006952875 0.074936755
-0.09062163 0.07397003 0.090534486 0.0897705 -0.10294838 0.042090528 0.076783426 -0.069051385
-0.06791836 0.114314534 -0.0009411305 -0.000843754 0.0053361645 -0.018664612 0.039118845 -0.12222991
-0.03383262 -0.0016733604 -0.07405489 -0.0439742 0.09840203 -0.12243173 -0.055307228 -0.07953045
0.091092534 -0.06932433 0.03189043 -0.00397369 -0.13253859 -0.0008095145 -0.10739056 -0.008760952
-0.035276026 -0.1037209 -0.008004118 -0.023965158 0.025164207 0.054464955 -0.027051635 -0.041736864
0.027591493 0.01565328 0.0033179747 0.030366307 0.034720726 -0.0009915662 -0.08528954 -0.09308672
0.11258512 0.0022737433 0.07980717 -0.016350394 0.0732933 -0.09583544 0.0042338087 -0.05830587
-0.09095776 0.08251405 -0.06962721 0.021390408 0.08431784 -0.11310814 -0.085428536 -0.009716794
0.069053166 0.06022809 0.043403953 -0.07966001 0.039322283 0.061820675 -0.09064956 0.023427732
0.064482175 0.1094881 0.038210984 0.0075376905 -0.04467687 0.078640416 -0.030465322 -0.110907055
0.016810799 -0.04835049 -0.017232347 0.042320408 0.075655185 0.002936951 0.11163125 0.10999407
-0.045179546 -0.095810935 -0.064102925 -0.05760239 -0.0049678152 -0.0027654923 -0.10567894 0.1058044
0.04047624 0.059749763 0.06949644 -0.009119803 0.112140454 0.011032533 -0.072441705 0.0799346

lstm.weight_hh_l1 f4 [256, 64]
00000000: 821b 97bd 46b5 dcbc f8c1 ca3b a56a f3bd
00000010: 657a 273d 7e62 d73d d32b d0bc 1fe3 883d
00000020: eb41 d03d ee5e 89bd 0e00 8f3c 2646 d7bd
00000030: f8df abbc 8442 c2bd 27d4 4dbc a94a 3ebd
00000040: e777 62bd ef88 65bc 53f5 4dbd 9e82 673d
00000050: 8c85 04bd 15f3 8bbd c582 c9bd 1bcf 3a3c
00000060: 9190 cdbd 9760 d63b 13fc 573d df6b 8a3d
00000070: 205c 563d 8ae1 c0bd 40f4 26bc fb79 8d3d
00000080: 1398 ab3d 1954 973d 608e febd e693 74bd
00000090: 9a68 57bc 64a0 ccbd 6ed2 0f3e 9262 d43d
000000a0: c145 56bd cb39 cb3c 73d3 0fbe 20ee 153c
000000b0: 2c57 2ebd 660a 263d 122c 0bbd 1474 363d
000000c0: 9910 41bd 1435 b6bd c27d b13d 9b49 763d
000000d0: 29ea ae3d 76c2 c6bd 61a5 c83b cb8c a1bc
000000e0: b604 1f3d dddb 0fbc 51c9 c83d 71d9 943d
000000f0: 09f7 31bd f8f5 adbc 5487 edbd f186 a0bd
00000100: 2c37 71bb f57d 09be 31a0 a9bc 7474 0d3c
00000110: 1e22 143e 56d5 af3d 1f29 9ebd 6df8 a6bd
00000120: 1810 25bd ad28 8fbd 1580 d73b ec47 adbd
00000130: bcb1 55bd a167 c9bd 52c3 083e fabc d03b
00000140: d2e8 bbbd 9c62 f73a 6937 8abd 8818 92bd
00000150: cd9e 25be 9027 05be f19c 76bb 8121 97bd
00000160: d8f2 ea3d 2375 533d 5c48 e63d af4a 183e
00000170: 1d37 af3d 8a2d 6a3c b0f6 64bc b208 c5bd
00000180: 6fb8 1b3e caa3 823c 44b7 103d 784f e63b
00000190: b8a3 50bd 4b61 6e3d e2b0 e5bd 139e 7dbd
000001a0: fd02 b6bc d8e3 a1bc b0c2 843d be98 82bd
000001b0: f07a 54bd ef34 843d dc74 373d 566b 14bd
000001c0: 6193 d83c cee9 143e 336a 3d3c 966c b4bd
000001d0: db1e bb3c 6a83 dbbd 262f 233e 29f2 2d3d
000001e0: 30bd 8c3d 5c39 84bd bc33 0fbd 3cd0 e8bd
000001f0: 6748 b9bd 7440 bb3d ac88 88bd 5e73 e1bd
00000200: c3db c63d d09f c53c 96e1 bc3d 3eea b5bc
00000210: 3e5f 3abd 288e ef3d f527 31bd f84c 48bd
00000220: 9fac c43d eca9 c3bb a1cc 1abc 32e4 0a3d
00000230: 6201 dc3d 3d8f a8bd fe51 a1bd b649 06bd
00000240: add6 f7bb c6ba f83d c2d3 76bd 6b82 a5bd
00000250: 8e0b ab3d 103d 9cbd 3c59 9abd ea32 7e3c
00000260: 404f 493d 5a29 a5bc c81e e13d bcd2 573c
00000270: d2f4 f2bd 4c29 e0bd 545a 713c 9ecc 00be
00000280: ae00 f03d 7609 713d 7fe7 203d d6ec fbbd
00000290: 4b20 943c 0e06 efbd 1b5c d73d 0288 f5bd
000002a0: 4dde 3cbd d578 cfbd 5366 a93c 1d89 e03c
000002b0: 8bf0 b63c 564d e73a 1bbf 36bd d012 6d3c
000002c0: f72b a8bd 1258 c63d b222 e23d e73e 9dbd
000002d0: 3f44 ccbd 5aa7 93bd 906e 9c3d 1c6c 043c
000002e0: 16e5 87bc 2edb c9bc 3525 6b3d b5c8 e03d
000002f0: 64e5 b63c 8482 553d 9ece 4dbb c7e6 b9bd
00000300: 215d d5bc 223f fe3d 4705 223d 4daf a7bd
00000310: 26e5 aabd 7c0b 943c 2fe6 9abb 8bbe 453d
00000320: e710 e23d 6f16 8d3d 6668 85bd 9071 bc3d
00000330: b8f2 c03d d63a 13be e367 a7bd 7ba0 ec3d
00000340: 9df1 fd3d 2d1b 103e 7000 a83d 937c 8e3d
00000350: 62c0 a13d 694a c53d 168e a2bc 1ea0 8c3d
00000360: 0d3b 283d 0210 d8bd 5cc7 043e b3a9 6abd
00000370: e377 8dbd e9d1 a5bd 8fd6 db3d da44 50bd
00000380: ef46 a2bd 208b c1bd 686e f43b f206 623d
00000390: c01e 983d 8f21 48bd 53d2 dbbd 5b8a d6bd
000003a0: 6716 0bbe 7c47 aebd 45e8 393d b8cc 003d
000003b0: e2c1 0cbd 8f6e 4bbc a872 033d 744a cd3d
000003c0: b8a8 213d c208 5f3d 9878 963d d62c 753d
000003d0: 9679 4fbd d3bc 82bd 5830 013e 6524 f4bd
000003e0: 5d8b 72bc e856 0dbe d47f d3bc e64c 22bd
000003f0: bf35 7fbd 6514 debd a375 8e3d 395b cabc
-0.073782936 -0.026941907 0.0061876737 -0.11885575 0.04088821 0.10516833 -0.025411522 0.06683945
0.10168823 -0.067075595 0.01745608 -0.10511427 -0.02098082 -0.09485343 -0.012562788 -0.04645792
-0.05529013 -0.014009698 -0.050282788 0.05652105 -0.032353923 -0.068334736 -0.098393954 0.011401917
-0.100373395 0.006542276 0.05273063 0.06758856 0.05233395 -0.09418018 -0.01019007 0.069080316
0.08378615 0.07389087 -0.124294996 -0.05971136 -0.013147498 -0.099915296 0.14045116 0.10370363
-0.052312616 0.024807831 -0.14045505 0.009151012 -0.042563602 0.04053726 -0.033977576 0.044544294
-0.04713497 -0.088968426 0.086665645 0.06012879 0.08540756 -0.09705059 0.0061232303 -0.019720456
0.038822852 -0.008780447 0.09804023 0.07268036 -0.04344848 -0.021235451 -0.115980774 -0.07838238
-0.0036806567 -0.13426955 -0.020706268 0.008633722 0.1446614 0.085856125 -0.07722687 -0.08152852
-0.04029855 -0.0699018 0.006576548 -0.08460984 -0.052171454 -0.09834219 0.13355759 0.006370184
-0.09175266 0.0018873992 -0.0674885 -0.07133585 -0.16173859 -0.13003373 -0.0037630165 -0.07379437
0.114721 0.051625382 0.1124427 0.1487224 0.08555434 0.014293084 -0.0139748305 -0.09620799
0.15207075 0.015947241 0.035331026 0.0070285164 -0.050937384 0.058198255 -0.11215378 -0.06191833
-0.022218222 -0.019761965 0.06482446 -0.063767895 -0.051875055 0.06455409 0.04478918 -0.036235176
0.026437463 0.14542314 0.011560964 -0.088097736 0.022841861 -0.107184246 0.15935954 0.04246727
0.06872022 -0.06456253 -0.034961447 -0.113678426 -0.09047013 0.09143153 -0.06666693 -0.11008333
0.09709885 0.024124056 0.092227146 -0.022206422 -0.045500986 0.11697036 -0.043250997 -0.048901528
0.09603237 -0.005971184 -0.009448201 0.03390903 0.10742451 -0.082304455 -0.07876967 -0.03278514
-0.007563433 0.12144999 -0.06026054 -0.08081516 0.08351813 -0.07628834 -0.07536551 0.015515069
0.049147844 -0.02016132 0.10992199 0.013172802 -0.11863102 -0.10945377 0.014731009 -0.12578055
0.1171888 0.058846913 0.039283272 -0.12301032 0.018081805 -0.11671077 0.105156146 -0.11988832
-0.04611044 -0.10130469 0.020678675 0.02740913 0.022331497 0.0017646949 -0.044615846 0.014469817
-0.08211511 0.09684767 0.11041774 -0.07678013 -0.099739544 -0.07209654 0.076382756 0.008082416
-0.016588729 -0.024640646 0.05740853 0.10975782 0.022326179 0.052126423 -0.003140367 -0.090772204
-0.026045384 0.124143854 0.039555814 -0.08187733 -0.08344488 0.018071882 -0.004727147 0.04827742
0.1103838 0.068890445 -0.06514053 0.09201348 0.09421295 -0.14377913 -0.08174112 0.11554047
0.123996 0.14072867 0.082032084 0.069573544 0.07898022 0.09633333 -0.019843142 0.068664774
0.04107194 -0.10549928 0.12966675 -0.057290744 -0.06907632 -0.08096678 0.10734283 -0.050846912
-0.07923686 -0.09450364 0.0074594505 0.055182405 0.0742774 -0.04886013 -0.107334755 -0.10475608
-0.13582765 -0.08509728 0.045387525 0.031445235 -0.03436459 -0.012416496 0.032091767 0.100239664
0.039467543 0.05445171 0.0734722 0.059857212 -0.050653063 -0.063836716 0.12616098 -0.11921004
-0.014803735 -0.13802683 -0.02581779 -0.039624117 -0.062307116 -0.10843734 0.06956031 -0.024701701

lstm.bias_ih_l1 f4 [256]
00000000: a10f ea3d 707a 193e 0d05 023e e69a a3bd
00000010: 2444 6f3c c69f d3bd e58c e53d 5954 16bd
00000020: 3c68 ed3d a4a2 df3c 082e b3bc 7f12 72bd
00000030: 8c2e 823d 4aba ba3d 8be4 debc 8d16 b43d
00000040: eef2 c63d a674 60bc d063 eabc 54fb b93c
00000050: 8404 003e dded 19bd 07d3 90bd 49d2 ac3d
00000060: 0c68 edbc f4cb 5e3d a4e9 4c3d 188d 1a3c
00000070: ed4f 513d e576 99bd d2e8 cebd 01f7 35bd
00000080: 33fc 843d 3d2d be3d af1f 763d f760 f5bd
00000090: fba4 aabc 54c8 d5bd dfcd 6d3d c1a4 ff3c
000000a0: 56cd c43d 84b2 f13c 48cc c23d 7c7f c0bd
000000b0: cf49 273d 8c89 a73d 7694 d8bd 3a0a c23d
000000c0: 71b4 20bc 0a90 8e3c 9f91 ac3c 8ac6 023d
000000d0: bec2 f3bc 96f9 3b3b acf4 313d 29c3 8bbd
000000e0: 01d5 67bd 626e 92bd 3145 31bd 204d 02bd
000000f0: 68fd a5bd 8fcd efbd 7a65 a13d 9081 9f3d
00000100: ee00 8fbc bc9c c7bc bbed efbc 7c67 9e3d
00000110: 9f02 f63c 33df 5a3c e386 a63d 96d4 e23d
00000120: 9d08 04bd 4987 08bd 8fe1 90bc fb01 633d
00000130: 83f1 09bd a0fc 9a3d 5950 d13d d6f1 073e
00000140: efd1 57bc a8d1 893d c27c 43bc d400 abbd
00000150: a22d 0cbd 6c5c 9bbd 057e f33c 5547 a6bd
00000160: 53e0 da3d e7b8 92bd 7673 e33d c790 253e
00000170: 8b96 14bd 0efa bf3d b16c 6a3c 8642 08bd
00000180: 84c6 a43d f606 85bd a15d ce3d 410e 053d
00000190: fb2f 6a3d 6d91 a2bd 7da6 a0bd 804e d4bd
000001a0: 049b 283d 81c4 ff3d 2d5e 183d f4ac 05bc
000001b0: 680c 5339 ae70 51bc 3a5c 323d 58ce dbbd
000001c0: 61a7 0e3d df32 a7bd 1533 913c 86bc ac3c
000001d0: 9470 a6bd ab69 083e 736f 2abb 6d8d 403c
000001e0: 8b1c 153e 19d0 fd3d 64c8 2b3d 8377 573d
000001f0: b3a6 88bd d598 b23d 0488 93bd 2b5d 81bd
00000200: 2d25 843c 5a12 603d 37cb b63c 77f2 8abd
00000210: 12c0 743c 29b6 b73d 8757 5b3d 31a8 2d3d
00000220: e7e0 76bd 6b4b 16bc 35b2 753d 2279 8e3d
00000230: 65bf 7abd 4402 76bd 5af6 a63d 927b 54bd
00000240: f9b1 943c 6692 20bd 9969 9bbb 3b16 5d3c
00000250: 46c6 d5bd 978c a4bc 3a76 973c fb9c 4f3d
00000260: 402b 2abd ab1a 04bd a5c9 dc3d 1503 c3bd
00000270: 44da eabd 5fde 48bb 8675 a23a 80a8 0fbd
00000280: 2b65 ff3c 8311 01be e09d 51bd 12ed 853d
00000290: 737a 1dbb 355d cabd 27a1 0abd bf7b 1fbd
000002a0: dc88 313d 4ecd e43d d0b3 293d 3b2b 0c3c
000002b0: 8df2 873c f443 7dbd dc18 b33c 0ff8 6ebd
000002c0: b3c7 ba3d afd5 693b 5048 98bd 7a37 87bc
000002d0: 7890 8dbd d784 e73d 00a1 703d feaf babd
000002e0: 1b6a 843d b7cd ec3a c7bf edbd 40c8 0bbe
000002f0: 1a8d 5ebd f757 46bc 3afd 00bd 4b12 b63d
00000300: 3e32 c9bc a60b 6a3d 1eff f6ba 55c3 9ebd
00000310: ed5b 963d 6945 f33d 94f4 eb3d 3859 73bd
00000320: cdd9 87bd 8bc5 d83d b381 063b 610c 8a3d
00000330: ca19 28bd 1973 c43d 0f98 d63d e93d f03b
00000340: 9a42 18bd e368 91bd edb0 ebbd 112b f23d
00000350: 4a9b 623d 2897 553b 3499 1c3c 6a56 403d
00000360: f41a e3bd 807d 163d 50b4 1abd 8447 b33d
00000370: f9ca 93bc 7a25 d73c 1056 c43d d0f8 95ba
00000380: 3abe 283d 32f0 a6bc 99a6 dd3d e7ce 17bd
00000390: 0fec 3fbd 5e52 fb3d fac2 b0bd c746 8dbd
000003a0: 1c08 9f3d 8ded ba3d 6789 a93d af89 843d
000003b0: c821 0b3d e43f 0c3b 7913 e8bc 5ebd d5bc
000003c0: 6f3e c8bd fb01 44bd 4449 63bc d167 be3c
000003d0: 2c63 6ebd d6cc f23d f5f9 68bc c41c 17bc
000003e0: 0788 30bc 8f72 8dbd d4e6 2ebd b8ca d43d
000003f0: 3fad 88bc a555 03be b394 9ebd e1bf 043d
0.11428762 0.14988112 0.12697239 -0.07988529 0.014603648 -0.10333209 0.11208514 -0.036701534
0.11592147 0.027299233 -0.021872535 -0.05909967 0.06356534 0.09117563 -0.027208587 0.08793364
0.09714304 -0.013699686 -0.028612047 0.02270285 0.12501723 -0.03758036 -0.070715 0.08438546
-0.028980277 0.054393724 0.050027505 0.009433053 0.051101614 -0.074933805 -0.10103001 -0.044425014
0.06493416 0.09285972 0.06008881 -0.11981385 -0.020830622 -0.104386 0.058057662 0.03120649
0.09609477 0.029504068 0.0951162 -0.09399316 0.040841874 0.08180532 -0.10575192 0.09474607
-0.009808646 0.017402668 0.021065531 0.031927623 -0.029755946 0.00286827 0.043446228 -0.06824333
-0.05659962 -0.0714996 -0.043278877 -0.031811833 -0.08104974 -0.11709129 0.07880683 0.07788384
-0.017456498 -0.024366729 -0.029288163 0.07734582 0.030030547 0.013358879 0.08131196 0.11075704
-0.032234777 -0.033332143 -0.01768568 0.05542181 -0.03367759 0.07567716 0.10220403 0.13275847
-0.013172611 0.06729442 -0.0119316 -0.08349767 -0.034223206 -0.075859874 0.029723177 -0.08119074
0.10687318 -0.071641736 0.11106007 0.1616851 -0.03627638 0.09373866 0.014308141 -0.033266567
0.08045676 -0.06495468 0.10076452 0.032484297 0.057174664 -0.07937894 -0.07844255 -0.10366535
0.04116346 0.12488652 0.037199188 -0.008158911 0.0002012715 -0.012783213 0.043544985 -0.10732716
0.034827594 -0.08164 0.017724553 0.021085989 -0.08126941 0.13321559 -0.002600637 0.0117524685
0.1456167 0.12393207 0.041939154 0.05260421 -0.0667242 0.08720557 -0.07203677 -0.063165985
0.016131008 0.054705 0.022313697 -0.06784528 0.014938371 0.08970291 0.05355027 0.042396728
-0.060273077 -0.0091732545 0.059984405 0.06956698 -0.061217684 -0.060060754 0.081524566 -0.05187566
0.01815127 -0.039202116 -0.004742813 0.01349407 -0.10438208 -0.02008657 0.018488992 0.050686818
-0.041545153 -0.032251995 0.10780648 -0.09522072 -0.11467412 -0.0030650122 0.0012394644 -0.035072803
0.03117617 -0.12604336 -0.051175952 0.06539358 -0.0024029284 -0.09881059 -0.033845093 -0.038936373
0.04334341 0.11171971 0.04143125 0.008555229 0.01659515 -0.061832383 0.02186244 -0.058342036
0.09120121 0.0035680344 -0.074356675 -0.016505945 -0.06912321 0.11304634 0.05874729 -0.09115599
0.064655505 0.0018066679 -0.11608844 -0.13650608 -0.054333784 -0.012105933 -0.031491496 0.08890208
-0.02456009 0.057140015 -0.0018844341 -0.077521004 0.07341752 0.11878473 0.11521259 -0.059411258
-0.06633339 0.10584553 0.0020524084 0.06740642 -0.04104022 0.09592266 0.104782216 0.007331599
-0.03717289 -0.07100084 -0.11508355 0.118246205 0.055323876 0.0032591317 0.009558011 0.04695741
-0.11089125 0.03674078 -0.037769616 0.08753875 -0.01804112 0.026262987 0.095867276 -0.001144195
0.04119704 -0.020378206 0.108227916 -0.03706255 -0.046855982 0.1227157 -0.08630939 -0.06898265
0.077652186 0.091273405 0.082781605 0.064715736 0.033967763 0.0021400386 -0.028329598 -0.026091274
-0.09777533 -0.04785345 -0.013872448 0.023242863 -0.058200046 0.118554756 -0.014219751 -0.009223167
-0.010774619 -0.06906616 -0.042700604 0.10390228 -0.016684173 -0.1282564 -0.07743206 0.032409552
