output/LSTM2CNN/LSTM2CNN_adam_64_1000/model/LSTM2CNN_epoch_557.pth (torch, 353538 bytes, 16 tensors)

lstm.weight_ih_l0 f4 [256, 11]
000000 ac 16 59 bd eb a5 99 3d 9b 8c 10 bb a7 83 01 bd
       -0.053000137 0.075023495 -0.0022056464 -0.031619694
000010 35 91 d6 3d b7 66 bc bd 4e a3 9e 3d 0f 04 52 3b
       0.10476915 -0.09199279 0.07745992 0.0032045876
000020 32 e7 6e 3d 24 10 83 bc 70 7e 52 ba b7 fa cf bd
       0.058325954 -0.015998907 -0.0008029705 -0.10155242
000030 4d ed f2 bc 13 5a f9 3c 45 f5 24 3d f8 6d db bd
       -0.02965417 0.030438459 0.04027297 -0.10714334
000040 1d 9d 8b bd 0f e7 c4 3d c4 8b 89 bd 7d b2 42 bc
       -0.06817076 0.096143834 -0.06716111 -0.011883375
000050 6a ce ac bd eb ee a1 bc ee d5 01 3e cb 63 a3 3d
       -0.08437808 -0.019767245 0.12679264 0.079780184
000060 72 db df bd b8 cd 09 3c 25 73 a4 3d 32 4b 44 3d
       -0.10930528 0.008410864 0.080297746 0.047923274
000070 e5 08 fd 3d b2 39 0f 3d 8c 75 b6 bb 90 77 b4 bd
       0.12355212 0.034967132 -0.005568212 -0.08811867
000080 c0 92 f2 3d 02 65 af bd 9a 5f 9b 3d e7 ad 94 3d
       0.118443966 -0.085641876 0.07586594 0.07259732
000090 4e 39 ff 3c 46 02 8c 3d 8a 41 b1 3d 5d 6d bf 3d
       0.031155255 0.06836371 0.08655079 0.09347031
0000a0 8d ec 00 3e de 86 2c bd db 89 f4 3d 2b d3 f3 3c
       0.12590237 -0.042120807 0.11940356 0.029763779
0000b0 e9 59 5c 3d ab f1 80 3d 61 2a 25 bd df d6 fe 3d
       0.053796683 0.062960945 -0.04032362 0.12443327
0000c0 dc e4 72 bc 00 9e be 3d 19 46 4c 3d f9 77 17 bd
       -0.014825072 0.0930748 0.049871538 -0.03697965
0000d0 ff c5 40 3d 3b 56 d6 bc 0c 61 5a 3d 48 ac 03 3e
       0.047063824 -0.026164165 0.053315207 0.12858689
0000e0 bb 10 6a bd 22 3e ea 3d 20 d3 d9 bb c2 2d 0c 3e
       -0.05714486 0.11437632 -0.0066474825 0.1368933
0000f0 c3 71 ad bd 6d d5 69 3d 22 55 21 3d 9e a5 a8 3d
       -0.08468964 0.057088304 0.03938783 0.08234714
000100 a4 c5 72 3d fa 8b e3 3d 3b f5 86 bd bd ab 9f bd
       0.059270516 0.11110683 -0.06589743 -0.07796428
000110 01 3c ed 3d 9c 5d 07 be 6c 9c 4b 3c fa 40 a5 bd
       0.115837105 -0.13219303 0.012427431 -0.08069034
000120 74 c5 a6 3d e8 b7 45 bd b1 2f 87 3d ec 03 b0 3d
       0.0814313 -0.04827109 0.06600893 0.08594498
000130 29 07 57 3d ac 53 97 3d 38 74 89 bd ea 5a d1 bd
       0.052497063 0.07389006 -0.0671162 -0.102224186
000140 c6 8a b3 bd ad fc 75 3d 86 6a 81 bd 57 4d 00 3e
       -0.08766703 0.060055424 -0.06319146 0.12529503
000150 48 8d a7 3d 0e 4e 66 3d 6a 8d eb bd 56 63 a0 bd
       0.08181244 0.056226783 -0.11501582 -0.07831447
000160 62 5c cc bd fa c3 8d 3d e4 f4 dc bd 75 b0 62 bd
       -0.09978558 0.06922145 -0.10788897 -0.055344064
000170 13 cf 4a 3d b8 48 c3 b9 b3 17 62 bc 9a 8e 0e bc
       0.049513888 -0.00037247478 -0.013799596 -0.008700991
000180 fe 87 26 bc 9a b6 0e be 66 38 3b 3d dc 61 c5 bd
       -0.010164259 -0.13936844 0.045708083 -0.09637806
000190 d2 3d bd bc 71 00 3a 3d b4 89 ba 3d e2 c1 bc bd
       -0.023100767 0.045410577 0.09108296 -0.09216668
0001a0 e2 46 a8 3d cb 0f e9 bd dd 79 63 3c 92 d4 cf bc
       0.08216645 -0.113799654 0.013884035 -0.025369916
0001b0 83 35 ca 3a bf b5 a8 bd 7d a4 04 be 72 53 ce 3d
       0.0015427325 -0.0823779 -0.12953372 0.1007451
0001c0 08 d9 b9 bd 22 0f 0d bd 4e b3 a2 3c f2 45 00 be
       -0.090745986 -0.03443826 0.01986089 -0.12526682
0001d0 ca f3 b1 bd 68 fc b9 3d c3 d7 3a 3c 34 8e 97 3d
       -0.08689077 0.09081346 0.011403981 0.0740017
0001e0 f9 e4 a6 bd 29 49 99 bd 73 81 f2 3c bd 0f 8d 3d
       -0.08149142 -0.07484657 0.029602742 0.068877675
0001f0 4f 0c 56 3d 5d 3d 2a 3c 4a a2 e9 ba 7a 7f 93 3c
       0.052257832 0.010390607 -0.0017824855 0.018005121
000200 83 3e d6 bd 35 3b 8a bc 6e e6 7e 3c c1 32 ed bd
       -0.10461142 -0.016873935 0.015557868 -0.11581946
000210 5e 99 90 bd 89 57 c6 3d ad 6b ee 3d 27 f1 39 3d
       -0.070605025 0.09684665 0.11641631 0.045395996
000220 0d af 1e 3e 74 8e 9e 3d a2 4f a1 3d d0 15 c0 3a
       0.15496464 0.077420145 0.07876517 0.0014654938
000230 67 9e ec 3d 7e c4 42 bd 6e 9e 46 bd 52 ce ca 3d
       0.1155365 -0.04755067 -0.048490934 0.09902634
000240 ab 63 b6 bd 0d 1d d1 bd ee 3b 02 3e 91 d1 cc 3d
       -0.08905729 -0.10210619 0.12718174 0.10000909
000250 23 15 8b bd 43 85 b8 bd 54 fd f3 3c fe 69 8b 3d
       -0.06791141 -0.09009793 0.029783882 0.06807326
000260 59 9a 8e 3d 2a 22 95 bc 77 de fc bd 24 99 0e bd
       0.06963033 -0.018204767 -0.12347119 -0.034814015
000270 ac 5f c3 bd a3 1b 56 3d 43 af 08 bd 20 eb cf 3d
       -0.09539732 0.05227245 -0.033370268 0.101522684
000280 67 07 a0 bd 4a 77 cd 3d f8 ac 0f 3d d9 5d ab 3d
       -0.07813912 0.10032518 0.035077065 0.083675094
000290 8a f8 9a bd 87 07 91 bd 94 ac c4 bd 68 23 12 3e
       -0.07566936 -0.07081514 -0.09603229 0.14271319
0002a0 4c b0 d6 3d 37 66 21 bd 2a 97 1e 3d a6 85 ba bd
       0.10482845 -0.03940412 0.03871838 -0.09107523
0002b0 7f 35 75 bd ef 08 de bc 4e 94 b0 3d ef 82 11 bd
       -0.05986547 -0.02710387 0.08622037 -0.03552526
0002c0 a9 ca 4a 3d 21 7d a2 3c a4 e5 b6 bd d6 15 c2 bd
       0.049509678 0.019835057 -0.08930519 -0.09476821
0002d0 68 92 84 3d 62 6b 51 bd d1 08 1d 3d 57 80 39 bc
       0.06473237 -0.0511278 0.038338486 -0.0113221025
0002e0 ac 1d 79 3d 32 1c d5 3c 14 f5 3f bd 3d 44 b9 bd
       0.060819313 0.026014421 -0.046864584 -0.090462185
0002f0 20 09 bc 3d 32 1f a4 bd 7c 2e 9c 3a 89 b1 bd 3d
       0.09181428 -0.080137625 0.0011915709 0.09262378
000300 76 d9 88 bd 7f 1c eb bc f4 b3 39 bd 0f 7f 9b 38
       -0.066821024 -0.028700111 -0.045337632 7.4146425e-05
000310 15 48 c5 bd 45 ad e4 bd 25 df 36 bd a8 75 62 3c
       -0.09632889 -0.11165861 -0.0446464 0.013821997
000320 34 b6 a3 bd 06 3d b6 3c ae d6 d0 bd 0c 93 ba 3d
       -0.07993737 0.022245895 -0.10197197 0.09110078
000330 a7 94 f7 3a 6c e9 bd bd ef a9 52 3c 61 68 1a bd
       0.0018888906 -0.09273037 0.012857898 -0.0376972
000340 66 f8 0f 3d 06 62 57 bd 31 bb 92 3d 08 f0 96 3d
       0.035149 -0.052583717 0.0716461 0.07370001
000350 a5 df 1c bc a6 f0 5d 3d cf 61 4a bd 3f af af 3c
       -0.009574805 0.05418458 -0.049409684 0.021445869
000360 75 6a 77 bd 15 a1 9d bd e5 1f a7 bd 7a 88 1d bd
       -0.06040426 -0.076967396 -0.0816038 -0.038460232
000370 5f 49 72 3d 3f 45 a8 3c dc 93 4c 3c 7b 27 0b be
       0.059152003 0.020540832 0.012486424 -0.1358928
000380 1c 8b a1 bc cc 2f 2b 3c 86 95 b6 3d 69 89 e4 3c
       -0.019719653 0.010448407 0.08915238 0.027897554
000390 45 ae 95 3d ff 1e a6 bd 2c 2f d6 bc 85 74 80 3d
       0.0730863 -0.08111381 -0.02614554 0.06272224
0003a0 4e ed 40 bd ae 53 1f be b8 0c 81 3d 41 b3 32 bd
       -0.04710131 -0.15559265 0.06301254 -0.04362798
0003b0 c7 41 63 bc bd e0 d7 3d 3c cd 15 be 20 37 11 be
       -0.013870663 0.10540912 -0.14629072 -0.14181185
0003c0 04 19 91 bc 04 7c 7a bd a4 cf 62 bd 89 57 f2 bd
       -0.017712124 -0.061153427 -0.055373803 -0.11833102
0003d0 c5 3a a8 3c f4 bf e1 3d 27 d9 51 bc 6e d9 68 3b
       0.020535836 0.1102294 -0.012808121 0.0035529989
0003e0 85 ad 0e 3d 51 03 66 3d a9 b4 11 bd 59 15 aa 3d
       0.03483345 0.056155507 -0.03557268 0.08304853
0003f0 37 12 cc bc 08 c4 ec bd e2 e5 9b 3d 27 89 56 3d
       -0.02491103 -0.115608275 0.07612206 0.052376892

lstm.weight_hh_l0 f4 [256, 64]
000000 5e 20 08 bc 89 2b ff 3c 61 41 05 3d 71 7e ae 3d
       -0.008308498 0.031148689 0.032533053 0.085202105
000010 a6 e3 60 bd f5 85 73 3d 62 76 f9 bc 34 64 04 3e
       -0.054904602 0.059453923 -0.030451957 0.1292885
000020 d0 be df bc 86 3c b5 3d c4 e9 e7 3d 99 6f 8e 3d
       -0.027312666 0.088494346 0.11323884 0.06954879
000030 5e c9 05 3e af 35 73 bd 8b 4c 9e bd d9 b2 0a bd
       0.13065097 -0.05937737 -0.07729443 -0.03386197
000040 87 af 52 3d 70 d3 76 ba 51 f5 98 3b 32 ce 84 bd
       0.051436927 -0.0009415662 0.004667916 -0.06484641
000050 55 a2 ab 3d 4e 6a 80 3c 4e 42 d3 bd ea d9 8b 3d
       0.08380572 0.01567569 -0.10315381 0.06828673
000060 44 53 0b be 79 5a 64 3d 22 40 c2 bd 38 ca a4 bd
       -0.13605982 0.055750344 -0.094848886 -0.08046383
000070 69 61 91 3c 09 36 9a 3c f3 07 74 3a dc f1 c7 bc
       0.017746644 0.018824594 0.0009309046 -0.02440732
000080 ae 33 b3 3d 1d ea 8f 3c 45 e3 98 bc c6 6c 6a 3d
       0.087500915 0.017567689 -0.018663058 0.05723264
000090 b0 5f 08 3e f1 4c b6 bd c0 ef 89 bc 54 cb fb bc
       0.13317752 -0.08901394 -0.016837955 -0.030736603
0000a0 e0 47 87 3d 7c 90 21 3d 73 32 d8 3d 0d 93 d6 bd
       0.06605506 0.03944443 0.105564974 -0.104772665
0000b0 79 b4 0a 3d fa 01 9d bd e4 67 c6 3c d5 65 b0 bd
       0.03386352 -0.076663926 0.02421946 -0.08613173
0000c0 fc f6 e0 bc cc a5 e2 bd ea 41 ce 3d 90 67 dd 3d
       -0.027461521 -0.110667795 0.10071166 0.108107686
0000d0 f1 15 a2 3d 9e 50 f4 3a 7f d7 f7 ba eb cb ab 3d
       0.07914341 0.0018639748 -0.0018908827 0.08388504
0000e0 3a c5 26 bc 06 a7 d5 3d e8 a6 c5 3c 59 42 8a 3d
       -0.010178858 0.10432248 0.024127439 0.06750936
0000f0 61 60 0f bd ef bf 2a 3c 38 59 d1 bc 53 fb cb bd
       -0.035004023 0.010421737 -0.025555238 -0.09960046
000100 09 01 ec bd 68 44 94 bc 89 56 15 be f2 b6 7a 3d
       -0.11523635 -0.018099025 -0.14583792 0.061209626
000110 c0 19 24 bd cd 68 e0 3c 7f 84 e3 3c 54 a1 fb bc
       -0.04006362 0.027393723 0.02777314 -0.030716576
000120 d5 77 4f 3c da 0f 07 3e ac 70 55 bd bb 1a 4f bb
       0.0126628475 0.1318964 -0.052109405 -0.0031601626
000130 06 1d ee bc 1b ea 71 bc 00 a4 9f bc 00 1e bc 3d
       -0.029066574 -0.014765288 -0.019487381 0.091854095
000140 50 7d 90 3d 4c 9d 1c 3d c3 3c b6 bd f3 41 e0 bd
       0.070551515 0.038235947 -0.08898308 -0.10950079
000150 b4 98 35 3d 12 12 e1 bd 50 b8 96 3c 6d 85 6c bd
       0.044335082 -0.10989775 0.018398434 -0.057744432
000160 ef 5a dc bd 29 bc b9 3d 1e d0 c1 3c 98 61 f3 3d
       -0.10759532 0.09069092 0.023658808 0.11883849
000170 8f 7f ce 3d 37 4f ee 3c 31 08 bb 3c f0 60 29 3e
       0.100829236 0.029090507 0.022831054 0.16540885
000180 5b a6 a9 3d 91 c0 82 3d 1d 1e 5c 3c f4 1b c3 bc
       0.08283683 0.063843854 0.013434914 -0.02381704
000190 d6 f2 da bd 58 cc f2 bd fc 2a cd bc 1d d4 02 3d
       -0.106908485 -0.11855382 -0.02504491 0.03194057
0001a0 0a fd cb 3d 32 83 f8 bd 06 7e ac 3c 35 95 fd 3d
       0.09960373 -0.121343985 0.021056186 0.123819746
0001b0 4f 24 6b bb 6e 06 3f 3d c6 63 6f bc 39 e3 c1 3d
       -0.0035879796 0.04663699 -0.01461119 0.094671674
0001c0 85 a9 1f 3d 0d 81 28 3d a3 07 03 bd aa cf e8 3d
       0.038980026 0.041138697 -0.031989705 0.11367734
0001d0 6b a6 3c bc 09 0b 9d 3d 34 69 9f 3d 13 e3 c5 bd
       -0.0115142865 0.076681204 0.07783738 -0.096624516
0001e0 f0 a9 e3 3d 07 84 51 bd 9f 6e dd 3d a1 3d 04 3d
       0.111163974 -0.0511513 0.10812115 0.032285336
0001f0 ac 05 c7 3c e7 e9 93 bd d3 f1 83 3d 2e 08 8f 3d
       0.024294697 -0.07222348 0.06442609 0.06983982
000200 26 4c 50 bd de a3 30 bd cf c5 8c bd 2d 1b 9e 3d
       -0.05085387 -0.043125026 -0.068736665 0.07720027
000210 d3 15 a1 bb 91 35 8b 3d 68 ae 56 bd a3 de 94 bd
       -0.0049159317 0.06797326 -0.05241242 -0.07269027
000220 d1 5b 76 bd 71 f9 bf bd 1e 3f e2 3d e8 92 e0 3d
       -0.060146157 -0.09373749 0.11047195 0.1096552
000230 49 2f 59 3a 9d 17 e6 bd 9e 5c 02 3d 63 b0 32 bc
       0.0008284939 -0.112349726 0.031826608 -0.010906312
000240 a7 ca 80 bd 40 ad 97 bd 47 ea d5 bb fe 4a 15 bd
       -0.06288653 -0.07406092 -0.006528172 -0.03644847
000250 e3 c3 34 3d 86 76 0d be f4 2f d6 3d da 09 7c 3d
       0.044132125 -0.13814744 0.10458365 0.061532833
000260 9a 1c c7 3d 0b bc ac 3d 5d 3c 09 be 95 56 29 bd
       0.09722252 0.08434304 -0.13401933 -0.041342337
000270 9a e0 9a bc 32 1c e6 3d 46 45 9d 3d 5d ff 33 3c
       -0.018905926 0.112358466 0.076792285 0.010986176
000280 98 df c4 3d a2 03 ab bd 13 c3 23 bd 0a b0 77 3d
       0.096129596 -0.08350302 -0.03998096 0.06047062
000290 d4 6d 9f 3d 3d aa 34 bd 83 81 40 bc b6 54 01 bd
       0.0778462 -0.044107664 -0.011749628 -0.031574927
0002a0 c5 91 33 3d 34 19 ce bd b9 5b be bd 19 b4 69 3c
       0.04384019 -0.10063401 -0.092948385 0.01426413
0002b0 39 ad 37 3d 55 07 58 3d 5a f7 ae bd 3f ee 1f 3d
       0.044842932 0.052741367 -0.08543272 0.03904557
0002c0 3c 3d 9e 3c d5 db 9d bd 9e aa ba 3d b0 26 dc ba
       0.019316308 -0.07707945 0.09114574 -0.0016796198
0002d0 ca 62 ee bd 87 8d a9 3d ea d7 cd bd ae 32 a0 bd
       -0.11639936 0.08278947 -0.10050948 -0.078221664
0002e0 90 24 0c 3e 3e 7c 26 3d 73 73 6c 3d b0 3c 12 3d
       0.13685822 0.04064583 0.05772729 0.035702407
0002f0 be 91 03 bc 41 99 d2 bd 79 07 d0 3d 44 a5 e3 bd
       -0.008030353 -0.10283137 0.10157675 -0.11115506
000300 82 f2 80 3d ad b0 f1 3d c4 e5 a1 3d 99 cb 10 3e
       0.06296255 0.11801276 0.079051524 0.14140166
000310 97 5d ae 3c 63 42 4f 3d 2d 25 b7 3d 57 3a 05 be
       0.021284861 0.05060042 0.089426376 -0.13010536
000320 7c f0 e5 bc 8f 2c ca bd cb 59 ac 3d ac 48 3d bd
       -0.028068773 -0.0987178 0.08415564 -0.046211883
000330 21 6c 21 3e 10 ef d4 3d 00 89 0d be b3 41 2b bd
       0.15763904 0.1039716 -0.13821793 -0.041810703
000340 c7 4a 3f 3b 09 38 12 3e 4b 17 c8 bd 50 64 9c 3c
       0.0029188858 0.14279188 -0.09770068 0.019090801
000350 6a 0e 33 bd 72 aa a4 3c 5f 7b df 3d b5 23 6d bd
       -0.04371492 0.020100806 0.10912203 -0.05789538
000360 8d 71 a3 3d 03 0e cc 3b ec 5e df bd 65 50 a0 3d
       0.079806425 0.0062272563 -0.10906777 0.07827834
000370 de d5 be bd 11 57 b3 bd 93 da 0f bd 0c f3 54 bc
       -0.09318136 -0.08756841 -0.035120558 -0.0129974
000380 fd 4f 1b 3d 83 92 20 3d 43 3e 39 3a a2 4a 9f bd
       0.03791808 0.039202224 0.00070664677 -0.07777907
000390 c7 db 91 bd f0 8e 8c bd 19 34 68 bd 6d d1 1e bd
       -0.07121997 -0.06863201 -0.05669031 -0.038773943
0003a0 20 f2 6c 3d ca 4c 20 3d 68 fb 1e bd 88 6d 82 bd
       0.057848096 0.03913573 -0.03881398 -0.06368548
0003b0 c4 8b ae 3c 4f 0b e2 bd 49 cc 15 be 3a 7e 5e bd
       0.02130688 -0.11037313 -0.1462871 -0.054319598
0003c0 5a 8d 03 bd 14 82 2c 3d 8d cf 3d 3d 1d 56 14 3d
       -0.032117225 0.04211624 0.046340514 0.036214937
0003d0 35 22 df 3c 2a 8a 8f bd 1d 8c 5e 3d 33 32 93 bd
       0.02723799 -0.070087746 0.05433284 -0.07187309
0003e0 84 fa e5 bc a4 b1 0f be 9d 56 b9 bd 48 8d 67 bd
       -0.028073557 -0.14032608 -0.09049723 -0.05653122
0003f0 46 23 2f 3d 6f 42 09 3d c3 e3 c5 bd 1f 8e d1 3c
       0.04275825 0.03351062 -0.09662583 0.025580464

lstm.bias_ih_l0 f4 [256]
000000 1c 8e fb bd 5f 9d 27 3d 22 68 9d bd 98 99 78 3d
       -0.122829646 0.040921565 -0.076858774 0.060693353
000010 de 5f 93 bd ee f3 fb bc 5c 6d 1a bd 21 17 2a bd
       -0.071960196 -0.030755963 -0.03770195 -0.041525964
000020 91 7e ff bd ad e9 cf 3d 7b fb bf bd 5d 88 b5 3d
       -0.124753125 0.10151992 -0.09374138 0.088639
000030 74 77 78 3c a0 6d c8 bd 8e 63 2d 3a 3b 1f ac 3d
       0.015165199 -0.09786534 0.0006614261 0.08404394
000040 dc 22 41 bd 3a e2 84 bc c6 ce 4b 3c cf 24 f1 3d
       -0.047152385 -0.016221154 0.012439435 0.11774599
000050 53 cf 00 3e eb 72 62 3c 45 64 d1 bd b4 2d 97 bd
       0.12579088 0.013821344 -0.10224203 -0.07381764
000060 fd 7f 2f 3d 6d c5 8f bd 2f 3d cc 3c ee c3 ab 3d
       0.04284667 -0.07020078 0.024931518 0.0838698
000070 78 ef c5 3c d3 6e 15 bd 6e 04 ea 3d ff 3d 04 bd
       0.02416204 -0.036482643 0.11426626 -0.032285687
000080 ed 86 33 3b c4 69 0b 3e 58 94 41 3c 1c ea e7 3d
       0.0027393654 0.13614565 0.011815153 0.1132395
000090 c6 9a 84 3b af 3a 5a 3b db 16 6e 3d 51 14 c9 bd
       0.0040467707 0.0033299138 0.058127265 -0.09818328
0000a0 98 24 20 ba cc 18 da 3c b0 ca b0 3d e5 04 b1 bd
       -0.00061089685 0.026623152 0.086324096 -0.08643512
0000b0 d5 60 b3 bd 17 89 bb 3d 10 a1 15 3d e4 91 3d bd
       -0.087587036 0.09157007 0.036530554 -0.04628171
0000c0 c5 b9 4e 3c 71 a9 d7 bc 70 14 a9 3d 9b 52 dc 3d
       0.012617533 -0.026325913 0.08255851 0.10757943
0000d0 85 d4 c2 3c b2 d3 c6 bd fc 96 f3 bd af 34 80 3b
       0.023782978 -0.097083464 -0.11894032 0.0039125304
0000e0 42 5a 22 bd 2c 0a b2 3d 56 ae 28 3d 96 50 0c 3d
       -0.039636858 0.086933464 0.041181885 0.03425654
0000f0 3d 8f b5 bc 08 07 22 3d 82 5e ee 3b 60 63 ac bc
       -0.022163028 0.039557487 0.00727445 -0.02104348
000100 2a a1 69 3d 81 6a ab bd 45 18 2f 3c e3 f9 db 3d
       0.057038464 -0.083699234 0.010686939 0.107410215
000110 c3 59 be 3d 42 81 52 3d f4 98 cd bd 45 6d dc 3d
       0.092944644 0.0513928 -0.10038939 0.10763029
000120 1c b5 a4 bd 8b bd 03 3e f6 08 44 3d d7 4e a2 bb
       -0.08042356 0.12865274 0.04786011 -0.004953246
000130 1b 42 84 3d c6 ea d5 3b 50 6a 97 bd 47 54 5f bd
       0.06457921 0.0065282313 -0.073933244 -0.054523733
000140 c0 e0 61 bd d2 0b a9 3c cd 09 a1 bd b0 a0 9e 3d
       -0.05514598 0.02063552 -0.078631975 0.077454925
000150 a8 a2 8e 3d fc f2 9c 3d b5 d2 bd bd 70 16 c0 3c
       0.06964618 0.07663533 -0.09268705 0.023448199
000160 07 50 03 3e 92 cd 8b 3d a3 b1 75 bd ab ae 28 3d
       0.12823497 0.06826319 -0.05998386 0.0411822
000170 f5 3d f3 3c 6a 6d 0a bd ef 14 2f 3d ef 78 bc bc
       0.02969263 -0.03379575 0.042744573 -0.023006884
000180 b4 1c 18 bd 8a 51 f2 3d 52 c1 c7 bd 06 0c 60 3d
       -0.03713675 0.118319586 -0.0975367 0.054698966
000190 7d 6a 9b bb 31 08 b0 bd 1c ec bc 3d a4 b4 ce 3d
       -0.004742919 -0.085953124 0.09224722 0.10093048
0001a0 fb f0 d4 3d 85 3c fc bc 30 5c aa ba fe 22 85 ba
       0.10397526 -0.030790577 -0.0012997445 -0.0010157523
0001b0 eb 2b 71 bd f8 26 7c 3d da 33 8d bd 4b 9f f9 bc
       -0.058879774 0.0615606 -0.068946555 -0.030471465
0001c0 d5 f5 ac 3c bf 26 c6 3d 57 56 07 bd bc ab 80 bb
       0.021113316 0.09675359 -0.033041324 -0.0039267223
0001d0 88 19 e4 bd 2a bf c9 bd 5e 98 b8 bd 74 01 b7 3d
       -0.11137682 -0.09850915 -0.09013437 0.08935824
0001e0 df f4 20 bd 1b 65 31 3c e8 68 1c 3c eb a5 64 3d
       -0.039296027 0.010827328 0.009546496 0.055822294
0001f0 8e b8 1b bc 83 62 b8 3d fe e4 2d bd 81 c7 2d 3e
       -0.0095044505 0.090031646 -0.042454712 0.16970636
000200 0d e9 cd bd 7d d3 97 3d 07 5f 32 3d 3c e7 c7 3d
       -0.100542165 0.07413385 0.043547656 0.09760901
000210 3e 5c df bd 12 1e 12 3d eb f7 df bc dc a3 23 bd
       -0.10906266 0.03567321 -0.027339896 -0.03995119
000220 cd 44 94 3d 01 ba 09 be ba c5 42 3c 0c 4e 3a bd
       0.07239685 -0.13449861 0.011887962 -0.045484588
000230 79 45 94 bd a2 85 97 3d c7 2f 6c bd d5 cb aa 3c
       -0.07239813 0.07398535 -0.05766275 0.020849148
000240 95 6b 91 bd de f4 8b 3d 9d 5b 72 bc 76 cf 03 3d
       -0.07100598 0.06833814 -0.01479235 0.032180272
000250 11 a6 22 3d c4 c3 e3 bc a9 01 f6 3d 8d c9 03 3e
       0.039709155 -0.02780331 0.120120354 0.12869854
000260 46 cc 0c bc 76 1d 89 bd 2d 18 b9 bc 7e 22 a4 3d
       -0.008593624 -0.06695072 -0.022594536 0.08014391
000270 bd ee e4 bd 25 be 92 3d 25 cc ba 3c 50 46 5d bc
       -0.11178348 0.071651734 0.022802422 -0.013505533
000280 d9 c1 bf bc dc 73 c4 3d 69 c1 29 bc d5 c1 aa bd
       -0.023407863 0.09592411 -0.010361054 -0.08337752
000290 5c da ff bd 9f ed 0a bd 47 10 56 3d cd 75 ea bd
       -0.124928206 -0.03391802 0.052261617 -0.1144825
0002a0 75 20 0f 3e b1 a7 e8 3d 09 f0 1c 3c ca a6 d1 bc
       0.13977225 0.113601096 0.009578713 -0.025592227
0002b0 3b a9 76 3c b3 5a f9 bd ba cf ae bd 69 e6 14 3d
       0.015054996 -0.12175503 -0.085357144 0.03635255
0002c0 78 16 9b bd e4 15 27 3d 9b 38 d7 bd e5 f5 64 3d
       -0.07572645 0.04079236 -0.105088435 0.055898566
0002d0 b8 18 ce 3d c0 1d 66 bd 8a f3 b3 bc 60 44 a8 bd
       0.100633085 -0.056180716 -0.021966714 -0.082161665
0002e0 0c 90 4b 3d 18 ca b6 bd 1e 17 fd 3c 03 b6 5c bd
       0.04969792 -0.08925265 0.030894812 -0.053884517
0002f0 30 b9 0a bd e2 53 ef 3d 48 9b f0 3c da ec cb 3d
       -0.033868015 0.11685921 0.029370919 0.09957285
000300 93 47 ff bd 85 14 d2 bd db 58 63 3d d7 09 e9 bb
       -0.124648236 -0.1025782 0.05550466 -0.0071117687
000310 08 8c d0 3d 8e 90 f3 bb 6e 12 67 3c 9f e0 99 3d
       0.10182959 -0.0074330037 0.014103515 0.07513546
000320 f0 65 94 3d 46 45 2a bd 59 ae 67 bc 06 33 98 bd
       0.072460055 -0.04156997 -0.014140689 -0.07431607
000330 9d 89 08 3e d4 d6 14 3d 55 ef b6 3d f9 b7 9b 3c
       0.13333745 0.03633769 0.08932368 0.019008623
000340 fd e1 58 3d e3 1f f2 3c 82 ac 2b 3d 7c 28 f1 bc
       0.052949894 0.02955622 0.041912563 -0.02943825
000350 31 33 a8 3d 3e fb 8e 3b a1 f0 95 bd 1f c5 93 3c
       0.08212889 0.0043634465 -0.07321287 0.01803833
000360 e3 ec bc 3c b5 d3 91 3d 56 21 c6 bd aa a3 d5 3d
       0.023062175 0.07120458 -0.09674327 0.10431607
000370 ee b0 82 3d 75 04 6a 3d b7 3c 4d 3d 32 d7 d5 bc
       0.06381403 0.057133157 0.05010673 -0.02610359
000380 dc 31 60 bd b2 f1 a4 bc b4 e9 62 3c 2e e1 a3 3d
       -0.05473505 -0.02013478 0.0138496645 0.08001934
000390 ad 05 b6 bb c2 f7 71 ba b1 5d 51 3d 35 67 f3 bd
       -0.005554876 -0.0009230339 0.05111474 -0.118849196
0003a0 a1 d2 e6 3d 13 e5 8f 3d d5 5b 51 bb c9 f5 f9 bc
       0.11270643 0.07026114 -0.0031945605 -0.030512707
0003b0 92 14 60 3b 5f 20 02 be 12 1c a0 bd df 50 d0 3d
       0.0034191948 -0.12707661 -0.07817854 0.10171675
0003c0 72 56 56 bd 48 b2 49 3d ce fa a7 bd 3f cc df 3c
       -0.052328534 0.049242288 -0.08202134 0.027319072
0003d0 20 00 3f 3c 4b 62 18 bc f6 0a 36 3d f6 b8 56 3d
       0.011657745 -0.009300779 0.044444047 0.052422486
0003e0 74 60 1f bd 3c 3f 01 bd 1f c9 64 bd 1d fd 1e bc
       -0.038910344 -0.031554446 -0.055855867 -0.009703902
0003f0 3b 88 b2 bc 78 4b 6f bd f1 c1 be bd b6 2c 1b bd
       -0.021793475 -0.058421582 -0.09314335 -0.037884437

lstm.bias_hh_l0 f4 [256]
000000 b1 8f 6b bd 46 70 8d bd a8 b3 aa 3d ad ed 06 3e
       -0.05751008 -0.0690618 0.08335048 0.13176604
000010 c7 fc cf 3d a9 98 58 3d 7f d3 a2 bd d6 34 a2 3d
       0.10155635 0.052879963 -0.07950496 0.07920234
000020 1b 1f 44 3d cd 00 cc bd 85 6c c0 3c 9d f2 93 bc
       0.047881227 -0.0996109 0.023489246 -0.018060023
000030 e2 98 cb 3c 88 e7 cb 3d 18 01 b7 bd 5f 0f d0 bd
       0.024853174 0.099562705 -0.089357555 -0.10159182
000040 94 01 86 bd a5 72 54 3d 35 a2 de bd 3e 39 e1 3d
       -0.0654327 0.051867146 -0.10870782 0.10997246
000050 42 ed a7 bc 04 53 e0 3d 4e e6 00 3e 8b 9b 46 3d
       -0.020498876 0.10953334 0.12587854 0.04848818
000060 83 41 22 3d f2 bd 7a 3c 72 9b c9 3d 11 c7 ad bd
       0.039613258 0.015304076 0.09844102 -0.084852345
000070 ed 1f 61 bd 37 47 46 bd 6d 2c 04 3e 52 41 c3 3d
       -0.054962087 -0.04840776 0.12907572 0.09533943
000080 42 fa 4a 3d e0 63 4a 3d 7d bd e0 bd cb e9 78 3d
       0.04955507 0.049411654 -0.10973642 0.060769837
000090 ba 60 92 bd 87 84 60 3d 72 81 ad bd 15 6a fb bd
       -0.071473554 0.054813888 -0.08471955 -0.12276093
0000a0 17 53 9b bd 70 f8 6d bd 30 bd 78 3d 02 50 09 be
       -0.075842075 -0.058098257 0.0607273 -0.13409427
0000b0 ab 81 b8 3d d0 d0 81 3d 34 c8 2b bd 17 33 94 bd
       0.09009107 0.06338656 -0.041938975 -0.07236307
0000c0 f4 11 ef bd f7 3a f7 3d 58 27 1c 3b 4e 97 ac bc
       -0.11673346 0.120717935 0.0023827162 -0.021068241
0000d0 50 5a cc bd d1 ae 4a bd 7e a8 62 bb 23 6d 7a 3d
       -0.09978163 -0.049483124 -0.0034585292 0.061139237
0000e0 1d 7a aa bd c7 88 0b 3d e5 62 da 3d 77 28 53 bd
       -0.083240725 0.034065988 0.10663394 -0.051552262
0000f0 d0 be 12 3d a4 aa ac 3d 1b 00 4c 3d 22 aa 1e bd
       0.035826504 0.084309846 0.049804788 -0.03873647
000100 2b 5f 8a 3c 53 9e ef 3d 6e 78 93 bd 4a be ce 3d
       0.016891083 0.1170012 -0.072007045 0.100948885
000110 58 67 0b bc 2b 80 10 3d 85 c4 de bc e5 76 ec bd
       -0.008508526 0.03527848 -0.027193317 -0.11546115
000120 90 f0 a3 bc 92 bc a6 bd 52 f2 c9 3d 49 a9 c9 bd
       -0.02001217 -0.08141436 0.09860672 -0.09846742
000130 0a ca a2 3d fd 33 c9 bd 89 7e 16 3e d1 cf 98 3c
       0.07948692 -0.09824369 0.14696707 0.018653782
000140 2a 61 3d bb 5d 16 03 3e b8 83 2a bd ee be d3 bd
       -0.0028897026 0.128015 -0.041629523 -0.10339151
000150 8e de a7 3c 8a 3b 38 3e 4a ca 14 3d 8d 0e 1e 3d
       0.020491865 0.17991462 0.03632573 0.038588095
000160 73 5f 1f 3e 83 3b 40 3d 55 0d 91 3d a7 d0 6a 3d
       0.15563755 0.046931755 0.07082621 0.057327893
000170 e3 be 9a bd 15 cb d9 bb 58 3d ee 3b 1b f4 29 bd
       -0.0755594 -0.0066465237 0.0072704963 -0.041492563
000180 db 60 84 bd 2c d1 2f 3d c3 e5 8b bd 4a b3 e6 bd
       -0.06463786 0.04292409 -0.06830933 -0.112646654
000190 e1 e0 32 bd 72 79 a5 bd df 30 54 bd 72 de e8 bc
       -0.043671492 -0.080798045 -0.05180442 -0.028426383
0001a0 31 c8 9b 3d 6d 32 04 3e db 78 6c 3d a3 e7 3f bd
       0.07606543 0.12909861 0.057732444 -0.046851765
0001b0 bd 59 a7 3d 8e 91 d4 3d ba 7c 20 3d 71 73 74 bc
       0.08171413 0.10379325 0.03918145 -0.0149201015
0001c0 89 e7 f5 bd 5e 14 af 3c 43 93 05 3e 2b f3 8f 3d
       -0.120070525 0.021372017 0.13044457 0.070288025
0001d0 05 d8 5b 3d 09 cf 52 3d f8 bd a7 bd b0 bc 01 3e
       0.05367281 0.051466975 -0.081905305 0.12669635
0001e0 df d8 a4 bd 00 95 94 3d 52 03 32 3d 9f 16 2d bd
       -0.080491774 0.07254982 0.043460198 -0.0422579
0001f0 3a df 71 3d 7a 74 ca bc 15 62 5b 3d ef b6 25 3e
       0.059050776 -0.024713743 0.053560335 0.16183065
000200 c0 25 d8 bd fd 86 e0 ba 5d c7 91 3d 74 45 b6 3d
       -0.10554075 -0.0017130073 0.07118104 0.08899966
000210 30 f1 9d 3d 73 3d 94 bd 99 84 34 3c ba c3 ad 3d
       0.077120185 -0.07238283 0.011017942 0.084845975
000220 31 a2 0e 3d 82 42 77 3d fd 51 02 3d 5e e5 a7 3b
       0.034822647 0.06036616 0.03181647 0.0051237782
000230 79 e3 9a bd f6 0a 92 bd 6e de 99 3c 88 1b 8c 3d
       -0.07562918 -0.07130997 0.01878282 0.06841189
000240 14 09 04 bd 5d 44 6d bd 70 6b 70 3d 08 0c 2a bd
       -0.03223522 -0.057926524 0.05869621 -0.04151538
000250 7f 7f 7a 3b 98 64 67 3d 66 1a a5 bc 32 f4 b7 3d
       0.0038222966 0.056492418 -0.02015419 0.089821234
000260 4f 09 ba 3d 19 93 53 bc 10 f9 98 bd f7 54 57 bd
       0.09083807 -0.012913489 -0.0746938 -0.052571263
000270 40 88 1e 3d 69 08 b2 bd e5 3c 94 bd af bb 7e bd
       0.038704157 -0.0869301 -0.07238177 -0.062190708
000280 ca c0 ee 3d 7b 83 e4 3c ec f5 95 bd 7e c8 22 3d
       0.11657865 0.027894726 -0.073222965 0.039741985
000290 16 16 a2 bd 53 01 c3 bd b9 0a c1 bd 5d 94 de bd
       -0.07914369 -0.09521737 -0.09425873 -0.10868142
0002a0 fa 82 9d bd ef c8 bb 3d ac 69 db 3d 1d 4b c7 3d
       -0.076909974 0.091691844 0.10713515 0.097311236
0002b0 df 7b 9d 3b 9a a2 e2 bc dd 33 a3 3c 1f b4 d8 bd
       0.0048060264 -0.027665425 0.019922191 -0.1058123
0002c0 43 df a3 3d c9 d5 a7 3d d3 be d2 3d 03 b7 e7 3d
       0.08001568 0.08195073 0.10290303 0.113142036
0002d0 de 1d d9 3d cf cf 15 3c ea b4 d7 bd 14 58 9b bc
       0.106014 0.009143784 -0.105325535 -0.018962897
0002e0 5b 1a a6 bd cb ce 9f 3c af 5b 5d 3d 4a 4c 96 3d
       -0.08110496 0.019507786 0.054042514 0.0733877
0002f0 fc 3c df 3d dc 34 e4 bd e4 a2 a1 bd 39 c2 ff bd
       0.10900304 -0.111428946 -0.07892397 -0.12488217
000300 65 07 ed b9 09 4f f2 bd b4 85 a2 3d f3 bd ed 3c
       -0.00045209672 -0.11831481 0.07935658 0.029021239
000310 e3 8a a9 3d c3 8e 23 3d e0 4a 67 bd d5 bb c6 bd
       0.08278444 0.03993107 -0.05646789 -0.09703795
000320 be 56 45 3d 5f 34 bf 3c 02 6f 02 3e cc 0a ee bd
       0.048178427 0.023340402 0.12737659 -0.11623153
000330 1d 0a 60 bd dc d5 92 3d b3 dd dc 3c eb 3c d7 bd
       -0.054697145 0.07169697 0.026961183 -0.10509666
000340 3a 76 3a bc 53 d1 4d 3b 39 35 a2 bd b9 ac e9 bd
       -0.0113807265 0.0031405285 -0.07920308 -0.11409897
000350 5e e2 66 3d f1 a7 3a 3c 79 c1 5c 3d af 32 08 3e
       0.056368224 0.011392579 0.053895447 0.13300584
000360 88 50 a7 bb cd 58 8a 3d 1f 57 16 3d 52 9e 90 bd
       -0.0051060356 0.06755219 0.03670418 -0.07061447
000370 70 6a 80 bc 85 69 cb 3c 95 6a 87 3d 37 05 d3 bc
       -0.015675753 0.02483059 0.06612126 -0.025759323
000380 b6 20 48 3b 19 09 ef 3d a8 07 47 3d 03 eb 99 bb
       0.0030537075 0.11671657 0.048591286 -0.004697205
000390 91 66 6d 3d 1a d0 9b 3d d3 d7 95 bd 9a 3a 79 bc
       0.057959143 0.076080516 -0.07316556 -0.015211726
0003a0 a2 53 7b bd 18 e4 86 bd c5 65 1d 3c f0 e3 ef bd
       -0.061359055 -0.06586474 0.009606783 -0.117133975
0003b0 58 63 b2 bd 56 cd ce 3d dc 49 ea 3d 8d 61 bd bd
       -0.087103546 0.100977585 0.11439869 -0.09247122
0003c0 26 a6 fb bd ab 44 67 bd d8 57 46 3d f7 73 a7 bd
       -0.1228755 -0.05646197 0.048423618 -0.081764154
0003d0 15 8b 76 bb 79 20 35 3d 22 34 ba 3c 1c d9 a0 ba
       -0.003761952 0.04422042 0.022729937 -0.0012271735
0003e0 b3 13 8d bc 12 6f be 3c 12 6c e8 3a bc f2 cf 3c
       -0.017221307 0.023246322 0.0017732403 0.0253843
0003f0 eb d3 76 3d e5 98 da bc af 09 70 3d 11 0e 5b 3d
       0.060260694 -0.026684234 0.058602985 0.05348021

lstm.weight_ih_l1 f4 [256, 64]
000000 a4 33 a8 3d d7 22 a1 3c 59 3c d3 3b de 07 30 3d
       0.08212975 0.019669933 0.006446403 0.042976253
000010 84 48 28 3d 5c a9 50 3d 1f ec a0 3d f5 36 e9 3d
       0.04108478 0.050942764 0.078575365 0.11387435
000020 0e 5c d0 3d 74 06 25 3d 4f 9a ed bd 58 49 31 3b
       0.10173808 0.040289357 -0.11601698 0.0027051773
000030 a4 7e fe bc 9f fa b3 bd db 58 87 bc 27 bf c3 3d
       -0.031066246 -0.087880366 -0.016521862 0.09557944
000040 73 92 de 3d c9 d1 05 be d2 23 52 bc 74 6e 88 bd
       0.10867777 -0.13068308 -0.012825923 -0.06661692
000050 b7 87 c7 3c 5f fd 29 bd cf 3e c5 bd 5d 88 8b bd
       0.024356706 -0.0415014 -0.096311204 -0.068131186
000060 7d c6 93 3d 89 bf 25 bc f6 93 a6 bd 25 00 3d 3c
       0.07215593 -0.010116466 -0.0813369 0.011535679
000070 03 da a9 bd 8f 91 bf bd 63 d3 be bd a8 b5 cb bc
       -0.082935356 -0.09353935 -0.093176626 -0.024866894
000080 3a 86 a0 bc a3 e4 4b 3c 60 d1 5e 3d cd bb a5 3d
       -0.019595254 0.012444648 0.054398894 0.08092461
000090 c7 52 fd bd 1a 61 3a bd 01 22 b0 3d 0c f6 06 3d
       -0.12369304 -0.04550276 0.08600236 0.032949492
0000a0 07 ef 16 3d 1a 3e 94 3d 0b b1 1b 3c 5f c8 62 bd
       0.036849048 0.072384074 0.00950266 -0.05536687
0000b0 17 d1 8e 3d 22 5f 85 3d 83 a3 b3 3d f9 01 a4 bd
       0.069734745 0.06512286 0.08771422 -0.08008189
0000c0 0f a8 4d 3d 1e 4a 2f bd db 3a 31 bd 3f e6 87 bb
       0.0502091 -0.042795293 -0.04326902 -0.0041473205
0000d0 97 be ab bd 81 3d a8 3c d3 e4 d4 3d 02 34 cb 3d
       -0.083859615 0.02053714 0.10395207 0.09922029
0000e0 df 9c d6 bd dc 11 40 bd 20 46 f2 3d 47 3c f3 bd
       -0.104791395 -0.046892032 0.118297815 -0.11876731
0000f0 13 13 2a bd e5 03 9f bd ad 37 8b bd a6 6e 9a bc
       -0.041522097 -0.07764415 -0.06797729 -0.01885159
000100 f0 e4 a7 3d 45 da c3 bd aa fa 99 bd 6b 02 11 3d
       0.08197963 -0.09563116 -0.075185135 0.035402697
000110 1a a7 aa bd 72 49 7e 3d f1 e4 d4 3d 3e 25 85 3d
       -0.08332653 0.06208176 0.103952296 0.06501244
000120 a0 11 12 3e 99 8f c5 bd 16 57 af 3d 3d 13 98 bc
       0.14264536 -0.0964653 0.08561532 -0.018563861
000130 e4 4c fc bc 52 03 a0 bd 12 ad 36 bc c0 21 cb 3d
       -0.030798383 -0.07813133 -0.011149662 0.09918547
000140 eb 2c c9 bc 96 5e 36 3b 49 0c da 3d 0b c2 0b be
       -0.024557551 0.0027827374 0.106468745 -0.1364824
000150 2d dc f8 bc 71 9d 04 3d 9f 57 ac bd 42 db 10 3c
       -0.030378425 0.03237671 -0.0841515 0.008841338
000160 fc 6a 37 3c 5a 8a b4 bd 81 f4 0d 3d 24 f9 10 3d
       0.011194941 -0.08815451 0.034657005 0.03539385
000170 03 ed 62 bd 05 23 ca bd 30 98 af 3d 2f 5e b1 3d
       -0.055401813 -0.09869961 0.08573949 0.08660542
000180 d2 b0 f2 bd 0e b5 08 bb d5 d6 0d 3e 86 81 f7 bd
       -0.11850132 -0.002085987 0.13851483 -0.120852515
000190 f8 ea b8 3d 21 55 f1 bd 3e af dc bc e1 a4 bc bd
       0.09029192 -0.11783815 -0.02693903 -0.09211136
0001a0 65 55 e3 3b 66 ec 1f bc ad 41 9f 3b 50 3f ac 3d
       0.00693767 -0.009760952 0.004860124 0.084105134
0001b0 0c a3 fa 3d b1 50 ac bd 00 b5 0f be 99 80 ab bd
       0.1223813 -0.08413828 -0.1403389 -0.083741374
0001c0 a4 e1 d4 3c b0 3b cf 3b 73 8d ac 3d 22 1f 16 3d
       0.0259865 0.006324254 0.08425417 0.036650784
0001d0 0e 3c 84 3c c8 00 48 3d 1e 02 f9 bd 8f 07 01 3e
       0.016141918 0.04882887 -0.12158607 0.1260054
0001e0 22 85 a1 ba 45 04 ab 3d 92 f2 c6 3d 11 fd dc 3d
       -0.0012323002 0.08350424 0.09714235 0.10790456
0001f0 a2 2a cf 3d 47 35 13 3d 59 5d 2c bd 88 d8 aa bd
       0.101155534 0.03593948 -0.04208121 -0.08342081
000200 b1 1c 95 bd db 94 7c 3c 4f 5a 5a 3d a9 be d7 3b
       -0.07280863 0.015416349 0.05330878 0.0065840078
000210 2f 8a db bb 2f 63 ef 3b d8 e6 d6 bd 63 5e ba bc
       -0.0066998224 0.007305525 -0.10493249 -0.022750085
000220 47 dc c9 bd c4 06 fc bc a7 30 4a 3d 8f 0c 95 3d
       -0.09856468 -0.030764945 0.049362805 0.07277786
000230 8e ac 7b 3d 09 af 0c bd 07 23 a3 3b d4 4d cc bb
       0.061443858 -0.034346614 0.004978541 -0.006234864
000240 6f 95 10 3c bd 61 78 3d 01 e8 a4 bd cf 64 22 3d
       0.00882469 0.060640085 -0.08052064 0.03964692
000250 ec 67 e3 3c d4 9a d2 bc 3c 87 62 3c 22 e2 94 3d
       0.027759515 -0.025708593 0.013826188 0.07269694
000260 56 07 a9 bd a7 3b 9e 3d af 2f b2 3d 01 47 cf 3d
       -0.08253352 0.077262215 0.08700501 0.10120965
000270 74 ef ca bd e7 61 48 3d 1c 96 9d 3d 06 b2 68 bd
       -0.09908953 0.048921492 0.07694647 -0.0568104
000280 2a 6f 96 bd cc c3 e0 3d 54 52 8c bb 0a 0d a3 3b
       -0.073454216 0.10974845 -0.004282275 0.0049759196
000290 6e 1c 51 3b 27 22 f4 bc 19 47 0f 3d 08 3a 02 be
       0.0031907815 -0.029801441 0.034979913 -0.1271745
0002a0 09 ac c6 bc b7 5c 98 bb 86 cd 97 bd 01 3e 44 bd
       -0.024251955 -0.0046497243 -0.07412247 -0.047910694
0002b0 0e 20 c0 3d 2c 64 01 be 5c 4b 4b bd 8c c3 a8 bd
       0.09381114 -0.12635869 -0.049632415 -0.082404226
0002c0 2b 4a c3 3d 4e 54 9b bd 7e f9 2b 3d f2 d1 af ba
       0.09535631 -0.07584439 0.04198598 -0.0013414009
0002d0 2c 85 04 be 11 30 b6 bb 87 ce dc bd 7e e7 58 bc
       -0.12941426 -0.005559929 -0.107815795 -0.013238786
0002e0 8a 72 2c bd 83 a4 ce bd af 89 8b bb 1f 16 dc bc
       -0.04210142 -0.10089972 -0.0042583565 -0.026866017
0002f0 57 9a e5 3c 03 c4 5a 3d 83 0e af bc b4 20 27 bd
       0.028027697 0.053409588 -0.021369224 -0.040802673
000300 a2 e7 c9 3c a6 f5 f1 3b e1 d0 64 3b 8b 3c 08 3d
       0.024646584 0.00738402 0.003491454 0.033260863
000310 4a e6 ff 3c cb b3 9d b9 4a aa a7 bd 26 cf bd bd
       0.03123774 -0.0003007933 -0.08186777 -0.09268026
000320 60 a0 e5 3d 02 14 e1 ba f1 e0 a6 3d d7 7d 92 bc
       0.1121223 -0.00171721 0.08148373 -0.01788227
000330 08 e0 90 3d 5f 24 c8 bd 9d 95 8a 3b d2 6c 67 bd
       0.070739806 -0.09772562 0.004229261 -0.056500264
000340 dc 8a bb bd 44 df ab 3d 40 6b 96 bd e1 ec 43 3c
       -0.09157345 0.08392194 -0.07344675 0.011958332
000350 50 d0 ad 3d d7 ec f6 bd 8d d9 a4 bd 0a 4c 42 bc
       0.08486998 -0.12056892 -0.08049307 -0.011858949
000360 16 76 97 3d 71 78 6e 3d 03 5e 39 3d 34 fd 9f bd
       0.0739557 0.05822033 0.045255672 -0.078119665
000370 b6 f2 1b 3d 89 7a 78 3d 6b 95 b9 bd 42 43 d3 3c
       0.038073264 0.060663734 -0.09061702 0.025788907
000380 b1 d7 86 3d 23 52 dc 3d 15 97 2c 3d 67 b8 c9 3b
       0.065841086 0.10757854 0.04213627 0.0061560157
000390 4b df 31 bd 7d 80 9b 3d d7 d9 d8 bc 2b 6c e9 bd
       -0.04342584 0.075928666 -0.026471062 -0.113975845
0003a0 ab c4 81 3c b7 50 3b bd ca 85 84 bc 34 ed 2a 3d
       0.015840849 -0.045731273 -0.016177077 0.04173012
0003b0 c1 c0 a7 3d e7 5d 88 3b bc 8e ed 3d f1 94 ec 3d
       0.08191062 0.0041615847 0.1159949 0.11551846
0003c0 6d cf 3d bd 98 5a bc bd 01 5b 80 bd f3 6e 5b bd
       -0.046340395 -0.09196967 -0.062673576 -0.053572606
0003d0 35 e6 81 ba 0f cc 2d bb 11 e8 e1 bd 11 3d d7 3d
       -0.0009910526 -0.0026519333 -0.11030591 0.10509694
0003e0 1a b7 2a 3d fe 87 65 3d 71 03 85 3d 19 9b 2c bc
       0.041678526 0.056037895 0.06494797 -0.010535025
0003f0 5a 78 ec 3d 26 74 14 bb 02 26 92 bd b8 3e a3 3d
       0.11546393 -0.0022652238 -0.07136156 0.07970947

lstm.weight_hh_l1 f4 [256, 64]
000000 ef 85 89 bd fb dd df bc d7 d2 c7 3a 9c 01 df bd
       -0.06714999 -0.027327528 0.001524533 -0.10888979
000010 d2 07 2c 3d 0d 13 da 3d 43 ce e2 bc 6e df 8a 3d
       0.041999646 0.10648165 -0.027686244 0.06780897
000020 96 ce cd 3d f7 5c 7e bd ee e0 5c 3c 36 db d3 bd
       0.10049169 -0.062100377 0.013481362 -0.103445455
000030 e3 06 c2 bc 5a 59 a9 bd 41 b6 95 bc b7 17 4a bd
       -0.023684924 -0.082689956 -0.018275382 -0.049339022
000040 51 9c 6f bd d7 ad 70 bc 35 14 38 bd 26 a1 45 3d
       -0.058498684 -0.014689884 -0.044941146 0.048249386
000050 32 b0 06 bd 26 9f 68 bd e9 44 c6 bd b6 d3 19 3c
       -0.032882877 -0.0567924 -0.09681112 0.009388855
000060 6b f5 f1 bd 4f 5a bb 3c dc 3f 30 3d 1f 5a 83 3d
       -0.11814388 0.02287021 0.04302965 0.064136736
000070 79 a5 58 3d 9e 11 b9 bd d0 76 a4 bc 6e 0c a7 3d
       0.052892182 -0.09036563 -0.020076185 0.08156668
000080 65 1e aa 3d cb 75 9a 3d 51 1d 01 be 53 f1 63 bd
       0.083065785 0.075419985 -0.1260884 -0.055650067
000090 b4 45 2c bc 56 71 ce bd b2 b3 0e 3e 20 55 e2 3d
       -0.010514665 -0.10080211 0.13935736 0.110513926
0000a0 21 51 47 bd 58 7a fd 3c 02 d6 18 be 9f 68 2e 3c
       -0.048661355 0.030942127 -0.14925388 0.010645061
0000b0 c9 ef 38 bd dc 12 33 3d 7b e0 06 bd 3d 37 3f 3d
       -0.045150552 0.043719158 -0.032928925 0.04668354
0000c0 f0 de 2f bd 0c bd b4 bd 73 65 a8 3d 85 15 7f 3d
       -0.04293722 -0.0882512 0.08222475 0.062276382
0000d0 00 e5 aa 3d 41 7d d2 bd b5 33 0b 3c f5 83 34 bc
       0.083444595 -0.102777965 0.008496215 -0.011017789
0000e0 2a 03 2a 3d f0 b7 85 ba 45 17 b9 3d 3a 71 98 3d
       0.041506924 -0.0010201912 0.090376414 0.07443471
0000f0 73 6f 1b bd af d9 d9 bc 65 4e ef bd 78 f6 a8 bd
       -0.037948083 -0.026593057 -0.116848744 -0.08250135
000100 dc 52 03 bc 02 9c 0c be 84 e5 93 bc 36 86 9f 3b
       -0.008015361 -0.13731387 -0.018053778 0.004868294
000110 9a e9 12 3e 3c 9a b6 3d e9 a4 a6 bd 57 f4 ba bd
       0.14346924 0.089161366 -0.08136923 -0.091286354
000120 04 3e 3a bd d6 18 81 bd df ce 43 bb c3 a1 a1 bd
       -0.0454693 -0.06303565 -0.0029877943 -0.07892182
000130 e4 b6 43 bd 07 fd cd bd 86 67 0d 3e 5f 16 36 3c
       -0.04778184 -0.10058027 0.13809022 0.011113732
000140 4c da b0 bd f6 19 29 3a df 61 90 bd 5b fd 85 bd
       -0.08635387 0.0006450707 -0.070499174 -0.06542464
000150 d1 ac 27 be e1 53 0a be 09 d2 58 bc ed 6b 90 bd
       -0.16374518 -0.1350856 -0.01323367 -0.07051835
000160 47 e1 ee 3d 67 87 45 3d 36 09 ef 3d 2d f1 1e 3e
       0.11664062 0.048224833 0.11671679 0.15521689
000170 d4 8e b2 3d 8f ab 5f 3c db 97 fe bb cb d1 c8 bd
       0.087186486 0.013651743 -0.0077695674 -0.0980564
000180 11 bf 20 3e 0e 80 80 3c a6 f9 ed 3c 08 d9 0a 3b
       0.15697886 0.015686061 0.029049706 0.002118649
000190 f3 15 5e bd 58 35 68 3d 5c ad f6 bd 01 15 8d bd
       -0.05422015 0.056691498 -0.120447844 -0.06888772
0001a0 0a 97 b6 bc 0f e1 d4 bc 44 c2 85 3d 32 3b 81 bd
       -0.022288818 -0.025986223 0.06531194 -0.06310119
0001b0 ec 77 3c bd 2b 83 76 3d 0a fa 23 3d a0 cc 03 bd
       -0.046012804 0.060183685 0.040033378 -0.032177567
0001c0 11 d7 f1 3c 1d 63 1f 3e 2d 80 ab 3c 71 03 a6 bd
       0.029521497 0.15565152 0.020935142 -0.08106125
0001d0 67 20 c8 3c c7 27 d9 bd 44 53 2a 3e 44 f2 28 3d
       0.024429513 -0.1060329 0.16633326 0.041246668
0001e0 f7 59 89 3d a8 d6 8d bd 5f 34 0a bd 60 a1 f0 bd
       0.067066126 -0.06925708 -0.03374135 -0.1174953
0001f0 0d fa cf bd f5 46 aa 3d 6e 52 7e bd 87 6f f2 bd
       -0.10155115 0.08314315 -0.06209033 -0.118376784
000200 d8 8c c5 3d 9f 87 b0 3c 30 28 c0 3d eb c4 b0 bc
       0.096460044 0.021549044 0.09382665 -0.021578273
000210 1d c5 23 bd 7f 55 f6 3d a1 2e 39 bd ef 70 41 bd
       -0.039982904 0.12028026 -0.045210484 -0.047226842
000220 1c d7 c1 3d 92 fd 26 bc e0 6c b6 bb a4 1e f3 3c
       0.09464857 -0.010192292 -0.005567178 0.029677697
000230 15 03 de 3d 56 13 a4 bd d8 fe 9b bd d6 bd 14 bd
       0.108404316 -0.080115005 -0.07616967 -0.036313854
000240 92 88 fc bb f1 2f ef 3d 2c b9 58 bd a8 03 a4 bd
       -0.00770671 0.11679066 -0.05291097 -0.0800851
000250 64 0d a6 3d 14 79 97 bd 06 e5 96 bd 5b 1b 20 3c
       0.08108023 -0.07396141 -0.073679015 0.009772147
000260 0b 19 40 3d d0 4f b3 bc 68 91 da 3d dd bd 55 3c
       0.046898883 -0.021888644 0.10672265 0.013045755
000270 03 ab fa bd 56 5b df bd 6a 0f 47 3c e7 3b f8 bd
       -0.12239649 -0.10906093 0.012149671 -0.121208005
000280 a2 13 ef 3d db a7 5c 3d 77 6b 17 3d 42 7f f1 bd
       0.116736665 0.053871017 0.03696772 -0.117918506
000290 00 c7 b0 3c ba 9c f4 bd 40 9c e0 3d 5c 6b f6 bd
       0.021579266 -0.11943956 0.10967302 -0.12032196
0002a0 23 9a 2d bd 18 66 cb bd b2 4b a9 3c a7 d3 ee 3c
       -0.042383324 -0.09931582 0.020665977 0.029153658
0002b0 a7 46 ad 3c ec 90 bd 3a ee 4b 2b bd 9d 0c 1a 3c
       0.021151854 0.0014462746 -0.04182046 0.009402421
0002c0 47 b5 a4 bd a3 fd cb 3d 58 4e e5 3d 40 8e a7 bd
       -0.080423884 0.09960487 0.111965835 -0.08181429
0002d0 f4 41 d1 bd a4 00 88 bd e1 23 9a 3d c9 d6 0e 3c
       -0.10217658 -0.06640747 0.075263746 0.008718201
0002e0 50 c5 39 bc e3 69 97 bc 75 be 70 3d 9b 3d dc 3d
       -0.011338547 -0.018483108 0.058775384 0.10753938
0002f0 b5 b5 cb 3c d2 fc 63 3d 52 bb c6 bb 2d 27 b2 bd
       0.024866918 0.05566103 -0.006064811 -0.086988784
000300 74 81 e3 bc ad 2d fb 3d d5 f7 35 3d ca 2b b1 bd
       -0.027771689 0.12264571 0.044425804 -0.0865093
000310 1f 0e af bd 90 77 ab 3c c1 b6 ee bb e1 bf 3e 3d
       -0.08547615 0.020931035 -0.0072849696 0.04656971
000320 a8 3c d9 3d 5e 14 93 3d 96 90 89 bd 02 d2 c0 3d
       0.106072724 0.07181619 -0.06717031 0.09415056
000330 91 fb c9 3d ef a3 18 be b6 f3 a5 bd 1f 6e ef 3d
       0.098624356 -0.14906286 -0.08103125 0.11690926
000340 c3 16 02 3e cd 72 11 3e c4 e8 9d 3d 1a fc 98 3d
       0.12703995 0.1420395 0.07710412 0.074699596
000350 42 be 9a 3d 6a af b8 3d cd 1e c9 bc d6 bd 88 3d
       0.0755582 0.090178326 -0.02455082 0.06676833
000360 1b 27 44 3d af ca e3 bd a2 76 0a 3e e9 c8 55 bd
       0.047888856 -0.11122643 0.13521817 -0.052193556
000370 71 24 91 bd 87 54 ae bd 5f 9d e8 3d e8 b8 63 bd
       -0.07087029 -0.08512216 0.11358141 -0.055596262
000380 de a0 9b bd cf 1f c3 bd c4 a8 96 3b 61 c2 52 3d
       -0.07599042 -0.095275514 0.004597755 0.051454905
000390 ee 3a 8c 3d fe 66 4f bd 5a af d9 bd 1d 7a de bd
       0.068471774 -0.05063533 -0.10629149 -0.10863135
0003a0 f6 b5 0c be a3 b4 b8 bd 9e 36 28 3d 18 02 0e 3d
       -0.13741288 -0.09018829 0.041067712 0.034669966
0003b0 1e 97 f7 bc 6d d7 88 bc c7 ae ff 3c 1d 96 cf 3d
       -0.030223425 -0.016704286 0.03121127 0.10136054
0003c0 09 33 21 3d 2a b5 66 3d b6 8f 90 3d 4e fa 81 3d
       0.03935531 0.056325115 0.07058661 0.0634657
0003d0 b1 ad 52 bd 5f 1d 6b bd b4 af 04 3e 26 bf f9 bd
       -0.051435176 -0.057401057 0.1295765 -0.12194662
0003e0 f9 ff ae bc 33 c3 15 be 92 83 a0 bc ad 5d 2e bd
       -0.021362292 -0.14625244 -0.019593988 -0.042569805
0003f0 82 b4 89 bd 6e d6 e3 bd 68 ee 95 3d 67 13 ce bc
       -0.06723882 -0.111248836 0.07320863 -0.025155736

lstm.bias_ih_l1 f4 [256]
000000 0f b0 e6 3d 8f 80 19 3e a6 6c 03 3e 7e fa 9f bd
       0.11264049 0.14990447 0.12834415 -0.078114495
000010 e1 8c 6b 3c 3f 9d d3 bd 07 b5 ee 3d 5e 9c 05 bd
       0.01437685 -0.10332727 0.11655622 -0.032619826
000020 8a 4e ec 3d 12 35 f5 3c 7d ff 9b bc 0d 85 71 bd
       0.11538418 0.029932532 -0.019042725 -0.058964778
000030 c0 0e 87 3d 4a d5 bd 3d 9f d2 bb bc 8a 13 b7 3d
       0.0659461 0.09269197 -0.02292758 0.08939274
000040 bb 79 ce 3d d4 8a 07 bc 85 86 d7 bc 7f 26 c1 3c
       0.10081812 -0.008272845 -0.026309261 0.023577927
000050 cf f5 07 3e ff ca 15 bd 82 ec 90 bd 5f ab ae 3d
       0.13277362 -0.036570545 -0.0707636 0.0852878
000060 63 b4 e1 bc 05 f7 67 3d e1 5a 4e 3d cc ed 36 3c
       -0.027551835 0.05663206 0.050379638 0.011165094
000070 8f 13 63 3d f7 be 92 bd 48 5f ca bd ca bd 47 bd
       0.055438574 -0.0716533 -0.09881455 -0.04876498
000080 a9 9b 8b 3d 62 45 c8 3d f4 a3 88 3d fe c2 ef bd
       0.06816799 0.09778859 0.066718966 -0.11707114
000090 ca 7e 8c bc 09 a1 d2 bd db cc 66 3d 74 23 0a 3d
       -0.017150301 -0.10284621 0.05634771 0.033725217
0000a0 f4 97 cb 3d a8 9c 04 3d 8e f4 ce 3d 4f cc b5 bd
       0.09941092 0.03237596 0.10105239 -0.088768594
0000b0 10 50 30 3d bf 48 a8 3d 27 c2 d4 bd 18 53 cc 3d
       0.043045104 0.08217 -0.10388594 0.099767864
0000c0 20 fb eb bb 66 91 c5 3c ec 98 aa 3c 42 68 04 3d
       -0.0072015673 0.024117183 0.020824872 0.03232599
0000d0 d5 c6 f0 bc fd ff d3 3b 3c c7 3d 3d eb 64 82 bd
       -0.029391686 0.006469725 0.046332583 -0.06366905
0000e0 c8 ef 60 bd db 5f 8b bd c1 c4 35 bd dc aa d0 bc
       -0.054916173 -0.06805392 -0.044377092 -0.025472097
0000f0 88 40 9e bd a5 f8 e2 bd 9c 99 a6 3d 8f c1 9f 3d
       -0.07727152 -0.110825814 0.081347674 0.0780059
000100 69 b8 66 bc 4d 46 b9 bc b6 8a e6 bc 43 5f a8 3d
       -0.014082053 -0.02261653 -0.028142314 0.08221295
000110 a2 e5 f9 3c b8 eb 77 3c 74 d1 b3 3d ea 83 f4 3d
       0.030505005 0.015131883 0.087801844 0.11939223
000120 fe 28 fd bc f8 b0 db bc ca f5 19 bc 25 d0 7f 3d
       -0.030903336 -0.026817784 -0.00939698 0.06245436
000130 a6 24 ef bc 5c b5 a4 3d 54 30 dd 3d f8 ab 0c 3e
       -0.02919228 0.08042404 0.108002335 0.13737476
000140 6e cf d2 bb 0a 1c 9c 3d 75 dd 65 bb 0d 9d a5 bd
       -0.006433419 0.076225355 -0.0035074626 -0.08086596
000150 db c4 c5 bc b4 35 90 bd c4 d1 0f 3d 4a e4 9d bd
       -0.02414172 -0.07041493 0.035112157 -0.07709558
000160 95 0d e2 3d 5e 0d 8d bd 0a eb e9 3d 23 5e 2f 3e
       0.11037747 -0.06887315 0.11421783 0.17125754
000170 f4 aa fc bc 02 ee c9 3d e0 90 c6 3c f9 46 07 bd
       -0.030843236 0.098598495 0.024239004 -0.03302667
000180 a9 b9 b4 3d e6 89 6f bd fb 5f e3 3d b7 af 1f 3d
       0.08824474 -0.05848112 0.11102291 0.038985934
000190 fe e8 83 3d db 15 9d bd 74 ae 98 bd 01 01 ca bd
       0.06440924 -0.07670184 -0.07455149 -0.09863473
0001a0 68 76 46 3d 32 9e 06 3e 77 17 52 3d 61 f9 89 3a
       0.048452765 0.13146284 0.05129191 0.0010526591
0001b0 2e b6 67 3b 37 7d 02 bc 74 61 46 3d 9d 82 c2 bd
       0.003535639 -0.007964424 0.048432782 -0.09497569
0001c0 97 36 1f 3d 98 da 8f bd 1f cf 79 3c fc df c8 3c
       0.03887042 -0.07024115 0.015247135 0.024520867
0001d0 20 27 9f bd 2e 44 16 3e 6d 6e c7 3b 18 ef a7 3c
       -0.077711344 0.14674446 0.006086162 0.020499751
0001e0 ca e7 1b 3e ef 2a 07 3e d2 a2 2d 3d 72 e1 7c 3d
       0.1522514 0.13199972 0.042391606 0.06173844
0001f0 11 8f 5e bd db fa c7 3d 5b 81 8a bd 6e 8b 71 bd
       -0.054335658 0.09764644 -0.06762954 -0.05897086
000200 96 b0 96 3c 2e ed 5b 3d a2 4a b7 3c b3 57 8c bd
       0.01839475 0.05369299 0.022374455 -0.06852665
000210 66 15 89 3c 5a 26 bb 3d 39 70 54 3d c4 9d 27 3d
       0.016733836 0.09138174 0.051864836 0.04092194
000220 93 0d 7d bd b8 02 04 bc 48 8b 7d 3d 54 2a 8c 3d
       -0.061780524 -0.008057289 0.061900407 0.06844011
000230 11 ee 76 bd 33 cc 79 bd 28 ae ac 3d 48 3e 5b bd
       -0.06028563 -0.060985755 0.08431655 -0.053526193
000240 69 a2 a0 3c c0 9e 2b bd 46 3f 21 bb a6 8c 5b 3c
       0.019608693 -0.041899443 -0.0024604364 0.013400232
000250 95 ee e2 bd c3 3d a6 bc 2c c0 94 3c 7a a0 44 3d
       -0.11080662 -0.020293122 0.018158041 0.048004605
000260 49 70 27 bd 50 03 04 bd 87 bd de 3d 0e 76 c1 bd
       -0.040878568 -0.03222972 0.10875993 -0.09446345
000270 3b 4d f3 bd df 1a d8 bb 30 6f ff 3a 70 47 0d bd
       -0.11879965 -0.006595 0.0019488093 -0.034491956
000280 87 0e 08 3d cf 09 05 be 03 13 5e bd 0c 35 89 3d
       0.03321698 -0.12992023 -0.05421735 0.06699571
000290 dc 0a 88 39 a9 33 ce bd bf e9 09 bd 4e 21 22 bd
       0.00025948032 -0.10068447 -0.033670183 -0.039582543
0002a0 e4 e8 3e 3d 8a c5 e3 3d 68 8b 29 3d 96 58 4a 3c
       0.04660882 0.11121662 0.041392714 0.012350222
0002b0 a0 79 7c 3c 78 5d 7c bd be 99 b7 3c 97 9f 76 bd
       0.015409857 -0.061612576 0.022412177 -0.06021079
0002c0 01 98 bf 3d 2f 8a ca 3b db 16 99 bd db cb 7c bc
       0.09355164 0.0061810235 -0.074750625 -0.015429462
0002d0 9f c6 97 bd fd 37 ef 3d 8f 2f 67 3d 8d 3c c1 bd
       -0.07410931 0.11680601 0.05644184 -0.09435377
0002e0 03 56 88 3d 1d ae 12 3b a1 11 f0 bd 4e 23 11 be
       0.066570304 0.0022381612 -0.117221124 -0.14173624
0002f0 7a d2 5d bd 19 59 22 bc 35 2d 0c bd 1b 84 b8 3d
       -0.054155804 -0.009908938 -0.0342228 0.09009572
000300 1d 04 da bc c6 12 74 3d 96 4a 30 ba b5 6e 98 bd
       -0.02661329 0.059588216 -0.00067249814 -0.07442991
000310 67 27 96 3d c8 da f3 3d 58 69 f4 3d bc a0 63 bd
       0.07331734 0.119069636 0.11934155 -0.05557321
000320 30 92 87 bd 6f 65 de 3d a2 67 9e 3b 5b d9 8a 3d
       -0.0661968 0.10859191 0.0048341313 0.067797385
000330 6a 51 1f bd 20 ec c7 3d 4e 02 de 3d 5d bd 1a 3c
       -0.038896002 0.09761834 0.10840283 0.009444562
000340 23 84 0a bd d5 ed 83 bd ed a5 e7 bd 4d ef f4 3d
       -0.03381742 -0.06441847 -0.11310945 0.119597055
000350 68 c5 83 3d b0 85 b4 3b d2 4a 18 3c d3 08 45 3d
       0.06434137 0.005509101 0.009295182 0.04810412
000360 1f 98 e1 bd 4b 4a 1f 3d 67 38 1e bd cb 9e bf 3d
       -0.11015343 0.03888921 -0.03862801 0.09356459
000370 6f d4 57 bc a1 b8 f2 3c 9a be ce 3d a8 66 8e bb
       -0.013173207 0.029629054 0.10094948 -0.0043457337
000380 79 6c 3f 3d 2b c2 75 bc 93 8f eb 3d 0f 11 0c bd
       0.046734307 -0.0149999065 0.11501994 -0.034195956
000390 7a 31 34 bd 18 89 fe 3d f9 37 ae bd 14 df 85 bd
       -0.043992497 0.12428492 -0.0850677 -0.065366894
0003a0 f0 0d ac 3d 13 b8 c1 3d 65 31 b6 3d 75 71 8f 3d
       0.08401096 0.094589375 0.0889614 0.07004062
0003b0 5b b4 16 3d b1 84 91 3b 25 84 cf bc 25 f9 a9 bc
       0.036793094 0.004440867 -0.025331566 -0.020748684
0003c0 fc 09 c3 bd 4f 2c 23 bd c0 0a 16 bc 48 87 c6 3c
       -0.09523389 -0.039837178 -0.009157836 0.024234429
0003d0 c8 d6 6f bd 99 a2 fd 3d 05 a4 1d bc 83 18 96 bb
       -0.05855444 0.12384529 -0.009621625 -0.0045805587
0003e0 35 e5 a0 bb 0b de 86 bd b3 8b 30 bd ef 0b e5 3d
       -0.004910136 -0.0658532 -0.043101978 0.11183917
0003f0 92 13 4b bc b6 f5 f4 bd 78 24 96 bd fe 48 02 3d
       -0.012394803 -0.11960928 -0.073311746 0.031807892
