output/LSTM2CNN/LSTM2CNN_adam_64_1000/model/LSTM2CNN_epoch_113.pth (torch, 353538 bytes, 16 tensors)

lstm.weight_ih_l0 f4 [256, 11]
-0.05655622 0.07492357 -0.005561283 -0.039166734 0.10218537 -0.09496198 0.07894118 -0.00421118
0.056270577 -0.013890218 0.003934946 -0.09928913 -0.02475088 0.032459658 0.030038463 -0.103954114
-0.06561464 0.091379814 -0.06632977 -0.009257156 -0.08697554 -0.02270669 0.12853914 0.09262269
-0.10828452 -0.011069667 0.08221565 0.051427167 0.123392045 0.035587978 -0.008693203 -0.09234936
0.116376564 -0.08919821 0.08125194 0.06867038 0.030417431 0.06515236 0.08520735 0.09649574
0.124020964 -0.04584315 0.11251304 0.02218824 0.04736051 0.04309108 -0.044455677 0.12894633
-0.034848016 0.09125953 0.072324276 -0.054820735 0.032026526 -0.02242972 0.045359373 0.09678175
-0.048424233 0.083703004 -0.025305185 0.117565855 -0.11769879 0.069960736 0.023444382 0.065093346
0.040427547 0.09637336 -0.06224882 -0.08721865 0.11979955 -0.11986699 0.01352728 -0.0774453
0.08205371 -0.047064196 0.06798923 0.090056 0.05433913 0.076997295 -0.10747463 -0.098035574
-0.07538193 0.06484252 -0.06486486 0.11331737 0.08670159 0.06667542 -0.08519552 -0.07196624
-0.083053805 0.06546836 -0.09141962 -0.037911244 0.060821082 0.01591087 -0.019629296 0.0043985
-0.00033618385 -0.13815208 0.06324912 -0.09137192 -0.017591236 0.050044417 0.08992939 -0.08285214
0.08507555 -0.12553452 0.018284077 -0.01604388 0.0033255299 -0.07592657 -0.1239419 0.09828761
-0.08524133 -0.02322082 0.0051871384 -0.10037922 -0.05527729 0.07028405 -0.0029899809 0.06404803
-0.058015794 -0.07332324 0.021053337 0.07095959 0.06384756 0.008100339 -0.001245097 0.024140453
-0.10682083 -0.017378883 0.018828316 -0.11795415 -0.08552036 0.08872167 0.1026031 0.04641405
0.1300106 0.067464635 0.101519324 -0.017641973 0.09720561 -0.060397543 -0.07731071 0.098911986
-0.10695919 -0.10145403 0.12132601 0.10266918 -0.07287444 -0.09948034 0.030200152 0.07308554
0.08842962 -0.013283709 -0.1292945 -0.028996674 -0.101419814 0.053143747 -0.028445406 0.08936975
-0.09429997 0.10868044 0.03974298 0.08237004 -0.08555016 -0.07758963 -0.08914928 0.13552089
0.10884414 -0.045597736 0.03312721 -0.08430657 -0.058780205 -0.03415172 0.072087064 -0.040692903
0.048124377 0.01323927 -0.090467565 -0.0854483 0.067732245 -0.0562268 0.02868312 -0.006007862
0.06520117 0.025288895 -0.05151488 -0.10340429 0.07867407 -0.09165403 -0.015235332 0.081338756
-0.086159356 -0.024694338 -0.04803675 -0.0070869527 -0.09437037 -0.11301897 -0.045668207 -0.0016925315
-0.08035267 0.0259833 -0.10573448 0.08902439 0.008080019 -0.101038024 0.011214465 -0.03094613
0.025673551 -0.081472926 0.053367306 0.049547095 -0.019833725 0.049843978 -0.09952132 0.010843469
-0.062314343 -0.07467473 -0.07017778 -0.063388415 0.057734605 0.007703898 0.011731895 -0.13072653
-0.017706484 0.0050948705 0.07833259 0.02978614 0.07907003 -0.07316395 -0.027741225 0.08405564
-0.019053822 -0.13839369 0.09453527 0.011571435 0.0018098135 0.04964431 -0.11495654 -0.10086682
-0.025791463 -0.02722489 -0.055820186 -0.09302122 0.019177638 0.10493884 -0.0065080384 0.003450209
0.02115782 0.06278625 -0.031599227 0.07693765 -0.027137795 -0.10535627 0.08167742 0.06227464
00000000: 7fa7 67bd 8771 993d 6c3b b6bb 4c6d 20bd
00000010: 9046 d13d 6d7b c2bd eaab a13d f0fd 89bb
00000020: fa7b 663d cc93 63bc b8f0 803b 1958 cbbd
00000030: 5cc2 cabc 6bf4 043d 3913 f63c e5e5 d4bd
00000040: f860 86bd 5725 bb3d e7d7 87bd 54ab 17bc
00000050: 3b20 b2bd 6103 babc c49f 033e f7b0 bd3d
00000060: 46c4 ddbd 8c5d 35bc ae60 a83d 4ba5 523d
00000070: f8b4 fc3d b3c4 113d f06d 0ebc a921 bdbd
00000080: d656 ee3d 8dad b6bd 6b67 a63d 0ea3 8c3d
00000090: fa2d f93c 9a6e 853d 3181 ae3d 8f9f c53d
000000a0: b4fe fd3d 07c6 3bbd 3d6d e63d 1dc4 b53c
000000b0: 18fd 413d 4680 303d 2817 36bd 820a 043e
000000c0: cbbc 0ebd 47e6 ba3d c01e 943d b58b 60bd
000000d0: 3f2e 033d 88be b7bc c0ca 393d 8335 c63d
000000e0: 7d58 46bd 7b6c ab3d d24c cfbc 5ec6 f03d
000000f0: 100c f1bd 9347 8f3d 6f0e c03c a94f 853d
00000100: 5b97 253d 655f c53d 9ef8 7ebd b19f b2bd
00000110: 7759 f53d d37c f5bd 86a1 5d3c a49b 9ebd
00000120: c70b a83d 63c6 40bd f03d 8b3d 486f b83d
00000130: b592 5e3d c2b0 9d3d a91b dcbd e0c6 c8bd
00000140: d761 9abd 28cc 843d ded7 84bd f012 e83d
00000150: 9a90 b13d 1f8d 883d fd7a aebd 0963 93bd
00000160: 1d18 aabd 4714 863d 363a bbbd d248 1bbd
00000170: 871f 793d 8357 823c 9ecd a0bc 4b21 903b
00000180: d541 b0b9 bd77 0dbe c188 813d 3421 bbbd
00000190: 7f1b 90bc 60fb 4c3d e62c b83d 62ae a9bd
000001a0: 173c ae3d 1f8c 00be 7dc8 953c 746e 83bc
000001b0: 22f1 593b 647f 9bbd 40d5 fdbd 044b c93d
000001c0: 0293 aebd 9739 bebc dff8 a93b 9f93 cdbd
000001d0: 716a 62bd 16f1 8f3d 8ef3 43bb 9d2b 833d
000001e0: f8a1 6dbd 7f2a 96bd 0c78 ac3c 4353 913d
000001f0: 82c2 823d 49b7 043c 8632 a3ba 33c2 c53c
00000200: e1c4 dabd 295e 8ebc d73d 9a3c f291 f1bd
00000210: 4c25 afbd b5b3 b53d 9321 d23d a91c 3e3d
00000220: 8021 053e e62a 8a3d 5de9 cf3d e685 90bc
00000230: bc13 c73d 6a63 77bd 1455 9ebd 5e92 ca3d
00000240: 6b0d dbbd 21c7 cfbd c579 f83d 3844 d23d
00000250: 323f 95bd 59bc cbbd 4f66 f73c dfad 953d
00000260: 971a b53d eaa3 59bc c765 04be 6f8a edbc
00000270: 31b5 cfbd 42ad 593d 5706 e9bc 7d07 b73d
00000280: 5820 c1bd da93 de3d 89c9 223d a0b1 a83d
00000290: ec34 afbd 50e7 9ebd e693 b6bd fdc5 0a3e
000002a0: ade9 de3d b1c4 3abd 66b0 073d eca8 acbd
000002b0: 83c3 70bd ade2 0bbd 62a2 933d 9aad 26bd
000002c0: 111e 453d 86e9 583c 0f47 b9bd 85ff aebd
000002d0: 34b7 8a3d 134e 66bd ddf8 ea3c 99dd c4bb
000002e0: 3188 853d a82a cf3c 4401 53bd a1c5 d3bd
000002f0: df1f a13d 1cb5 bbbd 9d9d 79bc ef94 a63d
00000300: 5174 b0bd c84b cabc 2fc2 44bd ab39 e8bb
00000310: 4145 c1bd 7d76 e7bd 960e 3bbd efd7 ddba
00000320: f18f a4bd eeda d43c 528b d8bd 6b52 b63d
00000330: 0e62 043c 06ed cebd e0bc 373c bd82 fdbc
00000340: 5751 d23c 47db a6bd ad97 5a3d e5f1 4a3d
00000350: 567a a2bc 3329 4c3d d5d1 cbbd cea8 313c
00000360: 533d 7fbd 11ef 98bd 5eb9 8fbd c9d1 81bd
00000370: 1f7b 6c3d fb70 fc3b 2237 403c 2ddd 05be
00000380: 300d 91bc dff2 a63b d66c a03d 1002 f43c
00000390: 78ef a13d fbd6 95bd 9141 e3bc 5d25 ac3d
000003a0: c316 9cbc 13b7 0dbe b59b c13d 1e96 3d3c
000003b0: 4437 ed3a d557 4b3d 566e ebbd 4393 cebd
000003c0: 9e48 d3bc bc06 dfbc b5a3 64bd e981 bebd
000003d0: 6c1a 9d3c 2dea d63d 6241 d5bb e71c 623b
000003e0: 2a53 ad3c 1496 803d 316e 01bd 7d91 9d3d
000003f0: 1550 debc 07c5 d7bd 7e46 a73d b113 7f3d

lstm.weight_hh_l0 f4 [256, 64]
-0.0048980885 0.03771337 0.0305416 0.08199101 -0.04013841 0.06801312 -0.03322808 0.12477124
-0.032883413 0.09649575 0.10893173 0.07167615 0.118271105 -0.053232625 -0.07775568 -0.036610153
0.052537594 0.0039218925 0.014376894 -0.055564776 0.08376763 0.006701923 -0.10253389 0.061134063
-0.105084874 0.05941995 -0.1060737 -0.08100003 0.021573193 0.020123795 0.007289354 -0.019833935
0.08553751 0.010681175 -0.03333168 0.06690731 0.122716576 -0.09491938 -0.029884312 -0.034098
0.06180378 0.038954627 0.103675686 -0.11004544 0.028088469 -0.08246541 0.01365108 -0.09202403
-0.021144083 -0.10812429 0.10827758 0.10528506 0.07749647 0.004475232 -0.0055340347 0.07509272
-0.024098445 0.10733952 0.044700246 0.065389894 -0.047469757 0.032970425 -0.02282268 -0.08439552
-0.11743796 -0.020171668 -0.15117694 0.055525187 -0.027572632 0.022245044 0.029645681 -0.024797548
0.019571768 0.13237931 -0.062735915 -0.008509342 -0.03664401 -0.014973819 -0.018838288 0.08202598
0.07149963 0.038961418 -0.09195289 -0.108739875 0.04915211 -0.09779039 0.019991854 -0.04382728
-0.09342539 0.091167994 0.02748317 0.11746342 0.101661064 0.029615626 0.017623218 0.14718261
0.083057456 0.060916245 0.012035238 -0.023897314 -0.11267266 -0.12210426 -0.025319489 0.032266
0.09917155 -0.117085695 0.012410267 0.11077276 -0.007592292 0.045643326 -0.031140463 0.09732283
0.034310922 0.043331165 -0.026222328 0.111675315 -0.013824762 0.08172618 0.07982964 -0.109228365
0.10964395 -0.055480026 0.10608693 0.015749762 0.03374876 -0.058377285 0.061541703 0.07542935
-0.0577769 -0.0637002 -0.07043597 0.0788989 0.007834164 0.11606889 -0.05472828 -0.06255279
-0.04558536 -0.10100655 0.08457386 0.10645212 0.0029992855 -0.09974505 0.028161414 -0.0043260665
-0.06492332 -0.04474252 -0.0064157215 -0.021802709 0.055686418 -0.10425668 0.09790134 0.07335428
0.10098942 0.09443628 -0.112344906 -0.03948253 -0.038022265 0.10884166 0.09352796 0.014941114
0.09951066 -0.104898095 -0.046119645 0.06420728 0.07267291 -0.059466064 -0.009538327 -0.023580663
0.048942264 -0.09727428 -0.0931197 -0.03913524 0.029562213 0.05503794 -0.114833795 0.03925792
0.008243881 -0.08052395 0.08889269 0.0031641729 -0.10911553 0.10512417 -0.093539745 -0.091600984
0.1320904 0.019835293 0.056287985 0.0039561014 -0.030403586 -0.12083129 0.10446209 -0.13473642
0.070624985 0.12552053 0.07530092 0.13046734 0.016511377 0.012289931 0.08885095 -0.1342216
-0.04674223 -0.086356826 0.09153777 -0.043651074 0.12983394 0.0959049 -0.12652202 -0.04732641
0.010911039 0.122730315 -0.09301814 0.010865891 -0.06582542 0.01751054 0.103421144 -0.060605843
0.0733632 -0.0016520653 -0.11030722 0.08350022 -0.07680434 -0.082615785 -0.052589554 -0.018072348
0.032025132 0.06864635 0.0062093907 -0.08376531 -0.07231562 -0.062979706 -0.054696586 -0.040545862
0.05556032 0.036174227 -0.044634074 -0.03863094 0.03606999 -0.114000514 -0.1311298 -0.052763037
-0.033935193 0.054858707 0.06966768 0.0371657 0.016154971 -0.05991712 0.040905204 -0.080005534
-0.026516868 -0.11432832 -0.086439624 -0.032934133 0.08309058 0.034442242 -0.10470047 0.020457914
00000000: 2580 a0bb 5679 1a3d 6132 fa3c e7ea a73d
00000010: 2c68 24bd 764a 8b3d 2b1a 08bd 1088 ff3d
00000020: c2b0 06bd 909f c53d 9917 df3d f2ca 923d
00000030: 1f38 f23d 740a 5abd 5f3e 9fbd 87f4 15bd
00000040: a931 573d 3883 803b 108d 6b3c e497 63bd
00000050: 5d8e ab3d ce9b db3b 4afd d1bd b667 7a3d
00000060: bd36 d7bd 5562 733d 2b3d d9bd 58e3 a5bd
00000070: 44ba b03c a8da a43c 89db ee3b c77a a2bc
00000080: 4a2e af3d 1800 2f3c cd86 08bd b306 893d
00000090: d452 fb3d 1865 c2bd f2cf f4bc 58aa 0bbd
000000a0: f625 7d3d e38e 1f3d eb53 d43d 815f e1bd
000000b0: ca19 e63c a0e3 a8bd c8a8 5f3c 1877 bcbd
000000c0: 5b36 adbc 4570 ddbd a3c0 dd3d b29f d73d
000000d0: 78b6 9e3d f8a4 923b d956 b5bb 36ca 993d
000000e0: 1a6a c5bc d2d4 db3d 9b17 373d 23eb 853d
000000f0: a66f 42bd ff0b 073d a1f6 babc 8fd7 acbd
00000100: 5083 f0bd 0e3f a5bc 21ce 1abe 616e 633d
00000110: 00e0 e1bc 3d3b b63c 80db f23c 3a24 cbbc
00000120: f954 a03c 718e 073e b07b 80bd c46a 0bbc
00000130: 0818 16bd c054 75bc c152 9abc 3dfd a73d
00000140: 666e 923d 0296 1f3d cc51 bcbd 03b3 debd
00000150: b953 493d 5446 c8bd f5c5 a33c 3c84 33bd
00000160: d055 bfbd 49b6 ba3d 6324 e13c a990 f03d
00000170: ad33 d03d 789c f23c 915e 903c 0ab7 163e
00000180: 071a aa3d 5083 793d 722f 453c 4dc4 c3bc
00000190: ecc0 e6bd cc11 fabd d16a cfbc 5a29 043d
000001a0: 741a cb3d a0ca efbd 6f54 4b3c d4dc e23d
000001b0: c3c8 f8bb 7ff4 3a3d 491a ffbc 3151 c73d
000001c0: 9c89 0c3d 057c 313d 35d0 d6bc 07b6 e43d
000001d0: 4181 62bc 0e60 a73d b97d a33d 1fb3 dfbd
000001e0: 028d e03d 063f 63bd 1b44 d93d a505 813c
000001f0: 243c 0a3d 051d 6fbd 2713 7c3d b47a 9a3d
00000200: 78a7 6cbd 4075 82bd bc40 90bd bf95 a13d
00000210: de5a 003c 87b5 ed3d c32a 60bd ad1b 80bd
00000220: b7b7 3abd 86dc cebd 0f35 ad3d 9203 da3d
00000230: a98f 443b 2247 ccbd c4b2 e63c adc1 8dbb
00000240: 85f6 84bd ef43 37bd f93a d2bb 989b b2bc
00000250: 7117 643d 8784 d5bd 7f80 c83d c53a 963d
00000260: 8bd3 ce3d cf67 c13d 1615 e6bd 6fb8 21bd
00000270: 3cbd 1bbd 60e8 de3d 968b bf3d 93cb 743c
00000280: 3fcc cb3d d0d4 d6bd f4e7 3cbd 1b7f 833d
00000290: 89d5 943d b092 73bd a546 1cbc 3c2c c1bc
000002a0: af77 483d bd37 c7bd 8bb5 bebd 464c 20bd
000002b0: 742c f23c 776f 613d fb2d ebbd eacc 203d
000002c0: 5811 073c bee9 a4bd 5f0d b63d 035e 4f3b
000002d0: f777 dfbd 574b d73d c491 bfbd 4c99 bbbd
000002e0: b542 073e a07d a23c 3b8e 663d 2fa2 813b
000002f0: f110 f9bc 6576 f7bd 38f0 d53d 58f8 09be
00000300: d5a3 903d 7488 003e 5e37 9a3d 3b99 053e
00000310: de42 873c b55b 493c 7df7 b53d 6371 09be
00000320: c874 3fbd d9db b0bd 2878 bb3d 78cb 32bd
00000330: 30f3 043e ca69 c43d fd8e 01be 56d9 41bd
00000340: 37c4 323c 085a fb3d 4b80 bebd da06 323c
00000350: 7acf 86bd 4472 8f3c 77ce d33d d53d 78bd
00000360: 723f 963d 1d8a d8ba c0e8 e1bd 2a02 ab3d
00000370: 984b 9dbd 7732 a9bd 2568 57bd 760c 94bc
00000380: c92c 033d 7596 8c3d 2578 cb3b 268d abbd
00000390: 361a 94bd 81fb 80bd 8709 60bd 6b13 26bd
000003a0: 3893 633d 6d2b 143d 38d2 36bd 7a3b 1ebd
000003b0: 20be 133d 1a79 e9bd e446 06be 0e1e 58bd
000003c0: a1ff 0abd 86b3 603d eead 8e3d 103b 183d
000003d0: 6e57 843c a76b 75bd 378c 273d f1d9 a3bd
000003e0: e739 d9bc f724 eabd 4207 b1bd f1e5 06bd
000003f0: 652b aa3d 4f13 0d3d 336d d6bd 5b97 a73c

lstm.bias_ih_l0 f4 [256]
-0.123374395 0.040541403 -0.07945443 0.06042968 -0.07732788 -0.06325018 -0.032660697 -0.040573087
-0.1216331 0.10478342 -0.09126443 0.08875331 0.005284163 -0.10268675 -0.0057490407 0.0815185
-0.05206355 -0.0363321 0.008386776 0.11514652 0.11973917 -0.0064679836 -0.11338905 -0.07858545
0.010400724 -0.06995515 0.017629137 0.090827495 0.018701786 -0.034292076 0.106524885 -0.029085502
0.0029323956 0.11717164 -0.004159062 0.118848816 0.006229605 0.0067750835 0.05722655 -0.09952668
-0.0006845166 0.028854089 0.0847671 -0.07924022 -0.09435274 0.08695324 0.027176645 -0.04558427
0.01830763 -0.049504053 0.078102976 0.10553714 0.022480618 -0.10530609 -0.11894594 0.0058276076
-0.036011953 0.0761861 0.018560957 0.025415946 -0.031853456 0.03143994 0.004810517 -0.03774149
0.053400725 -0.08483082 0.011059748 0.10324279 0.080762066 0.020572973 -0.097630344 0.10710106
-0.0922601 0.123523034 0.03666429 -0.0044423123 0.057766467 -0.0020581055 -0.08509292 -0.06227867
-0.05949086 -0.0059580025 -0.08524348 0.06374763 0.06473829 0.03603202 -0.10331639 0.013535177
0.10472026 0.06956795 -0.0718604 0.041448016 0.012117799 -0.031065017 0.024916004 -0.028406942
-0.03557509 0.08738937 -0.122484975 0.052631117 -0.01083072 -0.08428097 0.08842711 0.10027194
0.094842166 -0.026633784 -0.005844345 -0.014444414 -0.07157535 0.058641784 -0.07261279 -0.029373825
0.025828399 0.061826203 -0.041595697 -0.006175693 -0.11590133 -0.11751396 -0.09055832 0.08104087
-0.04196386 -7.99556e-05 -0.0075203325 0.02006106 -0.029766148 0.0738713 -0.053448047 0.1439768
-0.0960249 0.08055048 0.045808513 0.10058707 -0.10855997 0.038122173 -0.032323536 -0.044669725
0.071962364 -0.12365909 0.020408766 -0.04537804 -0.071745776 0.07614715 -0.04386104 0.027551403
-0.06930493 0.06618931 -0.008314126 0.027191546 0.034962576 -0.037025865 0.11608115 0.119748265
-0.01023654 -0.0668258 -0.029418165 0.08054993 -0.116901964 0.07617085 0.021990903 -0.011229224
-0.030913683 0.1028229 0.0011687783 -0.0790919 -0.12262709 -0.033230826 0.055453952 -0.11475032
0.12848805 0.11294829 0.0103560565 -0.020248633 0.025994577 -0.11713492 -0.08257129 0.040611986
-0.06732571 0.03977433 -0.11034495 0.06223948 0.09939339 -0.05659834 -0.028319798 -0.075658895
0.06292314 -0.08898204 0.026224311 -0.04795045 -0.03304099 0.11591134 0.019999787 0.110139355
-0.12421816 -0.10488802 0.054189518 -0.009052142 0.09166093 -0.03474832 0.018400026 0.075681254
0.07376407 -0.039109826 -0.018319957 -0.07423489 0.12297108 0.030338522 0.08770462 0.015125655
0.045648392 0.019846113 0.038217057 -0.033181503 0.07401264 -0.012883999 -0.08536731 0.013876034
-0.009734412 0.07127647 -0.10374238 0.10681731 0.059017677 0.05892283 0.04301574 -0.02742018
-0.052433517 -0.03558072 -0.0011356982 0.08341308 -0.005204734 0.0002605636 0.05012162 -0.12024744
0.11247268 0.07219234 -0.010056326 -0.03120565 -0.006234695 -0.13185248 -0.08593537 0.10237057
-0.046646807 0.03134128 -0.088185586 0.026872883 0.009339753 -0.019652708 0.044812523 0.052755117
-0.035854157 -0.04171357 -0.077826895 -0.02543005 -0.033528518 -0.068262376 -0.09509538 -0.056376606
00000000: b7ab fcbd be0e 263d 01b9 a2bd 1d85 773d
00000010: 145e 9ebd 4f89 81bd 39c7 05bd f72f 26bd
00000020: c61a f9bd b198 d63d d8e8 babd 4cc4 b53d
00000030: c626 ad3b 6e4d d2bd 7362 bcbb 2cf3 a63d
00000040: 9740 55bd f8d0 14bd b068 093c f0d1 eb3d
00000050: cf39 f53d 61f1 d3bb 8538 e8bd 69f1 a0bd
00000060: cc67 2a3c a544 8fbd fb6a 903c c403 ba3d
00000070: 7d34 993c d975 0cbd b829 da3d b844 eebc
00000080: 6f2d 403b aff7 ef3d be48 88bb 0267 f33d
00000090: b721 cc3b 8501 de3b 6366 6a3d a5d4 cbbd
000000a0: 2271 33ba 695f ec3c 609a ad3d b248 a2bd
000000b0: 023c c1bd 8a14 b23d 8ea1 de3c 92b6 3abd
000000c0: e2f9 953c c3c4 4abd 74f4 9f3d db23 d83d
000000d0: 4629 b83c b8aa d7bd ee99 f3bd 84f5 be3b
000000e0: 4581 13bd 7507 9c3d 260d 983c 1a35 d03c
000000f0: c578 02bd 2bc7 003d 8ba1 9d3b d296 1abd
00000100: b8ba 5a3d c8bb adbd f233 353c f570 d33d
00000110: 9566 a53d a788 a83c 6bf2 c7bd cd57 db3d
00000120: ddf2 bcbd a5f9 fc3d 4b2d 163d d190 91bb
00000130: 889c 6c3d 48e1 06bb 3245 aebd eb17 7fbd
00000140: b0ac 73bd 593b c3bb 2294 aebd 1e8e 823d
00000150: 8295 843d 5096 133d 8b97 d3bd a6c2 5d3c
00000160: 9377 d63d a479 8e3d 8c2b 93bd 65c5 293d
00000170: bc89 463c 107c febc a61c cc3c adb5 e8bc
00000180: 30b7 11bd 33f9 b23d 67d9 fabd ba93 573d
00000190: 5573 31bc 809b acbd 4619 b53d 605b cd3d
000001a0: 9c3c c23d 182f dabc eb81 bfbb 43a8 6cbc
000001b0: 1996 92bd 5e32 703d 04b6 94bd 60a1 f0bc
000001c0: 1496 d33c 793d 7d3d 4060 2abd 785d cabb
000001d0: ad5d edbd 29ab f0bd a476 b9bd c1f8 a53d
000001e0: 4ce2 2bbd d6ad a7b8 1f6d f6bb 1857 a43c
000001f0: 23d8 f3bc d649 973d 57ec 5abd a76e 133e
00000200: b4a8 c4bd a6f7 a43d b5a1 3b3d 9800 ce3d
00000210: b154 debd ff25 1c3d af65 04bd 9af7 36bd
00000220: 0161 933d fa40 fdbd 4930 a73c 53de 39bd
00000230: 73ef 92bd 09f3 9b3d a2a7 33bd 7bb3 e13c
00000240: beef 8dbd 438e 873d f937 08bc cec0 de3c
00000250: eb34 0f3d 6fa8 17bd f4bb ed3d 943e f53d
00000260: 29b7 27bc f7db 88bd 5dfe f0bc 5df7 a43d
00000270: 4c6a efbd 76ff 9b3d 4426 b43c c7fa 37bc
00000280: b13e fdbc d094 d23d b131 993a effa a1bd
00000290: e923 fbbd 0c1d 08bd af23 633d 3702 ebbd
000002a0: 5f92 033e 6f51 e73d 73ac 293c 76e0 a5bc
000002b0: 94f2 d43c 6fe4 efbd 231b a9bd c158 263d
000002c0: 10e2 89bd 68ea 223d 88fc e1bd d3ee 7e3d
000002d0: c38e cb3d a9d3 67bd ecfe e7bc 0df3 9abd
000002e0: d9dd 803d 373c b6bd 5ed4 d63c b167 44bd
000002f0: fd55 07bd ed62 ed3d 98d6 a33c be90 e13d
00000300: 1766 febd 88cf d6bd d4f5 5d3d 6f4f 14bc
00000310: bab8 bb3d 4154 0ebd a7bb 963c c6fe 9a3d
00000320: 9e11 973d a031 20bd bc13 96bc 7608 98bd
00000330: 43d8 fb3d 7e88 f83c 7b9e b33d 98d1 773c
00000340: cff9 3a3d 5194 a23c 7d89 1c3d 54e9 07bd
00000350: f093 973d 6917 53bc 0ed5 aebd 4e58 633c
00000360: 157d 1fbc 66f9 913d e376 d4bd 09c3 da3d
00000370: 85bc 713d 1159 713d 4631 303d 49a0 e0bc
00000380: 87c4 56bd 17bd 11bd b5db 94ba 7ad4 aa3d
00000390: 798c aabb 419c 8839 544c 4d3d 4a44 f6bd
000003a0: 1458 e63d 94d9 933d 4ac3 24bc fea2 ffbc
000003b0: 6a4c ccbb 5604 07be e2fe afbd a9a7 d13d
000003c0: b910 3fbd b75f 003d a59a b4bd 8524 dc3c
000003d0: c305 193c b7fe a0bc 568d 373d c015 583d
000003e0: cfdb 12bd d9db 2abd b563 9fbd ae52 d0bc
000003f0: 3355 09bd 25cd 8bbd 5ec1 c2bd 28eb 66bd

lstm.bias_hh_l0 f4 [256]
-0.05805462 -0.06944203 0.080754824 0.13150215 0.09618868 0.020385768 -0.07446391 0.08015535
0.051001325 -0.0963474 0.025966486 -0.017945562 0.014972148 0.0947413 -0.0957682 -0.10411726
-0.07034413 0.03175627 -0.11276061 0.107372984 -0.026550457 0.089243665 0.114731416 0.04372074
0.007167349 0.015549665 0.09113862 -0.07789466 -0.060422417 -0.046217192 0.121334255 0.098539576
0.049748234 0.030437736 -0.12571073 0.06637895 -0.0692908 0.058259122 -0.085620284 -0.124104336
-0.0759158 -0.055867393 0.059170347 -0.1268993 0.08332537 0.058769822 -0.051292878 -0.071665496
-0.111043125 0.097539976 -0.0020725785 -0.023110718 -0.101084076 -0.05770563 -0.0034640958 0.06305424
-0.07961558 0.02331867 0.084012486 -0.060392875 0.026135966 0.07619242 0.047340862 -0.05543449
0.013253353 0.11586963 -0.07163454 0.09678147 -0.020691082 0.004458658 -0.024434114 -0.11599038
-0.031848673 -0.086544655 0.08741064 -0.09795665 0.07267414 -0.10683018 0.1358076 0.010898884
-0.007234576 0.101422004 -0.048241373 -0.11709881 0.015584016 0.139311 0.025696838 0.028674934
0.13212255 0.048236344 0.058949497 0.057593707 -0.09313415 -0.003915846 -0.010558134 -0.0468925
-0.063076355 0.011994087 -0.09325761 -0.11471421 -0.04975924 -0.07912589 -0.055624638 -0.02908495
0.066932335 0.13325527 0.053187955 -0.060280405 0.06901833 0.10087426 0.035515253 -0.013822481
-0.11535547 -0.01355572 0.121890016 0.06803906 0.049148362 0.03246188 -0.08232926 0.11837884
-0.08315982 0.06164242 0.026393307 -0.078019045 0.038789064 -0.04087404 0.042566992 0.1361011
-0.10102348 0.004703623 0.073441915 0.091977715 0.07762288 -0.06993379 0.006034362 0.08012764
0.03438786 0.07120587 0.04033722 0.0052302517 -0.07497681 -0.06914818 0.032584447 0.07511421
-0.03053409 -0.060075503 0.06517428 -0.046504106 -0.00092428294 0.047269896 -0.02419351 0.080871224
0.08919488 -0.012788585 -0.0815173 -0.05216504 0.0335856 -0.082410984 -0.073193274 -0.059914384
0.10907305 0.03479344 -0.06169306 0.044027526 -0.07684257 -0.09453005 -0.09106671 -0.10894923
-0.08819442 0.09103904 0.1079127 0.10265463 0.01574556 -0.023045339 0.022707883 -0.101552665
0.08841642 0.080932684 0.09764651 0.1194831 0.1047743 0.008726093 -0.11167854 -0.012460214
-0.067879625 0.01977843 0.04937196 0.07932174 0.10982961 -0.1123768 -0.08829519 -0.11431566
-2.199e-05 -0.12062463 0.078041784 0.027080884 0.07261578 0.012615807 -0.052171454 -0.09649216
0.049482517 0.025800494 0.12319729 -0.11615035 -0.06506311 0.065697655 0.025342152 -0.10897977
-0.018682228 -0.0065696193 -0.08289838 -0.11784245 0.04825229 -0.0058548627 0.041740984 0.12884416
-0.03790262 0.06762406 0.02970524 -0.06811322 -0.020472236 0.026620138 0.05903042 -0.027075918
0.005355212 0.10127051 0.03360592 -0.0013035706 0.058309264 0.07726401 -0.07415853 -0.016609892
-0.061592665 -0.063933544 0.002745035 -0.117827 -0.09675749 0.09620128 0.106641866 -0.09181741
-0.11719371 -0.07436288 0.04225925 -0.082210034 -0.0060799196 0.033868376 0.023098297 -0.0008945447
-0.014165043 0.0130871255 -0.0201977 0.009658151 0.048525706 -0.03652496 0.05665091 0.034988046
00000000: aeca 6dbd 9f37 8ebd c962 a53d 80a8 063e
00000010: 92fe c43d 0e00 a73c 8980 98bd 7d28 a43d
00000020: c4e6 503d c951 c5bd abb7 d43c 9202 93bc
00000030: be4d 753c ba07 c23d 1e22 c4bd 6e3b d5bd
00000040: 9510 90bd dd12 023d 09ef e6bd 5ee6 db3d
00000050: 5880 d9bc 62c5 b63d 4ef8 ea3d 8514 333d
00000060: 15dc ea3b 06c4 7e3c e3a6 ba3d 3c87 9fbd
00000070: 7f7d 77bd 3d4e 3dbd 187e f83d 1ecf c93d
00000080: cec4 4b3d 8f58 f93c 50ba 00be b0f1 873d
00000090: 56e8 8dbd 1ea1 6e3d b059 afbd 6a2a febd
000000a0: be79 9bbd 35d5 64bd 9b5c 723d e4f1 01be
000000b0: 7ea6 aa3d a0b8 703d 7b18 52bd 5cc5 92bd
000000c0: 946a e3bd 0ac3 c73d 19d4 07bb b052 bdbc
000000d0: 2b05 cfbd bd5c 6cbd e205 63bb 9522 813d
000000e0: 7e0d a3bd cc06 bf3c bd0e ac3d 855e 77bd
000000f0: 181b d63c c60a 9c3d 7ee8 413d 470f 63bd
00000100: 9724 593c 0e4d ed3d 21b5 92bd 5d35 c63d
00000110: 5880 a9bc ef19 923b 0d2a c8bc 5d8c edbd
00000120: c173 02bd 533e b1bd 5a04 b33d 7f9d c8bd
00000130: 2ed6 943d c8c9 dabd 2611 0b3e 3c91 323c
00000140: 0610 edbb 57b6 cf3d bf98 45bd 80d1 efbd
00000150: 1a54 7f3c 8ba7 0e3e 2d82 d23c b2e7 ea3c
00000160: 224b 073e 7993 453d 0775 713d 61e7 6b3d
00000170: 1ebd bebd 7f50 80bb 06fc 2cbc 5a12 40bd
00000180: 2d2e 81bd d982 443c d9fd bebd 49ef eabd
00000190: 58d0 4bbd c10c a2bd a9d6 63bd 9043 eebc
000001a0: d213 893d 1274 083e 9ddb 593d 96e8 76bd
000001b0: 7b59 8d3d 2a97 ce3d 7178 113d b077 62bc
000001c0: 7d3f ecbd d018 5ebc 79a1 f93d 1058 8b3d
000001d0: cb4f 493d c0f6 043d 3e9c a8bd 9b70 f23d
000001e0: b24f aabd c37c 7c3d c736 d83c 73c8 9fbd
000001f0: 48e1 1e3d 8a6b 27bd ba5a 2e3d 165e 0b3e
00000200: 66e5 cebd d920 9a3b b768 963d d05e bc3d
00000210: bff8 9e3d 7239 8fbd e6bb c53b f619 a43d
00000220: 49da 0c3d 62d4 913d a438 253d 8862 ab3b
00000230: 718d 99bd 909d 8dbd 4577 053d 7bd5 993d
00000240: a122 fabc bb11 76bd 187a 853d 177b 3ebd
00000250: 944b 72ba 149e 413d 7831 c6bc d09f a53d
00000260: ceab b63d 3787 51bc 8bf2 a6bd 02ab 55bd
00000270: 0e91 093d 17c7 a8bd 5be6 95bd c968 75bd
00000280: b161 df3d 9183 0e3d ddb1 7cbd 3556 343d
00000290: a35f 9dbd f998 c1bd 2f81 babd c620 dfbd
000002a0: 479f b4bd ad72 ba3d 5501 dd3d 973c d23d
000002b0: d5fc 803c 94c9 bcbc e205 ba3c d8fa cfbd
000002c0: ab13 b53d 09c0 a53d e5fa c73d 8eb3 f43d
000002d0: e893 d63d e3f7 0e3c b8b7 e4bd ed25 4cbc
000002e0: 7904 8bbd 6006 a23c 413a 4a3d 7073 a23d
000002f0: 59ee e03d cf25 e6bd 1cd4 b4bd 541e eabd
00000300: 2a77 b8b7 0c0a f7bd 5fd4 9f3d bbd8 dd3c
00000310: 95b7 943d 88b2 4e3c bcb1 55bd ae9d c5bd
00000320: 2eae 4a3d 8f5b d33c dc4e fc3d 3ce0 edbd
00000330: cf3f 85bd 7e8c 863d 589a cf3c c930 dfbd
00000340: 790b 99bc f645 d7bb a0c6 a9bd 6257 f1bd
00000350: 31a4 453d 26da bfbb 98f8 2a3d b9ef 033e
00000360: c73f 1bbd 7c7e 8a3d 6758 f33c f27e 8bbd
00000370: 64b5 a7bc 7a12 da3c e2c9 713d 51ce ddbc
00000380: c67a af3b ea66 cf3d 5ca6 093d 92dc aaba
00000390: b2d5 6e3d 983c 9e3d 6de0 97bd 7811 88bc
000003a0: 9748 7cbd 97ef 82bd 0ce6 333b 484f f1bd
000003b0: ca28 c6bd 2d05 c53d 0d67 da3d c40a bcbd
000003c0: 4103 f0bd 914b 98bd 0918 2d3d bc5d a8bd
000003d0: 103a c7bb 91b9 0a3d a438 bd3c e17f 6aba
000003e0: 7f14 68bc 626b 563c a675 a5bc 393d 1e3c
000003f0: e4c2 463d 329b 15bd c90a 683d a04f 0f3d

lstm.weight_ih_l1 f4 [256, 64]
0.09827125 0.029563002 0.0123392595 0.051303074 0.03157984 0.061008576 0.08085246 0.107964166
0.0911966 0.040173315 -0.10503 -0.005892169 -0.042350084 -0.10147547 -0.021742059 0.09198194
0.10601607 -0.12512426 -0.020358346 -0.06528721 0.027226014 -0.06734127 -0.10827015 -0.08793745
0.08965843 -0.0071457326 -0.08485711 0.006544051 -0.10116859 -0.09717199 -0.09202492 -0.00876488
-0.024690606 0.008181175 0.06696356 0.08459494 -0.11838398 -0.04357056 0.09309964 0.039257962
0.02861276 0.07485409 0.0214116 -0.029782204 0.07218726 0.062205467 0.08046783 -0.07781398
0.05692798 -0.049875442 -0.042517487 -0.0153325945 -0.090563715 0.017706227 0.09803652 0.097279474
-0.100565165 -0.04335794 0.12399153 -0.09810566 -0.04342756 -0.05424242 -0.06522311 -0.005331264
0.099214315 -0.10090312 -0.08284076 0.019657625 -0.07161951 0.05341654 0.09345068 0.057784107
0.13019395 -0.10052736 0.07988638 -0.0020160445 -0.028805722 -0.06314358 -0.022540005 0.08461923
-0.020499315 0.0019244516 0.11690902 -0.12559295 -0.023368843 0.040535066 -0.078665294 -0.00010018653
-0.002915049 -0.08625592 0.025731685 0.035855528 -0.039406817 -0.103477165 0.09568385 0.080228575
-0.10956562 -0.0129202325 0.11672587 -0.12459958 0.07172841 -0.111418545 -0.028596096 -0.09485349
0.017643047 -0.019070338 -0.004097072 0.085007094 0.11102739 -0.07536718 -0.12098626 -0.0879978
0.03192969 0.008181817 0.08302754 0.028436625 -0.0004859068 0.02171058 -0.11581022 0.12342362
-0.005906983 0.08295168 0.08190382 0.10556059 0.08324059 0.03845196 -0.034486834 -0.069670014
-0.072072186 0.0060517616 0.057607565 -0.002976487 -0.0100778425 0.03990275 -0.099797584 -0.012385267
-0.09473075 -0.03442441 0.04151082 0.06556086 0.07823367 -0.041402902 0.006711194 -0.008596901
0.006606155 0.053316955 -0.079322785 0.04199194 0.033559438 -0.024099793 0.0069398056 0.07602918
-0.09332931 0.07157265 0.091992885 0.085296124 -0.10465957 0.038124554 0.08075843 -0.07627533
-0.066231616 0.11197729 -0.0029376124 -0.0050572897 0.0051728413 -0.012629077 0.04311317 -0.11755353
-0.03636347 0.0014959037 -0.07090531 -0.046082977 0.09754062 -0.11847664 -0.056028236 -0.08006621
0.08891027 -0.06796033 0.028868183 -0.007008108 -0.13169152 -0.002327231 -0.10274044 -0.008734689
-0.032616723 -0.10522231 -0.011039906 -0.028778166 0.018913044 0.060999583 -0.030022811 -0.036755085
0.030704115 0.021289976 0.0019472494 0.028220322 0.035177354 -0.007818865 -0.08646544 -0.09404845
0.11318486 0.0022527017 0.07354322 -0.017506732 0.07591295 -0.09513684 0.0072170417 -0.060651142
-0.089334965 0.082587264 -0.068125315 0.022592233 0.086471505 -0.10556002 -0.0878986 -0.011011823
0.070089996 0.060991503 0.042649947 -0.08013721 0.04395327 0.061978318 -0.08778408 0.02059194
0.06229069 0.10857419 0.03695079 0.008796933 -0.0461505 0.07830466 -0.035791386 -0.10625222
0.015664257 -0.05010008 -0.017410496 0.04000667 0.072889045 -0.00019382317 0.10808943 0.10797679
-0.04445254 -0.09425327 -0.063871905 -0.061604194 -0.0075331093 -0.002250505 -0.10537796 0.106327154
0.04110337 0.0611218 0.07969701 -0.015823418 0.11148737 0.022353152 -0.07384102 0.07682394
00000000: 7042 c93d 1c2e f23c 9b2a 4a3c 2c23 523d
00000010: dd59 013d 21e4 793d f995 a53d 511c dd3d
00000020: 48c5 ba3d c68c 243d f819 d7bd 1913 c1bb
00000030: 4877 2dbd 5fd2 cfbd 671c b2bc 0761 bc3d
00000040: f41e d93d 9320 00be 8cc6 a6bc 4db5 85bd
00000050: 1709 df3c 38ea 89bd bebc ddbd 8d18 b4bd
00000060: d79e b73d c026 eabb 91c9 adbd 7b6f d63b
00000070: 7a31 cfbd 1c02 c7bd 9077 bcbd 929a 0fbc
00000080: f443 cabc 560a 063c 3124 893d 1d40 ad3d
00000090: 4d73 f2bd 0b77 32bd 06ab be3d f5cc 203d
000000a0: 4f65 ea3c 1a4d 993d 6167 af3c cff9 f3bc
000000b0: ead6 933d 29cb 7e3d 51cc a43d f05c 9fbd
000000c0: 502d 693d 314a 4cbd d126 2ebd 9035 7bbc
000000d0: 7879 b9bd a60c 913c 5fc7 c83d 763a c73d
000000e0: 1cf5 cdbd 1898 31bd 45ef fd3d 9feb c8bd
000000f0: 19e1 31bd 4d2d 5ebd b293 85bd e2b1 aebb
00000100: e030 cb3d 4ca6 cebd 6ba8 a9bd 0709 a13c
00000110: 40ad 92bd 4dcb 5a3d 1263 bf3d 07af 6c3d
00000120: 9051 053e 4ae1 cdbd 789b a33d 9d1f 04bb
00000130: faf9 ebbc 6c51 81bd d1a5 b8bc d94c ad3d
00000140: 2eee a7bc e13d fc3a ff6d ef3d 709b 00be
00000150: 0470 bfbc 1908 263d 451b a1bd 3c1b d2b8
00000160: 680a 3fbb f2a6 b0bd 41cb d23c 3fdd 123d
00000170: 0b69 21bd d6eb d3bd e5f5 c33d e14e a43d
00000180: f163 e0bd 62af 53bc f90d ef3d 112e ffbd
00000190: 58e6 923d 682f e4bd 5c42 eabc 8c42 c2bd
000001a0: 2788 903c 6639 9cbc bb40 86bb 3318 ae3d
000001b0: 5462 e33d 1c5a 9abd a5c7 f7bd 3138 b4bd
000001c0: b5c8 023d 070d 063c 580a aa3d edf3 e83c
000001d0: 4fc1 feb9 63da b13c e92d edbd 86c5 fc3d
000001e0: 5d8f c1bb 92e2 a93d 31bd a73d 2730 d83d
000001f0: 0b7a aa3d cd7f 1d3d 1142 0dbd 27af 8ebd
00000200: 959a 93bd db4d c63b e9f5 6b3d 2a11 43bb
00000210: 891d 25bc 1171 233d ad62 ccbd 93eb 4abc
00000220: 3202 c2bd 9c00 0dbd 4007 2a3d c644 863d
00000230: f938 a03d 1796 29bd 93e9 db3b 04da 0cbc
00000240: 7278 d83b e162 5a3d fc73 a2bd beff 2b3d
00000250: 9f75 093d ee6c c5bc 4f67 e33b 30b5 9b3d
00000260: 7023 bfbd ae94 923d c466 bc3d bcaf ae3d
00000270: c257 d6bd 7e28 1c3d ad64 a53d 3d36 9cbd
00000280: 71a4 87bd 5954 e53d f584 40bb 9fb7 a5bb
00000290: f080 a93b 30ea 4ebc 6f97 303d e8bf f0bd
000002a0: ddf1 14bd 3312 c43a ce36 91bd 81c1 3cbd
000002b0: 60c3 c73d e1a3 f2bd dd7d 65bd c1f9 a3bd
000002c0: 9616 b63d c92e 8bbd f87c ec3c 45a4 e5bb
000002d0: 24da 06be 7584 18bb 9469 d2bd f11b 0fbc
000002e0: 1d99 05bd cb7e d7bd b9e0 34bc 30c0 ebbc
000002f0: 87ef 9a3c b3da 793d 66f2 f5bc 808c 16bd
00000300: 3287 fb3c 5168 ae3c d93a ff3a 4e2e e73c
00000310: 2116 103d b21a 00bc cb14 b1bd 799c c0bd
00000320: 77cd e73d 10a2 133b d49d 963d 476a 8fbc
00000330: 4078 9b3d 1bd7 c2bd ef7c ec3b 556d 78bd
00000340: 40f5 b6bd 8323 a93d 4985 8bbd 5913 b93c
00000350: f917 b13d da2f d8bd 2e04 b4bd ef6a 34bc
00000360: 588b 8f3d 3ad2 793d b6b1 2e3d fa1e a4bd
00000370: 5808 343d fadc 7d3d 24c8 b3bd 6eb0 a83c
00000380: 8624 7f3d 255c de3d b659 173d 0321 103c
00000390: 4f08 3dbd 325e a03d fd99 12bd c49a d9bd
000003a0: 5452 803c be35 4dbd 75a0 8ebc 09de 233d
000003b0: da46 953d 033d 4bb9 fe5d dd3d ef22 dd3d
000003c0: de13 36bd dc07 c1bd 46cf 82bd ae54 7cbd
000003d0: 4dd8 f6bb 357d 13bb 66d0 d7bd 0dc2 d93d
000003e0: 025c 283d da5a 7a3d 3038 a33d 1da0 81bc
000003f0: 7e53 e43d f51d b73c f639 97bd df55 9d3d

lstm.weight_hh_l1 f4 [256, 64]
-0.08552718 -0.02111595 0.0017611434 -0.11965999 0.03447276 0.098818585 -0.014982549 0.07002321
0.10786363 -0.07345295 0.02344006 -0.09835073 -0.028312577 -0.09625225 -0.016169567 -0.03639155
-0.060116377 -0.006093066 -0.058367506 0.053396583 -0.02224113 -0.07441073 -0.10107959 0.022949848
-0.08938892 0.0024564364 0.054808814 0.06747004 0.059220582 -0.091940135 -0.005549222 0.06286647
0.07746436 0.079810716 -0.115790255 -0.07039307 -0.022873448 -0.09227195 0.13119924 0.10590482
-0.06562769 0.017189192 -0.12787358 -0.0015251735 -0.03485095 0.045095623 -0.03347674 0.05085477
-0.058820274 -0.09788679 0.09834283 0.06316376 0.09549118 -0.101869926 0.0003270061 -0.02420925
0.028123599 -0.025292702 0.10901472 0.07786272 -0.047683608 -0.01861144 -0.10820523 -0.074444786
-0.0060117426 -0.11989398 -0.034092575 0.016467609 0.13705733 0.07562883 -0.061712403 -0.069736846
-0.028264657 -0.07798706 0.021220468 -0.08800579 -0.064617455 -0.092635214 0.124306396 0.0071686115
-0.105610855 0.012067727 -0.06348491 -0.084587686 -0.14771985 -0.12438215 0.005843301 -0.067791276
0.114342384 0.058071073 0.107585736 0.13738728 0.09323882 0.023164652 -0.02305348 -0.0933364
0.14079648 0.022104612 0.050086606 0.00026077277 -0.051755093 0.06952028 -0.108407706 -0.049854826
-0.030096823 -0.014259949 0.07398037 -0.0761322 -0.0538571 0.075245306 0.04924161 -0.037115715
0.015683072 0.12620471 0.005584544 -0.093537435 0.033714727 -0.11779923 0.14622766 0.039351743
0.062230613 -0.06261911 -0.031998046 -0.102933064 -0.08098527 0.091623686 -0.0638981 -0.10009678
0.09558919 0.030833438 0.08745493 -0.01840212 -0.05486925 0.113336794 -0.037286464 -0.048596516
0.10245009 -0.0057715992 -0.0041509857 0.034298796 0.10396869 -0.07904096 -0.07985443 -0.030044217
-0.011361364 0.1232737 -0.059515305 -0.085926786 0.08919832 -0.073452204 -0.07241465 0.019049514
0.047326177 -0.016197542 0.10662936 0.005087831 -0.115668066 -0.106825575 0.010131238 -0.120782666
0.112810686 0.062329117 0.04584794 -0.124513164 0.01864198 -0.1122071 0.102028824 -0.115503766
-0.04774733 -0.102034636 0.030105762 0.02198491 0.022398591 0.006283064 -0.045339275 0.014054596
-0.08837565 0.09308148 0.1141773 -0.077511415 -0.09624826 -0.07489348 0.069061235 0.0056772646
-0.016888862 -0.024434559 0.057274885 0.114366956 0.021738527 0.053640794 -0.0031587179 -0.09315028
-0.025958829 0.123604536 0.03646006 -0.07795896 -0.084174395 0.017000735 -0.0034397235 0.04918304
0.11439696 0.06848286 -0.06398428 0.09064633 0.08988943 -0.13880494 -0.08028939 0.113442086
0.12166405 0.13501106 0.08759521 0.06599526 0.08100301 0.10148153 -0.014157859 0.06805534
0.036671244 -0.10119384 0.12632468 -0.061431147 -0.069920525 -0.077103265 0.09976317 -0.041700464
-0.08193913 -0.09412706 0.009724736 0.05834401 0.08013352 -0.04782268 -0.109588414 -0.10192763
-0.1313535 -0.08087396 0.048062347 0.028391583 -0.038084213 -0.008899344 0.031958327 0.09882299
0.038323205 0.05417164 0.075680204 0.055763092 -0.05037894 -0.06574558 0.11983639 -0.11813642
-0.005687196 -0.13237594 -0.032578893 -0.03733892 -0.060252704 -0.104788 0.06749664 -0.026875354
00000000: e028 afbd 5bfb acbc 2bd6 e63a 4c10 f5bd
00000010: 4f33 0d3d 6661 ca3d 5d79 75bc 5468 8f3d
00000020: 9be7 dc3d 806e 96bd 5e05 c03c 1c6c c9bd
00000030: c7ef e7bc e61f c5bd 0a76 84bc 4e0f 15bd
00000040: 973c 76bd 58a8 c7bb c412 6fbd 60b6 5a3d
00000050: 0833 b6bc a764 98bd d102 cfbd 5201 bc3c
00000060: 8a11 b7bd 2afc 203b 357f 603d bb2d 8a3d
00000070: 4891 723d 1c4b bcbd 40d6 b5bb 23c0 803d
00000080: a2a5 9e3d cd73 a33d 7123 edbd 3e2a 90bd
00000090: 1961 bbbc 13f9 bcbd 1859 063e a0e4 d83d
000000a0: cf67 86bd 59d0 8c3c 4bf1 02be 55e8 c7ba
000000b0: dfbf 0ebd 30b6 383d e81e 09bd 174d 503d
000000c0: 87ed 70bd df78 c8bd f767 c93d 005c 813d
000000d0: e190 c33d 2ea1 d0bd 0472 ab39 7a52 c6bc
000000e0: 7663 e63c a432 cfbc 1c43 df3d 7d76 9f3d
000000f0: e34f 43bd 0577 98bc b49a ddbd 8276 98bd
00000100: 27fe c4bb fa8a f5bd a8a4 0bbd 14e7 863c
00000110: c258 0c3e 4ae3 9a3d 25c6 7cbd 31d2 8ebd
00000120: 488b e7bc aeb7 9fbd 8cd6 ad3c 613c b4bd
00000130: 2856 84bd 88b7 bdbd 5a94 fe3d ace6 ea3b
00000140: 814a d8bd b7b7 453c 6004 82bd 4f3c adbd
00000150: df43 17be 12bc febd 2979 bf3b 27d6 8abd
00000160: 572c ea3d efdb 6d3d e955 dc3d 40af 0c3e
00000170: fff3 be3d ccc3 bd3c a7da bcbc 2827 bfbd
00000180: f42c 103e bb14 b53c 9d27 4d3d 54b8 8839
00000190: 26fd 53bd a660 8e3d dc04 debd 9334 4cbd
000001a0: 9d8d f6bc 90a2 69bc 0583 973d 33eb 9bbd
000001b0: 4399 5cbd 361a 9a3d 92b1 493d a606 18bd
000001c0: c979 803c cf3b 013e 8dfe b63b 8e90 bfbd
000001d0: 7418 0a3d b940 f1bd b4bc 153e 4b2f 213d
000001e0: 87e5 7e3d 733e 80bd 6210 03bd 92ce d2bd
000001f0: 9bdb a5bd 33a5 bb3d 02dd 82bd 8aff ccbd
00000200: 44c4 c33d 6896 fc3c 921b b33d 0bc0 96bc
00000210: 94be 60bd 1f1d e83d b1b9 18bd 240d 47bd
00000220: 5ad1 d13d af1f bdbb fe04 88bb e57c 0c3d
00000230: 89ed d43d 3ae0 a1bd b88a a3bd 4a1f f6bc
00000240: 0425 3abc ec76 fc3d 52c6 73bd 62fa afbd
00000250: 9cad b63d 1c6e 96bd 224e 94bd ba0d 9c3c
00000260: 18d9 413d b5b0 84bc 7e60 da3d d2b7 a63b
00000270: 61e3 ecbd 5ec7 dabd 7efd 253c e75c f7bd
00000280: 4a09 e73d d14c 7f3d 0dcb 3b3d c200 ffbd
00000290: 11b7 983c d6cc e5bd 7df4 d03d 3d8d ecbd
000002a0: b492 43bd 89f7 d0bd 5ca0 f63c b319 b43c
000002b0: 407d b73c 29e2 cd3b adb5 39bd 4045 663c
000002c0: 4bfe b4bd 81a1 be3d cad5 e93d 4ebe 9ebd
000002d0: cf1d c5bd c161 99bd fa6f 8d3d 5908 ba3b
000002e0: 835a 8abc fc2a c8bc 1299 6a3d 3939 ea3d
000002f0: ff14 b23c 73b6 5b3d 7e02 4fbb 93c5 bebd
00000300: 9ca7 d4bc 6024 fd3d 2557 153d f2a8 9fbd
00000310: a063 acbd 2045 8b3c fc6c 61bb 2874 493d
00000320: f448 ea3d be40 8c3d 310a 83bd c8a4 b93d
00000330: f317 b83d e222 0ebe c46e a4bd 5354 e83d
00000340: 002b f93d 5740 0a3e 1e65 b33d 8628 873d
00000350: e8e4 a53d 8cd5 cf3d 5df6 67bc 9960 8b3d
00000360: 9634 163d b73e cfbd 425b 013e 3a9f 7bbd
00000370: 7e32 8fbd 51e8 9dbd a250 cc3d 1bce 2abd
00000380: b4cf a7bd b0c5 c0bd 8054 1f3c 21fa 6e3d
00000390: 0b1d a43d b7e1 43bd e46f e0bd 6fbf d0bd
000003a0: 8881 06be 3fa1 a5bd 06dd 443d 7795 e83c
000003b0: 31fe 1bbd 8ece 11bc bce6 023d b563 ca3d
000003c0: cbf8 1c3d 15e3 5d3d 39fe 9a3d d767 643d
000003d0: 265a 4ebd 9ea5 86bd c86c f53d 82f1 f1bd
000003e0: a85b babb 8f8d 07be 7271 05bd b2f0 18bd
000003f0: 8acb 76bd 179b d6bd ae3b 8a3d b429 dcbc

lstm.bias_ih_l1 f4 [256]
0.10862453 0.14216201 0.12363618 -0.08114502 0.012990237 -0.10373904 0.10613584 -0.041463926
0.11445487 0.02765877 -0.028648019 -0.059601605 0.061804067 0.08740223 -0.031078808 0.08651231
0.09212888 -0.015830973 -0.029115565 0.02273145 0.11188511 -0.03753543 -0.071247734 0.08336063
-0.029900737 0.053498566 0.046697546 0.0010170488 0.04786447 -0.07929349 -0.10638595 -0.04338089
0.060575567 0.08847446 0.055075902 -0.12105414 -0.03065433 -0.10537144 0.055926234 0.027760928
0.09356255 0.02729252 0.08787259 -0.09713365 0.036122784 0.07825959 -0.10651204 0.09579402
-0.011253786 0.008764551 0.015206459 0.03354286 -0.034214433 0.0011561572 0.037619453 -0.07310855
-0.061667226 -0.0745156 -0.047126632 -0.03963572 -0.083559416 -0.11818949 0.07508377 0.07583854
-0.027632764 -0.04047792 -0.033094145 0.0726578 0.020436527 0.011696304 0.0711741 0.0994044
-0.036165144 -0.03859894 -0.034490146 0.046058662 -0.040411662 0.06835711 0.09704033 0.12746483
-0.022130812 0.060387403 -0.018927254 -0.08603694 -0.052164044 -0.080638364 0.023245493 -0.089549325
0.10249968 -0.07364467 0.10171005 0.13901287 -0.041829273 0.0878391 -0.0005123742 -0.039989367
0.07175363 -0.07007184 0.09151842 0.030089298 0.036434438 -0.082113214 -0.09154926 -0.10926032
0.03240282 0.116835974 0.022524796 -0.01422622 -0.007346231 -0.018880138 0.036935605 -0.1102568
0.02953919 -0.09587086 0.0070162755 0.019375972 -0.09067406 0.12046065 -0.023045668 0.0031347661
0.13338265 0.115778275 0.028868353 0.04219807 -0.076340206 0.07718001 -0.08021907 -0.069996044
0.016644543 0.056350924 0.020238781 -0.06650841 0.012765612 0.08807434 0.05748984 0.044627473
-0.058570266 -0.010791921 0.059714172 0.07293212 -0.06319574 -0.057500202 0.07896674 -0.050761543
0.015542509 -0.037031963 -0.006328705 0.012412724 -0.09540906 -0.019126471 0.01685883 0.05307387
-0.043586366 -0.031061225 0.10464059 -0.09685342 -0.11207914 -5.786086e-05 0.0014837924 -0.035393346
0.028856749 -0.1223247 -0.047689706 0.06478675 -0.0042098397 -0.09711966 -0.034951776 -0.036725234
0.04047669 0.11268454 0.042825755 0.004821311 0.018015822 -0.060458176 0.022108382 -0.05728642
0.08977019 -0.00042459514 -0.073760755 -0.018157406 -0.064550914 0.11058514 0.05689701 -0.089637764
0.064137176 0.0015683116 -0.11729806 -0.13004188 -0.055257745 -0.01298453 -0.029597703 0.088261314
-0.029930579 0.04747157 -0.0053576836 -0.07920117 0.071921326 0.11841158 0.10947511 -0.06464776
-0.067819394 0.10648343 -0.0036002954 0.066731766 -0.04311864 0.092165165 0.10137466 0.0056966124
-0.042375177 -0.073494256 -0.11535024 0.117777646 0.041706223 0.0027939247 0.009164663 0.045457862
-0.11162056 0.036110844 -0.040719125 0.07513276 -0.02145451 0.022087604 0.08980312 -0.0008428737
0.03662618 -0.024989478 0.10367615 -0.03830616 -0.057019826 0.121534534 -0.08945926 -0.07259609
0.07427172 0.08913089 0.07623429 0.06178766 0.02912367 -0.0022683844 -0.029228883 -0.02499773
-0.09894821 -0.056863956 -0.02329757 0.024690647 -0.062753856 0.116821215 -0.019493714 -0.013774721
-0.01814469 -0.072688155 -0.04617213 0.0955615 -0.018818412 -0.13046764 -0.08254234 0.030381508
00000000: 8a76 de3d eb92 113e f734 fd3d 5c2f a6bd
00000010: 01d5 543c 2275 d4bd bf5d d93d 14d6 29bd
00000020: 5167 ea3d a594 e23c 40af eabc d020 74bd
00000030: 4326 7d3d f1ff b23d fc98 febc 5e2d b13d
00000040: 11ae bc3d f5af 81bc c483 eebc 4e37 ba3c
00000050: 0524 e53d c0be 19bd 55ea 91bd fab8 aa3d
00000060: 64f2 f4bc 5021 5b3d ed45 3f3d 7f4e 853a
00000070: 890d 443d a064 a2bd e1e0 d9bd 29b0 31bd
00000080: 161e 783d 1932 b53d 4597 613d 3ceb f7bd
00000090: ca1e fbbc fbcc d7bd e812 653d e36a e33c
000000a0: b99d bf3d 9094 df3c 8bf6 b33d 02ee c6bd
000000b0: 7cf5 133d 9046 a03d fc22 dabd a82f c43d
000000c0: cd61 38bc 3199 0f3c 8324 793c 3d64 093d
000000d0: 6f24 0cbd 338a 973a db16 1a3d efb9 95bd
000000e0: c696 7cbd a39b 98bd db07 41bd 1159 22bd
000000f0: 3321 abbd 550d f2bd 85c5 993d 3d51 9b3d
00000100: 1b5e e2bc 2dcc 25bd ba8d 07bd 9dcd 943d
00000110: 816a a73c dba1 3f3c bac3 913d 8994 cb3d
00000120: e721 14bd ec19 1ebd 8a45 0dbd 02a8 3c3d
00000130: b386 25bd d0fe 8b3d 15bd c63d 2486 023e
00000140: ad4b b5bc c858 773d 540d 9bbc 2334 b0bd
00000150: f7a9 55bd ba25 a5bd 556d be3c a365 b7bd
00000160: 5aeb d13d 04d3 96bd 5c4d d03d 6459 0e3e
00000170: 2c55 2bbd fce4 b33d da50 06ba e4cb 23bd
00000180: 91f3 923d d381 8fbd 026e bb3d d57d f63c
00000190: 473c 153d f92a a8bd 2e7e bbbd e0c3 dfbd
000001a0: d2b8 043d b347 ef3d ec85 b83c 1715 69bc
000001b0: a7b8 f0bb 85aa 9abc ca49 173d 51ce e1bd
000001c0: 2cfc f13c f157 c4bd c9e8 e53b 5cba 9e3c
000001d0: 52b3 b9bd 13b4 f63d 45ca bcbc a670 4d3b
000001e0: 7695 083e 291d ed3d 537d ec3c e2d7 2c3d
000001f0: 4158 9cbd 8e10 9e3d e549 a4bd 165a 8fbd
00000200: 235a 883c 3ad0 663d cdcb a53c 9035 88bd
00000210: dc26 513c 5260 b43d 777a 6b3d 4ccb 363d
00000220: 60e7 6fbd 99d0 30bc d996 743d 6f5d 953d
00000230: c56c 81bd 5585 6bbd 50b9 a13d 56eb 4fbd
00000240: 02a6 7e3c d4ae 17bd 0761 cfbb bd5e 4b3c
00000250: d365 c3bd 1eaf 9cbc 871b 8a3c fc63 593d
00000260: 9e87 32bd 1c74 febc ce4d d63d 165b c6bd
00000270: c089 e5bd a0af 72b8 d07b c23a 9df8 10bd
00000280: fd64 ec3c 5f85 fabd 4856 43bd eaae 843d
00000290: b2f2 89bb ace6 c6bd 9829 0fbd 336d 16bd
000002a0: e3ca 253d 27c7 e63d 0f6a 2f3d 17fc 9d3b
000002b0: eb95 933c fea2 77bd a31c b53c 2aa5 6abd
000002c0: 6fd9 b73d 329c deb9 e10f 97bd d7be 94bc
000002d0: 4533 84bd 767a e23d d70c 693d 0194 b7bd
000002e0: 5a5a 833d ce8f cd3a f739 f0bd b329 05be
000002f0: f255 62bd 11bd 54bc e276 f2bc 59c2 b43d
00000300: f930 f5bc 8d71 423d 828f afbb 3934 a2bd
00000310: 7d4b 933d c581 f23d 7d34 e03d 0b66 84bd
00000320: e5e4 8abd fc13 da3d eff2 6bbb aaaa 883d
00000330: 2c9d 30bd 17c1 bc3d 859d cf3d a6aa ba3b
00000340: 9891 2dbd 2884 96bd bf3c ecbd 6835 f13d
00000350: 25d4 2a3d 471a 373b 6227 163c 0632 3a3d
00000360: 5299 e4bd f7e8 133d 19c9 26bd 34df 993d
00000370: 5ec1 afbc 10f1 b43c b3ea b73d 4cf4 5cba
00000380: 5505 163d bcb6 ccbc 2954 d43d ece6 1cbd
00000390: 9f8d 69bd 19e7 f83d 6b36 b7bd 42ad 94bd
000003a0: c61b 983d 428a b63d b920 9c3d 0f15 7d3d
000003b0: c394 ee3c 2da9 14bb 6971 efbc 0ac8 ccbc
000003c0: 5ca5 cabd 2eea 68bd 8cda bebc 0a44 ca3c
000003d0: 1885 80bd f63f ef3d 48b1 9fbc 5eaf 61bc
000003e0: 2ca4 94bc 87dd 94bd fd1e 3dbd bfb5 c33d
000003f0: 1229 9abc 4f99 05be f50b a9bd a4e2 f83c
