output/LSTM2CNN/LSTM2CNN_adam_64_1000/model/LSTM2CNN_epoch_645.pth (torch, 353538 bytes, 16 tensors)

lstm.weight_ih_l0 f4 [256, 11]
00000000: ae3d 5bbd b5a3 953d e972 2dbb 1696 00bd
00000010: 44b0 d63d 5f24 bfbd 49a1 9c3d 9cd0 6b3b
00000020: 3063 703d 4b7a 7dbc 5083 c7ba dcbb cfbd
00000030: 613b f8bc 0da0 fa3c c064 2c3d 4a75 dcbd
00000040: 701b 8bbd fd6f c83d de27 8abd 0618 4cbc
00000050: b308 abbd 0b18 9ebc 55c1 003e 229f a23d
00000060: c607 e2bd ac9a 043c 0e66 a13d 4fc8 403d
00000070: 29e9 fe3d 1e17 0f3d c617 e6bb d24e b9bd
00000080: 174c f23d dba9 afbd 7c2a 9b3d f171 943d
00000090: af51 023d 07d6 8c3d e265 b03d aec6 bd3d
000000a0: 3a5c 013e 29a1 2abd 0023 f63d a6ff f53c
000000b0: 2c25 583d ade3 843d 24c0 29bd e039 fa3d
000000c0: e740 5dbc c468 bb3d df75 393d 6efa 12bd
000000d0: 75cf 463d afbe e1bc 3816 5d3d 9976 043e
000000e0: 293e 69bd 25bf eb3d 9cad ebbb 16e4 0c3e
000000f0: 6fb8 abbd d938 673d 9afb 223d 3fe4 a93d
00000100: 53e5 753d 4fa7 e03d eea9 89bd a0d3 95bd
00000110: 5322 ea3d 8422 0abe e7d8 343c a82e a5bd
00000120: 822f aa3d 463a 4bbd ae66 833d 613e aa3d
00000130: 80ba 4e3d 6b8e 963d 2577 73bd af80 d2bd
00000140: 413d b6bd c525 773d da3f 81bd 270e fe3d
00000150: 8707 a73d c12e 643d 13af f3bd d0e4 a1bd
00000160: 545d cdbd 2222 8b3d 86bf ddbd 12af 65bd
00000170: c70d 4c3d 9d8e 03bb 86f2 71bc e074 04bc
00000180: e184 1dbc ca01 0cbe e12e 353d 7387 c7bd
00000190: 24e7 d6bc 84fc 363d c2bf bd3d e3ba c2bd
000001a0: 7833 a73d fff2 e1bd 7087 403c 649a e5bc
000001b0: bf7b 153b 6ec2 adbd 7149 06be 3326 ce3d
000001c0: e5eb bcbd fea6 13bd c75e b03c 5a72 05be
000001d0: 8bdd babd 900d bf3d 175c 583c 279f 9a3d
000001e0: 0452 b0bd fbf6 98bd a3aa 003d 6019 8d3d
000001f0: f2e3 523d e556 3d3c a22c c6ba 0729 813c
00000200: 9725 d3bd f77a 84bc 993e 763c 09c3 ecbd
00000210: 4c3d 8ebd 3642 c63d f4d6 f03d b2c8 403d
00000220: 456b 213e fd02 9f3d 5f1d 9c3d 1eb3 803b
00000230: 5533 f13d e0ae 3abd 6efe 47bd 8337 ca3d
00000240: da3a b4bd 4ac2 d1bd 7f2f 023e df7e cb3d
00000250: e90a 8bbd 66c3 b5bd 277f ef3c b9cd 893d
00000260: 5ecc 8b3d 5cdf 98bc d524 fcbd fe40 0bbd
00000270: edc7 c2bd a87a 543d 70d6 0bbd 8aca d23d
00000280: d532 9bbd 89fd cc3d faad 0b3d a8e8 a93d
00000290: d373 9abd a2f8 8fbd 06f0 c5bd 8bb0 123e
000002a0: 7a3b d73d 872b 1dbd ca7a 1f3d 1768 bfbd
000002b0: 40b9 72bd 401d d4bc 6382 b43d 5764 12bd
000002c0: d162 4a3d 23b2 b63c 3941 b7bd fca6 c3bd
000002d0: 7830 833d f552 4fbd ca1d 263d 8ee5 44bc
000002e0: 52eb 743d 1771 ce3c 3fd5 42bd 473d b7bd
000002f0: 181b c03d 8e5b a2bd 5c1c 3d3b 17fa bf3d
00000300: 0019 86bd 40b5 efbc 270f 36bd 415f 443a
00000310: 73d7 c4bd 8d40 e2bd dd8f 38bd 8e84 873c
00000320: bbe4 a4bd 5896 af3c 2456 d1bd d3c6 ba3d
00000330: 77bf 163b fc84 bcbd c841 443c 7774 28bd
00000340: 94c1 143d 0e24 5abd da98 943d 116b 953d
00000350: ffc4 1ebc 2ab4 583d 3d37 4abd 9175 bc3c
00000360: d49b 7abd 5f5a a0bd 0012 aabd ab36 15bd
00000370: 8339 753d 2775 b93c 91ba 563c 1aed 09be
00000380: 1ebf a0bc 4ae8 403c 4b0b bb3d dac4 e73c
00000390: c98f 943d 1811 a7bd c40f d4bc 2845 843d
000003a0: 30f7 50bd b416 1dbe 644c 6b3d ef41 53bd
000003b0: 715c 2bbc 876b ec3d 329a 18be 9963 18be
000003c0: 6953 87bc 8957 86bd 88e8 64bd a226 f7bd
000003d0: cff0 a43c d130 e13d d682 5ebc d52d 333b
000003e0: fa92 113d 9029 623d 175a 13bd a223 ab3d
000003f0: c61c d3bc 2a2e eebd b5cd 993d c2db 533d
-0.05352562 0.07306615 -0.0026466197 -0.031393133 0.10482839 -0.09333109 0.0764795 0.0035982495
0.058688343 -0.015471051 -0.0015221629 -0.10143253 -0.030301752 0.030593896 0.04208827 -0.107645586
-0.06792343 0.09786985 -0.06745885 -0.0124568995 -0.083512686 -0.019298574 0.1257375 0.079405084
-0.11036639 0.008093517 0.078807935 0.04706603 0.124468155 0.034934156 -0.007021877 -0.09048237
0.11830919 -0.08577319 0.075764626 0.07248295 0.03181618 0.0687676 0.086131826 0.09266411
0.12632838 -0.0416576 0.120183945 0.03002913 0.052769825 0.06488738 -0.041443005 0.1221807
-0.013504243 0.09150842 0.045278426 -0.03588336 0.04853769 -0.027556745 0.053976268 0.12935866
-0.056944046 0.11511067 -0.0071923267 0.13758883 -0.08384787 0.0564507 0.039790727 0.082954876
0.060033154 0.109694116 -0.06721865 -0.07315755 0.11432328 -0.13489729 0.011038042 -0.080655396
0.08309843 -0.04961612 0.06416069 0.08312679 0.05047083 0.07351383 -0.059439797 -0.10278451
-0.08898402 0.060338754 -0.06311007 0.12405043 0.081557326 0.05570865 -0.11898627 -0.07904971
-0.100275666 0.0679362 -0.10827546 -0.056075163 0.049817827 -0.0020074018 -0.014767295 -0.008084506
-0.0096142 -0.13672557 0.04423416 -0.09742632 -0.026233263 0.04467441 0.092650905 -0.09508302
0.08164114 -0.11032676 0.011751041 -0.02802772 0.0022809354 -0.0848435 -0.13113953 0.1006588
-0.09224681 -0.036047928 0.021529568 -0.13031903 -0.09124287 0.09328759 0.01320555 0.07549887
-0.08609393 -0.07468983 0.03141273 0.068896055 0.051486917 0.011556362 -0.0015119503 0.015766634
-0.10309904 -0.016171915 0.015029573 -0.115606375 -0.06945285 0.096805975 0.11759749 0.047066398
0.15763576 0.07764242 0.076227896 0.0039276024 0.11777369 -0.04557693 -0.048826627 0.09873869
-0.088002875 -0.10242136 0.12713431 0.09936308 -0.0678919 -0.0887516 0.029235436 0.067286916
0.06826089 -0.018661194 -0.12311713 -0.03399753 -0.09510789 0.051874787 -0.03414005 0.102925375
-0.07578055 0.100092955 0.034101464 0.08296329 -0.07541623 -0.07029845 -0.096649215 0.14325158
0.10509391 -0.03837159 0.03893546 -0.093460254 -0.0592587 -0.025892854 0.08813932 -0.035740223
0.049410645 0.02230174 -0.08947987 -0.09553334 0.06405729 -0.050616223 0.040555753 -0.012017621
0.05979473 0.02520041 -0.04756665 -0.089472346 0.09380168 -0.07927619 0.0028856015 0.09373873
-0.06547737 -0.029261231 -0.044448044 0.00074910006 -0.09611406 -0.11047468 -0.045059074 0.0165427
-0.080514394 0.021433994 -0.10221508 0.09119954 0.0023002306 -0.09205052 0.011978574 -0.041126695
0.036317423 -0.05325704 0.072557166 0.07295812 -0.009690522 0.052906193 -0.049369086 0.023005279
-0.061183766 -0.07829737 -0.083042145 -0.03642909 0.0598693 0.02263887 0.013106004 -0.13469353
-0.019622382 0.011774132 0.09133013 0.028292108 0.07253987 -0.08157557 -0.025886424 0.06458503
-0.051016986 -0.15340692 0.0574459 -0.05157655 -0.0104590515 0.11543947 -0.14902571 -0.14881743
-0.016519265 -0.06559665 -0.05588582 -0.120679155 0.020134358 0.10995639 -0.013580998 0.002734055
0.03554056 0.05521542 -0.03597459 0.08356406 -0.025770556 -0.11629899 0.07509939 0.05172325

lstm.weight_hh_l0 f4 [256, 64]
00000000: 3be3 03bc 67b5 063d eb0d 043d 053d ae3d
00000010: bee1 62bd 6350 783d b76d fbbc 7ddd 023e
00000020: 150e e5bc c865 b63d 7fd5 f33d 9580 8f3d
00000030: 7661 093e d4a5 71bd 5d10 9fbd 4786 0abd
00000040: ea50 533d 9e4c 23ba 076e b23b 956e 84bd
00000050: 7244 a83d 9458 4e3c 4f0d d5bd 80fe 893d
00000060: 3d2c 0dbe 8b40 643d 1a78 c4bd 15d0 a2bd
00000070: 98bd 943c e8d2 9f3c 0e6c bc3a 5fca c1bc
00000080: 0c80 b13d c6fe 8d3c 3806 98bc b305 6a3d
00000090: a634 093e d057 b3bd 63b9 85bc 5449 fbbc
000000a0: dc52 893d afa5 1e3d aaca d73d bc77 d4bd
000000b0: 9728 0b3d 031b 9cbd 0ffc d13c 5afb b0bd
000000c0: 90b0 d6bc 53cc e4bd 5b04 cd3d 357a db3d
000000d0: 76c6 9f3d bf50 8eba 4c14 45bb cdf1 ad3d
000000e0: 8b47 20bc 2ba6 d73d 98f9 bf3c 1c43 8b3d
000000f0: 417b 10bd dd57 043c 5323 cfbc de32 cbbd
00000100: 5ac7 eabd 8330 94bc c3c2 13be 85ac 803d
00000110: b7d4 2dbd 8c6f f33c d5fe e03c bfe1 ffbc
00000120: d54f 413c 72dd 063e b7d4 50bd 5ad8 4bbb
00000130: d94b d9bc 325c 72bc 064f a1bc f817 c13d
00000140: 6fcb 8e3d 28eb 1e3d e543 b6bd 7f86 e1bd
00000150: 7ad6 373d 289e e6bd b6c2 943c fb5d 76bd
00000160: 950a ddbd af01 b83d 8eaa bd3c d6ea f23d
00000170: 6a88 cb3d ed39 ea3c 5098 bb3c 79d1 2b3e
00000180: 8cbe a83d 5f35 833d 3067 673c 9548 c7bc
00000190: 1ce0 d7bd a54c efbd 216d c6bc bfba 013d
000001a0: 7daf ca3d 19a1 f9bd 8b25 c83c 7ce7 023e
000001b0: 6be2 04bb 4d29 423d 2272 57bc 04f8 c13d
000001c0: 0c0b 223d 9981 223d 4842 09bd 8015 ea3d
000001d0: f4f8 3abc 3e42 983d 61c3 9f3d 80ac bebd
000001e0: 15e4 e53d 1aa3 52bd 2787 dc3d e26e 153d
000001f0: ed7f b43c b7a5 95bd c580 843d 1d2f 8f3d
00000200: b838 48bd 696b 25bd ed08 8dbd 358b 9e3d
00000210: 1d46 adbb c4a2 883d 7906 5abd 651b 9bbd
00000220: 4b0b 82bd fa5b bcbd 4835 ec3d 0fcb e43d
00000230: 3407 483b d510 e6bd bbe4 f13c 0375 36bc
00000240: 8131 7fbd a026 98bd 5144 c8bb 241f 1bbd
00000250: 3321 293d f33c 15be 2c26 d63d 5e76 693d
00000260: 4b1f c73d 92db ab3d d294 0cbe 26d6 24bd
00000270: c446 93bc 9ebe e73d 1fb3 9f3d 7eb9 623c
00000280: 3bc6 c03d 61b4 abbd 4a42 20bd 4d92 763d
00000290: 2fe0 a23d e8c1 25bd b415 38bc 4930 fcbc
000002a0: f8d6 2d3d 06e6 d1bd f22f bfbd 16f4 893c
000002b0: 41f6 3c3d e318 5b3d e3e9 a7bd af6c 1d3d
000002c0: 26d1 b23c 345e a6bd cb86 b93d 75ce 67bb
000002d0: 46b5 f3bd 700d a03d 1039 ccbd 1cf4 9abd
000002e0: 45a8 0c3e 1d89 323d a3fb 693d 2924 1c3d
000002f0: 6d12 00bc f631 d8bd 3c2a d33d df2b d9bd
00000300: b498 7f3d 552c f23d ff76 a23d 235a 123e
00000310: b26a aa3c 1191 563d b1c9 b63d 9e91 05be
00000320: 282a debc 953f ccbd 4445 ad3d e4bb 3bbd
00000330: eede 243e b422 d73d dbf8 0ebe d825 29bd
00000340: c440 173b 58ab 143e c5b7 c8bd c932 a73c
00000350: b2e6 2dbd 87d8 a73c e055 e03d 6804 6cbd
00000360: 9d33 a13d f563 dc3b 7a43 e0bd 68e9 9f3d
00000370: 5345 c2bd 317b b3bd db30 0cbd d7da 46bc
00000380: b68e 1d3d 845f 173d 298a af39 eeb4 9ebd
00000390: 0bcc 8fbd 5ecd 8ebd 43e0 68bd 5901 1dbd
000003a0: 63b1 713d 673b 203d c113 1abd 9de5 83bd
000003b0: c878 ab3c cd32 e2bd aadf 13be bb8e 61bd
000003c0: cf72 fdbc 4e5d 293d f708 383d 0212 153d
000003d0: 4dd7 ed3c f4f5 94bd 9b6d 5d3d 52b1 90bd
000003e0: 56d6 e3bc 30b1 10be acbf b8bd 67e9 68bd
000003f0: 86b9 233d 5b1e 073d 9ddd c3bd e274 d53c
-0.008049781 0.032887843 0.032239836 0.08507732 -0.055391066 0.060623538 -0.030691965 0.12779804
-0.027960816 0.08906132 0.119059555 0.07006947 0.13416085 -0.058996037 -0.07766793 -0.033819463
0.051590838 -0.00062293734 0.005445245 -0.06466404 0.0821618 0.012594361 -0.10402929 0.06737995
-0.13786407 0.055725615 -0.0959322 -0.07949845 0.018156812 0.019509748 0.0014375465 -0.023656068
0.08667001 0.0173334 -0.018557653 0.05713434 0.1339899 -0.08756983 -0.01632375 -0.030674614
0.06705257 0.038732227 0.10536702 -0.103744 0.033974256 -0.076223396 0.025632886 -0.086416915
-0.026207238 -0.11171784 0.10010596 0.107166685 0.07801525 -0.0010857804 -0.0030071912 0.084933855
-0.009782682 0.10529741 0.023434445 0.067999095 -0.035273794 0.008077589 -0.025285399 -0.099218115
-0.114638045 -0.018089538 -0.14429764 0.062829055 -0.04243919 0.029716276 0.027465263 -0.031235574
0.011798819 0.13170412 -0.05098411 -0.0031104297 -0.026525425 -0.014792489 -0.019691002 0.094284
0.06972396 0.03879848 -0.088996686 -0.11011981 0.044882275 -0.11260635 0.018159252 -0.06014822
-0.10793034 0.08984696 0.023152616 0.11861198 0.09938128 0.028592074 0.022899777 0.16779126
0.08239469 0.06406664 0.014123723 -0.024326602 -0.10540792 -0.11684541 -0.024221959 0.031672236
0.09896753 -0.1218893 0.024431964 0.12783617 -0.0020276557 0.04740267 -0.01314977 0.09471133
0.039561316 0.039674375 -0.033510476 0.11429882 -0.011411894 0.0743451 0.078009374 -0.093102455
0.11225144 -0.051425077 0.10767966 0.0364827 0.022033656 -0.07306998 0.06469873 0.06991408
-0.048882216 -0.040385637 -0.06886468 0.077413954 -0.005287899 0.0667167 -0.05322883 -0.075735845
-0.0634981 -0.09197231 0.115336 0.11171543 0.0030521872 -0.11233679 0.029528012 -0.011136296
-0.06230307 -0.07429242 -0.0061116596 -0.037871495 0.041291427 -0.14574032 0.104564995 0.05699765
0.097227655 0.08391489 -0.13728645 -0.04024329 -0.01797808 0.11315654 0.077978365 0.01383817
0.094128095 -0.08384014 -0.03912572 0.060198117 0.07952916 -0.040468127 -0.011235643 -0.030784743
0.04244134 -0.102489516 -0.09335317 0.016840022 0.046133284 0.05349053 -0.08198907 0.038433727
0.021828245 -0.081234366 0.09058913 -0.003537086 -0.118998095 0.07815063 -0.09971821 -0.075660914
0.13736065 0.043587793 0.057124745 0.038120423 -0.007816893 -0.10556404 0.1031079 -0.10604071
0.06240149 0.11824862 0.07932853 0.14292197 0.02080283 0.05238444 0.08925188 -0.1304383
-0.027119711 -0.09973065 0.08460477 -0.045833483 0.16100666 0.10504666 -0.13962118 -0.041295856
0.0023079375 0.14518487 -0.09800676 0.020409958 -0.042456336 0.02048899 0.10953879 -0.05762139
0.078711726 0.006725783 -0.1095037 0.078081906 -0.09485879 -0.08763731 -0.03422628 -0.012137136
0.038466178 0.036956325 0.00033481538 -0.07749353 -0.0702134 -0.069727644 -0.056854498 -0.038331363
0.05900706 0.03911915 -0.037616495 -0.0644028 0.020931616 -0.11044846 -0.1444079 -0.05506776
-0.030938534 0.041348748 0.044930425 0.036394127 0.029033327 -0.07273474 0.054059606 -0.07065071
-0.027812164 -0.14130092 -0.090209335 -0.056863215 0.03997185 0.032987934 -0.09563754 0.02605671

lstm.bias_ih_l0 f4 [256]
00000000: 8001 fcbd dc6e 263d 4866 9fbd 6447 7a3d
00000010: 0f80 94bd bdc1 f3bc 3293 1ebd debc 2dbd
00000020: a56b 01be 3a69 cd3d d644 c1bd 80f7 b43d
00000030: 6cea 7b3c b01c c8bd 8c6b 0e3a e833 ab3d
00000040: 469c 40bd 0dba 7abc 2fcb 473c 09a9 ef3d
00000050: cca0 003e c3f6 563c 961c d0bd 5f66 97bd
00000060: 7e38 403d 6625 90bd 44a4 d23c 253e a93d
00000070: 555c c53c e27b 17bd b713 ea3d 9e04 07bd
00000080: 218f 583b 40af 0b3e a673 353c 18bd e53d
00000090: 3160 683b 01ef 3f3b 1fae 6c3d 0930 cabd
000000a0: 902a d6ba ee10 dc3c 67fd ae3d cd00 b7bd
000000b0: 86cc b2bd cfca bb3d ea31 173d 5f27 40bd
000000c0: 93dc 383c 3fe8 bebc c26f a93d 2173 db3d
000000d0: 7ac5 c23c d5c2 c2bd 1783 f3bd fb80 1a3b
000000e0: 39a0 24bd e33e b23d 1d0b 283d 8882 063d
000000f0: 5dc2 b9bc 9cbe 1f3d b90d da3b 47e3 afbc
00000100: eda3 6a3d ffaa abbd 5d9a 1c3c f112 dd3d
00000110: d25f c13d 1d9b 503d c96d cebd 395f db3d
00000120: 6323 a4bd a054 053e f701 493d c4bc aabb
00000130: a2df 823d 4740 e13b 7574 97bd 2e69 5fbd
00000140: db71 61bd f935 b13c 867a 9ebd a738 9e3d
00000150: 9e4a 8c3d fac7 9b3d a3cd bdbd 0180 c23c
00000160: 2d82 043e 6e44 8b3d 5fd3 70bd a2fe 283d
00000170: e648 f93c b0b8 0cbd 738a 2f3d 61b8 b8bc
00000180: a1f6 13bd 5131 f33d a113 c8bd a339 603d
00000190: a225 a3bb 1513 b0bd 4d60 bc3d 4db0 cd3d
000001a0: 87b7 d63d 2a84 febc 47fe c2b9 8623 34bb
000001b0: f1f9 6ebd 285b 7b3d 84ec 8dbd f8e1 ffbc
000001c0: 2c63 a53c 12d8 cc3d 3f0e 03bd e8c8 90bb
000001d0: 8d50 e4bd 07d9 bdbd beee b8bd b470 b73d
000001e0: b301 1fbd ebb8 253c 10e5 123c 3cca 643d
000001f0: ca8a 16bc 95b0 b93d e160 2fbd 2fc9 2b3e
00000200: df09 cdbd 248b 963d 48bb 2e3d 4c64 c73d
00000210: 56d3 dcbd 2a14 133d 39ed e1bc 46cf 1fbd
00000220: bc91 953d d25b 0abe 0ef8 2d3c 9bba 3abd
00000230: 6c01 94bd a446 973d e333 71bd d6fc 9c3c
00000240: b71a 91bd b211 8d3d 4e34 81bc 3ea5 053d
00000250: 47f5 253d 858c dbbc 6d58 f53d 9014 043e
00000260: 0c74 04bc f6a3 88bd b222 bbbc 8659 a43d
00000270: d828 e3bd 16e8 903d 6cc1 c03c 329c 68bc
00000280: cbf4 babc fea8 c33d e22a 34bc 71a5 aabd
00000290: ab5a 00be d2cf 0bbd 2603 523d 9ac0 e9bd
000002a0: a61d 0f3e ec9a e93d cf2b 0e3c 0094 debc
000002b0: f15a 5b3c 569f f9bd 36cb afbd a3f1 143d
000002c0: e614 9ebd 6395 283d f508 d7bd fde7 5e3d
000002d0: 89c2 cd3d 3cd7 68bd f0ad a9bc bca0 a9bd
000002e0: e1f3 493d e3f1 b7bd 1648 013d fedc 61bd
000002f0: 9a3f 0dbd cf78 ee3d 349d fd3c 32ab ca3d
00000300: b5f0 ffbd b7a6 d1bd 25e4 603d 09fa d7bb
00000310: e747 d13d 6860 e4bb d5d6 563c ac53 983d
00000320: 3d4c 923d 20ee 2cbd a6cd 57bc 8707 99bd
00000330: 001a 093e cd42 153d 4613 b63d 3b26 9a3c
00000340: 11f4 5a3d 9ef8 f23c 1e4f 2b3d 7a03 f2bc
00000350: 8595 a83d 41e4 8f3b d497 94bd 7dfe 933c
00000360: e58a dd3c daa1 913d f961 c4bd 5944 d43d
00000370: 4cea 823d fa61 683d b7fe 4c3d 906e d5bc
00000380: 204b 61bd b4c4 a6bc f035 5a3c 2067 a23d
00000390: eca7 bcbb 778a 64ba 93fe 4f3d 0a50 f4bd
000003a0: 6d51 e63d 6425 903d 50cc 34bb 7fcf 03bd
000003b0: e728 8c3b 4f44 02be 747b 9fbd 3806 cf3d
000003c0: 592b 5bbd 6e7f 4f3d cbe3 a6bd 5e89 da3c
000003d0: ed6e 3f3c 5e76 e7bb e672 363d db69 523d
000003e0: 1000 21bd 9485 00bd 90c3 64bd eab2 27bc
000003f0: 9690 b4bc 295e 6cbd c2e6 c0bd 8ca9 1abd
-0.123049736 0.040633067 -0.077831805 0.06110324 -0.07250988 -0.029755468 -0.038714595 -0.042416446
-0.1263872 0.10029836 -0.094369575 0.088362694 0.015375715 -0.09771097 0.0005432896 0.0835951
-0.047024034 -0.015303147 0.012194439 0.11702163 0.12561339 0.013120356 -0.10161702 -0.073925726
0.046928875 -0.07038383 0.025713094 0.08263806 0.024091879 -0.03698338 0.114295416 -0.032963388
0.0033044296 0.13641071 0.011074936 0.112177074 0.0035457725 0.0029286745 0.057783242 -0.09872443
-0.0016339589 0.026863541 0.085444264 -0.089356996 -0.08730416 0.09169542 0.036912836 -0.046912547
0.011283058 -0.023304103 0.08273269 0.107153185 0.023775805 -0.095098175 -0.11890238 0.0023575414
-0.040191863 0.08703401 0.041026223 0.032839328 -0.022675687 0.03900014 0.006654468 -0.021470679
0.057285238 -0.08382224 0.009558287 0.107946284 0.094421044 0.050929178 -0.100795336 0.10711522
-0.08014562 0.13020563 0.04907414 -0.005210491 0.06390311 0.0068741175 -0.07395259 -0.054543667
-0.05504022 0.021632181 -0.07738213 0.07725649 0.068501696 0.07606502 -0.09267738 0.023742678
0.12940283 0.06800161 -0.05879533 0.04125846 0.030430268 -0.03435582 0.042856645 -0.022548856
-0.036123876 0.11874641 -0.09769369 0.054742467 -0.0049788514 -0.085973896 0.091980554 0.10043392
0.10484224 -0.03106888 -0.00037192015 -0.0027486994 -0.05834383 0.06136623 -0.069298774 -0.03123568
0.02018889 0.1000215 -0.031996008 -0.004418481 -0.11148176 -0.0926991 -0.090299115 0.08957043
-0.03881998 0.010114889 0.008965746 0.05585693 -0.009188363 0.090668835 -0.042817 0.16775964
-0.100116484 0.07350758 0.042659074 0.09735927 -0.10782497 0.0359079 -0.027578937 -0.03901603
0.07303187 -0.13511589 0.010618223 -0.045588117 -0.07226834 0.073865205 -0.058887374 0.01916353
-0.070851736 0.06888141 -0.015772011 0.03262829 0.040517118 -0.026800403 0.119797565 0.12898469
-0.008084308 -0.06671898 -0.022843692 0.08024888 -0.11091775 0.07075517 0.02352973 -0.014197396
-0.022821805 0.09553717 -0.010996552 -0.08332337 -0.12534587 -0.03413374 0.051272534 -0.11413689
0.13976154 0.11406502 0.008677437 -0.027170181 0.013388381 -0.12188594 -0.08583681 0.036363255
-0.0771883 0.04115809 -0.10499755 0.05442046 0.1004687 -0.05684589 -0.020712823 -0.08282611
0.049304847 -0.08981683 0.031562887 -0.055142395 -0.034484483 0.11644136 0.03095875 0.09895934
-0.12497083 -0.102368765 0.054905076 -0.006591086 0.102187924 -0.0069695003 0.013112743 0.07437834
0.071434475 -0.04221928 -0.013171589 -0.07472139 0.13388824 0.03644066 0.08890395 0.018817058
0.053455416 0.029659566 0.0418235 -0.029542673 0.082316436 0.0043912237 -0.072555214 0.018065685
0.02704377 0.07110949 -0.09588999 0.10364599 0.06392345 0.056734063 0.050047603 -0.026053697
-0.055003285 -0.020357467 0.013318524 0.07929826 -0.0057573225 -0.00087181426 0.05077989 -0.11929329
0.112459995 0.07038382 -0.00275876 -0.032180306 0.004277337 -0.1272137 -0.07787219 0.10108608
-0.053508136 0.050658636 -0.08148917 0.02667683 0.011684162 -0.007063671 0.04454317 0.051370483
-0.0393067 -0.03137739 -0.055850565 -0.0102355275 -0.0220416 -0.057706986 -0.094190136 -0.03775935

lstm.bias_hh_l0 f4 [256]
00000000: 9076 6cbd 8207 8ebd 82b5 a83d 1c59 073e
00000010: 96dc ce3d b9b1 5c3d 6fe6 a4bd f161 a03d
00000020: 626d 3d3d 4081 cebd ff46 bb3c 1936 96bc
00000030: 4f52 cd3c 7838 cc3d 0f3f b7bd b3fa d0bd
00000040: 31be 85bd 4535 583d b822 dfbd 78bd df3d
00000050: 2861 a9bc 76e3 de3d 278a 013e 3b2a 463d
00000060: 04fa 323d 01be 773c 2f35 cb3d da4c b0bd
00000070: 7769 61bd 4654 48bd 1634 043e 07de c13d
00000080: c84a 4d3d db79 4b3d 9541 e2bd c68f 743d
00000090: 5967 93bd d1df 5e3d cd35 aebd cc85 fcbd
000000a0: 706b 9dbd 69fc 6cbd 9e22 753d f94d 0cbe
000000b0: fa15 b93d 8912 823d 5a37 2abd c77d 95bd
000000c0: 7acd f1bd 4d6b fd3d 4991 273b 1f15 b0bc
000000d0: 145e ccbd 128d 42bd 7a2b 60bb 930e 743d
000000e0: 139d abbd 41f2 0b3d 5911 da3d 86f6 58bd
000000f0: 4da5 103d 4886 ab3d 0476 493d 116a 20bd
00000100: a964 8c3c d45d ef3d 29c8 95bd 59d7 cf3d
00000110: ff6d e6bb 069a 0e3d 0218 e2bc f184 edbd
00000120: aba9 a1bc 5c8e a3bd e36e cc3d 1c30 cabd
00000130: 9167 a13d ad7e c8bd 6c79 163e fca5 983c
00000140: 5472 36bb a41b 043e 3765 25bd f926 d4bd
00000150: 5f7e 9e3c 10a6 373e 6bd4 143d 5643 1f3d
00000160: 9991 203e 4529 3f3d 7e7c 933d 9e20 6b3d
00000170: 253c 99bd 9425 ecbb 94e9 f13b da13 28bd
00000180: d44d 82bd cf90 313d 1238 8cbd 7c9c e6bd
00000190: 4cd8 33bd 5684 a5bd 4348 55bd 91ef ecbc
000001a0: bd8e 9d3d 82e9 033e c345 703d aa00 47bd
000001b0: b272 a83d ae2b d43d 500b 1f3d 607c 80bc
000001c0: 2bcc f7bd d8d9 c93c 34a5 063e 72f1 8e3d
000001d0: ec69 5b3d 3d9b 6a3d 5814 a8bd 4ff4 013e
000001e0: 55df a3bd 911f 933d 55a2 2f3d 4ef2 2cbd
000001f0: a82a 733d eb3b c5bc 31e6 593d 9db8 233e
00000200: 9246 d7bd b84f 19bb 76f5 8f3d 83c2 b53d
00000210: 197a a03d 6cc2 93bd 0f9a 303c 0aae af3d
00000220: fe3b 113d 46bb 743d 2a3d fa3c 1981 a43b
00000230: 6c9f 9abd f349 92bd 2bd6 8f3c d2a7 883d
00000240: 4867 03bd af0a 6bbd 3668 6c3d 4036 28bd
00000250: ccb9 973b 3880 6b3d 4cbf a7bc 3a8a b83d
00000260: 5814 bb3d 3fc7 4fbc a97b 99bd dee6 56bd
00000270: d613 223d 78de b3bd 7ebf 92bd 8ec8 80bd
00000280: 09f4 ef3d f757 e13c 1d43 97bd 4601 233d
00000290: 00f1 a2bd 7f72 c3bd 5c11 c3bd 2adf ddbd
000002a0: 8588 9dbd 2bbc bc3d 2091 d93d d90f c43d
000002b0: 77be 4d3b 15b5 e3bc 4746 9f3c 90ae d8bd
000002c0: d5e0 a03d 8895 a83d 79ee d23d 1fb0 e43d
000002d0: afc7 d83d 0cea 0a3c 8723 d5bd 7fc9 a0bc
000002e0: 69e8 a6bd a82f 9b3c 2a18 603d d5b8 933d
000002f0: b8f9 dd3d ef0f e5bd 6662 9ebd f081 00be
00000300: 8113 4bba 3be1 f1bd 564b a13d 0202 f23c
00000310: c246 aa3d c474 253d b859 6bbd c848 c8bd
00000320: 5a23 413d 9ee2 b93c 106d 033e 4cdf eebd
00000330: a7c8 5dbd e50b 933d 756d d93c 65a1 d7bd
00000340: 152e 32bc 2a97 543b f263 a2bd 75e3 e9bd
00000350: fea6 673d 6f1c 3b3c 1073 5f3d d039 083e
00000360: b761 93ba f226 8a3d b9d5 193d a3fd 91bd
00000370: ef09 7fbc 9624 c83c ad4b 873d 959c d2bc
00000380: ff8b 363b 6294 ee3d b6da 443d 2e8c b1bb
00000390: 4592 6c3d ffea 9b3d 6187 96bd 7040 80bc
000003a0: 1c56 7cbd c7a3 86bd a289 243c 484e f3bd
000003b0: 6ca1 b0bd 5a85 ce3d 7aea ea3d 34ac bebd
000003c0: a310 febd 8677 61bd f185 483d a9c4 a8bd
000003d0: cacf 74bb 314a 3e3d 1104 bb3c 175f 15bb
000003e0: db52 90bc 41e2 bf3c b51d e93a d197 cb3c
000003f0: c4cf 753d 3dbe d4bc fdbf 6b3d 3b91 5b3d
-0.057730258 -0.06935026 0.08237745 0.13217586 0.10100667 0.053880427 -0.08051764 0.07831181
0.046246894 -0.10083246 0.022861002 -0.018336343 0.025063662 0.09971708 -0.08947574 -0.10204067
-0.06530417 0.052785177 -0.10895294 0.1092481 -0.02067621 0.108832285 0.12650357 0.048380118
0.043695465 0.015120984 0.09922253 -0.08608408 -0.05503222 -0.048908494 0.12910494 0.094661765
0.050120145 0.049676757 -0.11047665 0.059707426 -0.071974464 0.054412667 -0.085063554 -0.12330207
-0.07686508 -0.057857905 0.059847467 -0.13701619 0.09037395 0.063511916 -0.041556694 -0.07299381
-0.1180677 0.123739816 0.0025568774 -0.021494446 -0.099788815 -0.047497816 -0.0034205602 0.05958421
-0.08379569 0.03416658 0.1064784 -0.052969478 0.035313893 0.083752215 0.049184814 -0.039163653
0.017137842 0.11687818 -0.07313568 0.10148496 -0.0070321555 0.034814857 -0.027599338 -0.11597622
-0.019734224 -0.07986137 0.099820875 -0.098724574 0.07881082 -0.097897865 0.14694756 0.018633835
-0.002783914 0.12901169 -0.04037973 -0.10358996 0.019347368 0.17934442 0.03633539 0.038882576
0.15680541 0.046670217 0.072014794 0.057404153 -0.07482175 -0.007206628 0.007382581 -0.041034557
-0.06362501 0.04335099 -0.06846632 -0.11260316 -0.04390745 -0.08081882 -0.052070867 -0.028922828
0.07693241 0.12882045 0.05866028 -0.048584618 0.082250014 0.10359894 0.038829148 -0.015684307
-0.12099489 0.024640009 0.13148957 0.06979646 0.05356781 0.057276953 -0.08207005 0.12690853
-0.080015816 0.07183755 0.04287942 -0.042223267 0.059366852 -0.024076423 0.053198043 0.15988393
-0.10511507 -0.0023393463 0.0702924 0.08874991 0.07835788 -0.072148174 0.010778918 0.08578117
0.035457604 0.05974891 0.030546743 0.0050202725 -0.075499386 -0.07143011 0.017558178 0.06672634
-0.03208092 -0.057383236 0.05771657 -0.04106736 0.004630303 0.057495326 -0.02047696 0.090107396
0.0913474 -0.012681781 -0.074942894 -0.052466266 0.0395697 -0.08782667 -0.071654305 -0.06288253
0.11716468 0.027507765 -0.07385848 0.039796136 -0.07956123 -0.09543323 -0.095247954 -0.10833581
-0.07692055 0.09215578 0.106233835 0.09573335 0.0031394043 -0.027796308 0.01944269 -0.1058017
0.07855383 0.08231646 0.10299391 0.11166405 0.105849616 0.008478653 -0.10407167 -0.01962733
-0.081497975 0.018943623 0.054710545 0.07212988 0.10838646 -0.1118468 -0.07733612 -0.12549567
-0.0007746742 -0.118105374 0.07875697 0.029541973 0.08314277 0.04039456 -0.05745861 -0.09779507
0.047152855 0.022691067 0.12834573 -0.11663684 -0.054146435 0.07180003 0.026541451 -0.105288304
-0.010875245 0.0032438734 -0.07929219 -0.11420337 0.05655574 0.011420353 0.05455309 0.13303304
-0.0011244331 0.067457095 0.037557337 -0.071284555 -0.015566333 0.024431508 0.06606231 -0.02570943
0.002785444 0.116493955 0.04806014 -0.005418322 0.05775668 0.07613181 -0.0735004 -0.015655726
-0.061605558 -0.06574207 0.01004258 -0.11880165 -0.08624539 0.100840285 0.11470504 -0.09310189
-0.12405517 -0.055045627 0.04895586 -0.08240635 -0.0037355297 0.046457473 0.022829087 -0.0022792274
-0.017617634 0.023423316 0.0017785343 0.024852665 0.060012594 -0.025969619 0.05755614 0.0536053

lstm.weight_ih_l1 f4 [256, 64]
00000000: fa6d a83d 6e99 9b3c 6310 113b 854d 213d
00000010: e723 403d f6d6 453d a611 a23d c33c e93d
00000020: 652f cf3d cc73 323d caad f0bd 4c2d 8f3b
00000030: f85a 01bd 236a aebd 5a51 83bc 775b bd3d
00000040: 8b4b e33d bd25 06be 769f 43bc e26d 87bd
00000050: c77c c93c 721b 27bd b93e c4bd e1b6 8fbd
00000060: 2264 8f3d 3f2d 03bc a0b1 a6bd a03c 5b3c
00000070: 039e 9fbd 314c bfbd fe8b b8bd 0b23 d2bc
00000080: 5b76 9dbc 2034 443c 606a 5b3d b950 a63d
00000090: 5d5a fcbd c265 36bd 8f5a ad3d c28b 0e3d
000000a0: 9dfd 193d e19a 8f3d 6d8f 983b bb5f 80bd
000000b0: 51ef 8a3d b127 873d 0a4b b33d e354 a3bd
000000c0: 0ede 4a3d 5b73 2fbd c882 2cbd 30a5 f1bb
000000d0: ff43 adbd 6631 b53c 7067 d63d 52dd cb3d
000000e0: cd72 d7bd 6372 3ebd 3af5 f13d 67d8 01be
000000f0: 76d7 29bd 0efe adbd af11 87bd 741a 97bc
00000100: 255a a53d b89a c5bd 8642 9abd f9c7 0c3d
00000110: 0a56 a8bd b037 823d 0e21 d63d 9fc8 873d
00000120: f11a 123e 2e23 c6bd bd91 ac3d 2645 99bc
00000130: f792 08bd 7401 a1bd faf2 4abc 4197 ca3d
00000140: 21e5 c1bc 4996 823b 5381 d63d 6bdf 0cbe
00000150: 0802 fbbc 350d 013d 984a acbd c2c9 283c
00000160: 2507 3f3c ab0a b3bd 6dd4 0e3d 2ee2 113d
00000170: c724 61bd 165b c9bd 9b44 ad3d 10cb b23d
00000180: 1447 f4bd 64f9 a9ba c5e4 0d3e aaa9 f7bd
00000190: 88a0 b93d 213b f1bd 2d90 d7bc 2ce0 bbbd
000001a0: 8a29 c23b 4b24 18bc 04c8 6b3b 3be6 aa3d
000001b0: 5a87 fb3d 0a80 adbd 1dae 0fbe 2769 aabd
000001c0: 0854 c83c dc43 b03b 1f7f af3d e389 173d
000001d0: f591 a33c d764 5c3d 53a6 f8bd 43a0 003e
000001e0: 1137 ffba 88c6 aa3d 7a22 c53d da0f de3d
000001f0: 57c2 d03d bfc2 0e3d 7ec5 30bd 9594 abbd
00000200: b7c4 95bd dd09 723c 7dc3 573d 45f9 f83b
00000210: f116 e6bb b74d c2b9 7cea d7bd dc3e c7bc
00000220: 8381 c8bd 8e6e 03bd 7c49 4a3d 34a7 963d
00000230: 5e97 6f3d 898e 0fbd 318f 8f3b 1154 c4bb
00000240: 2144 0d3c 866a 7f3d 9c29 a7bd 2c37 1b3d
00000250: c283 eb3c a756 d6bc a523 643c a47f 953d
00000260: 0958 a5bd e1c6 9d3d 8b23 b23d e589 d23d
00000270: df4b c9bd 28cc 4e3d c4fc 973d a263 61bd
00000280: 8df0 98bd 449d df3d a27c 5cbb 10e9 c03b
00000290: 2f14 5c3b 714e 05bd 8025 0f3d 5127 04be
000002a0: f4c1 b2bc 2149 9cbb 9899 96bd 85c4 42bd
000002b0: 25bd be3d 08e6 01be c756 4cbd 5723 a8bd
000002c0: b543 c53d eca1 9abd 31e6 2d3d 67de ceba
000002d0: 3143 04be 581d f4bb 8d66 dcbd e98b 4fbc
000002e0: b3d1 2abd 68ec cebd ab42 a8bb 01ef d1bc
000002f0: a9b2 e73c 36cf 583d a95b b1bc a332 29bd
00000300: ad41 cc3c 2489 d63b 4bfe 4b3b 5213 0a3d
00000310: 0a82 f93c 8b41 c238 7c45 a7bd 15c0 bebd
00000320: 3b1b e33d 6f74 f9ba 60e3 a63d 8b03 94bc
00000330: 1b56 913d a97d c9bd d709 893b d524 68bd
00000340: bab6 babd 81f6 ae3d c694 96bd a44d 233c
00000350: c4fb ae3d 31ab f9bd b637 a3bd 8064 5abc
00000360: 6d3d 9a3d 8945 6d3d a961 3a3d 40a8 9ebd
00000370: c78e 1e3d 1562 773d ce74 b9bd b715 d83c
00000380: 8530 863d f01f da3d 2645 313d 06c2 db3b
00000390: 6bb0 31bd 8e78 9b3d 5d63 d9bc 03dd e9bd
000003a0: 6f6a 833c 8b28 3bbd f178 81bc 96c5 2d3d
000003b0: 4974 aa3d ea57 893b eb1e ee3d 29db ee3d
000003c0: f5cd 3cbd 54d5 bcbd 3ec2 7dbd c889 5bbd
000003d0: 91ad 91ba 5fd5 7ebb 1da0 e1bd c50e d83d
000003e0: f0bf 2f3d cf76 643d 53c2 853d c965 2dbc
000003f0: a53e ec3d cb94 0cbb 1156 90bd 76fb a53d
0.08224101 0.01899406 0.0022135011 0.03938057 0.04690924 0.048300706 0.079135224 0.113885425
0.10116462 0.043567464 -0.11751898 0.0043694135 -0.031580895 -0.08516338 -0.016030002 0.09245961
0.11098393 -0.13100334 -0.011939874 -0.06612755 0.024595631 -0.04079766 -0.09582276 -0.07017303
0.07001521 -0.008006393 -0.08139348 0.013381153 -0.0779381 -0.09340704 -0.090110764 -0.025651475
-0.019221475 0.011975318 0.053568244 0.081208654 -0.12321923 -0.044530638 0.08464538 0.034801252
0.03759538 0.07011963 0.0046557696 -0.06268259 0.06783927 0.065993674 0.08754547 -0.07975175
0.049528174 -0.04283462 -0.04211691 -0.007374428 -0.08460235 0.022118282 0.10468948 0.09954323
-0.105199434 -0.046495806 0.118143514 -0.12680207 -0.041465245 -0.08495723 -0.0659517 -0.018445231
0.08073834 -0.09648651 -0.075322196 0.034370396 -0.08219536 0.06358278 0.104555234 0.06630062
0.1426809 -0.09674679 0.08426235 -0.01870973 -0.03334328 -0.07861605 -0.012387032 0.09892131
-0.023668827 0.0039852005 0.104738854 -0.13757102 -0.030640617 0.031506736 -0.08412665 0.010302009
0.011659418 -0.08742269 0.034870554 0.035616092 -0.054966714 -0.098318264 0.08460351 0.08730137
-0.119276196 -0.0012968001 0.138568 -0.12092908 0.09063822 -0.11778856 -0.026313866 -0.09173617
0.005925362 -0.009285997 0.0035977373 0.08344694 0.12281676 -0.08471687 -0.14031263 -0.083208375
0.024454132 0.005379183 0.08569168 0.036996733 0.019967059 0.053807106 -0.12141099 0.12561135
-0.0019471367 0.08338648 0.096257165 0.10842867 0.101933174 0.034853693 -0.043157093 -0.08377949
-0.07312911 0.014772859 0.052676667 0.0075980746 -0.007021778 -0.00037060466 -0.10542771 -0.024321966
-0.097903274 -0.032087855 0.049386486 0.0735611 0.058493964 -0.03504804 0.0043810834 -0.005991467
0.0086222 0.062357448 -0.08162233 0.037894413 0.02874935 -0.026164366 0.013924514 0.07299736
-0.08073432 0.07703949 0.086981855 0.102802075 -0.098289244 0.050487667 0.07421258 -0.055026658
-0.074677564 0.10918668 -0.0033643623 0.005887158 0.0033581366 -0.03254551 0.034947872 -0.12905623
-0.021821 -0.00476946 -0.073535144 -0.047550697 0.0931342 -0.12685406 -0.049887445 -0.082098655
0.09632055 -0.075504154 0.042455856 -0.0015782834 -0.12916256 -0.007449787 -0.107617475 -0.0126676345
-0.04170389 -0.10103685 -0.0051349006 -0.025626661 0.028283434 0.052931987 -0.021650152 -0.041308057
0.02493366 0.00654711 0.0031126912 0.03370983 0.030457515 9.262849e-05 -0.0816755 -0.093139805
0.11089178 -0.0019031892 0.08148837 -0.018068096 0.070965014 -0.09838421 0.004182081 -0.05667575
-0.091168836 0.08543111 -0.07352595 0.009967241 0.08544114 -0.12190855 -0.079696104 -0.013329625
0.07531247 0.057927642 0.045503292 -0.07746935 0.03871038 0.060396273 -0.09055482 0.026377542
0.06552223 0.10650623 0.043278836 0.006706479 -0.043381136 0.07591353 -0.026536638 -0.11419108
0.016041962 -0.04569296 -0.01580474 0.04242476 0.08322961 0.0041913884 0.11626991 0.11662895
-0.046094853 -0.092203766 -0.061952822 -0.053598195 -0.0011114349 -0.0038884503 -0.11016867 0.10549692
0.042907655 0.055777367 0.06531205 -0.0105833495 0.11535386 -0.0021450992 -0.07047666 0.08104603

lstm.weight_hh_l1 f4 [256, 64]
00000000: 2c26 88bd 15e4 dbbc 5019 d4b7 4b0a d7bd
00000010: 7500 2c3d 3ca9 d83d 69cc dcbc 7f92 8e3d
00000020: 1250 cf3d 8463 80bd cfb9 5c3c c134 d2bd
00000030: 902d d4bc 61ff 9fbd 8f19 a4bc f2c3 4abd
00000040: c0f3 76bd e2b0 68bc 86de 36bd 6e86 353d
00000050: 19fd 02bd 7367 58bd 654f c4bd 286e 1e3c
00000060: fc3a fabd e39f e73c e056 263d 20a6 7d3d
00000070: b6c6 5a3d ce9c b6bd b503 b9bc ad8a ae3d
00000080: 41ab a83d a84b 9c3d a27e 00be 9eba 63bd
00000090: 0ccd 26bc 3979 cdbd 6171 0e3e 3a05 e83d
000000a0: 80fb 47bd 70dd 083d 1702 1abe 1735 203c
000000b0: b4c7 3abd 5125 3a3d 9371 03bd d962 433d
000000c0: 0aaf 31bd 2f0d b7bd a48a a53d 749a 7d3d
000000d0: ff84 ab3d 94db d7bd b131 043c 2304 10bc
000000e0: ce67 2a3d 24c2 10b9 17ae b63d 6ddb 9a3d
000000f0: 2480 14bd 1f1f debc cf7f efbd 75ae a8bd
00000100: ad9e 15bc edd4 0cbe e61b 8ebc 331b 873b
00000110: a520 123e fec0 b73d d3ec a7bd 3e75 bfbd
00000120: 2061 3cbd 567c 7dbd 13ff 76bb fe3b a1bd
00000130: 93ba 40bd 62c3 cebd 2c09 0f3e 12ef 433c
00000140: c171 afbd e8b9 15ba b1ae 8ebd 0773 84bd
00000150: 5e29 28be f082 0bbe 54b7 6fbc 7799 8fbd
00000160: 5f59 f03d e96b 423d 8cb5 f03d 073c 203e
00000170: 7b0c b33d 82c6 5f3c a6d0 debb 7902 c9bd
00000180: 9655 213e 3c5c 733c 2e80 e63c ff48 ae3a
00000190: c6d7 5fbd 8dc4 663d bfe0 f9bd 238a 8fbd
000001a0: ffa0 b0bc 2285 dfbc 8725 893d c5e6 81bd
000001b0: cf61 38bd 5162 743d 9908 203d 9b3c 06bd
000001c0: 7b4c f13c f86e 213e 2322 bf3c 442b a4bd
000001d0: 7e25 cd3c 3aee d6bd 06dc 2a3e 6b6c 223d
000001e0: ce35 893d 2a36 8fbd d230 06bd 8585 f2bd
000001f0: ae4d d3bd 079e a83d c18f 7bbd bd0e f6bd
00000200: 2491 c23d 8bd2 b43c 8976 c13d 64b5 b6bc
00000210: 3171 26bd 694e f73d ee0c 3bbd f2ca 43bd
00000220: 7779 c13d d94f 20bc 95c0 97bb 80bb f33c
00000230: 39a5 df3d e15a a5bd 8bfd 9abd 55f1 12bd
00000240: 8404 eebb 72ab ee3d 08b2 55bd fa79 a1bd
00000250: 5943 a53d 81ea 98bd 0f21 98bd d030 1d3c
00000260: c7fd 423d 28cc bcbc 5016 dc3d 6b3f 653c
00000270: 537e fabd 8b58 dfbd 1c25 4d3c 61da f7bd
00000280: b51d ef3d 4755 5b3d 1d9d 153d ea85 f1bd
00000290: 1ed0 a93c 1ea1 f4bd a89b df3d 96ed f7bd
000002a0: a99f 2dbd 9d9f ccbd b004 ad3c a225 ef3c
000002b0: 7c9d b53c 8bcf 7b3a 853a 2fbd 4bc9 163c
000002c0: 859f a4bd 3e45 cd3d 35bd e73d b509 a7bd
000002d0: 9347 d0bd f5ad 84bd fb11 993d dba7 063c
000002e0: cc1c 3dbc 2070 99bc 1849 773d 7376 db3d
000002f0: 39ff c93c 7128 633d 92b9 b4bb 1251 b3bd
00000300: a171 ebbc 344e fc3d 7c66 373d a430 b2bd
00000310: f239 b1bd 8457 ac3c 8840 f1bb 26a7 3f3d
00000320: 80ef d83d d5c7 933d 479a 88bd 1df4 c03d
00000330: cb1a ca3d ad38 19be 78ee a5bd 9f4d f03d
00000340: 5527 023e 2428 123e 9435 9c3d f071 9a3d
00000350: 73e2 9a3d 5598 b73d c57b c7bc 4938 893d
00000360: 24ce 493d b662 e5bd 5e8d 0b3e cd56 55bd
00000370: 3082 90bd 76f4 aebd 210e e93d 5d51 66bd
00000380: d0c9 9bbd b1c2 c2bd 144c 993b e5f7 513d
00000390: 6104 8a3d 7537 4fbd 7007 d9bd 2eec debd
000003a0: ed7e 0dbe 9a4a b9bd 7cba 283d a705 0e3d
000003b0: 802c f1bc 46d5 8abc 1c74 fd3c cdf9 cf3d
000003c0: dd2b 1f3d f712 663d 1770 8f3d 4f2a 823d
000003d0: 07d4 50bd f9d1 67bd 8844 043e 95c7 fabd
000003e0: e4e8 b8bc 4e3f 17be 4812 99bc e9a0 2ebd
000003f0: 8d86 89bd 8c05 e3bd 65e9 973d 8ecf cabc
-0.06647906 -0.026842156 -2.5284156e-05 -0.1050001 0.041992623 0.10579154 -0.02695294 0.06961536
0.10122694 -0.06268981 0.013472035 -0.10263968 -0.025900632 -0.078123815 -0.020031719 -0.049503274
-0.060291052 -0.014202328 -0.04464581 0.044317655 -0.031979654 -0.052833032 -0.09585456 0.009669818
-0.122182816 0.028274482 0.040610194 0.061926007 0.05341216 -0.08916627 -0.022584775 0.08522544
0.08235789 0.07631618 -0.12548307 -0.055597894 -0.010180723 -0.10032887 0.13910438 0.11329122
-0.048823833 0.033414304 -0.1503986 0.009778283 -0.045600608 0.045445744 -0.032090735 0.04770169
-0.04337982 -0.089380614 0.08083084 0.061914876 0.08374976 -0.10539928 0.008068488 -0.008790049
0.041602902 -0.00013805233 0.08919924 0.075613834 -0.036255017 -0.02711445 -0.116942994 -0.082364
-0.00913207 -0.137531 -0.017347287 0.0041231154 0.14270265 0.08972357 -0.081994675 -0.09348534
-0.045991063 -0.061886154 -0.0037688657 -0.07872771 -0.04705293 -0.1009586 0.13968343 0.011958854
-0.08566619 -0.0005711601 -0.069669135 -0.06467252 -0.1642203 -0.13624167 -0.014631111 -0.07011693
0.11735796 0.047466192 0.11753377 0.15647899 0.08742615 0.013658168 -0.006799775 -0.09814925
0.15755305 0.014853533 0.028137293 0.0013296901 -0.054649137 0.05633979 -0.1220107 -0.07008769
-0.021561144 -0.027285162 0.06696611 -0.06342844 -0.045015153 0.059664074 0.0390707 -0.03277264
0.029455414 0.15764987 0.023331707 -0.08016065 0.025042292 -0.10494657 0.16685495 0.039654177
0.066997156 -0.06992753 -0.032761402 -0.11841873 -0.103175506 0.08233266 -0.06141639 -0.1201453
0.095003396 0.022073051 0.09446437 -0.02230329 -0.04063529 0.120755024 -0.045666628 -0.047800966
0.09446996 -0.009784662 -0.004631112 0.029752493 0.109201856 -0.080739744 -0.07567891 -0.035874683
-0.007263722 0.11653794 -0.052171737 -0.07884593 0.08069486 -0.07466603 -0.074281804 0.009594157
0.047605302 -0.023046568 0.10746443 0.013992171 -0.12231126 -0.1090556 0.012521055 -0.12102199
0.11675588 0.053548124 0.036526788 -0.1179312 0.02072912 -0.11944793 0.10918361 -0.12105863
-0.042388592 -0.09991381 0.0211204 0.02919275 0.022169821 0.00096058164 -0.042780418 0.009203265
-0.080382384 0.100229725 0.11315385 -0.08156148 -0.10169902 -0.06478492 0.074741326 0.008218731
-0.01154251 -0.018730223 0.060372442 0.10715952 0.024657832 0.05545849 -0.005515286 -0.08755697
-0.028740706 0.123196036 0.04477547 -0.08700684 -0.0865363 0.021037824 -0.007362429 0.046790265
0.10592556 0.07215849 -0.06670051 0.09421561 0.098683916 -0.14963026 -0.08102125 0.11733555
0.12710316 0.14273125 0.07627407 0.07541263 0.07562723 0.08964602 -0.02435101 0.06700189
0.049268857 -0.11200468 0.13628146 -0.052084733 -0.07056081 -0.08542721 0.11379648 -0.056229938
-0.07606852 -0.09509791 0.0046782587 0.0512618 0.067391165 -0.050589997 -0.10597122 -0.108848915
-0.1381795 -0.09047432 0.04119347 0.03467336 -0.029440165 -0.0169474 0.030939154 0.101550676
0.03886019 0.05617043 0.07003801 0.06355726 -0.050983455 -0.05659673 0.12916768 -0.122450985
-0.022571988 -0.14770243 -0.018685475 -0.042633925 -0.06715117 -0.11085042 0.07417563 -0.024757173

lstm.bias_ih_l1 f4 [256]
00000000: 0f4a e43d 4d6e 193e 817e 033e a3cf 9fbd
00000010: 6506 603c 368c d6bd 11ef f03d 96c6 02bd
00000020: 8198 eb3d 021a f93c 03ab 9ebc 06c6 70bd
00000030: 480a 883d c974 bd3d 4949 b5bc cc78 b73d
00000040: 6070 cf3d 57b7 e5bb ef2e dbbc 1a31 c33c
00000050: 660a 093e a54a 13bd eb9b 91bd 574b ae3d
00000060: 834a e0bc 5e9b 693d 9435 4e3d 9a5d 3a3c
00000070: b64c 663d 7f25 93bd dafd cabd 2858 4dbd
00000080: 9946 8c3d 7579 cb3d bcfa 893d c15d eebd
00000090: 6880 8abc d82b d2bd 3953 633d 6a45 0b3d
000000a0: f95b cc3d f988 053d 8618 d03d 01cf b4bd
000000b0: 75c1 303d 7e73 a83d 7f34 d5bd 934c cd3d
000000c0: 96da e5bb 7439 c93c cef2 a53c 2c87 053d
000000d0: eee1 f1bc 926f c63b 6cba 3c3d 26f3 80bd
000000e0: 29e6 61bd ebef 89bd 42cf 38bd bd37 c8bc
000000f0: b53b 9dbd 2e92 e1bd 7d0c a83d cc31 9f3d
00000100: 858c 66bc efe5 b4bc 859b e4bc 4dce a93d
00000110: a3e3 f33c 40ac 6e3c 7b8a b63d 9e34 f73d
00000120: af2b fcbc dbb1 d2bc 6407 08bc 1df3 813d
00000130: d07b e9bc 0e99 a53d f1e0 de3d 796f 0d3e
00000140: 82c7 b5bb ae81 a03d f7af 4ebb d87b a4bd
00000150: 8f8e b9bc 3b0a 8dbd 226d 103d 15a1 9dbd
00000160: 049b e33d e5ce 8bbd f134 ea3d f79f 303e
00000170: 074d f4bc 07a1 ca3d 04ed cb3c fd4b 08bd
00000180: 113f b73d 79cd 66bd 03c1 e63d 95e9 263d
00000190: 2989 853d a71c 9cbd f07f 99bd 967a c8bd
000001a0: a3e8 4a3d b79e 073e 818a 5e3d e66d 2b3b
000001b0: a22d 743b 6f72 e2bb c6b6 473d 4238 bdbd
000001c0: 19e5 213d 6b56 8dbd 694d 6e3c bd2e d13c
000001d0: 4258 9ebd 0d4c 173e 3d42 eb3b 8f17 b53c
000001e0: bf7d 1c3e 2e8d 083e 2f4a 2c3d bab5 813d
000001f0: 2a99 57bd 1408 cb3d abae 88bd 6ba6 6fbd
00000200: b476 9b3c 5063 5a3d 499b b53c 7418 8cbd
00000210: 4a02 8a3c 7d7e bc3d 44ce 523d e7ef 263d
00000220: 971f 7fbd 8335 02bc e034 7f3d be8b 8b3d
00000230: d073 76bd 10f4 78bd f5e6 ad3d 5185 5cbd
00000240: 580a a23c c347 2ebd e792 06bb bd83 593c
00000250: aaf0 e4bd 99ce a6bc cb24 953c 4c2b 433d
00000260: 6927 28bd 6aac 03bd 7fd7 de3d 9135 c1bd
00000270: f53f f5bd 6287 dbbb c3a0 033b 7b44 0bbd
00000280: 5944 093d 940b 06be 188c 60bd 12cc 893d
00000290: 5425 043a 05dd cebd a653 09bd d3c9 21bd
000002a0: fca7 413d 5ee6 e33d 6af4 293d a2a0 533c
000002b0: 73c3 7b3c 8201 7dbd d05b b83c 85e4 76bd
000002c0: 222f c13d 2c8d d53b eec0 98bd e6bb 7dbc
000002d0: 11ab 99bd 104f ef3d ce0f 623d 2597 c2bd
000002e0: a2c5 883d 7df6 113b ef80 f0bd 5001 12be
000002f0: 1ffa 5dbd 70d8 19bc 4d51 0fbd d02a b93d
00000300: 9bc5 e3bc 47dd 763d 62d5 11ba 2b8b 97bd
00000310: a1a4 943d 7f1a f13d 064f f63d 29cd 60bd
00000320: 8bd0 87bd 1613 e03d 8d58 9a3b d535 8b3d
00000330: 14d0 1dbd 7ebb c73d 0a54 df3d ee9d 1f3c
00000340: 79b1 08bd a3a9 80bd 0822 e8bd 0c12 f63d
00000350: 6446 863d 15b4 d83b 7aa9 133c cf6e 443d
00000360: 57ed e0bd 865f 213d 8fa9 1fbd 0e4c c13d
00000370: bcfe 47bc 738e f13c fb66 cf3d 3f61 a8bb
00000380: 1bd8 413d cac2 59bc de90 ed3d 9f26 09bd
00000390: 5b24 32bd c8d8 fe3d d993 aebd d6a8 84bd
000003a0: 57c9 ae3d 2754 c23d b7c0 b73d f660 903d
000003b0: dbb2 173d 0c27 aa3b c107 cfbc 9d10 a3bc
000003c0: fb94 c2bd 2485 1fbd 8a23 0dbc 5592 ca3c
000003d0: 66a7 71bd 8ca6 fe3d 8e9a 0dbc 012a 71bb
000003e0: bd00 82bb 6df0 85bd d95e 31bd c60a e83d
000003f0: eceb 3fbc 50c7 f2bd eb50 94bd 265d 013d
0.11146938 0.14983483 0.12841226 -0.078032754 0.0136734 -0.10475962 0.11764348 -0.031927668
0.11503697 0.03040791 -0.019368654 -0.0587826 0.06642586 0.092507906 -0.022129672 0.08958587
0.10128856 -0.007010381 -0.026755778 0.023827124 0.13382873 -0.03595986 -0.07109817 0.08510464
-0.02737928 0.057032935 0.050344065 0.011374855 0.0562255 -0.07184886 -0.099116996 -0.0501329
0.06849403 0.099352755 0.06737277 -0.11638976 -0.016906932 -0.10262269 0.05549929 0.034001745
0.0997848 0.03260133 0.101609275 -0.08828545 0.043153245 0.082251534 -0.104104035 0.10024371
-0.007014583 0.024563529 0.02025738 0.032599613 -0.029526677 0.0060557807 0.046076223 -0.06296377
-0.05515114 -0.06735214 -0.04511953 -0.02444064 -0.07677404 -0.1101421 0.08205507 0.0777317
-0.014071588 -0.022082297 -0.027906189 0.08291302 0.029771632 0.014567435 0.08913132 0.12070583
-0.030782549 -0.025719574 -0.008302543 0.06345198 -0.028501421 0.080858335 0.10882748 0.13812055
-0.005547465 0.078372344 -0.0031537989 -0.08031434 -0.022650985 -0.06886717 0.035260327 -0.076967396
0.11113551 -0.068265714 0.11435879 0.17248522 -0.029821886 0.09893995 0.024893291 -0.033275593
0.08947576 -0.056348298 0.11267283 0.040750105 0.06520302 -0.076226525 -0.07495105 -0.097890064
0.049538266 0.13244139 0.054331306 0.0026158034 0.0037258645 -0.006910614 0.04875829 -0.09239246
0.039525125 -0.069012485 0.014544823 0.025534982 -0.077316776 0.14775105 0.007179527 0.02210596
0.15282343 0.13335106 0.042062934 0.0633349 -0.052636303 0.0991365 -0.0667394 -0.058508318
0.0189775 0.053317368 0.022168772 -0.068406016 0.016846795 0.09203813 0.05146624 0.040756132
-0.062285986 -0.0079473285 0.062306285 0.06813763 -0.06016904 -0.06077963 0.08491317 -0.053838078
0.019780323 -0.042548906 -0.0020534338 0.013276038 -0.111787155 -0.020362185 0.01820602 0.047648713
-0.04105321 -0.03214685 0.10880946 -0.09434045 -0.119750895 -0.0066994885 0.0020084835 -0.034000855
0.033512447 -0.13090354 -0.054821104 0.067283764 0.0005040963 -0.1010075 -0.03352704 -0.039499115
0.047279343 0.111279234 0.041492857 0.012916716 0.015366423 -0.061769016 0.022504717 -0.060276527
0.09432818 0.006517073 -0.074586734 -0.015486693 -0.075033315 0.11685002 0.055190854 -0.09501485
0.066783205 0.0022272163 -0.11743342 -0.14258313 -0.054193612 -0.009389982 -0.034989644 0.09041369
-0.027804187 0.06026962 -0.00055631076 -0.07399591 0.07257963 0.11772632 0.12026791 -0.054883156
-0.06631573 0.1094114 0.004710263 0.06797377 -0.038528517 0.09752558 0.10904701 0.009742243
-0.033372376 -0.06282356 -0.11334616 0.12015161 0.06556395 0.0066132643 0.009012574 0.047957238
-0.10982769 0.03939774 -0.038980063 0.094383344 -0.0122067295 0.02948687 0.10127064 -0.0051385458
0.047325235 -0.01329107 0.11599897 -0.033484098 -0.043491703 0.124436915 -0.085242935 -0.064775154
0.08534496 0.09488707 0.08972304 0.07049744 0.037035804 0.005192643 -0.025272252 -0.019905383
-0.09501072 -0.038945332 -0.00861443 0.02472798 -0.058997534 0.1243411 -0.008642806 -0.0036798718
-0.003967373 -0.06539998 -0.043303344 0.1133018 -0.011713963 -0.11854422 -0.072419964 0.031582974
